output/modelparams/dynamicLearning-CONFERENCE-SCUAU-GAT/epoch11_model_state_dict.pth (torch, 125563 bytes, 66 tensors)

in_layer.layers.0.weight f4 [32, 2]
0	0xbc1c03dd	-0.009522405
1	0xbad78815	-0.0016443754
2	0xbc710cea	-0.014712552
3	0xbeed5b70	-0.46358824
4	0xbedeae1a	-0.43492204
5	0x3ed26c55	0.41098276
6	0xbe2a7840	-0.16647434
7	0x3f32d4ec	0.69856143
8	0xbe52a307	-0.20570002
9	0x3dfa456a	0.12220271
10	0xbe78e16e	-0.24304745
11	0xbeb4ed96	-0.35337514
12	0x3ca0779c	0.019588284
13	0xbe73e671	-0.23818375
14	0x3c108639	0.008821064
15	0x3ba1d838	0.0049391054
16	0xbdf99aa6	-0.121877
17	0x3eeba912	0.46027428
18	0xbed522f8	-0.41628242
19	0xbe7c080e	-0.24612448
20	0xbe87d32a	-0.26528293
21	0x3f0cde28	0.55026484
22	0xbec332d8	-0.38124728
23	0x3f1afba8	0.60540247
24	0xbd74b0fc	-0.059739098
25	0x3d2be960	0.04197061
26	0x3f0c0446	0.5469402
27	0xbe9961b6	-0.2995736
28	0xbe758636	-0.23976979
29	0xbda0bfbc	-0.078490704
30	0xbe080baa	-0.132857
31	0x3f1eab91	0.6198054
32	0xbcc3daf4	-0.023908116
33	0xbe77be44	-0.24193674
34	0xbec09317	-0.3761222
35	0xbf499dd7	-0.7875647
36	0xbf11b91c	-0.5692308
37	0x3f46853e	0.7754706
38	0x3dab76ee	0.083722934
39	0x3db0b61d	0.08628485
40	0x3df3f2b5	0.11911527
41	0xbf0af285	-0.54276305
42	0x3e7c1c3b	0.24620144
43	0xbf1fafda	-0.62377703
44	0xbccb6b48	-0.02483143
45	0xbeae7d5a	-0.3408001
46	0x3c69f332	0.014279174
47	0x3c73c8cb	0.014879416
48	0xbec908a2	-0.392644
49	0x3e02838e	0.12745497
50	0x3e8ea197	0.27857658
51	0x3e8f3758	0.2797191
52	0x3ea0a1e9	0.31373528
53	0xbe73d3e5	-0.238113
54	0x3ee5f909	0.4491656
55	0xbf0f27b8	-0.5591998
56	0x3dee652c	0.11640391
57	0xbf154780	-0.58312225
58	0xbe708c32	-0.2349098
59	0xbe995119	-0.29944685
60	0x3e05560a	0.13021103
61	0x3e02cb1f	0.12772797
62	0x3e838a2f	0.25691363
63	0x3dcdd184	0.100497276

in_layer.layers.0.bias f4 [32]
0	0x3be84abe	0.007088988
1	0x3c642c98	0.013926648
2	0x3df0d8d5	0.117601074
3	0x3e212e7c	0.15740389
4	0x3e56b9ee	0.20969364
5	0x3ebcefe5	0.36901775
6	0xbeb38424	-0.35061753
7	0xbbac7179	-0.0052625504
8	0x3e18658f	0.14882492
9	0x3ee078c5	0.4384214
10	0x3ebd99bb	0.3703135
11	0x3efdbc2b	0.49557623
12	0x3d814be1	0.06313301
13	0xbefd527a	-0.49476987
14	0x3daca370	0.08429611
15	0xbeba72d0	-0.3641572
16	0xbe9180ce	-0.28418583
17	0x3f0a067e	0.53916156
18	0x3f10b57b	0.5652692
19	0xbdae5a9c	-0.08513376
20	0x3ddb20a2	0.106995836
21	0xbc161424	-0.009160075
22	0x3cc5d98b	0.024151584
23	0xbc796567	-0.01522193
24	0x3e8159bb	0.2526377
25	0xbe90d044	-0.28283894
26	0x3e479119	0.19488944
27	0x3e90b969	0.28266457
28	0x3ee100a7	0.4394581
29	0x3e783bd2	0.2424157
30	0xbe05fbd0	-0.1308434
31	0xbe905983	-0.28193292

in_layer.layers.2.weight f4 [32, 32]
0	0x3a2b5d3e	0.00065370265
1	0x3b1d57c6	0.0024008616
2	0xbb9b1425	-0.004732626
3	0xbbd9a4a1	-0.0066419397
4	0xbb1a65ab	-0.0023559134
5	0x3b340a6d	0.0027472035
6	0xba25de35	-0.0006327362
7	0x3b0b16a8	0.002122322
8	0xbbae60ad	-0.0053215832
9	0xbae0641f	-0.0017119682
10	0xbc42a939	-0.011881166
11	0xbc82751e	-0.015924986
12	0xbad50a4d	-0.001625368
13	0x3b6bf3ca	0.0036003464
14	0xbb093570	-0.0020936392
15	0xbac0f7bf	-0.0014722272
16	0xba304cbf	-0.0006725303
17	0x3b722cf9	0.0036953075
18	0x3cc2ff22	0.023803297
19	0x3a13d3d6	0.0005639171
20	0x3b71b7b9	0.003688319
21	0x3b8c5310	0.0042823628
22	0x3b0fe8e6	0.0021958887
23	0xbaa8457e	-0.0012838093
24	0xbb7c4f22	-0.0038499315
25	0x3a5614de	0.00081665616
26	0xbbdb07c9	-0.0066842777
27	0x3cb6d3c9	0.022317784
28	0xbc96e24f	-0.01841846
29	0x3b051997	0.0020309442
30	0xb9c0b485	-0.0003675559
31	0x3a9a3ea0	0.0011767931
32	0x3b2064df	0.0024474186
33	0xbe5b9de0	-0.21446943
34	0x3e6f4ecb	0.23369901
35	0x3e71cbec	0.23612946
36	0x3b2c23a6	0.0026266365
37	0xbc82bbd2	-0.0159587
38	0x3c32147e	0.0108691435
39	0xbae4b2af	-0.0017448271
40	0x3ddebb4f	0.1087557
41	0x3dca7c19	0.09886951
42	0x3e2a0bde	0.1660609
43	0x3e94ccbe	0.29062456
44	0x3e47b8c8	0.19504082
45	0xbe31841c	-0.17335552
46	0xbc017de8	-0.007903554
47	0x3e1c7f86	0.15283021
48	0xbe63b7bd	-0.2223806
49	0xbe641afc	-0.22275919
50	0x3eb3c239	0.35109118
51	0x39906db6	0.0002754756
52	0xbea826ab	-0.32842
53	0xbed5fbb4	-0.41793597
54	0xbe51dddb	-0.20494787
55	0x3ab5d3fc	0.001387238
56	0x3e4346b3	0.19069938
57	0x3d41a12d	0.04727285
58	0x3bebd35a	0.007196826
59	0xbec0a20a	-0.37623626
60	0xbdbcbc9b	-0.09215661
61	0xbd8ef0e7	-0.06979542
62	0xbbd65fab	-0.006542166
63	0xbd998446	-0.07495932
64	0x3b72871d	0.0037006803
65	0x3c906369	0.017625527
66	0xbe20f54d	-0.15718575
67	0xbdf0fc5f	-0.11766886
68	0xbcdc8f97	-0.026923938
69	0x3c5758b7	0.01314371
70	0xbd0331e4	-0.03203
71	0x3ab49b5b	0.001377921
72	0xbd9dc13d	-0.07702873
73	0xbc57e94b	-0.01317818
74	0xbd137c4c	-0.03600721
75	0xbe2637f4	-0.16232282
76	0xbb9e5322	-0.0048316875
77	0x3ceae14d	0.028671885
78	0xbd572280	-0.052523136
79	0xbd392a99	-0.04520664
80	0xbc06c5b9	-0.008225852
81	0x3cf07e37	0.029357059
82	0xbe53ce06	-0.2068406
83	0x3ac4464a	0.0014974561
84	0x3d8f0495	0.06983296
85	0x3d888176	0.06665318
86	0x3c5b3825	0.013380085
87	0xba0dde61	-0.000541186
88	0xbd82048b	-0.06348523
89	0x3b1a3967	0.002353275
90	0x3d1bc00d	0.03802495
91	0x3d6fcc39	0.05854437
92	0xbc95f993	-0.018307483
93	0x3a89c61c	0.0010511312
94	0xb9a4ff37	-0.00031470667
95	0x3c010754	0.007875282
96	0x3b5cf8c1	0.0033717605
97	0x3cc065ec	0.0234861
98	0xbdc46f85	-0.09591583
99	0xbe00d881	-0.1258259
100	0xbd0e49f5	-0.0347385
101	0x3bf2de1b	0.007411731
102	0xbbc209f2	-0.0059215957
103	0x3ae898e2	0.0017745758
104	0xbd9b27c7	-0.07575946
105	0xbc9409c9	-0.018071072
106	0xbe08da66	-0.13364562
107	0xbe2e2777	-0.17007242
108	0xbc05f8ac	-0.008176964
109	0x3ce8602a	0.028366167
110	0xbc1d350e	-0.009595169
111	0xbcc8a289	-0.024491565
112	0x3cc0a25a	0.023514915
113	0x3cb816d9	0.022471832
114	0xbe68ef98	-0.22747648
115	0x3a1b0684	0.00059137517
116	0x3d07fa0e	0.033197455
117	0x3d04c28b	0.032412093
118	0x3c997d2b	0.018736443
119	0x36ae8d29	5.2020373e-06
120	0xbd5bb65c	-0.05364071
121	0x3a623abf	0.00086299697
122	0x3dcdf5c0	0.10056639
123	0xbd3591fb	-0.04432867
124	0x3ce56345	0.028001437
125	0x3b1266ee	0.0022339183
126	0xba780ff8	-0.0009462829
127	0x3c450612	0.012025373
128	0xba0c8e92	-0.0005361821
129	0x3c849965	0.016186425
130	0xbdfadc09	-0.122489996
131	0xbddc15a4	-0.10746315
132	0xbcdae79c	-0.026721768
133	0xb923e908	-0.00015631702
134	0xbc55d806	-0.013051992
135	0x3b1ffdfe	0.0024412866
136	0xbd6a6c01	-0.057231907
137	0xbc472537	-0.012154869
138	0xbd8624e6	-0.065500066
139	0xbe0ebe08	-0.13939679
140	0xbbaa6aeb	-0.005200734
141	0x3c8f0b78	0.017461523
142	0xbcc7e040	-0.024398923
143	0xbd7ca055	-0.061676342
144	0x3bc9fc12	0.0061640823
145	0x3d2744dd	0.040837158
146	0xbe4f4e40	-0.20244694
147	0xb8efaf9a	-0.000114291164
148	0x3d7d47d3	0.061836075
149	0x3ca6dc21	0.020368638
150	0x3c4d651e	0.012536315
151	0xb9902265	-0.00027491446
152	0xbd6386d4	-0.055548504
153	0xbb19cb58	-0.002346715
154	0x3c01e8a1	0.007928998
155	0x3dc6efb0	0.097136855
156	0x3e1ea54e	0.15492746
157	0x3b21c5a4	0.0024684453
158	0x3936e4f9	0.00017442172
159	0x3b9867a2	0.004651026
160	0x3b645c37	0.0034845003
161	0x3c8eca8a	0.017430563
162	0xbdfce9e9	-0.12349302
163	0xbe03ddd3	-0.12877588
164	0xbceddf15	-0.029037038
165	0x3cc4cf9f	0.024024783
166	0x3d277f97	0.040893164
167	0x3bee587a	0.007273731
168	0xbd6d6f11	-0.05796725
169	0xbc330d07	-0.010928399
170	0xbdd11c85	-0.10210518
171	0xbdf55a21	-0.11980081
172	0xbba36b1e	-0.0049871346
173	0x3cb99015	0.022651711
174	0xbced4fc5	-0.028968701
175	0xbdbec5be	-0.0931506
176	0xbd63ca5f	-0.055612918
177	0x3ca1a287	0.01973082
178	0xbe805a10	-0.25068712
179	0x3aa1700e	0.001231672
180	0x3d9d84cd	0.07691345
181	0x3abf7971	0.0014608336
182	0x3c5bab9c	0.013407614
183	0xbb904645	-0.004402908
184	0xbd7eae05	-0.062177677
185	0x3a8b15fc	0.001061141
186	0xbdad47bd	-0.084609486
187	0x3e122c6d	0.1427476
188	0x3d38af69	0.04508916
189	0x3a60643f	0.00085598597
190	0xb9f3b657	-0.00046484426
191	0x3be85de2	0.00709127
192	0x3a964439	0.0011464424
193	0xba6efa8a	-0.0009116313
194	0xbb2e5c74	-0.00266054
195	0x3c3ec0af	0.011642619
196	0x3ad8deb4	0.0016545863
197	0x3b1010ee	0.0021982747
198	0xbbd5b7a9	-0.006522138
199	0x38fb526a	0.000119839635
200	0x3befa5c2	0.007313461
201	0x3a99ee7c	0.0011744048
202	0x3c6e64a6	0.014550364
203	0xbb7974c4	-0.0038063983
204	0x3a663b81	0.00087826705
205	0x38bd1e54	9.017871e-05
206	0xbae5fa7a	-0.0017545961
207	0xbb69fa86	-0.0035702302
208	0xbb92807f	-0.0044708843
209	0x3b0a459b	0.0021098617
210	0x3cbbea02	0.022938732
211	0x3a18ac56	0.000582402
212	0x3b45dd83	0.0030191846
213	0x3b300467	0.0026858093
214	0xba4fe799	-0.0007930934
215	0xb92dc595	-0.0001657217
216	0xb9841432	-0.0002519205
217	0x3acb000e	0.0015487687
218	0x3ccc91d0	0.024971873
219	0x3d458d09	0.048230205
220	0x3b6d9544	0.00362523
221	0xba8f4702	-0.0010931196
222	0xb9c8cdec	-0.00038300396
223	0xbaa0db4d	-0.0012272388
224	0x3ac1e532	0.0014793037
225	0x3c557feb	0.013030986
226	0xbdf7c72d	-0.12098537
227	0xbdd9a30f	-0.10626804
228	0xbcc198ac	-0.02363237
229	0x3d21bdbb	0.03948758
230	0x3c88eed5	0.016715446
231	0x3b689fd7	0.0035495663
232	0xbd4b0dcd	-0.04957371
233	0xbbf1dfa2	-0.0073813954
234	0xbde6923c	-0.11258361
235	0xbe172b06	-0.14762506
236	0xbb5feaf9	-0.0034167154
237	0x3c44499b	0.01198044
238	0xbce522d4	-0.027970709
239	0xbd52250b	-0.05130486
240	0x3cf4c2d1	0.029878052
241	0x3d15f504	0.03661062
242	0xbe4553d0	-0.19270253
243	0xb9a1b0e3	-0.00030840104
244	0x3cc3e2c7	0.023911847
245	0x3cc0b966	0.023525905
246	0x3c22b7ac	0.009931486
247	0xbabf9e3c	-0.0014619301
248	0xbd5e4758	-0.054267257
249	0xbb4ca870	-0.0031228326
250	0x3dbef76a	0.09324534
251	0x3e091c01	0.13389589
252	0xbc4b7373	-0.012417662
253	0x3aace339	0.0013190276
254	0x39988e0b	0.0002909753
255	0x3b7be864	0.0038438076

in_layer.layers.2.bias f4 [32]
0	0x3a4fed0f	0.0007931748
1	0xbd5d7cc0	-0.05407405
2	0xbdaaae80	-0.083340645
3	0xbb9bd347	-0.004755411
4	0xbdd69268	-0.104771435
5	0xbcc93474	-0.024561144
6	0xbd214dd5	-0.039380867
7	0xbdb0b6d2	-0.0862862
8	0x3d8b8b76	0.068137094
9	0xbda2c7c6	-0.0794826
10	0xbcc44105	-0.023956785
11	0x3d51e3e5	0.051242728
12	0xbba09630	-0.0049007162
13	0x3e598c3d	0.21244903
14	0x3bb3fb0f	0.005492575
15	0xbd41a9bb	-0.04728101
16	0xbe4eeda3	-0.20207839
17	0xbcde8739	-0.027164089
18	0x3c35c6db	0.011094774
19	0xbd364a57	-0.04450449
20	0xbd291c32	-0.041286655
21	0x3da29a7c	0.07939622
22	0xbd817063	-0.06320264
23	0xbd8ebade	-0.06969236
24	0x3a59f383	0.0008314179
25	0xbdbe4299	-0.09290046
26	0x3d7c79eb	0.061639708
27	0xbee791bb	-0.4522837
28	0xbca441bb	-0.020050874
29	0xbbb1007a	-0.005401668
30	0x3c8920c8	0.016739264
31	0xbc6b1dd9	-0.014350378

gat_layer_1.layer0_1.0.input_linear_layer1.weight f4 [32, 32]
0	0x39db02d5	0.00041773045
1	0xbd8b6681	-0.068066604
2	0x3cb4089d	0.021976763
3	0x3d0c49ba	0.03425
4	0x3ce9be54	0.028533138
5	0x3dae6cb9	0.08516831
6	0x3986c933	0.00025708377
7	0x3d47ecc4	0.04880978
8	0xbc7e6496	-0.015526911
9	0xbd0df029	-0.034652863
10	0x3a8b9602	0.0010649564
11	0xbb7ad4d4	-0.0038273828
12	0x3df5701c	0.11984274
13	0xbd754d14	-0.05988796
14	0x3d8087c4	0.06275895
15	0x3a1a7532	0.0005892097
16	0xbd88f317	-0.06686991
17	0x3d147c65	0.036251444
18	0x3b6c727c	0.003607898
19	0x3b00ff9d	0.0019683607
20	0xbd2edb07	-0.04268935
21	0x3c8f1bcd	0.017469311
22	0x3db510d3	0.088410996
23	0x3da1abfd	0.07894132
24	0xbb02bd6a	-0.0019949325
25	0xbd9f3807	-0.07774358
26	0x3d8a055b	0.06739303
27	0xbd70981b	-0.05873881
28	0xbcc99335	-0.024606327
29	0xbb3d3e16	-0.0028876117
30	0xba8fad04	-0.0010961597
31	0x39f7cfaf	0.00047266248
32	0x352c8910	6.4274445e-07
33	0xb719cf19	-9.167729e-06
34	0x3575cf59	9.1571343e-07
35	0x3691676f	4.333378e-06
36	0x363ae93b	2.7851918e-06
37	0x3682501d	3.8836283e-06
38	0x34fa1bd6	4.6586382e-07
39	0x3680453c	3.822757e-06
40	0x37a546f8	1.970258e-05
41	0xb61e540e	-2.359276e-06
42	0x34d45457	3.9549442e-07
43	0xb3d69b94	-9.993451e-08
44	0x36c6a945	5.9205654e-06
45	0xb68bb0d0	-4.1631065e-06
46	0x37db600c	2.615156e-05
47	0xb4cb5eae	-3.7880585e-07
48	0xb7130848	-8.763811e-06
49	0x368acbbf	4.1364397e-06
50	0xb591ee9c	-1.0872786e-06
51	0x3483b32a	2.453101e-07
52	0xb61b1bc8	-2.311297e-06
53	0x36b5b0d2	5.414805e-06
54	0x3682abc9	3.8943003e-06
55	0x36855274	3.9733077e-06
56	0x36363b2d	2.7154558e-06
57	0xb719779a	-9.147358e-06
58	0x370fb757	8.566151e-06
59	0xb6ffbf44	-7.6218585e-06
60	0xb6db4afe	-6.535439e-06
61	0x386b7cb3	5.61445e-05
62	0xb62488b4	-2.4517476e-06
63	0xb51602b5	-5.5883294e-07
64	0xba8deba9	-0.0010827678
65	0x3eb937ef	0.36175486
66	0xbd59dfe3	-0.05319203
67	0xbd8ab499	-0.067727275
68	0xbd914584	-0.07093337
69	0xbdd473d5	-0.10373656
70	0xb8eff510	-0.000114420545
71	0xbda52328	-0.08063346
72	0xbe2bce11	-0.16777827
73	0x3d1b658b	0.037938636
74	0xbaca9de9	-0.0015458438
75	0x3abbbb15	0.0014322723
76	0xbe0498bb	-0.12948887
77	0x3e8654ef	0.26236674
78	0x3c5120ea	0.012764195
79	0xba95f06e	-0.0011439451
80	0x3df2e033	0.11859169
81	0xbda46084	-0.080262214
82	0xbb58b28c	-0.0033065407
83	0xbb03f28c	-0.0020133583
84	0x3d65627e	0.056002133
85	0xbddeb3b3	-0.10874119
86	0xbe09f945	-0.13473995
87	0xbdd77c15	-0.10521714
88	0xbd2daf7d	-0.042403687
89	0x3eb72adf	0.35774896
90	0xbe0dc103	-0.1384316
91	0xbdc3801e	-0.09545921
92	0x3dc44270	0.095829844
93	0xbe776fc7	-0.24163733
94	0x3a852f62	0.0010161216
95	0xba6469c6	-0.0008713271
96	0xba835f85	-0.0010022974
97	0x3e99779e	0.29974073
98	0xbd389980	-0.045068264
99	0xbd6d4857	-0.057930317
100	0xbd7baf2d	-0.061446358
101	0xbdc82d33	-0.09774246
102	0x375ffdf8	1.33509675e-05
103	0xbd8e67a5	-0.069533624
104	0xbdc8f8fc	-0.09813115
105	0x3d050038	0.03247091
106	0xbabf8695	-0.0014612252
107	0x3ab7ebef	0.0014032106
108	0xbe189567	-0.14900742
109	0x3e771d93	0.24132375
110	0x3b3ec1da	0.0029107244
111	0xbaab92bc	-0.0013089995
112	0x3e10c191	0.1413634
113	0xbd8be91e	-0.06831573
114	0xbb56c5b8	-0.0032771658
115	0xbad6cceb	-0.0016387975
116	0x3d3c769f	0.046011563
117	0xbda05ff1	-0.07830799
118	0xbe067139	-0.13129129
119	0xbdb8ec55	-0.09029452
120	0xbd10f25f	-0.035387393
121	0x3e8daaf2	0.27669483
122	0xbe25a10e	-0.16174719
123	0xbd44e684	-0.0480714
124	0x3e0a7a73	0.13523273
125	0xbdcad90a	-0.09904678
126	0x3a956226	0.0011397048
127	0xba6cbe95	-0.00090310845
128	0xba817a70	-0.0009878408
129	0x3e8f2b0e	0.27962536
130	0xbd3154d1	-0.043293778
131	0xbd64330e	-0.055712752
132	0xbd7245cd	-0.0591486
133	0xbdb2d66d	-0.08732305
134	0x380ec3ec	3.4037905e-05
135	0xbd89340c	-0.0669938
136	0xbe12aafa	-0.14323035
137	0x3d0067e5	0.03134908
138	0xbabd6c22	-0.0014451782
139	0x3ab6f14a	0.0013957408
140	0xbe0209ad	-0.12699004
141	0x3e66ed05	0.22551353
142	0xbde5732c	-0.11203608
143	0xbab00a20	-0.0013430752
144	0x3e0100bf	0.12597941
145	0xbd870482	-0.06592657
146	0xbb562cc6	-0.0032680496
147	0xbaccb6e4	-0.001561847
148	0x3d261416	0.0405465
149	0xbdb7a4a5	-0.0896695
150	0xbdeb431b	-0.11487409
151	0xbdb1f5c9	-0.08689458
152	0xbd094547	-0.033513334
153	0x3e987dac	0.2978338
154	0xbe22eb1e	-0.15910003
155	0xbd7ec50e	-0.062199645
156	0x3d8e404d	0.06945858
157	0xbddff5dd	-0.109355666
158	0x3a98cb4d	0.0011657268
159	0xba6e9192	-0.0009100671
160	0x38498aac	4.8051283e-05
161	0xba81f1aa	-0.000991394
162	0x388a8d09	6.6066226e-05
163	0x3938f5ab	0.00017639126
164	0x39a120c4	0.00030732725
165	0x3a06cc36	0.0005142124
166	0x383f9fbe	4.568672e-05
167	0x397a7493	0.00023885285
168	0x38498b06	4.805161e-05
169	0xb95f3857	-0.00021287925
170	0x3806b343	3.211504e-05
171	0xb915118e	-0.00014216287
172	0x39f7cebb	0.00047265537
173	0xba575ee0	-0.00082157366
174	0x3753cf8e	1.2624905e-05
175	0xb83d25dc	-4.509637e-05
176	0xb90a74f9	-0.00013204281
177	0x39d3665c	0.0004032132
178	0xb90bf923	-0.00013348884
179	0x389a9515	7.371061e-05
180	0xb9a567d1	-0.00031548602
181	0x3a0aa36e	0.0005288635
182	0x3a0bbb61	0.0005330351
183	0x39a2e300	0.00031068176
184	0x391a740b	0.00014729814
185	0xba5d9ba4	-0.0008453673
186	0x398ff43f	0.00027457063
187	0x3818d30a	3.643617e-05
188	0xb9c44b13	-0.00037439968
189	0xb92ad33a	-0.00016291151
190	0xb9734398	-0.00023199467
191	0xb7874a4b	-1.612785e-05
192	0xba6deb6c	-0.0009075913
193	0x3e830b5d	0.25594607
194	0xbd125e12	-0.035734244
195	0xbd3ed2ae	-0.04658764
196	0xbd4c78c6	-0.049919866
197	0xbd8cf15e	-0.06881975
198	0x390319dc	0.00012502767
199	0xbd67229c	-0.05642949
200	0xbda4651b	-0.08027097
201	0x3cd72b9e	0.026265915
202	0xbab45fd9	-0.0013761475
203	0x3ab6f9dd	0.0013959963
204	0xbde13dc7	-0.10998111
205	0x3e45d799	0.19320525
206	0xbd211009	-0.039321933
207	0xbac83388	-0.0015274147
208	0x3df8d7af	0.121505134
209	0xbd613d37	-0.05499002
210	0xbb541c03	-0.003236533
211	0xbaa19074	-0.0012326376
212	0x3d056076	0.032562695
213	0xbd8cbaab	-0.068715416
214	0xbdce5e2f	-0.10076558
215	0xbd957092	-0.07296862
216	0xbce0f7e9	-0.027461963
217	0x3e8ef1c1	0.2791882
218	0xbe1c3dd3	-0.15257959
219	0x3c1a4681	0.0094162235
220	0x3d81cf34	0.06338349
221	0xbe0b72c7	-0.13618003
222	0x3aa25eb1	0.0012387839
223	0xba7f1dc0	-0.0009731911
224	0xba510053	-0.00079727656
225	0x3e69e5f8	0.22841632
226	0xbcdfe4af	-0.027330725
227	0xbd14898d	-0.03626399
228	0xbd205c71	-0.03915066
229	0xbd69bd22	-0.057065137
230	0x3950c8db	0.0001991125
231	0xbd3549ab	-0.04425971
232	0xbd9ffffa	-0.078124955
233	0x3ca60b0b	0.020268938
234	0xbaab0a3f	-0.0013049318
235	0x3ab9d00c	0.0014176383
236	0xbdae2fda	-0.08505221
237	0x3e230973	0.15921573
238	0xbd56684b	-0.052345555
239	0xbae74346	-0.001764395
240	0x3db2ad89	0.087245055
241	0xbd2fd479	-0.04292724
242	0xbb5231ed	-0.0032073215
243	0xba6aa461	-0.0008950886
244	0x3cb4f56d	0.022089684
245	0xbd82df9a	-0.06390305
246	0xbda2ca3d	-0.0794873
247	0xbd697ad3	-0.0570019
248	0xbca8ed20	-0.020620883
249	0x3e4b0bc0	0.19828701
250	0xbe0a5143	-0.13507561
251	0xbc7699c8	-0.015051313
252	0x3d735188	0.059403926
253	0xbddf5482	-0.109047905
254	0x3aa34f53	0.0012459554
255	0xba8d5435	-0.0010782542

gat_layer_1.layer0_1.0.input_linear_layer1.bias f4 [32]
0	0x3dea14e0	0.11429763
1	0xb80fa56e	-3.4247925e-05
2	0x3c65d785	0.014028435
3	0x3d337b04	0.04381849
4	0x3df8e2c8	0.1215263
5	0xba8fec09	-0.0010980378
6	0x3e0740d9	0.13208331
7	0xbd17a76a	-0.037024893
8	0xb93ab909	-0.00017807273
9	0x39af4a11	0.00033433785
10	0x3d599d1a	0.05312834
11	0x39561ffe	0.00020420548
12	0x3e033f31	0.12817074
13	0xb8e5a897	-0.00010950973
14	0x3c790b4e	0.015200449
15	0x3abe898c	0.0014536842
16	0x3ccf8958	0.025334045
17	0xbd5edc4b	-0.054409306
18	0x3dba47b2	0.09095706
19	0x3da412cc	0.08011398
20	0x3d3a910d	0.045548487
21	0xbd46433a	-0.048403956
22	0xb99bab29	-0.00029691428
23	0xbc456e90	-0.012050286
24	0x3da4e261	0.08050991
25	0xbd031eec	-0.03201191
26	0x3df6e65a	0.12055655
27	0x3da308da	0.07960673
28	0xbb9d3c8e	-0.0047984784
29	0x3e023aaf	0.12717699
30	0x3a433332	0.00074462884
31	0xb930f975	-0.00016877598

gat_layer_1.layer0_1.0.input_linear_layer2.weight f4 [32, 32]
0	0xba3afbea	-0.0007132875
1	0xbc5a6526	-0.01332978
2	0x3b350da2	0.0027626534
3	0xbb1954d5	-0.002339651
4	0xb9cb516e	-0.00038779847
5	0x3acf070c	0.0015794947
6	0xba8b7617	-0.0010640052
7	0xbac1c667	-0.001478386
8	0x3be4aa41	0.0069783037
9	0xbb2574a3	-0.0025246523
10	0xba9258da	-0.0011165396
11	0xb96b11b0	-0.00022417936
12	0x3aede187	0.0018148877
13	0xbbe72d74	-0.007054979
14	0xba6f68ca	-0.0009132741
15	0x3b168290	0.0022966005
16	0x3af10892	0.0018389395
17	0xb881ad81	-6.183517e-05
18	0xbb4caa47	-0.0031229423
19	0xbaba2620	-0.0014202036
20	0xbb4a60f4	-0.0030880542
21	0x3bec40fd	0.0072098956
22	0xbaa902af	-0.0012894477
23	0xba321c7d	-0.0006794406
24	0xbb14cb0d	-0.0022704036
25	0x3cdf676c	0.027270995
26	0x3a6cbe4b	0.00090310414
27	0x3cbeae9a	0.023276616
28	0xb911fd6d	-0.00013922686
29	0x3b4c1f7e	0.00311467
30	0xba54430e	-0.000809715
31	0x3ac7d1cd	0.0015245021
32	0xbbb85ad9	-0.0056260643
33	0x3d034e6c	0.03205721
34	0x3c9fcb79	0.019506203
35	0x3c0c4175	0.008560528
36	0x3d6e2d8f	0.058148917
37	0x3d97c0b0	0.07409799
38	0xbbacfbe5	-0.0052790516
39	0x3d917e43	0.07104161
40	0x3da49898	0.080369174
41	0xbcfbad48	-0.030722275
42	0xbc29b420	-0.010357887
43	0x3b63960d	0.0034726888
44	0x3d9e15fa	0.077190354
45	0x3e07d376	0.1326426
46	0x3d7ab330	0.061206043
47	0xbb71d73e	-0.0036901976
48	0x3d48a9ca	0.04899005
49	0x3d7704fc	0.060307488
50	0xbc80bada	-0.015714098
51	0xbc29d548	-0.010365792
52	0xbd000b7e	-0.03126096
53	0x3d4d2cd9	0.0500916
54	0x3d96ab64	0.07356909
55	0x3d9f47d9	0.07777376
56	0xbbdb9d1b	-0.006702078
57	0x3c20ec49	0.00982196
58	0x3d9e45ba	0.07728143
59	0x3d8419f1	0.064502604
60	0xbbc5f782	-0.006041468
61	0x3d2f76a1	0.042837743
62	0xbbe93c78	-0.007117804
63	0xbb1ec826	-0.0024228184
64	0xbb5375eb	-0.003226633
65	0x3dddf659	0.10838003
66	0xbd45a513	-0.04825313
67	0x3d1e7fca	0.038696088
68	0xbdb8db1f	-0.09026169
69	0xbdbae7bc	-0.09126231
70	0x3beb05b6	0.0071723117
71	0x3cd7557c	0.02628588
72	0x3caea288	0.021317735
73	0x3cee6417	0.029100461
74	0x3b0a10aa	0.0021067061
75	0x3c9ae4db	0.018907955
76	0xbca82888	-0.02052714
77	0xbde13888	-0.109971106
78	0xbe3ef371	-0.18647553
79	0x3bf31e91	0.0074194153
80	0xbd72f0ae	-0.05931156
81	0x3b206e1d	0.0024479695
82	0xbc84f11f	-0.016228257
83	0x382e91b3	4.1620526e-05
84	0x3c8166f9	0.015796172
85	0x3cd9fa94	0.026608743
86	0xbc67d182	-0.014149072
87	0xbd1e6bf2	-0.038677163
88	0xbc6f304b	-0.014598916
89	0x3e1cbe82	0.15307048
90	0x3d4d61ed	0.050142217
91	0xbe0e018a	-0.13867775
92	0xbd1ba6e9	-0.038000975
93	0xbe60f68a	-0.21969047
94	0xbb6dc454	-0.003628035
95	0x3be7927b	0.0070670224
96	0xba667276	-0.000879086
97	0xbd1ff7fc	-0.039054856
98	0x3af46d93	0.0018648378
99	0x3b53c7dd	0.0032315173
100	0x3b1fa0fa	0.0024357424
101	0xbb0a1996	-0.002107238
102	0xbb604c20	-0.0034225062
103	0x3b1632bc	0.0022918424
104	0xbc8ffdc4	-0.01757706
105	0x3bba9da5	0.005695062
106	0x3b12af82	0.0022382443
107	0x3b759b96	0.003747677
108	0xbbcf9a7f	-0.006335556
109	0x3a992853	0.0011684991
110	0xbc491da4	-0.012275133
111	0x3ae26840	0.00172735
112	0x3c4931dc	0.012279954
113	0xbae57063	-0.0017504807
114	0x3c0ec6ba	0.008714372
115	0xb9e77d0c	-0.0004415292
116	0x3bc0ec91	0.005887576
117	0xbbde207d	-0.0067787752
118	0xbb9cff83	-0.0047912016
119	0x3925c09f	0.00015807383
120	0x3a702712	0.00091610954
121	0x3c8bd681	0.017070057
122	0xbc078723	-0.008271965
123	0x3b20cc28	0.002453575
124	0x3c323861	0.0108777
125	0xbd1515a1	-0.03639758
126	0x3beaae97	0.007161926
127	0x3b026715	0.0019897867
128	0xba6e8eaa	-0.0009100238
129	0x3dff8d00	0.124780655
130	0x3ca98734	0.020694353
131	0x3bc85282	0.0061133513
132	0x3ced0153	0.028931295
133	0x3ca89c78	0.020582423
134	0x3a86fcb7	0.0010298704
135	0x3d660556	0.056157432
136	0x3cedde08	0.029036537
137	0xbc008ad8	-0.007845603
138	0xbb6e2132	-0.0036335704
139	0x3ac30f87	0.0014881947
140	0x3d6e6968	0.058205992
141	0xbdb7e0d1	-0.08978427
142	0xbbe83176	-0.0070859743
143	0xbb94fd7c	-0.0045468193
144	0x3b0602e7	0.0020448507
145	0x3c808c53	0.015691912
146	0xbaee5420	-0.001818303
147	0x3b16d812	0.0023016972
148	0xbc655477	-0.013997189
149	0x3d68c2d3	0.056826424
150	0x3d07c85e	0.03315007
151	0x3d4216d6	0.04738506
152	0x3b03158e	0.0020001861
153	0xbb550730	-0.0032505505
154	0x3db43f92	0.088011876
155	0xbd4e115b	-0.05030952
156	0xbd4fc03a	-0.05072043
157	0xbd080b6a	-0.03321401
158	0xbb14e63f	-0.0022720245
159	0xbb18d453	-0.0023319914
160	0x3905f222	0.0001277407
161	0xbd083b37	-0.033259597
162	0x3b517c3d	0.003196492
163	0x3b6e0968	0.0036321525
164	0x3b012349	0.001970487
165	0x39514d59	0.00019960607
166	0xbaa91a46	-0.0012901507
167	0x3b777312	0.0037757796
168	0xbbfc79ac	-0.007704934
169	0x3ace0a59	0.0015719637
170	0x39a6914a	0.00031770236
171	0x3b4233ee	0.0029633003
172	0xbad03bad	-0.0015886925
173	0x3b090c8d	0.0020912022
174	0xbc93c542	-0.018038396
175	0xbb24495c	-0.002506814
176	0x3b21ee5d	0.0024708726
177	0x3a89eeb5	0.0010523411
178	0x3bb42b32	0.0054983133
179	0x3accf590	0.0015637148
180	0x3a7a27f6	0.0009542698
181	0xbb8b9b5e	-0.0042604646
182	0xbaa40846	-0.0012514673
183	0x3b122489	0.0022299609
184	0x38ce65b9	9.841793e-05
185	0x3c3c2994	0.011484522
186	0xbbbb9f7a	-0.005725798
187	0x3b15750d	0.0022805363
188	0x3c02e75d	0.007989732
189	0xbc4912f4	-0.012272585
190	0x3ae5f3f7	0.0017544021
191	0xba871291	-0.0010305216
192	0xba18b09e	-0.0005824658
193	0x3c64b6ea	0.013959626
194	0xba818f06	-0.0009884543
195	0xbafb53ae	-0.0019174719
196	0xba49f69a	-0.0007704288
197	0xba85af04	-0.0010199253
198	0xba731043	-0.00092721375
199	0xbb0a8b82	-0.0021140282
200	0xbcb6ae2b	-0.022299847
201	0xbb407335	-0.0029365544
202	0x3a40d024	0.0007355234
203	0x3b11a2d3	0.0022222295
204	0x3980f3df	0.0002459576
205	0xbc9c70ba	-0.019096721
206	0x3c010922	0.007875713
207	0x3b23e44d	0.0025007904
208	0xbc85db77	-0.01634
209	0xba8c0b0a	-0.0010684442
210	0x39bb1850	0.00035685534
211	0xba8d642a	-0.0010787298
212	0xbba38744	-0.00499049
213	0x3962002c	0.00021553104
214	0xbb531cf2	-0.0032213298
215	0xbb540b07	-0.0032355206
216	0xbbb7487b	-0.005593357
217	0xbc3fd531	-0.011708544
218	0xbc59f6c0	-0.013303459
219	0x3b69c12b	0.0035668116
220	0xbba75c48	-0.0051074363
221	0xbcac92fb	-0.02106618
222	0x3b5b9e7a	0.0033511207
223	0x3b370af2	0.0027930108
224	0xbb5ae1cd	-0.0033398748
225	0x3d136ab1	0.03599042
226	0x3c1f6e02	0.009730818
227	0x3c134ffd	0.008991239
228	0x3c4d949d	0.012547639
229	0x3c5b0468	0.01336775
230	0xba699607	-0.00089106004
231	0x3c76c44f	0.015061452
232	0x3d452e84	0.048140064
233	0xbba198d6	-0.0049315495
234	0xbac9e2d0	-0.0015402678
235	0x3b0b0a5e	0.0021215896
236	0x3cb70706	0.022342216
237	0x3cda883c	0.02667629
238	0x3cd60e4f	0.02612987
239	0xba6c9ab6	-0.0009025739
240	0xbcf394b4	-0.029733993
241	0x3c2eb8dc	0.010664191
242	0x3af1dc27	0.0018452451
243	0xb9586343	-0.00020636343
244	0xbbb569c8	-0.0055362917
245	0x3ca1f72a	0.019771177
246	0x3c5969e6	0.013269877
247	0x3c602b84	0.01368225
248	0x39d5dab2	0.00040789467
249	0x3c34878a	0.011018643
250	0x3d4f2c79	0.05057952
251	0x3c3cbd09	0.011519679
252	0xbc4368f0	-0.0119268745
253	0x3d3a17c2	0.045432813
254	0x3aac600b	0.0013151182
255	0x3aee7f4e	0.0018195899

gat_layer_1.layer0_1.0.input_linear_layer2.bias f4 [32]
0	0xbb6b712a	-0.0035925605
1	0xbd8f8868	-0.07008439
2	0x3d22426d	0.03961413
3	0xbd840abd	-0.06447361
4	0xbd2dc974	-0.04242845
5	0xbcb09b4c	-0.021558426
6	0x3b7ce956	0.0038591227
7	0xbd5852d5	-0.05281337
8	0xbd2466a3	-0.040136945
9	0xbd312f96	-0.043258272
10	0xbd001357	-0.031268444
11	0xbd2adfcf	-0.041717347
12	0x3d66e660	0.056372046
13	0xbdc6574a	-0.09684618
14	0xbdc75468	-0.09732896
15	0x3b337f52	0.0027389121
16	0x3d991cd0	0.07476199
17	0xbcc162c3	-0.023606664
18	0xbcbcd2f0	-0.023049802
19	0xbcb6be68	-0.02230759
20	0xbc899f89	-0.016799705
21	0xbdb1b730	-0.08677518
22	0x3df9acfd	0.12191198
23	0x3b45e45c	0.0030195927
24	0x3db03959	0.08604688
25	0xbdded529	-0.10880501
26	0xbe0160a3	-0.1263452
27	0x3e260c41	0.16215612
28	0x3d877f47	0.06616073
29	0xbdbf2b8e	-0.09334479
30	0xbd6b40c0	-0.057434797
31	0xbd29d84e	-0.04146605

gat_layer_1.layer0_1.0.a_1.weight f4 [1, 32]
0	0x3dfc35ef	0.123149745
1	0xb561acd4	-8.407053e-07
2	0xbf0399e9	-0.51406723
3	0xbee46961	-0.44611648
4	0xbedd9bae	-0.43282837
5	0x381b035f	3.695802e-05
6	0xbebcc84d	-0.36871567
7	0xbe975020	-0.29553318
8	0xb7a1cd5d	-1.9288325e-05
9	0x39bac5ed	0.0003562415
10	0xbebb4d08	-0.36582208
11	0x35d57b3a	1.59056e-06
12	0xbec57a36	-0.38569802
13	0x352ee09d	6.5146907e-07
14	0xbeda4f1d	-0.42638484
15	0x3addbbe5	0.0016916959
16	0xbe37a2f8	-0.17933261
17	0x3d2404cd	0.04004364
18	0xbecb9a80	-0.39766312
19	0x3e4dbaf3	0.20090847
20	0xbee8780a	-0.45404083
21	0xbeaf68fb	-0.3425978
22	0xb792f9ac	-1.7520819e-05
23	0xbe079070	-0.13238692
24	0x3d8d0746	0.06886153
25	0xbe554122	-0.20825627
26	0x3dd45216	0.10367219
27	0x3e138322	0.14405492
28	0xbe9db209	-0.30799893
29	0x3db5535f	0.088537924
30	0x3a8469f3	0.0010102376
31	0x36e23d70	6.742477e-06

gat_layer_1.layer0_1.0.a_2.weight f4 [1, 32]
0	0xbbabc4a3	-0.005241947
1	0x3d35056e	0.04419463
2	0x3da3925b	0.079868995
3	0xba94c24f	-0.0011349412
4	0xbcf071ba	-0.029351104
5	0xbb50e79f	-0.0031876338
6	0x3b80cd1f	0.0039307023
7	0xbc7c62ea	-0.015404442
8	0x3dd9fb72	0.106436625
9	0xbd46a8d9	-0.04850087
10	0xbb46c3a0	-0.0030329004
11	0xbb93549a	-0.0044961693
12	0xbd4761dc	-0.04867731
13	0xbd00de2b	-0.031461876
14	0x3d569c45	0.052395124
15	0xbb213063	-0.002459549
16	0x3e4f83b7	0.20265089
17	0xbbb7c8f2	-0.0056086713
18	0xbbd91c4c	-0.0066256877
19	0x3b038432	0.0020067808
20	0x3d5bea99	0.053690527
21	0x3b00bcc0	0.0019643754
22	0xbee523eb	-0.44753966
23	0xbdef8695	-0.11695591
24	0xbdcc9510	-0.09989369
25	0xbdcf9936	-0.101366445
26	0x3db9037b	0.09033867
27	0x3e134c2f	0.1438453
28	0xbd31e84b	-0.043434422
29	0x3d7a39a5	0.06109013
30	0xbb9c4f62	-0.0047702054
31	0xbb6c2f74	-0.0036039026

gat_layer_1.layer0_1.1.input_linear_layer1.weight f4 [32, 32]
0	0x315f5b5c	3.2502703e-09
1	0x32d6c774	2.500358e-08
2	0xb1727b45	-3.5285705e-09
3	0x3282a6cc	1.5209842e-08
4	0x32c54dd5	2.2969212e-08
5	0x32fe38b1	2.9595272e-08
6	0xb12043cd	-2.3321605e-09
7	0x329c38fa	1.81867e-08
8	0x3264d34e	1.3319392e-08
9	0xb227afbe	-9.7606385e-09
10	0x3033f4be	6.546762e-10
11	0xb11e8b62	-2.3071256e-09
12	0x32b0b7b4	2.0572635e-08
13	0x3259c9c3	1.2676938e-08
14	0x325a3fc1	1.2703766e-08
15	0x315065ca	3.0325844e-09
16	0xb27f3316	-1.4854569e-08
17	0x32e1609c	2.623738e-08
18	0xb18bdfc9	-4.070874e-09
19	0x310acd48	2.0198332e-09
20	0xb2983f7d	-1.7724e-08
21	0x32cc7113	2.3800146e-08
22	0x32faf950	2.9217205e-08
23	0x32c04698	2.2383844e-08
24	0x321ef650	9.252815e-09
25	0x329126a7	1.6897799e-08
26	0x3249fd13	1.1757282e-08
27	0xb2ad6f55	-2.0190479e-08
28	0xb2b93516	-2.1560975e-08
29	0x330509db	3.097544e-08
30	0xb280748f	-1.4954166e-08
31	0xb0630f14	-8.2603546e-10
32	0x3a617c2f	0.00086015736
33	0x3cea4c6d	0.028600896
34	0xba11cff0	-0.0005562296
35	0x3ab5d274	0.0013871924
36	0x3ae2e944	0.001731195
37	0x3b7dc65f	0.0038722975
38	0x3b4ae21d	0.0030957528
39	0x39e70ce2	0.00044069352
40	0x3cd0c43d	0.025484199
41	0xba97baa5	-0.001157601
42	0x390afd38	0.00013255037
43	0x3a3e2262	0.0007253048
44	0x3be0ee24	0.006864326
45	0x3d1e37cf	0.038627442
46	0x3cd3fb5d	0.025876695
47	0x3903f478	0.00012584205
48	0xbca6d24c	-0.02036395
49	0x3b1c7b43	0.002387718
50	0xbb0022e2	-0.0019552042
51	0x3ae2d357	0.0017305416
52	0xbab7bba4	-0.0014017713
53	0x3bed9cb2	0.0072513456
54	0x3b390824	0.0028233612
55	0xba1e5a68	-0.0006040693
56	0x3afcf4d6	0.0019299041
57	0x3cb980e5	0.02264447
58	0x3c89fcc6	0.016844165
59	0xbd12876b	-0.035773676
60	0xbc2c9226	-0.010532891
61	0x3d2269e1	0.039651755
62	0xbab94201	-0.001413405
63	0xba3ac51c	-0.00071247085
64	0x2f864e8e	2.4430274e-10
65	0xb3e0c592	-1.0466751e-07
66	0x31abbfa4	4.998542e-09
67	0xb10dbb3c	-2.062463e-09
68	0xb203e85a	-7.678034e-09
69	0xb2b6523e	-2.1224988e-08
70	0xb17a66bf	-3.6438192e-09
71	0xb1951f5d	-4.3400363e-09
72	0x313cc2f0	2.746841e-09
73	0x3125575a	2.4060314e-09
74	0xb1afa790	-5.11222e-09
75	0xb29c79a1	-1.82161e-08
76	0xb2caf150	-2.3625631e-08
77	0xb36f3381	-5.5693366e-08
78	0x311ccf9f	2.2819007e-09
79	0xb25d73c8	-1.2890219e-08
80	0x30a4274a	1.1943737e-09
81	0xb24afd93	-1.1815604e-08
82	0xb26d156c	-1.3800086e-08
83	0xb033c640	-6.540155e-10
84	0xb203e792	-7.677857e-09
85	0xb2d92c19	-2.5282178e-08
86	0xb2d1885f	-2.4392817e-08
87	0xb20f5143	-8.342172e-09
88	0xb093b1be	-1.0746175e-09
89	0xb3a90ace	-7.871641e-08
90	0xb204a023	-7.719822e-09
91	0xb24ac81e	-1.1803449e-08
92	0x32ebda17	2.7456776e-08
93	0x32db17f2	2.5505845e-08
94	0xb22fbf22	-1.0229799e-08
95	0xaeb495d3	-8.2120664e-11
96	0x3a0f1520	0.0005458165
97	0x3dc67538	0.096903265
98	0xbb984168	-0.004646469
99	0xbaa2a28a	-0.001240806
100	0xb9f89edd	-0.00047420608
101	0x3b751ef9	0.0037402494
102	0x3b69d37b	0.003567903
103	0xbb3ef076	-0.0029135025
104	0x3d3b1007	0.04566958
105	0xbae99170	-0.0017819833
106	0x3a408d2b	0.00073452544
107	0x3abee978	0.0014565429
108	0x3c2bb096	0.010479113
109	0x3daf5b5d	0.08562348
110	0x3d81b805	0.06333927
111	0x39351316	0.00017268615
112	0xbd1db9b7	-0.03850719
113	0x3a2a11fe	0.00064876664
114	0xb9b2bfa2	-0.00034093583
115	0x3b032a5e	0.0020014266
116	0xbaf77873	-0.0018880501
117	0x3c340969	0.010988572
118	0x3afb655f	0.0019179991
119	0xbba1338f	-0.0049194763
120	0x39ccf6a7	0.00039093682
121	0x3d239066	0.03993263
122	0x3cf401c0	0.02978599
123	0xbda3347b	-0.07968994
124	0xbc9e96da	-0.019359041
125	0x3db0b0b8	0.086274564
126	0xb93af747	-0.0001783046
127	0xb9053d08	-0.00012706604
128	0xace393e9	-6.4681494e-12
129	0xae37498d	-4.167471e-11
130	0xae9c2fb9	-7.102536e-11
131	0xae9185e3	-6.6176196e-11
132	0xae85d269	-6.085516e-11
133	0xae86ecd8	-6.1356864e-11
134	0x2b6df9d8	8.454604e-13
135	0xae991836	-6.961935e-11
136	0x2d974e20	1.7201407e-11
137	0x2df0aa42	2.736045e-11
138	0xad25148c	-9.3837264e-12
139	0x2c8f7e24	4.078309e-12
140	0xadb48478	-2.0522459e-11
141	0xaea29f49	-7.395202e-11
142	0x2dd69a06	2.4397383e-11
143	0x2d0d4b4e	8.031643e-12
144	0xadfb0d72	-2.8541367e-11
145	0xae8c4659	-6.378959e-11
146	0x2d5c467c	1.2521203e-11
147	0xaca5e478	-4.714947e-12
148	0xad6cea55	-1.3467079e-11
149	0xae177f99	-3.4446754e-11
150	0xae8cb1dd	-6.398058e-11
151	0xaea15183	-7.335912e-11
152	0xae992866	-6.964811e-11
153	0xae5cc818	-5.0199928e-11
154	0x2e587176	4.9213487e-11
155	0x2e3640b8	4.143949e-11
156	0x2d856c20	1.5168367e-11
157	0xadc539fb	-2.2422056e-11
158	0xab9376d8	-1.0477964e-12
159	0xacb6bfdc	-5.194052e-12
160	0x2de2dda3	2.5791652e-11
161	0xb11234a1	-2.1275712e-09
162	0x2e5c5b80	5.0103477e-11
163	0xae95db52	-6.8146946e-11
164	0xaeaf9ea7	-7.986261e-11
165	0x2d2a6713	9.686268e-12
166	0x2e039e2e	2.9926443e-11
167	0xae5066fd	-4.7385196e-11
168	0x30df1e10	1.623393e-09
169	0xaf544853	-1.9306982e-10
170	0x2d9616db	1.7063176e-11
171	0xac55681c	-3.0326913e-12
172	0x2fbc9b78	3.4307468e-10
173	0xb0988144	-1.1096195e-09
174	0x30d3d4d5	1.5412761e-09
175	0x2c08ad48	1.9422953e-12
176	0xb0a51bf3	-1.2013274e-09
177	0xae9a773d	-7.02429e-11
178	0x2f4548ec	1.7942953e-10
179	0x2ccaea7d	5.7672187e-12
180	0xaec391f8	-8.8935026e-11
181	0x2fa7b08f	3.0502575e-10
182	0xad671cd8	-1.3137234e-11
183	0xad98abd0	-1.73567e-11
184	0xadce9112	-2.3483913e-11
185	0xb103622c	-1.9118813e-09
186	0x30906803	1.0506941e-09
187	0xb090a253	-1.0523514e-09
188	0xafcf034d	-3.7655426e-10
189	0x313112a4	2.5767486e-09
190	0xacddd960	-6.3053313e-12
191	0xae10e12f	-3.2941812e-11
192	0x3a64544b	0.00087100704
193	0x3d1d16cb	0.038351815
194	0xbaa54275	-0.0012608307
195	0x3a7ab831	0.000956419
196	0x3ab4f96f	0.0013807247
197	0x3b7eac4f	0.0038860028
198	0x3b5343a6	0.0032236367
199	0xb90360d7	-0.00012529209
200	0x3cea3e3f	0.028594134
201	0xbaad6b86	-0.0013230897
202	0x39904e6a	0.00027524243
203	0x3a6832ea	0.00088576844
204	0x3bf90ab1	0.0076001515
205	0x3d403a7c	0.046930775
206	0x3cee18f4	0.029064633
207	0x38d8aa3c	0.00010331391
208	0xbcc6ba1e	-0.02425867
209	0x3b0b2d7f	0.0021236835
210	0xbad94728	-0.0016576992
211	0x3aed56a4	0.0018107486
212	0xbac6d996	-0.0015171047
213	0x3c028e50	0.0079685
214	0x3b30f022	0.00269986
215	0xbab112a7	-0.0013509587
216	0x3adb02cd	0.0016709209
217	0x3d08f977	0.033441033
218	0x3ca0eb91	0.019643577
219	0xbd345a2d	-0.04403131
220	0xbc481978	-0.0122131035
221	0x3d49b202	0.049242027
222	0xba9ca860	-0.0011952035
223	0xba26bbf0	-0.00063604023
224	0xab14035a	-5.2584814e-13
225	0xaaeb410e	-4.1789526e-13
226	0x2beddd28	1.6901246e-12
227	0x2bf89cf9	1.7665029e-12
228	0x2bec7000	1.6799895e-12
229	0x2ba989ef	1.2046456e-12
230	0x2b027c35	4.635765e-13
231	0x2c08d412	1.9444485e-12
232	0xabbf71ae	-1.3602919e-12
233	0x2b8d4207	1.0036979e-12
234	0xaa8bbb3c	-2.482128e-13
235	0x291d1364	3.487782e-14
236	0xa9dabf60	-9.714343e-14
237	0xab4f5de5	-7.367148e-13
238	0xabbf32ff	-1.358552e-12
239	0x2a995bb1	2.7241883e-13
240	0x2bcb014e	1.442438e-12
241	0x2bef1ee8	1.699055e-12
242	0xabd6228a	-1.5215201e-12
243	0x2aa57996	2.9394255e-13
244	0xabbfe5ad	-1.3635114e-12
245	0x2a3c296a	1.6712123e-13
246	0x2baaface	1.2148839e-12
247	0x2c131929	2.0903923e-12
248	0x2c0b190f	1.9766998e-12
249	0xaa6101c1	-1.9984623e-13
250	0xab946889	-1.0545047e-12
251	0x2c02c055	1.8580877e-12
252	0x2a888741	2.4252304e-13
253	0xabc2a7f5	-1.3831147e-12
254	0xabedc2ff	-1.6893985e-12
255	0x2ac93a41	3.5745194e-13

gat_layer_1.layer0_1.1.input_linear_layer1.bias f4 [32]
0	0xb51afae2	-5.7734553e-07
1	0x3e87b04b	0.26501688
2	0xb3f303f7	-1.13162905e-07
3	0x3ebed493	0.37271556
4	0xafa50f5e	-3.0024244e-10
5	0xb2d84016	-2.5174852e-08
6	0x3e91c121	0.28467658
7	0xac18d2cd	-2.1717517e-12
8	0x39aafbc0	0.00032612495
9	0x3ebdff6e	0.3710894
10	0x3ec55c66	0.38547057
11	0xb42b0efb	-1.5931066e-07
12	0xb7ea0fc5	-2.7902317e-05
13	0x3ea50758	0.32232165
14	0xafb1726a	-3.2277409e-10
15	0x274f6a1a	2.8784539e-15
16	0x3e493d89	0.1965238
17	0xacb5684e	-5.1559096e-12
18	0x2cab84ec	4.8748696e-12
19	0x3d96b424	0.07358578
20	0x3ebe4edb	0.37169537
21	0x3e8d916f	0.2765002
22	0x2e5255f8	4.7824827e-11
23	0x3ecf4888	0.40485024
24	0x3edf51f1	0.43617204
25	0x3eb8ffeb	0.3613275
26	0x3e9d66ee	0.30742592
27	0xbae74083	-0.0017643127
28	0xb7a0f3ce	-1.9187017e-05
29	0xa14a89ad	-6.8622475e-19
30	0x3e95ca62	0.29255968
31	0x2708faa1	1.9009658e-15

gat_layer_1.layer0_1.1.input_linear_layer2.weight f4 [32, 32]
0	0xba09aec4	-0.00052521774
1	0x3bdc844e	0.006729639
2	0x3a1c8b9a	0.000597173
3	0x3a49da25	0.00077000476
4	0x3b050081	0.002029449
5	0x3b3e1782	0.002900571
6	0x3a79a639	0.00095233653
7	0x3ab65ba0	0.0013912804
8	0x3b684975	0.0035444174
9	0xbabdb36d	-0.0014473029
10	0xba3587c9	-0.00069248356
11	0xb99295af	-0.00027958813
12	0x3b891c27	0.004184264
13	0x3b4a2b0e	0.0030848416
14	0x3b762f5f	0.0037564856
15	0x3a458d24	0.0007535985
16	0xbb39d269	-0.0028354174
17	0x3b0cce24	0.0021485174
18	0xbb1ac740	-0.0023617297
19	0x37afffe5	2.0980786e-05
20	0xbb02b0c2	-0.0019941782
21	0x3b99dbf4	0.00469541
22	0x3b3df706	0.0028986349
23	0x3ad67fd1	0.0016364997
24	0x3a90bdd2	0.0011042899
25	0x3bbaf6df	0.005705699
26	0x3b99fdab	0.004699429
27	0xba87ab6c	-0.001035077
28	0xbb77d656	-0.0037816963
29	0x3ae386c2	0.0017358887
30	0xba626d94	-0.0008637544
31	0x3a414dcc	0.00073739584
32	0xbb24cb6b	-0.002514566
33	0xbcce4dcd	-0.025183583
34	0x3c7479e0	0.014921635
35	0x3c864294	0.016389169
36	0x3d1e2633	0.03861065
37	0x3d135dad	0.035978008
38	0xbb868a45	-0.0041058385
39	0x3d2117f9	0.039329503
40	0x3d91142b	0.07083925
41	0xbcabb4c5	-0.020960221
42	0xbb8e2dfa	-0.004338977
43	0xbbc4ea63	-0.0060093864
44	0x3da08660	0.0783813
45	0x3cadda8d	0.021222377
46	0x3e255f1b	0.16149561
47	0xba1f338d	-0.00060730503
48	0xbcc31c33	-0.023817157
49	0x3d1a10c2	0.037613638
50	0xbc48ecdb	-0.012263502
51	0xbb6e0f41	-0.003632501
52	0xbcf1ca44	-0.029515393
53	0x3dbe03bd	0.09278057
54	0x3d2b16f1	0.041769926
55	0x3d1168d8	0.035500377
56	0x3a07d7d9	0.0005182005
57	0xbc22aefe	-0.009929417
58	0x3e0143fa	0.12623587
59	0xbd3a5e7b	-0.04550026
60	0xbddce984	-0.10786727
61	0x3e36a1c3	0.17835145
62	0xbc023cd7	-0.007949076
63	0xbb70447a	-0.003666191
64	0x3a281e7d	0.00064132345
65	0x3c21dee5	0.009879802
66	0x3c366d3f	0.011134445
67	0x3c0b0e1b	0.00848725
68	0x3c1ca798	0.009561442
69	0x3bfb5e37	0.0076711434
70	0x39a9a711	0.00032358666
71	0x3c53a55a	0.012917841
72	0xbd26cf36	-0.040724955
73	0x39a26073	0.00030970908
74	0x3a022c4d	0.0004965708
75	0xbaee173e	-0.0018164886
76	0xbb37493c	-0.0027967235
77	0xbcfcb810	-0.030849487
78	0xbcd95348	-0.02652897
79	0xba62400f	-0.00086307613
80	0x3d8649e0	0.06557059
81	0x3beb230f	0.00717581
82	0xb903f67e	-0.00012584959
83	0x3a84ef5d	0.0010142137
84	0x3ab8b3ec	0.0014091707
85	0xba2c0858	-0.00065625226
86	0x3b1253f7	0.002232788
87	0x3c11e5a6	0.00890485
88	0x3b23474c	0.0024914322
89	0xbc57a2d8	-0.013161384
90	0x3bfc6535	0.0077024945
91	0x3d5f94f7	0.054585423
92	0x3cbe7ba3	0.023252314
93	0x3c9cc3d4	0.019136347
94	0xba9144d8	-0.0011083139
95	0xba3dc5da	-0.000723926
96	0x3ad581a4	0.0016289246
97	0x3d2860d7	0.04110798
98	0xbb9b64e7	-0.004742253
99	0xbb361506	-0.0027783527
100	0xbb2c7d17	-0.0026319677
101	0xbb444d01	-0.0029953124
102	0xba274e60	-0.0006382223
103	0xbb576f98	-0.0032872912
104	0x3c158f32	0.009128379
105	0x3b1bf658	0.0023797955
106	0x3af9c2e4	0.0019055274
107	0xb953dc86	-0.0002020468
108	0xbaea720b	-0.0017886771
109	0x3d94576c	0.07243237
110	0x3b80ea8c	0.00393421
111	0xba048c8f	-0.0005056345
112	0xb9307df6	-0.00016831592
113	0xbb936b8a	-0.0044989036
114	0x3b9f86a2	0.0048683444
115	0x3ab27a4e	0.0013616772
116	0x3aeb00af	0.0017929281
117	0xbb3a8694	-0.0028461562
118	0xbb7b4bc5	-0.0038344723
119	0xbb8b8796	-0.0042581065
120	0xbb8c8196	-0.004287909
121	0x3d709981	0.058740143
122	0x3ad5dca0	0.0016316362
123	0xbc6f866f	-0.014619454
124	0x3b523dbf	0.003208026
125	0x3cb094be	0.0215553
126	0x3b4c516b	0.0031176459
127	0xba7a35d9	-0.0009544767
128	0x3ad801b5	0.0016480001
129	0x3a4fc56c	0.00079258415
130	0x3ac1cd21	0.0014785865
131	0x3ad9e79f	0.0016624815
132	0x3aa59aa2	0.0012634585
133	0x3ace11c9	0.0015721853
134	0x3ab7895a	0.0014002726
135	0x3af99e3c	0.001904435
136	0x3b2baa4f	0.002619404
137	0xba1a787b	-0.0005892587
138	0x3a8066c6	0.0009796254
139	0xb8352e79	-4.3197044e-05
140	0x3ae42f45	0.0017409107
141	0xba996ba8	-0.0011705058
142	0x3a275266	0.0006382823
143	0xbab93278	-0.0014129421
144	0x3aa9feaa	0.0012969573
145	0x3a946afd	0.0011323389
146	0xba50f60c	-0.0007971234
147	0x3b4a7138	0.0030890238
148	0xba00c701	-0.00049124664
149	0x3aa8a023	0.0012865107
150	0x3aa2fb30	0.0012434479
151	0x3ace630f	0.0015746074
152	0x394d8393	0.00019599339
153	0x3aa870a2	0.001285095
154	0x3b1047e1	0.00220155
155	0x3b3276f4	0.0027231546
156	0x3aa8278c	0.0012829169
157	0x3b67bf5b	0.003536186
158	0xbaad2fb7	-0.0013213073
159	0xbb3a7e14	-0.0028456496
160	0x3a3082bf	0.000673335
161	0xbbd36cec	-0.0064521935
162	0x3b1ab054	0.0023603635
163	0x3b205c4f	0.0024469083
164	0x3afda99d	0.0019352917
165	0x3ad96606	0.0016586191
166	0x3a0cce2a	0.0005371297
167	0x3b0b6ffd	0.0021276467
168	0xbb54b638	-0.0032457244
169	0x3a92c42f	0.0011197383
170	0x3a222d7a	0.0006186586
171	0xba0d9571	-0.00054009916
172	0x39b19b77	0.000338759
173	0xbbcf57c1	-0.0063275998
174	0xbb69161a	-0.0035566152
175	0xba3748a1	-0.00069917185
176	0x3b524a45	0.0032087725
177	0x3ae940e2	0.0017795826
178	0xba049eda	-0.0005059071
179	0x3ae99f69	0.0017823997
180	0x3ab62fc8	0.0013899738
181	0x39c115b2	0.00036827993
182	0x3aaa0939	0.0012972719
183	0x3af513db	0.0018697934
184	0x3b09d5cf	0.002103198
185	0xbb925119	-0.004465234
186	0xbac18e91	-0.001476722
187	0x3b9a3943	0.004706533
188	0x3b095fdc	0.0020961678
189	0xbbae4d81	-0.005319298
190	0xba09f85e	-0.0005263145
191	0xbaca3163	-0.0015426095
192	0x395c54f6	0.00021012485
193	0x3ab87652	0.0014073348
194	0xbab4f39f	-0.0013805515
195	0xba810827	-0.0009844349
196	0x388d6e46	6.743944e-05
197	0x3a82ca32	0.0009978472
198	0xb8b2c400	-8.524209e-05
199	0xb9dcd1a7	-0.00042117873
200	0x3b490235	0.0030671482
201	0xbaf8d9d9	-0.0018985822
202	0x39dc7276	0.0004204695
203	0xb822d896	-3.882552e-05
204	0x3b03e404	0.0020124922
205	0x3b022701	0.0019859674
206	0x3b4e29ab	0.0031457942
207	0x39651c6a	0.00021849727
208	0xbb261d36	-0.0025347
209	0x39dd0928	0.00042159227
210	0x3a4a4566	0.00077160296
211	0x37032e5c	7.819002e-06
212	0xbb064f09	-0.0020493886
213	0x3b1272d8	0.0022346284
214	0x3a9fc570	0.0012189578
215	0x36247b80	2.450979e-06
216	0xba5587ce	-0.00081455417
217	0x39eb9760	0.00044935476
218	0x3b3ef29f	0.0029136313
219	0xbae2578c	-0.0017268523
220	0xbb246d6b	-0.0025089632
221	0x3b5255fe	0.0032094712
222	0x38ae3804	8.3074e-05
223	0x395fc7b7	0.00021341337
224	0xb97ee868	-0.00024309906
225	0xbba3a786	-0.0049943356
226	0x3b197cc9	0.0023420325
227	0x3b2258cf	0.0024772172
228	0x3b18819e	0.0023270617
229	0x3b2447f7	0.0025067308
230	0x399918ce	0.00029200915
231	0x3b2eb9ce	0.0026661041
232	0x3a52b061	0.0008037147
233	0x3844988c	4.6872112e-05
234	0x383ddd1b	4.5267032e-05
235	0x3a8c8b1a	0.0010722608
236	0x3b0301fe	0.00199902
237	0xbbcfb39f	-0.006338551
238	0x3a0a8560	0.00052841567
239	0x3a052bc2	0.0005080068
240	0x3a4188e7	0.0007382766
241	0x3b1aac95	0.0023601402
242	0x3967a55c	0.00022091478
243	0x3a141b4c	0.00056498195
244	0x39891be3	0.00026151453
245	0x3b0ed361	0.0021793472
246	0x3b0eef91	0.0021810273
247	0x3b206aa1	0.0024477618
248	0x3adf6d4a	0.001704612
249	0xbb935f28	-0.0044974275
250	0x3acbe6b5	0.0015556427
251	0x3b45191c	0.003007478
252	0x37e3534c	2.7099297e-05
253	0x39fd39ec	0.00048299076
254	0x3a2999d2	0.00064697594
255	0x385e8008	5.3048163e-05

gat_layer_1.layer0_1.1.input_linear_layer2.bias f4 [32]
0	0x3c542994	0.012949366
1	0x3dc5f232	0.09665336
2	0xbd1d4b2f	-0.03840178
3	0x3dcfc8e9	0.101457424
4	0xbcb02a9a	-0.021504689
5	0xbcdfe523	-0.02733094
6	0xbba29f20	-0.004962817
7	0xbc8ddf58	-0.017318413
8	0xbd2a2f90	-0.041549265
9	0x3d6afd8a	0.0573707
10	0x3dacf4fe	0.08445166
11	0x3c914e78	0.017737612
12	0xbdf72a13	-0.12068572
13	0x3ce443a5	0.027864287
14	0xbda012d0	-0.07816088
15	0x3c028bec	0.00796793
16	0xbd931640	-0.07181978
17	0xbc8c2aaa	-0.017110188
18	0x3d074791	0.033027235
19	0x3d48eefb	0.049056035
20	0x3b67a033	0.003534329
21	0xbd09cb14	-0.033640936
22	0x3e0b0e27	0.13579617
23	0xbe443647	-0.1916133
24	0x3d5ca0ef	0.053864416
25	0x3de8699a	0.11348267
26	0x3d7881a9	0.06067053
27	0xbe180583	-0.14845853
28	0xbdfcb894	-0.12339893
29	0xbd870067	-0.065918736
30	0x3d1c0dfa	0.038099267
31	0x3cfa684f	0.030567316

gat_layer_1.layer0_1.1.a_1.weight f4 [1, 32]
0	0x340884b9	1.2714271e-07
1	0xbe88eb0c	-0.26741827
2	0x308a9e76	1.0085859e-09
3	0xbeecc508	-0.46244073
4	0xaf0a7423	-1.2592287e-10
5	0x2eb5cfe0	8.267853e-11
6	0xbe9c56ae	-0.3053488
7	0x2c304331	2.5048403e-12
8	0x39bd1c16	0.00036069815
9	0xbef0003d	-0.46875182
10	0xbec8a484	-0.39188015
11	0x3349996f	4.6938506e-08
12	0xb82b58f4	-4.085242e-05
13	0xbeafb600	-0.34318542
14	0x2f3a6837	1.6953626e-10
15	0x275d001d	3.0669972e-15
16	0xbe7ab47d	-0.24482913
17	0x2c7de0c3	3.607823e-12
18	0x2c664aa1	3.2726393e-12
19	0xbd81969d	-0.06327555
20	0xbeeb88e9	-0.46002892
21	0xbe9d8071	-0.30762056
22	0x2e0e8ad1	3.2410356e-11
23	0xbedb76e8	-0.42864156
24	0xbefd2428	-0.49441648
25	0xbed69f4a	-0.41918403
26	0xbe9e6b17	-0.30941078
27	0xbbfcf81d	-0.007720007
28	0xb75200de	-1.2517177e-05
29	0x20f11cda	4.084608e-19
30	0xbe9aff32	-0.30272824
31	0x273381c0	2.4911578e-15

gat_layer_1.layer0_1.1.a_2.weight f4 [1, 32]
0	0xbc1a126e	-0.009403808
1	0xbe40f013	-0.18841581
2	0x3bef466b	0.0073020956
3	0xbdee377e	-0.11631678
4	0x3b04c0f3	0.0020256608
5	0x3b99edce	0.004697538
6	0xba560a35	-0.0008164973
7	0x39d7bd76	0.00041149155
8	0x3c691276	0.014225593
9	0xbec922fd	-0.39284506
10	0xbe2d2091	-0.16906954
11	0xbcbf5e29	-0.023360329
12	0x3daca00c	0.08428964
13	0xbde2e753	-0.11079278
14	0x3ccc20d6	0.024918001
15	0xbc817379	-0.015802132
16	0x3c4e1b07	0.012579686
17	0x3a9b2f38	0.0011839634
18	0xbcffae32	-0.031210992
19	0xbc5bded0	-0.013419822
20	0xbe231650	-0.1592648
21	0x3c10d2b7	0.008839301
22	0xbe19c0d6	-0.15014967
23	0x3d85ffbb	0.06542917
24	0xbe6ec93a	-0.2331895
25	0xbea63c2b	-0.3246778
26	0xbd52246f	-0.051304277
27	0x3c81fd38	0.015867814
28	0x3c85c85c	0.01633089
29	0x3cd300a1	0.025757136
30	0xbc6ff539	-0.014645868
31	0xbc77f54c	-0.015134167
