output/modelparams/dynamicLearning-CONFERENCE-SCCompUAU-SAT/epoch0_model_state_dict.pth (torch, 262157 bytes, 148 tensors)

in_layer0.layers.0.weight f4 [32, 3]
000000 3e 92 58 bd 9d 90 fb 3e 7a a4 21 bf 2a 6e da be
       -0.052873842 0.4913377 -0.63141596 -0.42662174
000010 2a 76 92 be ca 18 97 3e b0 e4 26 3d 50 13 1f 3f
       -0.28605777 0.295111 0.040745437 0.62138844
000020 0d 66 19 be e9 d7 53 3e e0 26 a2 be e0 05 80 bc
       -0.14980336 0.20687832 -0.31670284 -0.015627801
000030 6e 38 0a bf 7c d4 0b bf 25 0e da bd f9 06 28 bc
       -0.53992355 -0.546211 -0.10647229 -0.010255569
000040 b9 8b 7d 3e ec af 0f 3f 0b 09 bf be 0e c0 c5 be
       0.24760331 0.5612781 -0.37311587 -0.3862309
000050 9b 42 b6 3e 7f b4 02 3f 10 8e 9e be d4 f0 16 3f
       0.3559769 0.51056665 -0.3096776 0.58961225
000060 10 7d ad bd 70 23 90 bc 13 e4 07 3f cd 3b fe be
       -0.084711194 -0.017595023 0.5308239 -0.49655
000070 2b 6d e9 be 26 14 75 be 0f 50 75 be db bc 32 3f
       -0.455911 -0.23933467 -0.23956321 0.6981942
000080 b9 fa e2 be 98 f0 50 be 37 05 aa be 3e 6d e3 be
       -0.4433191 -0.20404279 -0.33207104 -0.44419283
000090 8a af c5 be 18 3c 21 3f d6 c5 7b 3e 78 fb 7e 3e
       -0.38610488 0.6298232 0.24587187 0.24900615
0000a0 8f 9d 27 3e ea b1 e2 be 34 ab 02 3e d3 d8 00 bf
       0.16368698 -0.44276363 0.12760621 -0.5033085
0000b0 98 8f 8f be 84 73 c8 be 61 df f3 3e 84 45 08 3f
       -0.2803924 -0.3915063 0.47631362 0.5323107
0000c0 9f 6a 88 be a7 8d fb bd c2 b3 fc 3e a1 c1 14 3f
       -0.26643845 -0.122828774 0.49355894 0.58107954
0000d0 ae 7a 54 3e 84 ed 06 bd 66 ca c6 3e 8b 08 07 bf
       0.20749924 -0.032941356 0.38826293 -0.5274741
0000e0 6b f8 7c 3e b2 dc 09 bf 50 04 aa be bc 6f 32 be
       0.24704139 -0.5385238 -0.33206415 -0.17425436
0000f0 25 d3 62 3e a0 50 dd 3e b3 ab fc be ae e4 27 3e
       0.22150858 0.43225574 -0.49349746 0.16395828
000100 68 f1 f3 3e 8d 14 59 be cf 13 02 3d 68 e5 58 bd
       0.47645116 -0.21199246 0.031757172 -0.052953154
000110 c6 a0 14 3f df 75 0e 3f ba 3f 15 bf 6d 2f 82 be
       0.5805782 0.55648607 -0.58300364 -0.25426808
000120 a8 d1 41 3e 57 0f 03 3f 35 6e 22 3f 20 1c fc 3e
       0.18927634 0.5119528 0.6344941 0.49240208
000130 af 7b 52 3e 24 96 23 bf 7d dc bd 3d 59 a1 d7 be
       0.20554994 -0.6390097 0.092705704 -0.42115286
000140 8a e0 de be 62 0c 03 3f d2 6b 12 3f 91 c5 2a bf
       -0.43530685 0.5119077 0.5719577 -0.6670771
000150 ac 89 0e 3e dc 95 51 be 5f c1 00 bd 35 a3 80 be
       0.13919705 -0.20467323 -0.031434413 -0.25124517
000160 fc 0c 93 3e 06 66 bd be 51 37 2a 3e 66 56 15 3e
       0.28720844 -0.369919 0.16622664 0.1458374
000170 94 01 14 3f 27 c9 64 3e eb b1 17 bf 6c 22 c7 be
       0.5781491 0.22342359 -0.59255856 -0.3889345

in_layer0.layers.0.bias f4 [32]
000000 a4 65 9c 3e a4 12 19 3e f8 28 b0 be 2e 2a 8c be
       0.30546296 0.14948517 -0.34406257 -0.2737593
000010 e6 96 09 3f f6 7f da 3e 46 1b 3c be 48 36 c7 bd
       0.5374588 0.4267575 -0.18369779 -0.0972715
000020 03 96 0d bf 81 3f f9 bd af cf 8a be 82 3c c1 be
       -0.55307025 -0.121703155 -0.27111575 -0.37741476
000030 cc b8 da 3c 1f dd cd 3d 5f 36 46 be 17 5d cd 3e
       0.026699446 0.10051941 -0.19356678 0.40110084
000040 02 78 9d be 4a 17 02 3f 89 20 ce 3e 24 e9 0f bf
       -0.3075562 0.50816786 0.40259197 -0.5621512
000050 c8 ee e9 bd be 59 66 3d 0a 6f 18 3e f6 53 01 3e
       -0.11422497 0.05623793 0.14886108 0.12629685
000060 aa 84 6d 3e de b2 4d 3d 05 55 7b be ff e1 a1 3e
       0.23195139 0.05021941 -0.24544151 0.31617734
000070 9b 16 04 bf 5d e5 90 be 75 9a 20 be 6a 45 8f be
       -0.51596993 -0.2829999 -0.1568392 -0.27982646

in_layer0.layers.2.weight f4 [32, 32]
000000 80 57 27 be 0c df 9d bd 17 50 3b bd 98 a3 59 3d
       -0.16341972 -0.077085584 -0.045730677 0.05313453
000010 85 e0 c7 bd 94 94 99 bc 84 56 3a 3e 5c ea f5 ba
       -0.097596206 -0.018747605 0.18197066 -0.0018761861
000020 0e 95 65 3d 01 b7 90 3c 05 44 78 3c 56 63 0a 3e
       0.056050353 0.017665388 0.015152936 0.13514456
000030 46 b9 1e 3e e3 8d 5e 3d a8 c0 34 3e fa 88 90 bc
       0.15500364 0.054334532 0.17651618 -0.01764344
000040 cb 6a c7 bd df 60 e2 bd 58 c1 f4 3d 30 58 a9 3c
       -0.09737166 -0.11053633 0.1195094 0.020671934
000050 dd 5d 34 be 43 f3 60 be 85 13 21 be 7d 72 1a be
       -0.17613931 -0.21967797 -0.15730102 -0.15082736
000060 eb 53 55 bd bf e6 2f 3d 84 3f df 3d 4a 04 71 be
       -0.052081984 0.042944666 0.109007865 -0.23536792
000070 e6 15 06 3e f8 93 07 be 65 11 cb bc 75 33 7f bd
       0.13094291 -0.1324004 -0.024788568 -0.062304933
000080 5d a8 fb bd 0a 5b 1b 3e 9b 09 14 be b0 22 2c be
       -0.12287972 0.15171447 -0.14456789 -0.16810107
000090 d1 6c ab 3d 14 26 d8 3c 6b 57 68 3c 51 94 64 3d
       0.083703645 0.026385345 0.014180998 0.055805508
0000a0 03 9a b2 bd 24 a7 ff 3c 4d ff 27 3e b8 b6 39 bd
       -0.08720782 0.031207629 0.16405983 -0.04534027
0000b0 e2 23 86 3e 39 0e 19 bd cb 27 4c be 61 d4 50 3e
       0.2619925 -0.03736708 -0.19937055 0.20393516
0000c0 66 91 9a 3d 40 77 09 be 32 e8 d5 3d 2b f8 f3 bd
       0.07547264 -0.13424397 0.10444678 -0.11912569
0000d0 25 35 1b be 8c c6 fa bd 53 6a 43 3e b7 af fd bc
       -0.15156992 -0.12244901 0.19083528 -0.030967576
0000e0 9c 21 c3 3d d1 b7 20 bd c8 29 5e bd c6 da 00 be
       0.09527895 -0.0392378 -0.054239064 -0.12583455
0000f0 05 2f 01 be 51 4f ed 3d 23 0f 6f 3e d6 d5 9f 3d
       -0.12615593 0.11587394 0.23345618 0.07804458
000100 69 27 17 bd 75 c4 52 bd 38 1b 86 bd f3 e9 f5 bd
       -0.03690282 -0.051456887 -0.0654816 -0.12007513
000110 a0 14 05 be bb f9 70 3d 18 1c 16 be 5b c0 9e bd
       -0.12996149 0.05883191 -0.14659154 -0.07751533
000120 13 8f de bc 2c 63 c3 3d 7e 16 50 bd 77 7d 06 be
       -0.027167832 0.095404 -0.0508027 -0.13133799
000130 cc 03 04 3b e3 7d 1d 3e e7 be ac bd 40 09 3a 3e
       0.0020143865 0.15380053 -0.08434849 0.18167591
000140 61 1e c0 3c 00 44 e6 3c 87 94 3c bd 22 32 32 bd
       0.023451986 0.028108597 -0.046040084 -0.04350484
000150 ab a6 fd 3d 3b 92 fd 3c bd 3e 13 bd 24 ea bb bc
       0.12385305 0.030953517 -0.035948504 -0.022938795
000160 fa 05 03 be 37 37 8c bd 3a 55 04 3e 10 bc cb bd
       -0.12795249 -0.06846469 0.12923136 -0.099479795
000170 06 d2 bd bc 0d 86 51 3e db 94 0d 3d d2 39 62 bc
       -0.023171436 0.20461293 0.034565788 -0.013807731
000180 26 e6 4d be a6 8e 57 3d 18 7a 90 bd 13 22 4a 3d
       -0.20107326 0.052626275 -0.070545375 0.049348902
000190 fd 4d 16 be 53 a7 f4 bd 48 4e 0a 3d 44 5c a4 3d
       -0.14678188 -0.11945977 0.03376606 0.08025411
0001a0 34 05 8e 3d 3e f7 63 3e b7 8a 1e 3e 07 b3 17 bd
       0.06934586 0.22262284 0.15482603 -0.03703597
0001b0 cb fe 4a 3d 59 4c 15 be 4e 8c 11 3d ee 10 8d bd
       0.049559396 -0.14579906 0.035534196 -0.06887995
0001c0 63 cd b1 3d 74 2e 9c 3d f4 e4 ea bd ff 3a 98 3d
       0.086817525 0.07626048 -0.114694506 0.074331276
0001d0 9f f1 ab 3d 45 6e 60 be af a9 19 3d 58 81 2e be
       0.08395695 -0.21917064 0.03751534 -0.17041528
0001e0 81 a2 b3 bd 5f 02 46 bd 59 08 c6 3a fc 2f 50 bc
       -0.087712295 -0.048342105 0.0015108689 -0.012706753
0001f0 66 e2 62 3e 23 27 75 3c f1 a0 45 be 97 d2 05 3d
       0.22156677 0.014962944 -0.19299676 0.032671537
000200 6e 54 6d be be 66 b1 3d a4 c9 77 bd 1a b6 87 bd
       -0.23176739 0.08662175 -0.060495034 -0.0662653
000210 74 49 26 be e0 9c 37 3d ab cf 0b 3e e2 3c 0b 3e
       -0.16238958 0.044827342 0.13653438 0.13597444
000220 c2 98 e2 3d 3f 29 3b bc e7 6e 3a bd d4 c0 cc 3d
       0.110642925 -0.011423408 -0.04551592 0.099977165
000230 5a 88 c7 3d e1 f4 39 3c 2e 30 04 bd 7e a4 12 be
       0.09742804 0.011349888 -0.03227251 -0.14320561
000240 64 b8 f8 bd 75 a2 a6 b9 78 ba f0 bd 4a df dc bd
       -0.12144545 -0.00031783027 -0.11754316 -0.107847765
000250 4d 4f 09 3e 2a d0 2a be 69 32 9a bd 94 83 64 3d
       0.13409157 -0.16680971 -0.07529146 0.055789545
000260 f4 e1 52 bd b3 10 1c be 0a 3b b9 bd 64 f0 bd 3d
       -0.051485017 -0.15240745 -0.09044464 0.092743665
000270 3d 2a 9d 3d ad 07 37 3e 50 06 02 be 2e 46 d0 3d
       0.07674072 0.17874022 -0.1269772 0.10169636
000280 82 89 ab 3d 87 4c 86 bd 66 01 fc 3c cd 27 8a ba
       0.08375837 -0.06557565 0.030762386 -0.0010540426
000290 e0 b7 e1 3c f1 ae 1b bc d1 61 c3 bd dd 72 76 be
       0.027553499 -0.0095021585 -0.095401414 -0.24067254
0002a0 de 8f 96 3d 0c ad 17 be a4 0e 6d 3e 3c 3f 7d bd
       0.07351659 -0.14812106 0.23150116 -0.061827883
0002b0 6a 57 a1 3d fe 9b 88 3d da c3 1f be 97 c1 0a 3e
       0.07878001 0.06670378 -0.15602055 0.13550411
0002c0 6d 88 95 bc 21 b9 0f be d6 39 94 bd d4 49 9e 3d
       -0.01825353 -0.14035465 -0.07237594 0.07728925
0002d0 f8 30 35 3e d4 e7 b2 3d bf d2 59 be a3 81 f5 bd
       0.17694461 0.08735624 -0.212718 -0.11987617
0002e0 e9 01 a3 3d 1e e6 2b bd 9e 52 04 3d 75 73 38 3e
       0.07959349 -0.041967504 0.032305352 0.18012793
0002f0 71 eb cd bd 46 8b b0 3d b6 31 0a 3d c7 f5 2f bd
       -0.100546725 0.08620314 0.033738814 -0.042959
000300 9f 78 aa ba 3a da e7 3a 6d a7 da bd 02 41 70 3d
       -0.0013005919 0.0017688938 -0.10676465 0.058655746
000310 ef 16 81 3d 59 20 e5 3d fb 27 f9 3d c6 45 82 bc
       0.06303202 0.111878105 0.12165829 -0.015902411
000320 bc 18 d6 3d 03 8e 64 bd 1f ff e8 bd f3 9a f0 bd
       0.104539365 -0.055799495 -0.113767855 -0.11748304
000330 9c 6d 13 3e 6a d0 c7 3d 5b 6a 89 bd 4c 27 1c 3b
       0.14397281 0.09756549 -0.06709739 0.0023827134
000340 10 70 19 3e ac 80 16 3e 05 7e f8 3d 05 0f 2e 3e
       0.14984155 0.14697522 0.12133411 0.16997917
000350 fc c8 0b bc 12 56 a9 bd f1 a8 b8 3d d9 1b 9e 3d
       -0.008531805 -0.0826837 0.09016598 0.07720155
000360 fa 9b 18 be 4a b0 14 3e 02 ac 06 3e 01 f7 9e 3d
       -0.1490325 0.14520374 0.13151553 0.07761956
000370 53 03 97 bd 64 c2 ac 3d 67 5e e5 bd 9b 8c 3e 3e
       -0.07373681 0.084355146 -0.111996464 0.18608324
000380 7e 77 0e be 8c 85 f6 3d a0 ec c8 bc 53 63 01 3e
       -0.1391277 0.12037191 -0.024526894 0.12635545
000390 10 a8 97 bc ef d1 93 3d 64 18 9a bd 51 5a cb 3d
       -0.018512756 0.07217776 -0.075241834 0.09929336
0003a0 c1 ef 9d bd 8c 6f 18 be 8e ef 54 be 59 02 20 3e
       -0.07711745 -0.14886302 -0.20794508 0.15625896
0003b0 bb 12 90 3c a5 20 0b 3e 00 ee 40 3e 42 0a 5a be
       0.017587056 0.13586672 0.1884079 -0.21292976
0003c0 58 a4 9b bd 38 da 27 bd 45 4f 9c bd 35 d6 0c 3e
       -0.075997055 -0.040979594 -0.07632307 0.13753588
0003d0 89 1c 61 be 0f 75 38 be ba 7e 08 be f1 d9 86 bd
       -0.21983542 -0.18013404 -0.13329592 -0.06584538
0003e0 68 e8 ea 3d 6c bf fb 3d 14 3d 22 3e 27 66 ac 3d
       0.11470109 0.1229237 0.15843612 0.084179215
0003f0 ab 24 35 3e 78 58 99 bd c6 b4 de 3d 10 08 4b 3e
       0.17689769 -0.07487577 0.108743235 0.19827294

in_layer0.layers.2.bias f4 [32]
000000 8f 70 2e be 7a f7 b8 bc 19 0e 14 3e a2 51 68 be
       -0.17035125 -0.022578944 0.14458503 -0.2268739
000010 00 60 03 be 14 53 1c 3e bd 05 87 bd 01 bc 55 3d
       -0.1282959 0.15266067 -0.06592891 0.052181248
000020 28 35 41 be 6c a8 0e bd fd d0 d4 bd 9d 45 1e 3e
       -0.18867934 -0.03482859 -0.10391424 0.15456243
000030 34 d3 a5 3d e1 24 c4 bd 86 b5 3f 3d 6b 4d e3 3c
       0.080969244 -0.095773466 0.046803974 0.027746877
000040 00 05 bf bb 06 35 e8 bd d1 fe 70 3c 9e 99 da 3d
       -0.0058294535 -0.113382384 0.01470919 0.106738314
000050 46 98 e8 bd 70 e2 e5 bd 65 0a b1 bd ca 33 d0 3c
       -0.11357169 -0.1122483 -0.08644561 0.02541532
000060 0f 6c 85 3d b8 76 17 3d 9d 8f a2 ba 7a 82 82 bd
       0.06514751 0.036978453 -0.0012402419 -0.06372543
000070 09 6b 00 bd 86 3a 8b bd 0a 6a 45 3e 35 60 32 be
       -0.031352077 -0.06798272 0.19278732 -0.17419513

in_layer1.layers.0.weight f4 [32, 3]
000000 a2 8d bc be fe 7f f0 be 14 18 d8 bd 18 5b e6 3e
       -0.36826807 -0.4697265 -0.105514675 0.44991374
000010 d0 8d 01 3f 66 ab 00 bf c0 eb cc bc 58 82 ad 3e
       0.50607014 -0.50261533 -0.025014758 0.33888507
000020 1c 4d 82 3e 3c 21 f2 3e 20 31 83 bc 1e 9d c6 be
       0.25449455 0.4729098 -0.016014636 -0.38791746
000030 f6 8c c3 3e c0 bb 4a be 2e 0f 99 3e e4 b1 11 be
       0.38193482 -0.19798183 0.29894394 -0.14228016
000040 88 51 7b 3e c8 ef 04 3f 26 6f 09 3f 56 82 06 bf
       0.2454282 0.5192838 0.53685224 -0.52542627
000050 29 89 c3 be c0 71 74 be ae 81 bc be d2 d0 0d 3f
       -0.38190582 -0.23871517 -0.36817688 0.5539676
000060 d0 db 50 bd f0 15 c4 be 55 8a 83 be e3 47 a3 be
       -0.05099088 -0.38297987 -0.25691476 -0.31890783
000070 c0 34 71 3e 90 eb 00 bf 8c cf 09 bf 78 b2 11 bf
       0.23555279 -0.5035944 -0.53832316 -0.56912947
000080 5c 87 7e 3e 96 29 92 3e d2 97 b7 be 48 9b 12 3e
       0.24856323 0.28547353 -0.35858017 0.14317048
000090 b8 35 da 3e 68 ce ab 3d 48 2d fa bd 10 b8 2e 3d
       0.4261911 0.08388978 -0.12215668 0.042656004
0000a0 30 93 7d bd 06 d6 94 3e d0 b7 c8 be b4 e6 95 3e
       -0.061907947 0.29069537 -0.39202738 0.29277575
0000b0 e8 9b a6 3e 3c 19 b3 be 00 61 f1 3e 26 2b 11 3f
       0.32540822 -0.3498019 0.47144318 0.56706464
0000c0 16 12 69 be fa 97 25 be c8 50 93 3e ea 94 e7 be
       -0.22760805 -0.16171256 0.2877257 -0.452308
0000d0 24 cc 69 3e 6c ee 09 3e dc 53 ba 3e ac 61 00 bf
       0.2283178 0.13469857 0.36392105 -0.50149035
0000e0 30 95 f5 be 9a c3 84 3e 80 f5 54 3e 9d 91 09 bf
       -0.47965384 0.25930482 0.20796776 -0.53737813
0000f0 94 d8 a4 be 40 3c 07 bf ea c6 d3 be 49 60 85 be
       -0.32196486 -0.5282631 -0.41362697 -0.26050022
000100 84 9f f4 3e 44 5c eb bd b6 c7 a9 3e 4a 5d 0c 3f
       0.4777795 -0.11492208 0.3316018 0.5482985
000110 4a b7 86 3e 47 50 04 bf 1a c1 94 3e b4 81 61 3e
       0.26311713 -0.51684994 0.29053575 0.22022134
000120 a8 1c e5 3e ef cb 11 bf 00 cd b5 3e ac f6 f1 3e
       0.44748425 -0.569518 0.35507965 0.47258508
000130 6c 82 09 bf 50 6c 77 3d 40 59 fc 3e a6 fe d6 be
       -0.53714633 0.06040603 0.49286842 -0.41991156
000140 80 fc 41 3e d4 9e 82 3e 0c f3 1a 3e a4 f4 12 3f
       0.18943977 0.255118 0.15131778 0.5740454
000150 b4 08 f2 3e 40 9d fd 3e 50 62 93 bd 1c ed f7 3e
       0.47272265 0.49534035 -0.07196486 0.48423088
000160 fe bc 09 bf 28 84 9f be 5c e5 fc bd 38 9f 2f be
       -0.53804004 -0.31155515 -0.12348434 -0.17150581
000170 0c 86 08 3f 02 6d 8b 3e 32 50 be 3e 7a 12 c9 3e
       0.5332954 0.27231604 0.3717056 0.3927191

in_layer1.layers.0.bias f4 [32]
000000 16 d1 dc be c0 f2 88 bd 50 a9 ac 3d b8 c4 19 3e
       -0.4312827 -0.06686926 0.08430731 0.15016448
000010 46 02 98 3e c2 3e 6b be e8 44 32 be f0 57 f7 3e
       0.29689234 -0.22973159 -0.17409098 0.48309278
000020 ae ab 1e be 9a 56 cd be 4a 6e c8 3e 60 2b c8 3e
       -0.15495178 -0.40105134 0.39146644 0.39095592
000030 02 62 39 be 5c 63 ec bd aa 1e da be 43 db f6 be
       -0.18103793 -0.11542389 -0.4260152 -0.48214158
000040 b0 52 5e 3e 20 8f 7c be 18 54 eb 3e 88 b1 ec be
       0.2171123 -0.24663973 0.45962596 -0.46229196
000050 6c 70 a3 bd 40 3e 4c 3c aa ec 97 3e a8 3d ef 3e
       -0.07980427 0.012466013 0.29672748 0.46726727
000060 14 2f c8 3e 98 1f 82 3e 1b ae 87 be bc 1a d3 be
       0.39098418 0.2541473 -0.2650002 -0.41231334
000070 ab 39 04 bf e0 9c ea 3c 94 59 0f 3f 2c 97 e0 bd
       -0.51650494 0.028639257 0.5599606 -0.10966334

in_layer1.layers.2.weight f4 [32, 32]
000000 60 dc f3 bb b0 8b 03 be 7c 4c 5e 3d ca 86 e5 3d
       -0.007442042 -0.12846255 0.05427216 0.112073496
000010 47 78 32 be 62 eb fe bd 19 15 06 3e 94 6f 2b 3d
       -0.17428695 -0.124472395 0.13093986 0.041854456
000020 d0 92 34 bc 50 6f 01 3d 20 2e dc bc 66 0d fd bd
       -0.011021331 0.031600296 -0.026877463 -0.12356071
000030 5e 26 29 be 9e 1d ee 3d 18 3d ac bc e0 74 86 bd
       -0.16518542 0.11626743 -0.021025226 -0.06565261
000040 34 e5 3a bd d8 76 c5 bd ac 75 56 bd bd 63 1b be
       -0.04562874 -0.09641808 -0.052358314 -0.15174766
000050 f3 76 07 3e f4 d5 93 3d 78 95 b6 bd 1e 23 77 bd
       0.1322897 0.07218543 -0.08915228 -0.060336225
000060 92 6c a2 3d 9c 10 86 bd 44 ef 3e 3d 58 5e 47 3d
       0.079308644 -0.06546137 0.0466149 0.048673958
000070 a1 e6 e3 bd e8 61 35 3d 50 35 31 3c 71 19 1e 3e
       -0.11127973 0.044282824 0.010815933 0.15439393
000080 2a fe 82 bd 34 23 3a bd 65 f7 1b 3e 21 d2 13 be
       -0.06396134 -0.04544373 0.15231092 -0.14435627
000090 00 41 51 3c 9d 69 2e 3e 98 53 a2 bd 3f 8a 2d 3e
       0.012771845 0.17032476 -0.079261005 0.16947268
0000a0 35 a0 20 3e d3 68 28 3e f8 2f 8a bc 91 c1 23 3e
       0.15686114 0.16446237 -0.016868576 0.15991808
0000b0 4c bf 9d bd fe da 77 bd 50 ef 88 3d 94 f5 18 3d
       -0.077025026 -0.06051158 0.0668627 0.037343577
0000c0 46 95 c7 3d b3 06 2c 3e db a1 e2 bd c2 24 c0 3d
       0.097452685 0.1679943 -0.11066028 0.09382011
0000d0 28 40 72 3d 02 00 bf 3d 32 ab ab 3d 83 6d 87 bd
       0.059143215 0.09326173 0.08382262 -0.066126846
0000e0 d9 11 0f be 97 e2 10 3e 85 72 ce bd 0e 76 e7 3d
       -0.13971652 0.14148937 -0.100804366 0.11301814
0000f0 68 72 2c be c0 88 fa bc 00 95 f5 3a a0 90 fa 3c
       -0.16840518 -0.030582786 0.0018736422 0.03058654
000100 50 1d 6a 3c 4c 29 64 3d 80 3e a1 bc 68 54 31 3d
       0.014289215 0.055703446 -0.019683123 0.043293387
000110 47 22 33 3e 03 42 ea bd 10 21 1e bc d1 32 8a bd
       0.17493545 -0.11438372 -0.009651437 -0.06747974
000120 eb d4 1e 3e b3 f5 1a 3e e0 f5 9d bb 22 fd 7a bd
       0.1551091 0.1513279 -0.0048205703 -0.061276563
000130 02 b1 df bd c9 86 01 3e 50 73 47 bc 59 7c 2a 3e
       -0.109224334 0.12649073 -0.012173489 0.16648997
000140 f6 74 ce 3d 71 72 1e 3e 27 2c 0f 3e 9e 44 eb bd
       0.10080902 0.15473343 0.13981687 -0.11487697
000150 64 f0 53 3d 60 1f 96 bd 72 a7 b5 3d 08 34 82 bc
       0.051742926 -0.07330203 0.08869828 -0.015893951
000160 b0 bb 7a 3c 9e 63 fa bd 18 c8 21 be 80 55 88 3d
       0.015303537 -0.12226032 -0.15798986 0.06656933
000170 d8 43 28 3d e0 94 7b 3c 0a e5 f5 3d 97 2d 97 bd
       0.041080326 0.015355319 0.12006576 -0.073817424
000180 4c 84 80 3d a1 65 c7 bd 5c 07 16 3d 48 4e 25 bd
       0.062752336 -0.09736181 0.036628112 -0.040357858
000190 9a 8b fd 3d 59 4c 1e 3e 37 38 1d 3e d0 49 02 3c
       0.123801425 0.15458812 0.15353476 0.007952169
0001a0 de 7d d5 3d 05 dd 34 be ab 5e d4 bd d0 68 01 3d
       0.10424398 -0.17662437 -0.10369619 0.031594098
0001b0 80 38 81 3a 06 1d 0e be 15 3e a0 bd 77 17 a9 bd
       0.0009858757 -0.13878259 -0.07824341 -0.08256429
0001c0 db 58 33 be 90 1c 8a 3c b2 cc f6 3d 30 f0 92 3d
       -0.17514364 0.016859323 0.12050761 0.071747184
0001d0 39 04 ac bd 48 39 26 be d0 0a 12 be 80 e5 56 3b
       -0.08399243 -0.16232789 -0.14261937 0.0032790601
0001e0 1e 0d f9 3d a0 9d 92 bd 64 00 c5 bd c2 21 c1 bd
       0.12160705 -0.07158971 -0.09619215 -0.09430267
0001f0 d0 ba 7a bc e6 e7 2b be 51 bd 1f be 99 31 32 3e
       -0.015303329 -0.16787681 -0.15599562 0.17401733
000200 7d a9 ac bd e4 98 02 bd 98 ba 41 bd d0 06 1f be
       -0.08430765 -0.03188409 -0.04729709 -0.15529943
000210 b8 4c ff bc f4 a6 5d 3d 30 02 93 bd 60 e1 f6 bb
       -0.031164512 0.054114297 -0.071781516 -0.007534191
000220 00 ac 5d ba a4 34 34 be bb 8c 03 3e f5 38 12 3e
       -0.0008456111 -0.17598206 0.12846653 0.1427954
000230 06 d7 f6 3d 2a c9 6d bd 26 30 bd 3d e0 99 29 be
       0.12052731 -0.058053173 0.09237699 -0.16562605
000240 88 20 33 bd 14 44 13 bd 2a b5 7f bd 66 0e 98 3d
       -0.043732196 -0.035953596 -0.06242863 0.07424621
000250 3c f7 a4 bd c0 d8 a7 bc 6c 14 51 bd ff fd 29 be
       -0.08054969 -0.020489097 -0.051044866 -0.16600798
000260 30 26 ef bc da 68 19 be 32 1b d3 3d 0a 7f c1 3d
       -0.029193014 -0.14981404 0.103079215 0.09448059
000270 d5 93 29 3e ae 25 73 bd a0 48 13 3c 08 d7 0d 3d
       0.165603 -0.059362106 0.008989483 0.034628898
000280 65 b2 34 3e bd ec 25 3e 8b 5e bb bd a3 07 1a be
       0.17646177 0.1620359 -0.09148892 -0.15041976
000290 8e 26 23 be df 57 ae bd d9 32 18 3e 5c 2e 73 3d
       -0.15932676 -0.08512854 0.14863147 0.059370384
0002a0 37 a8 2e 3e e1 2c 06 3e 80 f5 27 3b f6 61 e0 bd
       0.17056356 0.13103057 0.0025628507 -0.109561846
0002b0 f7 c3 30 3e 61 35 11 3e fa bd 9c 3d bc c4 c5 bd
       0.17262255 0.14180519 0.07653423 -0.09656665
0002c0 71 9a 0e 3e 20 ce 83 3c 6a 64 ef 3d 56 1a 97 3d
       0.13926102 0.016089499 0.11689074 0.0737807
0002d0 de 3e c0 3d 12 d7 1e be 5e be c8 bd f6 23 d9 3d
       0.09386991 -0.1551173 -0.09801935 0.10602562
0002e0 ec d9 16 bd b0 7b 1d be 6d 9e 24 3e 80 89 7a bb
       -0.03682892 -0.15379214 0.1607606 -0.003822893
0002f0 7f 06 12 3e de 7c 0d be 9c 4b 79 3d 5f 5e 88 bd
       0.1426029 -0.13817164 0.060863122 -0.06658625
000300 f7 59 98 bd 48 05 17 bd d4 01 86 bd fe 61 c6 3d
       -0.074390344 -0.03687027 -0.065433174 0.09686659
000310 f4 92 09 bd 87 40 09 3e e4 38 25 3d 10 c3 df bc
       -0.03358741 0.13403521 0.04033746 -0.027314693
000320 02 1d d1 bd 28 c1 25 be c0 3a 53 bd 2f a1 27 be
       -0.10210611 -0.16186965 -0.0515697 -0.1637008
000330 78 26 06 bd 40 5a 3d 3b 30 a6 3a bc ea d6 b1 bd
       -0.03275153 0.0028892905 -0.011392161 -0.0868357
000340 22 47 fb 3d 92 e4 cb 3d 64 65 32 bd 29 0b 8f bd
       0.12269427 0.09955706 -0.043553725 -0.069845505
000350 32 9c e3 3d c1 7d 1d 3e 8f bf 25 be 90 71 1c bd
       0.11113776 0.15380003 -0.16186355 -0.03819424
000360 50 64 86 bc 7e 14 83 bd b1 89 1a 3e b0 e8 d5 bc
       -0.016405255 -0.06400393 0.15091588 -0.02611193
000370 1b 7a 19 3e 00 17 65 3a 48 15 9d bc 81 2d d3 bd
       0.14987986 0.0008739084 -0.019175187 -0.103114136
000380 a6 c2 70 bd b4 51 69 3d ae 24 a0 3d 20 1a ce bb
       -0.05877938 0.056962684 0.07819496 -0.0062897354
000390 a5 7b 2c 3e 30 94 fa bd 7c cf 8a 3d 2b 0a 23 3e
       0.16844042 -0.12235296 0.06777856 0.15921848
0003a0 00 cf fb bc 81 b6 0f 3e c0 f9 3e 3b 2e 8e 07 be
       -0.030738354 0.14034463 0.0029140562 -0.13237831
0003b0 cf 9e c6 bd a4 c1 86 3d fe ab 9c bd 0c 26 2e 3d
       -0.09698259 0.06579903 -0.076499924 0.042516753
0003c0 53 2b 32 3e 74 f4 75 3d 50 88 87 bc 98 fc 34 3d
       0.1739934 0.06004758 -0.016544491 0.044186205
0003d0 19 96 d0 bd 20 1a 18 be 79 12 08 be ce e4 17 be
       -0.10184879 -0.14853716 -0.13288297 -0.14833376
0003e0 44 98 14 3d c0 09 0d 3d d7 da 99 bd 6d 10 31 be
       0.036278024 0.034433126 -0.075124435 -0.17291422
0003f0 3a 1e c4 3d 92 6c cd bd 20 c4 f1 bc 0c c8 17 be
       0.09576078 -0.10030474 -0.029512465 -0.14822406

in_layer1.layers.2.bias f4 [32]
000000 00 f1 4d bc 97 b5 2f 3e 78 20 0a bd 70 3d ec bd
       -0.012569666 0.17159115 -0.03372237 -0.11535156
000010 60 5c f1 3c 80 e8 4b bd d0 86 c6 bc 0f 66 2f 3e
       0.029462993 -0.049782276 -0.024234205 0.17128776
000020 60 34 a6 bb c1 20 1e 3e 00 65 c1 3c b0 af 86 bd
       -0.0050721616 0.15442182 0.02360773 -0.065764785
000030 4d b7 04 3e 48 3a ce bd e0 a8 bf 3b f8 c0 22 3d
       0.12960549 -0.1006971 0.005848989 0.03973481
000040 ce 7e a2 3d eb 04 27 be a0 14 0e 3c 58 7a 3b bd
       0.07934342 -0.1631047 0.00867191 -0.045770973
000050 d2 bb ea 3d 84 9c 73 3d a0 1a 91 3d e6 ad d9 3d
       0.11461605 0.059475437 0.070851564 0.106288716
000060 70 1b 22 bd b0 90 39 bc 31 39 11 3e 4d e6 11 be
       -0.039576948 -0.011326 0.14181973 -0.14248009
000070 8e 3f fa bd 30 e1 53 3c db 69 8f bd e0 df 25 3c
       -0.12219153 0.012932107 -0.07002612 0.010124177

in_layer2.layers.0.weight f4 [32, 3]
000000 40 bb fa 3e 7f 09 3b be 4f 7e f8 be 0d 51 85 be
       0.48970985 -0.18265341 -0.48533866 -0.260384
000010 49 f2 17 3f ca 4e 4c be 08 c5 89 be 79 72 4c 3e
       0.5935407 -0.1995193 -0.26908135 0.19965543
000020 b6 9f 3f 3e 61 ae f9 be 8a 70 0e 3f 99 20 80 3e
       0.18713269 -0.48765853 0.5564047 0.2502487
000030 f8 8b ec 3e 9b fb e0 3d 64 49 34 be 46 46 3f be
       0.46200538 0.1098549 -0.17606121 -0.18679151
000040 c4 99 ab 3e 4f e9 27 be 31 11 27 3e 4e dd e5 be
       0.3351575 -0.16397594 0.16315152 -0.44895405
000050 1b 8d b9 be 1e 52 92 3e b0 24 2b be e3 7d 5e be
       -0.36240467 0.28578275 -0.16713214 -0.2172771
000060 77 3b da be 73 db 08 3f 61 e7 95 be 8e f6 33 bf
       -0.42623493 0.5345985 -0.2927809 -0.7029809
000070 42 2a 00 3f 4f 81 87 3e 6a 69 bb be 5c ee 1a bf
       0.5006448 0.26465842 -0.36603862 -0.6051996
000080 cc 08 23 3f 39 8b 82 3c ed ac fd be f7 c1 d2 3e
       0.636853 0.015935527 -0.49545994 0.41163608
000090 8c af 1d be 20 de 9d 3d e9 70 ba be 15 bb fa be
       -0.15398997 0.077083826 -0.3641427 -0.48970857
0000a0 cc ea cc be b2 36 76 bd 25 49 b4 be 3e d1 32 3f
       -0.40022886 -0.060110755 -0.35212055 0.6985053
0000b0 da d0 36 be 9f 8f 4e be e9 27 aa 3e 0a 57 3d bf
       -0.17853108 -0.20171975 0.33233574 -0.73960936
0000c0 b2 9e 3a be d6 ed de 3e 4a eb 31 bf 28 ad 88 3e
       -0.182246 0.4354083 -0.6949965 0.26694608
0000d0 5d ec d0 bd 51 3a ee be 3e b9 27 bf e3 41 41 3e
       -0.10201333 -0.46528867 -0.6551703 0.1887279
0000e0 69 99 eb 3e af e8 bf bd f8 6d c8 be 13 98 92 be
       0.4601548 -0.09370553 -0.391464 -0.28631648
0000f0 1d b1 90 3d 1d 0d 99 bd 45 68 74 3e 7d fe f4 3d
       0.07065032 -0.07473204 0.238679 0.11962602
000100 cd 16 b6 bd a9 f0 bb 3e 1b 7b 05 3f 72 67 eb 3e
       -0.08891068 0.36707047 0.5214097 0.4597736
000110 df 6a 0a 3f 31 31 01 be 42 b0 9e bd 80 5a ef bc
       0.5406932 -0.12616421 -0.07748462 -0.029217958
000120 f3 b7 29 3e 38 43 9e 3e d3 f7 fd bd 0f 36 b8 be
       0.16574077 0.3091066 -0.12400784 -0.35978743
000130 c1 ff 19 bf a8 11 27 3f 6d da 3c be 20 e6 b4 bd
       -0.60155874 0.65261316 -0.18442698 -0.08832955
000140 1a 4a dc be 7e 73 86 be 3f 20 13 3e c5 0a 6c 3e
       -0.43025285 -0.2625999 0.1436777 0.23050983
000150 87 4e 96 be 3d 31 98 be ee 04 f3 3e 25 cd 8b be
       -0.29356787 -0.29725066 0.474647 -0.2730495
000160 03 b0 e5 be 79 79 05 bd 7a c3 06 3f ac 10 44 3d
       -0.4486085 -0.03258655 0.52642024 0.047867462
000170 05 f2 4b 3d 6c aa 90 bd 7f dd cf 3e b0 af f8 be
       0.049791355 -0.070637554 0.40598676 -0.4857154

in_layer2.layers.0.bias f4 [32]
000000 81 51 b3 3e 1d be 21 3e 6a 68 82 3d 02 69 d2 3d
       0.3502312 0.15795179 0.06367572 0.10273935
000010 f3 f5 ce be f2 5e e5 3e 45 00 b0 3e 17 ef d2 be
       -0.4042202 0.44799 0.34375206 -0.41198036
000020 33 ea df be fb 15 63 be 27 05 c8 3e d8 68 81 be
       -0.43733367 -0.22176354 0.3906643 -0.25275302
000030 9a 88 04 3f e2 88 99 be eb d8 e0 be 14 5b 96 3e
       0.5177094 -0.29987246 -0.43915495 0.29366362
000040 53 23 3e be 80 9f 12 be b7 0b c3 bd ff 8d 11 bc
       -0.18568163 -0.14318657 -0.09523719 -0.008883952
000050 e1 77 f1 be 5f 30 fb be 8a 34 71 3e 77 eb 5c 3c
       -0.47161773 -0.49060342 0.23555198 0.013483874
000060 bd e9 a7 be 1d d7 fa 3c 95 c7 0f bf 15 00 26 3e
       -0.32795516 0.030620152 -0.56163913 0.16210969
000070 36 d0 6f 3e d1 fb 18 3f e6 39 03 bf c0 ca 8d bd
       0.2341927 0.5975924 -0.5126022 -0.06923437

in_layer2.layers.2.weight f4 [32, 32]
000000 0b ae bf 3d a0 81 55 3e 58 58 c7 bd 93 a7 d9 3d
       0.09359368 0.2085023 -0.09733647 0.10627665
000010 cf 78 a4 3d 5e 08 03 3e 05 61 07 be 1a e7 07 3e
       0.08030855 0.1279616 -0.13220604 0.13271752
000020 c8 04 22 3c 87 00 78 bd 90 ad 08 bb c5 23 21 3e
       0.009888835 -0.060547378 -0.0020855404 0.15736301
000030 5f 69 c8 bd de b8 f4 3d 9f 2d a8 3d d0 79 01 3e
       -0.09785723 0.11949323 0.082118265 0.12644124
000040 51 f0 79 3e 51 56 7b 3d 44 1a 2e be ea 81 e9 bc
       0.2440808 0.061361615 -0.17002207 -0.02850433
000050 07 05 f4 3c 3d 3c 1d be ed 1e 60 3c 33 fe b5 bd
       0.029787553 -0.1535501 0.013679248 -0.08886375
000060 19 d4 90 bc 88 0e 29 3d 42 88 0b be b0 a8 04 be
       -0.017679261 0.041273624 -0.13626197 -0.12954974
000070 31 93 05 3d 03 20 33 be a0 25 db 3d f0 fa 94 bd
       0.032611076 -0.1749268 0.10700536 -0.07274425
000080 bd 2c 8f bc 42 82 cd 3b 64 73 cb 3d 07 fc e7 bd
       -0.017477388 0.0062716315 0.099341184 -0.11327367
000090 68 20 ee 3b b3 7d c1 3d a4 4b dc 3d 19 fc 2c be
       0.0072670467 0.09447803 0.10756615 -0.16893043
0000a0 4d 27 0e be 71 be ef 3c b3 a9 c5 bd aa 2d 7c be
       -0.1388218 0.029265614 -0.09651508 -0.24626794
0000b0 2a 9e 14 be 69 7f 13 be 63 88 5b be fa c6 68 be
       -0.1451346 -0.14404072 -0.21438746 -0.22732154
0000c0 8c f3 3f be 06 4e 3d be 55 82 1b 3b c4 4f df 3d
       -0.1874525 -0.18486795 0.0023728807 0.10903886
0000d0 8c bb 9d bd ad de fd bc b6 e6 9e bc 8c 2e be 3d
       -0.07701787 -0.03098997 -0.01939712 0.09286222
0000e0 be 80 13 be 1c 99 1c be e2 f9 30 3e 0a f9 0d 3e
       -0.1440458 -0.15292782 0.17282823 0.13864532
0000f0 15 fd 5c be b8 f7 91 bd 5c 31 bf bc d2 ea 21 be
       -0.21580918 -0.07127327 -0.023338966 -0.15812233
000100 9e f4 17 be 32 21 dd bd 11 30 41 3e 49 62 9b 3c
       -0.14839408 -0.10797347 0.18865992 0.018967764
000110 15 e6 3e bd db 99 8d 3d 2c 3e 07 be 25 4d 91 3c
       -0.046606142 0.06914111 -0.1320731 0.01773698
000120 66 48 e3 3d 72 44 37 3b 63 17 f6 3d 3b 6d 1d 3d
       0.11097793 0.002796438 0.120161794 0.03843425
000130 49 06 a7 3d f5 ec dd 3d 15 a2 95 3d 98 32 30 bd
       0.08155496 0.108362116 0.07306305 -0.043017
000140 dc d3 0d be 7f 9d 2e 3d 81 79 72 3e df 31 54 bd
       -0.13850349 0.04263067 0.23679163 -0.051805373
000150 56 09 1b be 08 f2 3a 3e 87 d3 47 bd 66 53 3e 3d
       -0.1514028 0.1825639 -0.048785713 0.046466254
000160 49 cc bc bd 34 16 46 3e 52 b9 2c 3e 7f 18 3a 3e
       -0.09218652 0.19344407 0.16867569 0.18173407
000170 ff 32 76 3c 9c 15 0b 3e a6 75 2c 3d 43 89 84 bc
       0.015026807 0.13582462 0.042104386 -0.016178733
000180 c2 9e 82 bd de 2e c0 bd 27 0e 48 be 44 f1 f5 3d
       -0.06377937 -0.09383939 -0.19536649 0.120089084
000190 17 fa 73 3e dc 8f a8 3d 4b 23 2c 3e 66 33 c6 3d
       0.2382587 0.08230564 0.16810338 0.09677772
0001a0 b5 7a 29 3e 48 c6 60 bd 8c a8 b6 bd 3f 8b 13 be
       0.16550715 -0.054876596 -0.089188665 -0.14408587
0001b0 30 d2 77 bc 8a 6c ea bc 58 b5 70 3d 30 7e 21 be
       -0.015125796 -0.028616209 0.058766693 -0.15770793
0001c0 2f 41 53 bd c5 f3 61 bd 32 fa f9 bd e8 1d 28 bc
       -0.051575836 -0.055164117 -0.12205924 -0.010261036
0001d0 5a 72 41 be 8d f4 13 3d a7 8f e4 bd fe 1b 1d be
       -0.18891278 0.036121894 -0.11160212 -0.1534271
0001e0 03 66 9c bc f8 c7 4c be 67 ff b6 3d ce ec b8 3d
       -0.019091612 -0.19998157 0.08935433 0.09029542
0001f0 60 b2 01 be 0a b1 45 3c d0 c1 2e 3e 60 e8 e6 3b
       -0.12665701 0.012066135 0.17066121 0.007046744
000200 30 0b 88 bd 81 5f 02 be 13 ad 37 3e ce 82 b8 bd
       -0.06642759 -0.12731744 0.17937116 -0.09009324
000210 08 ae 9c bd 5d 9b 76 3d 29 83 e2 bd 8e d4 0f be
       -0.07650381 0.06020676 -0.11060173 -0.14045927
000220 93 5e 44 be d6 0c 7b bc da 72 d0 3c ae b3 23 3e
       -0.19176702 -0.015322885 0.02544539 0.15986511
000230 ec e2 47 bd 67 45 f0 3d f3 40 21 bd 0f dd af bd
       -0.048800394 0.117319874 -0.03936858 -0.085870855
000240 e8 99 3b bd e7 21 a4 bd 3c d9 0f 3d e8 55 2a bd
       -0.045801073 -0.08014279 0.03511928 -0.041585833
000250 fc 3b 8c 3d 03 67 16 3e 1f 25 dc 3c 33 45 90 3d
       0.068473786 0.14687733 0.02687317 0.07044449
000260 7c a7 b6 3d b2 9a a0 3d 76 fc ab 3d a8 22 28 3e
       0.08918664 0.07842006 0.083977625 0.1641947
000270 b9 ef 5c 3e d0 26 17 be 73 ca ab 3c 49 73 b5 bb
       0.21575822 -0.147609 0.020970559 -0.0055374247
000280 a5 e8 71 bb 70 e5 a9 3c 25 d0 ed 3d 80 c9 3e 3e
       -0.0036912349 0.020739287 0.11611966 0.18631554
000290 bc 00 c8 bd 63 38 1b 3e 57 2b f3 3d 67 af 9a 3c
       -0.09765765 0.15158229 0.11873501 0.018882466
0002a0 1f d2 8a 3d e3 93 23 3e 8f 49 8d bd 60 4c 65 bd
       0.06778359 0.15974383 -0.06898796 -0.05598104
0002b0 cd 46 60 3d a9 2c 7a 3d 6c e5 25 3e e7 b0 1b 3e
       0.05475502 0.061077747 0.16200799 0.15204202
0002c0 3f fa 4d 3e 86 ed b3 3d 9c c9 6c be 12 31 0f 3d
       0.20114993 0.087855384 -0.23123783 0.034958906
0002d0 0e a0 8b 3d 73 0e 00 bd 6c 61 80 bb eb e4 e9 3d
       0.068176374 -0.03126378 -0.0039178636 0.11420616
0002e0 15 eb 88 bd e1 42 f8 bd b7 fb ca bd fd cb dc 3d
       -0.06685463 -0.12122131 -0.09911292 0.10781095
0002f0 a6 f1 89 be dd 00 9b bc cf fd 1e be ba c9 07 3e
       -0.26942176 -0.01892131 -0.15526508 0.13260546
000300 84 73 8e 3d c6 85 03 3d af 8c 35 3e 39 b1 08 3d
       0.069556266 0.03211 0.17729448 0.033372138
000310 b5 57 9f bd 0a 50 9e 3d 20 52 ea 3d b6 b8 56 bc
       -0.07780401 0.0773011 0.11441445 -0.013105562
000320 7b f3 26 3e 69 3c 9c bd 8c 44 5d 3d 2e a6 86 3d
       0.16303818 -0.0762871 0.05402045 0.06574665
000330 85 37 fa 3d 5c de 6e bb b9 e0 df 3d 90 a9 e9 bd
       0.12217621 -0.0036448454 0.10931534 -0.114092946
000340 44 74 ef bd 55 1f a2 3b 8c f9 01 bd 64 1a 06 3e
       -0.11692098 0.0049475827 -0.031732127 0.13096005
000350 9b 36 fc 3d 77 39 aa 3d 55 ab ac bd 6c b4 04 be
       0.12315103 0.08311742 -0.084311165 -0.1295945
000360 f4 7f 08 be f7 0c 9e 3c cc ea 17 be cb 76 31 be
       -0.1333006 0.019293291 -0.14835662 -0.17330472
000370 0d 39 d1 bd e5 f7 31 be a4 ab 98 bd 4b f3 a6 bd
       -0.1021596 -0.1737972 -0.07454613 -0.08151873
000380 e9 da d2 bd 0d fc 59 3e 5d 03 46 3c c9 06 36 3e
       -0.1029566 0.21287556 0.012085763 0.17776026
000390 da d3 e1 bb 13 94 93 3c 81 b8 db bd 94 28 27 be
       -0.0068917098 0.018014943 -0.10728551 -0.16324073
0003a0 5e 7d e7 bd fb 6c 0c 3e 32 3d c7 bd f7 55 48 be
       -0.11303209 0.13713448 -0.09728469 -0.19564043
0003b0 ae 63 3b 3e ec b0 c2 3b d1 1c a3 bd 69 4d e1 bd
       0.18299744 0.005941501 -0.07964481 -0.11001093
0003c0 23 59 e1 bd 97 01 32 be 02 02 e8 3d b5 d3 e4 3d
       -0.110033296 -0.17383419 0.11328508 0.111731924
0003d0 78 b2 de 3b 6d 0e 1e be c8 06 2c bd b4 b8 2f be
       0.0067961775 -0.1543519 -0.041998655 -0.17160302
0003e0 76 02 85 3d 36 44 de bd 88 d4 3a bd 6f c6 22 bd
       0.0649461 -0.10852854 -0.04561284 -0.039740022
0003f0 8b c6 55 3d ae 36 a7 3d 6b d6 a7 3c 27 57 65 3c
       0.0521913 0.08164726 0.020487985 0.0139978295

in_layer2.layers.2.bias f4 [32]
000000 d3 3e 20 3e b2 30 85 3d ba 7f 14 be 98 a9 a9 bc
       0.15648966 0.065034285 -0.14501849 -0.020710751
000010 fb fc 30 bd f7 33 89 3d a7 b3 fd bb c1 1c 16 3e
       -0.04321001 0.06699365 -0.0077423635 0.14659406
000020 ad d4 2e 3d fa e4 cc bd e6 b0 08 3b 65 9f 05 be
       0.042683292 -0.10004611 0.0020857393 -0.13049085
000030 77 d9 c4 bc e1 a9 a3 3d eb ff ed 3c 8f dd 2d be
       -0.024029477 0.07991386 0.029052695 -0.16979049
000040 40 87 32 be e2 1a 7c 3d 57 ac 15 be f5 d8 02 be
       -0.17434406 0.061549075 -0.14616524 -0.12778075
000050 10 d0 7a bd 82 44 20 3e 88 ea 87 bd 02 0e 68 bd
       -0.06123358 0.15651134 -0.0663653 -0.056653984
000060 19 41 f5 bd 51 31 d6 3d 2f db ab bb 79 9d 19 3d
       -0.11975307 0.10458625 -0.0052446346 0.037503693
000070 4d d6 47 3d 60 3d 3e 3d 05 a0 f3 3d f0 d5 96 3d
       0.048788358 0.04644525 0.11895756 0.07365024

sat_layers.layer0_1.0.agg_weight f4 [3]
000000 59 bd a6 bf 89 84 be 3c 56 a7 b5 3e
       -1.3026534 0.023256557 0.3547923

sat_layers.layer0_1.0.input_linear_layer1.weight f4 [32, 32]
000000 91 46 e4 bd 2c ba 7c 3e fc 66 14 3d 00 e6 ee bd
       -0.11146272 0.24680394 0.036231026 -0.11664963
000010 dd 79 c3 3c 92 e9 ff 3d 63 4c 45 bd 9d b5 59 be
       0.02386182 0.12495722 -0.04816855 -0.21260686
000020 df 7c 5d bd 44 29 43 be 10 f5 08 be 70 1d b0 3e
       -0.054074164 -0.1905871 -0.13374734 0.3439746
000030 76 4c 6d 3d fc 71 85 3e 61 a5 4a 3d 42 44 3a be
       0.057934247 0.26063526 0.049474124 -0.18190101
000040 04 22 1a 3d e4 87 94 be 5f 58 20 3e 3b a3 09 3e
       0.037630096 -0.29009926 0.15658711 0.13441174
000050 fc 34 8d 3d d9 ac 65 3e 9f 63 66 be c6 a4 20 3d
       0.068948716 0.22429217 -0.2249894 0.03921964
000060 17 59 bf 3e 5c 05 93 3d 08 24 82 3e 4a cc d4 3d
       0.37372658 0.071787566 0.25418115 0.103905275
000070 2a 76 0d be 8a 95 bd 3e 12 dd 79 3e 56 a4 21 be
       -0.13814607 0.37028152 0.24400738 -0.15785345
000080 49 cd 7f be a4 17 c6 3e 41 5a 8a 3e 47 60 58 be
       -0.24980654 0.3868991 0.27021983 -0.21130477
000090 9d c9 c4 bd 8b 18 a8 3e 52 1e 76 3d 58 f8 32 be
       -0.09608767 0.32831225 0.06008751 -0.17477548
0000a0 1d 2b a7 3d 73 ec 76 3b c8 c0 29 be 64 c1 ea 3d
       0.0816252 0.0037677556 -0.16577446 0.114626676
0000b0 2d f3 31 be 49 75 db 3e 35 d3 0d be 17 f2 90 be
       -0.1737792 0.4286292 -0.138501 -0.283097
0000c0 c5 5c f5 bc 16 ec 00 be 3d 75 c3 3e 62 e2 66 3e
       -0.029951463 -0.1259006 0.38175383 0.22547296
0000d0 a9 30 6d 3e 7b af 83 3e 59 57 76 3d 90 59 dd 3e
       0.23163094 0.25719818 0.060141895 0.43232393
0000e0 b8 0e 8f 3d 1c 1d cc 3e b3 5c ad 3e 06 1f 0e 3c
       0.06985229 0.3986596 0.33859786 0.008674389
0000f0 73 0d 04 bd dd a3 b8 3e 28 56 cc 3e 0b 6d 7e bd
       -0.03223939 0.36062518 0.39909482 -0.06211571
000100 01 7c 37 be 8d 0a ae 3e 26 97 41 3e dd 17 e2 3d
       -0.17918397 0.33992425 0.18905315 0.11039708
000110 12 2c cc bd 43 01 56 3e 8c 4e 78 bb c7 72 37 be
       -0.09969343 0.20898919 -0.0037888614 -0.17914878
000120 fb e5 86 3d 23 c8 a6 bd 02 82 27 be fe 92 68 3d
       0.06586834 -0.08143642 -0.16358188 0.056780808
000130 dc 27 07 be 25 97 71 3e 84 61 05 bc 2c 42 da bd
       -0.13198799 0.23592813 -0.008140925 -0.106571525
000140 3a fc 3a 3e 8f 5d c2 bd ea 65 77 3e 72 20 61 bd
       0.1826028 -0.09490501 0.24159971 -0.054962583
000150 e2 fb 6c 3d 49 32 9f 3d 8d 44 0d be 83 87 03 3e
       0.0578574 0.07773263 -0.13795681 0.12844662
000160 20 b1 04 3e a8 e6 77 3e 75 28 c3 3d e8 27 05 3e
       0.12958193 0.24209082 0.09529201 0.13003504
000170 c9 10 c1 3d 02 8a c9 3d b9 bd a1 3e 1f f7 ca bd
       0.0942703 0.09840776 0.3159006 -0.09910416
000180 79 4c af 3d bf 54 64 bd be e6 77 bd f1 f1 73 bd
       0.08559508 -0.055744883 -0.060522787 -0.059556905
000190 21 2f 2c 3e 9c 39 b4 bd a7 c5 ef bd 42 b0 e3 bb
       0.16814853 -0.088000506 -0.11707621 -0.006948502
0001a0 a6 be 1a 3e 8a 27 c6 3c 6a 26 c5 3d c0 ee 53 bd
       0.15111789 0.024188776 0.096264675 -0.05174136
0001b0 33 97 4e bb e6 03 8d bd 81 c2 e7 bd 12 ec 1f 3e
       -0.0031523227 -0.06885509 -0.113163956 0.15617397
0001c0 60 68 41 be d6 99 fa 3d ad 7d 1e be 10 b9 68 3c
       -0.18887472 0.12236373 -0.15477629 0.014204279
0001d0 bb 8d 17 bd 94 1c 0d bd cb ea 1a 3e 42 0a 9c bd
       -0.0370004 -0.034451082 0.15128629 -0.07619144
0001e0 64 1a 27 be a6 90 97 bd 3d 96 1a be 08 7b 86 bd
       -0.16318661 -0.074006364 -0.15096374 -0.06566435
0001f0 93 41 45 3d 85 5f 13 bd b8 69 b8 bd c4 0e 14 3d
       0.04815824 -0.035979766 -0.09004539 0.036146894
000200 70 84 b3 bd d3 25 29 3e 75 a3 02 3e 63 18 2a be
       -0.08765495 0.16518335 0.12757666 -0.16610865
000210 69 9e 25 bc 0c 8b 63 3e 08 26 06 3e d0 88 3d 3d
       -0.010108569 0.22221011 0.13100445 0.046273053
000220 29 8f 07 bd f1 10 9c bc d6 73 9a bd 6a 84 1f 3d
       -0.033095513 -0.019051047 -0.07541625 0.03894464
000230 b6 c3 8a bb 17 78 16 3e 37 8a f9 bd 90 d7 c2 3d
       -0.0042347563 0.14694248 -0.121845655 0.095137715
000240 42 4f cf 3d b2 10 68 be 7c 68 d3 3d c6 d1 8d bd
       0.10122539 -0.22662619 0.10322663 -0.06924777
000250 35 32 1c 3e 59 ed 83 3a c3 58 31 be fb 42 d2 3d
       0.15253527 0.0010065242 -0.17319016 0.10266682
000260 db 51 ad 3e 84 7d 31 3e 70 8e 66 3e 3b 82 44 3e
       0.33851513 0.17333037 0.22515273 0.19190304
000270 d8 5a e8 bd c6 3f a0 3e de 4d 7c 3e b2 9a 90 3d
       -0.11345452 0.31298655 0.24639079 0.07060756
000280 71 d3 52 bd c7 72 24 3e 59 5f 56 3e 11 51 fe bc
       -0.051471177 0.16059409 0.2093481 -0.031044515
000290 9e ca 37 be a3 c0 b0 3e 7d d2 9b bd e4 54 af bd
       -0.17948386 0.3452197 -0.07608507 -0.085611135
0002a0 f0 42 c3 3d 18 9f 02 3e ba 8c d4 bc f0 78 ad 3d
       0.09534252 0.12756002 -0.02594601 0.084703326
0002b0 e7 6b 13 be 3d fc 17 3e 6b 00 9c bc 4c 41 d4 bb
       -0.1439663 0.14842315 -0.019043168 -0.0064775106
0002c0 bf 71 3a 3e bf b0 46 be f6 29 e1 3e e2 d6 54 3e
       0.18207453 -0.19403361 0.43977326 0.20785096
0002d0 35 79 af 3d 05 47 e4 3c 8b f8 df bd 25 08 83 3e
       0.0856804 0.027865896 -0.10936078 0.2559215
0002e0 62 7b 64 3e c2 b0 a4 3e c9 e2 89 3e 50 dc 39 3d
       0.22312692 0.32166106 0.26930836 0.045376122
0002f0 4e 2d a8 3d 3b 26 73 3e 4b 4b c9 3e 6f 64 b1 bc
       0.08211766 0.23745053 0.39315256 -0.021654336
000300 cd 17 30 be f4 c5 56 3e ae dd 72 3e 04 3a 2e be
       -0.1719658 0.2097395 0.23717377 -0.17014319
000310 4a 95 4c bd 56 95 15 3e bb 75 2c 3e 6d 53 64 3c
       -0.04994706 0.14607748 0.16841786 0.013935906
000320 b4 b9 c6 bd 16 ef ad 3d 86 e4 dd bd 1d 29 67 3e
       -0.09703389 0.08492868 -0.10834603 0.22574277
000330 82 6b a5 3c 14 5a 66 3e 67 31 24 3d 0d 8b 50 bd
       0.020192865 0.224953 0.040086176 -0.05091386
000340 42 35 7c 3d 96 0f 8e bd 28 11 b2 3e 6a c8 fa 3d
       0.061574228 -0.069365665 0.34778714 0.12245257
000350 26 c7 1c 3e 01 48 be 3c 8a c1 04 be d1 f2 6b 3e
       0.15310344 0.023227694 -0.12964454 0.23041846
000360 1f ec b0 3e 95 5f e3 3d c2 4c 1f 3d 00 94 97 3b
       0.34555146 0.11102215 0.03889156 0.0046257973
000370 4c ef 08 be 4e 1c e2 3d 44 f2 de 3e f1 5f 8b bd
       -0.13372535 0.11040555 0.4354421 -0.06805409
000380 78 64 84 be ef 92 82 3e 7c 81 1d 3e 05 55 0d be
       -0.25857902 0.25502726 0.15381426 -0.13801964
000390 22 c4 72 be 01 cb 97 3e f3 18 eb 3c 74 28 e8 3d
       -0.23707631 0.29647067 0.02869842 0.11335841
0003a0 d1 06 2f be 8a 00 0a be 0b 37 93 bd 34 71 0b 3c
       -0.17092444 -0.13476768 -0.07188233 0.008510876
0003b0 fa 81 1d 3d 6a 40 94 3e c2 88 3b 3e bf b2 1e be
       0.038454033 0.28955394 0.18313888 -0.15497874
0003c0 a2 9e 72 3e f5 b7 d5 bc 67 04 53 3e c0 02 cb 3d
       0.23693326 -0.026088694 0.20607148 0.09912634
0003d0 38 6e 27 3e 85 33 19 3e d6 0c 7d be ba 32 a2 3e
       0.16350639 0.1496106 -0.24711928 0.31679326
0003e0 fb 47 0e 3e 68 d6 86 3e c2 09 cf 3c 43 7c 60 bd
       0.13894646 0.26335454 0.025273208 -0.054806005
0003f0 30 df df bd ef 5a 6c 3e 74 06 54 3e 03 3f 3d 3c
       -0.109312415 0.23081563 0.20705587 0.011550668

sat_layers.layer0_1.0.input_linear_layer1.bias f4 [32]
000000 22 c4 e3 3d 10 67 9c bc c2 78 83 3e 4d 82 23 be
       0.11121394 -0.019092113 0.25678068 -0.15967675
000010 88 43 80 3e ad 54 83 3d f2 72 f3 bc a5 03 d9 bb
       0.25051522 0.06412635 -0.029717896 -0.006622749
000020 b6 0a 53 be 74 6a 49 be 44 17 25 be 7e ea 45 3d
       -0.20609555 -0.19669515 -0.16122156 0.048319332
000030 62 12 97 be 1a 69 3d bd df 73 92 3e 2d ac 11 3e
       -0.29506212 -0.04624281 0.28604028 0.14225836
000040 33 04 02 bc ae 9b 25 3e c1 43 85 bd 0a 7e 3a 3e
       -0.0079355715 0.16172668 -0.06507064 0.18212143
000050 ba 3d 41 be 80 31 46 be 8b 61 5f be 96 9b 72 be
       -0.18871203 -0.1935482 -0.21814553 -0.23692164
000060 90 e4 62 bd 81 96 88 be 3d d3 c3 3c 05 88 09 be
       -0.055393755 -0.26677325 0.023904437 -0.13430794
000070 91 c8 11 3d 95 f5 10 3e 79 02 86 be c4 b8 94 3e
       0.035591666 0.14156182 -0.2617376 0.29047215

sat_layers.layer0_1.0.input_linear_layer2.weight f4 [32, 32]
000000 40 26 3b 3e 84 be 3b 3e 44 19 df 3c aa ff 1f 3e
       0.1827631 0.18334395 0.027233727 0.15624872
000010 19 cf df 3d 26 ca 31 be 5a 54 dc bd 67 22 5d bc
       0.109281726 -0.1736227 -0.10758276 -0.013496972
000020 e0 0b ce bd 40 38 27 bc 27 f0 06 3e 93 9a b8 3d
       -0.10060859 -0.010206282 0.13177548 0.09013858
000030 54 78 20 3e b5 bd 41 bc d7 b8 fb bd c9 dd df 3d
       0.15670902 -0.011825015 -0.12291115 0.10930974
000040 a6 a9 8b bc 8d 8e 0a 3d 02 60 8c bd 57 e1 09 3d
       -0.017048668 0.033827353 -0.068542495 0.033662166
000050 6c 01 2e be 0e 47 55 3e bc 64 42 3e c3 6c 4c 3b
       -0.1699273 0.20827886 0.1898374 0.0031192757
000060 f2 04 15 3e 78 32 8b 3d 34 ed 7f bd 77 09 22 be
       0.14552668 0.067967355 -0.062482074 -0.15823923
000070 19 a7 11 3c 81 7b 0c 3e 61 70 b4 bb 91 9a 6f 3d
       0.008889937 0.13718988 -0.0055065607 0.058497015
000080 3a f3 0d 3e 5a 8b 7b 3d df 51 14 3e 31 48 26 3d
       0.13862315 0.061412193 0.14484356 0.04059619
000090 51 ef 82 3c 4a 35 70 bd 4e be c5 bc 72 35 bd bd
       0.015983256 -0.05864457 -0.024138596 -0.092387095
0000a0 46 c6 ec 3d ba 32 24 3e 9d ac d6 3c 45 7b 5f 3b
       0.11561255 0.16034976 0.026205355 0.0034100574
0000b0 65 58 8b bd 84 e7 42 be 0f 9e 24 bd 5f c8 0d be
       -0.06803969 -0.19033629 -0.0401898 -0.13845967
0000c0 2f a6 0c be 97 98 b0 bc a3 88 f7 bc fd 60 3a 3d
       -0.13735269 -0.021557136 -0.03021652 0.04550265
0000d0 d4 33 00 be 20 4e 0b 3e 92 82 14 be 04 6c a6 bd
       -0.12519771 0.13604021 -0.14502934 -0.08126071
0000e0 35 64 88 bd ee 84 1b ba 7f 0d 95 3d 4b 86 83 bd
       -0.06659738 -0.0005932589 0.07277965 -0.06422099
0000f0 cf 65 0b 3d 7f 6d 03 bd 56 98 89 bd 1b 80 8f bc
       0.03403264 -0.032086845 -0.06718509 -0.01751714
000100 0d 07 1a 3c dc b5 65 be fe 11 03 be 78 ba e4 3d
       0.009401095 -0.22432655 -0.12799832 0.111683786
000110 78 24 59 3d 46 b6 8d 3b f3 1a 9e 3c f9 1b 3e 3d
       0.053013295 0.004324707 0.01929996 0.046413396
000120 ea 91 81 3c 90 d9 16 be 4b c2 94 bc 12 87 14 be
       0.015816648 -0.14731431 -0.018159052 -0.1450465
000130 43 c3 0b be f9 ee 59 bd 73 8f 7f ba 1d 8e 1b 3e
       -0.13648705 -0.053206418 -0.00097488536 0.1519093
000140 23 fe 64 3d e2 1d 6d bd 34 f4 ce bb 5b c3 d0 3d
       0.055906426 -0.057889827 -0.0063157324 0.10193511
000150 b9 f5 f3 bc 10 ca 94 bd a4 6f 85 bd f9 25 0a be
       -0.029780256 -0.07265103 -0.065154344 -0.13491048
000160 27 9b 1f bc 1b 46 30 be b0 74 1b be d3 42 ce bd
       -0.009741581 -0.17214243 -0.15181231 -0.100713395
000170 bf 13 16 3e c9 23 52 be a6 55 35 3e 8e 7d 21 3d
       0.1465597 -0.20521463 0.17708454 0.03942638
000180 9c 2d 27 be 5a 64 84 3e d0 54 1b 3d cc 7d 38 be
       -0.16325992 0.25857812 0.03792268 -0.18016738
000190 f7 5d c2 bd 08 13 23 3e 7f 1c 0f be 10 a4 2d bd
       -0.094905786 0.15925229 -0.13975714 -0.04239279
0001a0 42 f9 4f 3d 03 d6 92 bd ce 99 9f bd 47 6f 87 bb
       0.05077482 -0.07169726 -0.07793008 -0.0041331383
0001b0 3b a9 e2 bd 40 e5 6a 3e 8d e3 f9 bd c7 c2 6d bd
       -0.110674344 0.22939014 -0.12201605 -0.058047082
0001c0 7a c9 db 3d 45 7b 0b be b1 9e 46 3e 11 41 c7 bd
       0.10731788 -0.13621242 0.19396473 -0.09729207
0001d0 24 d6 34 3e 61 4b 4d 3e 53 2c 5e bd 5b 80 37 bd
       0.17659813 0.20048286 -0.05424149 -0.044800144
0001e0 f2 6b 97 3d 27 d7 2a 3e b4 4a 42 3d d3 0b 68 3b
       0.07393636 0.16683637 0.047434524 0.0035407438
0001f0 28 db 2c be 36 31 78 bd 4d 24 a1 3d 8a 13 d8 3d
       -0.16880476 -0.060593806 0.07868252 0.10550602
000200 2b a2 50 bd 52 bb 4e 3e 3f 1a ea 3c 94 f2 d2 bd
       -0.050935905 0.20188645 0.028576968 -0.10300174
000210 f3 2a bb bd 85 4c 2c be d9 c1 16 3e 12 c6 85 3d
       -0.09139051 -0.16826065 0.14722385 0.065319195
000220 5d 3c 42 be 9a 78 55 3e 8f 57 10 be 4f c1 f6 3c
       -0.1896834 0.20846787 -0.14095901 0.030121474
000230 6d 60 6a 3d 9d f6 97 bd 65 0b 29 be 07 b2 a0 bc
       0.057220865 -0.074200846 -0.16508253 -0.01961614
000240 4b 8e 03 3e a9 58 22 be 3e 8f bb 3d 30 ea 0a be
       0.12847249 -0.15854134 0.09158181 -0.13565898
000250 ae 5f 94 be 47 06 5e 3e 7d 17 1a 3e e1 3d cb bd
       -0.28979248 0.21682082 0.15048023 -0.09923912
000260 ae 6d 17 3e 63 99 52 3d b8 59 71 3d 7c 9f d2 bd
       0.14787933 0.051415812 0.058923453 -0.102843255
000270 d4 0b 79 bd e3 9d b9 bb 00 cb 55 3e 7b 2a 30 3e
       -0.060802296 -0.0056645735 0.2087822 0.17203705
000280 d4 06 da bd ba 5d 92 3d 38 6d b7 3d 72 20 41 be
       -0.106458336 0.07146783 0.08956379 -0.18860033
000290 99 d9 51 3c 2d 51 27 3e de 77 05 3c d0 81 8f bd
       0.012808227 0.1633956 0.008146254 -0.07007182
0002a0 ea a0 8d 3d d1 62 90 3d 4d ce 70 3d 21 61 0d bd
       0.069154575 0.07050098 0.058790494 -0.034516457
0002b0 1f c8 f1 bc 11 aa 36 3d 2d 34 0b 3e e9 50 20 be
       -0.02951437 0.04459578 0.13594122 -0.15655865
0002c0 a9 f2 bd bd 8f 9a 27 3e 84 99 08 3e 93 be db 3d
       -0.092747994 0.16367553 0.13339812 0.107297085
0002d0 51 47 02 3e fc 21 ca bb 89 31 9c 3c 9a 21 1d 3e
       0.12722518 -0.006168602 0.019066589 0.15344849
0002e0 ee b9 1a be b7 84 a1 3d 3a ad ed 3d 77 14 4b 3b
       -0.15109989 0.078866415 0.11605306 0.003098754
0002f0 50 2e 46 be e1 b2 df bd 23 a0 2c 3e 0f 7b 22 be
       -0.19353604 -0.1092279 0.16857962 -0.15867256
000300 43 79 2c 3e c8 f0 c3 3d c1 19 d9 3d 86 ff 83 bd
       0.16843133 0.0956741 0.10600615 -0.064452216
000310 85 fb 2d be 5a 39 c6 bd 4d 27 b0 3b c4 c2 c8 bd
       -0.16990478 -0.09678908 0.005375779 -0.098027736
000320 44 32 0f 3e c3 78 f0 bc 98 67 20 be a3 07 51 3c
       0.13984019 -0.029354459 -0.15664518 0.012758168
000330 bb 2c 32 3e f6 d2 c8 bd 51 54 cf 3d fb 4a 0c 3d
       0.17399876 -0.098058626 0.10123504 0.034251194
000340 44 ee 06 bd 63 38 a9 3c 2f 13 f8 3d cd 65 12 be
       -0.03294207 0.02065677 0.12113034 -0.14296646
000350 64 c3 d2 bd 16 16 6a 3e 15 e9 e9 3d 86 cd c4 bd
       -0.10291174 0.22859988 0.1142141 -0.09609513
000360 6b 4d c0 3c 18 a5 61 3d 01 61 77 3d ca d8 1c bc
       0.023474416 0.055089086 0.060395245 -0.009573171
000370 b0 1e f5 bd ff 88 bc bc 7b 03 a6 bb 11 38 d0 3d
       -0.11968744 -0.023014544 -0.005066333 0.10166944
000380 0f e6 97 bc 40 e9 19 be 30 02 3d bd 1b 39 2e 3e
       -0.018542318 -0.15030384 -0.046144664 0.17013972
000390 bd 86 02 be 36 c0 02 be f8 55 cb 3d e9 00 27 3e
       -0.12746711 -0.12768635 0.099285066 0.16308941
0003a0 d8 e7 28 be a1 f8 21 be 55 da be bc 36 12 30 3e
       -0.16494691 -0.158175 -0.023297468 0.17194447
0003b0 bc 27 eb bd 19 93 81 bb fc 86 11 3e bf 36 37 bd
       -0.11482188 -0.003954303 0.14211649 -0.044729944
0003c0 57 e4 70 bd 9e 16 07 be 40 ef a6 bc 02 05 19 3e
       -0.05881151 -0.13192222 -0.020377755 0.14943317
0003d0 09 9c d6 3d 11 d9 c8 3d 15 5d 64 bc ff 2c 5f bd
       0.1047898 0.09807027 -0.013938208 -0.05448627
0003e0 10 69 06 bd c3 aa 9f 3d a0 ef 48 bd ea 8c 11 be
       -0.03281504 0.07796242 -0.04905665 -0.1421391
0003f0 cc 67 92 bd cb 9e 34 3d c1 a3 1a 3e b8 10 84 bc
       -0.07148704 0.04409675 0.1510153 -0.016121253

sat_layers.layer0_1.0.input_linear_layer2.bias f4 [32]
000000 50 30 e8 3d c9 03 f4 3c 2b 1b 11 3d ad 20 b0 3d
       0.1133734 0.029786961 0.0354263 0.085999824
000010 c9 23 43 bd 5a 66 11 3a 98 b8 03 3c 78 ba e8 bd
       -0.04764155 0.00055465626 0.008039616 -0.11363691
000020 f5 3a e4 bb c0 92 10 bd d2 88 79 bd 58 f7 73 bd
       -0.006965036 -0.0352962 -0.060921498 -0.059562057
000030 8b 49 eb bd fc 5c 24 3e 4a e5 84 3d cd a6 e0 3d
       -0.114886366 0.16051096 0.06489046 0.10969315
000040 00 a7 1e be dd a4 12 be d1 69 00 3e 0a 7b 0d bd
       -0.15493393 -0.14320703 0.12540366 -0.034541167
000050 76 0e c3 3c c0 c5 a1 3d 3d 0d 00 3c cd a9 2b 3c
       0.023810606 0.07899046 0.007815656 0.010477495
000060 42 d8 c8 3d 38 3a de 3d a2 1b 81 bd 13 d5 0e be
       0.09806873 0.10850948 -0.06304099 -0.13948469
000070 24 a4 3b bd 48 a1 cf 3d cd 3a 9a bc b2 3f 05 3e
       -0.045810834 0.10138184 -0.018826867 0.13012579
