output/modelparams/dynamicLearning-CONFERENCE-SCCompUAU-SAT/epoch24_model_state_dict.pth (torch, 262377 bytes, 148 tensors)

in_layer0.layers.0.weight f4 [32, 3]
-0.18974602 0.5110546 -0.6224715 -0.46588296 -0.25314552 0.34692708 0.22310284 0.59906185
-0.1935106 0.15471275 -0.26507106 0.16629623 -0.5022564 -0.5419319 -0.022500407 -0.07769468
0.21161056 0.60698754 -0.42914692 -0.11801167 0.33792198 0.48427218 -0.4145717 0.6398744
-0.22099328 0.008647848 0.30598727 -0.37852174 -0.17779045 -0.1489073 -0.09599648 0.774433
-0.30101067 -0.24412607 -0.048352633 -0.10282639 -0.31456044 0.6854045 0.1500428 0.093203686
0.09703015 -0.40214565 0.099023335 -0.32939056 0.05965313 -0.6363102 0.5510807 0.5738866
-0.31425482 0.0016082311 0.50626194 0.61779135 -0.009152248 -0.13559264 0.22591802 -0.6262926
0.3043129 -0.6625013 -0.017164411 -0.021692475 0.12811075 0.44777754 -0.39859787 0.12899216
0.42165086 -0.31273472 0.0046523963 -0.22866674 0.6306228 0.5076613 -0.55500036 -0.23506899
0.02376612 0.46649027 0.6322094 0.48885876 0.066193715 -0.49072352 0.1435711 -0.21737465
-0.22879793 0.53212225 0.47486484 -0.58285594 0.0841504 -0.031604372 0.084969 0.006757275
0.30217052 -0.18968776 0.1394646 0.001319373 0.5654117 0.17708586 -0.05695547 -0.1964657
00000000: c84c 42be 79d4 023f 4b5a 1fbf 3688 eebe
00000010: 4a9c 81be 6da0 b13e 1275 643e 1e5c 193f
00000020: a527 46be 056d 1e3e 65b7 87be 8f49 2a3e
00000030: e093 00bf 0dbc 0abf c652 b8bc 631e 9fbd
00000040: 70b0 583e 8963 1b3f 25b9 dbbe 1ab0 f1bd
00000050: 1c04 ad3e 86f2 f73e be42 d4be cfce 233f
00000060: 104c 62be b4af 0d3c 5daa 9c3e 9acd c1be
00000070: b30e 36be 287b 18be cd99 c4bd 3e41 463f
00000080: 121e 9abe 2ffc 79be 690d 46bd a496 d2bd
00000090: 110e a1be ab76 2f3f d2a4 193e 93e1 be3d
000000a0: beb7 c63d 09e6 cdbe bfcc ca3d e1a5 a8be
000000b0: d756 743d 3ae5 22bf a013 0d3f 3bea 123f
000000c0: 02e6 a0be 48cb d23a 629a 013f 9327 1e3f
000000d0: 4ff3 15bc ccd8 0abe 0e57 673e b654 20bf
000000e0: e7ce 9b3e af99 29bf 619c 8cbc 6bb4 b1bc
000000f0: 772f 033e 1943 e53e 0515 ccbe 8516 043e
00000100: 9fe2 d73e c41e a0be 2173 983b 9d27 6abe
00000110: 7f70 213f 17f6 013f 8114 0ebf edb5 70be
00000120: 2bb1 c23c d0d7 ee3e 7ad8 213f b24b fa3e
00000130: 9290 873d 1d40 fbbe 4d04 133e 7697 5ebe
00000140: 014a 6abe 2a39 083f 7c21 f33e 0c36 15bf
00000150: 0b57 ac3d 9673 01bd 3a04 ae3d 226c dd3b
00000160: 18b6 9a3e 823d 42be cfcf 0e3e d0ee ac3a
00000170: d2be 103f ff55 353e 244a 69bd 4e2e 49be

in_layer0.layers.0.bias f4 [32]
0.22935632 0.1399952 -0.2494656 -0.14475052 0.5073866 0.34847686 -0.21018392 -0.08630464
-0.42553383 -0.26142418 -0.16473441 -0.3510442 0.08689904 -0.032539997 -0.083110824 0.39468366
-0.25654662 0.514168 0.28272003 -0.67354006 -0.1412417 0.002774111 0.13634303 0.06302113
0.015307104 0.03804505 -0.1444363 0.3286733 -0.4890649 -0.11693191 -0.15165654 -0.16104303
00000000: 62dc 6a3e e75a 0f3e e973 7fbe 7b39 14be
00000010: 17e4 013f 8f6b b23e 743a 57be 7dc0 b0bd
00000020: 92df d9be 64d9 85be 23b0 28be 11bc b3be
00000030: 20f8 b13d a948 05bd 0236 aabd fa13 ca3e
00000040: 145a 83be 84a0 033f aec0 903e 1f6d 2cbf
00000050: aaa1 10be dccd 353b 829d 0b3e 3911 813d
00000060: a6ca 7a3c 20d5 1b3d 1ce7 13be de47 a83e
00000070: b766 fabe ff79 efbd da4b 1bbe 77e8 24be

in_layer0.layers.2.weight f4 [32, 32]
-0.046362694 0.010594089 -0.009012747 0.0053293067 -0.01515169 -0.07048671 0.038416073 -0.049665023
0.040387914 0.045512922 -0.0077630817 0.04648328 -0.020719456 -0.0058487826 0.0044996887 -0.04704261
0.03282566 -0.21506499 -0.051892985 0.038226616 -0.008713016 -0.031178273 -0.06342081 -0.06741985
-0.05442795 -0.0699276 0.013218218 -0.19442837 0.041164618 0.00637584 -0.0049583684 0.006628756
-0.053108513 0.18351878 -0.05470212 -0.10995231 0.08332941 0.061831042 0.020720024 -0.0022650266
-0.009623638 0.041057378 0.20268035 -0.030486215 0.3566299 -0.09326211 -0.14904663 0.2752951
0.09093741 -0.20301831 0.021848692 -0.11531486 -0.13117774 -0.05770219 0.19579007 -0.21279553
0.11905776 -0.19105995 -0.081502326 -0.2235994 -0.10077988 0.11862822 0.1911169 0.0019826137
-0.006620659 -0.014607909 0.00030309305 0.0026063311 -0.0049474016 -0.026359743 -0.014701966 -0.029494282
0.002736603 0.018299175 -0.0024749725 -0.0019256757 -0.013091264 0.003376611 0.004035326 0.0052641314
-0.0031127466 0.007374604 -0.023926955 0.009154153 -0.0002760803 -2.0341178e-05 -0.02183678 0.007488809
-0.026361642 -0.021189116 0.0018268387 -0.06824798 0.008204453 0.003259279 -0.0021507763 0.0009519521
-0.029260822 0.0017235931 -0.0010639227 0.004562785 -0.020348331 -0.1200467 0.030888394 -0.06067576
0.038940955 0.045600064 0.0014868939 0.04522158 -0.03355158 -5.8203037e-05 0.0053198608 -0.10671848
0.02468102 -0.18433344 -0.08163517 0.040848155 0.00028791744 -0.020955013 -0.054261886 -0.050882123
-0.061895072 -0.05303058 0.014712077 -0.14721875 0.04118054 0.009798687 -0.012073672 0.010180208
-0.020559313 -9.7296244e-05 0.0030727256 0.0026637772 -0.021731736 -0.11741235 0.029263012 -0.06525035
0.03803853 0.04553328 0.008660654 0.045288794 -0.028178763 0.00088018103 0.0036169325 -0.102929875
0.023080451 -0.19202363 -0.08595292 0.04022868 0.003835333 -0.0165903 -0.056147672 -0.05274812
-0.060140755 -0.053181533 0.01400406 -0.1367818 0.04077963 0.011951848 -0.013840904 0.010019797
0.17405209 -0.05639254 0.15758443 -0.07899095 -0.048695568 -0.049000334 -0.06465421 -0.4436219
0.0878987 -0.08046616 0.39040717 -0.0059822756 0.21092509 0.010050759 -0.15776604 0.20075788
-0.004861026 -0.2224186 -0.25664788 0.08230924 0.21978533 0.116949625 -0.3301416 -0.2650781
0.06038601 -0.12996277 0.030462261 0.15288255 -0.045322873 0.16818832 -0.068197876 -0.06265596
0.0032748377 0.0059748846 0.0007610931 -0.0017319084 0.0019989288 0.021051357 0.0064014522 -0.004849264
0.0038747317 -0.0013340745 -0.0006645516 -0.0030087878 0.014752634 -0.0017468508 -0.0025496893 0.018016685
0.0081192795 0.04516169 0.013496056 -0.0006256208 0.00085498416 -0.002357787 0.0063552763 -0.0017826178
-0.0031157024 0.009671571 -0.001151088 0.0072014886 -0.0016231545 -0.00028989644 0.00085611007 -0.0010541526
-0.14656319 0.062813155 -0.038934227 0.019462727 0.03089695 0.045220483 0.0058796518 0.0878909
-0.00085389044 -0.020804882 -0.13535142 0.037370455 -0.034014717 -0.009707665 0.022999145 -0.15395063
0.0072926427 -0.046005893 -0.0043849885 0.027477132 -0.047036152 -0.076152995 0.017847735 -0.034569565
0.04819204 0.03947692 0.018050397 0.00068320706 0.036030266 -0.021495948 0.03360656 0.003437825
00000000: cfe6 3dbd d492 2d3c 33aa 13bc 77a1 ae3b
00000010: cb3e 78bc 565b 90bd 2c5a 1d3d 8d6d 4bbd
00000020: cc6d 253d c26b 3a3d 7361 febb 4065 3e3d
00000030: d9bb a9bc 25a7 bfbb 2072 933b c0af 40bd
00000040: 3374 063d ff39 5cbe bd8d 54bd 8393 1c3d
00000050: 0ac1 0ebc 9469 ffbc c5e2 81bd 6b13 8abd
00000060: d8ef 5ebd 3436 8fbd 3a91 583c 3b18 47be
00000070: 3b9c 283d 6cec d03b cf79 a2bb 0936 d93b
00000080: 5088 59bd 59ec 3b3e 550f 60bd ad2e e1bd
00000090: 9ca8 aa3d 8c42 7d3d 0abd a93c d770 14bb
000000a0: 77ac 1dbc c82b 283d 708b 4f3e 3abe f9bc
000000b0: 3298 b63e 3500 bfbd ae9f 18be 7bf3 8c3e
000000c0: 653d ba3d 08e4 4fbe 07fc b23c 332a ecbd
000000d0: 7553 06be 2259 6cbd 317d 483e 12e7 59be
000000e0: 8ed4 f33d 38a5 43be b1ea a6bd 3ef7 64be
000000f0: af65 cebd 5af3 f23d 26b4 433e bdee 013b
00000100: 1df2 d8bb 0356 6fbc 76e8 9e39 fbce 2a3b
00000110: d01d a2bb 63f0 d7bc 84e0 70bc fe9d f1bc
00000120: 9458 333b 27e8 953c 2633 22bb f466 fcba
00000130: be7c 56bc 224a 5d3b c53a 843b bc7e ac3b
00000140: 39ff 4bbb aaa6 f13b 7602 c4bc 4dfb 153c
00000150: dfbe 90b9 59a2 aab7 0ce3 b2bc af64 f53b
00000160: 5ff4 d7bc cc94 adbc 8972 ef3a 99c5 8bbd
00000170: f86b 063c a199 553b 0af4 0cbb 6d8c 793a
00000180: 64b4 efbc 30ea e13a 5273 8bba 6a83 953b
00000190: 8bb1 a6bc 0bdb f5bd a809 fd3c 2587 78bd
000001a0: 8d80 1f3d 22c7 3a3d e1e3 c23a 433a 393d
000001b0: 626d 09bd 091f 74b8 3a52 ae3b 388f dabd
000001c0: da2f ca3c e8c1 3cbe 5730 a7bd 6550 273d
000001d0: a0f3 9639 d9a9 abbc b641 5ebd c669 50bd
000001e0: b085 7dbd 9836 59bd ec0a 713c 83c0 16be
000001f0: edac 283d ac8a 203c a7d0 45bc e3ca 263c
00000200: 016c a8bc 860b ccb8 c85f 493b c492 2e3b
00000210: c106 b2bc e375 f0bd fcb8 ef3c faa1 85bd
00000220: 4ace 1b3d 1b81 3a3d 6ae5 0d3c be80 393d
00000230: 26d7 e6bc f3bb 663a 0f0a 6d3b e6cc d2bd
00000240: 3713 bd3c d8a1 44be 1608 b0bd d4c6 243d
00000250: 365a 7b3b 61e8 87bc 1afb 65bd 6a0e 58bd
00000260: 2756 76bd e1d4 59bd 4971 653c 8710 0cbe
00000270: 8b08 273d afd1 433c f6c4 62bc 132a 243c
00000280: b63a 323e ddfb 66bd d05d 213e 02c6 a1bd
00000290: 0175 47bd 93b4 48bd 6d69 84bd 6922 e3be
000002a0: 3c04 b43d 71cb a4bd 73e3 c73e f706 c4bb
000002b0: bffc 573e f0ab 243c 6c8d 21be 7993 4d3e
000002c0: 3e49 9fbb b4c1 63be 5a67 83be bf91 a83d
000002d0: 680f 613e 4983 ef3d 5208 a9be 51b8 87be
000002e0: 5257 773d f614 05be fe8b f93c 3e8d 1c3e
000002f0: 7aa4 39bd 8f39 2c3e 54ab 8bbd c551 80bd
00000300: a99e 563b f7c8 c33b 1884 473a 3401 e3ba
00000310: 7600 033b e573 ac3c 46c3 d13b 93e6 9ebb
00000320: 36ef 7d3b 1ddc aeba 4e35 2eba 152f 45bb
00000330: 08b5 713c 96f6 e4ba b018 27bb ba97 933c
00000340: ba06 053c 77fb 383d 901e 5d3c b400 24ba
00000350: 0421 603a 1a85 1abb ec3f d03b baa6 e9ba
00000360: d030 4cbb 8275 1e3c 1be0 96ba 77fa eb3b
00000370: 07c0 d4ba 3efd 97b9 936c 603a 7e2b 8aba
00000380: a914 16be 2fa4 803d 7f79 1fbd 4c70 9f3c
00000390: 9a1b fd3c 1d39 393d 18aa c03b 2500 b43d
000003a0: 9ed7 5fba 006f aabc 9099 0abe c311 193d
000003b0: 0453 0bbd e60c 1fbc b468 bc3c 3ca5 1dbe
000003c0: 1ff7 ee3b ad70 3cbd f3af 8fbb b917 e13c
000003d0: fba8 40bd 1af6 9bbd 6a35 923c d198 0dbd
000003e0: 0465 453d 8db2 213d 6dde 933c 4019 333a
000003f0: 7994 133d 4518 b0bc 08a7 093d 224d 613b

in_layer0.layers.2.bias f4 [32]
-0.2579179 -0.020639526 0.06621232 -0.32162634 -0.31615898 0.10432109 -0.054775387 0.012889418
-0.21784595 -0.029821644 -0.028394174 0.103411525 0.049121693 -0.10651524 0.16667421 -0.05546411
0.1061064 -0.09905019 0.1132797 -0.019553317 -0.10914745 -0.1273303 -0.14439693 0.011719641
0.08443845 -0.0028841645 0.032496516 -0.041364882 -0.12687501 -0.07142879 0.28770968 -0.2695684
00000000: d10d 84be 3914 a9bc 539a 873d 35ac a4be
00000010: 97df a1be 4ca6 d53d 285c 60bd 232e 533c
00000020: 0213 5fbe 854c f4bc e69a e8bc 6cc9 d33d
00000030: d433 493d aa24 dabd a5ac 2a3e 562e 63bd
00000040: 504e d93d d3da cabd 30ff e73d 472e a0bc
00000050: b388 dfbd e062 02be cadc 13be bd03 403c
00000060: 11ee ac3d 4004 3dbb 111b 053d 396e 29bd
00000070: 86eb 01be 4249 92bd af4e 933e df04 8abe

in_layer1.layers.0.weight f4 [32, 3]
-0.36826807 -0.4697265 -0.105514675 0.44991374 0.50607014 -0.50261533 -0.025014758 0.33888507
0.25449455 0.4729098 -0.016014636 -0.38791746 0.38193482 -0.19798183 0.29894394 -0.14228016
0.2454282 0.5192838 0.53685224 -0.52542627 -0.38190582 -0.23871517 -0.36817688 0.5539676
-0.05099088 -0.38297987 -0.25691476 -0.31890783 0.23555279 -0.5035944 -0.53832316 -0.56912947
0.24856323 0.28547353 -0.35858017 0.14317048 0.4261911 0.08388978 -0.12215668 0.042656004
-0.061907947 0.29069537 -0.39202738 0.29277575 0.32540822 -0.3498019 0.47144318 0.56706464
-0.22760805 -0.16171256 0.2877257 -0.452308 0.2283178 0.13469857 0.36392105 -0.50149035
-0.47965384 0.25930482 0.20796776 -0.53737813 -0.32196486 -0.5282631 -0.41362697 -0.26050022
0.4777795 -0.11492208 0.3316018 0.5482985 0.26311713 -0.51684994 0.29053575 0.22022134
0.44748425 -0.569518 0.35507965 0.47258508 -0.53714633 0.06040603 0.49286842 -0.41991156
0.18943977 0.255118 0.15131778 0.5740454 0.47272265 0.49534035 -0.07196486 0.48423088
-0.53804004 -0.31155515 -0.12348434 -0.17150581 0.5332954 0.27231604 0.3717056 0.3927191
00000000: a28d bcbe fe7f f0be 1418 d8bd 185b e63e
00000010: d08d 013f 66ab 00bf c0eb ccbc 5882 ad3e
00000020: 1c4d 823e 3c21 f23e 2031 83bc 1e9d c6be
00000030: f68c c33e c0bb 4abe 2e0f 993e e4b1 11be
00000040: 8851 7b3e c8ef 043f 266f 093f 5682 06bf
00000050: 2989 c3be c071 74be ae81 bcbe d2d0 0d3f
00000060: d0db 50bd f015 c4be 558a 83be e347 a3be
00000070: c034 713e 90eb 00bf 8ccf 09bf 78b2 11bf
00000080: 5c87 7e3e 9629 923e d297 b7be 489b 123e
00000090: b835 da3e 68ce ab3d 482d fabd 10b8 2e3d
000000a0: 3093 7dbd 06d6 943e d0b7 c8be b4e6 953e
000000b0: e89b a63e 3c19 b3be 0061 f13e 262b 113f
000000c0: 1612 69be fa97 25be c850 933e ea94 e7be
000000d0: 24cc 693e 6cee 093e dc53 ba3e ac61 00bf
000000e0: 3095 f5be 9ac3 843e 80f5 543e 9d91 09bf
000000f0: 94d8 a4be 403c 07bf eac6 d3be 4960 85be
00000100: 849f f43e 445c ebbd b6c7 a93e 4a5d 0c3f
00000110: 4ab7 863e 4750 04bf 1ac1 943e b481 613e
00000120: a81c e53e efcb 11bf 00cd b53e acf6 f13e
00000130: 6c82 09bf 506c 773d 4059 fc3e a6fe d6be
00000140: 80fc 413e d49e 823e 0cf3 1a3e a4f4 123f
00000150: b408 f23e 409d fd3e 5062 93bd 1ced f73e
00000160: febc 09bf 2884 9fbe 5ce5 fcbd 389f 2fbe
00000170: 0c86 083f 026d 8b3e 3250 be3e 7a12 c93e

in_layer1.layers.0.bias f4 [32]
-0.4312827 -0.06686926 0.08430731 0.15016448 0.29689234 -0.22973159 -0.17409098 0.48309278
-0.15495178 -0.40105134 0.39146644 0.39095592 -0.18103793 -0.11542389 -0.4260152 -0.48214158
0.2171123 -0.24663973 0.45962596 -0.46229196 -0.07980427 0.012466013 0.29672748 0.46726727
0.39098418 0.2541473 -0.2650002 -0.41231334 -0.51650494 0.028639257 0.5599606 -0.10966334
00000000: 16d1 dcbe c0f2 88bd 50a9 ac3d b8c4 193e
00000010: 4602 983e c23e 6bbe e844 32be f057 f73e
00000020: aeab 1ebe 9a56 cdbe 4a6e c83e 602b c83e
00000030: 0262 39be 5c63 ecbd aa1e dabe 43db f6be
00000040: b052 5e3e 208f 7cbe 1854 eb3e 88b1 ecbe
00000050: 6c70 a3bd 403e 4c3c aaec 973e a83d ef3e
00000060: 142f c83e 981f 823e 1bae 87be bc1a d3be
00000070: ab39 04bf e09c ea3c 9459 0f3f 2c97 e0bd

in_layer1.layers.2.weight f4 [32, 32]
-0.007442042 -0.12846255 0.05427216 0.112073496 -0.17428695 -0.124472395 0.13093986 0.041854456
-0.011021331 0.031600296 -0.026877463 -0.12356071 -0.16518542 0.11626743 -0.021025226 -0.06565261
-0.04562874 -0.09641808 -0.052358314 -0.15174766 0.1322897 0.07218543 -0.08915228 -0.060336225
0.079308644 -0.06546137 0.0466149 0.048673958 -0.11127973 0.044282824 0.010815933 0.15439393
-0.06396134 -0.04544373 0.15231092 -0.14435627 0.012771845 0.17032476 -0.079261005 0.16947268
0.15686114 0.16446237 -0.016868576 0.15991808 -0.077025026 -0.06051158 0.0668627 0.037343577
0.097452685 0.1679943 -0.11066028 0.09382011 0.059143215 0.09326173 0.08382262 -0.066126846
-0.13971652 0.14148937 -0.100804366 0.11301814 -0.16840518 -0.030582786 0.0018736422 0.03058654
0.014289215 0.055703446 -0.019683123 0.043293387 0.17493545 -0.11438372 -0.009651437 -0.06747974
0.1551091 0.1513279 -0.0048205703 -0.061276563 -0.109224334 0.12649073 -0.012173489 0.16648997
0.10080902 0.15473343 0.13981687 -0.11487697 0.051742926 -0.07330203 0.08869828 -0.015893951
0.015303537 -0.12226032 -0.15798986 0.06656933 0.041080326 0.015355319 0.12006576 -0.073817424
0.062752336 -0.09736181 0.036628112 -0.040357858 0.123801425 0.15458812 0.15353476 0.007952169
0.10424398 -0.17662437 -0.10369619 0.031594098 0.0009858757 -0.13878259 -0.07824341 -0.08256429
-0.17514364 0.016859323 0.12050761 0.071747184 -0.08399243 -0.16232789 -0.14261937 0.0032790601
0.12160705 -0.07158971 -0.09619215 -0.09430267 -0.015303329 -0.16787681 -0.15599562 0.17401733
-0.08430765 -0.03188409 -0.04729709 -0.15529943 -0.031164512 0.054114297 -0.071781516 -0.007534191
-0.0008456111 -0.17598206 0.12846653 0.1427954 0.12052731 -0.058053173 0.09237699 -0.16562605
-0.043732196 -0.035953596 -0.06242863 0.07424621 -0.08054969 -0.020489097 -0.051044866 -0.16600798
-0.029193014 -0.14981404 0.103079215 0.09448059 0.165603 -0.059362106 0.008989483 0.034628898
0.17646177 0.1620359 -0.09148892 -0.15041976 -0.15932676 -0.08512854 0.14863147 0.059370384
0.17056356 0.13103057 0.0025628507 -0.109561846 0.17262255 0.14180519 0.07653423 -0.09656665
0.13926102 0.016089499 0.11689074 0.0737807 0.09386991 -0.1551173 -0.09801935 0.10602562
-0.03682892 -0.15379214 0.1607606 -0.003822893 0.1426029 -0.13817164 0.060863122 -0.06658625
-0.074390344 -0.03687027 -0.065433174 0.09686659 -0.03358741 0.13403521 0.04033746 -0.027314693
-0.10210611 -0.16186965 -0.0515697 -0.1637008 -0.03275153 0.0028892905 -0.011392161 -0.0868357
0.12269427 0.09955706 -0.043553725 -0.069845505 0.11113776 0.15380003 -0.16186355 -0.03819424
-0.016405255 -0.06400393 0.15091588 -0.02611193 0.14987986 0.0008739084 -0.019175187 -0.103114136
-0.05877938 0.056962684 0.07819496 -0.0062897354 0.16844042 -0.12235296 0.06777856 0.15921848
-0.030738354 0.14034463 0.0029140562 -0.13237831 -0.09698259 0.06579903 -0.076499924 0.042516753
0.1739934 0.06004758 -0.016544491 0.044186205 -0.10184879 -0.14853716 -0.13288297 -0.14833376
0.036278024 0.034433126 -0.075124435 -0.17291422 0.09576078 -0.10030474 -0.029512465 -0.14822406
00000000: 60dc f3bb b08b 03be 7c4c 5e3d ca86 e53d
00000010: 4778 32be 62eb febd 1915 063e 946f 2b3d
00000020: d092 34bc 506f 013d 202e dcbc 660d fdbd
00000030: 5e26 29be 9e1d ee3d 183d acbc e074 86bd
00000040: 34e5 3abd d876 c5bd ac75 56bd bd63 1bbe
00000050: f376 073e f4d5 933d 7895 b6bd 1e23 77bd
00000060: 926c a23d 9c10 86bd 44ef 3e3d 585e 473d
00000070: a1e6 e3bd e861 353d 5035 313c 7119 1e3e
00000080: 2afe 82bd 3423 3abd 65f7 1b3e 21d2 13be
00000090: 0041 513c 9d69 2e3e 9853 a2bd 3f8a 2d3e
000000a0: 35a0 203e d368 283e f82f 8abc 91c1 233e
000000b0: 4cbf 9dbd feda 77bd 50ef 883d 94f5 183d
000000c0: 4695 c73d b306 2c3e dba1 e2bd c224 c03d
000000d0: 2840 723d 0200 bf3d 32ab ab3d 836d 87bd
000000e0: d911 0fbe 97e2 103e 8572 cebd 0e76 e73d
000000f0: 6872 2cbe c088 fabc 0095 f53a a090 fa3c
00000100: 501d 6a3c 4c29 643d 803e a1bc 6854 313d
00000110: 4722 333e 0342 eabd 1021 1ebc d132 8abd
00000120: ebd4 1e3e b3f5 1a3e e0f5 9dbb 22fd 7abd
00000130: 02b1 dfbd c986 013e 5073 47bc 597c 2a3e
00000140: f674 ce3d 7172 1e3e 272c 0f3e 9e44 ebbd
00000150: 64f0 533d 601f 96bd 72a7 b53d 0834 82bc
00000160: b0bb 7a3c 9e63 fabd 18c8 21be 8055 883d
00000170: d843 283d e094 7b3c 0ae5 f53d 972d 97bd
00000180: 4c84 803d a165 c7bd 5c07 163d 484e 25bd
00000190: 9a8b fd3d 594c 1e3e 3738 1d3e d049 023c
000001a0: de7d d53d 05dd 34be ab5e d4bd d068 013d
000001b0: 8038 813a 061d 0ebe 153e a0bd 7717 a9bd
000001c0: db58 33be 901c 8a3c b2cc f63d 30f0 923d
000001d0: 3904 acbd 4839 26be d00a 12be 80e5 563b
000001e0: 1e0d f93d a09d 92bd 6400 c5bd c221 c1bd
000001f0: d0ba 7abc e6e7 2bbe 51bd 1fbe 9931 323e
00000200: 7da9 acbd e498 02bd 98ba 41bd d006 1fbe
00000210: b84c ffbc f4a6 5d3d 3002 93bd 60e1 f6bb
00000220: 00ac 5dba a434 34be bb8c 033e f538 123e
00000230: 06d7 f63d 2ac9 6dbd 2630 bd3d e099 29be
00000240: 8820 33bd 1444 13bd 2ab5 7fbd 660e 983d
00000250: 3cf7 a4bd c0d8 a7bc 6c14 51bd fffd 29be
00000260: 3026 efbc da68 19be 321b d33d 0a7f c13d
00000270: d593 293e ae25 73bd a048 133c 08d7 0d3d
00000280: 65b2 343e bdec 253e 8b5e bbbd a307 1abe
00000290: 8e26 23be df57 aebd d932 183e 5c2e 733d
000002a0: 37a8 2e3e e12c 063e 80f5 273b f661 e0bd
000002b0: f7c3 303e 6135 113e fabd 9c3d bcc4 c5bd
000002c0: 719a 0e3e 20ce 833c 6a64 ef3d 561a 973d
000002d0: de3e c03d 12d7 1ebe 5ebe c8bd f623 d93d
000002e0: ecd9 16bd b07b 1dbe 6d9e 243e 8089 7abb
000002f0: 7f06 123e de7c 0dbe 9c4b 793d 5f5e 88bd
00000300: f759 98bd 4805 17bd d401 86bd fe61 c63d
00000310: f492 09bd 8740 093e e438 253d 10c3 dfbc
00000320: 021d d1bd 28c1 25be c03a 53bd 2fa1 27be
00000330: 7826 06bd 405a 3d3b 30a6 3abc ead6 b1bd
00000340: 2247 fb3d 92e4 cb3d 6465 32bd 290b 8fbd
00000350: 329c e33d c17d 1d3e 8fbf 25be 9071 1cbd
00000360: 5064 86bc 7e14 83bd b189 1a3e b0e8 d5bc
00000370: 1b7a 193e 0017 653a 4815 9dbc 812d d3bd
00000380: a6c2 70bd b451 693d ae24 a03d 201a cebb
00000390: a57b 2c3e 3094 fabd 7ccf 8a3d 2b0a 233e
000003a0: 00cf fbbc 81b6 0f3e c0f9 3e3b 2e8e 07be
000003b0: cf9e c6bd a4c1 863d feab 9cbd 0c26 2e3d
000003c0: 532b 323e 74f4 753d 5088 87bc 98fc 343d
000003d0: 1996 d0bd 201a 18be 7912 08be cee4 17be
000003e0: 4498 143d c009 0d3d d7da 99bd 6d10 31be
000003f0: 3a1e c43d 926c cdbd 20c4 f1bc 0cc8 17be

in_layer1.layers.2.bias f4 [32]
-0.012569666 0.17159115 -0.03372237 -0.11535156 0.029462993 -0.049782276 -0.024234205 0.17128776
-0.0050721616 0.15442182 0.02360773 -0.065764785 0.12960549 -0.1006971 0.005848989 0.03973481
0.07934342 -0.1631047 0.00867191 -0.045770973 0.11461605 0.059475437 0.070851564 0.106288716
-0.039576948 -0.011326 0.14181973 -0.14248009 -0.12219153 0.012932107 -0.07002612 0.010124177
00000000: 00f1 4dbc 97b5 2f3e 7820 0abd 703d ecbd
00000010: 605c f13c 80e8 4bbd d086 c6bc 0f66 2f3e
00000020: 6034 a6bb c120 1e3e 0065 c13c b0af 86bd
00000030: 4db7 043e 483a cebd e0a8 bf3b f8c0 223d
00000040: ce7e a23d eb04 27be a014 0e3c 587a 3bbd
00000050: d2bb ea3d 849c 733d a01a 913d e6ad d93d
00000060: 701b 22bd b090 39bc 3139 113e 4de6 11be
00000070: 8e3f fabd 30e1 533c db69 8fbd e0df 253c

in_layer2.layers.0.weight f4 [32, 3]
0.56275254 -0.3469576 -0.5328314 -0.30481532 0.65237033 -0.2696227 -0.13289358 0.058343075
0.06139328 -0.5737178 0.59899086 0.061159637 0.47339898 -0.12008301 -0.21386196 -0.21751076
0.34278777 -0.23424983 0.32438532 -0.46026546 -0.40304852 0.487999 -0.3142346 -0.29373443
-0.38510394 0.52992713 -0.22422189 -1.1142342 0.54235566 0.47767133 -0.37950125 -0.86726385
0.70918244 -0.007988329 -0.4657706 0.4250605 -0.020901116 -0.0383999 -0.057968438 -0.06609886
0.021500764 0.025469173 -0.33549082 0.80957466 -0.4455263 -0.20370305 0.42164645 -0.785305
-0.17760439 0.5012125 -0.578616 0.3138586 -0.21596132 -0.26853338 -0.8891515 0.32195097
0.49710476 -5.5771507e-05 0.0004347235 -3.5251764e-05 0.06872032 -0.021743609 0.014669406 0.051405154
-0.124029845 0.2984397 0.050900664 0.029487979 0.30305278 0.00012520372 -0.0006010963 -0.00035257335
0.11345065 0.2924052 -0.11907409 -0.32379377 -0.7844326 0.74649984 -0.04127617 0.011609991
-0.13067031 4.3213866e-05 -0.0004247734 3.2135962e-05 -0.33005735 -0.39784503 0.5020304 -0.003372503
-0.004286713 -0.003544182 0.33210933 -0.028233131 -0.050536882 -0.105707176 0.43863654 -0.41629854
00000000: 8d10 103f 6da4 b1be a367 08bf c110 9cbe
00000010: be01 273f fd0b 8abe 4115 08be 26f9 6e3d
00000020: 8577 7b3d 2bdf 12bf 7757 193f 8782 7a3d
00000030: 5a61 f23e 15ee f5bd a1fe 5abe 24bb 5ebe
00000040: e181 af3e 30df 6fbe d515 a63e eaa7 ebbe
00000050: 605c cebe 01db f93e 5ce3 a0be 5c64 96be
00000060: 582c c5be 4ea9 073f 6c9a 65be 3a9f 8ebf
00000070: d2d7 0a3f 5691 f43e fd4d c2be 0105 5ebf
00000080: fb8c 353f 7be1 02bc 7c79 eebe 88a1 d93e
00000090: d138 abbc 3749 1dbd 5070 6dbd d75e 87bd
000000a0: 5f22 b03c baa4 d03c 74c5 abbe 4940 4f3f
000000b0: 061c e4be 8897 50be 0be2 d73e c009 49bf
000000c0: eddd 35be 764f 003f 2e20 14bf 13b2 a03e
000000d0: f724 5dbe 357d 89be 6f9f 63bf c2d6 a43e
000000e0: 8484 fe3e 33ec 69b8 9aeb e339 4bdb 13b8
000000f0: 3dbd 8c3d a71f b2bc f357 703c 368e 523d
00000100: 5c03 febd 17cd 983e 377d 503d c690 f13c
00000110: bc29 9b3e 1e49 0339 e492 1dba 98d9 b8b9
00000120: d058 e83d 22b6 953e 1edd f3bd 4cc8 a5be
00000130: 93d0 48bf 9d1a 3f3f 3411 29bd d537 3e3c
00000140: 70ce 05be 8940 3538 1fb4 deb9 bac9 0638
00000150: 47fd a8be 58b2 cbbe 1085 003f 3605 5dbb
00000160: 8e77 8cbb 8245 68bb 3c0a aa3e 2b49 e7bc
00000170: c3ff 4ebd 017d d8bd f894 e03e 1525 d5be

in_layer2.layers.0.bias f4 [32]
0.22081895 0.153777 0.010276106 0.06925865 -0.30933693 0.37236312 0.25313988 -0.21015504
-0.28284934 -0.15765937 0.37849444 -0.23247732 0.101695545 0.012773903 -0.3312663 0.3102132
-0.13674682 -0.08920634 -0.045076862 -4.8927686e-05 -0.10606504 -0.39074585 -0.09777457 0.0005087409
-0.27445456 0.08020867 -0.077157326 0.00020084943 0.18683502 0.011208622 -0.30964231 -0.064990304
00000000: 5d1e 623e b877 1d3e 1d5d 283c 7bd7 8d3d
00000010: 6961 9ebe 61a6 be3e 8d9b 813e e232 57be
00000020: a1d1 90be 7571 21be 06ca c13e 890e 6ebe
00000030: c145 d03d a249 513c bd9b a9be 44d4 9e3e
00000040: 5c07 0cbe d0b1 b6bd 84a2 38bd b437 4db8
00000050: a138 d9bd d70f c8be 093e c8bd 065d 053a
00000060: 4f85 8cbe 7144 a43d a904 9ebd 1c9b 5239
00000070: ae51 3f3e 5ea4 373c 7089 9ebe a319 85bd

in_layer2.layers.2.weight f4 [32, 32]
0.024596026 0.09499149 0.001818862 0.008780612 0.014305813 -0.010738489 -0.061523203 0.050580297
0.0056904326 -0.016492518 -0.01759765 0.062140662 -0.0008033438 0.00650338 0.060353287 0.0360003
0.0862846 0.025091354 -0.012492829 0.0005943208 0.006378104 0.014879839 -0.03519488 -0.0007931016
-0.060660664 0.006879241 0.013079016 -0.00072761375 0.018081602 -0.0010617045 0.036036365 -0.06578154
-0.11667733 -0.039314844 0.012851567 -0.120275706 -0.10563991 0.115458496 -0.08448625 -0.24905685
-0.27798644 -0.10811457 -0.29597443 -0.24154305 -0.013303578 -0.031503223 -0.41007283 -0.262314
-0.27793008 -0.23120125 -0.0941654 -0.00014351001 -0.028671313 -0.07422069 0.06577417 -7.725796e-05
-0.0011172326 -0.33519155 0.01104466 0.00013441172 -0.17759827 -0.0006372289 -0.12354384 -0.17318492
-0.14164889 0.009048215 0.057910446 0.2769142 -0.07323613 0.08247852 -0.041563593 -0.014735987
0.14460503 0.5457727 0.067428544 0.010865119 -0.007336787 0.02259999 0.107745044 -0.030485008
0.0032301268 -0.040906414 0.4566635 -1.6853266e-05 -0.016301045 0.046260104 -0.006926079 0.0004963711
-0.011543527 0.102857366 0.02261041 -4.893899e-06 0.048707586 -0.00015584972 -0.06793497 0.007666374
-0.0006424941 5.345189e-05 -5.0020994e-05 0.00060830207 0.00088227825 7.092913e-05 0.00079731585 0.0008735214
0.0019910133 -0.0016082278 0.0005573794 5.9257563e-05 -0.00013303189 -6.8344725e-06 0.00065996347 0.00021125443
0.0012684586 0.00064818346 -0.0015376245 -1.686385e-05 -0.00028577016 -0.0003275274 -0.0006119095 5.844294e-05
0.0005186308 0.0006346695 -3.2655247e-05 2.0533025e-05 -0.0001148022 5.834206e-05 0.0004778071 0.0008887333
-0.11208039 -0.09306821 0.0013113627 -0.06238549 -0.029324649 0.0076167495 -0.061668936 -0.053229485
-0.055441074 -0.073961765 0.002985167 -0.0005081847 0.0023081158 0.0035988116 -0.10953989 -0.05928984
-0.0502031 -0.030680362 -0.029693779 -0.0013493452 -0.005730228 -0.025050793 -0.020785194 0.0008177948
0.022203032 0.033087336 0.005518228 0.0012949622 0.0782335 0.0011989236 -0.014848741 -0.024035953
-0.007604151 -0.011951774 -8.672215e-05 0.008210926 -0.013309241 -0.006762201 0.02425071 0.0057563027
0.007869441 0.0068708933 -0.101301774 0.0018007595 3.9105784e-05 0.00067517476 0.009333989 -0.016314516
-0.0035191146 0.000797215 -0.0022799186 -8.112247e-06 0.0018913791 0.005822181 -0.0039650905 -0.00027242463
-0.00991345 -0.10704706 -0.0010599957 9.486272e-05 -0.058791835 0.00020326818 -0.001146222 -0.009679011
0.0023655212 -0.00061881496 6.248809e-05 -0.00085941196 0.0010251305 -0.00056184334 0.000851255 0.00088333373
0.00040843728 -0.0015906367 0.0021150748 0.0012799592 -0.00051332527 0.00024027468 -0.000286439 0.00010778556
0.0006370684 0.0010170918 -0.0004993447 4.56738e-05 -0.00018303088 0.0009733359 0.00016825857 2.3397493e-05
-0.000630755 0.002174639 0.00018020389 2.4526687e-05 0.0014353199 0.0001454478 0.00070467877 0.00032429385
-0.17981105 0.05067461 0.011163457 0.04403586 -0.093762144 0.027978087 -0.115715325 -0.1132888
-0.055491596 -0.05271967 -0.05680078 -0.04209421 -0.0033972696 0.007408506 -0.07512732 -0.09605249
-0.075959325 -0.08504579 -0.02546098 -0.00053947663 -0.007682967 -0.011986604 0.023851661 -2.9116858e-05
-0.011154872 -0.06635742 -0.01696418 0.00065897556 0.0043706154 0.0004870466 -0.052222285 -0.04869241
00000000: 9b7d c93c e68a c23d e266 ee3a 8edc 0f3c
00000010: ee62 6a3c 7df0 2fbc c1ff 7bbd 492d 4f3d
00000020: cf76 ba3b 511b 87bc f228 90bc 3587 7e3d
00000030: 7d97 52ba 4e1a d53b 0235 773d 0d75 133d
00000040: fbb5 b03d 628c cd3c b9ae 4cbc 32cc 1b3a
00000050: 6aff d03b 91ca 733c 8228 10bd 26e8 4fba
00000060: 5177 78bd 426b e13b 5e49 563c 55bd 3eba
00000070: de1f 943c e428 8bba de9a 133d 79b8 86bd
00000080: 86f4 eebd 9a08 21bd 618f 523c 1c53 f6bd
00000090: bd59 d8bd 8175 ec3d 2107 adbd c208 7fbe
000000a0: 3d54 8ebe 2c6b ddbd f689 97be 1057 77be
000000b0: 40f7 59bc 8609 01bd 11f5 d1be 054e 86be
000000c0: da4c 8ebe 05c0 6cbe cad9 c0bd 2d7b 16b9
000000d0: 1ae0 eabc 0401 98bd 9cb4 863d 8d05 a2b8
000000e0: 1b70 92ba 3a9e abbe a9f4 343c dff0 0c39
000000f0: 52dc 35be b50b 27ba 8e04 fdbd 6357 31be
00000100: 680c 11be f73e 143c 8133 6d3d b3c7 8d3e
00000110: d3fc 95bd 80ea a83d 963e 2abd 366f 71bc
00000120: 5713 143e c2b7 0b3f fa17 8a3d 9d03 323c
00000130: 6e69 f0bb 9d23 b93c 6fa9 dc3d b2bb f9bc
00000140: 89b0 533b 7c8d 27bd cccf e93e 1d60 8db7
00000150: c589 85bc 3c7b 3d3d 29f4 e2bb e71e 023a
00000160: 1021 3dbc e2a6 d23d 7739 b93c 4636 a4b6
00000170: 9b81 473d 976b 23b9 7d21 8bbd 3536 fb3b
00000180: 0d6d 28ba 8831 6038 a2cd 51b8 7676 1f3a
00000190: b148 673a c9bf 9438 f602 513a 07fd 643a
000001a0: a97b 023b 2ccb d2ba 191d 123a 538b 7838
000001b0: 7a7e 0bb9 ac53 e5b6 6601 2d3a 2e84 5d39
000001c0: 6842 a63a dbea 293a 1e8a c9ba d876 8db7
000001d0: 6cd3 95b9 fcb7 abb9 8d68 20ba a120 7538
000001e0: b9f4 073a f35f 263a 4ef7 08b8 563e ac37
000001f0: f6c1 f0b8 4fb4 7438 2f82 fa39 e2f9 683a
00000200: 678a e5bd 8c9a bebd 08e2 ab3a ed87 7fbd
00000210: 3f3a f0bc ed95 f93b 9198 7cbd 2907 5abd
00000220: 2e16 63bd 4479 97bd cba2 433b b337 05ba
00000230: c243 173b 0ada 6b3b 7356 e0bd e7d9 72bd
00000240: c4a1 4dbd 6255 fbbc 5e40 f3bc 83dc b0ba
00000250: a3c4 bbbb 5237 cdbc b645 aabc 4861 563a
00000260: 22e3 b53c 9686 073d 40d2 b43b b9bb a93a
00000270: e338 a03d 3325 9d3a 2248 73bc 0ce7 c4bc
00000280: 3e2c f9bb 60d1 43bc 9ade b5b8 1f87 063c
00000290: 010f 5abc 7495 ddbb 6da9 c63c 5e9f bc3b
000002a0: d4ee 003c 3b25 e13b 4e77 cfbd 7607 ec3a
000002b0: 8405 2438 36fe 303a 96ed 183c 05a6 85bc
000002c0: f2a0 66bb 31fc 503a b06a 15bb d619 08b7
000002d0: 27e8 f73a fec7 be3b 97ed 81bb 37d4 8eb9
000002e0: 066c 22bc 7d3b dbbd 8eef 8aba 09f1 c638
000002f0: b5cf 70bd 6324 5539 d43c 96ba b794 1ebc
00000300: dc06 1b3b f837 22ba 0a0c 8338 294a 61ba
00000310: ac5d 863a ab48 13ba c226 5f3a 868f 673a
00000320: 8623 d639 e97c d0ba 119d 0a3b 4ec4 a73a
00000330: ad90 06ba 3ef2 7b39 312d 96b9 ef0a e238
00000340: f000 273a f04f 853a 75e6 02ba df91 3f38
00000350: faeb 3fb9 7727 7f3a 916e 3039 bc45 c437
00000360: 4059 25ba 6384 0e3b 1df5 3c39 a9be cd37
00000370: 5821 bc3a 5983 1839 31ba 383a fc05 aa39
00000380: 6320 38be 2e90 4f3d efe6 363c f25e 343d
00000390: 5e06 c0bd 4d32 e53c 28fc ecbd f503 e8bd
000003a0: 284b 63bd 95f0 57bd efa7 68bd fa6a 2cbd
000003b0: baa4 5ebb 0dc3 f23b 5adc 99bd 2bb7 c4bd
000003c0: 9090 9bbd 7d2c aebd 8c93 d0bc aa6b 0dba
000003d0: 66c1 fbbb 7663 44bc 8f64 c33c fa3f f4b7
000003e0: edc2 36bc 66e6 87bd 77f8 8abc 1abf 2c3a
000003f0: 6137 8f3b 4a5a ff39 09e7 55bd b171 47bd

in_layer2.layers.2.bias f4 [32]
-0.00078770745 0.11361082 -0.16884445 8.226061e-05 -0.06865034 -0.0025696708 -0.0020823805 0.10820433
0.07912466 -0.0017325673 -0.0003049397 -0.13399604 0.03448035 -0.00029196413 0.0036516986 -0.07331926
-0.01618943 0.027879298 -0.03584909 -0.13072778 0.0018133634 0.21389568 -0.092167616 -0.0007471482
0.027853113 -0.0013144867 -0.02793845 0.025142293 -0.0038307477 -0.0018229242 0.09981518 0.09653994
00000000: 277e 4eba caac e83d 8fe5 2cbe 5483 ac38
00000010: 8d98 8cbd ec67 28bb 8c78 08bb 3b9a dd3d
00000020: 1c0c a23d 5017 e3ba 50e0 9fb9 4236 09be
00000030: 443b 0d3d c312 99b9 5651 6f3b 6828 96bd
00000040: b29f 84bc 2063 e43c 7fd6 12bd 81dd 05be
00000050: 61ae ed3a 7807 5b3e 60c2 bcbd 44dc 43ba
00000060: 362c e43c db4a acba 2ddf e4bc 36f7 cd3c
00000070: 480d 7bbb 30ef eeba e76b cc3d bbb6 c53d

sat_layers.layer0_1.0.agg_weight f4 [3]
-1.3026534 0.023256557 0.3547923
00000000: 59bd a6bf 8984 be3c 56a7 b53e

sat_layers.layer0_1.0.input_linear_layer1.weight f4 [32, 32]
-0.09620152 0.23994529 -0.014425971 -0.10415081 -0.00445771 0.13256007 -0.0051093567 -0.018280743
-0.041544087 -0.01729937 -0.01229716 -0.013341937 -0.023171363 0.010898606 -0.027291652 -0.03706308
-0.013048624 -0.01729584 0.13161682 -0.005355919 -0.004988593 -0.02975027 -0.1482252 0.020603426
0.03343192 0.01770514 0.11363782 -0.019217256 -0.03397462 -0.016235616 0.15229456 -0.1136838
-0.20512153 0.40469182 -0.010263307 -0.20678851 -0.14855097 0.28780493 -0.0025666775 -0.021930607
0.0007551293 -0.012375477 -0.009173973 0.021583078 -0.015006628 0.018651456 -0.1674209 -0.08892141
0.029073264 -0.020353416 0.5473494 -0.01060301 -0.006489465 -0.033095896 0.003993502 0.06558775
0.20280999 0.066681884 0.24681437 -0.014610439 -0.081222564 0.0065364083 0.556855 -0.11051344
-3.774437e-05 -6.118968e-05 -8.807268e-06 -3.742906e-05 -3.746186e-05 -8.228034e-05 6.16611e-06 -1.2242681e-05
-4.3053726e-05 1.5111224e-05 1.9599906e-06 4.8598497e-05 1.4222034e-05 -6.1034043e-05 -4.6199944e-05 1.3027557e-06
-5.8164907e-05 3.4289704e-05 4.7681824e-05 3.9535735e-05 -2.9707768e-05 -8.6575055e-05 -4.398398e-05 4.944717e-05
2.3476332e-07 4.690267e-05 -6.2928666e-06 1.3867518e-06 -5.494166e-06 6.1217165e-06 4.5502056e-05 -3.767233e-05
-7.859692e-05 -7.1413786e-05 1.1258614e-06 -7.856989e-05 -7.853636e-05 -5.6866884e-05 1.1562778e-06 -6.137703e-06
-7.792646e-05 2.5657505e-06 1.0294391e-06 -5.0015257e-07 2.785416e-06 3.7728719e-06 -7.795252e-05 -2.3291495e-06
-2.6241358e-05 -1.4421082e-07 -6.422307e-06 1.211695e-07 1.926284e-06 -8.6391736e-07 -7.664499e-05 3.3383549e-06
6.70954e-06 3.2641587e-06 -2.0253436e-05 -4.5627164e-07 -2.1715268e-06 -8.0866704e-07 -3.695566e-06 -7.8615536e-05
-0.04831657 0.15080291 -0.006053191 -0.087647974 -0.008206206 0.1297985 -0.0014858445 -0.0062889378
-0.009014944 -0.0063950242 -0.0044396995 -0.00462225 -0.007765218 0.0031901754 -0.19250801 -0.012296133
0.023340309 -0.00636071 0.052545544 -0.0016963023 -0.0018191802 -0.010311831 -0.07155217 0.007108483
0.008404121 0.0062240865 0.05138089 -0.0074959337 -0.012156751 -0.005324054 0.060278654 0.030939074
-6.0217786e-05 -3.7713813e-05 1.0199999e-06 -6.0505085e-05 -6.0474664e-05 -3.1347634e-05 1.749976e-06 -5.1224497e-06
-5.502125e-05 2.2352428e-06 1.007673e-06 -1.2604802e-06 2.8955603e-06 4.367284e-06 -0.000112097325 -8.445866e-07
-1.1574749e-05 1.1415377e-06 2.8483896e-06 1.3799748e-06 2.6181408e-06 -2.4136616e-06 -5.512212e-05 1.7218174e-06
7.1102772e-06 1.9699942e-06 -5.743965e-06 -4.6021182e-07 -7.8258364e-07 -1.6165952e-06 4.812993e-06 -6.0105118e-05
0.00014727646 0.00014163903 1.0033263e-05 0.0001473841 0.00014738823 0.00015095873 3.3568296e-05 -8.2993254e-05
0.00014573547 3.6687514e-05 1.2227854e-05 -1.9002622e-05 5.374638e-05 7.910778e-05 -0.00018051904 -4.3120897e-05
-0.00015457402 -7.897822e-06 3.386049e-06 -2.2114855e-06 3.189579e-05 -2.2209988e-05 0.00014660489 6.497221e-05
-3.9619295e-05 6.122996e-05 0.00012657401 -8.299169e-06 -3.9513467e-05 -1.9414949e-05 -1.327586e-05 0.00014725163
-0.070090145 0.14312807 -0.0036563554 -0.03601712 -0.057798713 0.10958614 -0.0009619287 -0.003266821
-0.032490965 -0.0038160677 -0.0024796315 -0.0023753848 -0.004549822 0.0014284151 0.040261336 -0.0070904824
0.10140222 -0.003887609 0.02907416 -0.0010886235 -0.0013482353 -0.0056892103 -0.054911267 0.0039222944
0.004255258 0.0034532368 0.020802546 -0.004395824 -0.0070141344 -0.002676712 0.03289772 0.016989078
00000000: 4d05 c5bd 38b4 753e e85a 6cbc 054d d5bd
00000010: fb11 92bb d4bd 073e 646c a7bb 7fc1 95bc
00000020: 222a 2abd 69b7 8dbc 077a 49bc 2498 5abc
00000030: dfd1 bdbc 1190 323c be92 dfbc 75cf 17bd
00000040: e5c9 55bc 01b0 8dbc 8fc6 063e b480 afbb
00000050: 5a77 a3bb d7b6 f3bc 59c8 17be 84c8 a83c
00000060: e9ef 083d 5f0a 913c f2ba e83d 826d 9dbc
00000070: f928 0bbd 8e00 85bc 1bf3 1b3e 0dd3 e8bd
00000080: 610b 52be c433 cf3e 6e27 28bc 5ec0 53be
00000090: bf1d 18be 2b5b 933e b435 28bb d1a7 b3bc
000000a0: dff3 453a 83c2 4abc 6f4e 16bc ffce b03c
000000b0: 5cde 75bc f0ca 983c 6270 2bbe 6e1c b6bd
000000c0: 0e2b ee3c 35bc a6bc 171f 0c3f 3fb8 2dbc
000000d0: 94a5 d4bb 908f 07bd ecdb 823b df52 863d
000000e0: 6cad 4f3e 8390 883d e8bc 7c3e 9f60 6fbc
000000f0: 0458 a6bd 5e2f d63b 0d8e 0e3f df54 e2bd
00000100: b54f 1eb8 f652 80b8 eec2 13b7 26fd 1cb8
00000110: 5e20 1db8 ec8d acb8 7be6 ce36 ea65 4db7
00000120: 9694 34b8 3686 7d37 6288 0336 3dd6 4b38
00000130: 2c9b 6e37 cefe 7fb8 d0c6 41b8 58da ae35
00000140: 18f6 73b8 4ad2 0f38 f8fd 4738 2cd3 2538
00000150: f234 f9b7 a18f b5b8 707b 38b8 7f65 4f38
00000160: 4013 7c34 5cb9 4438 5027 d3b6 6e20 ba35
00000170: 875a b8b6 2569 cd36 76d9 3e38 5b02 1eb8
00000180: 66d4 a4b8 fcc3 95b8 4e1c 9735 e3c5 a4b8
00000190: e3b3 a4b8 5a84 6eb8 6731 9b35 78f2 cdb6
000001a0: 736c a3b8 422f 2c36 422b 8a35 3942 06b5
000001b0: 15ed 3a36 7231 7d36 717a a3b8 7c4e 1cb6
000001c0: e320 dcb7 5ed8 1ab4 327f d7b6 d21a 0234
000001d0: 4f45 0136 f3e7 67b5 77bc a0b8 8008 6036
000001e0: 8222 e136 d20d 5b36 ece5 a9b7 7ff5 f4b4
000001f0: 8cba 11b6 2d13 59b5 5701 78b6 65de a4b8
00000200: 99e7 45bd 146c 1a3e d959 c6bb c880 b3bd
00000210: 5373 06bc e6e9 043e abc0 c2ba 6f13 cebb
00000220: 6ab3 13bc 5a8d d1bb e67a 91bb 3e76 97bb
00000230: 5f73 febb 4312 513b d220 45be b875 49bc
00000240: 2d34 bf3c 816d d0bb ff39 573d 7656 deba
00000250: 8f71 eeba f4f2 28bc f289 92bd 47ee e83b
00000260: 70b1 093c 6cf3 cb3b c574 523d 73a0 f5bb
00000270: 1c2d 47bc 6775 aebb c0e6 763d f173 fd3c
00000280: 5b92 7cb8 e62e 1eb8 eee6 8835 d7c6 7db8
00000290: 2da6 7db8 447b 03b8 b8e0 ea35 82e1 abb6
000002a0: 9ec6 66b8 2e01 1636 613f 8735 c52d a9b5
000002b0: 5951 4236 af8a 9236 cb15 ebb8 8db7 62b5
000002c0: 2b31 42b7 f036 9935 f626 3f36 9337 b935
000002d0: 51b3 2f36 64fa 21b6 ed32 67b8 3219 e735
000002e0: d194 ee36 3e34 0436 49bc c0b6 0813 f7b4
000002f0: bd12 52b5 caf9 d8b5 4c7f a136 6119 7cb8
00000300: 396e 1a39 f084 1439 8954 2837 1e8b 1a39
00000310: 3a8c 1a39 ad4a 1e39 afcb 0c38 aa0c aeb8
00000320: 91d0 1839 ebe0 1938 3c26 4d37 d267 9fb7
00000330: bc6d 6138 aae6 a538 b649 3db9 b6dc 34b8
00000340: 2615 22b9 e380 04b7 e13b 6336 0869 14b6
00000350: d8c7 0538 964f bab7 f3b9 1939 b141 8838
00000360: e52c 26b8 9668 8038 f4b8 0439 a93c 0bb7
00000370: 43bb 25b8 49dd a2b7 62bb 5eb7 8f67 1a39
00000380: 6c8b 8fbd 2a90 123e 779f 6fbb b086 13bd
00000390: 58be 6cbd b36e e03d f129 7cba 2918 56bb
000003a0: 3f15 05bd fe16 7abb 5081 22bb 58ac 1bbb
000003b0: ac16 95bb a839 bb3a 12e9 243d 4757 e8bb
000003c0: f8ab cf3d 42c7 7ebb ef2c ee3c 25b0 8eba
000003d0: 45b7 b0ba 8e6c babb a3ea 60bd 9786 803b
000003e0: b16f 8b3b b34f 623b 1a6a aa3c d80a 90bb
000003f0: d3d6 e5bb c76b 2fbb c2bf 063d ae2c 8b3c

sat_layers.layer0_1.0.input_linear_layer1.bias f4 [32]
0.14473245 0.16838202 -9.543646e-05 -3.0145546e-05 0.24222013 2.12452e-05 -0.00015116639 -0.009004983
-2.8371824e-05 -9.450523e-06 -1.588684e-05 -3.6668724e-05 -0.18487133 -6.759887e-07 0.30138385 0.13664159
0.16025811 0.21185338 -2.263538e-05 -1.6832875e-05 -2.3274783e-06 -0.09442899 -0.10255655 0.0001369761
-2.5793412e-05 -0.13257036 0.19861968 -3.5354813e-05 -4.7695958e-05 0.28876206 -0.19209315 0.30033195
00000000: be34 143e 566c 2c3e 0f25 c8b8 11e1 fcb7
00000010: 8e08 783e b837 b237 6b82 1eb9 a389 13bc
00000020: 0700 eeb7 b08d 1eb7 bb44 85b7 becc 19b8
00000030: e94e 3dbe 9775 35b5 fc4e 9a3e c6eb 0b3e
00000040: b41a 243e 18f0 583e 1ce1 bdb7 5334 8db7
00000050: c631 1cb6 fc63 c1bd 2b09 d2bd 3ea1 0f39
00000060: ee5e d8b7 86c0 07be f562 4b3e f149 14b8
00000070: 250d 48b8 9fd8 933e 11b4 44be 1cc5 993e

sat_layers.layer0_1.0.input_linear_layer2.weight f4 [32, 32]
0.07424869 0.12832381 -0.0028972882 0.08269859 0.04366285 -0.17127892 0.0025005862 -0.012922383
-0.0464171 -0.0044732094 -0.007210385 0.0685196 -0.0022194225 -0.041088812 -0.16700107 -0.0017751731
0.022721045 -0.008958761 -0.045175284 -0.02199954 -0.14244166 0.008358292 -0.014560189 -0.07720324
0.17405337 -0.06695527 -0.131805 -0.0064013614 -0.025635023 0.05769718 0.01700039 -0.055022597
0.105781525 0.039522678 -0.0010217848 0.039773285 0.013812495 -0.026113855 0.0020174587 -0.035544798
0.04395282 0.0016242837 0.0031560985 0.022491146 0.0010776921 -0.078939885 -0.09389561 -0.15300992
-0.106957145 0.0799109 -0.0070039313 0.06819505 0.03741574 -0.02578726 -0.026037935 -0.047464292
0.008760612 -0.025359133 0.091783606 -0.00042444485 0.016304554 -0.063249685 -0.04045264 -0.028700335
0.01891584 -0.078470565 -0.0013627416 0.03879146 0.027627014 0.030609643 -0.0007913283 -0.0066390806
0.01661689 -0.0013411903 0.00023998169 -0.04977942 -0.0015829634 0.011723487 0.08542463 0.055753965
0.04660578 0.006080739 -0.016533101 0.021057053 0.019806106 -0.0012494118 0.01841177 -0.030002285
-0.017736088 -0.051046643 -0.09602144 -0.0026313236 0.03684429 -0.05756006 0.09914122 0.031640407
-0.14562066 0.15060627 0.014566576 -0.18108049 -0.11003214 0.16855243 -0.0034046988 0.038217478
-0.008218568 0.0113574555 0.003528508 -0.014471258 0.0031207702 0.16368164 -0.021529945 -0.07281521
0.14188205 0.023244634 0.17926036 0.05383055 0.1620843 0.07006599 0.0112522505 0.0143984975
0.07363363 0.1571309 0.114891425 0.025918316 -0.1321196 -0.044051334 0.077597745 0.03971941
-0.14495124 0.20202076 0.0081882 -0.1683347 -0.16008748 -0.33839244 0.00073515106 0.021544654
-0.09235672 0.006437658 0.0062636565 0.07058686 0.005919299 -0.1397176 -0.3006645 -0.17129739
0.17352317 -0.23257887 0.15440385 -0.23978814 -0.3654147 0.06615471 -0.036196623 -0.25326893
0.23831084 -0.17503324 -0.18716612 0.0055145035 -0.14460218 0.00774581 0.27207318 -0.00087337446
-0.11950081 0.116548344 0.0007233492 -0.20406912 -0.021264749 0.2600948 0.0008292607 -0.16876575
-0.028815122 0.003355282 -5.524592e-05 -0.2565405 0.0068025254 0.07190873 -0.045973115 -0.36345056
-0.039340973 0.009394603 0.21955785 0.018878674 0.017985875 -0.07585056 -0.023460533 0.20135374
-0.37455833 0.16389461 0.23732844 0.0024674777 -0.3392151 -0.33650768 0.2632579 -0.19567467
0.0013677157 0.03729538 1.3115047e-05 -0.0019152345 -0.0031211667 -0.030189052 -0.0004745271 0.0060770046
0.0039998125 0.0007036532 -0.001159245 0.033063903 -0.00087391655 -0.0078067314 -0.005427725 -0.0021002453
-0.0076760533 -0.005790155 0.05682689 -0.0064076176 -0.006662887 0.0046403785 0.002257235 -0.014847159
0.06382913 -0.014029204 -0.018135281 0.0016363079 -0.0026325101 0.022928527 -0.003926453 0.0006867446
-0.006391485 -0.007503135 -0.0006553196 0.035911113 -0.018502831 -0.051350888 -0.00091324106 -0.0153888315
-0.010078888 -0.0009673838 -0.00063517335 0.012260695 -0.0014830829 0.0025695998 0.006922325 -0.013095536
-0.04595961 -0.026140949 0.014507784 -0.02280205 -0.017091688 -0.0059109293 -0.004099963 -0.032114204
-0.052384734 0.044140715 -0.025708705 -0.002777512 -0.022873683 -0.013343721 0.13188943 -0.0016001408
00000000: b20f 983d 5167 033e 6ee0 3dbb e15d a93d
00000010: d1d7 323d be63 2fbe e0e0 233b 67b8 53bc
00000020: db1f 3ebd 0094 92bb 1845 ecbb 0154 8c3d
00000030: bb73 11bb be4c 28bd 5402 2bbe edac e8ba
00000040: 7c21 ba3c c4c7 12bc b809 39bd 6138 b4bc
00000050: 3adc 11be 38f1 083c dc8d 6ebc bb1c 9ebd
00000060: 0c3b 323e d81f 89bd e4f7 06be 83c2 d1bb
00000070: 8a00 d2bc e153 6c3d 6744 8b3c 605f 61bd
00000080: fca3 d83d 88e2 213d 69ed 85ba 50e9 223d
00000090: ce4d 623c b9ec d5bc 5737 043b 6c97 11bd
000000a0: df07 343d ebe5 d43a 8cd6 4e3b 5a3f b83c
000000b0: 5941 8d3a 3cab a1bd 574c c0bd a2ae 1cbe
000000c0: 590c dbbd 53a8 a33d 3c81 e5bb d9a9 8b3d
000000d0: 3f41 193d ce3f d3bc 824d d5bc eb69 42bd
000000e0: ac88 0f3c f5bd cfbc 0bf9 bb3d 0688 deb9
000000f0: 2191 853c 0d89 81bd abb1 25bd f71c ebbc
00000100: 64f5 9a3c 2db5 a0bd 059e b2ba cbe3 1e3d
00000110: 0c52 e23c 13c1 fa3c 2571 4fba a58c d9bb
00000120: 2520 883c e1ca afba 98a3 7b39 81e5 4bbd
00000130: 707b cfba de13 403c 1cf3 ae3d 455e 643d
00000140: b4e5 3e3d f040 c73b 6d70 87bc d77f ac3c
00000150: 6a40 a23c 4ec3 a3ba 48d4 963c 5ac7 f5bc
00000160: 464b 91bc 4916 51bd e4a6 c4bd 4972 2cbb
00000170: 0aea 163d 19c4 6bbd 8d0a cb3d 5f99 013d
00000180: 951d 15be 8838 1a3e a6a8 6e3c 2a6d 39be
00000190: 8858 e1bd 0299 2c3e 5e21 5fbb ee89 1c3d
000001a0: 2ca7 06bc 9f14 3a3c 8a3e 673b db18 6dbc
000001b0: d685 4c3b 299c 273e 915f b0bc 2420 95bd
000001c0: 8749 113e 886b be3c 0790 373e 6c7d 5c3d
000001d0: 6df9 253e c27e 8f3d 5c5b 383c ade7 6b3c
000001e0: 3bcd 963d ece6 203e 324c eb3d a652 d43c
000001f0: 5c4a 07be 2c6f 34bd 91eb 9e3d d2b0 223d
00000200: 196e 14be 88de 4e3e cd27 063c ee5f 2cbe
00000210: f9ed 23be c641 adbe 27b7 403a 6a7e b03c
00000220: 8525 bdbd fdf2 d23b 5c3f cd3b d88f 903d
00000230: aef6 c13b 2112 0fbe b3f0 99be 9568 2fbe
00000240: 0fb0 313e 2829 6ebe 0b1c 1e3e 068b 75be
00000250: a317 bbbe 1f7c 873d e942 14bd 77ac 81be
00000260: c207 743e ea3b 33be 7aa8 3fbe 02b3 b43b
00000270: 9812 14be 90d0 fd3b 2d4d 8b3e 2bf3 64ba
00000280: d7bc f4bd e6b0 ee3d 259f 3d3a 7ff7 50be
00000290: 6933 aebc 252b 853e be62 593a eed0 2cbe
000002a0: b10d ecbc 4ae4 5b3b dbb7 67b8 4759 83be
000002b0: b8e7 de3b e244 933d 4e4e 3cbd 3116 babe
000002c0: 0024 21bd d2eb 193c c6d3 603e 73a7 9a3c
000002d0: 1d57 933c 8a57 9bbd 4e30 c0bc ad2f 4e3e
000002e0: 1cc6 bfbe fdd3 273e 3a06 733e 68b5 213b
000002f0: 9aad adbe bc4a acbe bdc9 863e f15e 48be
00000300: ec44 b33a 0ac3 183d b308 5c37 9b08 fbba
00000310: 7d8c 4cbb 084f f7bc f3c9 f8b9 9c21 c73b
00000320: dc10 833b 5e75 383a cff1 97ba 046e 073d
00000330: 8c17 65ba 9ccf ffbb 0fdb b1bb 45a4 09bb
00000340: 6787 fbbb 57bb bdbb 50c3 683d fef6 d1bb
00000350: 5954 dabb 510e 983b 1fee 133b 8041 73bc
00000360: d9b8 823d bfda 65bc 7190 94bc 6279 d63a
00000370: 3186 2cbb 9bd4 bb3c 7aa9 80bb a606 343a
00000380: aa6f d1bb dcdc f5bb c1c9 2bba 8817 133d
00000390: 4093 97bc 4f55 52bd 9266 6fba 7021 7cbc
000003a0: ec21 25bc 0798 7dba c381 26ba 15e1 483c
000003b0: 0164 c2ba bb66 283b acd4 e23b a98e 56bc
000003c0: 2540 3cbd 8b25 d6bc 0eb2 6d3c 5dcb babc
000003d0: de03 8cbc 78b0 c1bb fb58 86bb 2f8a 03bd
000003e0: 6091 56bd e5cc 343d 109b d2bc eb06 36bb
000003f0: 9761 bbbc 9f9f 5abc 060e 073e d1bb d1ba

sat_layers.layer0_1.0.input_linear_layer2.bias f4 [32]
0.1399384 0.015168571 0.015763568 0.120452434 0.03881834 0.032073237 0.004849841 -0.09451894
-0.08058776 -0.020487053 -0.025331547 -0.038244184 -0.03454557 0.01839946 0.057642892 0.012291124
-0.17120384 -0.122359246 0.04875477 0.10719595 0.15594228 0.19238733 -0.030727167 -0.03364693
0.1632757 -0.0049375463 -0.09944653 -0.12610105 -0.021703012 0.009404661 -0.042345546 0.035960943
00000000: 034c 0f3e 9985 783c 9922 813c c4af f63d
00000010: fbff 1e3d 3a5f 033d 6aeb 9e3b 2593 c1bd
00000020: 320b a5bd 77d4 a7bc 1b84 cfbc efa5 1cbd
00000030: a87f 0dbd 77ba 963c f41a 6c3d b660 493c
00000040: 0f50 2fbe 7c97 fabd 15b3 473d 8d89 db3d
00000050: 55af 1f3e 2f01 453e 8ab7 fbbc 5dd1 09bd
00000060: bf31 273e 24cb a1bb 9faa cbbd a220 01be
00000070: 84ca b1bc 0216 1a3c 8672 2dbd c84b 133d
