output/modelparams/dynamicLearning-WORKPLACE-SCUAU-SAT/epoch18_model_state_dict.pth (torch, 261097 bytes, 148 tensors)

in_layer0.layers.0.weight f4 [32, 2]
-0.0707504 0.1816723 -0.27762714 -0.18595809 -0.15530351 0.28151157 -0.22085965 0.6758887
-0.3598177 0.3718153 -0.25611314 -0.1422182 -0.41090536 -0.032082863 0.0014477809 0.00108403
0.3069293 0.23060302 -0.53442854 -0.02613431 0.25340328 0.5110598 -0.4993696 0.73643583
-0.16253965 0.22902532 0.41681692 -0.04709681 -0.40429318 0.031737406 -0.2795662 0.60466003
-0.24954641 -0.035415236 -0.0013185793 -0.00070337486 -0.6490102 0.808013 0.07142647 -0.0024839262
0.048622776 -0.38663864 0.10950787 -0.24584192 -0.45899975 0.045077946 0.00017138514 0.00087044056
-0.45085832 0.17061464 0.27997625 0.6528435 0.17361291 0.1446152 0.5166079 -0.5328702
0.005556777 -0.39175767 -0.5074394 -0.06821711 0.3216556 0.0035446514 -0.23645665 -0.0052215797
00000000: 96e5 90bd 4e08 3a3e 2525 8ebe cc6b 3ebe
00000010: e207 1fbe 4922 903e 0829 62be 0b07 2d3f
00000020: 073a b8be 935e be3e 4321 83be a6a1 11be
00000030: 3062 d2be 5269 03bd 77c3 bd3a 0316 8e3a
00000040: d625 9d3e 3323 6c3e 4fd0 08bf 9f17 d6bc
00000050: 13be 813e d1d4 023f 5fad ffbe 0f87 3c3f
00000060: cb70 26be 9d85 6a3e 0769 d53e 96e8 40bd
00000070: 84ff cebe 15ff 013d 4d23 8fbe 00cb 1a3f
00000080: 1889 7fbe 910f 11bd 2ed4 acba b062 38ba
00000090: 8825 26bf f1d9 4e3f 0b48 923d 5ec9 22bb
000000a0: ad28 473d 80f5 c5be aa45 e03d fcbd 7bbe
000000b0: 0402 ebbe a7a3 383d d9b5 3339 472e 643a
000000c0: e7d6 e6be 9bb5 2e3e 0c59 8f3e c020 273f
000000d0: 95c7 313e 0216 143e 6a40 043f 2e6a 08bf
000000e0: a015 b63b 7694 c8be 8ce7 01bf 6ab5 8bbd
000000f0: 0bb0 a43e 624d 683b b121 72be c919 abbb

in_layer0.layers.0.bias f4 [32]
0.2343697 -0.04871487 0.14287671 0.13528182 0.32168588 0.52527916 -0.43707564 0.00061148783
0.26869124 0.5218917 0.59531367 0.4756617 0.15301119 -0.4137804 0.09488608 -0.25219503
-0.34849584 0.0012946005 0.5090175 -0.6331863 0.06598309 -0.104112215 -0.07428574 -0.00043188268
0.24387656 -0.33022064 0.17030437 0.36150485 0.33219257 0.17975268 -0.32066122 -0.26652133
00000000: 9cfe 6f3e 3e89 47bd 464e 123e 5187 0a3e
00000010: 03b4 a43e b278 063f 61c8 dfbe 414c 203a
00000020: e691 893e b29a 053f 7a66 183f ee89 f33e
00000030: f7ae 1c3e 06db d3be a253 c23d b51f 81be
00000040: 0c6e b2be 96af a93a f94e 023f 7f18 22bf
00000050: 2422 873d c938 d5bd 1f23 98bd 506e e2b9
00000060: c7ba 793e ae12 a9be 4564 2e3e 2a17 b93e
00000070: 2515 aa3e 1611 383e b52d a4be 7c75 88be

in_layer0.layers.2.weight f4 [32, 32]
0.001873244 0.00031629595 0.0025145116 0.006042462 0.0043956535 0.0039837086 -0.0010025981 -0.001418226
-0.028589202 0.002847566 -0.03672497 0.0075805136 0.0023343184 -0.0017864942 0.0012393082 0.0049053677
-0.0029820558 -2.5295274e-05 0.013439373 -0.0035323666 -0.0016042441 -0.0016768733 0.0004172979 0.00049479346
0.003356706 0.0023060336 -0.0028185716 0.04184782 -0.010333741 0.0011028682 -0.0015731844 -0.0022021595
0.03011759 -0.07092909 0.101160534 0.19431125 0.03378065 0.010219364 0.015127944 -0.0022667758
0.018767338 0.08456661 0.09375645 0.2569708 0.14142077 -0.024267795 0.08758456 0.15880518
-0.102318205 -0.00053565507 0.31444147 -0.018243244 -0.08494644 -0.07112723 -0.05825405 9.829793e-05
0.11561875 0.101727046 0.049008865 -0.26865616 -0.021080222 -0.0020961391 -0.016982317 -0.040480793
-0.0009250543 -0.00013090491 -0.00088566047 -0.0022232132 -0.0020338052 -3.0288305e-05 -0.00037071592 -0.0014008716
-0.022195 -0.0012104943 0.06584182 -0.005866961 -0.00066916784 8.908292e-05 -0.0009324532 -0.0010343327
-0.0011378117 -3.195751e-05 -0.0038313933 -0.0023222188 0.0006012069 8.994255e-06 0.00015602785 0.00040077593
-0.0009199721 -0.00042428388 0.00028777053 0.0043463428 -0.0038081494 -0.0003411974 -1.5314472e-05 0.0005866618
-0.03546434 0.037970312 -0.007797983 -0.012907521 -0.013654319 -0.05446959 0.05192994 -0.00076498336
-0.13264057 -0.009811681 -0.2386452 -0.03823344 -0.0070067532 0.0046794624 0.031974662 0.038537942
0.051703606 -0.00029645202 -0.03062088 0.051734105 -0.014038526 0.0037389842 0.046221297 -0.00021793295
0.015359435 -0.00022876056 -0.06924176 -0.21347691 -0.0613485 0.033568025 0.0041186432 0.04799531
-0.033498447 0.037969936 -0.011741401 -0.018406538 -0.018310864 -0.053322863 0.051708218 0.00010291955
-0.12955523 -0.01382285 -0.21915716 -0.0417923 -0.010785163 0.0076932847 0.029711222 0.032014746
0.051428374 -0.00016632464 -0.035161193 0.051243737 -0.009603546 0.006806394 0.045607075 0.00018337165
0.007900163 -0.0056291744 -0.068519145 -0.19254035 -0.05896608 0.03156157 0.006784608 0.04788586
0.0017144122 9.341613e-06 0.0027430807 0.007310108 0.0052003446 0.003485628 -0.001450423 -0.00143617
0.01124053 0.0031798813 -0.02279426 0.012168018 0.002499078 -0.0018170254 0.0018020432 0.0037148595
-0.0032630977 -2.706372e-05 0.009380884 -0.0032535153 -0.0016259913 -0.0016799999 0.0010354863 0.0006049756
0.0039895354 0.0024257016 -0.0053215967 0.044987395 -0.0019838132 0.0021518306 -0.0015678785 8.35579e-05
0.0010567189 -0.00094760023 0.0033319497 0.006301303 0.0049843765 0.00031785626 -0.0018376855 -0.0015591405
0.022923505 0.0036262702 0.024865761 0.007334379 0.0031302343 -0.0025993416 -0.00039286126 0.00023013535
-0.0011658511 -8.1503866e-05 0.01152058 -0.0007832949 -0.00063447375 -0.0024604446 -0.002350102 0.00064263504
0.0014191068 0.0024933754 0.0051473533 0.042736888 -0.0037586386 -0.00032961025 -0.0024195865 -0.0013268418
0.005665938 -0.002425478 0.004236074 0.010873363 0.008368005 0.012331617 -0.0036633222 -0.0015089884
0.038905844 0.0050286613 -0.03695536 0.013365831 0.0037960617 -0.0025423777 -1.9292638e-05 0.0034887607
-0.00052919675 -2.2537743e-05 0.023167754 -0.0015694204 -0.0018732457 -0.0022887362 0.0026868465 0.0006443392
0.0045705787 0.0034277963 0.017932642 0.07305678 -0.0057685114 0.0010066071 -0.0021297392 -0.00018724923
00000000: a387 f53a 86d4 a539 81ca 243b d8ff c53b
00000010: 6a09 903b c589 823b 9c69 83ba c5e3 b9ba
00000020: e733 eabc 3b9e 3a3b ec6c 16bd f565 f83b
00000030: 5dfb 183b cc28 eaba 4870 a23a 35bd a03b
00000040: 986e 43bb 3031 d4b7 d130 5c3c 477f 67bb
00000050: 8045 d2ba 88ca dbba c7c8 da39 07b5 013a
00000060: 2efc 5b3b d320 173b c9b7 38bb 9f68 2b3d
00000070: da4e 29bc 1e8e 903a 4f33 ceba 1b52 10bb
00000080: 2ab9 f63c 4543 91bd 412d cf3d 87f9 463e
00000090: 945d 0a3d 1f6f 273c 32db 773c 308e 14bb
000000a0: f6bd 993c 4231 ad3d 6203 c03d ad91 833e
000000b0: 9bd0 103e 41cd c6bc 895f b33d d39d 223e
000000c0: 358c d1bd 346b 0cba 79fe a03e db72 95bc
000000d0: 66f8 adbd 27ab 91bd cc9b 6ebd 4d25 ce38
000000e0: 86c9 ec3d 4556 d03d 85bd 483d 4d8d 89be
000000f0: 6eb0 acbc 615f 09bb 801e 8bbc 30cf 25bd
00000100: 587f 72ba 8543 09b9 ab2b 68ba 54b3 11bb
00000110: 9749 05bb a413 feb7 a65c c2b9 739d b7ba
00000120: 4ad2 b5bc 73a9 9eba 13d8 863d a33f c0bb
00000130: 186b 2fba 07d2 ba38 e06f 74ba 7292 87ba
00000140: a022 95ba 1d0a 06b8 1d18 7bbb 5e30 18bb
00000150: 509a 1d3a 08e6 1637 689b 2339 3c1f d239
00000160: 482a 71ba 6b72 deb9 e8df 9639 c46b 8e3b
00000170: 2592 79bb bde2 b2b9 9477 80b7 35ca 193a
00000180: 0e43 11bd c286 1b3d 3986 ffbb 117a 53bc
00000190: 5db6 5fbc 811b 5fbd 7db4 543d 2a89 48ba
000001a0: eed2 07be 2cc1 20bc 685f 74be ab9a 1cbd
000001b0: e898 e5bb 2d56 993b ddf7 023d f6d9 1d3d
000001c0: 29c7 533d 1e6d 9bb9 a4d8 fabc 24e7 533d
000001d0: d901 66bc bf09 753b 8b52 3d3d ee84 64b9
000001e0: 24a6 7b3c 72df 6fb9 a0ce 8dbd b199 5abe
000001f0: 9148 7bbd a07e 093d aff5 863b bb96 443d
00000200: ab35 09bd 5d86 1b3d 015f 40bc 4fc9 96bc
00000210: aa00 96bc 1369 5abd ffcb 533d 83d6 d738
00000220: 20aa 04be 3c79 62bc bc6a 60be 672e 2bbd
00000230: 41b4 30bc f317 fc3b f364 f33c e521 033d
00000240: 8fa6 523d 6e67 2eb9 2f05 10bd f4e4 513d
00000250: 3158 1dbc 2c08 df3b 7cce 3a3d 7447 4039
00000260: af6f 013c f074 b8bb c453 8cbd 4c29 45be
00000270: 6b86 71bd b446 013d 6b51 de3b f723 443d
00000280: 21b6 e03a ecb9 1c37 42c5 333b a189 ef3b
00000290: a767 aa3b 226f 643b 1f1c beba de3d bcba
000002a0: 332a 383c 8e65 503b 07bb babc 5e5c 473c
000002b0: 92c7 233b 4129 eeba 8932 ec3a 0075 733b
000002c0: b2d9 55bb e506 e3b7 47b2 193c ee38 55bb
000002d0: 371f d5ba 7133 dcba 28b9 873a 3a97 1e3a
000002e0: a6ba 823b 85f8 1e3b ca60 aebb b444 383d
000002f0: dd02 02bb ba05 0d3b 4681 cdba ce3b af38
00000300: 9a81 8a3a 6068 78ba d75c 5a3b 297b ce3b
00000310: fb53 a33b f2a5 a639 7ede f0ba 135c ccba
00000320: 13ca bb3c b8a6 6d3b 48b3 cb3c 3b55 f03b
00000330: 9e24 4d3b b759 2abb f2f8 cdb9 7d50 7139
00000340: 79cf 98ba 0eed aab8 d1c0 3c3c 0856 4dba
00000350: d052 26ba 693f 21bb 2b04 1abb 8276 283a
00000360: 5301 ba3a e667 233b 21ab a83b e00c 2f3d
00000370: 7e53 76bb 8acf acb9 ed91 1ebb 6ce9 adba
00000380: 55a9 b93b c5f4 1ebb c4ce 8a3b 3126 323c
00000390: f519 093c 8d0a 4a3c 5914 70bb 40c9 c5ba
000003a0: bc5b 1f3d 78c7 a43b 815e 17bd 5cfc 5a3c
000003b0: 59c7 783b 059e 26bb a0d6 a1b7 b1a3 643b
000003c0: cbb9 0aba 6f0f bdb7 4dca bd3c 03b5 cdba
000003d0: b287 f5ba 9ffe 15bb ce15 303b dfe8 283a
000003e0: cbc4 953b e1a4 603b 7ae7 923c cb9e 953d
000003f0: c805 bdbb 21f0 833a 1893 0bbb 5558 44b9

in_layer0.layers.2.bias f4 [32]
0.010517588 -0.108329006 -0.039411403 -0.28598925 -0.32019287 -0.018645462 -0.05851402 -0.045572076
0.006861917 -0.20742153 -0.045061607 0.18783206 0.047641177 0.07809287 -0.05163914 -0.091545776
0.0929015 -0.03572806 0.088101536 -0.32145792 0.03631777 0.0047006807 -0.31365186 0.054560047
0.019166721 -0.046418853 0.2174841 -0.3122086 0.013502237 -0.032226052 0.033771154 -0.049221743
00000000: f651 2c3c 99db ddbd da6d 21bd 2f6d 92be
00000010: 52f0 a3be 5ebe 98bc 66ac 6fbd c9a9 3abd
00000020: efd9 e03b 4f66 54be 8592 38bd 0c57 403e
00000030: 6523 433d 28ef 9f3d 9083 53bd 5a7c bbbd
00000040: 2443 be3d 9657 12bd 946e b43d 2296 a4be
00000050: f1c1 143d 2b08 9a3b fa96 a0be 5b7a 5f3d
00000060: 8703 9d3c b221 3ebd 27b4 5e3e ced9 9fbe
00000070: 7d38 5d3c 77ff 03bd 9f53 0a3d bd9c 49bd

in_layer1.layers.0.weight f4 [32, 2]
-0.5943704 0.010420561 0.5571919 -0.6055631 -0.31541184 0.62103957 -0.11857998 0.29294342
-0.68023545 -0.22237158 -0.35909155 0.59613425 0.29347748 -0.5159586 0.11400467 -0.008127093
-0.29052883 -0.40381214 -0.23464534 0.55736023 -0.50689113 -0.50370276 -0.21815595 0.012301087
0.19248289 0.021218896 -0.1702187 -0.42875433 -0.12687802 -0.28464818 0.571292 -0.6883045
-0.4510344 -0.5752951 -0.12922853 0.5510295 0.6198068 -0.61557555 -0.030636728 0.4150477
0.31169087 0.5791939 -0.019613862 -0.47509992 0.46777266 -0.24247721 0.36613005 -0.17425692
0.30058688 0.6359902 0.6575071 -0.64351314 -0.4677372 -0.2923652 -0.45092273 0.678469
-0.062450826 -0.4690526 -0.31465504 -0.39058074 0.28849208 -0.6167747 -0.65930855 -0.6970384
00000000: a928 18bf 00bb 2a3c 21a4 0e3f 2f06 1bbf
00000010: a97d a1be 73fc 1e3f 10da f2bd aefc 953e
00000020: e923 2ebf 60b5 63be d9da b7be 419c 183f
00000030: ae42 963e dd15 04bf 487b e93d 8027 05bc
00000040: 32c0 94be 77c0 cebe de46 70be 29af 0e3f
00000050: 9ec3 01bf aaf2 00bf 4664 5fbe 808a 493c
00000060: 3c1a 453e 40d3 ad3c d04d 2ebe b085 dbbe
00000070: 50ec 01be 68bd 91be 3140 123f b934 30bf
00000080: fbed e6be 8a46 13bf 7c54 04be 4510 0d3f
00000090: a9ab 1e3f 5c96 1dbf e0f9 fabc 2281 d43e
000000a0: f295 9f3e 0d46 143f 40ad a0bc 4c40 f3be
000000b0: e67f ef3e f24b 78be 6675 bb3e 6870 32be
000000c0: 86e6 993e 41d0 223f 6352 283f 47bd 24bf
000000d0: 407b efbe e4b0 95be 58df e6be 25b0 2d3f
000000e0: 70cc 7fbd aa27 f0be 771a a1be 33fa c7be
000000f0: 3cb5 933e f2e4 1dbf 72c8 28bf 1c71 32bf

in_layer1.layers.0.bias f4 [32]
0.3044265 0.3496322 -0.43916923 0.17534733 0.52197534 0.102743566 -0.14961076 0.052242696
-0.0758214 0.35602766 -0.48013353 0.35857564 0.398542 -0.42841807 0.57739764 0.69450945
-0.27876177 -0.19805664 0.3523906 -0.5539619 0.27963102 0.16497135 0.44571036 -0.61419773
-0.58745354 0.3175822 0.25470746 -0.6581511 -0.3943248 -0.6469875 -0.5065875 -0.31904632
00000000: cadd 9b3e fe02 b33e cada e0be 408e 333e
00000010: 2da0 053f 386b d23d 9033 19be 70fc 553d
00000020: 4048 9bbd 4249 b63e 10d4 f5be 3a97 b73e
00000030: b20d cc3e 9d59 dbbe 55d0 133f 5fcb 313f
00000040: ddb9 8ebe 5ccf 4abe 8a6c b43e 72d0 0dbf
00000050: cc2b 8f3e 40ee 283e 2634 e43e 103c 1dbf
00000060: 5b63 16bf 229a a23e 0469 823e 977c 28bf
00000070: f1e4 c9be f9a0 25bf b8af 01bf 0a5a a3be

in_layer1.layers.2.weight f4 [32, 32]
0.14628951 -0.035187557 0.10153191 0.16788144 0.080562845 -0.15825233 0.08895804 0.06742874
0.13701351 -0.17437857 0.1087205 0.14469905 -0.1644668 0.018495485 0.1509095 -0.12857112
0.058003843 0.07811363 0.04633142 0.17576478 0.14474113 0.15166639 -0.022034645 0.14826484
-0.16474044 -0.09539389 -0.037809193 -0.05251272 0.16328768 0.08337943 0.11381112 0.12024517
-0.13205281 -0.020474449 0.025813743 0.045978293 0.09090434 -0.07034064 -0.053304255 0.14791636
-0.04744409 -0.1227964 0.11986162 0.119705305 -0.05543132 -0.035341203 -0.13043998 -0.1476251
0.06647679 -0.07551769 0.14073114 -0.14154743 -0.024434969 0.0038169175 0.090853885 0.1430708
0.11971398 0.07781641 -0.08113941 -0.12624466 -0.1581467 0.008768946 0.17145221 -0.033577397
-0.007442042 -0.12846255 0.05427216 0.112073496 -0.17428695 -0.124472395 0.13093986 0.041854456
-0.011021331 0.031600296 -0.026877463 -0.12356071 -0.16518542 0.11626743 -0.021025226 -0.06565261
-0.04562874 -0.09641808 -0.052358314 -0.15174766 0.1322897 0.07218543 -0.08915228 -0.060336225
0.079308644 -0.06546137 0.0466149 0.048673958 -0.11127973 0.044282824 0.010815933 0.15439393
-0.06396134 -0.04544373 0.15231092 -0.14435627 0.012771845 0.17032476 -0.079261005 0.16947268
0.15686114 0.16446237 -0.016868576 0.15991808 -0.077025026 -0.06051158 0.0668627 0.037343577
0.097452685 0.1679943 -0.11066028 0.09382011 0.059143215 0.09326173 0.08382262 -0.066126846
-0.13971652 0.14148937 -0.100804366 0.11301814 -0.16840518 -0.030582786 0.0018736422 0.03058654
0.014289215 0.055703446 -0.019683123 0.043293387 0.17493545 -0.11438372 -0.009651437 -0.06747974
0.1551091 0.1513279 -0.0048205703 -0.061276563 -0.109224334 0.12649073 -0.012173489 0.16648997
0.10080902 0.15473343 0.13981687 -0.11487697 0.051742926 -0.07330203 0.08869828 -0.015893951
0.015303537 -0.12226032 -0.15798986 0.06656933 0.041080326 0.015355319 0.12006576 -0.073817424
0.062752336 -0.09736181 0.036628112 -0.040357858 0.123801425 0.15458812 0.15353476 0.007952169
0.10424398 -0.17662437 -0.10369619 0.031594098 0.0009858757 -0.13878259 -0.07824341 -0.08256429
-0.17514364 0.016859323 0.12050761 0.071747184 -0.08399243 -0.16232789 -0.14261937 0.0032790601
0.12160705 -0.07158971 -0.09619215 -0.09430267 -0.015303329 -0.16787681 -0.15599562 0.17401733
-0.08430765 -0.03188409 -0.04729709 -0.15529943 -0.031164512 0.054114297 -0.071781516 -0.007534191
-0.0008456111 -0.17598206 0.12846653 0.1427954 0.12052731 -0.058053173 0.09237699 -0.16562605
-0.043732196 -0.035953596 -0.06242863 0.07424621 -0.08054969 -0.020489097 -0.051044866 -0.16600798
-0.029193014 -0.14981404 0.103079215 0.09448059 0.165603 -0.059362106 0.008989483 0.034628898
0.17646177 0.1620359 -0.09148892 -0.15041976 -0.15932676 -0.08512854 0.14863147 0.059370384
0.17056356 0.13103057 0.0025628507 -0.109561846 0.17262255 0.14180519 0.07653423 -0.09656665
0.13926102 0.016089499 0.11689074 0.0737807 0.09386991 -0.1551173 -0.09801935 0.10602562
-0.03682892 -0.15379214 0.1607606 -0.003822893 0.1426029 -0.13817164 0.060863122 -0.06658625
00000000: ebcc 153e d420 10bd f6ef cf3d 1de9 2b3e
00000010: 22fe a43d e60c 22be a22f b63d 1418 8a3d
00000020: 454d 0c3e 4c90 32be daa8 de3d fd2b 143e
00000030: fc69 28be d883 973c 0588 1a3e 26a8 03be
00000040: 7095 6d3d 0afa 9f3d 04c6 3d3d affb 333e
00000050: 0537 143e 6f4e 1b3e 0082 b4bc bdd2 173e
00000060: b8b1 28be df5d c3bd d0dd 1abd 9417 57bd
00000070: e334 273e d6c2 aa3d ce15 e93d 1a43 f63d
00000080: da38 07be 08ba a7bc 5877 d33c bc53 3c3d
00000090: 0e2c ba3d c10e 90bd 9055 5abd 6377 173e
000000a0: bc54 42bd ae7c fbbd 027a f53d 0e28 f53d
000000b0: f40b 63bd f0c1 10bd 0f92 05be 092b 17be
000000c0: fc24 883d 05a9 9abd d31b 103e cff1 10be
000000d0: d82b c8bc 4025 7a3b 9a11 ba3d 2781 123e
000000e0: 9a2c f53d 365e 9f3d 6b2c a6bd 4846 01be
000000f0: 35f1 21be a0ab 0f3c 2b91 2f3e 7488 09bd
00000100: 60dc f3bb b08b 03be 7c4c 5e3d ca86 e53d
00000110: 4778 32be 62eb febd 1915 063e 946f 2b3d
00000120: d092 34bc 506f 013d 202e dcbc 660d fdbd
00000130: 5e26 29be 9e1d ee3d 183d acbc e074 86bd
00000140: 34e5 3abd d876 c5bd ac75 56bd bd63 1bbe
00000150: f376 073e f4d5 933d 7895 b6bd 1e23 77bd
00000160: 926c a23d 9c10 86bd 44ef 3e3d 585e 473d
00000170: a1e6 e3bd e861 353d 5035 313c 7119 1e3e
00000180: 2afe 82bd 3423 3abd 65f7 1b3e 21d2 13be
00000190: 0041 513c 9d69 2e3e 9853 a2bd 3f8a 2d3e
000001a0: 35a0 203e d368 283e f82f 8abc 91c1 233e
000001b0: 4cbf 9dbd feda 77bd 50ef 883d 94f5 183d
000001c0: 4695 c73d b306 2c3e dba1 e2bd c224 c03d
000001d0: 2840 723d 0200 bf3d 32ab ab3d 836d 87bd
000001e0: d911 0fbe 97e2 103e 8572 cebd 0e76 e73d
000001f0: 6872 2cbe c088 fabc 0095 f53a a090 fa3c
00000200: 501d 6a3c 4c29 643d 803e a1bc 6854 313d
00000210: 4722 333e 0342 eabd 1021 1ebc d132 8abd
00000220: ebd4 1e3e b3f5 1a3e e0f5 9dbb 22fd 7abd
00000230: 02b1 dfbd c986 013e 5073 47bc 597c 2a3e
00000240: f674 ce3d 7172 1e3e 272c 0f3e 9e44 ebbd
00000250: 64f0 533d 601f 96bd 72a7 b53d 0834 82bc
00000260: b0bb 7a3c 9e63 fabd 18c8 21be 8055 883d
00000270: d843 283d e094 7b3c 0ae5 f53d 972d 97bd
00000280: 4c84 803d a165 c7bd 5c07 163d 484e 25bd
00000290: 9a8b fd3d 594c 1e3e 3738 1d3e d049 023c
000002a0: de7d d53d 05dd 34be ab5e d4bd d068 013d
000002b0: 8038 813a 061d 0ebe 153e a0bd 7717 a9bd
000002c0: db58 33be 901c 8a3c b2cc f63d 30f0 923d
000002d0: 3904 acbd 4839 26be d00a 12be 80e5 563b
000002e0: 1e0d f93d a09d 92bd 6400 c5bd c221 c1bd
000002f0: d0ba 7abc e6e7 2bbe 51bd 1fbe 9931 323e
00000300: 7da9 acbd e498 02bd 98ba 41bd d006 1fbe
00000310: b84c ffbc f4a6 5d3d 3002 93bd 60e1 f6bb
00000320: 00ac 5dba a434 34be bb8c 033e f538 123e
00000330: 06d7 f63d 2ac9 6dbd 2630 bd3d e099 29be
00000340: 8820 33bd 1444 13bd 2ab5 7fbd 660e 983d
00000350: 3cf7 a4bd c0d8 a7bc 6c14 51bd fffd 29be
00000360: 3026 efbc da68 19be 321b d33d 0a7f c13d
00000370: d593 293e ae25 73bd a048 133c 08d7 0d3d
00000380: 65b2 343e bdec 253e 8b5e bbbd a307 1abe
00000390: 8e26 23be df57 aebd d932 183e 5c2e 733d
000003a0: 37a8 2e3e e12c 063e 80f5 273b f661 e0bd
000003b0: f7c3 303e 6135 113e fabd 9c3d bcc4 c5bd
000003c0: 719a 0e3e 20ce 833c 6a64 ef3d 561a 973d
000003d0: de3e c03d 12d7 1ebe 5ebe c8bd f623 d93d
000003e0: ecd9 16bd b07b 1dbe 6d9e 243e 8089 7abb
000003f0: 7f06 123e de7c 0dbe 9c4b 793d 5f5e 88bd

in_layer1.layers.2.bias f4 [32]
0.050347 0.041807145 0.0039017498 0.101375565 -0.03864476 -0.10405867 0.06750184 0.047163248
0.06730749 -0.019634783 -0.023459047 -0.014050037 0.046612963 -0.13565113 -0.16476637 0.066149116
-0.096785896 -0.014870942 0.04900755 0.024794593 0.113961235 0.023172513 0.043765545 -0.015823439
0.026093975 0.06481972 0.12059961 -0.16749804 -0.073638655 -0.15862851 -0.070479855 0.10775946
00000000: a838 4e3d f83d 2b3d 80b4 7f3b fe9d cf3d
00000010: f849 1ebd b61c d5bd 683e 8a3d 402e 413d
00000020: 82d8 893d 20d9 a0bc 302d c0bc 2032 66bc
00000030: 3ced 3e3d 21e8 0abe 84b8 28be 3079 873d
00000040: af37 c6bd 40a5 73bc 24bc 483d 081e cb3c
00000050: 8264 e93d 48d4 bd3c 8043 333d 28a0 81bc
00000060: 08c3 d53c 34c0 843d eefc f63d 9b84 2bbe
00000070: ddcf 96bd 836f 22be be57 90bd feb0 dc3d

in_layer2.layers.0.weight f4 [32, 2]
-0.00018317504 -0.00019873213 0.45348945 -0.38804165 0.00096950046 -0.00095560367 -0.016996188 0.5588908
-0.64825356 0.5818375 -0.0008597608 0.0005864527 0.05073232 -0.10404629 -0.00033476253 0.00025267765
-0.39616722 0.74119884 0.43581596 -0.15496358 -0.33553058 0.10837114 -0.11606548 0.44155198
-0.0010229886 -0.0035787488 0.041842274 -0.20081237 -0.0005019223 0.00044680896 -0.00019566208 -0.0001958511
-0.20957786 0.7052875 0.00027688587 -0.00024166367 -0.0015438693 0.0014991763 -0.24277861 0.58607036
-0.09461047 0.70804185 0.018657936 -0.11247277 0.4633498 -0.36943308 0.0011627196 -0.00079215335
5.0872404e-07 -0.00011893163 0.0004928152 -0.000367926 0.0012994789 0.0035127464 4.067236e-05 -9.010452e-05
6.847368e-05 0.00017578612 0.5979414 -0.5522982 -0.10436944 0.10935865 -0.00066126155 0.00050312316
00000000: ad12 40b9 c062 50b9 c52f e83e 65ad c6be
00000010: 1326 7e3a 7a81 7aba 973b 8bbc 7813 0f3f
00000020: f2f3 25bf 4df3 143f 9261 61ba 2dbc 193a
00000030: b1cc 4f3d 3916 d5bd 1183 afb9 d279 8439
00000040: 6ed6 cabe 35bf 3d3f 4523 df3e c6ae 1ebe
00000050: aaca abbe b0f1 dd3d bdb3 edbd 1a13 e23e
00000060: cd15 86ba 7189 6abb ce62 2b3d c2a1 4dbe
00000070: 6f93 03ba af41 ea39 a42a 4db9 615d 4db9
00000080: 949b 56be b98d 343f fe2a 9139 1967 7db9
00000090: a85b caba 0280 c43a f59a 78be b508 163f
000000a0: 22c3 c1bd 3b42 353f 87d8 983c 2058 e6bd
000000b0: 2f3c ed3e 5526 bdbe 6566 983a 83a8 4fba
000000c0: 408f 0835 ef6a f9b8 4530 013a 31e6 c0b9
000000d0: 4753 aa3a 1b36 663b 9d97 2a38 7ff6 bcb8
000000e0: 8799 8f38 3a53 3839 b012 193f 6a63 0dbf
000000f0: a5bf d5bd 6ef7 df3d 8358 2dba 06e4 033a

in_layer2.layers.0.bias f4 [32]
3.264369e-05 -0.01531752 0.00012128299 -0.270126 0.4691338 0.0003761545 -0.061202567 0.0001287595
0.13342157 -0.376318 0.29423586 0.25744087 -0.0025625583 0.01150138 -4.0277086e-05 1.9277319e-05
0.25446263 -0.00010327162 -0.00014411865 -0.35977292 -0.23998262 0.030983504 -0.015555908 -0.0005141032
-8.588651e-05 -8.7369175e-05 0.0026466094 -0.00014017508 0.00017327502 0.28870595 -0.026106717 1.1745225e-05
00000000: e5ea 0838 56f6 7abc 4f59 fe38 f44d 8abe
00000010: 4e32 f03e 9a36 c539 8baf 7abd 9d03 0739
00000020: aa9f 083e c1ac c0be 15a6 963e 4acf 833e
00000030: 98f0 27bb 4970 3c3c 31ef 28b8 bab5 a137
00000040: ed48 823e 8793 d8b8 8e1e 17b9 2834 b8be
00000050: 01be 75be 1ed1 fd3c 35de 7ebc e2c4 06ba
00000060: f81d b4b8 f839 b7b8 bd72 2d3b f6fb 12b9
00000070: 29b1 3539 44d1 933e c1dd d5bc 5b0d 4537

in_layer2.layers.2.weight f4 [32, 32]
0.0005113617 -0.064465135 -0.0005859712 0.039228763 -0.027149651 -0.0006686442 -0.011022818 -0.0007447183
-0.009891111 -0.03006689 -0.014803607 0.081548646 -0.0016626377 -0.017434243 -0.00097561325 0.0005230293
0.047884963 0.00059694157 0.00051421445 -0.016417086 0.035690617 -0.008841317 -0.091078445 0.00096837734
0.00027908816 0.0009841962 0.0008196072 0.0004616264 -0.00047624265 -0.08965846 -0.006477987 -0.00115861
-9.272802e-05 0.0072588716 -0.00045073804 -0.012604162 -0.05398014 0.00024707106 -0.003851875 9.1374415e-05
-0.06210068 0.001943601 -0.0032912134 -0.026659932 0.001531878 -0.0044817114 0.00015475338 -9.541663e-05
-0.062236954 -7.8269026e-05 0.000706355 -0.017611643 -0.033200197 -0.0037530179 0.02058575 -0.00043721494
-9.58941e-06 -0.00015560149 -0.001664884 8.217026e-06 6.579524e-05 -0.0122379465 0.00077385653 0.00022039066
-0.00020811002 -0.026789328 -0.00047426246 -0.016884563 -0.05402621 0.00020738762 -0.003700188 0.00028032786
-0.065564886 -0.031083204 -0.0020952183 -0.034876406 0.0021504678 -0.004372784 0.00038665123 -0.00021331637
-0.07168531 -0.00025152555 0.0007248139 -0.017237853 -0.04051661 -0.00373159 -0.010069133 -0.0004085747
-7.3471354e-05 -0.00039395547 -0.0024486696 -9.941352e-05 0.00016428245 0.053963766 0.0016770625 0.00051395444
-6.108397e-05 0.0143698 1.4458396e-06 0.0013768839 0.00050411344 -5.008605e-05 -0.00069687376 -2.8317156e-05
0.00062704104 0.00093359983 0.00077995146 -6.772772e-05 -2.6033416e-05 -0.001048007 -7.341523e-05 -6.0606308e-05
0.0015997293 2.9484323e-05 1.9731146e-07 0.0004662263 0.0012424054 -0.00063482043 0.008093527 5.35562e-05
-5.3611653e-05 5.0660066e-05 2.2945089e-05 -4.1919968e-05 6.3116495e-05 -0.013678396 0.001010016 -8.6294094e-05
-5.5932906e-05 -0.007938182 -0.0005457793 -0.021371566 -0.07553803 0.00039138956 -0.0039833616 0.0001669274
-0.08607994 0.00037757092 -0.005148536 -0.03387766 0.0015846256 -0.0046213726 0.00028102176 -5.6424586e-05
-0.07792861 -0.00012802522 0.000807076 -0.025538584 -0.04838199 -0.0039130216 -0.011973573 -0.0005859132
-1.1009654e-05 -0.00027918644 -0.0017330275 5.0622752e-06 4.3535314e-05 -0.012543572 0.00047726097 0.0003908663
-2.8363193e-05 -0.031076355 -0.0004864592 -0.00811023 -0.06012243 0.00046615925 -0.0047004214 -8.1849896e-05
-0.06875526 -0.013787711 -0.0005282965 -0.010050866 0.00093077734 -0.0058905426 -2.3926912e-05 -2.9338831e-05
-0.061392304 8.7216584e-05 0.0007564807 -0.01598175 -0.031898823 -0.0044521303 -0.02076826 -0.00067380007
2.9200915e-05 3.5610836e-05 -0.0010839124 9.795806e-05 2.2489028e-05 0.025240054 0.0027797362 1.0752496e-05
-0.00026971818 -0.21749377 0.0012421086 0.13932827 0.28913987 -0.00093518256 -0.012720114 0.0007675507
0.28156552 -0.16876975 0.051531497 -0.01021231 -0.00039256347 -0.0308904 0.0006799114 -0.00026372581
0.111215845 -0.0006296425 -0.0010627494 0.14302915 0.062137723 -0.010824843 -0.2501695 0.0010051675
-0.00044759916 -0.0008163527 4.8962596e-05 -0.0006611231 0.000294653 -0.2821663 0.023728922 0.0009216002
9.5053816e-05 -0.013914594 8.423202e-05 -0.009696322 -0.004738154 -6.449323e-05 0.0037602969 -6.7232766e-05
-0.00971374 0.011971697 -0.0018461756 -0.009800809 -0.0010727282 0.0048610717 -0.00011048817 9.478677e-05
-0.017347198 4.5790977e-05 -0.00015019157 -0.003265323 -0.012282772 0.003568325 0.014193357 7.402034e-05
4.7689882e-05 0.00011057408 0.0014250283 1.3076537e-05 -0.00014175894 -0.043890037 -0.0022118886 -0.00015851048
00000000: e70c 063a 4c06 84bd dd9b 19ba 57ae 203d
00000010: f268 debc f447 2fba 0d99 34bc 3339 43ba
00000020: 540e 22bc d74e f6bc d48a 72bc fa02 a73d
00000030: ddec d9ba 42d2 8ebc 4cc0 7fba e71b 093a
00000040: 0623 443d 127c 1c3a 59cc 063a 207d 86bc
00000050: 5330 123d 2cdb 10bc 5687 babd b4da 7d3a
00000060: 9452 9239 2500 813a e8da 563a 7206 f239
00000070: 35b0 f9b9 db9e b7bd 4b45 d4bb 80dc 97ba
00000080: fa76 c2b8 d4db ed3b 0951 ecb9 b081 4ebc
00000090: 471a 5dbd 5189 8139 bd6f 7cbb 44a0 bf38
000000a0: 485d 7ebd 6dc0 fe3a 66b1 57bb ee65 dabc
000000b0: 4cc9 c83a 52db 92bb 4b45 2239 6a1a c8b8
000000c0: 2dec 7ebd 5d24 a4b8 ae2a 393a 4b46 90bc
000000d0: eefc 07bd 31f5 75bb 72a3 a83c ff39 e5b9
000000e0: 34e2 20b7 f528 23b9 3d38 daba dcdb 0937
000000f0: 8dfb 8938 ab81 48bc a2dc 4a3a ab18 6739
00000100: 1c38 5ab9 4b75 dbbc 6ea6 f8b9 7f51 8abc
00000110: 964a 5dbd 3176 5939 da7e 72bb f8f8 9239
00000120: e246 86bd 34a2 febc ee4f 09bb 90da 0ebd
00000130: ddee 0c3b 9249 8fbb 73b7 ca39 adad 5fb9
00000140: bfcf 92bd 30df 83b9 7001 3e3a 6636 8dbc
00000150: bff4 25bd b18d 74bb 01f9 24bc f835 d6b9
00000160: a214 9ab8 cf8b ceb9 dc79 20bb 3a7c d0b8
00000170: 3c43 2c39 1c09 5d3d e1d0 db3a e6ba 063a
00000180: 351a 80b8 4f6f 6b3c ac0e c235 8f78 b43a
00000190: 7b26 043a 7d13 52b8 68ae 36ba a18a edb7
000001a0: 0360 243a d3bc 743a a875 4c3a 0b09 8eb8
000001b0: 5662 dab7 485d 89ba 80f6 99b8 8733 7eb8
000001c0: 02ae d13a 1a55 f737 90dc 5334 d66f f439
000001d0: 35d8 a23a 146a 26ba b69a 043c 88a1 6038
000001e0: 13dd 60b8 d57b 5438 347a c037 39d3 2fb8
000001f0: 695d 8438 5a1b 60bc 8362 843a caf8 b4b8
00000200: 8099 6ab8 260f 02bc a112 0fba 6c13 afbc
00000210: afb3 9abd 6b33 cd39 dc86 82bb 3c09 2f39
00000220: ae4a b0bd b6f4 c539 0db5 a8bb 4dc3 0abd
00000230: 36b3 cf3a e26e 97bb 1a56 9339 70a9 6cb8
00000240: 0999 9fbd 823e 06b9 f491 533a 4b36 d1bc
00000250: 322c 46bd ce38 80bb ce2c 44bc f897 19ba
00000260: 1bb6 38b7 c55f 92b9 c126 e3ba 9ddc a936
00000270: b099 3638 8e83 4dbc e238 fa39 30ed cc39
00000280: 7eed edb7 d793 febc 730b ffb9 c5e0 04bc
00000290: f042 76bd d666 f439 fe05 9abb d4a6 abb8
000002a0: 8fcf 8cbd dae5 61bc 617d 0aba 63ac 24bc
000002b0: 69ff 733a 7405 c1bb a7b6 c8b7 a91c f6b7
000002c0: 7f76 7bbd 0ce8 b638 8f4e 463a 29ec 82bc
000002d0: 57a8 02bd 2de3 91bb 3322 aabc f5a1 30ba
000002e0: 7df4 f437 d85c 1538 1112 8eba d56e cd38
000002f0: d2a6 bc37 3bc4 ce3c 3c2c 363b 9e65 3437
00000300: f668 8db9 b0b6 5ebe 40ce a23a 12ac 0e3e
00000310: 240a 943e 0a27 75ba 0668 50bc 7535 493a
00000320: 5b29 903e fad1 2cbe b112 533d 8851 27bc
00000330: fad0 cdb9 dd0d fdbc 153c 323a ae44 8ab9
00000340: 22c5 e33d 980e 25ba f44b 8bba 3c76 123e
00000350: 2084 7e3d af5a 31bc 3716 80be d3bf 833a
00000360: beab eab9 8100 56ba 305d 4d38 384f 2dba
00000370: a87b 9a39 1a78 90be 2863 c23c 8b97 713a
00000380: a157 c738 0afa 63bc b9a5 b038 52dd 1ebc
00000390: 8442 9bbb 8a40 87b8 506f 763b 51ff 8cb8
000003a0: 6126 1fbc f024 443c 60fb f1ba 9393 20bc
000003b0: c99a 8cba a049 9f3b e2b5 e7b8 42c8 c638
000003c0: b61b 8ebc b00f 4038 be7c 1db9 07ff 55bb
000003d0: ae3d 49bc 8fda 693b 418b 683c 5e3b 9b38
000003e0: 9f06 4838 02e4 e738 04c8 ba3a 4c63 5b37
000003f0: 20a5 14b9 0ac6 33bd 55f5 10bb d535 26b9

in_layer2.layers.2.bias f4 [32]
0.1377287 -0.025292791 -0.054663334 -0.00025324817 0.017090827 0.0035191665 -0.11416152 0.06110543
-0.00164715 0.20003954 -0.0015818072 -0.01069832 -0.0042447657 -0.0929153 -0.025003191 -0.020257318
0.22407402 0.0025613427 -0.01358789 0.06372365 -0.00025653714 -0.0012349171 0.1573201 0.0069175228
-0.04610072 -5.9908925e-06 -0.0040586665 -0.03233336 -0.0050580306 -1.3465371e-05 0.03518476 0.0029316007
00000000: c108 0d3e d432 cfbc a9e6 5fbd 65c6 84b9
00000010: 1002 8c3c d1a1 663b 84cd e9bd b049 7a3d
00000020: 2fe5 d7ba 2ad7 4c3e a454 cfba 0248 2fbc
00000030: ad17 8bbb 604a bebd 7ed3 ccbc adf2 a5bc
00000040: a973 653e 33dc 273b be9f 5ebc 8c81 823d
00000050: d57f 86b9 f1dc a1ba 8518 213e 63ac e23b
00000060: 1cd4 3cbd 6005 c9b6 90fe 84bb fc6f 04bd
00000070: d6bd a5bb 54e9 61b7 e51d 103d 1920 403b

sat_layers.layer0_1.0.agg_weight f4 [3]
-0.13945207 -0.54818934 -1.0605372
00000000: 86cc 0ebe 2356 0cbf afbf 87bf

sat_layers.layer0_1.0.input_linear_layer1.weight f4 [32, 32]
-1.2615974e-05 0.00038689113 -1.3348931e-05 -7.022989e-05 -7.039051e-05 -1.1609131e-05 -8.595803e-06 -1.2093025e-05
-2.0480731e-05 2.6303971e-05 -1.276338e-05 7.659776e-05 -1.2897368e-05 -6.115227e-06 -9.2134303e-07 1.8038414e-05
0.00089570024 -6.7698147e-06 -1.1483322e-05 -7.004041e-05 8.105893e-06 -1.5655683e-05 -7.0417365e-05 8.962122e-05
-1.2581752e-05 -1.23417385e-05 -6.4556334e-05 -6.913852e-05 -1.7591035e-05 -1.1788286e-05 -1.2224604e-05 -1.16503115e-05
6.1653145e-07 -1.253563e-05 6.827485e-07 -1.8994746e-05 -1.89941e-05 4.679204e-07 3.039132e-07 4.15969e-07
-3.5591104e-06 -1.9837513e-05 6.2890973e-07 8.306822e-06 1.139181e-06 -1.0008934e-08 -7.4876806e-07 -3.0167719e-06
9.956814e-06 -1.4028685e-06 2.436584e-06 -1.8995237e-05 2.056014e-05 -3.142962e-07 -1.898913e-05 1.1315483e-05
6.4687623e-07 5.858064e-07 6.0602983e-06 -1.9000106e-05 -2.6885716e-06 5.8467515e-07 6.135277e-07 2.0902344e-07
0.0006347516 -0.00539396 0.00066967995 0.028479762 0.034478262 0.0006931008 0.00066140865 0.0006852426
0.00038796364 -0.008517966 0.0006808625 -0.005211577 0.0006534651 0.0008304773 0.0021863654 0.0012539652
0.00041761814 0.0008370197 0.0034593642 0.01624753 0.04585163 0.00026097006 0.028463842 -0.0082121
0.0006446224 0.00069162337 0.027510742 0.046335768 0.00018853517 0.0006898618 0.0006550352 0.00095942116
-0.006045123 0.023108365 -0.006625157 -0.17409123 -0.030395571 -0.0066604377 -0.0058770725 -0.006719118
-0.0041279895 -0.16108115 -0.0065366253 0.03847411 -0.0070633874 -0.0094101215 -0.0121467905 -0.03736197
0.010076542 -0.007897272 -0.027750751 -0.09629547 -0.15408885 -0.0062732263 -0.22574331 0.041288037
-0.005981993 -0.0066033076 0.1047384 -0.11457729 -0.006105045 -0.0062328605 -0.006345872 -0.0076747425
-3.581963e-05 -8.980699e-05 -3.763374e-05 -2.9586943e-05 -2.9106044e-05 -3.7529582e-05 -4.2737724e-05 -3.9409217e-05
-2.0788393e-05 -2.0056863e-05 -3.6113895e-05 2.1075228e-05 -2.4962555e-05 -3.7745212e-05 7.7890345e-06 -0.00023143338
4.2202806e-05 -4.1547333e-05 6.91849e-05 -2.9503355e-05 1.3662324e-06 -1.2864179e-05 -2.955659e-05 3.907578e-05
-3.519241e-05 -3.76031e-05 -0.0003010051 -2.9404167e-05 -2.3238947e-05 -3.692533e-05 -3.5960857e-05 -3.3913155e-05
-0.006816962 0.116199054 -0.006986288 -0.019104702 -0.16865282 -0.0069574616 -0.0063761333 -0.007416858
-0.003569184 -0.12116849 -0.0072306036 0.025639556 -0.00970439 -0.010876194 -0.014140559 -0.017381439
0.12965883 -0.007525728 -0.028135402 -0.20481549 -0.19688982 -0.007225919 -0.20135777 0.046626292
-0.0067423284 -0.007223469 -0.13275059 -0.07065651 -0.00432036 -0.0070526446 -0.0068782154 -0.008527837
0.00075261085 0.0014861919 0.000793755 0.0119539285 0.0778712 0.00081578485 0.0007835526 0.0008095796
0.0004979234 0.009499451 0.00080455205 -0.005750343 0.00078923063 0.0010175317 0.0023988937 0.002014691
0.003867318 0.0009836209 0.0038814389 0.06515492 0.037824873 0.00042840492 0.05840333 -0.009130907
0.00076247344 0.0008151918 -0.049722195 0.039610766 0.00030181842 0.0008132448 0.0007741348 0.0011089873
-1.5900089e-06 0.0006165732 -1.7815864e-06 0.00023792867 0.00023852207 -8.343558e-07 1.0843262e-06 -7.012461e-07
-4.4417547e-08 0.00023173884 -1.5766032e-06 0.0001794959 -4.417254e-06 1.1171638e-06 -9.6187316e-05 0.0010161547
-0.00010663449 2.6258097e-06 -7.442266e-06 0.00023756569 -1.5743975e-05 -7.004223e-06 0.0002375485 0.00021081802
-1.6757357e-06 -1.4271632e-06 0.00023861366 0.00023681989 1.5959041e-07 -1.1956429e-06 -1.4527765e-06 -3.960728e-07
00000000: 32a9 53b7 a6d7 ca39 39f5 5fb7 6348 93b8
00000010: 9e9e 93b8 d7c4 42b7 b136 10b7 26e3 4ab7
00000020: 09ce abb7 59a7 dc37 4d22 56b7 1ca3 a038
00000030: c661 58b7 6631 cdb6 3652 77b5 3351 9737
00000040: 6dcd 6a3a 4428 e3b6 7ea8 40b7 a9e2 92b8
00000050: 8cfe 0737 5354 83b7 09ad 93b8 07f3 bb38
00000060: 3716 53b7 5d0f 4fb7 6b62 87b8 76fe 90b8
00000070: 7690 93b7 4ec6 45b7 4618 4db7 b575 43b7
00000080: b87f 2535 1f50 52b7 1f46 3735 e856 9fb7
00000090: 8555 9fb7 7d36 fb34 8329 a334 5852 df34
000000a0: 0dd9 6eb6 bc68 a6b7 59d2 2835 875d 0b37
000000b0: f6e5 9835 c2f3 2bb2 f3fe 48b5 bf73 4ab6
000000c0: 310c 2737 324a bcb5 3284 2336 f657 9fb7
000000d0: 9078 ac37 8abc a8b4 d94a 9fb7 a1d7 3d37
000000e0: ffa4 2d35 4f40 1d35 9159 cb36 6b62 9fb7
000000f0: 4f6d 34b6 92f2 1c35 4db1 2435 ed6f 6034
00000100: 7565 263a d1bf b0bb 768d 2f3a 644e e93c
00000110: 1439 0d3d 35b1 353a 6262 2d3a daa1 333a
00000120: 9967 cb39 f08e 0bbc e97b 323a e0c5 aabb
00000130: 4d4d 2b3a 63b4 593a 2049 0f3b 175c a43a
00000140: c2f3 da39 716b 5b3a 80b6 623b 8a19 853c
00000150: ebce 3b3d cfd2 8839 012d e93c 0b8c 06bc
00000160: e1fb 283a 0f4e 353a 355e e13c 93ca 3d3d
00000170: 86b1 4539 d7d7 343a abb6 2b3a aa81 7b3a
00000180: 2b16 c6bb c14d bd3c d817 d9bb f944 32be
00000190: 2200 f9bc cd3f dabb 7594 c0bb 0c2c dcbb
000001a0: 1644 87bb 75f2 24be 3031 d6bb 0797 1d3d
000001b0: fd73 e7bb e92c 1abc 5503 47bc dd08 19bd
000001c0: 1518 253c 8f63 01bc 8b55 e3bc 8f36 c5bd
000001d0: 78c9 1dbe a38f cdbb 4129 67be a51d 293d
000001e0: 9804 c4bb 8f60 d8bb 1681 d63d 80a7 eabd
000001f0: d40c c8bb 063d ccbb 08f1 cfbb 687c fbbb
00000200: 093d 16b8 c356 bcb8 ecd8 1db8 7a31 f8b7
00000210: c128 f4b7 1569 1db8 4841 33b8 534b 25b8
00000220: bc62 aeb7 c93f a8b7 0079 17b8 b5ca b037
00000230: ae66 d1b7 9d50 1eb8 a6ad 0237 edac 72b9
00000240: eb02 3138 1c43 2eb8 5c17 9138 f97d f7b7
00000250: 635f b735 3ad3 57b7 4bf0 f7b7 4de5 2338
00000260: 909b 13b8 05b8 1db8 38d0 9db9 f8a8 f6b7
00000270: 42f1 c2b7 45e0 1ab8 add4 16b8 f93d 0eb8
00000280: d260 dfbb c5f9 ed3d 3bed e4bb 7781 9cbc
00000290: 53b3 2cbe 6bfb e3bb e2ee d0bb 1d09 f3bb
000002a0: f9e8 69bb 2f27 f8bd b3ee ecbb 0c0a d23c
000002b0: 29ff 1ebc 1032 32bc cead 67bc 8563 8ebc
000002c0: 49c5 043e 629a f6bb 377c e6bc 27bb 51be
000002d0: 7c9d 49be 67c7 ecbb bb30 4ebe 36fb 3e3d
000002e0: c0ee dcbb dab2 ecbb c5ef 07be 5cb4 90bd
000002f0: ce91 8dbb df19 e7bb a762 e1bb 57b8 0bbc
00000300: dc4a 453a 53cc c23a ff13 503a 69da 433c
00000310: f07a 9f3d 65da 553a 5367 4d3a f839 543a
00000320: 1387 023a 96a3 1b3c 93e8 523a 606d bcbb
00000330: 5fe4 4e3a b35e 853a c236 1d3b e808 043b
00000340: d472 7d3b d7ec 803a bd5f 7e3b f16f 853d
00000350: 41ee 1a3d 899b e039 5538 6f3d cd99 15bc
00000360: bae0 473a 98b2 553a 80a9 4bbd e63e 223d
00000370: 623d 9e39 ef2f 553a 4fef 4a3a 705b 913a
00000380: 4a68 d5b5 87a1 213a d81e efb5 7e7c 7939
00000390: c81b 7a39 7ef8 5fb5 2a89 9135 443d 3cb5
000003a0: 9cc5 3eb3 ecfe 7239 ac9b d3b5 1037 3c39
000003b0: ec37 94b6 75f1 9535 2cb8 c9b8 7e30 853a
000003c0: f5a0 dfb8 1137 3036 94b8 f9b6 0e1b 7939
000003d0: ee11 84b7 d105 ebb6 7116 7939 080f 5d39
000003e0: d7e9 e0b5 f48c bfb5 5e34 7a39 db52 7839
000003f0: e15b 2b34 fa79 a0b5 05fd c2b5 d5a3 d4b4

sat_layers.layer0_1.0.input_linear_layer1.bias f4 [32]
-0.00011114514 -3.8635608e-05 -0.2211269 0.123479985 -0.00027995024 0.25120643 -0.16847627 0.00014410462
0.21296884 -0.2368551 -9.936075e-05 -3.6906607e-05 0.00037905615 0.24121854 0.20394301 0.13365969
0.0016870628 7.4936115e-06 0.2946825 0.10720984 0.25972095 0.10026338 0.31752303 0.18571624
0.004036316 -2.9827062e-05 0.3059512 0.19038469 0.28437096 -0.0003529102 0.0014870605 0.3480167
00000000: 9816 e9b8 ab0c 22b8 176f 62be 13e3 fc3d
00000010: 49c6 92b9 219e 803e 0b85 2cbe ca1a 1739
00000020: 8114 5a3e 258a 72be e55f d0b8 2bcc 1ab8
00000030: 0ebc c639 fe01 773e 70d6 503e 16de 083e
00000040: 6f20 dd3a a271 fb36 a0e0 963e d590 db3d
00000050: 25fa 843e e356 cd3d 6192 a23e 662c 3e3e
00000060: 1343 843b 2135 fab7 a3a5 9c3e 34f4 423e
00000070: 1299 913e ce06 b9b9 78e9 c23a 3f2f b23e

sat_layers.layer0_1.0.input_linear_layer2.weight f4 [32, 32]
-0.00037476016 -0.01382579 -0.00037875664 0.0014556863 -0.002687677 -0.00056324527 -0.00017854242 -0.00062251114
-0.0033632903 -0.007261317 -0.0004135287 0.017816683 0.0003951314 -0.000989748 -0.0031230235 -0.0017148231
-0.038377002 -0.0023832666 -0.00010965668 -0.010217811 -0.057194356 0.0006412609 0.0055413395 0.017810691
-0.0004034263 -0.0003677951 -0.110116236 -0.0052105156 -0.0022384652 -0.00034289368 -0.00047687482 -0.00039732413
-0.00077805406 0.0455147 -0.0007648824 -0.0036713528 0.019312145 -0.0010017186 -0.00045044642 -0.0010768282
-0.01577286 -0.038693286 -0.0008452317 -0.044238612 -0.00012367494 -0.002084668 -0.0062353183 -0.0051605213
-0.09329016 -0.0077786744 -0.0015554157 0.0010015114 -0.047379196 0.000116434494 0.02654198 0.058849905
-0.00081424427 -0.0007720396 -0.07756523 0.0022170465 -0.010995608 -0.00071470736 -0.0008927321 -0.00097320636
-0.0002585215 -0.016977735 -0.00027086743 0.0044215317 0.009480182 -0.00043884254 -4.2918513e-05 -0.0004972866
-0.0033851983 -0.006667583 -0.00029988837 0.010124486 0.00042854215 -0.000915364 -0.0029076843 -0.001946361
-0.030006815 -0.002373786 4.2984568e-05 0.008410379 -0.02490118 0.0008011078 0.002730786 0.00022940528
-0.0002921205 -0.00024653433 -0.122828275 0.005311532 -0.0023165059 -0.00022646644 -0.00036854693 -0.00032938007
-0.006203871 0.29721904 -0.003966566 0.07987022 0.0395338 -0.011600529 -0.0017763858 -0.012714628
-0.15042813 0.078902856 -0.005100314 0.20456016 0.021010706 0.006812092 -0.059567083 0.104647234
0.20519844 -0.038872626 0.0038896513 0.03269739 -0.08197685 -0.0072568823 0.07848498 0.20260696
-0.005079611 -0.005836166 -0.12617034 -0.16724847 -0.045860633 -0.0047578523 -0.0056579136 -0.0049718535
-0.00013327347 0.14730361 0.00045453975 0.0578738 0.057615288 -0.0023781525 -0.0038033486 0.0002664132
0.046868682 0.18079595 -0.00041069346 0.062593795 -0.0008673562 0.0002684723 -0.026333855 0.023452768
-0.037451126 -0.030156713 -0.0016713091 0.06672326 -0.0059181326 0.005076972 -0.09405906 -0.01488088
-0.00086686225 -0.0008456211 0.091776766 0.0056483713 -0.010488745 -0.0013444201 -0.00041896256 0.0027913814
-0.0002580446 -0.01323435 -0.00025553146 0.0032979264 0.0030036897 -0.000435967 -8.3081264e-05 -0.00048852275
-0.0037096634 -0.007607176 -0.00029767977 0.006033585 0.00046101905 -0.0009493006 -0.0029633576 -0.0017856901
-0.009495669 -0.0026413815 -3.1791897e-05 0.0030992124 -0.016066002 0.000770036 0.0024961715 0.0052633
-0.0002900303 -0.00024894133 -0.08924156 0.0019373196 -0.0025110836 -0.00022509538 -0.0003642035 -0.0002922298
-0.00026021962 -0.009684502 -0.0002750402 0.0014208063 0.002888319 -0.00044122667 -3.0946772e-05 -0.0004997598
-0.0034541748 -0.007844922 -0.00030196962 0.003545623 0.0004135921 -0.00090969674 -0.0029427877 -0.001883459
-0.012093016 -0.0024874515 7.549574e-05 0.0015754213 -0.009813581 0.00082134723 0.0028286565 -0.0019552608
-0.00029438693 -0.0002474907 -0.09319883 0.0027590177 -0.0023928797 -0.00022790933 -0.00037152207 -0.0003414291
-0.00017779556 -0.0043569338 -0.00015319555 0.004970132 0.005678361 -0.00035420447 -2.8209815e-05 -0.000422232
-0.0040243976 -0.0020482743 -0.00021754955 0.007996756 0.00057035446 -0.00091042806 -0.004084162 -0.00065742986
0.004028155 -0.0031896809 -3.265486e-05 0.006164462 -0.028415203 0.00073300826 0.009299871 0.01112065
-0.00020178614 -0.0001761344 -0.029499019 0.003198518 -0.0028770624 -0.00012985966 -0.00026462588 -0.00019116662
00000000: 757b c4b9 9185 62bc db93 c6b9 bacc be3a
00000010: bd23 30bb c0a6 13ba 1e37 3bb9 0430 23ba
00000020: a66a 5cbb 58f0 edbb e2ce d8b9 4bf4 913c
00000030: a429 cf39 6fba 81ba a4ab 4cbb eac3 e0ba
00000040: 3431 1dbd 9430 1cbb 7bf7 e5b8 9b68 27bc
00000050: a144 6abd 4a1a 283a 2094 b53b bae7 913c
00000060: f682 d3b9 9fd4 c0b9 9f84 e1bd f9bc aabb
00000070: 37b3 12bb 69c6 b3b9 0e05 fab9 f14f d0b9
00000080: 53f6 4bba 9f6d 3a3d 6482 48ba 149b 70bb
00000090: 8134 9e3c 194c 83ba e529 ecb9 5c24 8dba
000000a0: 1636 81bc da7c 1ebd 8a92 5dba 8c33 35bd
000000b0: bdae 01b9 ed9e 08bb a451 ccbb 9719 a9bb
000000c0: e90e bfbd 40e4 febb 17df cbba 2545 833a
000000d0: b010 42bd 4b2e f438 916e d93c 990c 713d
000000e0: 0273 55ba b362 4aba 85da 9ebd de4b 113b
000000f0: ec26 34bc 335b 3bba 3d06 6aba c61e 7fba
00000100: 2b8a 87b9 e414 8bbc 3603 8eb9 7fe2 903b
00000110: c452 1b3c 7314 e6b9 6703 34b8 575c 02ba
00000120: 34da 5dbb bd7b dabb 563a 9db9 2ce1 253c
00000130: f4ad e039 0af5 6fba d98e 3ebb 0a1d ffba
00000140: dad0 f5bc 8591 1bbb 544a 3438 b0cb 093c
00000150: 8ffd cbbc 6f01 523a fdf6 323b 838c 7039
00000160: c027 99b9 4741 81b9 648d fbbd 5c0c ae3b
00000170: 85d0 17bb 9f77 6db9 8839 c1b9 a5b0 acb9
00000180: d849 cbbb 182d 983e f8f9 81bb ff92 a33d
00000190: 32ee 213d 2510 3ebc 9ed5 e8ba 0451 50bc
000001a0: d509 1abe d297 a13d 8920 a7bb 3878 513e
000001b0: a51e ac3c f837 df3b 9dfc 73bd 4a51 d63d
000001c0: 8a1f 523e e738 1fbd 85e9 7e3b b3ed 053d
000001d0: 7be3 a7bd 24cb edbb bcbc a03d 3378 4f3e
000001e0: de72 a6bb 4f3d bfbb cc32 01be 2f43 2bbe
000001f0: 5cd8 3bbd c2e7 9bbb 0566 b9bb eeea a2bb
00000200: 53bf 0bb9 c2d6 163e 4b4f ee39 140d 6d3d
00000210: 02fe 6b3d c7da 1bbb 9a41 79bb 60ad 8b39
00000220: 60f9 3f3d 9322 393e 5852 d7b9 2d31 803d
00000230: 4a5f 63ba bec1 8c39 19ba d7bc 0520 c03c
00000240: 5a66 19bd 360b f7bc d40f dbba 34a6 883d
00000250: e5ec c1bb ba5c a63b 09a2 c0bd efce 73bc
00000260: 243e 63ba acac 5dba 75f5 bb3d f915 b93b
00000270: fcd8 2bbc 4137 b0ba 34a8 dbb9 9cef 363b
00000280: 294a 87b9 e3d4 58bc daf8 85b9 0622 583b
00000290: 8dd9 443b 8092 e4b9 ea3b aeb8 3510 00ba
000002a0: d31d 73bb 9e45 f9bb e711 9cb9 61b5 c53b
000002b0: eeb4 f139 7cda 78ba e434 42bb d10d eaba
000002c0: b993 1bbc 071b 2dbb 4a58 05b8 281c 4b3b
000002d0: d99c 83bc 3edc 493a cf96 233b c377 ac3b
000002e0: 350f 98b9 5784 82b9 47c4 b6bd a9ed fd3a
000002f0: fe90 24bb 9507 6cb9 91f2 beb9 6b36 99b9
00000300: 166e 88b9 bfab 1ebc 4533 90b9 593a ba3a
00000310: f449 3d3b 7154 e7b9 d8cc 01b8 5002 03ba
00000320: 705f 62bb fd87 00bc ad51 9eb9 af5d 683b
00000330: 64d7 d839 b778 6eba c9db 40bb 66de f6ba
00000340: c921 46bc 8304 23bb 7753 9e38 5e7e ce3a
00000350: 24c9 20bc ae4f 573a fb60 393b d523 00bb
00000360: f257 9ab9 a4c1 81b9 07df bebd a3d0 343b
00000370: dcd1 1cbb f2fa 6eb9 d9c8 c2b9 d701 b3b9
00000380: a26e 3ab9 9cc4 8ebb 1ea3 20b9 7ddc a23b
00000390: 8b11 ba3b 85b4 b9b9 1ea4 ecb7 055f ddb9
000003a0: 18df 83bb 573c 06bb 031e 64b9 d304 033c
000003b0: d783 153a cba9 6eba 6fd4 85bb 5f57 2cba
000003c0: 9dfe 833b f709 51bb e4f6 08b8 41ff c93b
000003d0: 00c7 e8bc 5a27 403a 7c5e 183c 6333 363c
000003e0: 8e96 53b9 b8b0 38b9 eda7 f1bc 3a9e 513b
000003f0: 198d 3cbb f02a 08b9 7cbd 8ab9 e673 48b9

sat_layers.layer0_1.0.input_linear_layer2.bias f4 [32]
0.007445981 0.0825957 0.042617913 0.14677295 -0.14601688 -0.0048409635 0.009134601 -0.04955412
0.010202593 -0.13050905 0.007487019 0.04025834 -0.13730407 -0.030431844 0.124941394 -0.06045562
0.017816503 -0.05575865 -0.039440315 -0.05983187 0.07297042 -0.024826301 -0.08561709 -0.013879715
-0.06589598 -0.037354484 -0.010150856 -0.11873822 0.00056238205 0.0022985 -0.062103566 -0.03222001
00000000: 6afd f33b ef27 a93d 1f90 2e3d a64b 163e
00000010: 7385 15be f2a0 9ebb 4ba9 153c 43f9 4abd
00000020: c728 273c 2aa4 05be ab55 f53b eee5 243d
00000030: 7099 0cbe 344c f9bc 46e1 ff3d 50a0 77bd
00000040: eaf3 913c 2f63 64bd 2b8c 21bd 4312 75bd
00000050: 8471 953d 8760 cbbc 0358 afbd bf67 63bc
00000060: 79f4 86bd 0401 19bd c74f 26bc 062d f3bd
00000070: d26c 133a 6ea2 163b 4f60 7ebd 21f9 03bd

sat_layers.layer0_1.0.input_linear_layer3.weight f4 [32, 32]
0.149305 0.16133074 0.08631541 0.08779977 -0.08571529 0.0722637 -0.11956561 0.07639854
-0.12552601 -0.00096693635 0.12812512 0.11738519 0.15630697 0.060302526 0.0686208 0.04740557
0.12908484 0.092764035 0.052161425 -0.06168031 -0.085553505 -0.04370548 0.0843647 -0.096226856
0.04829675 0.15466236 0.1496851 -0.13015135 0.050387383 0.115589425 -0.16057007 0.11298095
-0.11014788 -0.12781817 -0.0749344 -0.0664918 -0.07308685 0.050893843 0.06848347 0.06870367
0.12205176 -0.111848205 -0.16785467 -0.14181525 -0.09716092 -0.08085925 0.07767804 -0.12792644
-0.12924862 0.094669536 -0.11248136 0.03315665 -0.13479036 0.06745 0.11046235 -0.14869556
0.060131207 -0.092679046 0.11218931 0.1589941 -0.14913304 0.06612302 0.11938505 0.16072018
0.13351189 0.034766823 0.010334581 0.036422864 -0.105390824 -0.034635693 -0.002726242 -0.11186201
-0.007838115 -0.023483545 -0.061886854 -0.054295212 -0.17605655 0.16846739 0.08713372 0.12780364
-0.15047897 -0.17306545 0.13146265 -0.031042486 0.027555764 0.08864279 0.011296436 -0.0058546215
0.105040476 0.14122377 -0.04926333 -0.1509248 -0.096933216 0.12632908 0.015371636 0.15136369
-0.061839096 -0.16749987 0.05489713 -0.075331256 -0.105687454 0.11020996 0.012293398 -0.015094936
0.17215745 0.15399651 -0.14441265 -0.16250329 -0.08741619 -0.13725306 -0.0929252 0.11926328
-0.11762667 0.16213141 0.05515513 0.0076781064 0.0302376 0.037312537 0.056878835 -0.14377151
-0.003074512 0.117270455 0.1756285 -0.009351775 -0.12628332 0.08124302 -0.16174148 0.15756579
0.108649805 0.0796227 0.02414696 0.12850429 -0.07141058 -0.14744668 -0.09771989 0.13154699
-0.08835035 -0.14095613 0.038720682 -0.10981026 -0.0074825883 -0.112203166 0.037350535 -0.0288589
0.023324206 0.08171292 -0.11382566 -0.060271427 -0.1178785 0.14720778 -0.06329449 0.06657377
0.04079801 -0.17440458 -0.12549683 -0.0454316 -0.13551867 0.09373589 0.11112164 -0.00032429397
0.02164574 0.046585053 0.058795363 -0.03419216 -0.0695584 -0.109305575 0.0070391595 0.13978584
-0.021973595 0.15210752 0.06183417 -0.09095772 0.068664014 0.07080856 -0.07867586 -0.030985624
-0.018358782 0.06240298 0.13793845 -0.03887853 0.11495246 0.09531708 -0.15317354 0.12923218
-0.0071599334 0.13644587 0.13769747 -0.17118067 -0.14722128 -0.020122528 0.056805328 -0.028134033
-0.17018564 0.09615816 -0.10108559 0.08025245 0.12486313 -0.05962477 0.10646297 0.023507431
-0.05549682 0.011467636 0.06357011 0.0904886 -0.10143869 0.13213177 -0.083608575 -0.15228008
-0.076419465 -0.1565044 0.049497575 0.011900693 -0.008608416 -0.119640864 0.09318964 0.028950587
-0.044366658 0.031319976 0.062347353 -0.106206514 -0.050915286 -0.08027767 0.15646066 0.04371102
-0.13341118 0.1248451 -0.028069764 0.012167081 0.022872508 -0.020646006 0.16735302 0.07657437
0.03806019 -0.064268865 0.04068677 -0.12871295 -0.061118722 0.08963372 -0.17398411 -0.004447356
-0.06515355 0.090314165 -0.11042236 0.030597582 -0.05096352 0.14830513 -0.026377693 -0.12909171
-0.054919958 0.12462033 0.06768124 0.037849158 0.11023192 0.068265244 -0.022665188 -0.093627684
00000000: 69e3 183e e333 253e 22c6 b03d 5ed0 b33d
00000010: 7f8b afbd fefe 933d d1de f4bd d676 9c3d
00000020: e489 00be 007a 7dba 3b33 033e a667 f03d
00000030: ef0e 203e c8ff 763d 1089 8c3d 582c 423d
00000040: d12e 043e 12fb bd3d 38a7 553d 7ea4 7cbd
00000050: ad36 afbd 8404 33bd 66c7 ac3d 9612 c5bd
00000060: d0d2 453d cf5f 1e3e 0d47 193e 6546 05be
00000070: 0063 4e3d 26ba ec3d 7b6c 24be 8e62 e73d
00000080: 3695 e1bd c4e2 02be 3577 99bd da2c 88bd
00000090: 8fae 95bd 1076 503d 1041 8c3d 82b4 8c3d
000000a0: 46f6 f93d ac10 e5bd 18e2 2bbe 0438 11be
000000b0: 4efc c6bd 8999 a5bd aa15 9f3d 26ff 02be
000000c0: c059 04be 1ae2 c13d a15c e6bd 44cf 073d
000000d0: 7c06 0abe 3a23 8a3d 163a e23d a643 18be
000000e0: 244c 763d 83ce bdbd 82c3 e53d 59cf 223e
000000f0: 55b6 18be 826b 873d 2680 f43d d593 243e
00000100: 57b7 083e a867 0e3d 6052 293c 2430 153d
00000110: 25d7 d7bd 28de 0dbd c0aa 32bb e917 e5bd
00000120: 706b 00bc 9060 c0bc 127d 7dbd a864 5ebd
00000130: 2b48 34be b782 2c3e 2a73 b23d f5de 023e
00000140: 2917 1abe 1238 31be 259e 063e d04c febc
00000150: a0bc e13c 5a8a b53d b014 393c 20d8 bfbb
00000160: 761f d73d f79c 103e 58c8 49bd 088c 1abe
00000170: ec84 c6bd 695c 013e 50d9 7b3c 15ff 1a3e
00000180: fe4a 7dbd 1685 2bbe d0db 603d 4647 9abd
00000190: aa72 d8bd c2b5 e13d 406a 493c c050 77bc
000001a0: 0b4a 303e 43b1 1d3e e9e0 13be 4367 26be
000001b0: 4207 b3bd 118c 0cbe 914f bebd 4e40 f43d
000001c0: 40e6 f0bd c705 263e 58ea 613d a098 fb3b
000001d0: d8b4 f73c 08d5 183d c8f9 683d d738 13be
000001e0: c07d 49bb 7e2b f03d f5d7 333e 3038 19bc
000001f0: 6a50 01be be62 a63d 8f9f 25be ed58 213e
00000200: ca83 de3d 3a11 a33d d8cf c53c a196 033e
00000210: b63f 92bd 43fc 16be 5e21 c8bd 41b4 063e
00000220: 07f1 b4bd ce56 10be 9499 1e3d 34e4 e0bd
00000230: 8030 f5bb c6ca e5bd e0fc 183d 8069 ecbc
00000240: 6812 bf3c 1a59 a73d 6d1d e9bd 2cdf 76bd
00000250: 486a f1bd a3bd 163e 8ba0 81bd d457 883d
00000260: d01b 273d 1d97 32be 3e82 00be 7c16 3abd
00000270: 68c5 0abe 9af8 bf3d be93 e33d 0006 aab9
00000280: 6852 b13c f8cf 3e3d 68d3 703d 140d 0cbd
00000290: a274 8ebd 9adb dfbd c0a8 e63b 0524 0f3e
000002a0: f801 b4bc 13c2 1b3e d445 7d3d 0b48 babd
000002b0: b89f 8c3d 1404 913d cf20 a1bd 90d5 fdbc
000002c0: 2865 96bc 449a 7f3d bd3f 0d3e 183f 1fbd
000002d0: 326c eb3d 9a35 c33d 86d9 1cbe 7155 043e
000002e0: e09d eabb 77b8 0b3e 9100 0d3e fc49 2fbe
000002f0: 2dc1 16be 00d8 a4bc b4ac 683d 5879 e6bc
00000300: 2545 2ebe 92ee c43d f605 cfbd 665b a43d
00000310: 3eb8 ff3d 1a39 74bd 4209 da3d a892 c03c
00000320: a250 63bd c0e2 3b3c 0c31 823d 1652 b93d
00000330: 17bf cfbd 8d4d 073e f93a abbd 4fef 1bbe
00000340: cf81 9cbd b042 20be f8bd 4a3d 20fb 423c
00000350: 500a 0dbc 4506 f5bd 36da be3d c829 ed3c
00000360: d0b9 35bd 6049 003d f05f 7f3d cd82 d9bd
00000370: 8c8c 50bd 9e68 a4bd 3937 203e 540a 333d
00000380: f19c 08be caae ff3d 90f2 e5bc 7058 473c
00000390: 205f bb3c d021 a9bc 975e 2b3e 06d3 9c3d
000003a0: 00e5 1b3d 659f 83bd 2ca7 263d 54cd 03be
000003b0: a057 7abd e291 b73d e428 32be 20bb 91bb
000003c0: 396f 85bd a2f6 b83d 1e25 e2bd c8a7 fa3c
000003d0: 20bf 50bd 4ddd 173e 0816 d8bc 9e30 04be
000003e0: c0f3 60bd f238 ff3d 769c 8a3d b807 1b3d
000003f0: 46c1 e13d a6ce 8b3d 58ac b9bc dfbf bfbd
