output/modelparams/dynamicLearning-WORKPLACE-SCCompUAU-SAT/epoch0_model_state_dict.pth (torch, 263437 bytes, 148 tensors)

in_layer0.layers.0.weight f4 [32, 4]
00000000: 6148 e1bc 2b65 e73e 1e46 13bf 0052 0280
00000010: c869 23bd 5c45 853d 3d87 b8bd b56d b403
00000020: d790 f13c 6914 083e 1406 5ebe b723 0300
00000030: 3cd6 febe b537 44be d97b 5fbe 58eb 0100
00000040: 7c49 423e 72be d93e 0a8b debe 7b78 0100
00000050: 23dd 343e ea39 1a3f be18 99be e596 0380
00000060: 13d5 8abd 8695 abbd d23d 243f c009 6893
00000070: 3897 98be eb5e 783d d8a1 95be 1c67 210a
00000080: 7ed2 90be 74d9 15be fd1b 8fbe c790 8e94
00000090: 869b b0be e9ae 0b3f 8ae0 7b3e 8688 0600
000000a0: baa4 143d 6850 d0be 843f 643e f431 2f94
000000b0: 3fa6 c0be daa4 bfbe f15f f13e 8732 0380
000000c0: 7e28 74be a0a6 24be a9f1 f43e aef8 011a
000000d0: 144e 453e fe54 99bd 2444 d23e f579 0200
000000e0: 4db8 d13d 0d12 e3be fc2c f4be 0120 0000
000000f0: 5484 1b3e 31e6 b33e 7e20 f5be 0a95 0500
00000100: 4160 c03e f905 39be 2dd4 c23c b06a 0780
00000110: 6896 9b3e ce94 193f dd34 dcbe b239 0580
00000120: 6032 783e 6f63 9c3e 68d6 ef3e c10d 948e
00000130: bdb8 f13d e1a3 1fbf 5d4b 3e3e 3cf7 0080
00000140: 15b9 07bf d94c 0c3f a4a7 d53e dc72 3b9a
00000150: dd2b f43d d712 3bbe 17be 9b3a bf2d 0180
00000160: c804 473e 7631 6dbe 248c a03e b8d8 0000
00000170: 2c97 e53e 5447 e83d c4e0 b6be 4bdf 0180
00000180: 37b3 8f3e c859 9a3d b93b 09bf c5ce 0500
00000190: 3e94 fa3e 0c05 c63e b77b c8be 6bb5 0680
000001a0: 225e 04bf d907 373e 004a 13bf 71b4 4c80
000001b0: 9262 02bb f505 82bd 76a0 a5bd a4f3 0180
000001c0: 9dcb cfbe 7141 1d3f a2ae 933e 30bf 248a
000001d0: 8dd5 91bd 8cc9 093e 1dd0 3e3e 89d5 0180
000001e0: 46ec 583e 0056 53bd d1e3 b5be e03f 0400
000001f0: 9480 dcbe 1554 90be 95b9 803c c13e 0580
-0.027500333 0.45194373 -0.57528865 -2.13087e-40 -0.039895803 0.0650737 -0.0901017 1.0604637e-36
0.02948801 0.13289036 -0.21682006 2.88319e-40 -0.49772823 -0.19161876 -0.21824588 1.76261e-40
0.18973345 0.4252811 -0.43465453 1.35056e-40 0.17662482 0.6024462 -0.2990169 -3.29637e-40
-0.06778922 -0.08378129 0.6415683 -2.9287324e-27 -0.2980287 0.060637396 -0.2922504 7.771261e-33
-0.28285593 -0.14633733 -0.2795104 -1.439544e-26 -0.34493655 0.54563767 0.24597374 5.99988e-40
0.036289908 -0.40686345 0.22289854 -8.845094e-27 -0.37626836 -0.3743046 0.4714351 -2.93632e-40
-0.23843572 -0.16079187 0.47840622 2.6877457e-23 0.19268066 -0.07486914 0.41067612 2.27421e-40
0.10240231 -0.4434971 -0.4769057 1.1481e-41 0.15187198 0.3513656 -0.47876352 5.12643e-40
0.37573436 -0.18068685 0.023782814 -6.81121e-40 0.30388188 0.5999268 -0.4300908 -4.79875e-40
0.24237967 0.30544612 0.46843266 -3.649806e-30 0.11802814 -0.62359434 0.18583436 -8.8691e-41
-0.5301679 0.5480476 0.41729462 -3.8763476e-23 0.11922429 -0.18268906 0.0011882213 -1.08246e-40
0.19435418 -0.23163399 0.3135692 7.7744e-41 0.44841897 0.1134173 -0.35718358 -1.71938e-40
0.28066418 0.07536656 -0.53606755 5.33352e-40 0.48941225 0.38675725 -0.39156887 -6.16093e-40
-0.51706135 0.17874087 -0.5753479 -7.044228e-39 -0.0019895178 -0.063487925 -0.08087246 -1.79237e-40
-0.40585032 0.6142798 0.28844172 -7.932271e-33 -0.0712081 0.1345579 0.18634076 -1.68437e-40
0.21183881 -0.051595688 -0.35525373 3.90256e-40 -0.43066847 -0.2818915 0.015713492 -4.8169e-40

in_layer0.layers.0.bias f4 [32]
00000000: e384 b5bd c92d d1be c96c a2bd 14c4 183e
00000010: 4ab6 8cbe f700 163d 8cb9 cd3e 1a53 a13c
00000020: 7e2a b13d 7bd4 8d3c fb5c ee3d 6106 a73e
00000030: 0045 f03e f6e1 8c3e 0145 e83e ae64 68bb
00000040: 1bfd babe d8b0 45be a4c4 a73e 823b 483d
00000050: ee36 24be 678a bebe 7279 d3be 0331 b9be
00000060: 1406 cbbd e9ac 903e 226b b83e e00f 07bf
00000070: f9a3 a93e 6e72 7fbe 00d2 04be b107 c9bd
-0.08863237 -0.40855244 -0.07930905 0.14918548 -0.27482826 0.036622014 0.40180624 0.019692946
0.08650683 0.017313233 0.11638828 0.32622054 0.46927643 0.27516145 0.45365146 -0.00354604
-0.3652123 -0.19305742 0.32767212 0.048884876 -0.16036579 -0.37214968 -0.41303593 -0.36170205
-0.09913269 0.2825692 0.36019236 -0.527586 0.33132914 -0.24945995 -0.12970734 -0.0981592

in_layer0.layers.2.weight f4 [32, 32]
00000000: 2140 00be 7fb3 7dbc b428 47be 501a e9bd
00000010: e471 a0bd c012 f8bd 90af 72bd 5dd8 8b3d
00000020: 5c5b 0fbe d02a 84bd 34ad 6b3e c4d3 8f3b
00000030: 8208 2f3e 312a 873d a222 32be bab9 6d3a
00000040: 3b1a ad3c 8786 49be 6296 e83d 8f29 67bd
00000050: 2549 e8bb 49eb 11bb 87d0 393e 41df 033d
00000060: 6b1c 973c 6963 8dbc 528f 18be 5991 24bc
00000070: 48c4 42be c1f4 033e 9926 a93d dbf1 2e3e
00000080: 72ad 413b d698 583d 0f8c 15bd 4a29 f3bc
00000090: 9a4f c53b 9e8c 083e 356c fdbd 9725 a23d
000000a0: 4fc8 703d 7d3b 7a3e 376e 88be f8fd fbbd
000000b0: d722 d8bd 3976 893d 6cf1 32be 99b4 3b3e
000000c0: 5ba4 8a3c 89b9 bc3d 90d3 1bbc ed0f 35be
000000d0: 100a 353e 6e10 1bbd f34a 32bc 5275 28bd
000000e0: f482 69be 1bd8 01be cbde 883e e68b e6bd
000000f0: daef 8e3d caa8 5b3e a6c4 27bd a86f 103d
00000100: 52d9 8c3d 3197 c83d 23e3 4fbd 30b1 31bd
00000110: 5622 573d b1be 813d a663 e9bc 1237 363e
00000120: d23a 173d 595b 9a3e 1a5e 1cbd 88dd 56be
00000130: 0d12 703d f1c4 19be 82ab dcbd b815 0b3e
00000140: 8a5d a23c 1453 7f3e 2c4f 4bbd 689f 39be
00000150: 2ff5 5e3e 0cdb 3abe ecab cf3d 36ce 2dbe
00000160: 071a f93c 97a1 9fbb af84 b53d 01b3 cd3c
00000170: e05d 603e 6ea0 45bd 1d23 05be cf54 97bd
00000180: b514 9abe e210 123d 2258 27be ac1f 15be
00000190: 352e 59be f933 0b3d d9e4 363e adad b03d
000001a0: 15a8 9e3c 4e47 8bbd 991d 773d c0af 813e
000001b0: cd31 6d3e 02cb d23d e834 64bd 91fc 14be
000001c0: 1829 50be 4cf6 9abd 07f5 73bd c9de 71bd
000001d0: 8dcf 083e d29e 17be edc3 25bd 06ff 42bd
000001e0: b3fe 61bd 9a2c ecbd c1a9 6ebe ae61 cb3d
000001f0: e9e3 383d 9d85 e83d 66a5 1ebe 70ab e93c
00000200: 2d8b 21bd f3cf c2bc fb5c c3bd 80d0 513d
00000210: 4556 593d cff5 9cba 1bbf e2bc 9adb efbd
00000220: 501b cd3d 39a3 debd 5a30 993d 05a7 4dbd
00000230: a2ec 91bd 6a7e 393d e6c4 c2bd ddea 0d3d
00000240: d76a 103c a98a 0bbe dd12 453d ec42 913d
00000250: 4299 b73d 3748 1cbd 9105 29be 7f08 4fbd
00000260: 5861 803c 8420 6abd 89ef 8b3d d951 c53d
00000270: 05b2 81bd 4ffe 6dbc 0803 2b3d 665d 8dbb
00000280: db25 a33c ec2c 86bc 71b5 1fbe ff7d 0dbd
00000290: 5f48 eb3d 6bff 593e 9f3c e73d 39b8 8ebc
000002a0: 26dc 2d3d c687 efbd a48a 03be 93ba 67be
000002b0: 57c2 3c3e c66c 133e 2bbe 8cbd c73c 103e
000002c0: 85c4 e33d 535f 853e 5456 3d3e 500e 123e
000002d0: 9873 c8bd da60 bdbd 732a dd3d 6634 dd3d
000002e0: b7f3 04bd 3518 5d3e 00ab a13d 7ae5 723d
000002f0: 4560 d7bd 3ead 223c 3389 8e3c 2a36 be3d
00000300: 8435 893d 56d5 ce3d d1ce aa3d 22e3 e23d
00000310: 3c49 823a 080e 0a3e 2a9b 1ebe 8849 a63d
00000320: 30b4 b5bd 86c5 babd f805 64be 9d39 ca3d
00000330: e0d8 8f3d 1523 003e 8795 aa3d 229b 00be
00000340: e53d febd c45a 643d 6248 0cbe 82d6 a23c
00000350: 5e8e 4cbd 7f18 8abd 6908 24be 15be c3bd
00000360: 9cc4 dc3d 1137 f83d 0b59 743e 650a 243e
00000370: 04a9 443e 4405 84bc 25d4 833d 5593 343e
00000380: 6781 52bd 118d 2e3e e879 353d 5118 f73d
00000390: 2290 06be 0533 26bc 1b37 873d 52b3 5bbd
000003a0: 5951 dbbd e4c7 d4bd de67 6dbd 6399 693e
000003b0: 85a7 2f3e ae4b dcb9 3cfd edbd 9d2a 0d3c
000003c0: b64d cd3d 039f 22be a0c3 9abd 9959 7d3e
000003d0: 2988 af3d 3599 08be c1f1 363e fc8e 9c3d
000003e0: 64b0 2cbe ba14 723d c3f1 60be 741e 00bd
000003f0: 5a0a 1d3e 8f53 413c 6fc0 46be 9c1b 36bd
-0.12524463 -0.01548469 -0.19449121 -0.11381972 -0.07834223 -0.12112951 -0.05924946 0.068283774
-0.13999695 -0.06453478 0.2301529 0.004389258 0.17093089 0.06599844 -0.17396024 0.0009068508
0.021130672 -0.19680224 0.11356808 -0.056436118 -0.0070887976 -0.0022265485 0.18145953 0.032195333
0.018446168 -0.017259317 -0.14898422 -0.010044419 -0.19020188 0.12886335 0.08259315 0.17084448
0.0029552844 0.05288013 -0.036510523 -0.029682774 0.006021452 0.13334891 -0.123741545 0.07917326
0.05878478 0.24436755 -0.26646587 -0.123043 -0.1055352 0.06712002 -0.17474908 0.18330611
0.016924074 0.092150755 -0.00951089 -0.17681856 0.1767962 -0.037857465 -0.010882127 -0.04112751
-0.22803861 -0.12680094 0.26732478 -0.11257152 0.06979342 0.21451107 -0.040959023 0.035262734
0.06877388 0.097944625 -0.050753724 -0.04338187 0.05252298 0.063351996 -0.028489899 0.17794445
0.03692133 0.30147818 -0.03817568 -0.20982945 0.058610965 -0.15016533 -0.107749 0.13582504
0.019819994 0.24934036 -0.04963605 -0.18127215 0.21773218 -0.18247622 0.10140213 -0.16973194
0.030407919 -0.004871558 0.08863198 0.02510977 0.2191081 -0.0482487 -0.13001676 -0.07389223
-0.30093923 0.035660632 -0.16342214 -0.14562863 -0.21209033 0.03398511 0.17860736 0.08626876
0.019367257 -0.0680071 0.06033096 0.253294 0.23163529 0.10292627 -0.055714518 -0.14549471
-0.20328176 -0.07566509 -0.05955985 -0.059050355 0.13360424 -0.14806679 -0.040470053 -0.04760649
-0.05517454 -0.115319446 -0.23306943 0.0993074 0.045139227 0.1135361 -0.15492782 0.02852413
-0.03943937 -0.023780799 -0.09539219 0.05122423 0.05306079 -0.0011975112 -0.027679017 -0.117118075
0.10014975 -0.10870976 0.074799255 -0.05020811 -0.07125212 0.045286573 -0.09510212 0.03464781
0.008814535 -0.13627113 0.048113693 0.070928425 0.089647785 -0.038154807 -0.1650603 -0.050545212
0.015671417 -0.057159916 0.06832797 0.09634752 -0.06332783 -0.014525964 0.041750938 -0.0043141125
0.019915512 -0.016378842 -0.15596558 -0.034543987 0.11488413 0.2128884 0.112908594 -0.017421829
0.042446278 -0.116958186 -0.12845856 -0.22629766 0.1843351 0.14396963 -0.06872209 0.14085685
0.111214675 0.2604929 0.18489963 0.14263272 -0.09787673 -0.092469886 0.10799112 0.1080101
-0.032458987 0.21591265 0.07893944 0.059300877 -0.10516409 0.0099289995 0.017399406 0.09287675
0.066996604 0.10099284 0.08340228 0.110784784 0.0009940038 0.13481915 -0.15488878 0.08119494
-0.08872259 -0.09119706 -0.22267902 0.0987427 0.070237875 0.12513383 0.08329301 -0.12559178
-0.12414149 0.055750623 -0.13699487 0.019877676 -0.04994046 -0.067429535 -0.16018833 -0.0955774
0.10779688 0.12119878 0.23862092 0.1601959 0.192051 -0.016115792 0.06436948 0.17634328
-0.05139294 0.17046 0.044305712 0.12065185 -0.1314092 -0.010144 0.066023074 -0.05363781
-0.10708875 -0.103896886 -0.057960384 0.22812419 0.17153747 -0.00042018056 -0.11620566 0.008616117
0.10024588 -0.1588097 -0.07556844 0.2474121 0.08570892 -0.13339694 0.1786566 0.076444596
-0.16864163 0.059101798 -0.21967225 -0.031279042 0.1533598 0.011799707 -0.19409345 -0.044459924

in_layer0.layers.2.bias f4 [32]
00000000: 4c93 20be abea 2dbe c452 cbbc c97c 2d3e
00000010: d6ca 383e bdf7 dfbd fcf8 0bbd ea7e d13d
00000020: 48c4 613c 1e95 323e 9b48 ebbb 1928 93bd
00000030: 9e3a 153e c771 acbd ea77 d93d d7d3 b2bc
00000040: 20ec c53d fd30 123e 1dec 433e 3099 0bbe
00000050: 1ded f9bd 4972 33bc 1a18 31be bc2f 0f3e
00000060: f4d5 8b3b 449b b1bd 3d4f afbd 0850 62bd
00000070: 2071 b83d 97d5 23be 6949 5fbe 3221 29be
-0.1568119 -0.1698405 -0.02481974 0.16942133 0.18046126 -0.10935924 -0.034172997 0.10229285
0.013779707 0.17439696 -0.007180286 -0.071853824 0.14573142 -0.08420139 0.10618575 -0.021829529
0.09664178 0.142765 0.19133039 -0.13632655 -0.12203429 -0.010952541 -0.1729435 0.13983053
0.0042674486 -0.08672193 -0.085600354 -0.055252105 0.09005952 -0.15999447 -0.21805348 -0.1651657

in_layer1.layers.0.weight f4 [32, 4]
00000000: a86d 5c3e 2829 7d3e 0aff 9ebe 18ee fd3d
00000010: acf9 bc3e e0c9 943d d8a8 d8bd a04f 173d
00000020: 309a 5bbd 52e5 803e b0d3 adbe 78d1 813e
00000030: a249 903e 9a1a 9bbe 500a d13e 7670 fb3e
00000040: 58d8 49be 8868 0fbe 7428 7f3e 3e8e c8be
00000050: 7879 4a3e 70e7 ee3d 4a5d a13e 045d debe
00000060: 50ae d4be 40f4 653e 8c6d 383e b246 eebe
00000070: c6c2 8ebe 083c eabe 7e67 b7be a403 67be
00000080: 90d9 d33e 00d4 cbbd ae08 933e 4a1e f33e
00000090: bc55 693e 822c e5be 34d3 803e 644b 433e
000000a0: b26a c63e f486 fcbe b071 9d3e ee8b d13e
000000b0: 622c eebe 5046 563d 528a da3e de30 babe
000000c0: 40ff 273e c03d 623e ac30 063e dc88 fe3e
000000d0: 8a9b d13e eca2 db3e d046 7fbd deb5 d63e
000000e0: d491 eebe 2625 8abe a803 dbbd d417 18be
000000f0: 4277 ec3e 1c7e 713e eed0 a43e 3422 ae3e
00000100: a03b bfbe 9033 6dbd 7887 953d d82a 053e
00000110: c0a4 833e 70ba 4bbe b862 1abe ae34 d63e
00000120: ac69 09be 04d4 b1be 0494 ad3e 105a ad3e
00000130: d88b 20be d8b7 ccbd b4e5 bcbe b4c8 d5be
00000140: 9089 403e fcb8 5abe eacc cb3e 8afb ccbe
00000150: e08a 8dbd 40e1 303c 0a92 833e 4c30 cf3e
00000160: 465d ad3e 6061 613e 3c01 6bbe 62d2 b6be
00000170: 5805 e5be 402e cb3c 124a f83e 4880 c2bd
00000180: 806f acbc 9e08 babe 6030 1d3e bc4c a23e
00000190: fc64 fcbe 5a41 b4be 069f bd3e 6872 f23d
000001a0: a05e ffbc 680c b73d e0b0 9bbd 5eef b2be
000001b0: cc36 efbe 8c5f a83e 1095 73bd 7826 3ebe
000001c0: ac27 04be d8a0 8bbe 58a5 17be 0cc1 dbbe
000001d0: 7293 bf3e 4412 513e 361b 81be 9cc0 2ebe
000001e0: d0b3 653e ac98 3dbe dc02 073e 90f9 0c3e
000001f0: 7826 a1be bc41 003e 409c fa3c 1696 df3e
0.21526206 0.24722731 -0.31053954 0.123989284 0.36909235 0.07265067 -0.105790794 0.03694117
-0.05361384 0.25174958 -0.33950567 0.25355124 0.28181177 -0.30293733 0.4082818 0.49109238
-0.19711435 -0.1400472 0.24917775 -0.39171022 0.19772899 0.11665237 0.31516486 -0.4343034
-0.4153924 0.22456455 0.18010539 -0.4653831 -0.27882975 -0.45748925 -0.35821146 -0.22559983
0.41376925 -0.09952545 0.2871756 0.47484046 0.22786611 -0.4476052 0.25161135 0.19071728
0.38753277 -0.4932171 0.307508 0.4092707 -0.46518236 0.05231315 0.42683655 -0.36365408
0.16405964 0.22093868 0.13104504 0.4971379 0.4093898 0.42897737 -0.06232339 0.4193563
-0.46595633 -0.26981467 -0.10694057 -0.1485284 0.46184736 0.23583263 0.3219065 0.3401047
-0.37350178 -0.057910502 0.07301229 0.13004625 0.25711632 -0.19895339 -0.1507672 0.41837066
-0.13419217 -0.34732068 0.3390199 0.33857775 -0.15678346 -0.09996003 -0.36894 -0.41754687
0.18802476 -0.21359628 0.39804775 -0.4003566 -0.06911254 0.010795891 0.25697356 0.40466535
0.33860224 0.22009802 -0.2294969 -0.35707384 -0.4473064 0.024802327 0.4849401 -0.09497124
-0.021049261 -0.363347 0.15350485 0.3169917 -0.49295795 -0.3520611 0.37035388 0.118382275
-0.03117305 0.08937913 -0.076020956 -0.34948248 -0.46721494 0.32885396 -0.05946833 -0.18569362
-0.12905759 -0.27271152 -0.14809167 -0.4292072 0.3741718 0.20417124 -0.25216073 -0.17065662
0.22431874 -0.18515271 0.13184685 0.13767076 -0.31474662 0.12525076 0.030592084 0.43669194

in_layer1.layers.0.bias f4 [32]
00000000: 7840 39be 7c9e 03be dc91 dc3e da0c d1be
00000010: 00f7 133d 16a8 f63e 7c90 65be 326c f53e
00000020: c228 e33e be2a ee3e 306d 43bd 0c96 e73e
00000030: 9c16 5fbe a042 2fbe b4a7 413e 3051 d83d
00000040: 6620 8d3e 2048 f33e d240 a0be b4dd 873e
00000050: 0c4c 2b3e b40e 873e b8c6 723e 1886 3fbe
00000060: c654 cabe 04e6 cc3e f6fa 91be f2aa a33e
00000070: 72e0 f3be 8827 b1bd 00a7 ad3b 182d b13d
-0.18090999 -0.12853426 0.43080032 -0.40830117 0.03612423 0.48175114 -0.22418398 0.4793411
0.44367033 0.46516985 -0.04771155 0.45231664 -0.21785969 -0.17115259 0.1891163 0.1056236
0.2756378 0.47515965 -0.31299454 0.26536334 0.16728228 0.26378405 0.23708618 -0.18703496
-0.39517802 0.40019238 -0.2851178 0.31966358 -0.47632176 -0.08650118 0.005299449 0.08651179

in_layer1.layers.2.weight f4 [32, 32]
00000000: 501d 6a3c 4c29 643d 803e a1bc 6854 313d
00000010: 4722 333e 0342 eabd 1021 1ebc d132 8abd
00000020: ebd4 1e3e b3f5 1a3e e0f5 9dbb 22fd 7abd
00000030: 02b1 dfbd c986 013e 5073 47bc 597c 2a3e
00000040: f674 ce3d 7172 1e3e 272c 0f3e 9e44 ebbd
00000050: 64f0 533d 601f 96bd 72a7 b53d 0834 82bc
00000060: b0bb 7a3c 9e63 fabd 18c8 21be 8055 883d
00000070: d843 283d e094 7b3c 0ae5 f53d 972d 97bd
00000080: 4c84 803d a165 c7bd 5c07 163d 484e 25bd
00000090: 9a8b fd3d 594c 1e3e 3738 1d3e d049 023c
000000a0: de7d d53d 05dd 34be ab5e d4bd d068 013d
000000b0: 8038 813a 061d 0ebe 153e a0bd 7717 a9bd
000000c0: db58 33be 901c 8a3c b2cc f63d 30f0 923d
000000d0: 3904 acbd 4839 26be d00a 12be 80e5 563b
000000e0: 1e0d f93d a09d 92bd 6400 c5bd c221 c1bd
000000f0: d0ba 7abc e6e7 2bbe 51bd 1fbe 9931 323e
00000100: 7da9 acbd e498 02bd 98ba 41bd d006 1fbe
00000110: b84c ffbc f4a6 5d3d 3002 93bd 60e1 f6bb
00000120: 00ac 5dba a434 34be bb8c 033e f538 123e
00000130: 06d7 f63d 2ac9 6dbd 2630 bd3d e099 29be
00000140: 8820 33bd 1444 13bd 2ab5 7fbd 660e 983d
00000150: 3cf7 a4bd c0d8 a7bc 6c14 51bd fffd 29be
00000160: 3026 efbc da68 19be 321b d33d 0a7f c13d
00000170: d593 293e ae25 73bd a048 133c 08d7 0d3d
00000180: 65b2 343e bdec 253e 8b5e bbbd a307 1abe
00000190: 8e26 23be df57 aebd d932 183e 5c2e 733d
000001a0: 37a8 2e3e e12c 063e 80f5 273b f661 e0bd
000001b0: f7c3 303e 6135 113e fabd 9c3d bcc4 c5bd
000001c0: 719a 0e3e 20ce 833c 6a64 ef3d 561a 973d
000001d0: de3e c03d 12d7 1ebe 5ebe c8bd f623 d93d
000001e0: ecd9 16bd b07b 1dbe 6d9e 243e 8089 7abb
000001f0: 7f06 123e de7c 0dbe 9c4b 793d 5f5e 88bd
00000200: f759 98bd 4805 17bd d401 86bd fe61 c63d
00000210: f492 09bd 8740 093e e438 253d 10c3 dfbc
00000220: 021d d1bd 28c1 25be c03a 53bd 2fa1 27be
00000230: 7826 06bd 405a 3d3b 30a6 3abc ead6 b1bd
00000240: 2247 fb3d 92e4 cb3d 6465 32bd 290b 8fbd
00000250: 329c e33d c17d 1d3e 8fbf 25be 9071 1cbd
00000260: 5064 86bc 7e14 83bd b189 1a3e b0e8 d5bc
00000270: 1b7a 193e 0017 653a 4815 9dbc 812d d3bd
00000280: a6c2 70bd b451 693d ae24 a03d 201a cebb
00000290: a57b 2c3e 3094 fabd 7ccf 8a3d 2b0a 233e
000002a0: 00cf fbbc 81b6 0f3e c0f9 3e3b 2e8e 07be
000002b0: cf9e c6bd a4c1 863d feab 9cbd 0c26 2e3d
000002c0: 532b 323e 74f4 753d 5088 87bc 98fc 343d
000002d0: 1996 d0bd 201a 18be 7912 08be cee4 17be
000002e0: 4498 143d c009 0d3d d7da 99bd 6d10 31be
000002f0: 3a1e c43d 926c cdbd 20c4 f1bc 0cc8 17be
00000300: 413f ccbd 2e07 973d 1ca9 28be e572 cebd
00000310: 35b7 073e cbab b9bd 1faa 96bd 4c4d 4bbd
00000320: bac1 9a3d 827c edbd 2833 913c 8adb 933d
00000330: a040 52bc 3ced 023d 1417 0abe 6ead a33d
00000340: f44d 873d 28a5 b5bc f5ad 15be 7ece 903d
00000350: ca3e ec3d 304b fdbc 7aa4 aa3d 6431 863d
00000360: c1cd 90bd 1010 49bc 9131 343e 00c7 5a3a
00000370: a81c 10be 1039 53bc 921c b43d 205b 6cbd
00000380: fc97 bdbd ab1e 153e ce85 bf3d 0008 f6bc
00000390: 20f8 133c 2829 99bc 181b 283d e0dd cd3b
000003a0: 0f15 dbbd 2427 063d 2081 973b b041 3b3c
000003b0: f3f7 89bd 6486 393d 6d61 12be 8871 583d
000003c0: b62f c43d c05f 9fbc a89d 0cbe 0075 28ba
000003d0: 0090 8339 1270 1cbe bb08 00be 896e 273e
000003e0: a15e 073e 96a4 c83d 32ce fa3d 185f 8b3d
000003f0: 52c0 cb3d 3ac9 ef3d 6826 29bd a817 b8bc
0.014289215 0.055703446 -0.019683123 0.043293387 0.17493545 -0.11438372 -0.009651437 -0.06747974
0.1551091 0.1513279 -0.0048205703 -0.061276563 -0.109224334 0.12649073 -0.012173489 0.16648997
0.10080902 0.15473343 0.13981687 -0.11487697 0.051742926 -0.07330203 0.08869828 -0.015893951
0.015303537 -0.12226032 -0.15798986 0.06656933 0.041080326 0.015355319 0.12006576 -0.073817424
0.062752336 -0.09736181 0.036628112 -0.040357858 0.123801425 0.15458812 0.15353476 0.007952169
0.10424398 -0.17662437 -0.10369619 0.031594098 0.0009858757 -0.13878259 -0.07824341 -0.08256429
-0.17514364 0.016859323 0.12050761 0.071747184 -0.08399243 -0.16232789 -0.14261937 0.0032790601
0.12160705 -0.07158971 -0.09619215 -0.09430267 -0.015303329 -0.16787681 -0.15599562 0.17401733
-0.08430765 -0.03188409 -0.04729709 -0.15529943 -0.031164512 0.054114297 -0.071781516 -0.007534191
-0.0008456111 -0.17598206 0.12846653 0.1427954 0.12052731 -0.058053173 0.09237699 -0.16562605
-0.043732196 -0.035953596 -0.06242863 0.07424621 -0.08054969 -0.020489097 -0.051044866 -0.16600798
-0.029193014 -0.14981404 0.103079215 0.09448059 0.165603 -0.059362106 0.008989483 0.034628898
0.17646177 0.1620359 -0.09148892 -0.15041976 -0.15932676 -0.08512854 0.14863147 0.059370384
0.17056356 0.13103057 0.0025628507 -0.109561846 0.17262255 0.14180519 0.07653423 -0.09656665
0.13926102 0.016089499 0.11689074 0.0737807 0.09386991 -0.1551173 -0.09801935 0.10602562
-0.03682892 -0.15379214 0.1607606 -0.003822893 0.1426029 -0.13817164 0.060863122 -0.06658625
-0.074390344 -0.03687027 -0.065433174 0.09686659 -0.03358741 0.13403521 0.04033746 -0.027314693
-0.10210611 -0.16186965 -0.0515697 -0.1637008 -0.03275153 0.0028892905 -0.011392161 -0.0868357
0.12269427 0.09955706 -0.043553725 -0.069845505 0.11113776 0.15380003 -0.16186355 -0.03819424
-0.016405255 -0.06400393 0.15091588 -0.02611193 0.14987986 0.0008739084 -0.019175187 -0.103114136
-0.05877938 0.056962684 0.07819496 -0.0062897354 0.16844042 -0.12235296 0.06777856 0.15921848
-0.030738354 0.14034463 0.0029140562 -0.13237831 -0.09698259 0.06579903 -0.076499924 0.042516753
0.1739934 0.06004758 -0.016544491 0.044186205 -0.10184879 -0.14853716 -0.13288297 -0.14833376
0.036278024 0.034433126 -0.075124435 -0.17291422 0.09576078 -0.10030474 -0.029512465 -0.14822406
-0.09973002 0.07374416 -0.1647076 -0.10080508 0.13253482 -0.0906597 -0.07356667 -0.049634263
0.07556482 -0.115960136 0.017724589 0.07219608 -0.012832791 0.031964526 -0.13485366 0.079920635
0.06606665 -0.02217348 -0.1461714 0.07070635 0.115354136 -0.030919641 0.08332153 0.06552389
-0.070704944 -0.012271896 0.17597033 0.00083456933 -0.14073431 -0.012892023 0.08794512 -0.05770409
-0.09257504 0.1456248 0.09351693 -0.030033112 0.009031326 -0.018696383 0.041041464 0.006282553
-0.10697376 0.03275217 0.004623547 0.011429235 -0.06736746 0.04529418 -0.14294977 0.052842647
0.09579413 -0.019454837 -0.13732016 -0.0006426126 0.00025093555 -0.15277126 -0.1250333 0.1635076
0.13219692 0.09797017 0.1224636 0.06805247 0.099487916 0.11708303 -0.041296393 -0.022472218

in_layer1.layers.2.bias f4 [32]
00000000: d9eb 2e3e 007d 413a f9bc d9bd 7e55 d03d
00000010: 18d3 16bd f067 463c 1e99 bcbd 8a52 19be
00000020: 2770 f0bd 0003 9fbc 6c0c 03be 0d6a 323e
00000030: 00c7 fa3a 9499 8abd c215 8f3d 707c 20be
00000040: 102e b9bd 6cfb 873d 2dce 19be ee70 b43d
00000050: 2073 733c 6bef 16be 40a6 33be 58d8 643d
00000060: ca1f ab3d 68bf 10bd 3c11 20be e1a8 d0bd
00000070: 30ea 993c c0bd d23b dc58 393d 1008 003d
0.17082156 0.0007380992 -0.10631747 0.10172556 -0.03682241 0.012109742 -0.09208892 -0.14972892
-0.11740141 -0.01941061 -0.12797707 0.17423268 0.0019132793 -0.06767574 0.06986572 -0.15672469
-0.09041989 0.06639752 -0.15020056 0.08810602 0.014858991 -0.14739768 -0.17543888 0.055870384
0.08355673 -0.03533879 -0.15631574 -0.10188461 0.018788427 0.0064313114 0.04525076 0.03125769

in_layer2.layers.0.weight f4 [32, 4]
00000000: 594d 0cbd 588e 483e 4534 0d3f f8dd 5808
00000010: 8e98 0e3f e9c0 59be 4982 7dbe 5d74 0100
00000020: 8b32 013e 28a4 c33d 109c 09be 0105 0280
00000030: 7184 acbe 4027 233f b310 a9be ce85 0000
00000040: ea5f 91be 9c42 44be 1be4 613e 5e83 0580
00000050: a8e9 45be dd65 a4be 891c fa3e 3c39 0000
00000060: aedd bcbe 6b73 0bbe 2f01 0c3f e8cb 0300
00000070: ceb2 893d d76b f4bd 934c bd3e 3797 0280
00000080: 8aa5 a23e a0fe 943d 21e5 273d 10c1 0680
00000090: 9b46 b4be a7b8 eb3e f5d4 4e3e a96b fa82
000000a0: ed38 cbbe 65e3 9abe 84a8 dc3e e0ee 0380
000000b0: 8c35 043f 8254 8abe 4bbb cfbe 6e1c 0180
000000c0: ea46 a6be 6e68 e73c 9074 41be 37b0 0500
000000d0: dbe2 c4be 0a47 3cbf 792b b83e aa74 0400
000000e0: 6e71 91be ee9c c33d 4deb 11bf ca94 0180
000000f0: 3ab7 323e 4d8e 103f b4d0 debe f92d 0100
00000100: 7a55 533e 4e6f 0a3f 22a9 0dbf 674e 0480
00000110: 2f8b 463e 4b3f b93e 41bf b4be 05cd 0400
00000120: 6ab4 4fbe d474 ccbe c878 453e aee7 980a
00000130: 66ff bdbe c39a bc3e 8649 debc e852 0180
00000140: 694d c93e f5ff 6f3d 6d8b b3be 9b06 0680
00000150: d084 003e 46be d5be 8db8 003e 2c8e 0100
00000160: b02c 01be 5044 7d3e e66f 01bf 3fe0 0180
00000170: 5898 753e 3fc7 cabe 337a aa3e 663f 3380
00000180: 4067 2abb 73fc cb3c d0b9 8e3e 1d5c 0080
00000190: da1f e93c 4036 563e a556 cc3e 449f 1400
000001a0: 4833 94be 2706 6e3e ff0a cdbd aaf2 0380
000001b0: aef2 d5be 845e fabe f902 3dbe f75e 0400
000001c0: d70d d3be 79a1 80be 0026 553d 604b 0380
000001d0: fecf 8ebe aa4b 143e 453b a8bd 70c0 0200
000001e0: 039b aabe 520b e9bc 4f53 103f 67bc 0400
000001f0: b8c4 ffbe f86a 7d3d fd9a 71bc af69 0600
-0.034253452 0.1958555 0.5515788 6.526106e-34 0.5570153 -0.21264996 -0.24756731 1.33579e-40
0.12616937 0.09552795 -0.1343844 -1.85466e-40 -0.33694795 0.63731766 -0.33020553 4.8e-41
-0.2839349 -0.19166034 0.22059672 -5.06303e-40 -0.19327414 -0.32108966 0.48849896 2.0532e-41
-0.36887878 -0.13618247 0.54689306 3.48654e-40 0.067235574 -0.11934631 0.36972484 -2.37917e-40
0.3176692 0.07275128 0.04099 -6.20271e-40 -0.35210118 0.46039316 0.20198424 -3.6795992e-37
-0.39691868 -0.30251613 0.43097317 -3.61199e-40 0.51644206 -0.270176 -0.4057258 -1.02034e-40
-0.32475978 0.028248038 -0.18892121 5.22391e-40 -0.38454327 -0.73545897 0.35970667 4.09193e-40
-0.28406852 0.09551416 -0.56999665 -1.45211e-40 0.17452708 0.56467134 -0.43518603 1.08327e-40
0.20638075 0.5407609 -0.553362 -3.95467e-40 0.19389032 0.361811 -0.35302165 4.40889e-40
-0.20283666 -0.39932883 0.19284356 1.4724216e-32 -0.37108916 0.36836824 -0.027134668 -1.21577e-40
0.39316872 0.05859371 -0.3506731 -5.53383e-40 0.12550664 -0.4174673 0.125704 1.42837e-40
-0.12614703 0.2473309 -0.5056137 -1.7228e-40 0.23983896 -0.39605138 0.33296356 -4.706353e-39
-0.0026001483 0.02490065 0.2787614 -3.3044e-41 0.02845757 0.20919132 0.39909855 1.893844e-39
-0.28945374 0.23244534 -0.10011863 -3.62558e-40 -0.41786712 -0.48900235 -0.18458165 4.01409e-40
-0.41221496 -0.25123194 0.052038193 -3.02546e-40 -0.2789306 0.14481989 -0.0821443 2.52705e-40
-0.3332139 -0.02844778 0.5637712 4.34928e-40 -0.49954772 0.06186959 -0.014746425 5.88925e-40

in_layer2.layers.0.bias f4 [32]
00000000: 20df 9dbe b221 98be 17b6 7f3e d396 8dbd
00000010: c5c9 413d 4239 2f3e a284 74be ed77 703d
00000020: f55b 8c3e 323a 93be 433b 3b3e ecd1 c13c
00000030: c602 903e 1f84 d23e 0b7c 323e edb7 f13c
00000040: 50e0 dcbe 561b 603e 0d32 b33e 6752 ebbd
00000050: 86f4 febe 9189 e13e 2b4a c3bd 51fd e83d
00000060: 18de e3bd 36f8 933e 7c5c ff3e 0947 563e
00000070: 673c 2fbe 3df3 ba3e 1625 923e 09da a53d
-0.30834293 -0.29713207 0.24971806 -0.06913533 0.047311563 0.17111686 -0.2387872 0.05870812
0.27413908 -0.28755337 0.18284325 0.023659669 0.28127116 0.41116425 0.17430131 0.029506648
-0.43139887 0.21885428 0.34999123 -0.114903264 -0.49795932 0.44050267 -0.09535631 0.11376441
-0.111263454 0.28900307 0.49875247 0.20925535 -0.17112885 0.365137 0.2854392 0.080982275

in_layer2.layers.2.weight f4 [32, 32]
00000000: 5e1d 29bd 3969 e9bd 4cfb 21be 45bb 1a3d
00000010: 05d6 433e 14d9 6e3e 0f7e 553e ed6f ee3d
00000020: 68ff 473e 4349 d0bd a916 033e 1593 3ebe
00000030: d76f 6ebd d4c6 5f3e 6f80 403c e497 11be
00000040: a930 6c3c f99e 32be aa96 973b 7d00 4dbd
00000050: 672b 16be 4695 d83d 1714 3bbe 1449 65bd
00000060: d3cd 263d 55b1 e5bd 2cd5 033e d381 c53d
00000070: 0d85 f7bd db59 4b3d e5ea 5a3e 4b39 bd3a
00000080: 6d95 4e3b aec0 f6bd f58f f93d 66cb 9abe
00000090: ec3a 6fbc 9d31 b33d 05eb d63b 4704 85bc
000000a0: ac2d 0abe 45e2 f3bd 6385 4c3d 0bc9 443e
000000b0: 7248 bbbd de2f 753e cd10 acbc c64b a5bd
000000c0: 90ba d2bc d257 55bc 3e37 a03d a2cf ffbd
000000d0: 58f8 e93d 1be8 403e 1098 9bbb f697 e63d
000000e0: 27b1 063e dfbe 5c3d f97d 8d3b b27a 973d
000000f0: f5e0 1f3e 449a 71be e597 df3d 545e 12bd
00000100: 7fb9 033b 714e 18be cc5f d63d 3d44 b53e
00000110: 9ec5 fcbd 45a4 c83d 625d da3d bb5d 07bd
00000120: 68b6 13bd 1063 833e 6295 823c 7f2d f9bd
00000130: 1ade 553d 6194 dd3d 1bef 203e b2e5 e73c
00000140: 04c8 fa3d 1e26 713d 284a f4bd fdaa 3b3e
00000150: 6de4 533d 8b63 2ebd 09b1 133e b97e c03d
00000160: d4fc fdbd 620d abbd 0abf 0c3c 8357 293e
00000170: f590 0ebe 0526 fc3d 7062 13be c3b8 7c3c
00000180: 8ff7 173c 196a 85bd 1103 123e 08b0 6cbd
00000190: 0a69 a2bd 5e61 85bc 0c43 3a3d d52c 01bd
000001a0: ab13 033e 8c9f 0abe 390e 343c 9b39 9d3d
000001b0: 73ce c63d a7be 8fbd f215 623d b12a 22be
000001c0: 2749 2bbe 8df3 e1bc 66a5 83bd f207 de3d
000001d0: 0472 bf3d 2c11 a73d f4d7 96bd 8c83 36be
000001e0: 026b 41be 0c63 f63c bc41 43be 355f 0ebe
000001f0: 03fc 65bd f907 23be e0d3 05be ad05 acbd
00000200: 651f 53bd d27b 8a3d 132d 8bbd d218 bc3d
00000210: 2555 583d b372 243d 6fb9 013d 4185 99bd
00000220: 478a 1dbe 1d78 be3d 7af6 b83c d2ef 69be
00000230: 2a8e ea3d 2429 bc3d 77a3 f5bd f246 2cbe
00000240: dfbb 24be 47ea 41be fb6b 4e3e e666 a33d
00000250: a6c2 c2bc 164e d9bd a277 6fbd c6db e6bd
00000260: ef46 b23d 6de4 08bd b9ec 48bd e010 27bd
00000270: 526d b83d 8715 983d 5abd b33d 1ea5 8fbc
00000280: a83e 06bc 8fcd a1bd 9aa0 c3bd d863 b73e
00000290: da7d cfbd a5c1 b03c 0c15 1bbe 5405 afbd
000002a0: 9258 493d 847c cdbc b65d b73c 5f95 4dbe
000002b0: bc78 a43d 7f8a 8abd f61a 4a3e 510f 783e
000002c0: bbcc 063e 11aa 3b3d 288e 19be 1ac7 453e
000002d0: ae28 f5bd 41e6 61bc 3969 823d 74b6 103d
000002e0: 1163 bc3d 0e77 f43d 906c e63d ff41 963d
000002f0: dd56 28be 4028 863e bfe2 b5bd 019d 723d
00000300: 55e5 493d 86ff e9bd 6ad7 c0bd d246 f53c
00000310: 7b23 2ebd 2404 b23d 6342 443e 4dab bb3d
00000320: 9f74 14be 819e 51be 8c6d 1e3d 505b cf3d
00000330: 93bd 15be b65f 8a3e 9291 d43d 3aa9 00be
00000340: de44 b8bd 0381 36be ba97 2a3e 0928 adbd
00000350: edaf e1bc 4a5e fe3d a71a 5d3d bb77 653c
00000360: 01bb b03d 5043 bb3d f185 62bc 5ff3 d23b
00000370: 25d1 aebd f8de 043e 854a a23d dbfb 7dbd
00000380: b090 23be 4683 04be f988 05bc 1709 39be
00000390: 464d b9bd 34ce fa3d bcc2 debc 36ed cd3d
000003a0: 6ae4 1e3e 76f5 29be cacc babd f8b1 13bd
000003b0: ed73 13bd 2c34 cfbd 2ec5 a3bd 2206 3ebd
000003c0: 2ed7 2e3c 9740 0b3e d03a 0e3e b81d 81bd
000003d0: d6e1 07bd 6f9e 803d 6ca3 91bd c07d febb
000003e0: a2cb 923d f270 08be a648 56be 29f8 93bb
000003f0: 6140 84bd c243 0bbe 7f45 26be 4c3c bc3d
-0.041287772 -0.11397023 -0.15818518 0.03777625 0.1912461 0.23324996 0.20848869 0.11642442
0.19531024 -0.101702236 0.12801613 -0.18610795 -0.058212128 0.2185319 0.011749371 -0.14218098
0.014415898 -0.17443456 0.004626115 -0.050049294 -0.14664994 0.10575347 -0.18269382 -0.055977896
0.040723633 -0.11215464 0.12874287 0.09643903 -0.12085924 0.04964624 0.21378668 0.001443663
0.003152217 -0.120484695 0.12185661 -0.30233306 -0.01460145 0.08749697 0.006558778 -0.016237391
-0.13493985 -0.11908392 0.049931895 0.19217317 -0.09144677 0.23944041 -0.021004105 -0.08071093
-0.025723726 -0.013021426 0.078230366 -0.12490775 0.11424321 0.18838541 -0.004748352 0.11259453
0.13153516 0.053892966 0.0043179956 0.07396449 0.15613158 -0.23594004 0.109176435 -0.03573449
0.0020099578 -0.14873673 0.104674906 0.35403624 -0.1234238 0.09796957 0.106623426 -0.033048373
-0.036062628 0.25661516 0.015940372 -0.12166881 0.052213766 0.10819317 0.15716211 0.02830777
0.12245181 0.058874242 -0.11928207 0.18326946 0.051731516 -0.0425754 0.14423002 0.093991704
-0.12401739 -0.08352162 0.008590469 0.1653729 -0.13922484 0.12311939 -0.1439302 0.01542491
0.009275331 -0.06514377 0.14258982 -0.057785064 -0.07930191 -0.01628178 0.045474097 -0.031536896
0.12800471 -0.13537425 0.010989719 0.07677003 0.09707346 -0.07018786 0.05519671 -0.15836598
-0.16727124 -0.027581954 -0.064280316 0.10841359 0.09347919 0.08157572 -0.073654085 -0.17823619
-0.18888476 0.030076526 -0.19068044 -0.13903506 -0.05614854 -0.1592101 -0.13069105 -0.0839952
-0.051543612 0.06761898 -0.067957066 0.091844216 0.052815575 0.04014845 0.031670984 -0.07496119
-0.1538478 0.093002535 0.022578467 -0.2284539 0.11452897 0.091875345 -0.11994069 -0.16823938
-0.16087292 -0.18937026 0.20158379 0.07978611 -0.023774456 -0.10610597 -0.0584637 -0.11272387
0.08704936 -0.03342097 -0.04905388 -0.040787578 0.09005226 0.07425981 0.0877635 -0.017534789
-0.008193649 -0.07900535 -0.09552117 0.35818362 -0.10131426 0.021576712 -0.15144747 -0.08545938
0.049156733 -0.025083788 0.022383552 -0.20076512 0.08030841 -0.06764697 0.19736847 0.24224593
0.13164036 0.045816485 -0.14995635 0.19314232 -0.1197065 -0.013787807 0.06367726 0.03533025
0.09198583 0.119367704 0.112511754 0.073368065 -0.16439386 0.26202583 -0.08881139 0.05923176
0.049290974 -0.1142569 -0.09416087 0.029940996 -0.042514306 0.08692196 0.1916595 0.091635324
-0.14497612 -0.2047062 0.03867869 0.10124838 -0.14623098 0.27026147 0.10379328 -0.12564555
-0.089975104 -0.17822652 0.16659442 -0.08454902 -0.027549708 0.12420328 0.053980496 0.014005597
0.08629418 0.09143698 -0.013825879 0.0064377035 -0.08535985 0.12975681 0.0792437 -0.062007766
-0.15973163 -0.12940702 -0.008150333 -0.18069874 -0.09047942 0.122463614 -0.027192466 0.1005501
0.1551682 -0.16597542 -0.09121092 -0.036058396 -0.035999227 -0.10117373 -0.079965934 -0.046392567
0.01067142 0.13598858 0.13889623 -0.063044965 -0.03317436 0.06280219 -0.071112484 -0.0077664554
0.07167746 -0.13324335 -0.2092615 -0.004515667 -0.06457592 -0.13600066 -0.16237448 0.09191188

in_layer2.layers.2.bias f4 [32]
00000000: 24db 9dbd 43a2 243e 3213 bf3d b9d7 0d3e
00000010: baa3 21bd 9800 8a3d 0199 a03c 4fd4 10be
00000020: 027b d43d bdb9 dfbd c2c1 8dbd aab3 ebbd
00000030: ff68 05be ecfc 0e3d 2710 e33c affd 673c
00000040: 4679 293e 1c81 9f3b 3ffb 83bc f2da e0bd
00000050: d619 08be dcd1 1b38 7892 c1bd 5679 bcbd
00000060: 996f 0ebd 6228 e6bc 9773 d4bd c2fa 023e
00000070: ed94 183e 8aa6 ddbd 2342 e33d 3e1e 45bd
-0.077078134 0.16077523 0.09329833 0.13851823 -0.039462782 0.067383945 0.019604208 -0.1414349
0.103750244 -0.10924099 -0.06921722 -0.115088776 -0.13028334 0.034909174 0.027717663 0.014159604
0.16550168 0.004867686 -0.016111014 -0.109792605 -0.13291106 3.7150327e-05 -0.09451765 -0.092028305
-0.034774397 -0.028095428 -0.103736095 0.12790969 0.1490056 -0.108227804 0.11096599 -0.048124544

sat_layers.layer0_1.0.agg_weight f4 [3]
00000000: cab8 1cbf 8256 a03e 9507 653f
-0.61219466 0.31316 0.89464694

sat_layers.layer0_1.0.input_linear_layer1.weight f4 [32, 32]
00000000: ff06 65be df3d 063d f8d8 3d3d ac47 863c
00000010: d444 8e3e 65e8 e73d 4dde 813d c560 cd3d
00000020: c0f5 a8bc 0888 7e3d a8dd 263e 94ae 263e
00000030: 58cc aabb bd21 26be 3ae3 2fbc 06bb b43d
00000040: 8999 383d a27c 1e3e e305 603e 09cf 4b3d
00000050: a21e 3bbe 0799 a83e ae6d 1ebd 4c35 fe3d
00000060: 14d9 163d ae59 7f3d 0a32 8bbe 6a05 8e3e
00000070: 3d75 5c3e 3eb2 c0bc 4bc2 2d3c 0f56 70be
00000080: e2d7 2f3e 38f6 1e3d a8d1 2abd 0b86 5ebe
00000090: b15f 3c3b 5601 afbd 6450 42bc e54e 9cbd
000000a0: 440d 333e 0de9 e6bc 4456 57bd 48ff 26be
000000b0: e848 5cbc 6ce6 c53d 6a5f 62be da0d a53d
000000c0: 81de ffbd 7bd9 a8bd 4939 a0be 4e05 5abd
000000d0: e734 b33d 2b0a 8dbe e038 393d 2dc3 7dbd
000000e0: 8ee1 9d3d b5ca f4bc f49c 283e 00e7 debd
000000f0: 2e86 74be a3ff 1d3e 15db a73d e7dc bb3d
00000100: d03a efbd 745c 97be 258a 3f3d ca44 6d3e
00000110: 8d27 853d efc9 603e 3e09 523c 6fc8 0a3e
00000120: a289 b6bb 8beb 513e abb1 1e3e bbb5 43bd
00000130: b6d6 d4bd 788b 8fbe acf7 763d bbab 453d
00000140: 95a9 3a3e fada ee3c 6df1 a93e 7a51 673d
00000150: 0bd0 f8bd 66d7 953e 0cb7 00be 409c 203e
00000160: 0544 dc3c 6f31 8d3d f03d 3abd 49c8 963e
00000170: 067d 613e 0110 b6bd c952 87bd 377f 1cbe
00000180: 607e 7f3d 27cb 623c b730 963c ca61 31be
00000190: 326f 543b a532 0ebe fc12 d63c 2144 5ebd
000001a0: 272f 973d d241 e0bb ae31 10bd 3eb1 b93c
000001b0: 08bc 22bd 259d b93d 98f9 bcbc 53e3 0e3a
000001c0: ee46 cbbd 87db 1a3d 7ef9 73bd fc05 583d
000001d0: 9b79 b13d f3d3 25be c787 273d 79ba 973b
000001e0: 23b0 653d 78d3 0cbd e47f 983b db8f a4bd
000001f0: 4345 4ebe ee84 b9bc bb88 1e3e 9a36 083c
00000200: 7bfd f83b 7aa5 303d 5d16 97bc bb8a d9bd
00000210: 9a9f e9bd 7ca2 833c d2c7 813c d7b4 5d3c
00000220: 432a 23bb 1691 6ebd 6dd7 85bc 4a21 afbd
00000230: 18c0 353d 36bd ec3d 2fa8 8c3d 1a40 4ebc
00000240: aa2e 803c 891a 253d 1bbc 12be 102e de3c
00000250: 7133 003d b913 6abd 6b6b 23bd 218d af3c
00000260: bfc0 27bd 10ad a63c 0dd9 09bc 2bab 65bd
00000270: 0a5c 11be 335c 313d 4a39 9b3b 80f8 a3ba
00000280: 0796 433e 5767 373e 4918 4cbd 3668 49be
00000290: 4884 31be 4c90 2cbe d269 893c 4b03 27be
000002a0: 5228 ad3d 85e3 25be c584 31bd edee 43be
000002b0: 9c07 1ebd 4b87 583e 2342 3cbe 5a5b 7a3d
000002c0: 6b2c 24be 5b82 fabd f04a a4be fc8e de3d
000002d0: 7085 32bd 0035 4abe 154d 033e 4ab8 04bc
000002e0: 6e8b 0dbe e9b3 c83d e114 05bc a707 82be
000002f0: 4e75 eabc 34d8 b13d 3aef 013d 402a 7d3d
00000300: 8dd8 a5be b2ba 8ebe c339 38bc e165 9b3e
00000310: 527b 333e 57af 033e b76b bb3d 5f44 ad3e
00000320: ce7c 2abe 22d0 c53d dae4 a33d 192c 9e3d
00000330: 3b18 b43d a6da 21bd c6e8 4e3e 8d29 94bc
00000340: a92e 4b3e 9b73 513b df09 983e 367c eebc
00000350: 7527 493d 2916 a93e 7dda 7bbe 93e8 123e
00000360: ac07 d33d 14bd 023e 62bd bdbd 778e b03e
00000370: 8212 8b3e 330f 27be 48b7 2e3c ed36 06be
00000380: 8dae c3bd 884c 2bbc f41f cabd c026 863e
00000390: 2119 8a3e 8c30 533b 5d48 de3d 8366 b83d
000003a0: 48ea 53be 8684 7d3d 1b0b 243e 3864 523b
000003b0: 2e90 e5bd cdd8 9abd 50bf 4c3e 457f 79bd
000003c0: a003 8a3e 947b 2a3e 27a3 113e 9d24 89bd
000003d0: 3b66 26bd 44be a33e ef6f 20be f720 773d
000003e0: 3791 6cbd 24ea a53d 4a0b 45be eb63 5f3e
000003f0: aa1e 913e 6075 b1bd 4ffa 9cbc bccb a4bd
-0.2236595 0.03277385 0.046349496 0.016391598 0.27786887 0.113236226 0.06341229 0.10028223
-0.020624995 0.06214145 0.16295493 0.16277534 -0.005212348 -0.16223808 -0.010735327 0.088247344
0.045068298 0.15477231 0.21877246 0.04975799 -0.18273404 0.3292925 -0.038678817 0.12412509
0.036828116 0.062341385 -0.27186614 0.27738506 0.21529098 -0.023522492 0.010605405 -0.23470329
0.17172197 0.03880903 -0.04170385 -0.21730821 0.002874356 -0.08545177 -0.011859987 -0.076322354
0.17485529 -0.0281873 -0.052572504 -0.1630832 -0.013445117 0.0966309 -0.2210671 0.080592826
-0.12493611 -0.08244606 -0.31293705 -0.053227715 0.08750325 -0.2754682 0.045220256 -0.061953712
0.07709037 -0.029881814 0.16466123 -0.108839035 -0.2387931 0.15429549 0.081960835 0.09172993
-0.116811395 -0.29562724 0.046762604 0.23170772 0.06501684 0.21952032 0.012819586 0.13553022
-0.0055706063 0.20500009 0.15497462 -0.047780734 -0.10392515 -0.28036094 0.060294792 0.048259478
0.18228753 0.02915715 0.33192006 0.056474186 -0.12149056 0.29265898 -0.12569827 0.15684605
0.026887903 0.06894194 -0.045469224 0.2944968 0.22020349 -0.08889771 -0.06607587 -0.15282904
0.06237638 0.013842381 0.018333776 -0.1732246 0.003241491 -0.13886507 0.0261321 -0.05426419
0.073820405 -0.006843784 -0.03520363 0.022667523 -0.0397301 0.09063176 -0.023068234 0.0005450744
-0.09925638 0.037807014 -0.059564106 0.052740082 0.086657725 -0.16194133 0.04090097 0.0046303836
0.05607618 -0.03438136 0.0046539176 -0.08035251 -0.20143609 -0.022646394 0.15481846 0.008313799
0.0075985766 0.04312656 -0.01844328 -0.10622164 -0.11407395 0.01606869 0.015842352 0.013531885
-0.0024897016 -0.058243833 -0.016338075 -0.08551271 0.044372648 0.115595266 0.06868016 -0.012588525
0.015647251 0.04030851 -0.14329569 0.027121574 0.03129906 -0.057147715 -0.039897364 0.0214296
-0.0409553 0.020346195 -0.008413565 -0.05607144 -0.14195266 0.04330082 0.004737054 -0.0012509972
0.191002 0.17910515 -0.049827848 -0.1966866 -0.17335618 -0.1685192 0.016774092 -0.1630985
0.08454956 -0.16200073 -0.04333951 -0.19134112 -0.038581476 0.2114536 -0.18384604 0.061122276
-0.16032569 -0.122318946 -0.32088423 0.10867116 -0.043584287 -0.1974678 0.12822373 -0.008100579
-0.1382272 0.0979994 -0.008122654 -0.25396463 -0.028620388 0.086838156 0.031722285 0.06180787
-0.32391778 -0.27876812 -0.01124424 0.30351165 0.17527512 0.12859856 0.09151404 0.33841226
-0.16649172 0.09658839 0.08002634 0.07723255 0.08793684 -0.03951516 0.20205984 -0.01808622
0.19842018 0.0031959775 0.2969503 -0.029111963 0.049109895 0.3302472 -0.24595065 0.14346533
0.10304198 0.1276744 -0.092646375 0.34483692 0.27162558 -0.16314392 0.010663815 -0.1310689
-0.09554777 -0.010455258 -0.09869376 0.2620144 0.26972297 0.003222498 0.10853646 0.090039276
-0.2069484 0.061893962 0.16019861 0.0032103192 -0.11209141 -0.07560883 0.19994855 -0.06091239
0.2695589 0.16648704 0.14222394 -0.066964366 -0.04062484 0.319811 -0.156677 0.060334172
-0.057755675 0.081012994 -0.19242588 0.2181546 0.28343707 -0.08664966 -0.019162325 -0.08046672

sat_layers.layer0_1.0.input_linear_layer1.bias f4 [32]
00000000: d87d 673e 80a9 b5be 7b8e 923d 83a1 60bc
00000010: c583 52bd 26e7 43be cd67 503e 1b0b 643e
00000020: ad95 6d3e 935b 9cbe 4ded 6abe a5f7 82be
00000030: e8c0 a9be 0d81 61be 7f77 333e 6343 a73e
00000040: ea91 653e 6b03 60be f6d4 4bbe 7078 953e
00000050: 3b78 3ebe 4519 2e3e 3026 63be b959 1e3d
00000060: 2d79 58be 38c2 b4be 2aad 8fbe 81dc 98be
00000070: bf00 a43e 5511 b2be 85b2 b93e 4658 833e
0.226066 -0.3548088 0.07156082 -0.013710382 -0.051395196 -0.19131145 0.20352097 0.22269861
0.23201628 -0.30538616 -0.22942086 -0.25579563 -0.33154988 -0.22021885 0.17526053 0.326686
0.22418943 -0.21876304 -0.19905457 0.2919345 -0.18600552 0.17001827 -0.22182536 0.038659785
-0.21139975 -0.35304427 -0.280618 -0.2985573 0.3203182 -0.34778848 0.36269012 0.25653285

sat_layers.layer0_1.0.input_linear_layer2.weight f4 [32, 32]
00000000: d570 92bd beda d33d 7741 9ebd 3d10 86bd
00000010: 6a5b 153d 2949 833d c8d7 23be 6cb3 5d3d
00000020: 3f87 263d fc3a 5ebe 400a e33d 84c4 89bc
00000030: 9324 90be 8d5e 703e c4e8 74bd c319 cabd
00000040: 31ba 153e c8df 16be 4665 153e fc5c 7cbe
00000050: 688e 7f3e f69c 233e fffe 5abd 0cd2 87bd
00000060: d14b b0bc a3c6 2b3e c0df 1ebe dd88 1d3d
00000070: 9d74 50be 63a3 7ebe 1859 51bd cdff 773d
00000080: 99a8 133c 0ff7 963d b1ae c5bd e9ce 9dbd
00000090: e603 0dbd a275 a9bd b637 df3d de27 ad3d
000000a0: e617 d7bd 385d 1e3d c366 bdbd 2d55 b6bd
000000b0: 8b24 43bd 4469 0bbd 5e9f d9bd ebda 183d
000000c0: 1645 b03d 1203 c4bb da06 1ebd 471e e83c
000000d0: 0013 9dbd 71a4 713d a8db 363e d4b8 06bd
000000e0: 75ee a4bc d8b2 113e cd3b 2a3e afac 0dbe
000000f0: 3bcf c6bd 176f 1ebe a24f e63d a8ab 1a3e
00000100: c72c 84bd a309 a93d 8a8d d33d 9f87 22be
00000110: 3241 2f3d f655 993d 6d6d f23b d3ff c83c
00000120: 4196 383d 66f1 0e3e 91a4 223e ea01 1ebd
00000130: 28c4 803d 4bf9 5fbd ff51 943d 1e74 b8bd
00000140: 169c 3bbe 7508 a63c 9c38 6d3d c26f 8e3c
00000150: 686e f43d 604d 273d 61b9 9f3d d578 9f3d
00000160: 7144 55bd 1512 febc 44d7 a73c ebc3 b93c
00000170: 2b13 21be 8dc6 e03c 3c45 fd3d 2862 e8bd
00000180: cf43 303e 1b40 823c c33f 82bc 9c7d 7bbd
00000190: 30b1 0bbe 6c54 7fbd 8fc3 22bd a86a a7bd
000001a0: 1a0f 1a3e bb36 30be 0c9b d0bd bf4d 23bd
000001b0: 415d 123e d49c 8dbd 3f62 3e3e e3d2 9f3d
000001c0: b776 0abc d7f8 e03d fcd5 bb3d 86ae f3bd
000001d0: 53da cebc 7e81 073e b692 b63d f64d dcbd
000001e0: 3794 05be 423b bf3d 6b08 d03d a4dc 46bd
000001f0: 4952 edbd 45ca fcbd ae13 22bd 2360 a23d
00000200: fa01 36bc 48c5 1cbe 028a 12bd 0a3c 3c3e
00000210: f373 0abe 4532 2bbe 24ad bc3d 64ae 3d3e
00000220: c96c 34be f889 2abe 0a8a c7bc f39b 153e
00000230: 6a79 dcbd 0e2a 4d3d 4f1d 173e 320e a0bd
00000240: 53c4 41bd 0dfb efbd 33a3 d43c 6e89 1c3e
00000250: eee6 be3d ed04 103e 8112 65bc 3e68 4bbc
00000260: b704 e2bc aa09 c83d cafe 0ebd ea99 26be
00000270: 58d8 a8bd 9897 8e3d 9e26 3f3e 16f0 47bd
00000280: dbf0 23be 3aa9 0fbe 2390 2dbe 14cd 0c3d
00000290: afe2 db3d b1ff 5a3d bc4e 1e3c 204b c03d
000002a0: 191e e53d 95e5 093e c81c 303d 20b1 483d
000002b0: 3cfa fa3d f32e 12be 5506 f9bd 3323 b93d
000002c0: 9212 2fbc 5576 05be cd00 0dbe 5eba cebd
000002d0: 75bc bd3d 721f 943d 67f2 d0bd 2bed 89bc
000002e0: 335f 93bd ee93 643d f993 0fbe f4fa 3bbe
000002f0: 81c7 0dbe ae7a 113e 0d6f a9bd f611 0c3e
00000300: 7856 8b3d 1419 a9bd 1a3a 5ebd 41ef 48bd
00000310: 5a14 c83d 99ac 56bd ef93 893d 0cf0 a03c
00000320: a0fe 03be f3b1 f7bd 3d17 88bd e596 ea3d
00000330: 91e0 d93b abf2 af3c c20d b4bd 362f 32be
00000340: 6193 efbc 6746 f2bd 2305 2bbe 94a4 28be
00000350: 18a6 9dbd ffaf 16be a15c 363d a3d1 af3d
00000360: 2609 9c3d 96e5 dcbd 4285 c13d dc31 543d
00000370: a739 923d e05d 59bd 1559 663d 0492 32be
00000380: d336 c53d a1f9 2e3e 83dc 093e f8b7 1dbe
00000390: 49d7 9abd 8385 b8bd 9432 c03d 5fc2 86bd
000003a0: c381 6d3d c357 c4bd 4449 063d 0dbc 74bd
000003b0: 5621 26be d23e 55bd 0e1b fa3d 57a3 f23d
000003c0: 63f5 e13b 8460 b33d 82b5 fc3d b46c 18be
000003d0: ee87 c63c 629b c9bd 0a4a d23d 9337 fe3b
000003e0: aba6 ba3c ffa3 6d3e 48ab 56bd dcfc a5bd
000003f0: 2337 28be 5e00 c1bd 85b8 673e 1c82 bbbd
-0.07150427 0.10344456 -0.0772733 -0.06546066 0.036464132 0.064104386 -0.16000283 0.05412619
0.040656324 -0.21702188 0.110859394 -0.016817339 -0.28152904 0.23473568 -0.059792295 -0.09868195
0.14621808 -0.14733803 0.14589414 -0.24644846 0.24956667 0.15977845 -0.05346584 -0.0663186
-0.021520527 0.16774993 -0.15515041 0.0384606 -0.20356984 -0.24867015 -0.051110357 0.060546685
0.009012365 0.073713414 -0.0965246 -0.077054806 -0.034427546 -0.0827439 0.10899298 0.0845487
-0.10502605 0.03866312 -0.09248116 -0.08902965 -0.047642272 -0.034035936 -0.106261 0.03731815
0.08606927 -0.0059818113 -0.038580753 0.02833475 -0.076696396 0.058994714 0.1785723 -0.03289111
-0.020133236 0.1422838 0.16624375 -0.13835405 -0.09707495 -0.15472065 0.112456575 0.15104544
-0.06453853 0.08253791 0.10329731 -0.15872048 0.042786784 0.07487099 0.0073982985 0.024536049
0.04506517 0.13959274 0.1588309 -0.038576044 0.06287414 -0.054681104 0.07242202 -0.090065226
-0.18321261 0.020267705 0.057915315 0.017387275 0.11935121 0.040845275 0.0779903 0.07786719
-0.052067224 -0.031014482 0.020488389 0.022676429 -0.15729968 0.027438426 0.12366721 -0.11346847
0.17213367 0.015899708 -0.015899545 -0.061399087 -0.1364181 -0.06233637 -0.03973728 -0.0817464
0.15044823 -0.17208378 -0.10185823 -0.039869066 0.14293386 -0.06914678 0.18592165 0.07803895
-0.008451155 0.109849624 0.09171674 -0.11898522 -0.02525059 0.13232991 0.08914702 -0.10757057
-0.1304482 0.093374744 0.101578556 -0.048550263 -0.1158796 -0.12343267 -0.03956955 0.07928493
-0.01110887 -0.15309632 -0.035776146 0.18382278 -0.13520794 -0.16718395 0.092127115 0.18523556
-0.17619623 -0.16654193 -0.024357814 0.14610271 -0.107653454 0.050088935 0.14757274 -0.078152075
-0.04730637 -0.11717806 0.025956726 0.152868 0.0932139 0.14064379 -0.013981462 -0.01241499
-0.027590139 0.09767468 -0.034910955 -0.16269651 -0.08244389 0.06962508 0.18667075 -0.04881295
-0.16009848 -0.14029399 -0.16949515 0.034375265 0.10736596 0.053466503 0.009662326 0.09389329
0.11187381 0.13466485 0.042996198 0.048997045 0.1225476 -0.14275722 -0.12159411 0.09039917
-0.01068558 -0.13033421 -0.13769837 -0.100941405 0.09264461 0.0723256 -0.102024846 -0.016836723
-0.07195892 0.05580514 -0.14021291 -0.1835745 -0.13845636 0.14206955 -0.082731344 0.13678727
0.06803602 -0.082567364 -0.05425463 -0.049056295 0.09769507 -0.052410696 0.06717669 0.019645713
-0.128901 -0.12094488 -0.06645057 0.11454562 0.006649085 0.021478018 -0.087916866 -0.17400822
-0.02924508 -0.118298344 -0.16701178 -0.16469032 -0.076976955 -0.14715575 0.04452193 0.08584907
0.076189324 -0.107859775 0.09449245 0.051805362 0.071399026 -0.05306804 0.0562373 -0.17438513
0.096295975 0.17087413 0.13463025 -0.1540221 -0.07560594 -0.0900984 0.09384647 -0.06580042
0.05798508 -0.09587052 0.032784715 -0.05974965 -0.16223654 -0.052061863 0.122121915 0.11847561
0.0068957075 0.08758643 0.12339307 -0.14885217 0.024234738 -0.0984409 0.10268028 0.00775809
0.022784552 0.23207091 -0.05240944 -0.0810487 -0.16427283 -0.09423898 0.22628982 -0.09155676

sat_layers.layer0_1.0.input_linear_layer2.bias f4 [32]
00000000: 240a 533d 197c 93ba e189 733d f9ab 00bd
00000010: 3730 44bd ead2 d3bd 4605 a9bc 56ef 033e
00000020: b1ae 1bbb e0fc 083e ebef d43b 7b67 7bbd
00000030: 0c56 e93c d828 ea3c 583f 8cbd 2053 dcbc
00000040: 38b4 30bc 5b71 2f3d 95d3 253e e6d5 40bd
00000050: 3fbd d33d 1ad4 583d 72a9 0fbe a855 d63d
00000060: b895 0bbd bc1d eb3d 3726 043e 8be3 2fbe
00000070: 2bde 01be 1c1c 99bc 8f06 5f3d 9188 07bd
0.051523343 -0.0011252194 0.059457663 -0.031414006 -0.047897544 -0.10342963 -0.020632397 0.12884268
-0.0023755247 0.13377714 0.006498327 -0.061377984 0.028483413 0.028583929 -0.06848019 -0.026895106
-0.010785155 0.042832714 0.16193993 -0.04707899 0.1033883 0.05293665 -0.14029482 0.104655564
-0.03407833 0.11480281 0.12905203 -0.17176645 -0.12682407 -0.018690161 0.054449614 -0.033089224
