output/modelparams/dynamicLearning-WORKPLACE-SCCompUAU-SAT/epoch10_model_state_dict.pth (torch, 263657 bytes, 148 tensors)

in_layer0.layers.0.weight f4 [32, 4]
00000000: fea1 c0bc d650 013f c0cc bfbe 0052 0280
00000010: 891f 8a3b 1919 503b 15b7 ee3b 6dd6 0080
00000020: 9adc 9339 389e 513a 231f a7ba b723 0300
00000030: fe11 cfbe b5c3 85bd f329 17be 58eb 0100
00000040: e7a5 503e a940 a93e 19ba 55be 7b78 0100
00000050: ad82 953d 369c 1b3f f0dd c8be 4728 0100
00000060: 4dd6 0abe 33e2 8dbe 53bb 253f 22c3 0500
00000070: d19f ffba 3540 61bb c035 3bbb 1730 0380
00000080: 6d9f 80bb e63d 8bbb 61c3 31bb 6edc 0500
00000090: 927f ecbe 2891 163f ff2e 553e 8688 0600
000000a0: de53 45bc 4b29 c3be 7916 4b3e 7290 0500
000000b0: 36c2 edbe 7018 cabe 0fdf 153f 8732 0380
000000c0: ba92 ddbe 21f1 8abe 63ac 0f3f 9a1f 0280
000000d0: 21df b83d 885d 55be 01bc b13e f579 0200
000000e0: eca0 463e 262b d2be 8ca6 06bf 0120 0000
000000f0: 1579 7a3c 0367 d13e 7c88 b3be 0a95 0500
00000100: 0dd9 9f3e 7c7a 11be 1013 a2bc b06a 0780
00000110: 458d 343e b388 193f aded 77be b239 0580
00000120: c1dc 523e 3662 893c ad10 4f3e c6d4 0380
00000130: 5fef bd3d 4c9d f6be 69d7 413e 3cf7 0080
00000140: 5d30 05bf dc06 093f 306d d03e dcb9 0100
00000150: 51e0 2b3e 76a6 debd 6fe1 bd3d bf2d 0180
00000160: e388 fd3d 3ff5 ccbb 6a58 fc3d b8d8 0000
00000170: 1e11 ef3e ad46 5e3c 278b 5dbe 4bdf 0180
00000180: 21fb 783e be12 ab3c a34b adbe c5ce 0500
00000190: 207c 913e 1690 8c3e 4c16 debe 6bb5 0680
000001a0: 2a16 01bf 0443 8d3e 1c6f 17bf ac2d 0000
000001b0: 71ba 553d 863d d8bd 2c08 c93d a4f3 0180
000001c0: 40f8 1dbf 660e 293f 922e 813e 343d 0200
000001d0: 6d34 6d3d 2b55 7f3d 74a7 7a3d 89d5 0180
000001e0: c4a4 2f3e cd95 e2bc 7109 93be e03f 0400
000001f0: 3e50 abbc b818 04bd 4832 0ebc c13e 0580
-0.023514744 0.5051397 -0.374609 -2.13087e-40 0.004215185 0.003175324 0.0072850087 -7.6921e-41
0.00028202386 0.0007996294 -0.0012750368 2.88319e-40 -0.40443414 -0.06531469 -0.14762096 1.76261e-40
0.20375787 0.33057144 -0.20871772 1.35056e-40 0.07300315 0.60785234 -0.39231825 1.06284e-40
-0.13558312 -0.2771164 0.6473896 5.29178e-40 -0.0019502585 -0.0034370546 -0.0028565973 -2.92758e-40
-0.003925255 -0.004249322 -0.0027124512 5.38253e-40 -0.46191078 0.5881524 0.20818709 5.99988e-40
-0.012043921 -0.38117442 0.19832791 5.10995e-40 -0.46437234 -0.3947177 0.58543485 -2.93632e-40
-0.43276006 -0.27137092 0.56122416 -1.95007e-40 0.090269335 -0.2083646 0.34713748 2.27421e-40
0.19397324 -0.41048545 -0.5259788 1.1481e-41 0.015287657 0.40898904 -0.35065067 5.12643e-40
0.31220284 -0.1420688 -0.01978448 -6.81121e-40 0.17632015 0.5997421 -0.2421176 -4.79875e-40
0.20592023 0.016770463 0.20221205 -3.51835e-40 0.09274172 -0.48166883 0.18929829 -8.8691e-41
-0.5202692 0.5352609 0.40708303 1.58509e-40 0.16784789 -0.10871594 0.09271514 -1.08246e-40
0.12379625 -0.0062548216 0.12321551 7.7744e-41 0.46692747 0.013566655 -0.21635114 -1.71938e-40
0.24314548 0.02088296 -0.3384677 5.33352e-40 0.28415012 0.2745368 -0.43376386 -6.16093e-40
-0.50424445 0.2759019 -0.59153914 1.6384e-41 0.052179758 -0.1055861 0.09816012 -1.79237e-40
-0.61706924 0.66037595 0.25230843 2.05627e-40 0.057911325 0.062337082 0.061194852 -1.68437e-40
0.17152697 -0.027659321 -0.2871814 3.90256e-40 -0.020912286 -0.032250136 -0.00867898 -4.8169e-40

in_layer0.layers.0.bias f4 [32]
00000000: 54df 29bd 8009 62bb 5ab2 baba 5924 203e
00000010: a5e8 46be 1ff2 cbbc 5248 953e 22ca 813b
00000020: 6ab4 8e3b 010a 093d 0476 3f3d 98e6 a43e
00000030: 9b84 b63e 273f 1f3e fbed f03e 6191 f9bc
00000040: 0bba 83be c47b 50be b777 843e 2672 e53c
00000050: c4fe 06be 3ed9 19be f6b9 f1bd 8553 96be
00000060: d9b0 ecbd 0148 d33d 0fd8 c53e deaf bebe
00000070: 71cb 9a3e a152 8dbd b113 febd 2b75 003d
-0.041472748 -0.0034490526 -0.0014243827 0.15638866 -0.19424684 -0.024895726 0.2915674 0.0039608637
0.004355003 0.033456806 0.046743408 0.3220718 0.35648045 0.15551434 0.47056565 -0.03046483
-0.25727877 -0.20359713 0.25872585 0.028008532 -0.13183123 -0.15024278 -0.11803047 -0.29360595
-0.115571685 0.10316468 0.38641402 -0.3724355 0.30233338 -0.06900526 -0.124060996 0.03136174

in_layer0.layers.2.weight f4 [32, 32]
00000000: 9ba5 c3bd ede8 e23b 30ac c23a adeb 763d
00000010: 3ea8 a0bd 0e0c 64be 3961 34bd ec6b b7bb
00000020: c62a 13b9 e2ba 8e3d 9df2 ad3d d9d7 1a3e
00000030: df8f 483e c347 febc cdfa b9be b2e6 c5bd
00000040: ffa6 1fbd e66f 19be b2dd 9abd 3b34 4cbd
00000050: 2b2f 133e 0437 103c b66e 81bb 8006 e4bd
00000060: f2b0 e6bd 84ee 8cbe 79e1 bcbd c0ff e83d
00000070: 5e75 52bd ad8d d33a 3781 6bbd 68ea d13c
00000080: 98fe c83d bffb a339 f445 98b9 31a9 a43d
00000090: d771 243d 84c2 c13d acbb 24be 55e7 4c3b
000000a0: 066c 06ba 972c 553e f7d1 95bd a04c 8cbd
000000b0: 3815 88bd 68c2 1abe dfb0 97be 696c b63d
000000c0: b027 12bd 8c6b b63d f6ef 39be 1627 e2bd
000000d0: bef9 2b3e 0f7f d6bc ffd6 bcbc e329 8fbd
000000e0: 6c92 27bd 4bb2 00be c1fc 4b3e be81 443d
000000f0: ed98 053e 08f3 03bc e22b 9cbc 8cb1 a3bb
00000100: a121 78bc c2e3 2d3b 82a0 59bb c280 01bd
00000110: feb7 dfbc f2d9 dabb e1c6 33bd 4c76 98bb
00000120: 6aec 473b 59d7 183e 2c8e fc3c 9b4e e8bd
00000130: 419f 03bc ec9a 73bd 3094 edbd bc37 9ebb
00000140: 4ebf 0c3d 4792 233d 283b 64bd 9c1c 70bc
00000150: 5448 c63d d8f8 20bb 3340 023d bea5 ea3a
00000160: 40f9 0f3d f611 13bd 93d2 413c 6b81 fb3c
00000170: f33d f73d f8be bb3b 02c7 ce3b b9f4 263c
00000180: e5d7 a2be 32b7 d1ba 6d7c 9abb 2329 24bd
00000190: 72b3 68be b5f5 38be 3479 a23e 9adc 04ba
000001a0: 9fac 543b 138b afbc b50a 283e b757 f23e
000001b0: c7f7 c93e 7932 193e e751 0bbe ac56 7dbe
000001c0: d781 3cbe ab07 6bbe e8b2 5dbd cb1e 723d
000001d0: 2ad9 243e d03a c8bc 9c23 f53c 0c3c 2cbe
000001e0: 64e4 3ebe 12ab 52be 3a17 88be 1abe b03d
000001f0: 4d0a d83d d013 3e3b 1e4b 4fbe a14e c83c
00000200: 569c acbb cad5 04bb a2ec c1b9 27fd bc3b
00000210: e25a a2ba 32e2 2bbc ede0 b3bc bdce 0d3a
00000220: 1da7 d239 b910 b8bc 50d7 90b9 3a5c b4bb
00000230: 503e 86bc 8989 48bc 810e 9dbd a3e4 86bb
00000240: 5fcc 0c3b e3bf 88bb 9d5f bfbc be24 54bb
00000250: 84a4 623c 5c5f 333b 8c5a 9c3a 3066 e8bb
00000260: 4570 06bb 8c13 21bd ba55 e6bb 2c16 883c
00000270: 5810 10bd d11a eaba a1cc e43a efb6 973b
00000280: b6cb e13c dd98 c2bb 6ce8 59bc d151 e1bc
00000290: b721 0b3d 4431 ff3d 2162 7d3d 4a15 0b39
000002a0: 0b3d 3e3c 5ca3 dfbd 7fe1 33bd b599 34be
000002b0: 5abd c13d 8854 b63d aa38 06bc 579c 8e3d
000002c0: f667 563b bf6c c83d b6c9 213e 36d8 513d
000002d0: c086 ebbd 6f6c 9cbc ddf9 6dbc dd2b 853d
000002e0: 3dd6 673b 58aa 5e3e 7012 0f3d ff0f ce3b
000002f0: 93d9 c7bd 9875 e3ba b904 1d3c 540f 493b
00000300: 191b adbb 52f1 a43b 626b a0bb eaa3 863b
00000310: 8e92 a5bb 6fa1 66bb 90f5 ebbb 6079 6dbb
00000320: 402a 8b3b d0fe 0fbd 75b8 ff3a 49be 8e3c
00000330: 6911 423c b165 043d d8e8 423d 1f58 e9bb
00000340: 4399 92bb 5634 ccbb eed6 58bd d08e b5b8
00000350: d7c0 c8bc 1de4 b73a 3a95 5e3b 502e dbbb
00000360: c4d1 5c3b 5e55 393d ca39 073c 8414 7c3c
00000370: f0c3 213d 1bff c93b ba3d 61bb 5e2a 42bb
00000380: b497 95bb aa1d 6abb f861 0439 30ca 193c
00000390: 6e5b 193b 34b0 99bc f234 bebc c4c9 073b
000003a0: b9be 2d3a 7a8e 40bd 94b0 28bb 2a65 b43b
000003b0: e027 85bc 6435 b9bc aa9c a4bd 4ac0 393a
000003c0: 14b8 c43b eb78 d3bb 5f19 86bd 31aa 7e3a
000003d0: 95ab 49bb ab61 4f3b ac9d 153a 6bad 373c
000003e0: 9351 5cbb 2a2c c03c 9418 42bd 3db9 8d3b
000003f0: 1006 9a3c 30d1 323b 48ee 9e3b e0e6 ed3a
-0.09553071 0.0069247396 0.0014852341 0.06028335 -0.0784459 -0.22270223 -0.04403803 -0.005597582
-0.00014034947 0.06969239 0.084935404 0.15121402 0.19586132 -0.031040078 -0.36324158 -0.09663142
-0.03897762 -0.14984092 -0.07561816 -0.0498545 0.14373462 0.008802179 -0.0039499654 -0.11134052
-0.112642184 -0.27525723 -0.09222693 0.113769054 -0.05138146 0.0016140245 -0.057496276 0.025624469
0.09814185 0.00031277348 -0.00029043818 0.08040083 0.04014763 0.09460929 -0.16087216 0.0031265814
-0.0005127791 0.20817791 -0.07315438 -0.068505526 -0.06644672 -0.15113223 -0.2962713 0.08907396
-0.03568238 0.08907232 -0.18157944 -0.11042611 0.16794488 -0.026183633 -0.023051737 -0.06990411
-0.040911123 -0.12568013 0.19920637 0.047975294 0.13046618 -0.008053549 -0.019063894 -0.0049955305
-0.0151447365 0.002653346 -0.0033207242 -0.031616934 -0.027309414 -0.006678813 -0.043890838 -0.004652774
0.0030505904 0.14925899 0.030829512 -0.11343118 -0.008033575 -0.059473917 -0.1160053 -0.0048284214
0.03436213 0.039934423 -0.05572048 -0.0146552585 0.09681764 -0.0024562385 0.031799506 0.0017902178
0.035149813 -0.0359058 0.01182999 0.03070136 0.12072363 0.0057295524 0.0063103447 0.010190182
-0.3180534 -0.0016000031 -0.0047145397 -0.040078294 -0.22724703 -0.1806248 0.31733096 -0.00050682726
0.0032451523 -0.02142862 0.16410334 0.47332546 0.39446852 0.1496066 -0.13605462 -0.24740094
-0.18408905 -0.22952144 -0.054125696 0.059111398 0.16098467 -0.024442106 0.029924206 -0.16819781
-0.18641812 -0.2057307 -0.2658022 0.08630009 0.1054884 0.0029003508 -0.20243499 0.024451556
-0.00526766 -0.002026903 -0.00036988134 0.005767483 -0.0012386704 -0.010490941 -0.021957839 0.00054095295
0.0004017883 -0.022468911 -0.0002762624 -0.0055041583 -0.016387135 -0.012239822 -0.07668782 -0.004116611
0.002148412 -0.0041732653 -0.023361022 -0.0032370533 0.013833169 0.002737007 0.001192884 -0.00709226
-0.0020513695 -0.039325282 -0.0070292624 0.016612135 -0.035171837 -0.0017860775 0.0017456004 0.0046299617
0.027562957 -0.005938633 -0.013300043 -0.027504833 0.0339677 0.124605685 0.06186116 0.00013264004
0.011611233 -0.1091983 -0.04391622 -0.1763676 0.09459944 0.08902842 -0.008192221 0.06963413
0.0032715774 0.09786367 0.15799603 0.051231585 -0.11500311 -0.019094674 -0.014524904 0.06502507
0.0035375499 0.21744668 0.034929693 0.006288528 -0.09758296 -0.0017353771 0.0095836455 0.0030679302
-0.0052827713 0.0050336504 -0.0048956135 0.0041088955 -0.005052871 -0.0035191437 -0.007200904 -0.0036235675
0.00424698 -0.035155118 0.0019509929 0.01742472 0.011844971 0.032323543 0.04758534 -0.0071211006
-0.0044738366 -0.006231825 -0.052939348 -8.6573535e-05 -0.024506016 0.0014029775 0.0033963458 -0.0066888705
0.0033694366 0.045247428 0.008253524 0.015385751 0.0394935 0.006164444 -0.0034369067 -0.0029627304
-0.0045652036 -0.0035723248 0.00012624997 0.009386584 0.0023400444 -0.018760778 -0.023218606 0.0020719627
0.0006627846 -0.047010876 -0.0025740014 0.0055052238 -0.016254365 -0.022608466 -0.08037694 0.0007085843
0.006003389 -0.0064536235 -0.06547808 0.00097146916 -0.0030772437 0.0031643908 0.0005707394 0.01121078
-0.0033617958 0.023458559 -0.04738672 0.0043250606 0.018801719 0.002728533 0.0048501827 0.0018150471

in_layer0.layers.2.bias f4 [32]
00000000: 59b6 c5be fb32 bebe 5c5f b3bd 07e1 353e
00000010: 63ca 5f3d 69b8 0fbd a8a5 c1bc 98e0 693d
00000020: 2cca 07bf 1dda e83d 74d3 23ba f954 383d
00000030: 9fde 3c3e 4701 8abe 712f 883e e302 bd3b
00000040: 76a2 173c 79c7 f53c 78d9 073e ee91 b5bd
00000050: 0aa9 d9bd be2b c03d 0a37 c2be c1af 8c3c
00000060: f497 2bbd 895d 3ebd 8596 37bd e652 91bd
00000070: 1da5 203e bdc5 a1bd 9433 c6be 7992 10be
-0.38615683 -0.3714827 -0.08758423 0.17761622 0.05463637 -0.035087977 -0.023638561 0.057098955
-0.53042865 0.11369727 -0.00062494655 0.04500291 0.18444298 -0.269541 0.26598695 0.0057681664
0.009255042 0.030002343 0.13266551 -0.088657245 -0.10627945 0.09383343 -0.37932616 0.01717365
-0.04189296 -0.04647592 -0.04482128 -0.0709589 0.15687986 -0.07899044 -0.38711226 -0.14118375

in_layer1.layers.0.weight f4 [32, 4]
00000000: a86d 5c3e 2829 7d3e 0aff 9ebe 18ee fd3d
00000010: acf9 bc3e e0c9 943d d8a8 d8bd a04f 173d
00000020: 309a 5bbd 52e5 803e b0d3 adbe 78d1 813e
00000030: a249 903e 9a1a 9bbe 500a d13e 7670 fb3e
00000040: 58d8 49be 8868 0fbe 7428 7f3e 3e8e c8be
00000050: 7879 4a3e 70e7 ee3d 4a5d a13e 045d debe
00000060: 50ae d4be 40f4 653e 8c6d 383e b246 eebe
00000070: c6c2 8ebe 083c eabe 7e67 b7be a403 67be
00000080: 90d9 d33e 00d4 cbbd ae08 933e 4a1e f33e
00000090: bc55 693e 822c e5be 34d3 803e 644b 433e
000000a0: b26a c63e f486 fcbe b071 9d3e ee8b d13e
000000b0: 622c eebe 5046 563d 528a da3e de30 babe
000000c0: 40ff 273e c03d 623e ac30 063e dc88 fe3e
000000d0: 8a9b d13e eca2 db3e d046 7fbd deb5 d63e
000000e0: d491 eebe 2625 8abe a803 dbbd d417 18be
000000f0: 4277 ec3e 1c7e 713e eed0 a43e 3422 ae3e
00000100: a03b bfbe 9033 6dbd 7887 953d d82a 053e
00000110: c0a4 833e 70ba 4bbe b862 1abe ae34 d63e
00000120: ac69 09be 04d4 b1be 0494 ad3e 105a ad3e
00000130: d88b 20be d8b7 ccbd b4e5 bcbe b4c8 d5be
00000140: 9089 403e fcb8 5abe eacc cb3e 8afb ccbe
00000150: e08a 8dbd 40e1 303c 0a92 833e 4c30 cf3e
00000160: 465d ad3e 6061 613e 3c01 6bbe 62d2 b6be
00000170: 5805 e5be 402e cb3c 124a f83e 4880 c2bd
00000180: 806f acbc 9e08 babe 6030 1d3e bc4c a23e
00000190: fc64 fcbe 5a41 b4be 069f bd3e 6872 f23d
000001a0: a05e ffbc 680c b73d e0b0 9bbd 5eef b2be
000001b0: cc36 efbe 8c5f a83e 1095 73bd 7826 3ebe
000001c0: ac27 04be d8a0 8bbe 58a5 17be 0cc1 dbbe
000001d0: 7293 bf3e 4412 513e 361b 81be 9cc0 2ebe
000001e0: d0b3 653e ac98 3dbe dc02 073e 90f9 0c3e
000001f0: 7826 a1be bc41 003e 409c fa3c 1696 df3e
0.21526206 0.24722731 -0.31053954 0.123989284 0.36909235 0.07265067 -0.105790794 0.03694117
-0.05361384 0.25174958 -0.33950567 0.25355124 0.28181177 -0.30293733 0.4082818 0.49109238
-0.19711435 -0.1400472 0.24917775 -0.39171022 0.19772899 0.11665237 0.31516486 -0.4343034
-0.4153924 0.22456455 0.18010539 -0.4653831 -0.27882975 -0.45748925 -0.35821146 -0.22559983
0.41376925 -0.09952545 0.2871756 0.47484046 0.22786611 -0.4476052 0.25161135 0.19071728
0.38753277 -0.4932171 0.307508 0.4092707 -0.46518236 0.05231315 0.42683655 -0.36365408
0.16405964 0.22093868 0.13104504 0.4971379 0.4093898 0.42897737 -0.06232339 0.4193563
-0.46595633 -0.26981467 -0.10694057 -0.1485284 0.46184736 0.23583263 0.3219065 0.3401047
-0.37350178 -0.057910502 0.07301229 0.13004625 0.25711632 -0.19895339 -0.1507672 0.41837066
-0.13419217 -0.34732068 0.3390199 0.33857775 -0.15678346 -0.09996003 -0.36894 -0.41754687
0.18802476 -0.21359628 0.39804775 -0.4003566 -0.06911254 0.010795891 0.25697356 0.40466535
0.33860224 0.22009802 -0.2294969 -0.35707384 -0.4473064 0.024802327 0.4849401 -0.09497124
-0.021049261 -0.363347 0.15350485 0.3169917 -0.49295795 -0.3520611 0.37035388 0.118382275
-0.03117305 0.08937913 -0.076020956 -0.34948248 -0.46721494 0.32885396 -0.05946833 -0.18569362
-0.12905759 -0.27271152 -0.14809167 -0.4292072 0.3741718 0.20417124 -0.25216073 -0.17065662
0.22431874 -0.18515271 0.13184685 0.13767076 -0.31474662 0.12525076 0.030592084 0.43669194

in_layer1.layers.0.bias f4 [32]
00000000: 7840 39be 7c9e 03be dc91 dc3e da0c d1be
00000010: 00f7 133d 16a8 f63e 7c90 65be 326c f53e
00000020: c228 e33e be2a ee3e 306d 43bd 0c96 e73e
00000030: 9c16 5fbe a042 2fbe b4a7 413e 3051 d83d
00000040: 6620 8d3e 2048 f33e d240 a0be b4dd 873e
00000050: 0c4c 2b3e b40e 873e b8c6 723e 1886 3fbe
00000060: c654 cabe 04e6 cc3e f6fa 91be f2aa a33e
00000070: 72e0 f3be 8827 b1bd 00a7 ad3b 182d b13d
-0.18090999 -0.12853426 0.43080032 -0.40830117 0.03612423 0.48175114 -0.22418398 0.4793411
0.44367033 0.46516985 -0.04771155 0.45231664 -0.21785969 -0.17115259 0.1891163 0.1056236
0.2756378 0.47515965 -0.31299454 0.26536334 0.16728228 0.26378405 0.23708618 -0.18703496
-0.39517802 0.40019238 -0.2851178 0.31966358 -0.47632176 -0.08650118 0.005299449 0.08651179

in_layer1.layers.2.weight f4 [32, 32]
00000000: 501d 6a3c 4c29 643d 803e a1bc 6854 313d
00000010: 4722 333e 0342 eabd 1021 1ebc d132 8abd
00000020: ebd4 1e3e b3f5 1a3e e0f5 9dbb 22fd 7abd
00000030: 02b1 dfbd c986 013e 5073 47bc 597c 2a3e
00000040: f674 ce3d 7172 1e3e 272c 0f3e 9e44 ebbd
00000050: 64f0 533d 601f 96bd 72a7 b53d 0834 82bc
00000060: b0bb 7a3c 9e63 fabd 18c8 21be 8055 883d
00000070: d843 283d e094 7b3c 0ae5 f53d 972d 97bd
00000080: 4c84 803d a165 c7bd 5c07 163d 484e 25bd
00000090: 9a8b fd3d 594c 1e3e 3738 1d3e d049 023c
000000a0: de7d d53d 05dd 34be ab5e d4bd d068 013d
000000b0: 8038 813a 061d 0ebe 153e a0bd 7717 a9bd
000000c0: db58 33be 901c 8a3c b2cc f63d 30f0 923d
000000d0: 3904 acbd 4839 26be d00a 12be 80e5 563b
000000e0: 1e0d f93d a09d 92bd 6400 c5bd c221 c1bd
000000f0: d0ba 7abc e6e7 2bbe 51bd 1fbe 9931 323e
00000100: 7da9 acbd e498 02bd 98ba 41bd d006 1fbe
00000110: b84c ffbc f4a6 5d3d 3002 93bd 60e1 f6bb
00000120: 00ac 5dba a434 34be bb8c 033e f538 123e
00000130: 06d7 f63d 2ac9 6dbd 2630 bd3d e099 29be
00000140: 8820 33bd 1444 13bd 2ab5 7fbd 660e 983d
00000150: 3cf7 a4bd c0d8 a7bc 6c14 51bd fffd 29be
00000160: 3026 efbc da68 19be 321b d33d 0a7f c13d
00000170: d593 293e ae25 73bd a048 133c 08d7 0d3d
00000180: 65b2 343e bdec 253e 8b5e bbbd a307 1abe
00000190: 8e26 23be df57 aebd d932 183e 5c2e 733d
000001a0: 37a8 2e3e e12c 063e 80f5 273b f661 e0bd
000001b0: f7c3 303e 6135 113e fabd 9c3d bcc4 c5bd
000001c0: 719a 0e3e 20ce 833c 6a64 ef3d 561a 973d
000001d0: de3e c03d 12d7 1ebe 5ebe c8bd f623 d93d
000001e0: ecd9 16bd b07b 1dbe 6d9e 243e 8089 7abb
000001f0: 7f06 123e de7c 0dbe 9c4b 793d 5f5e 88bd
00000200: f759 98bd 4805 17bd d401 86bd fe61 c63d
00000210: f492 09bd 8740 093e e438 253d 10c3 dfbc
00000220: 021d d1bd 28c1 25be c03a 53bd 2fa1 27be
00000230: 7826 06bd 405a 3d3b 30a6 3abc ead6 b1bd
00000240: 2247 fb3d 92e4 cb3d 6465 32bd 290b 8fbd
00000250: 329c e33d c17d 1d3e 8fbf 25be 9071 1cbd
00000260: 5064 86bc 7e14 83bd b189 1a3e b0e8 d5bc
00000270: 1b7a 193e 0017 653a 4815 9dbc 812d d3bd
00000280: a6c2 70bd b451 693d ae24 a03d 201a cebb
00000290: a57b 2c3e 3094 fabd 7ccf 8a3d 2b0a 233e
000002a0: 00cf fbbc 81b6 0f3e c0f9 3e3b 2e8e 07be
000002b0: cf9e c6bd a4c1 863d feab 9cbd 0c26 2e3d
000002c0: 532b 323e 74f4 753d 5088 87bc 98fc 343d
000002d0: 1996 d0bd 201a 18be 7912 08be cee4 17be
000002e0: 4498 143d c009 0d3d d7da 99bd 6d10 31be
000002f0: 3a1e c43d 926c cdbd 20c4 f1bc 0cc8 17be
00000300: 413f ccbd 2e07 973d 1ca9 28be e572 cebd
00000310: 35b7 073e cbab b9bd 1faa 96bd 4c4d 4bbd
00000320: bac1 9a3d 827c edbd 2833 913c 8adb 933d
00000330: a040 52bc 3ced 023d 1417 0abe 6ead a33d
00000340: f44d 873d 28a5 b5bc f5ad 15be 7ece 903d
00000350: ca3e ec3d 304b fdbc 7aa4 aa3d 6431 863d
00000360: c1cd 90bd 1010 49bc 9131 343e 00c7 5a3a
00000370: a81c 10be 1039 53bc 921c b43d 205b 6cbd
00000380: fc97 bdbd ab1e 153e ce85 bf3d 0008 f6bc
00000390: 20f8 133c 2829 99bc 181b 283d e0dd cd3b
000003a0: 0f15 dbbd 2427 063d 2081 973b b041 3b3c
000003b0: f3f7 89bd 6486 393d 6d61 12be 8871 583d
000003c0: b62f c43d c05f 9fbc a89d 0cbe 0075 28ba
000003d0: 0090 8339 1270 1cbe bb08 00be 896e 273e
000003e0: a15e 073e 96a4 c83d 32ce fa3d 185f 8b3d
000003f0: 52c0 cb3d 3ac9 ef3d 6826 29bd a817 b8bc
0.014289215 0.055703446 -0.019683123 0.043293387 0.17493545 -0.11438372 -0.009651437 -0.06747974
0.1551091 0.1513279 -0.0048205703 -0.061276563 -0.109224334 0.12649073 -0.012173489 0.16648997
0.10080902 0.15473343 0.13981687 -0.11487697 0.051742926 -0.07330203 0.08869828 -0.015893951
0.015303537 -0.12226032 -0.15798986 0.06656933 0.041080326 0.015355319 0.12006576 -0.073817424
0.062752336 -0.09736181 0.036628112 -0.040357858 0.123801425 0.15458812 0.15353476 0.007952169
0.10424398 -0.17662437 -0.10369619 0.031594098 0.0009858757 -0.13878259 -0.07824341 -0.08256429
-0.17514364 0.016859323 0.12050761 0.071747184 -0.08399243 -0.16232789 -0.14261937 0.0032790601
0.12160705 -0.07158971 -0.09619215 -0.09430267 -0.015303329 -0.16787681 -0.15599562 0.17401733
-0.08430765 -0.03188409 -0.04729709 -0.15529943 -0.031164512 0.054114297 -0.071781516 -0.007534191
-0.0008456111 -0.17598206 0.12846653 0.1427954 0.12052731 -0.058053173 0.09237699 -0.16562605
-0.043732196 -0.035953596 -0.06242863 0.07424621 -0.08054969 -0.020489097 -0.051044866 -0.16600798
-0.029193014 -0.14981404 0.103079215 0.09448059 0.165603 -0.059362106 0.008989483 0.034628898
0.17646177 0.1620359 -0.09148892 -0.15041976 -0.15932676 -0.08512854 0.14863147 0.059370384
0.17056356 0.13103057 0.0025628507 -0.109561846 0.17262255 0.14180519 0.07653423 -0.09656665
0.13926102 0.016089499 0.11689074 0.0737807 0.09386991 -0.1551173 -0.09801935 0.10602562
-0.03682892 -0.15379214 0.1607606 -0.003822893 0.1426029 -0.13817164 0.060863122 -0.06658625
-0.074390344 -0.03687027 -0.065433174 0.09686659 -0.03358741 0.13403521 0.04033746 -0.027314693
-0.10210611 -0.16186965 -0.0515697 -0.1637008 -0.03275153 0.0028892905 -0.011392161 -0.0868357
0.12269427 0.09955706 -0.043553725 -0.069845505 0.11113776 0.15380003 -0.16186355 -0.03819424
-0.016405255 -0.06400393 0.15091588 -0.02611193 0.14987986 0.0008739084 -0.019175187 -0.103114136
-0.05877938 0.056962684 0.07819496 -0.0062897354 0.16844042 -0.12235296 0.06777856 0.15921848
-0.030738354 0.14034463 0.0029140562 -0.13237831 -0.09698259 0.06579903 -0.076499924 0.042516753
0.1739934 0.06004758 -0.016544491 0.044186205 -0.10184879 -0.14853716 -0.13288297 -0.14833376
0.036278024 0.034433126 -0.075124435 -0.17291422 0.09576078 -0.10030474 -0.029512465 -0.14822406
-0.09973002 0.07374416 -0.1647076 -0.10080508 0.13253482 -0.0906597 -0.07356667 -0.049634263
0.07556482 -0.115960136 0.017724589 0.07219608 -0.012832791 0.031964526 -0.13485366 0.079920635
0.06606665 -0.02217348 -0.1461714 0.07070635 0.115354136 -0.030919641 0.08332153 0.06552389
-0.070704944 -0.012271896 0.17597033 0.00083456933 -0.14073431 -0.012892023 0.08794512 -0.05770409
-0.09257504 0.1456248 0.09351693 -0.030033112 0.009031326 -0.018696383 0.041041464 0.006282553
-0.10697376 0.03275217 0.004623547 0.011429235 -0.06736746 0.04529418 -0.14294977 0.052842647
0.09579413 -0.019454837 -0.13732016 -0.0006426126 0.00025093555 -0.15277126 -0.1250333 0.1635076
0.13219692 0.09797017 0.1224636 0.06805247 0.099487916 0.11708303 -0.041296393 -0.022472218

in_layer1.layers.2.bias f4 [32]
00000000: d9eb 2e3e 007d 413a f9bc d9bd 7e55 d03d
00000010: 18d3 16bd f067 463c 1e99 bcbd 8a52 19be
00000020: 2770 f0bd 0003 9fbc 6c0c 03be 0d6a 323e
00000030: 00c7 fa3a 9499 8abd c215 8f3d 707c 20be
00000040: 102e b9bd 6cfb 873d 2dce 19be ee70 b43d
00000050: 2073 733c 6bef 16be 40a6 33be 58d8 643d
00000060: ca1f ab3d 68bf 10bd 3c11 20be e1a8 d0bd
00000070: 30ea 993c c0bd d23b dc58 393d 1008 003d
0.17082156 0.0007380992 -0.10631747 0.10172556 -0.03682241 0.012109742 -0.09208892 -0.14972892
-0.11740141 -0.01941061 -0.12797707 0.17423268 0.0019132793 -0.06767574 0.06986572 -0.15672469
-0.09041989 0.06639752 -0.15020056 0.08810602 0.014858991 -0.14739768 -0.17543888 0.055870384
0.08355673 -0.03533879 -0.15631574 -0.10188461 0.018788427 0.0064313114 0.04525076 0.03125769

in_layer2.layers.0.weight f4 [32, 4]
00000000: 7a93 56bc 7748 3dbe d413 fd3e e45c 0280
00000010: 74ac 4d3f 5cf2 48be af44 7cbe 5d74 0100
00000020: 9fd2 87ba ac73 52b9 6078 d2ba 0105 0280
00000030: 776c 8bbe 41e1 463f 7efa 15bf ce85 0000
00000040: f722 0cbc f232 e93a eeb0 1bbb 5e83 0580
00000050: d67e e3bd 6bf6 2dbf 32fd 0d3f 3c39 0000
00000060: a630 37be 460f 9ebe 2ea0 fe3e e8cb 0300
00000070: d547 083d 961d 43be cef1 853e 3797 0280
00000080: a24a cd3e bfc6 1bbe e718 09be 10c1 0680
00000090: 363b c3be 9309 033f 8947 2a3e 0f84 0000
000000a0: f598 62be d28f 19bf 7f68 023f e0ee 0380
000000b0: 1988 4c3f 1eed 8bbe d337 b1be 6e1c 0180
000000c0: 1efc 25bb 7b5b b139 8244 86ba 37b0 0500
000000d0: 5e9a 70be 0869 52bf 0d44 eb3e aa74 0400
000000e0: 0d97 ddbb d580 3c3b 6340 24bb ca94 0180
000000f0: 39a6 b23d 678d 213f b37d ecbe f92d 0100
00000100: b0a1 9d3d c382 243f db6c 1fbf 674e 0480
00000110: ad27 2a3e c044 d03e 145c c9be 05cd 0400
00000120: bdac f3bd f404 8cbe 8aaa 463e 0d48 0280
00000130: 43e6 aabe 70d9 da3e 5eee 8f3c e852 0180
00000140: a992 d53e 2074 dcbd fcb2 d3bd 9b06 0680
00000150: 07c8 a33e 7ae6 a6be 39dd 143d 2c8e 0100
00000160: da2c 07be 4c7a a33e 6603 aabe 3fe0 0180
00000170: ac94 c93e 7f8b a3be 8ba4 8f3e 4724 0000
00000180: 7754 c23b 7d44 b4bd 1cc7 3a3e 1d5c 0080
00000190: b4cf 6abd 5509 12bd 1a4b cd3d b79d 0080
000001a0: ae2a a6be 5cb5 a03e 6aaa 51be aaf2 0380
000001b0: 99ce bb38 781d 26ba a22c b2ba f75e 0400
000001c0: 9f13 4bbb 7994 9c3a e41f a5b9 604b 0380
000001d0: 2f85 8abe 1138 373e fb70 f1bd 70c0 0200
000001e0: 7749 7fbe b233 acbe e235 0b3f 67bc 0400
000001f0: 6bad 55bd 5ecf bb3c 3eb0 a73c af69 0600
-0.013096685 -0.18484674 0.4942919 -2.16994e-40 0.8034127 -0.19623703 -0.24635576 1.33579e-40
-0.0010362453 -0.00020070252 -0.0016057603 -1.85466e-40 -0.2723119 0.7768746 -0.58585346 4.8e-41
-0.008553258 0.0017791672 -0.0023756581 -5.06303e-40 -0.111081764 -0.6795413 0.5546447 2.0532e-41
-0.17889652 -0.30871028 0.49731582 3.48654e-40 0.03327163 -0.19054255 0.26161045 -2.37917e-40
0.40096003 -0.15212534 -0.13388406 -6.20271e-40 -0.38131112 0.51186484 0.16628851 4.7374e-41
-0.22128661 -0.5998508 0.509407 -3.61199e-40 0.7989517 -0.27329344 -0.34612903 -1.02034e-40
-0.0025327276 0.0003382823 -0.0010243806 5.22391e-40 -0.23496386 -0.82191515 0.45950356 4.09193e-40
-0.0067623914 0.0028763313 -0.0025062792 -1.45211e-40 0.08723111 0.6310639 -0.4618965 1.08327e-40
0.07696855 0.64262027 -0.62275475 -3.95467e-40 0.16616698 0.40677452 -0.39328063 4.40889e-40
-0.118981816 -0.2734753 0.19400993 -2.09518e-40 -0.333788 0.42744017 0.017569717 -1.21577e-40
0.41713455 -0.107643366 -0.10336873 -5.53383e-40 0.31988546 -0.32597715 0.036343787 1.42837e-40
-0.13200703 0.31929243 -0.33205718 -1.7228e-40 0.3937124 -0.31942365 0.28055224 1.3014e-41
0.005930479 -0.088021256 0.18240017 -3.3044e-41 -0.057326987 -0.03565343 0.1002409 -5.6577e-41
-0.32454437 0.31388366 -0.20475164 -3.62558e-40 8.955337e-05 -0.00063367886 -0.0013593624 4.01409e-40
-0.0030987037 0.0011946104 -0.00031495013 -3.02546e-40 -0.27054736 0.17892481 -0.117891274 2.52705e-40
-0.24930368 -0.3363319 0.54379094 4.34928e-40 -0.052167337 0.022926029 0.020469781 5.88925e-40

in_layer2.layers.0.bias f4 [32]
00000000: d80d 74be dac6 9abd 8288 75ba 49bb 683c
00000010: b1e7 e13a 2971 353e 5dd0 f0bd ca6d 58bc
00000020: 7ff8 b03d f25a 1dbe d85b 4a3e e309 f43d
00000030: 6141 85ba 2099 d43e 155e 31ba f0b7 293d
00000040: 3095 a6be 99f7 3d3e 3474 703e efd4 bbbc
00000050: fb67 e1bd 4c99 af3e 453a 4dbd ba57 193e
00000060: ab7d a7bd 5c21 b939 6a43 c13e c239 1fba
00000070: bd79 03ba 8cc8 413e faee 543e ba3d ee3b
-0.23833406 -0.07557459 -0.00093663495 0.0142048085 0.0017235187 0.17718948 -0.11758492 -0.0132097695
0.08641147 -0.15366724 0.19761598 0.11915948 -0.0010166579 0.41523075 -0.00067660335 0.041435182
-0.32535696 0.18551482 0.23481828 -0.022928683 -0.11006161 0.34296644 -0.0501044 0.14974871
-0.08178266 0.00035310804 0.37746745 -0.0006073975 -0.0005015394 0.18924159 0.20794287 0.007270542

in_layer2.layers.2.weight f4 [32, 32]
00000000: f670 a03a 6271 c9bb 2257 29b8 cbdf 00bb
00000010: f6d0 ddba ca52 803a 1fc0 a33a 4cea 923a
00000020: 1694 aebb b241 dfba 2289 113a f89c c8bb
00000030: 3dcb 64ba 9ece 043a 746b 3cbb 4fdd e2ba
00000040: f69b eaba 81d7 47ba e007 c33a 953c cfba
00000050: b456 efbb 7dd3 2dba 30ac c1ba dbbc 0d3a
00000060: 671c e73a 0689 103b 1595 c9ba dac4 8338
00000070: 7935 cdb8 7c0e 57ba 909f b23a 9ec6 5dbb
00000080: eb28 14bd a959 f33c f3a9 4dbb e71d 32be
00000090: 2598 cabb b316 093d 4c63 10bd a7cd c5bc
000000a0: 2018 4fbb eb06 96bd ee0a 00bc 365f 273d
000000b0: 202b 4fbb 4051 bc3d 5b29 ffbb 9f2b 00be
000000c0: a790 c8bd cbb3 88bd 9658 51bc f591 84bd
000000d0: f96d b73b ded6 c53d 46ca 21bd 1a57 b33d
000000e0: a4c8 abbc 4e22 b4bc f26e 8bbd b636 fdba
000000f0: 1044 3abb 006d b8bc 0bea bf3c 43bf 8b3a
00000100: 43fc 8a3c a0a3 77bc 0f9c 2aba f9da c23d
00000110: f0dd a9ba 789b 323c 25f7 c53c 5b82 b23c
00000120: 1bff 22bb 65b4 32bc a75c 943c f95d 99bc
00000130: bc9b 3b39 e2c1 9f3c c272 2cba 7683 babc
00000140: afe2 543c f1f5 eabc d869 c43c 6171 6abc
00000150: a9fd 55ba 48f9 87ba d275 6ebc e30f 94bc
00000160: 279d aa3c a75f 703c 273b d8bc c8b6 0fba
00000170: 0000 13b9 d245 8cbc 72ab 3bbc 62b5 89ba
00000180: 6777 933a 932d 8dbb d1a1 0038 7e75 b2ba
00000190: b895 96b9 cdde 753a b296 c23a cb42 573a
000001a0: 21c3 7cbb c137 e2ba cc7c 983a 2b54 8abb
000001b0: 38aa 30ba db7e 8c3a 124a adba 02ab 92ba
000001c0: 2a1e 1dba 31d0 65ba ecbf 963a c148 d0ba
000001d0: c504 b6bb 6585 2aba 2a7d 7bba a5f2 01b9
000001e0: 1ea4 a13a 21e5 d73a a175 d2ba 27c2 0ab8
000001f0: ce5e 2fb8 a636 48ba efc2 4f3a 1660 1fbb
00000200: 547e 2d3a 16c4 e3ba 807f eeb8 cfa6 283a
00000210: b318 85b8 3116 a93a 6cbb ba3a 2ddd 1539
00000220: 41fe a9ba 8f42 85bb 18d3 ca3a c769 e6ba
00000230: 0b3e 09ba bbed d43a 214c f7b9 4dad 793a
00000240: c0ff de3a 2b12 193a 5ced cf39 78ba 29bb
00000250: 72f7 4cba eafb 85ba eb09 c13a 0284 40ba
00000260: 5e6b b038 e2c7 eab8 28e5 a3ba c90a cab8
00000270: 64dc 1cb9 7105 86ba 1903 4d3a dbd5 81ba
00000280: aa6d 08be 44cd 303d 65d4 05ba c4e0 f83e
00000290: 354d 32bb 8af9 8fbd 86d9 d9bd b3b6 e4bd
000002a0: 36b5 6a3d 8f9e 383d 300f 66bd 63bc 1e3d
000002b0: 3259 193a fb73 c6bc cd20 87ba 587f c53e
000002c0: f6ee 9b3e 5a13 4a3e 6e9d 06be ebf1 133e
000002d0: 0abe 133d a898 82bd c77c 193e 2140 fdbd
000002e0: bfa9 81bd 58b6 ecbc d36f 353e 4bf7 4fb9
000002f0: 7fca 15ba fe5c f33d 4e3d 3ebe 054b 55bc
00000300: 26ca b63a 4dfa 9a39 5b10 0d39 0862 51bb
00000310: 0329 7339 f697 6637 459d 5f3a b0c2 083b
00000320: 2d4d 3d3a 4a93 4d3a 244c 2338 b673 0639
00000330: 080e 8539 abd1 ec37 4c8c 103a 023d a0bb
00000340: 673d 57bb 9122 41bb 0ed8 053b f0f8 8e38
00000350: 4221 0dba 9c0c bf3a d60b 25bb 3e94 843a
00000360: 3839 f83a c6b9 a63a 1614 44ba 1b6f d838
00000370: 638f c438 3a56 5eba d813 373a f47b 10b8
00000380: e969 08bd 3a9f 9cb8 e564 643a 0b5c e6bd
00000390: 6676 293a 32b1 cbbd 146a 30bd 1dc5 83bc
000003a0: 78c7 8dbb a35f 81bb 1f56 a5bd a1e7 793a
000003b0: f4b6 66b9 68c4 d1bd 5a5c 68b9 529b c4bd
000003c0: 1a1e c0bd 4855 61bd 51b3 69bc 2661 b4bb
000003d0: c110 393b 268f c6bc d0fc b2bc 2dda 46bd
000003e0: 551d baba 77fc d83a 05a1 8bbc d470 493a
000003f0: c47c a839 a9a6 22bb 8ddc 83bd 793a e1b9
0.0012240696 -0.0061475495 -4.037389e-05 -0.001966464 -0.0016923237 0.0009790298 0.001249317 0.0011208742
-0.005327712 -0.0017033129 0.00055517454 -0.0061222278 -0.00087277946 0.0005066189 -0.002875057 -0.0017308387
-0.0017899263 -0.000762336 0.0014879666 -0.0015810902 -0.007304037 -0.00066309405 -0.0014776047 0.0005406865
0.0017632366 0.0022054329 -0.0015379513 6.283233e-05 -9.785122e-05 -0.00082037575 0.0013627876 -0.003384031
-0.036171835 0.02970584 -0.0031381815 -0.1739422 -0.006182688 0.033468913 -0.035250947 -0.024145914
-0.0031600073 -0.07325538 -0.007815106 0.040862285 -0.0031611398 0.09195185 -0.0077869124 -0.1251664
-0.09793215 -0.06674918 -0.012777468 -0.064731516 0.0055978266 0.09660123 -0.039499544 0.08756848
-0.020969696 -0.021989014 -0.068082705 -0.0019318673 -0.0028421916 -0.022512913 0.02342703 0.0010661859
0.01696599 -0.015114695 -0.000650824 0.09514422 -0.0012959819 0.010901324 0.0241657 0.021790674
-0.0024871293 -0.010907267 0.018110586 -0.018721567 0.00017891725 0.01950163 -0.00065783795 -0.022767764
0.012993499 -0.028681727 0.023976251 -0.014309258 -0.00081631035 -0.0010373974 -0.014554458 -0.018073982
0.02082689 0.014671243 -0.026395394 -0.00054822536 -0.00014019012 -0.017123137 -0.01145445 -0.0010506327
0.0011250795 -0.0043084114 3.066828e-05 -0.0013615338 -0.0002872178 0.0009379208 0.0014845936 0.0008211552
-0.0038568454 -0.0017259048 0.0011633872 -0.0042214594 -0.0006739232 0.0010718958 -0.0013220927 -0.001118988
-0.00059935695 -0.00087666797 0.0011501289 -0.0015890823 -0.005554768 -0.00065048627 -0.0009593541 -0.00012392791
0.0012332236 0.0016471484 -0.0016056785 -3.3082582e-05 -4.1811545e-05 -0.0007637538 0.00079254707 -0.0024318746
0.00066182506 -0.0017377164 -0.00011372473 0.0006433548 -6.346535e-05 0.001290029 0.001424653 0.00014292142
-0.001296945 -0.0040667723 0.0015474288 -0.0017579132 -0.00052353804 0.0016245166 -0.00047168232 0.000952442
0.0017013475 0.0005839194 0.00039658963 -0.0025898498 -0.00078188546 -0.0010222171 0.0014727687 -0.00073438894
8.412333e-05 -0.000111952206 -0.0012504207 -9.6341195e-05 -0.00014959421 -0.001022501 0.0007820591 -0.0009905653
-0.13323084 0.043164507 -0.00051051966 0.48608983 -0.0027206664 -0.07030018 -0.106371924 -0.111676596
0.057301722 0.04507309 -0.056166828 0.03875388 0.0005849778 -0.024225226 -0.0010309458 0.38573718
0.3045575 0.19733945 -0.13145992 0.14447753 0.036069907 -0.06376773 0.14989005 -0.12365747
-0.063312046 -0.028895542 0.17718439 -0.00019833182 -0.0005714073 0.11882971 -0.18578073 -0.013018374
0.0013945743 0.00029559658 0.00013452901 -0.00319493 0.00023189564 1.37444495e-05 0.000853021 0.0020867996
0.0007221278 0.0007842077 3.893314e-05 0.00012822342 0.0002537819 2.8231027e-05 0.000551407 -0.004890085
-0.0032842995 -0.0029470066 0.0020422968 6.817456e-05 -0.0005383679 0.0014575901 -0.0025184057 0.001011498
0.0018937951 0.001272016 -0.00074797997 0.000103203776 9.372716e-05 -0.00084814767 0.0006983853 -3.4447716e-05
-0.03330413 -7.468318e-05 0.0008712544 -0.112480246 0.0006464481 -0.09945907 -0.043069914 -0.016085202
-0.004326757 -0.0039481684 -0.08073067 0.00095331116 -0.00022002665 -0.1024254 -0.00022159648 -0.095999375
-0.093807414 -0.05501297 -0.014263944 -0.005504745 0.0028238746 -0.02423818 -0.021849066 -0.048547912
-0.0014199415 0.0016554733 -0.017044554 0.0007684354 0.00032136415 -0.0024818575 -0.06438551 -0.0004295891

in_layer2.layers.2.bias f4 [32]
00000000: d5a7 33bb 234f c03d 2de3 24bd 1879 29bb
00000010: 605f 06bb 6d1b 273e 2749 65ba 3dbb 02be
00000020: 1704 033d 8c1e c5ba 45cf 94bc be03 f8ba
00000030: 6367 573a d4bd ba3b d298 4abd 48f6 003e
00000040: 10fe 733e 546a 00bc 5e8a 98bd 2baa 0abb
00000050: 79b6 753a bc28 4b3d a8b3 973b cab0 1d3e
00000060: cd8f 40bb c6fe 37bb e794 a3ba a8b2 be3c
00000070: 9b5d b33c 2ac4 c0bd 951f 343e a27e 313d
-0.0027413268 0.09390094 -0.040255714 -0.002585953 -0.0020503625 0.16319056 -0.0008746557 -0.12766738
0.031986322 -0.0015039011 -0.01816524 -0.0018922014 0.0008217005 0.005698899 -0.049462147 0.12593949
0.23827386 -0.007837851 -0.074482664 -0.0021158557 0.0009373199 0.049599394 0.004629571 0.15399471
-0.0029382587 -0.002807544 -0.001248029 0.02327855 0.02189522 -0.09412415 0.17590173 0.043333657

sat_layers.layer0_1.0.agg_weight f4 [3]
00000000: cab8 1cbf 8256 a03e 9507 653f
-0.61219466 0.31316 0.89464694

sat_layers.layer0_1.0.input_linear_layer1.weight f4 [32, 32]
00000000: 964d 59be 3f8f 09bd 8394 423d 5236 573d
00000010: 917d 8d3c ef63 c2bc e84b 553a ea9e bf3b
00000020: ad54 d7bd f75f b0bc 5103 5c3d 536d 813c
00000030: fe23 dcbd 1bb5 15be 2e6c dfbd 715e f93a
00000040: 30a6 2a3d fdc9 d23b de83 563d 3440 43bc
00000050: 139e eb3b 2c73 aa3e 53a8 aebd d4a7 f53a
00000060: 3586 503d f992 b53d fdc5 84bb 1090 2e3e
00000070: 9f3c 693d 95bd d2bb 62f7 3ebd 9e71 e7bd
00000080: baf6 a93d 5b59 643d 456f 91bc a0bd c1bc
00000090: 32cb ccbb 6f7d 013d eec2 c43a 54aa ecba
000000a0: 0ffa 003e 3b64 613c 4ca5 3abc 3a47 d03b
000000b0: de99 823d e711 443d 63e6 8dbd 296a 303a
000000c0: d81a 81bc a37c 40bb efd1 77bc 0732 a63b
000000d0: 5e32 a9bc 5922 c1bd 3f0e 5e3d 1628 13ba
000000e0: 333a 1f3c 6ba0 bdbc 224d 40bb 56b9 debb
000000f0: add8 01bd dad2 313b 4787 8b3d 06d7 683a
00000100: b3a3 c7bd cbc9 81be ac9f 723d 590a 813d
00000110: c1ac 203c bdef 0f3d 7625 4eba ea3f 363b
00000120: 0103 88bd 3748 443c ef2b fc3c 5da4 3bbe
00000130: 6cbf 45be 1174 4bbe 0f82 7fbd 0856 9638
00000140: f5c0 003d 5bd5 863b 5e24 073d 0a07 17bc
00000150: 52ad 2a3d f154 8c3e 4f43 fbbd 94d1 8c3a
00000160: 7034 603d 6cc9 af3d 4a20 303a 7e1c 2e3e
00000170: b2b8 1a3d 2111 85bb 465d a4bd 599e 82bd
00000180: ae5e 9fb9 49a1 c0b9 38c9 18ba 5983 a4b8
00000190: 6f73 efb7 efaf d139 8b37 b637 371a 5737
000001a0: 512d 29b9 b2ec 8438 f618 adb8 a971 8b39
000001b0: 875d 9c39 9180 0cba d5e4 24b9 1dc7 7335
000001c0: c917 d7b7 8266 4336 2542 82b8 d34d 7937
000001d0: cd68 93b9 f9d7 02bb 4f48 b6b9 00e8 2637
000001e0: 13cd 54ba 99ae 31ba 33e7 3fb7 c686 81ba
000001f0: 70d5 e238 270f afb7 e39c dfb9 d1b9 113a
00000200: 6db9 6db9 3ee4 eeb8 fe49 13b9 c828 fbb7
00000210: bcb5 1ab7 e7b2 4f39 6ef5 f036 2cf4 7036
00000220: 162b 2eb8 4470 cd37 0d6d d1b7 ff51 fe38
00000230: 61f5 113a bdc9 1dba 0569 65b9 d458 ab35
00000240: 050d 25b7 375a 8035 620c a5b7 3dd0 e236
00000250: 197f 0ab9 243b 5fba d67d 02b9 6374 3e36
00000260: 5761 3db9 6ae3 f2b9 ebf8 0db7 453d efb9
00000270: e0dd a639 9e07 16b7 2055 16b9 3448 5a39
00000280: 1517 c13d 1b02 e93d 8e1a a3bc ab73 bfbc
00000290: e7db c9bb a7d2 7a3a ad03 c33a ecf7 e6ba
000002a0: fa99 c03d 41ab 203c c725 39bc 82e9 76bc
000002b0: 2b1e 533d cd1d c03d 2b3f 46bd c8fb 313a
000002c0: 606a 7fbc cf3c 3fbb 1e5f 75bc 6160 a43b
000002d0: 5459 cebc 24e8 b4bd ecc2 b53d 40b4 0eba
000002e0: c254 42bd 8178 5dbc d687 43bb 831c 03bd
000002f0: fd7d ae3d 67cc 2f3b 11f4 513d 7430 55bb
00000300: 29b7 7bbe e571 7cbe 815b b03c 4d08 ae3d
00000310: 8dd8 4e3c 05ad fcbc 9cd1 1cb9 6f8f 853b
00000320: 7e5e 42be 2492 96bc 2b5e fa3c 5b6b a5bd
00000330: 1dc7 4ebd 4267 d5bc 4ae7 7d3d 318c 213a
00000340: 2c07 203d 075a a63b 8344 243d 6a03 52bc
00000350: 9656 db3d 2bf2 993e b808 5cbe 8e1a ba3a
00000360: 5d70 da3d a7ed ee3d e035 c4b9 ee32 493e
00000370: a487 a03d a6b6 b6bb 9a41 d6bc 97eb 5abd
00000380: c85e 92bd d575 14bd 5e95 d4bc 226c 873d
00000390: 9247 353c 451c fdbd aa1a 0fba 6e25 553b
000003a0: 78fc 4ebe 39d4 00bd 1e62 093d 46dd 1abe
000003b0: d802 53be c8bb 27bd 02f0 443d e015 8d39
000003c0: d6e1 0d3d b861 963b 5018 ec3c 7e78 3dbc
000003d0: b114 973d f880 8f3e 11d7 08be 2e4f a33a
000003e0: bdaa 193c 5ab0 c03d 4e73 1639 f953 fd3d
000003f0: a34d 993d e3ce 93bb 32e2 19bd 19a1 02bd
-0.21221003 -0.033583876 0.047504913 0.05254204 0.017271789 -0.023729293 0.0008136616 0.0058478015
-0.105141975 -0.021530135 0.0537141 0.0157992 -0.107490525 -0.14619868 -0.109093055 0.0019025338
0.041662395 0.0064327703 0.052371852 -0.011917163 0.007190475 0.33290994 -0.08528199 0.0018742033
0.05090924 0.088659234 -0.0040519224 0.17047143 0.05694258 -0.0064312913 -0.04662264 -0.11300968
0.082990125 0.05574928 -0.017753253 -0.02364999 -0.0062498087 0.031613763 0.0015011707 -0.0018056133
0.1259539 0.013756807 -0.011391949 0.006356147 0.06377004 0.047868636 -0.069287084 0.0006729686
-0.01575987 -0.0029371164 -0.015125736 0.0050718817 -0.0206539 -0.094303794 0.054212805 -0.0005613578
0.009718466 -0.023147782 -0.002934285 -0.006796996 -0.03170078 0.0027133734 0.068129115 0.00088821386
-0.0974802 -0.25349268 0.059234306 0.06300802 0.009806813 0.03514074 -0.00078638585 0.0027809092
-0.06641198 0.011980108 0.030782668 -0.18324418 -0.19311303 -0.19868495 -0.062379893 7.168582e-05
0.03143402 0.0041147894 0.032993667 -0.009217987 0.041669197 0.27408555 -0.122686975 0.0010743611
0.05473751 0.0858334 0.00067186786 0.17003056 0.037773795 -0.00406088 -0.08025603 -0.06377859
-0.00030397385 -0.0003674126 -0.0005828324 -7.844595e-05 -2.8544773e-05 0.00039994667 2.1721955e-05 1.2821102e-05
-0.00016133978 6.3383384e-05 -8.253932e-05 0.0002659683 0.00029824322 -0.0005359734 -0.00015725505 9.08143e-07
-2.5641073e-05 2.9116932e-06 -6.2112034e-05 1.4859676e-05 -0.00028116108 -0.0019965156 -0.0003476762 9.948388e-06
-0.00081177166 -0.0006778031 -1.1438317e-05 -0.0009882085 0.000108162756 -2.0868682e-05 -0.00042650764 0.0005559
-0.00022671158 -0.00011391238 -0.00014046577 -2.9940522e-05 -9.221429e-06 0.00019807705 7.181129e-06 3.5904914e-06
-4.152496e-05 2.4490182e-05 -2.4965522e-05 0.00012126937 0.00055678753 -0.0006019136 -0.00021878265 1.2766345e-06
-9.837798e-06 9.562999e-07 -1.9675299e-05 6.759567e-06 -0.00013208053 -0.00085155875 -0.00012444644 2.8379952e-06
-0.00018060706 -0.00046327274 -8.462211e-06 -0.00045631282 0.00031827297 -8.94247e-06 -0.00014336826 0.00020816998
0.09428231 0.11377355 -0.019910123 -0.023370584 -0.0061602476 0.0009568133 0.0014878415 -0.0017621494
0.09404369 0.009806455 -0.011300511 -0.015070321 0.051542442 0.09380684 -0.048400085 0.00067895325
-0.015589327 -0.0029180532 -0.014976291 0.005016372 -0.02518908 -0.0883334 0.08875069 -0.00054437295
-0.047444113 -0.0135175 -0.0029835603 -0.032009613 0.08520124 0.0026824714 0.05125815 -0.00325301
-0.24581589 -0.24652822 0.021528007 0.08497677 0.012624872 -0.03084422 -0.00014955405 0.0040759365
-0.18981358 -0.018380232 0.03056248 -0.08077117 -0.050482858 -0.026050214 0.061988153 0.0006162553
0.03906934 0.00507665 0.0401044 -0.012818197 0.10709874 0.30067572 -0.21487701 0.0014198588
0.10665963 0.11666422 -0.00037424173 0.19648334 0.078383714 -0.0055759726 -0.026154328 -0.053447332
-0.07146984 -0.036245186 -0.02595013 0.066124216 0.011064427 -0.123589076 -0.00054589903 0.003252353
-0.20213497 -0.03145239 0.033540837 -0.15123472 -0.20606554 -0.040950567 0.04808045 0.00026909914
0.034639202 0.0045892857 0.028820187 -0.011564372 0.073769934 0.28028083 -0.13363291 0.001245951
0.009379086 0.094086364 0.00014348069 0.12369532 0.07485511 -0.004510747 -0.037569232 -0.031891916

sat_layers.layer0_1.0.input_linear_layer1.bias f4 [32]
00000000: 53db a33e 1c6d ccbe 370c 163e 207f 94ba
00000010: 282b 25ba 55be 86be 4238 8c3e 8d3f 8f3e
00000020: 61e3 a73e bcc7 bebe 341d 56be 98f1 46be
00000030: 35dd abbe 1fac 8bbe 8506 883e e58e dc3e
00000040: 86eb 9a3e b4e1 83be 5be0 52be 3aa6 bf3e
00000050: 26c5 f8bd 618c 603e 9d7d 93be 98dd d13d
00000060: 8c64 94be 10bd b4be cc21 afbe 0bb0 abbe
00000070: b4f8 d73e 5a0e cfbe 1edf e73e 26c6 b73e
0.3200327 -0.39926994 0.14653097 -0.001132939 -0.0006300681 -0.26317087 0.2738667 0.27978173
0.32790664 -0.3726176 -0.20909578 -0.19428098 -0.33567205 -0.27279755 0.26567474 0.4307777
0.30257815 -0.25758135 -0.20593397 0.37431508 -0.12146978 0.2192855 -0.28806773 0.10247344
-0.2898296 -0.35300493 -0.34205472 -0.33532748 0.42181933 -0.40440637 0.45287412 0.35893363

sat_layers.layer0_1.0.input_linear_layer2.weight f4 [32, 32]
00000000: 472b e0bc 84ed f03c 5031 e4bd 8ab2 983d
00000010: bd56 c7bc 93be bd3d 10f9 60bc d6d2 ba3a
00000020: fa4c ae3c fa06 a2be ccef 123e 5114 2c3d
00000030: 3b7d 9fbe 6905 953e b16a 113d 433e 1e3b
00000040: 121e 463e 81f4 073c 7473 5d3e 65d0 76be
00000050: 2258 6b3e 3e1d 3f3e c3e2 a8bd 04ba e23a
00000060: 92f9 05be 26fc 833e 19ec 03bd 1e95 2a3d
00000070: d659 26be 5e02 45be a355 cfbd 4cee 7dbd
00000080: 8d0f a03d 03f3 c03d 7bd2 343c 2043 04bd
00000090: a0f2 cfba 3365 c0bd febb a5bc 3674 113b
000000a0: 108a 0e3c 1afb bebb 5fa3 5bbd 2d98 97bd
000000b0: fd22 89bd de0f 023d 3c65 cabd 005e 7b3b
000000c0: 4a81 513d 4188 acbc 3603 18bd 3468 d1bc
000000d0: e69f 45ba a77b 493d 44d4 223e 5540 c33b
000000e0: e0e0 31bc 5c2a d53d 1398 f63c 364c 3fbd
000000f0: 6ddd abbd bc17 37bd 185c f73d f881 2ebd
00000100: 653d bdbb fceb d73d d53b b83d 1a28 d6bd
00000110: c4d6 113b ac04 563c d7b3 ac3b 9594 ffba
00000120: 4981 563d 5119 1a3e 89d4 2a3e 2a72 2abc
00000130: 8c23 4a3d ef7f e13c a655 583d cb9b ea3b
00000140: e936 9cbd e949 953c cb96 753d e9aa e6bc
00000150: 0438 9e3d 111e d63d ebd8 943d e01e c13b
00000160: 560a 3e3d 9b20 c6bb d49f f13a e14a c93d
00000170: c518 81bd eaff 8fbb 05c6 0c3e 0197 87bd
00000180: 654c f23c f4ff 703a a8a6 d13b 01f7 0abd
00000190: 6832 e1bb 959c d93a 279e 12bc d641 f639
000001a0: 8e9c 523d 872c 29bc 617d 24bd 42a1 01bd
000001b0: b634 c23c 5690 42bb dce8 a43d 8f47 eb3a
000001c0: 170e 8dbc e78e 47bc 0314 5c3c 382d 9d3b
000001d0: c005 debb cad3 403d 55a2 bf3c e52e ed3b
000001e0: a252 80bc a19c da3c 02aa b5b9 5c5c 06bc
000001f0: 8b45 19bd bfa2 ee3b f429 12bc 5d44 1ebb
00000200: 1022 fc3c 9bce 363c 8fba 4c3c 7b13 073e
00000210: f13f f0bb ee04 1abd cf54 03bc c544 05bc
00000220: 2ebe a4bb da9a e6bb ec79 913c faf1 aa3d
00000230: fb25 d83b 632e da3d 6a37 9b3d b7bd 453b
00000240: f3c1 96bc 6c2c 5ebb dd46 bd3c 4b51 a93d
00000250: b13b 443d 0c5c eb3d 0e0b f63c 3c65 e439
00000260: d033 6c3d f1a4 b33d 1826 1cbb 6f4e 1abd
00000270: f19b e7bb e5f9 4b3d 1171 b33d 7ee2 483c
00000280: 37bd cabd c5ba b4bd b530 94bd acaa 2bbd
00000290: 26e2 a9ba ab20 bdbc d2e7 c03b f080 c1b9
000002a0: 6566 f13c af9f c23a 0e49 cdbc 89f5 7bbd
000002b0: 3317 513c 2e71 1cbe 1d09 35be 81e8 90bb
000002c0: a992 28bd f074 18bb 1f48 b7bd 513e b6bc
000002d0: 911a 8d3c de86 86bb 30b7 65bd f86d 52bb
000002e0: 47ea 84bd 5e53 e6bc 0531 6ebb 5245 20be
000002f0: 7158 36be 43ec 76bb c359 64bd 6632 923c
00000300: 54af 253c cc48 553c bbd5 0d3c 264b 8e3c
00000310: 2f8d 99ba d78e 4dbc 2812 e6ba 4c6d 623b
00000320: 20c4 3c3c e33e eb3b 385f de3b c405 d5bc
00000330: 1de6 18bc 05f4 373c f3a2 37bd 5b38 233a
00000340: a38c 7b3b 4feb 013b 594c b23b 3477 b0bb
00000350: 5c73 053c c671 b33c 33cb 443c c388 cf3a
00000360: ce5e 513c 9567 463c b3bd daba 4cab a23c
00000370: 097b 87bc afa0 96bb 032f 673c 0c70 68bc
00000380: 239f 003d 0c36 843d 5637 d53c 4447 d9bd
00000390: 04a4 cdba c385 ebbb 3c63 9d3a cac0 e4ba
000003a0: 0921 2e3d c2f3 e93c 830a 2a3d 2478 5ebc
000003b0: 96a1 10bc 77ea 2d3d aaec 293d a0b0 0cba
000003c0: 1382 303c 08a7 6138 5ac5 6f3d 974c f63c
000003d0: b846 933c be7f e1bc ad1e 343d 19e8 48bb
000003e0: 97a2 753d 928d 2d3e 93d1 16bb 5bfb dd3b
000003f0: 471a f7bc eab1 b03c 823c 843d d5dd 3b3c
-0.027364386 0.029410131 -0.11142218 0.074559286 -0.024333352 0.09264865 -0.013731256 0.0014253508
0.02127694 -0.31645948 0.14349288 0.042011563 -0.3115023 0.2910569 0.03550214 0.0024145998
0.19347408 0.00829804 0.21626073 -0.24102934 0.22982839 0.18663499 -0.08246376 0.0017297869
-0.13083485 0.25778311 -0.032207582 0.041646115 -0.16245207 -0.19239184 -0.10123756 -0.061994836
0.07815466 0.09421351 0.011036511 -0.032290578 -0.0015865155 -0.09394302 -0.020231243 0.0022194511
0.008699909 -0.0058282735 -0.0536226 -0.07402072 -0.066961266 0.031753413 -0.0988259 0.003835559
0.05114869 -0.021061065 -0.037112437 -0.025562383 -0.00075387803 0.04919019 0.15901285 0.0059585967
-0.010856837 0.1040847 0.030101812 -0.04670354 -0.08391843 -0.04470037 0.12078112 -0.042604417
-0.005775141 0.10543057 0.08995787 -0.104568675 0.0022253254 0.013062637 0.005270462 -0.0019499237
0.05236939 0.1504872 0.16682638 -0.010403195 0.049350306 0.027526824 0.052816056 0.0071596853
-0.07627661 0.01822372 0.05995826 -0.028157668 0.07725528 0.104549535 0.07267936 0.005893573
0.046396576 -0.0060463673 0.0018434473 0.09828735 -0.063035525 -0.004394521 0.13747413 -0.066205986
0.029577443 0.00091934134 0.006398041 -0.033926968 -0.006872464 0.0016602451 -0.008948839 0.00046969828
0.051418833 -0.010325558 -0.040158633 -0.031647928 0.023706775 -0.0029688082 0.08052227 0.0017950403
-0.017218633 -0.012180067 0.013432506 0.0047966503 -0.006775588 0.047076978 0.023392836 0.0072382563
-0.015664402 0.026686015 -0.00034649676 -0.008200731 -0.037419837 0.0072825844 -0.008921135 -0.0024149634
0.030777961 0.011157657 0.012495651 0.13191025 -0.007331841 -0.037602358 -0.008015825 -0.008134072
-0.005027554 -0.0070375027 0.017758332 0.083469346 0.0065963245 0.10653379 0.07578929 0.0030172893
-0.01840303 -0.003390099 0.02310508 0.082674585 0.04790849 0.11492166 0.030034568 0.00043562974
0.0576666 0.087716945 -0.0023826417 -0.037672456 -0.00706815 0.049798865 0.087618 0.012261031
-0.09899371 -0.08824686 -0.07235853 -0.041910812 -0.0012961074 -0.023086866 0.00588701 -0.00036907895
0.02946777 0.0014848615 -0.02505925 -0.061513457 0.012761879 -0.1527755 -0.17679258 -0.004422248
-0.04115549 -0.002326306 -0.08949303 -0.022246512 0.017224582 -0.004105433 -0.056082904 -0.0032109004
-0.06489997 -0.028115924 -0.0036345136 -0.15651444 -0.17807175 -0.0037677444 -0.055749666 0.017846297
0.010112602 0.013017844 0.008656914 0.017369818 -0.001171505 -0.012546263 -0.0017553018 0.003455001
0.011521369 0.0071791275 0.0067862533 -0.026003726 -0.009332207 0.011227612 -0.044833135 0.0006226354
0.0038383387 0.0019824093 0.0054412303 -0.005385304 0.00814518 0.021904837 0.012011337 0.0015833605
0.012778951 0.012109657 -0.0016688615 0.019857071 -0.01653816 -0.0045967917 0.01411033 -0.01418687
0.031401765 0.06455621 0.026027363 -0.10609296 -0.0015689139 -0.0071875765 0.0012007724 -0.0017452475
0.042511974 0.028558616 0.04151393 -0.013578448 -0.008827588 0.04245993 0.041485466 -0.00053668953
0.0107732 5.379974e-05 0.05853782 0.030065818 0.017978057 -0.027526733 0.043974567 -0.003065592
0.05996951 0.16948536 -0.00230131 0.0067743487 -0.030163897 0.021569211 0.064568534 0.011466463

sat_layers.layer0_1.0.input_linear_layer2.bias f4 [32]
00000000: 2567 863d 8993 c7bd c010 a23c 065f 40bd
00000010: e2a5 e7bd 6d61 83bd a330 75bd cce5 7f3c
00000020: 5ae2 413d 0671 083e 547b d9bc 3a9d 78bd
00000030: 3ede d3bb 826c 883c fabf 4abd f82a 02bd
00000040: a81d 20bd 7402 083d 6207 59bb 4489 6e3c
00000050: 392e d63d 426c 7abb cc23 1bbe b18a 13bd
00000060: 8efc b2bd 11a3 2a3d 57e2 a8bc ec9d 72be
00000070: 007a 07be 487e 01bd 24eb 603d 973d f2bc
0.06562642 -0.09744937 0.019783378 -0.04696562 -0.113109365 -0.06415067 -0.059860837 0.015618753
0.047335006 0.13324365 -0.026548065 -0.060696818 -0.0064657023 0.016653303 -0.04949949 -0.03177926
-0.039090782 0.033205464 -0.0033115973 0.014559094 0.10458035 -0.00382115 -0.15150374 -0.03602094
-0.08739577 0.04165942 -0.02061574 -0.23693055 -0.13230133 -0.03161457 0.054911748 -0.029570384
