output/modelparams/dynamicLearning-WORKPLACE-SCCompUAU-SAT/epoch19_model_state_dict.pth (torch, 263657 bytes, 148 tensors)

in_layer0.layers.0.weight f4 [32, 4]
-0.0275793 0.5106293 -0.33209792 -2.13087e-40 -0.0006321057 -0.0008216551 -0.0010010606 -7.6921e-41
-0.00040181138 -0.001060967 -0.0001221773 2.88319e-40 -0.3917035 -0.043659396 -0.13499239 1.76261e-40
0.18866302 0.28700835 -0.16798401 1.35056e-40 0.067299 0.6086972 -0.35796514 1.06284e-40
-0.1343871 -0.27015427 0.6398037 5.29178e-40 -0.0006095843 0.0010415445 0.00010548978 -2.92758e-40
2.5570022e-05 -0.0010373719 0.00027509595 5.38253e-40 -0.45032263 0.59469897 0.2013877 5.99988e-40
-0.013131235 -0.34826595 0.19348922 5.10995e-40 -0.46585402 -0.3736664 0.6020118 -2.93632e-40
-0.4345047 -0.25790715 0.57530314 -1.95007e-40 0.089006096 -0.21165156 0.34699613 2.27421e-40
0.20980802 -0.3920667 -0.5155896 1.1481e-41 0.013636741 0.4129705 -0.30658066 5.12643e-40
0.28552243 -0.13480052 -0.031165913 -6.81121e-40 0.1672368 0.5956829 -0.20873354 -4.79875e-40
0.20921862 0.00019208324 0.1842062 -3.51835e-40 0.092632145 -0.43240675 0.18269995 -8.8691e-41
-0.48775566 0.53040326 0.39910412 1.58509e-40 0.13923392 -0.103424475 0.07270046 -1.08246e-40
0.07574845 0.00023396887 0.07016204 7.7744e-41 0.46028036 -0.0040532826 -0.19289136 -1.71938e-40
0.23693869 0.008992777 -0.29516536 5.33352e-40 0.28576356 0.25311017 -0.4096572 -6.16093e-40
-0.4976143 0.29270685 -0.56137407 1.6384e-41 0.044543058 -0.096446574 0.08233144 -1.79237e-40
-0.61515856 0.6682482 0.2466985 2.05627e-40 0.0015330499 0.0027615523 0.0012447758 -1.68437e-40
0.16450623 -0.03151417 -0.24627407 3.90256e-40 -0.0010574515 -0.000115258976 -0.0012302353 -4.8169e-40
00000000: fced e1bc 9ab8 023f bd08 aabe 0052 0280
00000010: e5b3 25ba 5764 57ba 0536 83ba 6dd6 0080
00000020: 36aa d2b9 2510 8bba b81c 00b9 b723 0300
00000030: 5c8d c8be 32d4 32bd 723b 0abe 58eb 0100
00000040: e130 413e c2f2 923e 0004 2cbe 7b78 0100
00000050: 0fd4 893d 94d3 1b3f 3547 b7be 4728 0100
00000060: c69c 09be a951 8abe 2dca 233f 22c3 0500
00000070: 83cc 1fba 6f84 883a 653a dd38 1730 0380
00000080: 347f d637 6df8 87ba c13a 9039 6edc 0500
00000090: b090 e6be 313e 183f 9438 4e3e 8688 0600
000000a0: 6424 57bc ea4f b2be 0a22 463e 7290 0500
000000b0: 6b84 eebe 3451 bfbe 721d 1a3f 8732 0380
000000c0: 6677 debe 680c 84be 1147 133f 9a1f 0280
000000d0: d448 b63d 30bb 58be 7aa9 b13e f579 0200
000000e0: ead7 563e f7bc c8be aefd 03bf 0120 0000
000000f0: a36c 5f3c df70 d33e 24f8 9cbe 0a95 0500
00000100: ff2f 923e 2609 0abe a84f ffbc b06a 0780
00000110: 2040 2b3e ad7e 183f 3fbe 55be b239 0580
00000120: 683d 563e f469 4939 8da0 3c3e c6d4 0380
00000130: ecb5 bd3d 6b64 ddbe b215 3b3e 3cf7 0080
00000140: 1cbb f9be 82c8 073f 6057 cc3e dcb9 0100
00000150: 5693 0e3e 36d0 d3bd fbe3 943d bf2d 0180
00000160: 0122 9b3d 8a55 7539 1eb1 8f3d b8d8 0000
00000170: dea9 eb3e 66d1 84bb 5085 45be 4bdf 0180
00000180: 0ea0 723e 7156 133c ea1f 97be c5ce 0500
00000190: 9a4f 923e a897 813e 97be d1be 6bb5 0680
000001a0: 4dc7 febe acdd 953e 36b6 0fbf ac2d 0000
000001b0: c872 363d c885 c5bd 639d a83d a4f3 0180
000001c0: 087b 1dbf 5012 2b3f 889e 7c3e 343d 0200
000001d0: 9ef0 c83a 29fb 343b bf27 a33a 89d5 0180
000001e0: 5274 283e 0115 01bd 452f 7cbe e03f 0400
000001f0: 2f9a 8aba 31b7 f1b8 d93f a1ba c13e 0580

in_layer0.layers.0.bias f4 [32]
-0.03384348 0.00030882916 0.00035327752 0.1497636 -0.17447433 -0.017921263 0.29364032 0.0007242419
-0.00018482027 0.04286971 0.044628993 0.3287656 0.3602001 0.15573679 0.47303274 -0.021199329
-0.23479784 -0.1885679 0.26048705 0.029637469 -0.12176136 -0.128857 -0.07250026 -0.27869245
-0.114932165 0.105850965 0.3898005 -0.3637284 0.3058893 -0.0013425781 -0.11973076 0.001227663
00000000: 769f 0abd 59ea a139 1b38 b939 a15b 193e
00000010: 66a9 32be 9dcf 92bc 0658 963e 0ddb 3d3a
00000020: 50cc 41b9 2698 2f3d e4cc 363d f753 a83e
00000030: 266c b83e 7779 1f3e 5931 f23e 37aa adbc
00000040: d86e 70be f217 41be 8f5e 853e 47ca f23c
00000050: 055e f9bd 17f3 03be 047b 94bd c7b0 8ebe
00000060: 8e61 ebbd 64c8 d83d ee93 c73e 9c3a babe
00000070: 869d 9c3e 72f9 afba 6735 f5bd 89e9 a03a

in_layer0.layers.2.weight f4 [32, 32]
-0.08334586 0.0015493806 0.00020084674 0.046168674 -0.06297687 -0.17731504 -0.025982808 0.0016173143
0.00023707571 0.063632086 0.065466695 0.15945701 0.1974301 -0.022828162 -0.32895333 -0.082454376
-0.03062798 -0.11545345 -0.08369999 -0.020316392 0.12946038 0.0017293611 -0.0015311637 -0.09913572
-0.0946244 -0.2452084 -0.08234969 0.090249844 -0.037645135 -8.379677e-05 -0.048937544 -0.0003853847
0.08010312 -0.0009642739 -0.0003114013 0.051839944 0.023102619 0.076884836 -0.13133354 -0.0010550093
-0.00012592883 0.168629 -0.044047397 -0.055648554 -0.051545855 -0.11411827 -0.25626191 0.06369476
-0.020186394 0.06715074 -0.16102313 -0.07213351 0.12708758 -0.0134956045 -0.0063664 -0.04795004
-0.02254007 -0.0990152 0.16097896 0.04292332 0.122059576 9.046296e-05 -0.007421804 0.00014912222
-0.015148481 -0.0009475539 0.00013506843 -0.03361021 -0.013327191 -0.00053465844 -0.006779963 -0.0019471716
0.00023292033 0.097262874 0.022722911 -0.07745952 0.005384433 -0.0072081727 -0.077155404 -0.0067171482
0.012859161 0.011979159 -0.015525739 0.016821366 0.05594964 0.0017229639 0.0021629257 0.013780816
0.025371712 -0.008766692 0.0036356258 -0.0044864668 0.097158335 -0.00043349635 0.0005096201 -0.00020286372
-0.30124402 -0.0012432093 0.00069323677 -0.027181385 -0.18757981 -0.19059135 0.3347048 -0.00021633525
0.00096467993 -0.014161136 0.15103014 0.488805 0.4114774 0.1597842 -0.14096825 -0.2350114
-0.16632621 -0.22403896 -0.042270843 0.074061885 0.16227932 -0.015956465 0.01976781 -0.17196523
-0.18619545 -0.21249858 -0.26020876 0.07129696 0.11195294 -0.0010461218 -0.18495156 -0.0007580559
-0.0031667212 -0.00021609897 0.0005355293 0.002464207 -0.0007009894 -0.005088936 -0.00864923 0.0011499778
-0.0005042675 -0.0041196784 0.00065620604 -0.0053508584 -0.006785974 -0.0050034933 -0.037743412 -0.0030017204
0.00038000045 -0.0028889992 -0.012032304 -0.00084292825 0.0033388303 0.0011415824 0.000847067 -0.0019035296
-0.001377136 -0.010852433 -0.004883078 0.0036999658 -0.013359764 0.0006567535 -0.0002080616 0.00044395778
0.022065608 -0.0022360727 0.00052258465 -0.018702943 0.01715793 0.07794936 0.0419685 -0.0012693255
-0.00047250369 -0.085344344 -0.020681292 -0.14694427 0.067522556 0.06420474 -0.0052747065 0.03739838
-0.0011373706 0.05198777 0.1361743 0.024161885 -0.0927006 -0.008553511 -0.004109263 0.045958053
0.006110868 0.18591951 0.028671889 0.0053578787 -0.078719325 0.0003941586 0.003183637 0.0005744642
0.005823161 -0.00018466225 0.001351418 -0.0010871721 0.0007846133 0.0054839705 0.003563385 -0.0013165153
0.0013551038 -0.018682297 -0.0035120568 0.015835347 0.016267484 0.012384968 0.041418023 0.004777143
-0.0019230181 0.005230666 -0.034954093 -0.005609959 -0.015746497 -0.0018065082 -0.0013809107 0.0009271803
0.0043792315 0.03516764 0.009921633 0.00428577 0.026417408 -0.001607353 -0.0016337712 -0.0012816028
-0.004504939 -0.00021200335 0.00095190003 0.0016627271 -0.0008601461 -0.0072724563 -0.007796293 0.00049085857
-0.00023322222 -0.0069919713 0.0010108487 -0.0038801595 -0.006105877 -0.0039931205 -0.03288679 -0.0043316525
0.00051940704 -0.004222992 -0.017677646 -0.00023528589 -4.767888e-05 0.0014087727 0.0009929732 -0.0008594701
-0.0009231116 -0.0024814457 -0.008179188 0.0028487353 -0.0044560437 0.00034834284 -4.251459e-05 0.00019469332
00000000: 3cb1 aabd 9614 cb3a 639a 5239 5d1b 3d3d
00000010: 04fa 80bd 1392 35be e6d9 d4bc 10fc d33a
00000020: 8797 7839 8a51 823d 6713 863d b348 233e
00000030: 1e2b 4a3e 2002 bbbc 926c a8be d7dd a8bd
00000040: 88e7 fabc dc72 ecbd e66a abbd 906e a6bc
00000050: 4391 043e bbab e23a 54b1 c8ba ab07 cbbd
00000060: 70ca c1bd e917 7bbe f4a6 a8bd e9d4 b83d
00000070: c931 1abd 0cbc afb8 bc72 48bd 750d cab9
00000080: 1b0d a43d 53c7 7cba 9343 a3b9 1f56 543d
00000090: b441 bd3c cc75 9d3d 4d7c 06be 3d48 8aba
000000a0: c30b 04b9 15ad 2c3e 0b6b 34bd bdef 63bd
000000b0: bf21 53bd d7b6 e9bd c334 83be 6672 823d
000000c0: f05d a5bc 5486 893d 3fe3 24be bcba 93bd
000000d0: 3f23 023e ab1c 5dbc 3c9d d0bb 4367 44bd
000000e0: f4a5 b8bc 7bc8 cabd abd7 243e 5dd0 2f3d
000000f0: 5ffa f93d efb6 bd38 9b32 f3bb b15d 1c39
00000100: 5631 78bc 4465 78ba 28a1 0d39 dcaa 09bd
00000110: 4a5a 5abc 5228 0cba 742a debb 3d38 ffba
00000120: 133c 7439 c231 c73d 6625 ba3c 19a3 9ebd
00000130: e66f b03b 8932 ecbb a703 9ebd 861b dcbb
00000140: 3baf 523c 3c44 443c ab5f 7ebc f6cc 893c
00000150: 732b 653d 13d5 e13a dfbf 0d3b efc8 613c
00000160: 56d8 cf3c 2ca2 0fbc ae43 6e3b 3603 93bb
00000170: f3fa c63d e546 e3b9 0798 053a d1b7 54b9
00000180: a83c 9abe 2ff3 a2ba 55ba 353a 7fab debc
00000190: ec14 40be 612a 43be 6d5e ab3e 0dd8 62b9
000001a0: 93e2 7c3a 1c04 68bc a5a7 1a3e a644 fa3e
000001b0: 2aad d23e 789e 233e fb59 10be d4a6 70be
000001c0: 6b51 2abe 786a 65be 3124 2dbd c2ad 973d
000001d0: 8d2c 263e 22b7 82bc 1af0 a13c a717 30be
000001e0: 05aa 3ebe 3a99 59be 153a 85be 2404 923d
000001f0: 9547 e53d 061e 89ba f163 3dbe 45b8 46ba
00000200: c488 4fbb a098 62b9 c362 0c3a 887e 213b
00000210: 9ac2 37ba 17c1 a6bb 80b5 0dbc daba 963a
00000220: d230 04ba 5efe 86bb 3e05 2c3a 4156 afbb
00000230: e05c debb 58f4 a3bb d698 1abd 83b8 44bb
00000240: cc3a c739 5d55 3dbb 2423 45bc f5f7 5cba
00000250: 47d0 5a3b 26a1 953a b40d 5e3a db7f f9ba
00000260: 0481 b4ba 67ce 31bc 3a02 a0bb 207b 723b
00000270: e9e2 5abc fb29 2c3a 1c2b 5ab9 01c3 e839
00000280: efc2 b43c 138b 12bb 10fe 083a ea36 99bc
00000290: ca8e 8c3c eaa3 9f3d 29e7 2b3d 7f5f a6ba
000002a0: 5fba f7b9 04c9 aebd d06b a9bc 8f78 16be
000002b0: 4449 8a3d c67d 833d 72d7 acbb 0b2f 193d
000002c0: d313 95ba 21f1 543d 4771 0b3e 25ef c53c
000002d0: d0d9 bdbd 0724 0cbc ffa6 86bb 833e 3c3d
000002e0: ad3d c83b af61 3e3e 4fe1 ea3c 2591 af3b
000002f0: 9937 a1bd 12a7 ce39 91a4 503b a497 163a
00000300: 37d0 be3b e5a1 41b9 1022 b13a 717f 8eba
00000310: 82ae 4d3a e1b2 b33b ae87 693b ec8e acba
00000320: bd9d b13a 9e0b 99bc 892a 66bb 21b9 813c
00000330: 6343 853c 52ea 4a3c f2a5 293d 9489 9c3b
00000340: c80d fcba 0266 ab3b 062c 0fbd bfd3 b7bb
00000350: ccfe 80bc 5bc8 ecba adff b4ba 040e 733a
00000360: a87f 8f3b f10b 103d 588e 223c a56f 8c3b
00000370: 5269 d83c d1ad d2ba 4424 d6ba 74fb a7ba
00000380: 2b9e 93bb 374d 5eb9 ee88 793a ddef d93a
00000390: 6d7b 61ba c94d eebb 0c78 ffbb f6ac 003a
000003a0: 1d8d 74b9 e81c e5bb 747e 843a 464a 7ebb
000003b0: cf13 c8bb b9d8 82bb 4cb4 06bd 89f0 8dbb
000003c0: d128 083a 0661 8abb b6d0 90bc 13b7 76b9
000003d0: cffa 47b8 91a6 b83a a726 823a 104e 61ba
000003e0: f9fc 71ba c09f 22bb 0002 06bc d9b1 3a3b
000003f0: 0104 92bb c9a1 b639 b251 32b8 9726 4c39

in_layer0.layers.2.bias f4 [32]
-0.39159173 -0.37790895 -0.053094365 0.18284446 0.022469778 -0.035660394 -0.019592911 0.020668052
-0.5365081 0.111594684 -0.0072064004 0.060685743 0.19098501 -0.27089912 0.28048125 0.002021921
0.00513463 0.015376258 0.122770555 -0.06788513 -0.101460524 0.11572726 -0.37576017 0.004813877
-0.03326817 -0.03926677 -0.044706635 -0.05830285 0.16172743 -0.051739573 -0.37279606 -0.14450768
00000000: b67e c8be 487d c1be 7a79 59bd 943b 3b3e
00000010: 8a12 b83c a210 12bd 5081 a0bc 0c50 a93c
00000020: 9858 09bf c18b e43d ab23 ecbb 9d91 783d
00000030: 9391 433e 4ab3 8abe 3d9b 8f3e 3582 043b
00000040: 6640 a83b b3ec 7b3c 216f fb3d 5c07 8bbd
00000050: 89ca cfbd 6a02 ed3d a363 c0be babd 9d3b
00000060: 3444 08bd 31d6 20bd 4e1e 37bd f8ce 6ebd
00000070: e09b 253e e0ec 53bd 20df bebe d2f9 13be

in_layer1.layers.0.weight f4 [32, 4]
0.21526206 0.24722731 -0.31053954 0.123989284 0.36909235 0.07265067 -0.105790794 0.03694117
-0.05361384 0.25174958 -0.33950567 0.25355124 0.28181177 -0.30293733 0.4082818 0.49109238
-0.19711435 -0.1400472 0.24917775 -0.39171022 0.19772899 0.11665237 0.31516486 -0.4343034
-0.4153924 0.22456455 0.18010539 -0.4653831 -0.27882975 -0.45748925 -0.35821146 -0.22559983
0.41376925 -0.09952545 0.2871756 0.47484046 0.22786611 -0.4476052 0.25161135 0.19071728
0.38753277 -0.4932171 0.307508 0.4092707 -0.46518236 0.05231315 0.42683655 -0.36365408
0.16405964 0.22093868 0.13104504 0.4971379 0.4093898 0.42897737 -0.06232339 0.4193563
-0.46595633 -0.26981467 -0.10694057 -0.1485284 0.46184736 0.23583263 0.3219065 0.3401047
-0.37350178 -0.057910502 0.07301229 0.13004625 0.25711632 -0.19895339 -0.1507672 0.41837066
-0.13419217 -0.34732068 0.3390199 0.33857775 -0.15678346 -0.09996003 -0.36894 -0.41754687
0.18802476 -0.21359628 0.39804775 -0.4003566 -0.06911254 0.010795891 0.25697356 0.40466535
0.33860224 0.22009802 -0.2294969 -0.35707384 -0.4473064 0.024802327 0.4849401 -0.09497124
-0.021049261 -0.363347 0.15350485 0.3169917 -0.49295795 -0.3520611 0.37035388 0.118382275
-0.03117305 0.08937913 -0.076020956 -0.34948248 -0.46721494 0.32885396 -0.05946833 -0.18569362
-0.12905759 -0.27271152 -0.14809167 -0.4292072 0.3741718 0.20417124 -0.25216073 -0.17065662
0.22431874 -0.18515271 0.13184685 0.13767076 -0.31474662 0.12525076 0.030592084 0.43669194
00000000: a86d 5c3e 2829 7d3e 0aff 9ebe 18ee fd3d
00000010: acf9 bc3e e0c9 943d d8a8 d8bd a04f 173d
00000020: 309a 5bbd 52e5 803e b0d3 adbe 78d1 813e
00000030: a249 903e 9a1a 9bbe 500a d13e 7670 fb3e
00000040: 58d8 49be 8868 0fbe 7428 7f3e 3e8e c8be
00000050: 7879 4a3e 70e7 ee3d 4a5d a13e 045d debe
00000060: 50ae d4be 40f4 653e 8c6d 383e b246 eebe
00000070: c6c2 8ebe 083c eabe 7e67 b7be a403 67be
00000080: 90d9 d33e 00d4 cbbd ae08 933e 4a1e f33e
00000090: bc55 693e 822c e5be 34d3 803e 644b 433e
000000a0: b26a c63e f486 fcbe b071 9d3e ee8b d13e
000000b0: 622c eebe 5046 563d 528a da3e de30 babe
000000c0: 40ff 273e c03d 623e ac30 063e dc88 fe3e
000000d0: 8a9b d13e eca2 db3e d046 7fbd deb5 d63e
000000e0: d491 eebe 2625 8abe a803 dbbd d417 18be
000000f0: 4277 ec3e 1c7e 713e eed0 a43e 3422 ae3e
00000100: a03b bfbe 9033 6dbd 7887 953d d82a 053e
00000110: c0a4 833e 70ba 4bbe b862 1abe ae34 d63e
00000120: ac69 09be 04d4 b1be 0494 ad3e 105a ad3e
00000130: d88b 20be d8b7 ccbd b4e5 bcbe b4c8 d5be
00000140: 9089 403e fcb8 5abe eacc cb3e 8afb ccbe
00000150: e08a 8dbd 40e1 303c 0a92 833e 4c30 cf3e
00000160: 465d ad3e 6061 613e 3c01 6bbe 62d2 b6be
00000170: 5805 e5be 402e cb3c 124a f83e 4880 c2bd
00000180: 806f acbc 9e08 babe 6030 1d3e bc4c a23e
00000190: fc64 fcbe 5a41 b4be 069f bd3e 6872 f23d
000001a0: a05e ffbc 680c b73d e0b0 9bbd 5eef b2be
000001b0: cc36 efbe 8c5f a83e 1095 73bd 7826 3ebe
000001c0: ac27 04be d8a0 8bbe 58a5 17be 0cc1 dbbe
000001d0: 7293 bf3e 4412 513e 361b 81be 9cc0 2ebe
000001e0: d0b3 653e ac98 3dbe dc02 073e 90f9 0c3e
000001f0: 7826 a1be bc41 003e 409c fa3c 1696 df3e

in_layer1.layers.0.bias f4 [32]
-0.18090999 -0.12853426 0.43080032 -0.40830117 0.03612423 0.48175114 -0.22418398 0.4793411
0.44367033 0.46516985 -0.04771155 0.45231664 -0.21785969 -0.17115259 0.1891163 0.1056236
0.2756378 0.47515965 -0.31299454 0.26536334 0.16728228 0.26378405 0.23708618 -0.18703496
-0.39517802 0.40019238 -0.2851178 0.31966358 -0.47632176 -0.08650118 0.005299449 0.08651179
00000000: 7840 39be 7c9e 03be dc91 dc3e da0c d1be
00000010: 00f7 133d 16a8 f63e 7c90 65be 326c f53e
00000020: c228 e33e be2a ee3e 306d 43bd 0c96 e73e
00000030: 9c16 5fbe a042 2fbe b4a7 413e 3051 d83d
00000040: 6620 8d3e 2048 f33e d240 a0be b4dd 873e
00000050: 0c4c 2b3e b40e 873e b8c6 723e 1886 3fbe
00000060: c654 cabe 04e6 cc3e f6fa 91be f2aa a33e
00000070: 72e0 f3be 8827 b1bd 00a7 ad3b 182d b13d

in_layer1.layers.2.weight f4 [32, 32]
0.014289215 0.055703446 -0.019683123 0.043293387 0.17493545 -0.11438372 -0.009651437 -0.06747974
0.1551091 0.1513279 -0.0048205703 -0.061276563 -0.109224334 0.12649073 -0.012173489 0.16648997
0.10080902 0.15473343 0.13981687 -0.11487697 0.051742926 -0.07330203 0.08869828 -0.015893951
0.015303537 -0.12226032 -0.15798986 0.06656933 0.041080326 0.015355319 0.12006576 -0.073817424
0.062752336 -0.09736181 0.036628112 -0.040357858 0.123801425 0.15458812 0.15353476 0.007952169
0.10424398 -0.17662437 -0.10369619 0.031594098 0.0009858757 -0.13878259 -0.07824341 -0.08256429
-0.17514364 0.016859323 0.12050761 0.071747184 -0.08399243 -0.16232789 -0.14261937 0.0032790601
0.12160705 -0.07158971 -0.09619215 -0.09430267 -0.015303329 -0.16787681 -0.15599562 0.17401733
-0.08430765 -0.03188409 -0.04729709 -0.15529943 -0.031164512 0.054114297 -0.071781516 -0.007534191
-0.0008456111 -0.17598206 0.12846653 0.1427954 0.12052731 -0.058053173 0.09237699 -0.16562605
-0.043732196 -0.035953596 -0.06242863 0.07424621 -0.08054969 -0.020489097 -0.051044866 -0.16600798
-0.029193014 -0.14981404 0.103079215 0.09448059 0.165603 -0.059362106 0.008989483 0.034628898
0.17646177 0.1620359 -0.09148892 -0.15041976 -0.15932676 -0.08512854 0.14863147 0.059370384
0.17056356 0.13103057 0.0025628507 -0.109561846 0.17262255 0.14180519 0.07653423 -0.09656665
0.13926102 0.016089499 0.11689074 0.0737807 0.09386991 -0.1551173 -0.09801935 0.10602562
-0.03682892 -0.15379214 0.1607606 -0.003822893 0.1426029 -0.13817164 0.060863122 -0.06658625
-0.074390344 -0.03687027 -0.065433174 0.09686659 -0.03358741 0.13403521 0.04033746 -0.027314693
-0.10210611 -0.16186965 -0.0515697 -0.1637008 -0.03275153 0.0028892905 -0.011392161 -0.0868357
0.12269427 0.09955706 -0.043553725 -0.069845505 0.11113776 0.15380003 -0.16186355 -0.03819424
-0.016405255 -0.06400393 0.15091588 -0.02611193 0.14987986 0.0008739084 -0.019175187 -0.103114136
-0.05877938 0.056962684 0.07819496 -0.0062897354 0.16844042 -0.12235296 0.06777856 0.15921848
-0.030738354 0.14034463 0.0029140562 -0.13237831 -0.09698259 0.06579903 -0.076499924 0.042516753
0.1739934 0.06004758 -0.016544491 0.044186205 -0.10184879 -0.14853716 -0.13288297 -0.14833376
0.036278024 0.034433126 -0.075124435 -0.17291422 0.09576078 -0.10030474 -0.029512465 -0.14822406
-0.09973002 0.07374416 -0.1647076 -0.10080508 0.13253482 -0.0906597 -0.07356667 -0.049634263
0.07556482 -0.115960136 0.017724589 0.07219608 -0.012832791 0.031964526 -0.13485366 0.079920635
0.06606665 -0.02217348 -0.1461714 0.07070635 0.115354136 -0.030919641 0.08332153 0.06552389
-0.070704944 -0.012271896 0.17597033 0.00083456933 -0.14073431 -0.012892023 0.08794512 -0.05770409
-0.09257504 0.1456248 0.09351693 -0.030033112 0.009031326 -0.018696383 0.041041464 0.006282553
-0.10697376 0.03275217 0.004623547 0.011429235 -0.06736746 0.04529418 -0.14294977 0.052842647
0.09579413 -0.019454837 -0.13732016 -0.0006426126 0.00025093555 -0.15277126 -0.1250333 0.1635076
0.13219692 0.09797017 0.1224636 0.06805247 0.099487916 0.11708303 -0.041296393 -0.022472218
00000000: 501d 6a3c 4c29 643d 803e a1bc 6854 313d
00000010: 4722 333e 0342 eabd 1021 1ebc d132 8abd
00000020: ebd4 1e3e b3f5 1a3e e0f5 9dbb 22fd 7abd
00000030: 02b1 dfbd c986 013e 5073 47bc 597c 2a3e
00000040: f674 ce3d 7172 1e3e 272c 0f3e 9e44 ebbd
00000050: 64f0 533d 601f 96bd 72a7 b53d 0834 82bc
00000060: b0bb 7a3c 9e63 fabd 18c8 21be 8055 883d
00000070: d843 283d e094 7b3c 0ae5 f53d 972d 97bd
00000080: 4c84 803d a165 c7bd 5c07 163d 484e 25bd
00000090: 9a8b fd3d 594c 1e3e 3738 1d3e d049 023c
000000a0: de7d d53d 05dd 34be ab5e d4bd d068 013d
000000b0: 8038 813a 061d 0ebe 153e a0bd 7717 a9bd
000000c0: db58 33be 901c 8a3c b2cc f63d 30f0 923d
000000d0: 3904 acbd 4839 26be d00a 12be 80e5 563b
000000e0: 1e0d f93d a09d 92bd 6400 c5bd c221 c1bd
000000f0: d0ba 7abc e6e7 2bbe 51bd 1fbe 9931 323e
00000100: 7da9 acbd e498 02bd 98ba 41bd d006 1fbe
00000110: b84c ffbc f4a6 5d3d 3002 93bd 60e1 f6bb
00000120: 00ac 5dba a434 34be bb8c 033e f538 123e
00000130: 06d7 f63d 2ac9 6dbd 2630 bd3d e099 29be
00000140: 8820 33bd 1444 13bd 2ab5 7fbd 660e 983d
00000150: 3cf7 a4bd c0d8 a7bc 6c14 51bd fffd 29be
00000160: 3026 efbc da68 19be 321b d33d 0a7f c13d
00000170: d593 293e ae25 73bd a048 133c 08d7 0d3d
00000180: 65b2 343e bdec 253e 8b5e bbbd a307 1abe
00000190: 8e26 23be df57 aebd d932 183e 5c2e 733d
000001a0: 37a8 2e3e e12c 063e 80f5 273b f661 e0bd
000001b0: f7c3 303e 6135 113e fabd 9c3d bcc4 c5bd
000001c0: 719a 0e3e 20ce 833c 6a64 ef3d 561a 973d
000001d0: de3e c03d 12d7 1ebe 5ebe c8bd f623 d93d
000001e0: ecd9 16bd b07b 1dbe 6d9e 243e 8089 7abb
000001f0: 7f06 123e de7c 0dbe 9c4b 793d 5f5e 88bd
00000200: f759 98bd 4805 17bd d401 86bd fe61 c63d
00000210: f492 09bd 8740 093e e438 253d 10c3 dfbc
00000220: 021d d1bd 28c1 25be c03a 53bd 2fa1 27be
00000230: 7826 06bd 405a 3d3b 30a6 3abc ead6 b1bd
00000240: 2247 fb3d 92e4 cb3d 6465 32bd 290b 8fbd
00000250: 329c e33d c17d 1d3e 8fbf 25be 9071 1cbd
00000260: 5064 86bc 7e14 83bd b189 1a3e b0e8 d5bc
00000270: 1b7a 193e 0017 653a 4815 9dbc 812d d3bd
00000280: a6c2 70bd b451 693d ae24 a03d 201a cebb
00000290: a57b 2c3e 3094 fabd 7ccf 8a3d 2b0a 233e
000002a0: 00cf fbbc 81b6 0f3e c0f9 3e3b 2e8e 07be
000002b0: cf9e c6bd a4c1 863d feab 9cbd 0c26 2e3d
000002c0: 532b 323e 74f4 753d 5088 87bc 98fc 343d
000002d0: 1996 d0bd 201a 18be 7912 08be cee4 17be
000002e0: 4498 143d c009 0d3d d7da 99bd 6d10 31be
000002f0: 3a1e c43d 926c cdbd 20c4 f1bc 0cc8 17be
00000300: 413f ccbd 2e07 973d 1ca9 28be e572 cebd
00000310: 35b7 073e cbab b9bd 1faa 96bd 4c4d 4bbd
00000320: bac1 9a3d 827c edbd 2833 913c 8adb 933d
00000330: a040 52bc 3ced 023d 1417 0abe 6ead a33d
00000340: f44d 873d 28a5 b5bc f5ad 15be 7ece 903d
00000350: ca3e ec3d 304b fdbc 7aa4 aa3d 6431 863d
00000360: c1cd 90bd 1010 49bc 9131 343e 00c7 5a3a
00000370: a81c 10be 1039 53bc 921c b43d 205b 6cbd
00000380: fc97 bdbd ab1e 153e ce85 bf3d 0008 f6bc
00000390: 20f8 133c 2829 99bc 181b 283d e0dd cd3b
000003a0: 0f15 dbbd 2427 063d 2081 973b b041 3b3c
000003b0: f3f7 89bd 6486 393d 6d61 12be 8871 583d
000003c0: b62f c43d c05f 9fbc a89d 0cbe 0075 28ba
000003d0: 0090 8339 1270 1cbe bb08 00be 896e 273e
000003e0: a15e 073e 96a4 c83d 32ce fa3d 185f 8b3d
000003f0: 52c0 cb3d 3ac9 ef3d 6826 29bd a817 b8bc

in_layer1.layers.2.bias f4 [32]
0.17082156 0.0007380992 -0.10631747 0.10172556 -0.03682241 0.012109742 -0.09208892 -0.14972892
-0.11740141 -0.01941061 -0.12797707 0.17423268 0.0019132793 -0.06767574 0.06986572 -0.15672469
-0.09041989 0.06639752 -0.15020056 0.08810602 0.014858991 -0.14739768 -0.17543888 0.055870384
0.08355673 -0.03533879 -0.15631574 -0.10188461 0.018788427 0.0064313114 0.04525076 0.03125769
00000000: d9eb 2e3e 007d 413a f9bc d9bd 7e55 d03d
00000010: 18d3 16bd f067 463c 1e99 bcbd 8a52 19be
00000020: 2770 f0bd 0003 9fbc 6c0c 03be 0d6a 323e
00000030: 00c7 fa3a 9499 8abd c215 8f3d 707c 20be
00000040: 102e b9bd 6cfb 873d 2dce 19be ee70 b43d
00000050: 2073 733c 6bef 16be 40a6 33be 58d8 643d
00000060: ca1f ab3d 68bf 10bd 3c11 20be e1a8 d0bd
00000070: 30ea 993c c0bd d23b dc58 393d 1008 003d

in_layer2.layers.0.weight f4 [32, 4]
-0.008114818 -0.17561571 0.48002586 -2.16994e-40 0.80690813 -0.17675143 -0.23272659 1.33579e-40
-0.0011619714 0.0003020729 -0.00013461639 -1.85466e-40 -0.26558977 0.7833868 -0.58521396 4.8e-41
-0.0011653827 0.00029230618 -0.00015109999 -5.06303e-40 -0.10136041 -0.6507604 0.55911475 2.0532e-41
-0.1547012 -0.260767 0.47959656 3.48654e-40 0.031689037 -0.15600778 0.24632886 -2.37917e-40
0.38888434 -0.12710111 -0.115334325 -6.20271e-40 -0.34802157 0.49299857 0.14544117 4.7374e-41
-0.20310952 -0.5603467 0.51205105 -3.61199e-40 0.8090674 -0.25010318 -0.3293689 -1.02034e-40
-0.0011625473 0.00029486808 -0.00014485838 5.22391e-40 -0.21881956 -0.7643879 0.4670363 4.09193e-40
-0.0011649978 0.00029274132 -0.00015013244 -1.45211e-40 0.08120791 0.6301704 -0.43988842 1.08327e-40
0.063491695 0.64556307 -0.5809624 -3.95467e-40 0.16698152 0.40559947 -0.3679905 4.40889e-40
-0.10184769 -0.22042887 0.18948674 -2.09518e-40 -0.30227312 0.41439226 0.008573189 -1.21577e-40
0.36566958 -0.08593018 -0.08670566 -5.53383e-40 0.3305295 -0.29586014 0.036830544 1.42837e-40
-0.12342299 0.31410334 -0.27314433 -1.7228e-40 0.40092942 -0.2989591 0.27785948 1.3014e-41
0.003881489 -0.06599609 0.15887089 -3.3044e-41 -0.0031187076 0.0037697323 0.0012327452 -5.6577e-41
-0.30454838 0.31508654 -0.19569497 -3.62558e-40 0.0014412719 -0.0002811821 0.00045853714 4.01409e-40
-0.0011590245 0.0002978932 -0.0001373321 -3.02546e-40 -0.22555289 0.16526894 -0.1009626 2.52705e-40
-0.22836918 -0.3168539 0.5373161 4.34928e-40 -0.0011653552 0.0002900557 -0.00015412892 5.88925e-40
00000000: 03f4 04bc 9bd4 33be f3c5 f53e e45c 0280
00000010: 8891 4e3f 54fe 34be e14f 6ebe 5d74 0100
00000020: 4a4d 98ba 8a5f 9e39 d027 0db9 0105 0280
00000030: 62fb 87be 0a8c 483f 95d0 15bf ce85 0000
00000040: c1bf 98ba ac40 9939 9870 1eb9 5e83 0580
00000050: 0c96 cfbd 3c98 26bf 2522 0f3f 3c39 0000
00000060: fe69 1ebe 4183 85be ae8d f53e e8cb 0300
00000070: 5dcc 013d 81c0 1fbe a23d 7c3e 3797 0280
00000080: d91b c73e cb26 02be 6734 ecbd 10c1 0680
00000090: e22f b2be 4f6a fc3e 88ee 143e 0f84 0000
000000a0: f1fb 4fbe e272 0fbf c715 033f e0ee 0380
000000b0: 0b1f 4f3f 860d 80be 0aa3 a8be 6e1c 0180
000000c0: 9d60 98ba 8698 9a39 20e5 17b9 37b0 0500
000000d0: 3c12 60be edae 43bf 621f ef3e aa74 0400
000000e0: d7b2 98ba 137b 9939 df6c 1db9 ca94 0180
000000f0: 5550 a63d d952 213f 0e39 e1be f92d 0100
00000100: ef07 823d 9f43 253f f4b9 14bf 674e 0480
00000110: 34fd 2a3e bcaa cf3e 4069 bcbe 05cd 0400
00000120: 8695 d0bd 1bb8 61be d008 423e 0d48 0280
00000130: 8bc3 9abe 392b d43e 9076 0c3c e852 0180
00000140: 0b39 bb3e 2afc afbd bd92 b1bd 9b06 0680
00000150: 2a3b a93e fb7a 97be a0db 163d 2c8e 0100
00000160: 31c5 fcbd 27d2 a03e 93d9 8bbe 3fe0 0180
00000170: 9f46 cd3e 2b11 99be 9943 8e3e 4724 0000
00000180: 9460 7e3b f528 87bd 0daf 223e 1d5c 0080
00000190: 3b63 4cbb 9d0d 773b 1194 a13a b79d 0080
000001a0: c4ed 9bbe 0653 a13e 4364 48be aaf2 0380
000001b0: 0fe9 bc3a 9f6b 93b9 d067 f039 f75e 0400
000001c0: 69ea 97ba 8c2e 9c39 ce00 10b9 604b 0380
000001d0: 56f7 66be 433c 293e 7bc5 cebd 70c0 0200
000001e0: 9cd9 69be ad3a a2be 8c8d 093f 67bc 0400
000001f0: d5be 98ba 9e12 9839 ab9d 21b9 af69 0600

in_layer2.layers.0.bias f4 [32]
-0.21447656 -0.046684287 -0.00046950093 0.0184728 -0.00047954288 0.1758078 -0.09969391 -0.010165132
0.08663526 -0.1288822 0.19368361 0.13193263 -0.00047528616 0.4054574 -0.00047888985 0.042865984
-0.30633992 0.1812807 0.21073467 -0.014233729 -0.06389935 0.32192656 -0.043392006 0.15403642
-0.0674753 -0.00020882755 0.35160145 0.00070505025 -0.00047022486 0.14882798 0.19850989 -0.00048143798
00000000: be9f 5bbe 0638 3fbd 5927 f6b9 4554 973c
00000010: 286b fbb9 f606 343e 522c ccbd a78b 26bc
00000020: d46d b13d b2f9 03be ff54 463e 5919 073e
00000030: d42f f9b9 1d98 cf3e 8213 fbb9 3e94 2f3d
00000040: 96d8 9cbe a6a1 393e d4ca 573e 9634 69bc
00000050: aadd 82bd 8fd3 a43e d1bb 31bd b9bb 1d3e
00000060: 7d30 8abd b8f8 5ab9 1b05 b43e 1fd3 383a
00000070: 8388 f6b9 5d66 183e 2d46 4b3e 8369 fcb9

in_layer2.layers.2.weight f4 [32, 32]
-0.00014228774 0.000960341 0.00022066775 -0.00025163734 0.00023014937 2.6254931e-05 -0.0002118697 -0.00015723908
0.0008203139 -0.00017827188 6.5711865e-05 0.0010028107 0.00022611683 4.59634e-05 0.0002295361 9.585763e-05
-6.495347e-05 0.00021007966 -0.00024981506 -0.00014770858 0.0007199385 -7.192044e-05 -0.00026769852 -0.00037760413
-0.00016448933 0.0018613242 -5.823197e-05 -0.00052537594 0.00022127066 -0.00017470801 0.0001233073 0.00023177917
-0.02848234 0.023282463 -0.00028437245 -0.13061324 -0.00030603763 0.024223328 -0.026994022 -0.017698849
0.003614213 -0.046807915 -0.009193568 0.028844608 -0.00029705456 0.069880165 -0.00030466254 -0.101026155
-0.069649324 -0.05508799 -0.011603883 -0.03964576 0.007424975 0.066916466 -0.023555605 0.06971525
-0.011375998 -0.0015291242 -0.046147536 0.0008982804 -0.00028626347 -0.011530085 0.013398374 -0.00030985707
0.00057417946 -0.0013079691 0.00018491395 0.0006320478 0.00019465762 0.00047454407 0.0010645153 -8.795997e-05
-0.0013180809 0.000422769 0.0007746026 -0.0012015323 0.00019052855 0.00063183997 0.00019402888 5.4282827e-05
0.00078641844 -7.277873e-05 0.00016050832 0.00042044878 -0.0005702839 -0.0012776208 0.0011234316 -0.00073182
-0.00035947462 0.0018668225 0.00029621652 -0.00050504314 0.00018556928 0.0005367463 0.0006200101 0.00019633835
-0.0006086577 -0.0020087585 0.00018564245 0.0006959293 0.0001983857 -0.0009564742 -0.00019086851 -0.0011809343
-0.0015913028 0.0009790978 -0.00052006 -0.0019515731 0.00019308223 -0.0007818599 0.00019757391 0.0010815683
0.0008399515 0.0010092392 -0.00095319026 0.000985134 -0.00066736306 -0.002724073 0.001253539 -0.0026221732
-0.0013601718 0.0017049143 0.0010201018 -0.0005906316 0.00018673103 0.0011436202 -0.0004934673 0.00020064527
0.00036101608 -0.00018058888 7.7379496e-05 0.0009053939 8.2732135e-05 0.00033889464 0.00073702075 -0.00016336987
-0.0005971406 0.00061479816 0.0006263579 -9.06463e-06 8.051356e-05 0.00049554 8.239266e-05 0.000991053
0.0012589364 0.0009850916 -1.6336395e-05 0.0006776294 -7.775158e-05 -0.0011700044 0.0012028837 -0.0011184439
-0.00054669933 0.0008862924 0.0007035844 -0.00024760497 7.7854245e-05 0.00082320516 0.00053146825 8.36793e-05
-0.11642232 0.0486166 -0.0004439204 0.48475286 -0.0004286082 -0.055641726 -0.0928946 -0.08929301
0.053906888 0.039969657 -0.04787878 0.04570891 -0.00043402181 -0.017351996 -0.00042947032 0.3877064
0.31003717 0.20329507 -0.10511325 0.12850906 0.037281826 -0.052872542 0.14147419 -0.115623176
-0.047804542 -0.0027843534 0.16875264 0.00015136557 -0.0004404274 0.08587662 -0.16217536 -0.00042542405
-0.00024305479 -0.0002803346 0.00058899145 -0.0015487074 0.0006168912 -0.0005322197 -0.0005182811 0.00011534136
-2.2203527e-05 -0.00024865352 -0.00065769575 -0.00036306414 0.0006050397 -0.0006921137 0.00061508815 -0.0016926117
-0.001787083 -0.0015620438 5.028732e-05 -0.0004992321 3.9197705e-05 0.00056289963 -0.0011839021 0.0006801736
0.00032249672 0.0039326767 -0.0008227416 -0.0014891209 0.00059080066 -0.00075397553 -0.00028989036 0.0006216874
-0.01638816 -0.0053946935 0.00079889956 -0.0804991 0.0008004543 -0.06968602 -0.02084034 -0.00429074
-0.0053263023 0.0061366404 -0.052362993 -0.0049622576 0.0007992352 -0.06972829 0.00080028886 -0.06933195
-0.06348238 -0.039102875 -0.0031542683 0.0022613257 -0.0036383474 -0.013255028 -0.010347193 -0.032062225
0.0021286886 0.0028173034 -0.0064408607 -0.0009116203 0.0007977086 0.0010601806 -0.03965171 0.0008004548
00000000: 1333 15b9 65bf 7b3a 0c63 6739 31ee 83b9
00000010: 4054 7139 093e dc37 5729 5eb9 8be0 24b9
00000020: 550a 573a 7eee 3ab9 cace 8938 be70 833a
00000030: c619 6d39 d3c8 4038 a1af 7039 2c07 c938
00000040: a137 88b8 d448 5c39 9cf9 82b9 38e2 1ab9
00000050: 41ba 3c3a fed3 96b8 e359 8cb9 2bf9 c5b9
00000060: c57a 2cb9 adf7 f33a 1a3e 74b8 62b9 09ba
00000070: e404 6839 d331 37b9 0d4c 0139 bf09 7339
00000080: cc53 e9bc ddba be3c d317 95b9 7abf 05be
00000090: ad73 a0b9 0070 c63c 9122 ddbc 2dfd 90bc
000000a0: 6fdc 6c3b a8b9 3fbd 9ea0 16bc 874b ec3c
000000b0: fdbd 9bb9 551d 8f3d 1dbb 9fb9 cde6 cebd
000000c0: 4ea4 8ebd f2a3 61bd 361e 3ebc 9863 22bd
000000d0: 344d f33b 800b 893d aff7 c0bc dec6 8e3d
000000e0: 6562 3abc e56c c8ba 3305 3dbd 947a 6b3a
000000f0: a215 96b9 aee8 3cbc db84 5b3c 5074 a2b9
00000100: 8884 163a 2970 abba 76e5 4139 03b0 253a
00000110: 021d 4c39 3acc f839 3587 8b3a 2677 b8b8
00000120: 75c3 acba 18a7 dd39 b30e 4b3a bc7c 9dba
00000130: 9ec8 4739 10a2 253a 3b74 4b39 bead 6338
00000140: a627 4e3a c8a0 98b8 204e 2839 ae6f dc39
00000150: 1b7f 15ba d775 a7ba 1c40 933a 9cd7 3fba
00000160: de77 bcb9 2bb0 f43a 824d 9b39 df64 04ba
00000170: 6095 4239 6fb4 0c3a 2c88 223a 2de0 4d39
00000180: 548e 1fba 60a5 03bb 04a9 4239 066f 363a
00000190: c105 5039 e6bb 7aba e023 48b9 94c9 9aba
000001a0: 4393 d0ba 1255 803a a354 08ba edcb ffba
000001b0: 1e76 4a39 bbf5 4cba d82b 4f39 69c3 8d3a
000001c0: 3130 5c3a 7348 843a 84df 79ba 9d1f 813a
000001d0: faf1 2eba 5c86 32bb ca4d a43a c4d8 2bbb
000001e0: cb47 b2ba 6e77 df3a f0b4 853a 9ed4 1aba
000001f0: 3bcd 4339 87e5 953a 085c 01ba 4e64 5239
00000200: c246 bd39 755c 3db9 cd46 a238 f557 6d3a
00000210: 7a80 ad38 abad b139 a034 413a 444e 2bb9
00000220: 6d89 1cba 682a 213a 2b32 243a 4a14 18b7
00000230: 63d9 a838 20e7 013a 39ca ac38 38e6 813a
00000240: e502 a53a 301e 813a 240a 89b7 f0a2 313a
00000250: 900e a3b8 d55a 99ba 14aa 9d3a c098 92ba
00000260: 5f50 0fba 1356 683a c070 383a fad0 81b9
00000270: ae45 a338 5dcc 573a 3b52 0b3a fb7c af38
00000280: d36e eebd 3322 473d fdbd e8b9 8731 f83e
00000290: d2b6 e0b9 94e8 63bd 863f bebd 41df b6bd
000002a0: 78cd 5c3d 39b7 233d 8a1c 44bd 4439 3b3d
000002b0: 6c8d e3b9 c625 8ebc 882a e1b9 7481 c63e
000002c0: 31bd 9e3e 952c 503e 9e45 d7bd e197 033e
000002d0: d4b4 183d e190 58bd 9cde 103e d8cb ecbd
000002e0: b2ce 43bd b379 36bb 7ecd 2c3e e3b7 1e39
000002f0: 2ae9 e6b9 15e0 af3d 4c11 26be 730b dfb9
00000300: 86dc 7eb9 e0f9 92b9 8c66 1a3a fffd caba
00000310: deb6 213a a984 0bba 41dd 07ba 6ce3 f138
00000320: b641 bab7 b65d 82b9 3769 2cba a559 beb9
00000330: 879b 1e3a f76e 35ba de3d 213a a0da ddba
00000340: 8e3c eaba 7ebd ccba 99eb 5238 e6de 02ba
00000350: 3768 2438 8e8f 133a 2a2d 9bba ad4d 323a
00000360: c714 a939 afdd 803b 41ad 57ba 9b2e c3ba
00000370: f6df 1a3a 71a6 45ba 6dfc 97b9 bcf8 223a
00000380: 7640 86bc f8c5 b0bb 3e6d 513a b6dc a4bd
00000390: 94d5 513a 8bb7 8ebd 5cb9 aabc 5699 8cbb
000003a0: 4388 aebb df15 c93b 947a 56bd 6f9a a2bb
000003b0: c483 513a b5cd 8ebd 7aca 513a e9fd 8dbd
000003c0: 0d03 82bd 562a 20bd d7b7 4ebb c032 143b
000003d0: 5771 6ebb 9e2b 59bc 4687 29bc ae53 03bd
000003e0: 7881 0b3b 82a2 383b db0d d3bb cdf9 6eba
000003f0: 511d 513a c2f5 8a3a d569 22bd 9dd5 513a

in_layer2.layers.2.bias f4 [32]
-0.0007347786 0.06848302 -0.00060189003 -0.0005140397 -0.0006124823 0.16034016 8.161387e-06 -0.0970523
-0.010500482 0.008618203 -0.0013180246 -0.0016823206 0.00082490925 -0.003937459 -0.0018063922 0.11731586
0.2313808 -0.008312702 -0.07373696 0.0010882467 -0.00017644427 0.04207918 0.004323674 0.16137512
-0.00047823493 -0.0012264926 0.000410559 0.027052702 0.011559829 0.00054340565 0.1762074 0.048062194
00000000: 289e 40ba d340 8c3d 28c8 1dba 9fc0 06ba
00000010: fe8e 20ba 3630 243e e4ec 0837 5bc3 c6bd
00000020: 370a 2cbc 5d33 0d3c 91c1 acba 5081 dcba
00000030: b93e 583a cd05 81bb 77c4 ecba 4c43 f03d
00000040: 17ef 6c3e 0032 08bc 6703 97bd 80a3 8e3a
00000050: e603 39b9 385b 2c3d 9bad 8d3b 853f 253e
00000060: 9bbb fab9 43c2 a0ba 4c40 d739 a19d dd3c
00000070: 7065 3d3c 5673 0e3a b66f 343e dddc 443d

sat_layers.layer0_1.0.agg_weight f4 [3]
-0.61219466 0.31316 0.89464694
00000000: cab8 1cbf 8256 a03e 9507 653f

sat_layers.layer0_1.0.input_linear_layer1.weight f4 [32, 32]
-0.20666131 -0.036387622 0.044545572 0.041327734 0.0078040203 -0.021704683 0.0038820666 0.0046704365
-0.106708996 -0.019367816 0.025643134 0.009423248 -0.10610968 -0.14124425 -0.11211468 0.0020712963
0.02479626 0.0042028516 0.028587608 -0.013257883 0.010521847 0.32686532 -0.085393235 0.0027674923
0.04668576 0.07907045 -0.0027831472 0.15737067 0.04755478 -0.005966437 -0.048127286 -0.09799667
0.070136465 0.047838625 -0.01161679 -0.009664531 -0.0015386986 0.018233463 -0.00055376836 -0.0007330476
0.10474404 0.006408827 -0.005643009 0.011036886 0.05491784 0.040111735 -0.060745917 -5.8251506e-05
-0.0067545995 -0.0011537002 -0.0073927813 0.0060832426 -0.008651652 -0.08080325 0.04671318 -0.00042503665
0.006588958 -0.0148145035 0.0011608021 -0.004518442 -0.020647071 0.002647383 0.056899827 0.004305969
-0.08754029 -0.2241742 0.05060618 0.0295945 0.0031219888 0.02204102 0.0015435846 0.0017593091
-0.061342742 -0.005722691 0.010268793 -0.18395968 -0.1827276 -0.17414884 -0.06945209 0.00061303965
0.01152741 0.002025502 0.012470148 -0.007987832 0.028313827 0.24706237 -0.10865048 0.0010555856
0.048764 0.06541094 -0.0014220849 0.14615478 0.023375042 -0.0034857234 -0.07049859 -0.049040906
-0.0005818951 -0.00017253202 -0.0005314598 -0.00451524 -0.0036633404 0.00075892976 0.0010593166 -0.003387647
-0.00046019402 0.001552542 -0.0029156401 8.67468e-06 0.00045839744 -0.00086319604 -0.00013418791 -0.0032520613
-0.0019941467 0.0013240756 -0.002989335 0.0018653905 -0.0020219649 0.0035910967 -0.00022707868 -0.003251758
0.0005754279 -0.002917961 -0.0024671964 0.00071239314 0.00027337737 -0.00010615543 -4.2323503e-05 0.00034499652
4.8862945e-05 -0.00062278204 -0.0006454024 0.010192454 0.0025444773 -6.563497e-05 -0.005816066 0.002584172
-0.00044974635 -0.0059620575 0.007950674 -6.338378e-07 -0.00048159767 0.0014593193 0.00016260201 0.0028728226
0.009507281 -0.004344536 0.008950162 -0.005305534 0.004579404 0.0017983321 -0.0005533654 0.0031673566
-0.0013754491 0.009504039 0.002423631 -0.0005019996 -0.00024433498 0.0018597184 -0.00067495625 -0.0011468338
0.077806875 0.09162997 -0.012560283 -0.009261549 -0.0014463655 0.0009721593 -0.0004904157 -0.00066713727
0.078838885 0.006004657 -0.0054977736 -0.007937267 0.044614643 0.07471829 -0.040896147 -2.9262002e-05
-0.006591564 -0.0011139384 -0.0071905316 0.005974459 -0.00932281 -0.07559468 0.07248708 -0.0003873141
-0.03028093 -0.010501917 0.0011225668 -0.021666091 0.08007107 0.0025734867 0.043126 0.002729333
-0.23168871 -0.23104312 0.022060122 0.052146263 0.005345907 -0.0280145 0.002695366 0.0032068412
-0.18121368 -0.015914198 0.015163808 -0.085562706 -0.052169163 -0.025507126 0.054584872 0.0013253358
0.018530387 0.0030909528 0.019533359 -0.010697659 0.07505901 0.28776416 -0.20185906 0.0019077773
0.095263556 0.09654998 -0.00204294 0.1769088 0.065871775 -0.0047369516 -0.026670557 -0.047008757
-0.06823371 -0.034916412 -0.015732205 0.037745044 0.0043378994 -0.10296692 0.0021827018 0.0025679963
-0.1883992 -0.019247055 0.013355998 -0.15371253 -0.1970669 -0.03755318 0.039628964 0.0010075882
0.015055578 0.0026114818 0.015477544 -0.009473281 0.050045215 0.26347265 -0.12358575 0.0015319814
0.010753878 0.07610166 -0.001773645 0.11039681 0.060751297 -0.0041976394 -0.03553634 -0.030115906
00000000: 069f 53be 300b 15bd 6b75 363d 4547 293d
00000010: deb8 ff3b 05ce b1bc 456a 7e3b 760a 993b
00000020: 3f8a dabd 41a9 9ebc 8d11 d23c f763 1a3c
00000030: 0850 d9bd 55a2 10be 629c e5bd 96be 073b
00000040: 8721 cb3c 13b8 893b 8f30 ea3c 9737 59bc
00000050: d363 2c3c e45a a73e a6e2 aebd d15e 353b
00000060: 9139 3f3d b0ef a13d 7665 36bb c725 213e
00000070: cdc8 423d 1a82 c3bb 1e21 45bd 7ab2 c8bd
00000080: b5a3 8f3d 6ff2 433d 5954 3ebc fb57 1ebc
00000090: 28ae c9ba 585e 953c c42a 11ba fe29 40ba
000000a0: 0b84 d63d 2301 d23b fee8 b8bb 0ed4 343c
000000b0: 87f1 603d 344c 243d b6d0 78bd 1453 74b8
000000c0: b055 ddbb c137 97ba 253f f2bb f055 c73b
000000d0: a9bf 0dbc 2d7c a5bd 5256 3f3d 74d7 deb9
000000e0: 30e8 d73b 88b8 72bc 0e26 983a 700f 94bb
000000f0: 0c24 a9bc b77f 2d3b cb0f 693d 1619 8d3b
00000100: 5348 b3bd ec8d 65be 6d48 4f3d 2a70 f23c
00000110: 489a 4c3b 5f8f b43c 1b52 ca3a 9e98 e63a
00000120: 8742 7bbd 6985 bbbb 713e 283c ed5f 3cbe
00000130: f21c 3bbe 1354 32be e63c 8ebd 65b4 203a
00000140: 76dd 3c3c 49be 043b 974f 4c3c 65df 02bc
00000150: 66f2 e73c ebfd 7c3e 2584 debd 935b 8a3a
00000160: c3bc 473d 2cf6 853d 4065 baba 99a9 153e
00000170: 047d bf3c bc70 64bb 9161 90bd 1edf 48bd
00000180: 528a 18ba b6e9 34b9 aa51 0bba 94f4 93bb
00000190: a714 70bb eaf2 463a c4d8 8a3a 4903 5ebb
000001a0: 3246 f1b9 aa7e cb3a 5314 3fbb 7889 1137
000001b0: 1055 f039 1b48 62ba cbb4 0cb9 8920 55bb
000001c0: 3bb0 02bb 9b8c ad3a b8e8 43bb 1e80 f43a
000001d0: f182 04bb 9b58 6b3b f81b 6eb9 721b 55bb
000001e0: 50d8 163a 433b 3fbb b0b0 21bb e5bf 3a3a
000001f0: 1754 8f39 c39f deb8 8484 31b8 a6e0 b439
00000200: 30f2 4c38 3242 23ba 3930 29ba 40fe 263c
00000210: 3fc1 263b 82a5 89b8 b394 bebb 365b 293b
00000220: efcb ebb9 5d5d c3bb 8b43 023c 0025 2ab5
00000230: f27e fcb9 a146 bf3a 2580 2a39 f745 3c3b
00000240: 6dc4 1b3c 9c5c 8ebb b3a3 123c 0cda adbb
00000250: d30e 963b 03b6 eb3a b90f 11ba 6d93 4f3b
00000260: 6a48 b4ba d4b6 1b3c c8d5 1e3b 9f98 03ba
00000270: 161a 80b9 cbc1 f33a 8cef 30ba 5b51 96ba
00000280: 3659 9f3d 7ea8 bb3d a5c9 4dbc c1bd 17bc
00000290: f993 bdba 82d8 7e3a 3e8f 00ba d3e2 2eba
000002a0: 4876 a13d b7c2 c43b ab26 b4bb 500b 02bc
000002b0: d8bd 363d e705 993d b882 27bd ac77 f5b7
000002c0: 0cfe d7bb 9201 92ba 8d9e ebbb 65c5 c33b
000002d0: b3be 18bc 62d1 9abd 1b74 943d 6b10 cbb9
000002e0: b70f f8bc 3c10 2cbc 1723 933a 167d b1bc
000002f0: 4dfc a33d f1a7 283b e3a4 303d 9cde 323b
00000300: ce3f 6dbe 9196 6cbe 6eb7 b43c 5297 553d
00000310: b82c af3b aa7e e5bc bda4 303b de29 523b
00000320: 1490 39be 7e5e 82bc 9f71 783c 803b afbd
00000330: 55af 55bd 52f4 d0bc 6394 5f3d e4b6 ad3a
00000340: 0acd 973c 9591 4a3b 6c04 a03c 3c45 2fbc
00000350: 8ab8 993d d355 933e 24b4 4ebe 620e fa3a
00000360: 8a19 c33d ffbb c53d d8e2 05bb 9527 353e
00000370: c8e7 863d 6e38 9bbb 367c dabc 418c 40bd
00000380: 1ebe 8bbd 8304 0fbd d3e0 80bc 8c9a 1a3d
00000390: f024 8e3b 52e0 d2bd a90b 0f3b d44b 283b
000003a0: b8eb 40be 00ac 9dbc 1ed3 5a3c d166 1dbe
000003b0: e8cb 49be 5dd1 19bd fb51 223d 0d11 843a
000003c0: acab 763c 6525 2b3b 8695 7d3c d235 1bbc
000003d0: 36fc 4c3d e3e5 863e 871a fdbd c4cc c83a
000003e0: 0931 303c 30db 9b3d a779 e8ba b917 e23d
000003f0: 5ad6 783d 5a8c 89bb 8e8e 11bd a2b5 f6bc

sat_layers.layer0_1.0.input_linear_layer1.bias f4 [32]
0.32450092 -0.39023957 0.14632308 0.00025319392 0.00017555644 -0.2591331 0.27616388 0.28007331
0.33289567 -0.36775434 -0.18023513 -0.0006191089 -0.31919995 -0.26540095 0.27014512 0.4366224
0.30587494 -0.24653871 -0.18495922 0.3777997 -0.0001508315 0.21762447 -0.28282988 0.10628323
-0.28700688 -0.33669442 -0.33634698 -0.32505074 0.42736164 -0.39748546 0.45714056 0.36469916
00000000: fc24 a63e 7bcd c7be b8d5 153e 1dbf 8439
00000010: 9315 3839 18ad 84be 5a65 8d3e c565 8f3e
00000020: 4d71 aa3e 4c4a bcbe 8f8f 38be b24b 22ba
00000030: 2d6e a3be a2e2 87be 7650 8a3e f98c df3e
00000040: a49b 9c3e a574 7cbe f365 3dbe f66e c13e
00000050: 8628 1eb9 f3d8 5e3e 14cf 90be 06ab d93d
00000060: 91f2 92be 3663 acbe ac35 acbe 0d6d a6be
00000070: 25cf da3e 3783 cbbe 540e ea3e d9b9 ba3e

sat_layers.layer0_1.0.input_linear_layer2.weight f4 [32, 32]
-0.018615497 0.029500537 -0.09311945 0.072328635 -0.009996273 0.08732514 -0.0014214492 0.0014033992
0.026894612 -0.28071368 0.123540565 0.04605099 -0.29159477 0.2715643 0.038901698 0.0038511627
0.18086669 0.0070797354 0.19631717 -0.20194314 0.20599674 0.16986904 -0.07680818 0.004658731
-0.12799743 0.2517225 -0.018659184 0.018879138 -0.15092777 -0.10944978 -0.0968742 -0.0444452
0.083144 0.09145907 0.0118472595 -0.025062544 0.0061441283 -0.08501102 -0.018820634 0.008312369
0.018235253 -0.022243116 -0.03967226 -0.08048402 -0.07746733 0.04719684 -0.10471056 5.7358797e-05
0.053816378 -0.013316562 -0.02704415 -0.026555145 0.015406225 0.044735357 0.14791648 0.004345285
-0.013710214 0.1053353 0.024228338 -0.033139396 -0.08988391 -0.023926388 0.11170265 -0.042855307
1.27153635e-05 0.07990046 0.0510035 -0.08898334 -0.0039080624 -0.00045095055 0.0034481701 -0.003412733
0.04423398 0.13370337 0.13237886 -0.00064579176 0.034688115 0.033894457 0.058553245 0.0007303563
-0.054254565 0.0069767865 0.05302788 -0.027014699 0.06363526 0.103601545 0.04932689 -0.0024027522
0.045590185 0.003977844 0.00057896395 0.095482625 -0.04760615 -0.0062519535 0.117402315 -0.052890934
0.018587565 0.0014310895 0.0072988607 -0.023758806 -0.0038976176 5.324842e-05 1.056102e-05 -0.0013065708
0.035078812 0.003033401 -0.018732613 -0.024693348 0.0138701815 0.0029817764 0.06494429 -0.0010874913
-0.009323638 0.0009753162 0.0056660697 0.004995357 -0.0032067648 0.04122403 0.014831329 -0.0010910893
-0.00020400906 0.023265116 -0.00326234 0.0019065898 -0.02391436 0.006342404 -0.00424062 -0.0048931073
0.017315887 0.0062599992 -0.0025006973 0.13071626 -0.0026812546 -0.019411964 -0.0003779906 0.0012822353
-0.0055800863 -0.003960845 0.023879273 0.058680337 0.005879765 0.09833578 0.048679724 0.0009202748
-0.009743684 -0.0027666863 0.027034108 0.044606056 0.043409567 0.11153725 0.015532761 0.0014279587
0.033596203 0.08677838 -0.00094313716 -0.016599506 -0.0041692667 0.0026447694 0.048824675 0.007326909
-0.083790794 -0.07237489 -0.037388094 -0.044132326 0.0022951392 -0.008659542 -0.00027485975 -0.00051338464
0.012408929 0.0025306945 -0.02077369 -0.05683562 0.012825773 -0.13717452 -0.16572264 -0.0008296669
-0.03437786 -0.0022750946 -0.061059237 -0.0033647872 0.006447269 -0.006354968 -0.04751384 -0.00034316536
-0.05243797 -0.032884195 0.0011019676 -0.13123176 -0.15552434 0.0035061038 -0.049088266 0.00828747
0.008807815 0.012994534 0.005184563 0.016211677 -0.001042584 -0.006393209 0.00090151187 -0.0005337732
0.010424651 0.005172057 0.0015300649 -0.026125545 -0.009650538 0.009225667 -0.044988513 -5.437453e-05
7.219231e-05 -3.8480393e-06 0.0014231432 -0.00025332946 0.001925003 0.02781998 0.012294108 -0.00010930613
0.013108193 0.012173431 -0.00035750595 0.016174184 -0.015611422 0.00065778906 0.014449405 -0.007413175
0.008781178 0.014892194 0.0025892116 -0.021772832 0.00041947822 -0.0016625706 0.0011104528 0.00028821605
0.012293427 0.0024187472 0.00035544977 -0.008795868 -0.0033273434 0.008365594 0.015558828 -0.00040237393
0.0006508844 -1.87896e-05 0.00041528622 -0.00065551617 0.0010393645 0.0012583606 0.01216216 2.173908e-05
0.008250633 0.027659431 0.00083565625 0.004560924 -0.009901906 0.00088306 0.014573851 0.0007373511
00000000: 877f 98bc 1cab f13c 69b5 bebd 0921 943d
00000010: 68c7 23bc 86d7 b23d ec4f baba 43f2 b73a
00000020: 1752 dc3c b4b9 8fbe d602 fd3d f69f 3c3d
00000030: e94b 95be 7a0a 8b3e 6357 1f3d ca63 7c3b
00000040: 1e35 393e 20fd e73b 5e07 493e 2fca 4ebe
00000050: cff0 523e 26f2 2d3e 9b4d 9dbd 45a8 983b
00000060: c211 03be c6e1 803e 25db 98bc 6ca8 9a3c
00000070: cf8c 1abe 3527 e0bd fb65 c6bd 2c0c 36bd
00000080: 6747 aa3d e54e bb3d 021b 423c f74f cdbc
00000090: af54 c93b 421a aebd bb2d 9abc 9a30 083c
000000a0: 1962 953c 3237 b6bc 617f 22bd ced4 a4bd
000000b0: 31a7 9ebd 7951 413d 7d72 d6bd 8a94 7038
000000c0: 906e 5c3d b62d 5abc b18b ddbc 2d8a d9bc
000000d0: 646a 7c3c 6c3c 373d 6b77 173e e462 8e3b
000000e0: cea0 60bc 09ba d73d 827a c63c 2dbd 07bd
000000f0: 0e15 b8bd 4601 c4bc 5cc4 e43d 0c89 2fbd
00000100: 1254 5537 daa2 a33d 0ce9 503d e63c b6bd
00000110: 340f 80bb 8f6d ecb9 b2fa 613b 29a8 5fbb
00000120: b12e 353d 89e9 083e 538e 073e 5a4a 29ba
00000130: 2015 0e3d ead4 0a3d 87d5 6f3d 6275 3f3a
00000140: 093a 5ebd 879d e43b c333 593d ee4d ddbc
00000150: 3453 823d 0c2d d43d fe0a 4a3d 7e77 1dbb
00000160: c6bc 3a3d 9358 823b 9dc5 173a 658c c33d
00000170: abfe 42bd 30dd ccbb a070 f03d 2aa4 58bd
00000180: f344 983c 6593 bb3a 482b ef3b d4a1 c2bc
00000190: 2c6f 7fbb 0e57 5f38 3c2f 3137 3e41 abba
000001a0: cdae 0f3d 06cc 463b 2375 99bc b449 cabc
000001b0: c23f 633c e869 433b 8301 853d 278a 8eba
000001c0: 2cc2 18bc 5dac 7f3a 70aa b93b 17b0 a33b
000001d0: 9628 52bb 87da 283d 1aff 723c e202 8fba
000001e0: 44eb 55b9 7c96 be3c fccc 55bb 8ae6 f93a
000001f0: 0ce8 c3bc f1d3 cf3b e6f4 8abb 5c56 a0bb
00000200: 0cda 8d3c ae20 cd3b bde2 23bb 7cda 053e
00000210: fdb7 2fbb d705 9fbc 0a2d c6b9 ad10 a83a
00000220: 28d9 b6bb fac9 81bb 779e c33c cb5a 703d
00000230: 0bab c03b 4564 c93d 6464 473d 993e 713a
00000240: f9a3 1fbc 4b51 35bb a276 dd3c d7b4 363d
00000250: 3bce 313d a46d e43d 1f7d 7e3c 582a bb3a
00000260: 2c9c 093d ddb8 b13d dd3c 77ba b0fb 87bc
00000270: 589e 88bb de53 2d3b 62fc 473d 9116 f03b
00000280: 829a abbd 4939 94bd 4224 19bd 19c4 34bd
00000290: 0c6a 163b c0e0 0dbc 0d1b 90b9 a994 06ba
000002a0: d24e 4b3c 02da 253b 962d aabc 78cc 68bd
000002b0: 3123 523c 7a77 0cbe 32b3 29be 017e 59ba
000002c0: cdcf 0cbd c119 15bb 4019 7abd c383 5cbb
000002d0: 9d43 d33b 563d d0bb df9d 42bd e0ea b3b9
000002e0: 32c9 56bd 94b1 06bd e66f 903a 9e61 06be
000002f0: c641 1fbe a9c6 653b c710 49bd 2bc8 073c
00000300: a74e 103c 07e7 543c 44e3 a93b 5ace 843c
00000310: 50a7 88ba 207e d1bb 7053 6c3a eaec 0bba
00000320: 28cc 2a3c 5c7a a93b 758c c83a 3d05 d6bc
00000330: 4a1d 1ebc 4127 173c e045 38bd 3510 64b8
00000340: f465 9738 681e 81b6 c388 ba3a 4ed1 84b9
00000350: 6250 fc3a bae6 e33c 3a6d 493c 483b e5b8
00000360: bfc3 563c 1273 473c a36f bbb9 b97f 843c
00000370: 0dc7 7fbc 7a6f 2c3a 32bd 6c3c 38ea f2bb
00000380: eede 0f3c 64fe 733c c3af 293b f05c b2bc
00000390: 6aed db39 9dea d9ba 9d8c 913a b41b 9739
000003a0: 5f6a 493c d883 1e3b a95b ba39 8b1c 10bc
000003b0: 8f0f 5abb d80f 093c 74ea 7e3c b7f5 d2b9
000003c0: 1da0 2a3a 5c9e 9db7 c6ba d939 f2d6 2bba
000003d0: 493b 883a 93ef a43a cc43 473c 525c b637
000003e0: aa2d 073c 0896 e23c f10f 5b3a ce73 953b
000003f0: 9b3b 22bc 277d 673a 29c7 6e3c cb4a 413a

sat_layers.layer0_1.0.input_linear_layer2.bias f4 [32]
0.058464155 -0.10678424 0.0177497 -0.04620303 -0.09932105 -0.05100614 -0.061391793 -0.0032737942
0.0497437 0.13700722 -0.029668309 -0.05988706 -0.0010944677 0.020943753 -0.04900277 -0.03986723
-0.034349952 0.05084615 -0.010212142 0.012450662 0.10474306 0.0052678892 -0.14305973 -0.030442227
-0.08690883 0.036669858 -0.01352783 -0.23228936 -0.13722174 -0.039174948 0.04884367 -0.032330234
00000000: 1c78 6f3d b2b1 dabd d267 913c 633f 3dbd
00000010: d668 cbbd d0eb 50bd f675 7bbd 278d 56bb
00000020: 0dc0 4b3d 9f4b 0c3e f40a f3bc 224c 75bd
00000030: 3e74 8fba 3c92 ab3c 21b7 48bd d24b 23bd
00000040: 89b2 0cbd 0d44 503d d450 27bc ddfd 4b3c
00000050: 8883 d63d 429e ac3b 407e 12be fa61 f9bc
00000060: 42fd b1bd 2233 163d d5a3 5dbc 43dd 6dbe
00000070: db83 0cbe e975 20bd 4d10 483d b56c 04bd
