output/modelparams/dynamicLearning-HOSPITAL-SCCompUAU-DualSAT/epoch6_model_state_dict.pth (torch, 341349 bytes, 192 tensors)

in_layer0.layers.0.weight f4 [32, 3]
00000000: 5157 9dbd 9d51 0f3f b532 1ebf f4f3 b6be
00000010: 5555 90be 752d d63e 15e9 8dbc d6cf 563f
00000020: 3b3e 90be deea 3e3e 3807 d2bd 24a1 94bd
00000030: 9839 e7be f585 0bbf 2dc5 9a3d 527c 94be
00000040: 0e7f 9a3e 124f d23e 8745 08be 13fb c3bd
00000050: 39c6 ae3e 6be9 973e cafd aabe e624 313f
00000060: 9360 93bc 6ab4 95bd a05c 113f 7b43 2bbd
00000070: 98af d1bd d847 c83c ed89 5bbe 2702 6d3f
00000080: 39f1 a3be 64a4 303d 30bf 463c 4947 a3bd
00000090: 8591 c3be e196 333f 3726 873e f9a2 893e
000000a0: 12c7 64bd 95bd b2be 9106 113e 87fe c6bd
000000b0: 4051 0bbe e42b e2be 1801 883e 06d6 073f
000000c0: 20eb 3dbd 7d9e 31be 2b5d 0d3f 7dfd 163e
000000d0: 5c45 f9bd 2c97 a6bd 16e2 bd3e 0667 11bf
000000e0: a327 6e3e 17b0 533d 6298 043d fb59 0dbd
000000f0: c72a 1a3e 720e ea3e 0118 b0be eb5c a73d
00000100: 9000 d23e d449 a1be 2f0d 02be adfe 67be
00000110: c670 063f c203 223f 1893 e8be e901 90be
00000120: 580b a7bd 23cb a83e bfed 6b3e 80ca ff3e
00000130: 4589 8ebd 9c81 ccbe a872 0a3e b6d0 753c
00000140: da36 46be 7126 9b3e eaee 273f 2cc3 19bf
00000150: 4b33 9bb9 a3c5 bdba 1f9a f4ba d786 46ba
00000160: 6ab9 cfb9 a917 65ba dfad ad3d 09a6 0bbe
00000170: 24f7 053f 8701 233e cff4 ec3b 255f 16be
-0.0768267 0.55983907 -0.6179612 -0.35732996 -0.28190103 0.41831556 -0.017323056 0.8391088
-0.28172478 0.18644282 -0.10255283 -0.07257298 -0.45161128 -0.5450128 0.075571395 -0.290011
0.3017506 0.4107595 -0.13307773 -0.09569373 0.34135607 0.2967027 -0.3339675 0.6919693
-0.017990386 -0.07309802 0.5678196 -0.0418124 -0.1023857 0.02444832 -0.21439333 0.9258141
-0.32019976 0.043125525 0.012130544 -0.07972581 -0.3819696 0.701521 0.26396343 0.2688215
-0.05585391 -0.34910265 0.14162661 -0.09716516 -0.13605213 -0.4417411 0.26563334 0.5306095
-0.04636681 -0.17345615 0.5522029 0.14745136 -0.121714324 -0.081343025 0.37086552 -0.56797826
0.23257308 0.051681604 0.032371886 -0.03450964 0.15055381 0.45714146 -0.34393314 0.081720196
0.41016054 -0.3150164 -0.12700342 -0.22655745 0.5251583 0.63286984 -0.45424724 -0.28126457
-0.081564605 0.3296748 0.23039912 0.49959183 -0.06959776 -0.39942634 0.135203 0.015003374
-0.19356862 0.30302766 0.6559893 -0.60063434 -0.0002960212 -0.0014478456 -0.0018661654 -0.0007573193
-0.0003962026 -0.00087391824 0.08480429 -0.13637556 0.5233023 0.15918551 0.007231332 -0.14684732

in_layer0.layers.0.bias f4 [32]
00000000: 2cf4 9d3e dee2 6d3e 9fa7 a9bd ed55 11be
00000010: 5d28 f13e 863a a33e e377 09bd 869e 80bd
00000020: f9a7 75be 1d9c 2a3d bb6b ef3b 7535 16bd
00000030: 8dd1 183e 5e05 0d3a 8bc5 c0bd 8d9e c53e
00000040: 639b e7bd bbb5 84bc 9ea0 9d3e 7380 4abd
00000050: 53bb 73bd be0d 6dbc 2cf8 be3d 7b7e 1f3e
00000060: 51bd 283d a869 15bc b505 b8bd 6e9a 703e
00000070: 214a 3eba 3afc 6eba 8a8b f7bd 4dd3 03be
0.3085035 0.23231074 -0.08283924 -0.14192934 0.47101107 0.31880587 -0.0335616 -0.06280236
-0.23989858 0.041652787 0.0073065436 -0.036672074 0.14923687 0.0005379523 -0.09412678 0.38597527
-0.113089345 -0.016199937 0.30786604 -0.049438905 -0.05950482 -0.014468608 0.09324679 0.15575592
0.04119617 -0.009119429 -0.089854635 0.2349641 -0.0007258971 -0.0009116564 -0.12087162 -0.12873574

in_layer0.layers.2.weight f4 [32, 32]
00000000: 5bf0 893d cc98 f7bc bd3f 023d 923a a9bb
00000010: 0fef a0bc 18f4 b93c d687 89bc 7d7c 79bc
00000020: 385c fdbc e1d1 32bc f118 6e3d fca5 1b3b
00000030: 8d4b 903d aa0c 0e3d 44a9 f3ba 921a 813c
00000040: 7e77 11bd 83cb dbb8 fb75 993d 8dbf 543b
00000050: 0226 c03c b2d4 c03c 04a5 cfbc d73e b4bd
00000060: da2e 493c 83a8 483d ac7a 0e3b a135 143c
00000070: 2ebd 84ba 1947 cdba d5ec a0bc fe92 d2ba
00000080: d289 b4be d6e7 aa3e 07f8 71be 2310 1cbe
00000090: a3de 7c3e 03f9 353e b475 573e d388 6c3e
000000a0: e994 563e 73a3 1e3d 71d9 f4bd b73a 85bd
000000b0: f15a 793e d755 86be 285c 2fbe 21e1 a43e
000000c0: b536 983e 9027 f9bd 3d42 d53d 5284 80bd
000000d0: 3219 8bbe 147c 74be 02cc b43e 8799 84be
000000e0: 2fda 1b3e 6ced afbe da5f 14be c1b4 e6be
000000f0: 3cef 0c3a 6250 783a 2956 923e 0359 b3bd
00000100: 7419 2bbe ec1e bf3d 601b 04be 89ea cfbc
00000110: 5670 793c f00b 9c3d 24cd f13b 1c6f 703d
00000120: f9b2 3f3d 9e16 a5bb e80d 25be 3aeb 3ebc
00000130: d020 77bd 3592 0dbb 8e94 b7bc d538 2b3e
00000140: 76a5 c83d 1dd7 ab3a 30ac a93c 6334 573b
00000150: c1a8 8fbd 5c95 8ebd bd34 883d b0ad 8ebc
00000160: 702b 96bd 2a4f d3bd 3872 913c a5b5 53be
00000170: bbfc 043b 6276 633a 621d 973d 2ca6 4dbc
00000180: dbd5 6dbe a55f 933e 6ca0 3dbe dee0 89bd
00000190: 7ec1 193e 30f0 f53d 9701 d23d c461 703e
000001a0: 30e0 f83d db68 ae3c 3411 06be c95c 54bd
000001b0: 59f8 223e 8234 24be 340d a3bd 1a13 663e
000001c0: fa82 373e c13d 273d 6bc9 cb3c 2e37 a8bc
000001d0: bbb6 16be 5612 1abe ec33 863e 26e9 45be
000001e0: 555a 9d3d 751e 3cbe 20c8 c5bd 208c 5bbe
000001f0: 3a81 973a 256c 503a c669 c53d 4a86 c6bd
00000200: 1c3b 54be 0a77 5f3e 8746 10be 5ded c9bb
00000210: 4ff5 ba3d 73ac 193e aa09 913d 475c 3b3e
00000220: 3855 a83d d34b 68bc b688 2bbe 88c9 943c
00000230: b0d2 bb3d e0b2 63bd 28a5 8ebb e498 823d
00000240: 38c2 863d abee b63c abfb 21bd ddd0 5dbc
00000250: 25df 90bd 8037 9abd 5efc f33d 79a7 11bd
00000260: 240d 903c 9214 2dbe 09d2 a6bc 736c 88bd
00000270: d2cc d139 3af7 773a 44c3 923d e040 1eb9
00000280: a9d1 17bc 5e77 ec39 dbd5 81bb 83e9 12bb
00000290: 30c2 1b3b 1530 7cbb c46a 913a 03c1 94bb
000002a0: 5277 d23a 9095 b33b 8435 b4bb 7fe8 cebb
000002b0: f7d7 c9bb e235 08bb eb91 16bb c4e8 9dbb
000002c0: 19a6 a83a c75f c0bb 7756 14bc 0f92 b7bb
000002d0: 4e67 02bb 6ada 0bbb 3c92 123b c010 83bc
000002e0: dc0c bc3a 00b2 36bc 4cce 38bb 4fe5 2e38
000002f0: dbba 9839 c16d 70b9 6cbc 833b 04f4 68bb
00000300: de88 b7bc 574c 0b3c 7ffe 4c3c 14ad 0fbc
00000310: d80a a9b7 765e fc3c f2bb ec3b 1c12 853a
00000320: d185 283c 9ac3 bdba 2820 51bc 33db 61bb
00000330: d1d5 053d 4dd4 663a 8848 07bc 0afe a43c
00000340: fd3f 0f3c 6da1 dc3b 32e3 843d 78a3 1fbb
00000350: c2ce 0d3c 1def 063c ee78 ce3a bb2e 0a3d
00000360: db7e 3a3c d2e0 ec3c 6e97 a3bb 1be9 f13a
00000370: 2204 bcb9 6cd0 94b9 2c85 94bb 4353 d1bb
00000380: d7d4 4b3c 2f3d 22bd e934 d03c d984 33ba
00000390: 93e5 cebc b5cb a1bc 8ba2 8ebc b880 02bd
000003a0: a359 c6bc f573 b73b 69ec 903c 7114 d6bb
000003b0: 0177 b03b af2a 2e3d 207f 9d3a 6fb0 d5bd
000003c0: b282 d9bc 49c7 93bc 218e d6bd 9bb7 d1bb
000003d0: 8460 ad3b 297e 033b 8f68 2bbd 6da7 95bd
000003e0: 4473 313b 00d1 8a3d 1668 bfba cb49 b23d
000003f0: 251a ffba f410 acba 84e6 24bc 8458 44bb
0.06735297 -0.030224226 0.031799067 -0.005164453 -0.019645242 0.0226994 -0.016788404 -0.015227434
-0.030927762 -0.010914297 0.058129255 0.0023750057 0.0704566 0.034680046 -0.0018589874 0.01575974
-0.035514347 -0.00010480641 0.07493206 0.0032462806 0.023455624 0.023538921 -0.02534724 -0.08801048
0.012279237 0.04898883 0.0021740599 0.009045989 -0.0010127181 -0.0015661448 -0.01964418 -0.0016065536
-0.352614 0.33380002 -0.23629771 -0.1524053 0.24694304 0.17770772 0.21040994 0.2309907
0.20955242 0.038730096 -0.11955536 -0.065053396 0.24351098 -0.26237366 -0.17124999 0.3220301
0.29729238 -0.12165749 0.104130246 -0.06275238 -0.2716766 -0.23875457 0.35311896 -0.25898382
0.15219949 -0.34360826 -0.1448969 -0.4505978 0.0005376225 0.0009472427 0.2858136 -0.08757212
-0.16708928 0.0933207 -0.12901068 -0.02538039 0.015224537 0.076194644 0.007379191 0.058699712
0.04680154 -0.0050380966 -0.16118586 -0.011652762 -0.060334027 -0.0021602039 -0.022409704 0.16720898
0.09797184 0.0013110373 0.020711988 0.0032837621 -0.07014609 -0.06962082 0.06650684 -0.017416805
-0.07332504 -0.10317834 0.017754659 -0.2067476 0.002029224 0.0008677003 0.07378651 -0.0125518255
-0.2322611 0.28783908 -0.18518227 -0.06732343 0.15015218 0.12008703 0.102542095 0.23474795
0.12152135 0.021290233 -0.130925 -0.0518463 0.1591505 -0.16035655 -0.07961503 0.22468224
0.17921057 0.040830377 0.024876317 -0.020534124 -0.14718144 -0.15046057 0.26211488 -0.1932722
0.07683245 -0.18370993 -0.096573114 -0.21440172 0.0011558898 0.0007950685 0.09639315 -0.09693582
-0.20725673 0.21822754 -0.14089404 -0.006162329 0.0912882 0.1500719 0.070819214 0.1829692
0.08219379 -0.014178234 -0.1675137 0.018162504 0.09171045 -0.05559051 -0.0043531843 0.06376818
0.06580013 0.022330603 -0.03954665 -0.013538566 -0.070738114 -0.07530117 0.119133696 -0.035560105
0.017584391 -0.16902378 -0.020363824 -0.0666131 0.0004001619 0.0009459142 0.0716615 -0.00015092222
-0.0092662955 0.00045102363 -0.003962261 -0.0022417016 0.0023766868 -0.0038480808 0.0011094441 -0.0045396104
0.0016057289 0.0054804757 -0.0054995436 -0.006314337 -0.006159778 -0.002078407 -0.0022975157 -0.0048190076
0.0012866884 -0.0058707925 -0.009053818 -0.0056021283 -0.0019898 -0.0021339902 0.0022364995 -0.015999198
0.0014347094 -0.011150837 -0.0028199134 4.1698393e-05 0.00029130917 -0.0002292907 0.0040202644 -0.0035545835
-0.02240413 0.008502088 0.0125118485 -0.008769292 -2.015142e-05 0.030806761 0.0072245533 0.0010152492
0.010285811 -0.001447785 -0.012764014 -0.0034462928 0.032674614 0.0008805439 -0.008257039 0.020140667
0.008743283 0.0067331106 0.064886466 -0.002435891 0.008655252 0.00823572 0.0015752593 0.033735972
0.011382784 0.028915796 -0.004992417 0.0018456312 -0.00035861233 -0.00028384046 -0.004532477 -0.0063880994
0.012440882 -0.03960913 0.025415855 -0.0006848104 -0.025255954 -0.019750455 -0.01741149 -0.031861037
-0.024212664 0.00559854 0.017690854 -0.0065331985 0.00538528 0.042521175 0.0012016036 -0.10434043
-0.026551578 -0.018039363 -0.10476328 -0.0064000613 0.0052910466 0.002006421 -0.04184776 -0.073073246
0.002707676 0.06778145 -0.0014603164 0.08705481 -0.0019462748 -0.0013127611 -0.010064725 -0.0029959986

in_layer0.layers.2.bias f4 [32]
00000000: 69bc a7bc 15f7 203d fffc 0d3e e1cd 0fbd
00000010: 2a26 b5bc d65e b33c 9cb4 72bd 38cc 1a3c
00000020: 93f9 90bd 2c6e 05bd 73b0 90bd 5f72 f63b
00000030: c6e5 093b f298 1dbe cf2a afbd 1582 59bc
00000040: 7e9d 1ebc 6652 50bd be93 efbc 6fe4 9d3d
00000050: 8340 31bd 5a2f 4ebd d5f1 153d d3a4 d0bc
00000060: 3580 183d 3bfb 0d3d c1f7 bd3c 2e6f 9dbd
00000070: fc5f 55bc 5427 71bd e190 e83d a210 f8bc
-0.020475583 0.039298136 0.13866042 -0.03510845 -0.022112925 0.021895807 -0.059254274 0.009448104
-0.070788525 -0.03257577 -0.07064905 0.0075209583 0.0021041497 -0.15390375 -0.08553087 -0.013275643
-0.009681104 -0.05085983 -0.029245254 0.07709586 -0.043274414 -0.050338127 0.036607582 -0.02546922
0.037231643 0.03466342 0.023189427 -0.076872215 -0.013023373 -0.058875397 0.113557585 -0.030281369

in_layer1.layers.0.weight f4 [32, 3]
00000000: 636f 0fba a9d3 ce3a 2820 c03b cecd d73e
00000010: 71ad 353f 13ce 19bf 4595 0ebe e9a2 a73e
00000020: 9dc0 da3d 0c9b 753e 9e20 b73d 352a dabe
00000030: a966 943e c21f f4be 15ed c03e 6b61 debd
00000040: 9fcf 7d3d 0d15 103f a6c0 dc3e c7e1 c9be
00000050: 8c0d d2be 4e63 67be 366e f0be be47 283f
00000060: 2028 973a 455c 48bb 9906 733a cbb1 223a
00000070: 68fd 64ba b8f9 94bb be77 c8be 72ea b2be
00000080: 700b a13e 50ec 1c3e fa9f 05bf 7218 463e
00000090: 72ee 693e 625b cd3d a754 6bbe 159b 173d
000000a0: 44bd 87be efd8 c13e 024e 0ebe ac30 233e
000000b0: 0a5e 283e 3ec0 03be f555 673e 5f00 583e
000000c0: e79f 46be 1bd6 9abe 7446 c33e e138 33be
000000d0: 66c7 383e c6ce 1c3e 6792 273e b77b b0be
000000e0: 58b7 febe fd73 693e 6b4a 8d3d ee0c 7dbe
000000f0: a01c 5aba e0c4 713a e98c d03a 06cf 2fbe
00000100: f6fd 363f 8663 29be 65f1 cd3d 4fea 0f3f
00000110: 76f8 97bd 5a1b e1be 9361 e53e db60 843d
00000120: 555c b53e 2138 3bbf 4021 c93e 7811 4e3e
00000130: 98a3 0abf 3c9c 7c3c df32 853e 7f68 76be
00000140: d023 9f3c 9d00 403e 6519 d5bd 05e2 153f
00000150: 3fac cf3e e906 213f 33ef 63be fc91 df3e
00000160: 12a0 1bbf 8584 e2be d2ad 3dbe ad0e c6be
00000170: 5c48 143f a704 5e3d 9bdb 933e cfe6 963d
-0.0005471615 0.0015779632 0.0058632083 0.42149204 0.70967776 -0.6008007 -0.1392413 0.32741478
0.10681269 0.23984927 0.08941768 -0.42610326 0.28984573 -0.4768048 0.3768088 -0.10858425
0.06196558 0.5628212 0.4311573 -0.39430067 -0.4102596 -0.22596475 -0.46959084 0.6573447
0.0011532344 -0.0030572575 0.00092706975 0.0006206303 -0.000873527 -0.0045463704 -0.39153856 -0.34944493
0.3145404 0.15324521 -0.5219723 0.19345263 0.22844866 0.100271955 -0.22981511 0.037013132
-0.26511586 0.3786082 -0.13896945 0.15936536 0.16442123 -0.12866303 0.22591384 0.21093892
-0.19396935 -0.30241475 0.3813969 -0.17502166 0.18044814 0.15313253 0.16364442 -0.34469387
-0.49749255 0.22798152 0.0689896 -0.24711964 -0.00083203055 0.0009222757 0.0015911135 -0.17168817
0.71481264 -0.16541871 0.10055808 0.562169 -0.07420437 -0.4396618 0.44801006 0.06463786
0.35422006 -0.7313252 0.3928318 0.20123851 -0.54155874 0.015418109 0.26015374 -0.240633
0.019426256 0.18750234 -0.10405234 0.58548003 0.405611 0.6290117 -0.22259216 0.43666065
-0.6079112 -0.4424173 -0.18523338 -0.38683072 0.5792291 0.054203656 0.28878483 0.07368242

in_layer1.layers.0.bias f4 [32]
00000000: a163 413a 613f c8bc 76cc 113d fbf3 d8bb
00000010: abf5 463e cb56 1ebe a65b 75be 72ca f93e
00000020: 7b7d 1239 1c45 bcba 663f ce3e d882 733e
00000030: cf1d 6dbe 999b cbbd 1a43 f8bb fad8 77bd
00000040: d55f 573e ca09 023d aef4 0d3e 77f9 9bbe
00000050: fcc5 983a 88a5 173e a69d d53d ccf5 ef3e
00000060: 3973 8f3e ab0f de3c e6a8 9cbe 0d32 c7be
00000070: 0ab6 e7be 5edd 98bd 5be4 eb3e b8c1 1fbe
0.00073772116 -0.024444284 0.03559538 -0.0066208816 0.19429652 -0.15462796 -0.23960742 0.48787266
0.0001397039 -0.0014363858 0.40282744 0.23780382 -0.23155902 -0.09941787 -0.0075763585 -0.06050966
0.21032651 0.031747617 0.13862869 -0.30463764 0.0011655684 0.14809239 0.1043046 0.46867216
0.28017595 0.02710708 -0.3059761 -0.38905373 -0.45256072 -0.074640974 0.4607266 -0.15601242

in_layer1.layers.2.weight f4 [32, 32]
00000000: 8b28 ef3a cd78 e3bd 3d30 d73c a00d 203d
00000010: d7fd 56bd ab87 d0bb 3d17 853d a3d4 20bb
00000020: acfc 2a3b bb7a c3ba fc5c 54bc 485e cfbc
00000030: f264 6c3c 4b03 aebc 0417 c33b 4ee1 1e3c
00000040: 614d a1bc 7945 1f3c bcc9 813c a9a9 563c
00000050: 61be a83a 67ea ce3c 4c50 8abb 05da 473d
00000060: 3366 903d 8e72 99bb 41e5 503a 22a3 b1bc
00000070: 4473 9bbc d2c0 7d3d ec0a 22ba f51f 8e3c
00000080: 410b 7abb 80ed c8be a8f2 073e 63aa 8dbe
00000090: 419f 983d 56a5 883e 0019 2dbe 0915 a93e
000000a0: 12ec cfbb 6280 6f3b 10cc 503e 0f66 323e
000000b0: 5a8f 33be cc17 a93d 204d 053e 76c7 163e
000000c0: de5e 683e 33c0 193e 7849 43be 5bfb d9bd
000000d0: 7d40 38bb bc46 8fbc 32c5 973c 1f14 f43d
000000e0: e954 2abd 39f6 c03d c79a 48bd 6043 433e
000000f0: 8803 abbe a9e6 febd e6e2 263e 663d e73c
00000100: 1424 603b cd9f 5bbd 9978 81bc d239 8d3c
00000110: b895 043e 2d38 19bd 0696 d43b 83da 4b3c
00000120: 20e3 e83b db33 4abb 343d 723b 8cd6 a0bc
00000130: ea7c 2b3c 27e6 ba3c 3acc 9abc ecb2 60bc
00000140: 0667 fa3c a0b6 69bc 3da5 443d b4ea b23b
00000150: 9edb 603b 3583 a9bd 5e2d 0cbb 2f47 53bd
00000160: a5ce 463d 0990 0ebd 439d 3eba 20e7 ba3c
00000170: 3fe3 69bc 3f95 8b3c 9d0c be3d f418 2a3b
00000180: 7ea8 ca3a 9629 22bc 2e5f 963b d7e7 343c
00000190: 9362 d53c 52bd 06bb 0e46 843c 76c2 973b
000001a0: 28dd 123c 67c8 02bb 35d8 87bb 90d8 bcb9
000001b0: c117 983b 72e8 8eba eba3 63bb 869d 29bb
000001c0: 7d23 89ba ed27 26bb 8004 f33b 0a81 1bba
000001d0: 1b45 7739 fe95 c63c 102b 153c c623 f53c
000001e0: a3bb 033d f355 d5bb 3f5c 78bb b7e4 24b9
000001f0: c3fb 8b3c 3191 93ba 5eb4 babb 6421 c83b
00000200: e320 b4ba 94f4 18bc 7b23 26bb 46c3 813b
00000210: 30aa afba 92ee 18bc 8c09 bb3b 7eda 97bb
00000220: ee27 0e3b c54c 903a ea88 19bc 4d2f 613c
00000230: 5a68 123c 2cda c6bb 5ecb d2bb 5b51 c8bb
00000240: 7fc7 12bc 23e0 bfbb de5b b23b 0198 1d3c
00000250: 07d3 13b9 a06d 79bb 7e21 21bc 30bd 21bb
00000260: d505 0e3c 7832 41bb 9d8f a83b ab78 c9bb
00000270: 0eb3 b13c 7e55 f13b a958 97bb a439 b9b9
00000280: 07c6 18bb a1f3 843e 02d3 bb3b fff8 b4bd
00000290: ea23 36be 8641 34bd 0c6d eebd 04fc 08be
000002a0: a5a7 42bb 80c0 263b df73 b2bd 7154 0abe
000002b0: 93ee 223d 228e 81bd fdc5 893c d6bf 5cbc
000002c0: d408 31bd 1708 2bbc c4e5 13bd 7142 48bc
000002d0: 1e4e 4cba c635 803d 0e98 6f3c a25d 243e
000002e0: e1cf 69be 117b 3ebe 3bcc 81bd e55e 98bd
000002f0: b80d 433e 9870 5cbe 95d0 d6bd 6e9b 90bc
00000300: a8c1 da3a b342 12bc aee2 12bb 1d51 673c
00000310: 48d2 e7ba 4196 133c e9df aabc 9063 3c3d
00000320: 9f33 f63a bdcf ffba 95aa 853b df30 15bc
00000330: c059 0d3c 3036 a03b 103f 01bc 100e c5bb
00000340: 0bb0 463c 55a9 dbbb 633c d739 8a2a 6a3b
00000350: 22bb 803a ccdb f53c 886e 3abd 12a0 123c
00000360: bee7 c7bc 04e6 57bc 87fe d73b b822 573c
00000370: 0eba c03c 4c1b 31bd 5197 333d 84ab 41bb
00000380: e5f5 c439 935e 2abe 2e04 fdbc cba2 a7bd
00000390: 5458 3e3e a670 28ba 5d15 23bc 4c41 873e
000003a0: 22a5 6f3b 809c 0dba 0b85 ef3d 9655 81bd
000003b0: 3101 9ebd 6b76 f23d 8b66 b0bc 2802 a13b
000003c0: 0589 4f3e ca81 7fbb dbe2 32bd d340 3dbd
000003d0: e01b 8e39 3fa8 80be 4f4d 3bbe 4050 06be
000003e0: 97bc cc3d 18b5 3d3d b6ab 84bb b9a3 68bc
000003f0: 7d6f debd 5ea7 bfbd 102f 913d 9c6b f5bc
0.0018246336 -0.11107025 0.026268119 0.039075494 -0.052488174 -0.006363829 0.06498573 -0.0024540804
0.0026090546 -0.0014913896 -0.012961622 -0.025313511 0.014428364 -0.021241805 0.0059536714 0.0096972715
-0.019690217 0.009721153 0.015843265 0.013101974 0.001287412 0.025258256 -0.004220998 0.048791904
0.07050743 -0.0046828454 0.0007968732 -0.021684233 -0.018975861 0.061951466 -0.0006181437 0.017349223
-0.003815368 -0.39243698 0.1327616 -0.27669057 0.0745225 0.2668864 -0.16904068 0.3302386
-0.0063452804 0.0036545028 0.20390344 0.17421745 -0.17535153 0.08256492 0.13017702 0.14724526
0.22692439 0.15014724 -0.19070995 -0.106436454 -0.002811461 -0.017489783 0.018526647 0.119179
-0.041584883 0.09421963 -0.048975732 0.1906867 -0.33401132 -0.12446339 0.16297492 0.02822752
0.0034201192 -0.053619195 -0.015804576 0.017239485 0.12947738 -0.03740709 0.0064876107 0.012442234
0.0071071535 -0.0030853662 0.003696275 -0.019633554 0.010466794 0.022814823 -0.018896211 -0.013714533
0.030566704 -0.014264733 0.048009146 0.0054601077 0.003431059 -0.08276979 -0.0021389346 -0.051581558
0.048536915 -0.03480533 -0.00072713586 0.022815287 -0.014275371 0.01703894 0.092797495 0.0025954815
0.0015461592 -0.00989761 0.004588983 0.011041603 0.02604798 -0.002055962 0.016146686 0.004631336
0.008963861 -0.0019955875 -0.004145647 -0.00036019506 0.0046415036 -0.0010903014 -0.0034735154 -0.0025881245
-0.0010462847 -0.0025353387 0.007416308 -0.0005932009 0.000235815 0.024241444 0.009104505 0.029924285
0.032161366 -0.00651049 -0.003789678 -0.00015725462 0.017087823 -0.001125848 -0.005697771 0.006107496
-0.0013742711 -0.009335656 -0.0025350738 0.003960046 -0.001340216 -0.009334223 0.005707925 -0.0046342006
0.002169128 0.0011009207 -0.009371022 0.013744188 0.008936012 -0.0060684886 -0.0064329347 -0.006113214
-0.008958696 -0.0058555766 0.0054430803 0.00961876 -0.00014097626 -0.0038059726 -0.009834645 -0.0024679415
0.008668383 -0.0029479545 0.005144073 -0.006148418 0.021691825 0.007364928 -0.0046187234 -0.00035328895
-0.0023311393 0.25967124 0.005731941 -0.08836555 -0.17787138 -0.0440078 -0.11641893 -0.13377386
-0.0029701975 0.0025444329 -0.08713507 -0.13508774 0.039778303 -0.06325938 0.016818041 -0.013473472
-0.04322131 -0.0104389405 -0.036107793 -0.012222872 -0.0007793623 0.062602565 0.014623655 0.16051343
-0.22833206 -0.18601634 -0.06337782 -0.07439975 0.19048202 -0.21527326 -0.104890026 -0.01765224
0.0016689794 -0.008927035 -0.0022412944 0.01411846 -0.001768657 0.009007991 -0.020858722 0.045993388
0.0018783695 -0.0019516867 0.004079173 -0.00910589 0.008627355 0.004889272 -0.00788857 -0.0060136393
0.012126933 -0.0067035356 0.00041052987 0.0035730922 0.0009821395 0.030012034 -0.045515567 0.008949297
-0.024402495 -0.013177399 0.0065916213 0.013130836 0.023526218 -0.043238923 0.04384548 -0.0029551694
0.0003756724 -0.1663764 -0.030885782 -0.08185347 0.18588382 -0.00064254773 -0.009953824 0.26417005
0.0036566933 -0.00054020435 0.11695298 -0.06315152 -0.07715071 0.11838993 -0.021533271 0.004913587
0.20267113 -0.0038987272 -0.043673377 -0.0462044 0.0002710512 -0.25128362 -0.1829121 -0.1311655
0.09996908 0.046315283 -0.00404879 -0.014199191 -0.108611085 -0.09358095 0.070890546 -0.029958539

in_layer1.layers.2.bias f4 [32]
00000000: 85c8 ee3c 0e19 373e 8ce8 8cbd 7789 72bc
00000010: c99d 393b d2df e93c 54f2 443c 98c3 f73d
00000020: 4f3b 12bd 78c1 663c 5857 92ba 5151 e63b
00000030: 004a 193c 08d7 6ebd 11b3 d5bc 193e 21bc
00000040: 7b78 9a3c 951a 02be a7f0 61bd c502 4d3c
00000050: 96e7 603d 035c 5f3c dd0b 8d3d 7669 093d
00000060: 4a07 38bd 61df a1bb 5792 f33d 613e 27be
00000070: 02fa f8bd 85fc 563d 1ea2 233d 6e5a d53c
0.02914835 0.17880651 -0.06880292 -0.014803282 0.0028322807 0.028549109 0.012020666 0.120978534
-0.035701092 0.0140842125 -0.0011164946 0.0070287366 0.009356022 -0.05831054 -0.026086362 -0.009841465
0.018856278 -0.12705453 -0.055161145 0.012512867 0.054908358 0.013632777 0.06887028 0.03354784
-0.044928826 -0.004939959 0.118931465 -0.1633239 -0.1215706 0.052486915 0.03994953 0.026044097

in_layer2.layers.0.weight f4 [32, 3]
00000000: dc41 ec3e 7b9f 90be 5867 ebbe 40db 8ebe
00000010: 6400 1f3f 20a8 70be a24a 64be 882e cd3e
00000020: be53 febd c930 e0be 4828 143f cd3d 293d
00000030: 5051 e13e 6111 093d 2174 59be daba 85be
00000040: 6e5c dc3e d29b 84be 70c1 623e b197 d3be
00000050: 1dcf a2be 7e48 393e c095 35bc fa8c 00be
00000060: 001a 8fbe 6d1b 1d3f ed4a 74be 4d7e 083b
00000070: e2cc 64ba 1e92 46bb ddad bfbe f782 04bf
00000080: f0f0 2b3f b1c2 74bd e2b4 1ebe 8674 c23e
00000090: b14f 1ebe 6635 f03d 349c 9abe af77 1439
000000a0: cb59 01bb af99 11bb 721c 00bc 7ec4 943c
000000b0: 8e87 323c a1e3 80be c717 ec3e 5564 1abf
000000c0: 27f5 43be a1a9 d43e 194a 96be 92e7 493b
000000d0: 423f 06ba 22e2 52b9 2bf4 8fbb fdd5 8e3c
000000e0: 652a 74bb 9658 9cbb fff6 aa3b 138f 5c39
000000f0: 4453 933a f3ed bd3b fea7 963b 1c6c 5c3d
00000100: e19b 83bd 926f ca3e efdc 903d d346 00be
00000110: 0c1d a53e e11c 053c 671d f3bb 9445 a4bb
00000120: c6e0 543d bdb7 a83e cd5c 10be 8f6b b4be
00000130: 905d c1be f03f 2b3f 25ae d739 6ea5 ecba
00000140: 4237 8cba bbbf 7cbe 4a9f 3a3d ee70 413e
00000150: 6c82 84be ce32 95be 305e 103f ba22 0cbc
00000160: acca 1ebc aee0 18bc a45e b73e 2865 31bd
00000170: abe0 5bbd a04d dfbd 50a4 053f 4ae6 91be
0.46143997 -0.28246674 -0.45977283 -0.2790165 0.6210997 -0.23501635 -0.22294095 0.40074563
-0.12418316 -0.4378722 0.57873964 0.041318703 0.4400735 0.03346384 -0.21235706 -0.2611912
0.43039268 -0.2590013 0.22144103 -0.4132667 -0.3179864 0.1809406 -0.011083066 -0.12553778
-0.27949524 0.61369973 -0.23856707 0.0020827234 -0.00087280397 -0.0030299495 -0.37437335 -0.51762336
0.67164516 -0.059755985 -0.15498689 0.37979525 -0.15460087 0.11728935 -0.301973 0.00014158965
-0.0019737359 -0.0022216847 -0.007819282 0.018160101 0.010896577 -0.25173667 0.4611189 -0.60309345
-0.19136487 0.41535667 -0.29353407 0.0030808193 -0.00051211205 -0.00020111402 -0.0043931208 0.017436022
-0.0037256714 -0.0047713025 0.0052174325 0.00021034134 0.0011240025 0.005796188 0.004597663 0.05381404
-0.06426216 0.39538246 0.0707339 -0.12527017 0.32248724 0.008124561 -0.0074192765 -0.005013177
0.051972173 0.3295268 -0.140979 -0.3523831 -0.37766695 0.66894436 0.00041137743 -0.0018054673
-0.001069762 -0.24682514 0.045562066 0.18890736 -0.25880754 -0.29140323 0.5639372 -0.008553201
-0.009691875 -0.009330912 0.35814393 -0.04330936 -0.053681057 -0.10903478 0.52203846 -0.2849601

in_layer2.layers.0.bias f4 [32]
00000000: d1b5 823e 99bb 013e 3fce c53d c062 aa3d
00000010: 8f03 aabe 5b16 c43e 4b68 9d3e df9e 5fbe
00000020: cea8 44be a1fe 22ba b611 c13e 0b1c 69be
00000030: 784f b53e 44c9 613b 4b37 61bc f027 983e
00000040: 123e 03be dac9 50bb 7fd3 d5ba e580 283b
00000050: 77d1 a33a e4f4 c6be 3892 aabd b8d8 4fba
00000060: 5dc0 8cbe 6f98 5b3d 2941 63b9 08fa 883d
00000070: 8e3b 8b3e e174 fb3c 045a d7be de92 79bc
0.2552934 0.12669219 0.09658479 0.08319616 -0.3320584 0.38298306 0.30743632 -0.21837948
-0.19205019 -0.0006217752 0.37708825 -0.22764604 0.35412192 0.003445224 -0.013746093 0.2971797
-0.12816647 -0.0031858594 -0.0016313641 0.0025711593 0.0012498338 -0.38858712 -0.0832867 -0.0007928717
-0.27490512 0.05361217 -0.00021672681 0.06688315 0.27193874 0.03069538 -0.42060864 -0.01523277

in_layer2.layers.2.weight f4 [32, 32]
00000000: 148b 463b a1e2 c43d 4af6 dcbc 49ea d33c
00000010: c5e8 473c 0c67 6e3c ea72 43bd 7f86 f43c
00000020: 71cf b03c 73ac ddba b48b 103d 7077 973c
00000030: b432 c3bc 7769 4ab9 1aeb 8f3b 9580 8b3d
00000040: 4a80 143d c817 34bb 8d64 0a39 e1ce f13a
00000050: efe4 253c 6847 fabc c3f7 81bd 6738 bebb
00000060: 1da1 85bc ce40 7b3d 8fa5 88bb 7772 23bc
00000070: 4490 243c 4f2d 98ba 796f 073d 0a2c b4bc
00000080: cdef 87bc acdc 9fbb fe69 aeba 4d74 5cbc
00000090: 0793 d6bb fbbc a83a a9af c5bb 8be6 92bb
000000a0: 1786 05bc cf2e 25ba ea82 22bc d098 36bb
000000b0: 7ed3 803b 9333 4aba 2d19 2e3b d29d 0f3b
000000c0: cc38 b0ba 42bc a7ba dd3a 5c3b 3ba7 0c3b
000000d0: 29f5 443b 640b 1ebb adc3 6dbb 3ec1 30bb
000000e0: f032 993b 9d75 d2bb 04a6 a9ba 32fe d9ba
000000f0: 54ca 16bc 7bbc ec39 ff6f 03bc 9ee6 713b
00000100: 0cc9 01be c046 263e fdfd 373e 4567 183e
00000110: 04e7 cbbb 565f 453e 4c8e adbd d685 a23b
00000120: f955 4a3e c094 0a3b 0c04 bfbc 1cf5 d0bc
00000130: 14a5 bc3d 453d 1d3b c67a 84ba 2949 7b3e
00000140: 2631 d03d 8a6e 39bb 0c01 91ba 088b 4fbb
00000150: bfe5 3b3b f072 a1bc 8c50 39bd a915 e63a
00000160: 939d 253d d7c3 67bb 6646 3fba 6295 fe3a
00000170: 08cb 73bd 24cb 93ba ad4d 53bc f1da 503e
00000180: 2551 29bd 240f 5f3b d6ea 943b c8ee 67bb
00000190: 9528 173d 4d24 003c 3816 bf3b d501 6dba
000001a0: 7e80 9fba bf14 2abb 14d1 6cbc 28c9 aabb
000001b0: 2abc 483c 4d55 95ba fa35 953b e39b 1c3c
000001c0: e4c5 593b af78 7ebb 670f 973b 0ef3 2c3b
000001d0: 3237 0f3c 54a1 ebbb 6e91 5dbc f20e 4abb
000001e0: 4697 573c 675f 00bc 25b9 4fbb f0f5 92b9
000001f0: a212 2dbc e9ae e3b8 4452 9d3b 7f5a 2d3c
00000200: aac8 b2bd 0413 f9bd 30af b63b 417d e9bc
00000210: cdba 85bd 8fe7 59bd 26f1 80bd f083 57bc
00000220: a368 b0bd 0e8d 3e3b 43e6 3a3e 431e 103e
00000230: 9eae ffbc 116a e83a 63bb 313b 981a 82bd
00000240: 0320 13bd ef6c ff3a 2d2f 013b 62cf 5439
00000250: 7234 6dbb 1ff4 dd3d 6c19 fa3c 9e5c 523b
00000260: a22e 16bc 169c 723e da0d cf3a fd4d 3e3d
00000270: a9a7 913e 1c99 e3b9 ec40 673c 475a 96bd
00000280: 84ff a43b e149 50bb 1a08 a1bb e866 133b
00000290: 9afb 91bb bccb aabb e621 983c f624 eb3b
000002a0: 56a3 c73a fee7 503a f1b0 443c b881 a53b
000002b0: f2a7 c6bb 4d92 d438 8fd2 f6ba c2be 88bb
000002c0: 285f a5b9 329a 653b 7fd8 7ebb d2d3 22bb
000002d0: ab9c 14bc e416 f53b 9ce1 88bb 80e9 833a
000002e0: f1f9 cbbb 4b0f 393c 3888 2d3b 1823 a6b8
000002f0: ab48 273c bf03 7eb9 d1d2 de3b c607 b0bb
00000300: e402 0dbc db1b 44bd 08c6 963b 0d1e 12bd
00000310: 6490 12bd 09fe fbbc 8aab 8b3c 0996 0f3d
00000320: 7384 c33c 911b 5fbb 4b39 563e 444d b13d
00000330: d033 9a3c baf9 d9ba c522 e8b9 d816 07bb
00000340: e363 b3bc e26d 993b b5cb 6c3b 0213 c93a
00000350: 5d05 71bb 5d32 6b3d 5e6e b1bd 6046 4e3b
00000360: af32 08bd fde9 5a3e 9e22 f73a f60a 50bd
00000370: 5e00 263d 3be1 733a 4abe d63b d20f 1dbd
00000380: 16c1 cabc 6771 4eba 5069 363b c540 11bc
00000390: 329e da3a 1482 703b b381 c2bb c905 2dba
000003a0: 62aa 49bb d61a abba ff06 8cbc 4af8 e3bb
000003b0: 69ba 313c 9268 89ba 22f8 633b 4d2d f53b
000003c0: 3f00 563b 0e32 4abb fe03 9e3b dd27 363b
000003d0: 0f48 eb3b aae8 10bc 2b97 74bc 6be7 30bb
000003e0: feac 443c 3336 22bc fab8 2cbb 3a80 18bb
000003f0: 39d1 87bc 4bfa 1d3a d16b f3ba 057d 013c
0.00302953 0.096135385 -0.026972909 0.025868552 0.012201493 0.0145509355 -0.047717012 0.029849289
0.02158329 -0.0016912356 0.03528948 0.01848957 -0.023827888 -0.0001930351 0.00439204 0.068116345
0.03625516 -0.0027479995 0.00013198164 0.0018448496 0.010125383 -0.030551627 -0.06346085 -0.0058050635
-0.016312176 0.0613411 -0.0041701267 -0.009976021 0.010044161 -0.0011610183 0.033065293 -0.021993656
-0.016593838 -0.004878601 -0.0013306735 -0.013455463 -0.0065482887 0.0012873703 -0.006032903 -0.0044830493
-0.008149645 -0.00063012255 -0.009918908 -0.002786208 0.003931462 -0.00077133736 0.00265653 0.0021914137
-0.0013444661 -0.0012797194 0.0033604421 0.0021461982 0.0030053353 -0.0024115676 -0.0036279962 -0.002697065
0.0046752617 -0.006422712 -0.0012943153 -0.0016631542 -0.009203512 0.00045153857 -0.008022307 0.003691114
-0.1267435 0.16237926 0.17967983 0.14883144 -0.0062226076 0.19274649 -0.084744066 0.004959802
0.19759358 0.002114579 -0.02331736 -0.025507502 0.09211174 0.0023992818 -0.001010739 0.24539627
0.10165624 -0.0028294646 -0.0011062934 -0.0031668562 0.0028670875 -0.019708127 -0.04524283 0.0017554063
0.040433478 -0.0035364532 -0.0007296562 0.0019423182 -0.059519798 -0.0011275751 -0.012896937 0.2039602
-0.04133715 0.0034036124 0.004544596 -0.0035390127 0.036903936 0.007821155 0.005831506 -0.00090411055
-0.0012169031 -0.0025952307 -0.014454145 -0.005211968 0.012251893 -0.001139322 0.0045535536 0.009558651
0.0033229524 -0.0038829257 0.0046099904 0.002638999 0.008741187 -0.0071908627 -0.013523443 -0.0030831662
0.013158625 -0.007835246 -0.0031696048 -0.00028030528 -0.010563524 -0.00010856783 0.0048010666 0.010580658
-0.0872968 -0.1216183 0.005575083 -0.028502109 -0.0652977 -0.053199347 -0.062959954 -0.013154015
-0.08613708 0.0029075774 0.182519 0.14074044 -0.031211194 0.0017731806 0.0027119748 -0.063527286
-0.0359192 0.0019487421 0.0019711957 0.00020295152 -0.003619459 0.10837578 0.0305297 0.0032098661
-0.009166392 0.23692355 0.0015796975 0.046461094 0.28448227 -0.0004341089 0.0141146 -0.07341438
0.0050353426 -0.0031782317 -0.004914296 0.0022491757 -0.004455042 -0.0052122753 0.018570852 0.007176037
0.0015231173 0.000796914 0.012005077 0.005050864 -0.006062501 0.000101361984 -0.0018831062 -0.0041731307
-0.0003154215 0.0035034535 -0.0038886366 -0.0024845493 -0.009070556 0.0074795354 -0.0041772854 0.0010064095
-0.0062248637 0.01129515 0.0026478898 -7.9220335e-05 0.0102101965 -0.00024224723 0.0068000336 -0.0053720204
-0.008606646 -0.047878128 0.004601244 -0.03567319 -0.035782233 -0.030760782 0.01704957 0.035055194
0.023866868 -0.003404353 0.20920293 0.086573154 0.018823534 -0.001663021 -0.00044276394 -0.0020612981
-0.021898216 0.0046822885 0.003613216 0.0015340748 -0.0036776878 0.057421077 -0.08663629 0.0031475052
-0.03325146 0.21378322 0.0018854921 -0.050791703 0.040527694 0.00093032763 0.006553446 -0.038345166
-0.024750274 -0.00078751746 0.0027833767 -0.00886554 0.0016679226 0.0036698626 -0.0059358715 -0.00066002883
-0.0030771722 -0.0013054262 -0.01709318 -0.0069570886 0.010847666 -0.0010483435 0.003478535 0.007482207
0.0032653955 -0.0030852589 0.0048222532 0.0027794756 0.007180221 -0.008844534 -0.014928619 -0.0026993405
0.012004135 -0.009900617 -0.0026355372 -0.0023269788 -0.016579257 0.0006026371 -0.001857156 0.007903342

in_layer2.layers.2.bias f4 [32]
00000000: c777 993b c55d 553c 52f1 adbd 04b2 ff3b
00000010: a059 62bc 9dc1 e7bb 3427 2ebc eb5f 523c
00000020: d9fe cabb d572 fdbb a2ba e8bc 349d 9ebc
00000030: 710c 28bd 4040 333d 0e52 f9bb c61a 9cbc
00000040: aeca febc 5bf4 2b3c 886f 76bd 6ee0 80bc
00000050: b1b6 a7bb cfd3 ac3c 5c53 c8bc 6ed5 f4bc
00000060: 88cf 4abc 27a0 ac3d ee02 e53a ba69 1b3d
00000070: b107 af3b 5487 30bc d790 a93d 7e8b 1a3c
0.004683468 0.013022845 -0.08493294 0.0078032035 -0.013815314 -0.007072641 -0.010629464 0.012840251
-0.006194931 -0.0077346363 -0.028409306 -0.01936207 -0.04102749 0.043762445 -0.0076086586 -0.019055735
-0.031102505 0.010495271 -0.06016496 -0.015732016 -0.005118214 0.021097092 -0.024453811 -0.029886927
-0.012378581 0.08428984 0.0017472187 0.037942626 0.005341493 -0.010774452 0.08279579 0.009432672

sat_layers.layer0_1.0.agg_weight f4 [3]
00000000: 59bd a6bf 8984 be3c 56a7 b53e
-1.3026534 0.023256557 0.3547923

sat_layers.layer0_1.0.input_linear_layer1.weight f4 [32, 32]
00000000: 311d 8fae 2fdb 9430 df70 3f30 b472 4830
00000010: de25 ff2f b625 8dad cff2 81ad b4e4 6aaf
00000020: cb09 53ad 40b8 612f c4d5 ca2c 4ce2 1dae
00000030: 7c37 bfad 8746 b4ae 500d 242f e681 faae
00000040: 09d1 4caf f8b3 22af ff3e eeae a353 a5ae
00000050: 588e b32d a497 d4ae 8655 752f c679 6daf
00000060: 92af 8230 3078 3aaf 7dc5 45af 5617 b4ae
00000070: ee48 5cae 5da5 b22e 62e9 3430 a85d b92d
00000080: 15cb 1330 8171 b3b2 4e1e 2b31 1d05 97b2
00000090: b3e7 0bb2 dd50 93ae ae37 92af 5e97 31b1
000000a0: 02d6 9d30 5850 4cb2 0ab2 982e 8a44 5cb0
000000b0: b91c 2b31 fc17 d1b2 a41f eb30 26e0 03b1
000000c0: 76b1 d3b0 628c 2e30 b164 bdb0 ce81 79b0
000000d0: e564 7ab0 138a 99b1 8729 e5b1 4290 49b2
000000e0: 33e2 beb2 6942 cbb2 13b7 d0b2 4acf 0fb1
000000f0: 0408 3ab0 5047 aaae ba1c a8b2 4600 77b0
00000100: 1f86 55b0 e59f 4db2 e68c b530 cfe6 dfb1
00000110: 71c4 4fb1 ad31 242f ed20 40ae c5f8 cdb0
00000120: 1ec2 fcaf 07d6 91b1 9e91 0eae 5b7f 55b0
00000130: 96ee ab2f 7b69 1db2 da48 70b0 8e37 a1b0
00000140: efd0 e2b0 b0be 68b0 dbfb 49b0 177d 4eb0
00000150: e133 9cb0 34b4 41b0 18f3 46b1 ac62 a9b1
00000160: bf2b 37b2 53e1 30b2 c5c7 3ab2 7b6b 51b0
00000170: 8538 1fb0 4bca 5830 39ee f3b1 6f91 1930
00000180: cf85 8cb1 75df 7933 d845 3533 4bcb 3133
00000190: ac30 e832 34b9 4db1 be17 a4b0 f6e6 a7b1
000001a0: 717c 2ab0 4ca8 6232 d4f0 e32f 8a7b 0fb1
000001b0: 800c eaad 58d1 9eb0 0899 9030 033e b6b1
000001c0: 4e82 66b2 c09b 4b30 423a ecb1 cbe5 a1b1
000001d0: 5041 3030 b243 76b1 3e1e 6d32 8e1e 29b2
000001e0: a372 5f33 f53b b0b1 807c bdb1 a6df 0db1
000001f0: 9f35 69b1 c6bc 6831 e8ab 2233 8131 b830
00000200: 30fb 34b6 c26a 51b7 2288 c136 8f85 2bb7
00000210: 998b b8b6 70c3 71b2 ae9c 99b4 7549 92b6
00000220: df3c 36b5 ac0a fdb6 8d15 b2b3 f8f7 2cb5
00000230: 4461 3933 ab9b 78b7 c806 b3b5 af6f 01b6
00000240: 3313 6cb6 f8a9 30b6 12d9 4ab6 72b4 73b5
00000250: 75f3 4cb6 ce21 c8b5 e114 b5b6 b3ea 0cb7
00000260: a41b 61b7 75ef 6eb7 78c1 76b7 37a7 0db6
00000270: 06b4 aab5 efc9 a735 4a93 41b7 10a4 9d35
00000280: bbc4 52af 4675 0db1 f106 4b30 aa4c f5b0
00000290: 1a91 7ab0 00b9 e1aa 4001 18ae 213a 0ab0
000002a0: 47b5 e7ae 8c5e bcb0 aeb4 02ae 8c06 3baf
000002b0: 32aa f12e 84b6 40b1 7820 47af ade7 f5af
000002c0: f84e ebaf 7c18 abaf 4b12 0fb0 f356 0daf
000002d0: 574e c5af ba6d 49af eb74 7bb0 4cf9 d4b0
000002e0: 2a2b 1bb1 a244 3eb1 04e7 43b1 940a 93af
000002f0: 0635 46af 1a1a d72f 815a 0bb1 8171 7c2e
00000300: 1897 47b7 a6f5 0cba 2e18 e4b9 342e 00ba
00000310: 33e3 e0b9 eb03 f9b7 2dcc d038 20c3 2c3a
00000320: bd97 8d38 f5b9 d7b9 72b1 3038 e261 c339
00000330: 2d1b a6b8 812e afb9 9c8f f738 1a00 8539
00000340: 0e77 6eb9 ab7b 2139 da17 5339 f5ad 4539
00000350: f51e 91b9 e85f 8e39 f474 cfb9 eb93 d0b9
00000360: ecb3 04ba abad a9b9 a86a 9fb9 00c9 ee34
00000370: c21d da39 f085 1439 2cf5 f5b9 c773 35b8
00000380: a895 e9b7 2ab9 b438 178c c639 0460 d738
00000390: b7ad 4c39 8086 c733 f0f5 e535 92f6 7b37
000003a0: e464 f6b7 282b f738 838c 9d37 fd02 dab7
000003b0: ccf9 be38 dcab 4bb8 56aa cdb8 201c 8ab9
000003c0: d5c1 db38 2508 e7b8 c197 c9b8 5e0a b8b7
000003d0: 08ed 4639 cc10 8038 cb41 3f39 6b26 9637
000003e0: 909b 9c38 82bd 16b9 ca56 16b9 50d8 12b9
000003f0: 1852 4b38 6459 7639 acb1 9c38 fef2 0837
-6.5080726e-11 1.0830713e-09 6.9645795e-10 7.292258e-10 4.6411136e-10 -1.6046591e-11 -1.477343e-11 -2.1363428e-10
-1.1996136e-11 2.052909e-10 5.764918e-12 -3.589866e-11 -2.1738826e-11 -8.1979805e-11 1.4920443e-10 -1.13917584e-10
-1.8627956e-10 -1.4797752e-10 -1.0834177e-10 -7.518188e-11 2.0413157e-11 -9.6675806e-11 2.2313004e-10 -2.1598287e-10
9.508645e-10 -1.69593e-10 -1.7987208e-10 -8.1895976e-11 -5.0086983e-11 8.123877e-11 6.5815275e-10 2.1073657e-11
5.3766885e-10 -2.0889958e-08 2.4901001e-09 -1.7581039e-08 -8.143547e-09 -6.69915e-11 -2.6596808e-10 -2.5842932e-09
1.1484078e-09 -1.1892631e-08 6.943786e-11 -8.0132934e-10 2.4900102e-09 -2.4341709e-08 1.7107493e-09 -1.9190423e-09
-1.5402708e-09 6.3500327e-10 -1.3780178e-09 -9.0770136e-10 -9.109285e-10 -4.4685833e-09 -6.6694983e-09 -1.173254e-08
-2.2221775e-08 -2.366251e-08 -2.429764e-08 -2.092707e-09 -6.7677797e-10 -7.7433726e-11 -1.9570837e-08 -8.9858465e-10
-7.7679546e-10 -1.1968926e-08 1.3209529e-09 -6.516394e-09 -3.0234129e-09 1.4933361e-10 -4.368499e-11 -1.4986418e-09
-4.5976462e-10 -4.2443875e-09 -3.2416396e-11 -7.766993e-10 3.1274244e-10 -9.162586e-09 -8.741502e-10 -1.1730081e-09
-1.6503047e-09 -8.467209e-10 -7.348128e-10 -7.5120127e-10 -1.1365239e-09 -7.0469075e-10 -2.8950975e-09 -4.929765e-09
-1.0661949e-08 -1.0295781e-08 -1.0872047e-08 -7.6186496e-10 -5.792418e-10 7.886782e-10 -7.0993136e-09 5.586775e-10
-4.0897485e-09 5.8178063e-08 4.220587e-08 4.1395918e-08 2.7030488e-08 -2.9936702e-09 -1.1939318e-09 -4.886597e-09
-6.202248e-10 1.3193198e-08 4.1462178e-10 -2.0879463e-09 -2.6608271e-11 -1.1555512e-09 1.0520873e-09 -5.303947e-09
-1.341739e-08 7.4072304e-10 -6.875127e-09 -4.711841e-09 6.412124e-10 -3.5836192e-09 1.3802092e-08 -9.844042e-09
5.2025495e-08 -5.1290905e-09 -5.514778e-09 -2.064533e-09 -3.3936443e-09 3.3867749e-09 3.7874912e-08 1.3401832e-09
-2.69683e-06 -1.2482227e-05 5.767696e-06 -1.0223491e-05 -5.4998786e-06 -1.4072484e-08 -2.861247e-07 -4.3596906e-06
-6.788886e-07 -7.54123e-06 -8.292691e-08 -6.4435835e-07 4.316213e-08 -1.4818196e-05 -1.3338513e-06 -1.9287506e-06
-3.5177916e-06 -2.6324979e-06 -3.0226697e-06 -9.0787137e-07 -3.054008e-06 -1.4911e-06 -5.396651e-06 -8.399295e-06
-1.3417481e-05 -1.4241658e-05 -1.4707788e-05 -2.110797e-06 -1.2718381e-06 1.250124e-06 -1.153799e-05 1.174516e-06
-1.9169281e-10 -2.0584863e-09 7.3860834e-10 -1.7847885e-09 -9.115567e-10 -4.0096398e-13 -3.456191e-11 -5.0286714e-10
-1.0536865e-10 -1.3705672e-09 -2.9719054e-11 -1.7009877e-10 1.0989644e-10 -2.8043425e-09 -1.811048e-10 -4.4729856e-10
-4.2802362e-10 -3.1122116e-10 -5.2049093e-10 -1.2854766e-10 -3.5889755e-10 -1.8319826e-10 -9.147942e-10 -1.5495885e-09
-2.2580005e-09 -2.7687652e-09 -2.8507552e-09 -2.674666e-10 -1.8026833e-10 3.9126818e-10 -2.0278608e-09 5.7398978e-11
-1.1896504e-05 -0.00053771806 -0.00043505564 -0.00048896973 -0.00042893886 -2.9684938e-05 9.9562436e-05 0.0006590355
6.7516674e-05 -0.00041146544 4.212693e-05 0.00037266227 -7.920559e-05 -0.0003341325 0.00011804627 0.00025367812
-0.000227418 0.00015400226 0.00020131413 0.00018852188 -0.0002767962 0.00027155806 -0.00039569254 -0.0003978306
-0.0005062211 -0.00032363585 -0.00030406308 4.44772e-07 0.00041602371 0.00014164275 -0.0004691271 -4.326159e-05
-2.7845454e-05 8.617558e-05 0.00037869878 0.00010269883 0.0001951967 9.291125e-08 1.7133407e-06 1.5018175e-05
-2.9372466e-05 0.00011785916 1.878129e-05 -2.5989017e-05 9.106434e-05 -4.8559028e-05 -9.806889e-05 -0.00026342366
0.00010478838 -0.000110164554 -9.612693e-05 -2.1939337e-05 0.00018971052 6.106644e-05 0.00018239689 1.7899283e-05
7.4676354e-05 -0.00014375712 -0.00014337446 -0.00014004228 4.8475427e-05 0.00023493689 7.4717536e-05 8.162808e-06

sat_layers.layer0_1.0.input_linear_layer1.bias f4 [32]
00000000: d644 69af 1e21 21b3 e7d2 b1b2 55d8 38b2
00000010: de15 83b8 1cc7 e8b1 b6c0 2dba 1c00 44bb
00000020: 02bc 3fb5 b8e5 e838 626b 70b1 b322 d837
00000030: cf24 69bb 287e 8338 fed9 f9b5 b26d f9ad
00000040: 05fb b036 b43b b2b4 e5bb 30b4 bae4 72ba
00000050: c65b afbb 8154 b8b7 304f 6436 7966 21b9
00000060: 0316 1cb7 6a28 38b7 4904 3bba 8af5 adb5
00000070: d1f2 8bb0 6313 cdb1 c595 c439 953a 013e
-2.1215682e-10 -3.7515854e-08 -2.070142e-08 -1.0759398e-08 -6.25064e-05 -6.774725e-09 -0.00066281424 -0.0029907292
-7.142663e-07 0.000111054105 -3.4985637e-09 2.5765365e-05 -0.0035574918 6.270065e-05 -1.861539e-06 -2.8356737e-11
5.2744313e-06 -3.3198523e-07 -1.6459633e-07 -0.00092656503 -0.0053515164 -2.197386e-05 3.402074e-06 -0.0001539233
-9.30345e-06 -1.0976664e-05 -0.00071341224 -1.2960966e-06 -1.0182594e-09 -5.9684893e-09 0.0003749562 0.12620004

sat_layers.layer0_1.0.input_linear_layer2.weight f4 [32, 32]
00000000: 5f62 353c 5093 213e 0dec 3ebc 5a04 0b3e
00000010: 3ad9 393d 0ed4 d2bb 0348 60ba 92de 5e3c
00000020: 0d1b 3c3a f979 0c3b 822f 28bc 62cb b93a
00000030: 77af 023b fcb7 1dbc 6a68 58bd fc26 923b
00000040: 01ae d33c 0444 133c 5a52 9d3c 9883 dc3b
00000050: b91a 4ebc 0a90 503c 789a 8c3d 965c 3b3c
00000060: a02e 143e 5b48 c63c 8510 56bd b45f 6338
00000070: 5736 fb3b e558 11bc 96f6 be3a 58d8 b0bb
00000080: 19ea 3bbb 1ba8 3e3d 9601 ebbc 3048 673c
00000090: 91f9 37bc 61d1 bcbb 2eba 1aba 1f23 773c
000000a0: 7e7d 973b 8488 4c3b 852f 5cba ff0f c0ba
000000b0: 9870 5f3b afc1 8dbd 36e4 cc3a cae6 ca3b
000000c0: 0039 b9bc 3c37 5d3c ca5c 863c 1d29 bc3a
000000d0: fa14 2abd f383 4aba 0232 86bd 3664 f9bc
000000e0: 7117 41bd 2bff b8bd e7d9 0abd 894c 01bb
000000f0: 5e5a b73a 19a0 3bbc 4fe5 4dbd 4d59 3bbc
00000100: b4ad 3c39 28c8 393a 5a36 153a 89e8 14b9
00000110: 127b 8bba 9723 58ba c409 f3b8 a2a4 013a
00000120: 289b fe39 c154 babb 0c33 e737 b698 4c39
00000130: 8a4f ac3a be9e d5bb 31e1 70b9 7a06 633a
00000140: bce7 93ba 9e48 9a3a 8f6e ad3a ed45 5e39
00000150: bf1d 6abb 0784 eb38 48af 5ebb 8e72 27bb
00000160: bbac 8d3a fc3f 2fbb 3d5a 15bb 9dfd 073a
00000170: 7c54 36b8 b166 bf39 8333 95ba 5dbf 16ba
00000180: 3378 1d3a a0ff 073d 4286 25bd 7af5 09bd
00000190: 54e8 8fbc c72d ea3a 711d 363a 8470 1e3c
000001a0: b1f5 053c cdb1 02bd 45ba dfba da7e 233b
000001b0: 26fb 2b3c 60f5 b9ba ac83 673c 14f6 183c
000001c0: 14df cdbb 12b2 553c bebf 063c e3d7 dfba
000001d0: fee5 9ebc 18ce a5b9 3b43 f4bc 57e0 9fbb
000001e0: 3b57 acbc 736a 18bc 3813 61bc 3cf0 cc3b
000001f0: 0145 59ba c07f d0bb 5f62 98bc 706b 9dbb
00000200: 6d79 08bb 4073 98bc 9385 b23c b478 48bb
00000210: acd1 703c 5d23 a83b 1685 93b8 6d3d 35bc
00000220: ebed cf3a 85ea 8d3b 5680 8e3b edef 2d3a
00000230: 18e0 e93a 8f4d 06bd a976 49bb 31ff b03b
00000240: 9365 a7bc 4c4e f4bb 57b9 98bc 46bd 91bb
00000250: 2a2c a23b 0621 dbb9 98f0 e73b 44ce e7bc
00000260: 56bf cdbc 8fcb 893a 6914 823b 75f6 bfbb
00000270: 3040 ecb9 91a1 213c be51 f73b 4bdc f13a
00000280: 8151 c7ba 532f 593c bff6 413c 8684 383c
00000290: 1d1e 353c 32e4 7bba f57c 9e39 7a2c 1ebc
000002a0: 7d41 25bb e509 bb3b a519 e53a 203f 68ba
000002b0: f5e4 8aba b959 7dbb 824d 0fbc a469 1cbb
000002c0: b0b7 ecba d3ad 15bc e076 d8bb ce6b dc38
000002d0: 8108 363b f636 bcba f48c 073c 6108 5ebb
000002e0: 16fc 3e3c 4fb0 d9ba 1bd0 a9ba a8d0 dcbb
000002f0: 4aa1 98b9 7620 dc3b b0c8 2e3c 6261 2fb9
00000300: a20c 043a 5805 993a 14b3 5fbb 1baa edba
00000310: ed2c 9dba 30c9 de39 4247 5fb8 6469 2a3a
00000320: a5ab 4e3a e58a 42bb 48ef ad3a 8216 db39
00000330: 9a0d 693b 9582 89bb 5c8d 723b 13ff ee3a
00000340: 9386 8dbb 7bf6 b73a 6de9 75ba 488e 5f3a
00000350: 6990 93ba 0f30 5a3a 170c 77bb 0eec 72bb
00000360: ec8c c7ba 106e c4bb 52a6 b5bb 1997 a239
00000370: 68a4 5a3a 1340 a03a e458 40bb 7825 92b9
00000380: 47fb 1c3d a323 32be a729 94bd 4654 0cbd
00000390: de90 0fbe cb97 dfba c41b 81bc 8c66 fbb9
000003a0: bf55 e8bb 476e fabd a23b afbd 1fd2 6c3b
000003b0: 2c84 21bc ec2e 773e a873 edbb ec75 94bb
000003c0: 742e 163e f859 3eb9 e5f9 013e 87ce 513d
000003d0: 3f00 3dbd b0ba 5c3c 3e55 59bc a076 6f3e
000003e0: b34b 4bbd 30f9 d63e 2043 a23e ce8e 123d
000003f0: 86bf 183b 62ab 81bd 6289 a93c 4716 2d3a
0.011070817 0.15778852 -0.011652959 0.13575879 0.04537318 -0.0064339703 -0.00085556525 0.01360287
0.0007175662 0.0021435006 -0.010265233 0.0014174993 0.001994101 -0.009626385 -0.052833952 0.0044602137
0.025839807 0.008988384 0.019204307 0.0067295544 -0.012579613 0.012729654 0.068654 0.011435648
0.14470911 0.024204424 -0.052261848 5.4210148e-05 0.00766639 -0.008871292 0.0014569338 -0.005396884
-0.0028673469 0.046547037 -0.02868728 0.014116332 -0.011228935 -0.0057622646 -0.0005902377 0.015084057
0.004623114 0.00312093 -0.0008399415 -0.0014653205 0.003409421 -0.06921708 0.0015631977 0.006192063
-0.022610188 0.013501938 0.016401667 0.0014355514 -0.04152391 -0.00077253504 -0.06552507 -0.030443292
-0.047141496 -0.090330444 -0.033899214 -0.0019729456 0.0013988724 -0.0114517445 -0.050267514 -0.011434865
0.00017993787 0.00070870155 0.0005691998 -0.00014201006 -0.0010641536 -0.00082450494 -0.00011588962 0.00049454917
0.00048562256 -0.005686373 2.7561116e-05 0.00019511845 0.0013146263 -0.0065191677 -0.00022972074 0.0008660328
-0.0011284272 0.0011770909 0.0013231802 0.00021197619 -0.0035723296 0.00011230265 -0.0033978987 -0.0025550458
0.0010808924 -0.0026741019 -0.0022789382 0.00051876326 -4.3470864e-05 0.0003650687 -0.001138315 -0.0005750561
0.0006006986 0.033202767 -0.04041124 -0.03368137 -0.017566837 0.0017866426 0.0006947136 0.0096703805
0.008176253 -0.031907845 -0.0017069062 0.0024947436 0.01049689 -0.0014187507 0.014130514 0.009336013
-0.0062826965 0.013042944 0.008224426 -0.0017077889 -0.019396778 -0.00031624804 -0.029817214 -0.0048790383
-0.021037688 -0.009302723 -0.013737492 0.006254224 -0.00082881754 -0.0063628852 -0.018601594 -0.0048040673
-0.0020824329 -0.018609643 0.021792209 -0.0030589523 0.014698427 0.0051311688 -7.0342954e-05 -0.011062008
0.0015863752 0.0043309354 0.004348795 0.0006635178 0.0017843274 -0.03278881 -0.0030740893 0.005401515
-0.020434177 -0.007455623 -0.018643064 -0.004447612 0.0049491124 -0.0004179554 0.0070782416 -0.028296597
-0.02511565 0.0010512936 0.0039697182 -0.0058582374 -0.0004506125 0.009865181 0.007547586 0.0018452493
-0.0015206785 0.013255912 0.011838614 0.011262065 0.011054543 -0.0009608894 0.0003022921 -0.009654159
-0.0025216036 0.0057079666 0.0017478956 -0.0008859504 -0.0010596799 -0.0038658215 -0.008746507 -0.0023866678
-0.0018060114 -0.009135681 -0.006605968 0.00010510498 0.0027776065 -0.0014359641 0.008273352 -0.0033879506
0.011656782 -0.001660833 -0.0012955697 -0.006738741 -0.0002911187 0.006717737 0.010667965 -0.00016725578
0.0005037283 0.0011674566 -0.0034133838 -0.001813236 -0.0011991538 0.00042493036 -5.3233707e-05 0.000650069
0.00078838534 -0.0029684838 0.0013270164 0.00041787705 0.0035561086 -0.004196475 0.0037010526 0.0018233977
-0.004319021 0.0014035249 -0.00093807915 0.00085279765 -0.0011258248 0.00083232013 -0.0037696415 -0.003706697
-0.0015224493 -0.005994566 -0.0055435086 0.00031011624 0.00083405385 0.0012226127 -0.0029349858 -0.00027875206
0.038325574 -0.17396407 -0.07234507 -0.034260057 -0.14020106 -0.0017058788 -0.01576031 -0.00047950854
-0.0070903 -0.12228065 -0.08556296 0.0036135984 -0.009858172 0.24138993 -0.0072464533 -0.004530659
0.14666158 -0.00018153328 0.12692983 0.05122235 -0.046142813 0.013472244 -0.013264952 0.23385096
-0.04963274 0.4198699 0.31691837 0.03578072 0.0023307516 -0.06331517 0.020695392 0.0006602746

sat_layers.layer0_1.0.input_linear_layer2.bias f4 [32]
00000000: 412b 813d fa50 80bd d6b5 b9bb 16cf 62bd
00000010: 022c dabd fa10 8bbb 7c0b 02bc 2380 803d
00000020: e052 83bd b78a 83bd 2319 fdbc d300 afbb
00000030: a856 04bd 02f1 eb3c dd3c 913d ec13 a23d
00000040: 1f1c 1bbe 86f8 1dbd fa46 e0bb cfb7 85bb
00000050: aeea fb3b 1444 b73c 5dd6 4b3c 151e 413d
00000060: 2017 45bd da36 033e 935a 8abd 1e59 7d3d
00000070: c4bb d9bd 194f b5ba 5bd0 52bd 285f 5cba
0.06307078 -0.06265445 -0.0056674285 -0.055373274 -0.10652925 -0.004243967 -0.007937308 0.0627444
-0.064122915 -0.06422942 -0.030895775 -0.0053406744 -0.032309204 0.028801445 0.07091687 0.07913956
-0.15147446 -0.03856709 -0.0068443986 -0.0040807496 0.007687888 0.02237133 0.012441245 0.04714783
-0.048117757 0.12813893 -0.06755557 0.061852567 -0.106315166 -0.0013832777 -0.051468235 -0.00084065134
