output/modelparams/dynamicLearning-HIGHSCHOOL-SCCompUAU-DualSAT/epoch5_model_state_dict.pth (torch, 341349 bytes, 192 tensors)

in_layer0.layers.0.weight f4 [32, 3]
00000000: dc4a b1bd 25e1 083f 5e7e 31bf 9da3 9ebe
00000010: a5e0 c0be 88dd a23e 9e60 65bd 9251 533f
00000020: 5dce a8be f030 8c3e 93e4 4dbe 4057 c9bd
00000030: 7651 01bf f715 3bbf a49f 893c e4af 65be
00000040: e6ba a03e e56e d73e f5b7 7fbe 5bf1 4dbd
00000050: 7ad5 a13e 12ec a23e 60e6 9dbe db9f 143f
00000060: 9132 863c bc11 b2bb 689e 1b3f ce01 13be
00000070: 6920 8abe cfba 923c 63b8 91be 291c 6a3f
00000080: 87b8 d7be c4f8 bb3d b32d 62bd 1aed 84be
00000090: 61ea e2be ea09 443f 09d2 b93d b13f 843e
000000a0: e8ca fbbd 9dfe d1be a3f6 203e 1951 7cbe
000000b0: d1d5 cfbc b7b6 d6be f892 8e3e b80f 033f
000000c0: 8eef b2bd 6e14 62be e8f7 0e3f 8597 443e
000000d0: b9ee 983e 57b9 91be d722 bd3e ffdc 23bf
000000e0: 62af 893e e523 31bd ffc9 4d3d bf1b f8bc
000000f0: 91f9 3d3e 2511 043f 2bb4 f8be 4cc3 cf3d
00000100: 8f18 ca3e 056a a0be 0af3 a6bd d194 72be
00000110: be33 003f ccf3 183f 567e 09bf 7bc1 98be
00000120: 72d0 45bd bfb7 31bd 644c 053f 31f4 fd3e
00000130: 87d5 423d 53aa 0dbf 0eb9 323e 10d3 45bd
00000140: b84b 80be 29a6 a13e 9c84 2d3f 99bc 39bf
00000150: 0f4c 6f3c 1a96 3e3c c76a 713c be29 4d3d
00000160: a5a5 4d3d f897 0c3d 41bc 163e e2d6 a8bd
00000170: b239 093f bacb 893e 460f 69bd 4021 a4be
-0.086568564 0.53468543 -0.69333446 -0.30984202 -0.3767139 0.3180964 -0.056000344 0.8254634
-0.32969943 0.27381086 -0.20106725 -0.09831095 -0.50514925 -0.7308039 0.016799755 -0.22430378
0.31392592 0.42076793 -0.24972518 -0.050279003 0.31608182 0.31820732 -0.30839825 0.5805642
0.016381534 -0.005434243 0.60788584 -0.14356157 -0.26977852 0.017911343 -0.28460988 0.9144922
-0.4213297 0.09178308 -0.055219363 -0.25962144 -0.44319442 0.7657763 0.09073264 0.25829843
-0.12294561 -0.41014567 0.15719084 -0.24640311 -0.02537051 -0.41936275 0.27846503 0.5119586
-0.08737098 -0.22078106 0.55847025 0.19198425 0.2986963 -0.28461716 0.36940643 -0.6400909
0.2689162 -0.043247122 0.050241467 -0.030286668 0.18552233 0.5158866 -0.48574957 0.10144672
0.39471862 -0.31330886 -0.08151825 -0.23689581 0.5007895 0.59747005 -0.537084 -0.29835114
-0.048294492 -0.043388125 0.5206969 0.49600366 0.047566917 -0.5533802 0.17453405 -0.048296988
-0.2505777 0.31572083 0.6778047 -0.725534 0.014605536 0.011632467 0.01473493 0.050088637
0.0502068 0.034324616 0.1472025 -0.08244111 0.5360366 0.26913244 -0.05689933 -0.32056618

in_layer0.layers.0.bias f4 [32]
00000000: da05 903e 9a41 543e 830c 25be 9ccc 43be
00000010: 8bd0 0a3f 93ee a33e 327d afbd 6464 34be
00000020: 49a0 acbe ba13 073e 2bcc 6fbd e651 8dbd
00000030: 78cf 9c3d 17b1 a8bc ea31 c4bd 68c4 c43e
00000040: 5e3e 29be 8f75 373e 6985 ad3e e542 3dbe
00000050: a6db b7bd 3abb 44bd 43ac a03d 31a5 043e
00000060: 2f05 883d 82a1 13bb 9790 f7bd 8ada 543e
00000070: ab3a 85bc 6261 62bd 18c1 19be 1b5a 3dbe
0.28129464 0.2072815 -0.16118054 -0.19121021 0.5422446 0.32017955 -0.08568801 -0.17616421
-0.33716038 0.13191119 -0.05854432 -0.069003865 0.07656759 -0.020592256 -0.09579833 0.38431096
-0.16527697 0.17915939 0.33890846 -0.1848255 -0.089774415 -0.048030116 0.07845356 0.1295364
0.06641614 -0.0022526686 -0.12088125 0.20786491 -0.016263327 -0.055268653 -0.15015066 -0.18491404

in_layer0.layers.2.weight f4 [32, 32]
00000000: 44e3 203d dfa6 8cbd 4408 9d3b 3974 7a3c
00000010: 923a 98bc 7cd9 a23c 6991 0ebc b116 68bb
00000020: 1266 3bbd 2683 b53b bf83 833d 0e67 9e3a
00000030: e773 fa3d d23c 9e3d 85ef f83c 6d66 863b
00000040: 6614 ccbd 2804 603b f120 fd3d 35e5 3ebd
00000050: bdbc 5a3b 2ee4 34bc a7ec 1fbd 7a77 c0bd
00000060: d292 413c 1de2 e43d a07a 493c 0850 d2bc
00000070: 1bb1 d0ba 3a2e 82bc 3921 193c ab2a c23a
00000080: 7fab 63be 7679 423e b212 80be 0e8d c4bd
00000090: 5134 343e 5f61 c23d 28e6 2e3d 25a7 fb3d
000000a0: 5e1f 583b 84d5 383c 9443 94bd db06 02bd
000000b0: c316 b03d b3fb 4fbd 0186 92bd 879a 5e3e
000000c0: 2175 193e 505f 02be 211e 083e 7603 d8bd
000000d0: be15 51be 15e4 f3bd f426 8c3e 5421 c3bc
000000e0: b13f 223e 145c 85bd 52d6 83bd 0d66 53be
000000f0: bff8 c1bb 7d49 c1bc 4bdd 5b3e c3fc 963b
00000100: 0514 a9be 0a05 103e 9a79 87be e2c3 f7bd
00000110: 2f31 063d 2c8a f83d a0b2 033c 63b9 983d
00000120: 1fa8 c63d 7c02 b63d e2b4 9dbe ddae febd
00000130: 80ce 8cbd a9a6 82bc dc86 9fbd 91cd 6b3e
00000140: ed54 3f3e 65c4 edbc edb9 123d 1313 1ebd
00000150: 4e44 34be 942a 32be 4e92 d83d 8dca 46bd
00000160: a3c8 6ebd 67b2 52be 96ee 263d f7fc 9ebe
00000170: 5a7a 013b 1d62 073d e9a2 0d3e 9c93 a6bd
00000180: d954 febd 10bc 603e 59c1 9cbc 671c 0abe
00000190: a027 ab3d 8f3c b33d 6121 ed3d 56a8 c33d
000001a0: fd04 033e fb95 7d3d ddd4 293e 5365 efbd
000001b0: 5dd2 923e 6a42 86be c725 f3bd 6c42 5f3e
000001c0: 6e1c 333e 4d2c 553c 46ec eabd e845 1d37
000001d0: 9df7 dbbd 28eb e2bd 1c45 593e f0ef babe
000001e0: a971 cc3d 5c52 8fbe a693 1ebe 682c 00be
000001f0: d6c4 69ba 2be2 393c d657 ea3c fb10 3bbe
00000200: d7e5 99bd 3776 fe3c 98b4 72bd 606b 173d
00000210: 1b6a 3a3d 1475 2d3d 9a7a dc3c 3f38 d13d
00000220: b913 713c 3a46 1f3b c5ee 80bc 565b 043d
00000230: 18b5 133e 948a 473d 8aed 433d 2122 06bd
00000240: d6f6 c7bd 73b4 743d c3e3 98bd 2e9f 02be
00000250: 9dfe df3c fed9 02bd bb90 a43c b0d2 fd3c
00000260: 909c 173c 04c7 afbd 6754 323d 167c 073e
00000270: e02f db3a fd7a 973c 364d f53c cc11 743d
00000280: bef6 b3bc d2aa 393a d0f5 d23b d109 8dbb
00000290: d179 e9bb 72c0 dabc bdd7 003c b19b babc
000002a0: 139e b73c 502b 3338 4a1b a53c a5ed c3bb
000002b0: b664 dabb cd7e 7abb 7a2f b8bb 74a9 56bc
000002c0: 5878 0f3c 42e5 b3bd 65e7 78bc b105 db3c
000002d0: ef5d cf3a 8034 5b3b 989a b9bb 0027 ffbc
000002e0: a9d8 fdbb c0da 27bd ece1 9abb c5d2 dc3c
000002f0: 7e24 a9bb 1d55 19bd d99a 2abb 554a 30bb
00000300: 16bd abbb 876a b13c 4f35 99bb 61db e0bc
00000310: d1d9 42bc 5347 7e3d fd6f d53d 5039 05bd
00000320: 616b a53d 1a3a 3ebc c9ee 3cbd c9ff 01bd
00000330: d400 b83d 6994 263d 5e31 8fbd f039 bcbc
00000340: f3de d43d b147 c73d 4149 af3d d2d0 e53d
00000350: 4a16 4e3c 47c0 16bb 7a56 b93c 56f9 6b3d
00000360: 36f9 d8bd 1459 c73d fb58 6fbb 1ca4 4e3d
00000370: 3f2a 8d3b ae56 c63c de49 7fbd e445 223d
00000380: 9587 063d 3700 90bd 0f1f 753d a705 493d
00000390: 7e53 01be c1b3 1abd 66f8 adbd b9bd 3fbd
000003a0: d623 b1bd ba56 8bbc a1e1 4bbb 027e 583d
000003b0: 6d20 513d e660 e63d 01a1 443d 252d 52be
000003c0: 6f36 e3bd dbf3 f9bc 54d6 0dbe a473 873d
000003d0: 4b8d ab3c be9d 2e3c 7f66 21be fe56 a5bd
000003e0: ac69 b9bc c4da 033e b007 773d 6b6b 113e
000003f0: 5280 a13b f349 2c3d 6528 60bd f5e7 973d
0.039279237 -0.06867766 0.004792245 0.015286499 -0.018582616 0.019879095 -0.008701661 -0.0035413916
-0.04575164 0.0055393158 0.06421613 0.0012085156 0.12229138 0.07726444 0.03038765 0.0041015656
-0.09964828 0.0034182165 0.12359799 -0.046605308 0.0033376657 -0.01104073 -0.03904405 -0.09397788
0.01181479 0.1117594 0.0122973025 -0.025672927 -0.0015921922 -0.015891183 0.0093463 0.0014813741
-0.2223339 0.18991646 -0.25014263 -0.095972165 0.17598082 0.09491228 0.042699963 0.1228774
0.003297768 0.011281375 -0.07239452 -0.03174482 0.085980915 -0.05077715 -0.071544655 0.21738635
0.14986087 -0.12731671 0.13292743 -0.10547535 -0.2041845 -0.119087376 0.2737347 -0.023819603
0.15844609 -0.06511703 -0.06437363 -0.20644398 -0.0059195454 -0.023594612 0.21471135 0.0046077683
-0.33023086 0.14064422 -0.26459962 -0.120979086 0.03276175 0.12135729 0.008038193 0.07457235
0.09700035 0.088871926 -0.30802065 -0.12435696 -0.06875324 -0.01594861 -0.07789394 0.23027636
0.1868474 -0.029024312 0.035821844 -0.03859241 -0.17604181 -0.17399055 0.105747804 -0.04853301
-0.05829681 -0.20575868 0.040754877 -0.31052372 0.0019756765 0.033052552 0.13831677 -0.08133623
-0.12418527 0.2194674 -0.019135164 -0.13487397 0.08357167 0.08751785 0.11578632 0.09553592
0.12794872 0.06191061 0.16585107 -0.11689248 0.2867612 -0.26222545 -0.1187244 0.21802682
0.17491314 0.01301105 -0.11470847 9.374206e-06 -0.10740588 -0.11080009 0.2121777 -0.36511183
0.099826165 -0.27992523 -0.15486011 -0.1251694 -0.00089175755 0.011345427 0.028606337 -0.18268196
-0.075145416 0.031062229 -0.05925426 0.036967635 0.045511346 0.042347983 0.02691393 0.10215806
0.014714175 0.0024303333 -0.015738854 0.032313667 0.1442455 0.048716143 0.047833957 -0.03274739
-0.09763877 0.059742402 -0.07465317 -0.12756035 0.027343089 -0.031946175 0.020088544 0.030984253
0.009253636 -0.08582881 0.043537524 0.13230929 0.0016722642 0.018491263 0.029944044 0.059587285
-0.021968242 0.0007082644 0.0064379945 -0.0043041487 -0.0071251174 -0.026703093 0.007863936 -0.022779318
0.022414243 4.2717264e-05 0.020154614 -0.005979257 -0.0066648377 -0.0038222552 -0.005620894 -0.013101924
0.0087567195 -0.08783962 -0.0151918875 0.026736112 0.0015820841 0.003344804 -0.005664181 -0.031146526
-0.007746775 -0.0409801 -0.004726639 0.026955971 -0.005161821 -0.037434686 -0.0026032238 -0.0026899774
-0.0052410467 0.021657242 -0.0046755443 -0.027448358 -0.011892752 0.06207974 0.10421751 -0.03252536
0.080771215 -0.011610532 -0.04612616 -0.031738076 0.08984533 0.04066888 -0.06991838 -0.022976846
0.10394087 0.09730471 0.08558894 0.1122147 0.012578556 -0.002300279 0.022624243 0.057610832
-0.10594408 0.09733787 -0.0036521542 0.050449476 0.0043080146 0.024211254 -0.062326305 0.039617434
0.032844145 -0.07031291 0.059844073 0.049077656 -0.12629506 -0.037769083 -0.08494644 -0.046811793
-0.08649413 -0.017009128 -0.0031109827 0.052854545 0.051056314 0.11248951 0.048005108 -0.20525034
-0.11094367 -0.030511787 -0.13851291 0.066138536 0.020941397 0.010657726 -0.15761755 -0.08073233
-0.022633396 0.12876421 0.060310066 0.14201133 0.004928627 0.04206271 -0.054726023 0.07417289

in_layer0.layers.2.bias f4 [32]
00000000: 26db 48bd c8a0 e23c c1f5 343e c580 e0bd
00000010: 3f61 d6bc ef55 783d f28d c6bd 2be7 b23c
00000020: 3d47 edbd 89c8 913c 1698 e9bd 9546 893d
00000030: dc44 a23c 3c33 b3bd 9655 75bd 2f2b 10bc
00000040: 6075 7bbd 5104 a3bd 4561 d8bc fc4b ce3d
00000050: 19f4 b7bd 845e 8cbd c935 113c 5b40 79bd
00000060: da30 a53d a54b 1fbc 7c64 85bd b42d 6fbd
00000070: ff10 ddbc 9580 3dbd 19ed 1c3e a038 95bd
-0.04903712 0.027664557 0.17671873 -0.10962061 -0.026169417 0.060628828 -0.09695043 0.021838745
-0.11585853 0.017795818 -0.11405961 0.067029156 0.019808225 -0.087500066 -0.059896074 -0.008799358
-0.061391234 -0.07959808 -0.02641357 0.100730866 -0.08982105 -0.06853965 0.008862921 -0.06085239
0.08065958 -0.009722625 -0.065133065 -0.058393195 -0.026985643 -0.046265204 0.1532482 -0.07286191

in_layer1.layers.0.weight f4 [32, 3]
00000000: 445d d9be 2bca d1bc c5aa a3bc 6841 d33e
00000010: 229c 313f f117 22bf 0bd6 fabd 05d1 fc3e
00000020: 884f 7f3d f14b ab3e 5da0 dd3d 45b9 18bf
00000030: 1d3c 943e 34af efbe dbe0 aa3e bf62 02be
00000040: b840 e93d cc09 283f 6d94 fc3e e442 0dbf
00000050: 0192 14bf ddb9 72be 080d 08bf 1b84 2f3f
00000060: cfbe bf3b eb5b 533b 2aef 55bb 442b 63be
00000070: b4b5 ba3e 6a91 a5bd 19c1 dbbe 801e e1be
00000080: 39fa a53e f140 573e ad85 13bf 3325 913e
00000090: 332a 533e 0e63 113e 4751 5ebe ec4e 1a3d
000000a0: bdfb 91be b53a ce3e aeeb bcbe 7cd3 7d3e
000000b0: b79c cc3e 0ee0 92be aaa8 e13e 3ba4 073f
000000c0: 1654 5dbe d6f0 adbe 9329 d53e de0a ebbe
000000d0: e78e fe3e 7a06 b03e 1ede 5f3e 6b09 f1be
000000e0: 9f15 31bf 9644 6e3e d836 303e 379b a5be
000000f0: ecae 11bc 66d6 9b3b b254 f5bb 1790 53be
00000100: 45d8 3b3f d4c1 4abe 3410 1d3e cd59 1e3f
00000110: ac80 1bbe 6cb4 04bf 6b1d 013f cba8 ca3d
00000120: b377 b53e b029 43bf 7554 b93e 0119 573e
00000130: 6bde 24bf 1a71 80bd 4357 893e f4fc 8dbe
00000140: 5d82 f23d 062f 683e 1127 b0bd 1d8f 2c3f
00000150: 3f75 d33e 0f40 273f f5ad 7fbe 3d12 fa3e
00000160: 50a0 30bf d42c 0bbf f912 3ebe c374 d2be
00000170: 1b10 203f 88dd 423d 1a2c e83e cfd5 0f3e
-0.4245397 -0.025609097 -0.01997889 0.41260839 0.69378865 -0.6331778 -0.12247857 0.4937822
0.062331706 0.33456376 0.108216025 -0.596577 0.28952113 -0.46813357 0.33374676 -0.12732981
0.11389297 0.6563995 0.4933199 -0.5518019 -0.58035284 -0.23703714 -0.53144884 0.6856095
0.0058516036 0.0032250832 -0.0032643774 -0.22184473 0.36466753 -0.08084376 -0.4292076 -0.43968582
0.32417467 0.21020867 -0.5762585 0.28348693 0.20621566 0.14197943 -0.21710692 0.037672922
-0.28512374 0.40279165 -0.3689856 0.24787706 0.39963314 -0.28686565 0.44073993 0.5298497
-0.21614107 -0.33972806 0.4163328 -0.45906729 0.497184 0.3437994 0.21862075 -0.47077498
-0.69173616 0.23268351 0.17208421 -0.32344982 -0.008891802 0.004755783 -0.007486903 -0.20660435
0.73376876 -0.19800502 0.15338212 0.61855775 -0.15185803 -0.518378 0.50435513 0.09895476
0.35442886 -0.76235485 0.36197248 0.21005632 -0.6440188 -0.062715724 0.26824388 -0.2773205
0.11841271 0.22674188 -0.08601201 0.67405874 0.4130039 0.6533212 -0.24968703 0.4884204
-0.6899462 -0.5436528 -0.18561925 -0.41104707 0.62524575 0.04757455 0.45346147 0.14046405

in_layer1.layers.0.bias f4 [32]
00000000: 3364 a2be 0bc8 60bd 46c2 293d c6b4 df3c
00000010: 8ee4 3e3e 5829 2fbe 19ac 74be ac19 003f
00000020: 705a 25ba 6a8b 07be ddda d93e fe68 a23e
00000030: a627 95be fa57 dbbd 0189 31be ad27 77be
00000040: 85c7 6a3e 5a26 823c 19ab 723e e009 cebe
00000050: bae6 8d3c 13ae 053e ad29 193e 91d8 023f
00000060: dcf5 923e 87de 083d 6044 bfbe a007 cdbe
00000070: 420a 00bf b014 f4bc 7a6e 003f 37ab 60be
-0.3171707 -0.054878276 0.04144504 0.02730788 0.18641874 -0.17105615 -0.23893775 0.5003917
-0.0006307727 -0.13236776 0.42549792 0.31720728 -0.29131812 -0.107101396 -0.17337419 -0.24136229
0.22927673 0.015887428 0.23698081 -0.4024191 0.017321933 0.13054685 0.14957304 0.51111704
0.287032 0.033415344 -0.37356853 -0.4004488 -0.5001565 -0.02979502 0.50168574 -0.21940313

in_layer1.layers.2.weight f4 [32, 32]
00000000: 7f50 d4bc e7f3 b1bd ba0f 633d 5a4b dd3d
00000010: d48c aebd fce7 93bc e247 b83d ba4b b23c
00000020: ce47 e4bb 7adb 103c 788e 27bc 68fd 4ebd
00000030: 2c50 793c af81 51bc 4548 31bc 3e6a 683b
00000040: 1066 6dbc f8e3 763c f0d2 ebb9 5783 c13c
00000050: aabe 933b 0468 bd3c 1265 07bd 387d f03c
00000060: e347 9d3d 73e6 aebc 5d53 62bc 2540 6ebc
00000070: c9f0 f2bc 49e2 813d 4dd6 8b3c c85a b43d
00000080: 7f8c a5bd b366 94be 87c7 e13d af07 8fbe
00000090: b8b2 813d 4d36 9c3e a2cb 49be b888 9f3e
000000a0: 811b 8e3c 2ac1 a03d b046 2a3e 43e4 493e
000000b0: 75f7 22be 22c4 7f3d 98f6 c23d b420 103e
000000c0: 46eb 753e ed52 333e d9c4 48be 6950 93bd
000000d0: 25a5 1e3d e041 83bd fc82 803c a958 473d
000000e0: 595b 89bd 690d ec3d fc0d 5bbd f311 503e
000000f0: eddf aabe 9233 04be 4118 043e 3736 5f3c
00000100: 0402 673b 09c8 9cbb 5c49 32bc de27 d23c
00000110: 4de6 c33d ce53 ecbc d2d8 173c eb00 5abc
00000120: 8dcb 92bb da0e 3a3d f77a c13b cc7f 4fbd
00000130: 88e6 11bc 68f7 ce3c cc67 af3a 1cc6 433d
00000140: e5b4 183d 7858 633d a47e 903d 4038 0bbc
00000150: af65 523c cdca e3bd 3239 423d 4586 f9bc
00000160: 9f0c 013c 6d95 91bd f993 83bd ed43 0d3c
00000170: 61a1 483b 8d9e 9d3c 4af7 7e3d ace2 58bc
00000180: 20eb 303c 140c 3abe 1f5c d6ba 9aae 96bd
00000190: 741c d33d 8c01 1d3e 29a1 913d 471e 2b3e
000001a0: 457f 2abc e07b 44bd 94d1 b63d 0ddb 263d
000001b0: 3c40 533a dab0 553d ed0b 243d 6198 903d
000001c0: 1f08 973d 5389 a93d fd6f 4f3d 6b40 1fbc
000001d0: 0b59 e9bb a9a1 cebd f8ab 22be be6b 9a3d
000001e0: 23ed fb3d b958 13bd b35a ec3b be95 593d
000001f0: fa3b 96bd 5f73 c1bd 806d d23c 3d8e 013c
00000200: 5041 a8bd dd40 51be 5b31 c2bd 88ab 4fbe
00000210: b546 4c3d 89ab b93d 64ca dabd 58cc 673e
00000220: ae61 11bc 7515 2abe 0562 503e 50cf 5c3e
00000230: c296 503c a510 2a3e 01a9 4d3c 8958 0bbe
00000240: 504a 083e 9465 dcbd 594b 9cbd f1de f3bd
00000250: ea85 1cbd 1f5a a7be c678 ecbd 6c61 79be
00000260: 0d20 aa3d d875 89bd 1e36 b23d 7461 793e
00000270: ee01 4fbd 7117 79bd 92a5 1f3e e44f 1bbd
00000280: 3919 ab3d 5ea1 7a3e e976 8d3d 5d09 0cbe
00000290: cb23 4bbe a284 ccbb ba21 65bd e733 a9bd
000002a0: 3ffa d43c 4d88 5d3d 184d a6bd 3375 5abe
000002b0: 73d8 8d3d 7b41 9ebd e28c c53d 9e57 b43c
000002c0: 08ed 743c fe23 143e 14b7 61bd 0b5d 5bbc
000002d0: 43f7 a93c 2a0f e53d 4481 9b3b 382b 9a3e
000002e0: 7d7c 94be 33eb 82be 9668 93bc 0ba0 b3bd
000002f0: 4223 4d3e ce5b 87be ad87 84bc 76ca 063c
00000300: 9fc6 7abc 3a88 74bd c8d1 913d 9052 e9bc
00000310: 5f7e 2abe bbd1 353e 1521 7abd dc64 1c3b
00000320: 2487 dfbc da4f 083d 41b1 b13c f326 6dbe
00000330: 6df2 1cbd 8902 11bd 8485 f83d f6b4 0f3e
00000340: 9834 653d c21e 743e 4046 03be 8a48 fbbc
00000350: 702f 493c 0f1d 613e 409f cfbd 5cc3 2b3e
00000360: 2d11 58be 442e 1fbe 700b 21bd d058 15bd
00000370: c99d 663d dcc8 0abe 411f bf3b 9b15 393c
00000380: f2da 4f3d 2947 c0bd 9439 01be 3762 18bd
00000390: 91fa 023e df29 7cbd 7673 1b3e 584c c53d
000003a0: 1e52 38bc a4a3 483d 8104 123d ac04 bdbd
000003b0: ebcb a8bc 39a1 383d 23f5 113d 1771 273d
000003c0: 4cd6 9b3d ad51 4ebb efed 233d baf5 db3c
000003d0: 1fc0 0abc 184d 9dbe 1153 78be 9522 82be
000003e0: b24d 6c3d 0882 b03d 282e 733d 3b19 74bd
000003f0: ea8c 4abd 729d af3b e5f4 55bd 1e1a 12be
-0.02591729 -0.08689099 0.05543492 0.10805388 -0.085229546 -0.018054955 0.089980856 0.021764625
-0.0069665676 0.00884139 -0.010226838 -0.050534636 0.015216868 -0.012787267 -0.010820453 0.0035463716
-0.014489666 0.015069 -0.00044979854 0.023622198 0.004508813 0.023120888 -0.033055373 0.029356584
0.07679727 -0.021350121 -0.013813821 -0.01454166 -0.029655831 0.063419886 0.01706996 0.08806378
-0.08083438 -0.28984603 0.11024385 -0.2793555 0.06332916 0.30510178 -0.19706586 0.31158996
0.0173471 0.07849343 0.16628528 0.19715981 -0.1591471 0.062442906 0.0951969 0.14074975
0.24015531 0.17512102 -0.19606341 -0.071930714 0.038731713 -0.06409049 0.015687458 0.048668537
-0.06706876 0.11525995 -0.053480133 0.20319347 -0.33373967 -0.12910298 0.12899877 0.013623766
0.0035249004 -0.0047845882 -0.010881748 0.025653776 0.09565411 -0.028848555 0.009268003 -0.013305883
-0.0044798316 0.04542432 0.005904551 -0.050658986 -0.008905061 0.025264457 0.0013382374 0.047796354
0.03728189 0.055504292 0.07055405 -0.008497298 0.012841626 -0.111226656 0.047417827 -0.030459533
0.007876544 -0.07108579 -0.06424708 0.008622152 0.0030613767 0.019240642 0.062247552 -0.013237637
0.010798246 -0.1816867 -0.0016354359 -0.07357521 0.103081614 0.15332621 0.07110817 0.16710769
-0.01040632 -0.0479697 0.089266926 0.040736247 0.0008058583 0.052170612 0.040050436 0.07060314
0.07374596 0.08278146 0.05064391 -0.009719948 -0.0071212105 -0.10089428 -0.15885913 0.075400814
0.123010896 -0.035973284 0.0072129606 0.05312132 -0.07335658 -0.094458334 0.02568698 0.007907447
-0.08215582 -0.204349 -0.0948207 -0.20280278 0.04987212 0.09065921 -0.10683134 0.22636545
-0.008873386 -0.16609748 0.20349891 0.21563458 0.012731256 0.16607912 0.012552501 -0.13607992
0.13309598 -0.10761562 -0.07631559 -0.11907757 -0.038213648 -0.32685944 -0.11546473 -0.2435357
0.083068945 -0.0671193 0.08701728 0.24353582 -0.05053895 -0.06081337 0.15590504 -0.037917987
0.0835442 0.24475619 0.06907446 -0.13675447 -0.19837873 -0.006241397 -0.055940367 -0.08261853
0.025998233 0.054085065 -0.08120173 -0.2133377 0.0692605 -0.07727333 0.09646012 0.022014435
0.014949091 0.14466855 -0.055106238 -0.013388882 0.020747786 0.11184533 0.0047456343 0.30111098
-0.29001227 -0.25570068 -0.017994206 -0.0877076 0.20032981 -0.2643723 -0.016177977 0.008226981
-0.015306144 -0.05970023 0.07120091 -0.028481752 -0.16649769 0.17755787 -0.061066706 0.0023863828
-0.02728612 0.033279277 0.021690967 -0.23159389 -0.038317133 -0.03540281 0.12134841 0.14033875
0.05595836 0.23839858 -0.12819767 -0.030674238 0.012279376 0.21983741 -0.101377964 0.16773742
-0.21100302 -0.15544993 -0.03931755 -0.03646165 0.05630282 -0.13553184 0.005832583 0.011296655
0.050745912 -0.09388573 -0.1261962 -0.03720304 0.12790896 -0.06156337 0.15180764 0.09633702
-0.011250047 0.048984185 0.035648827 -0.09229407 -0.020605048 0.04507563 0.03563417 0.040879335
0.07609233 -0.0031481788 0.040021833 0.02685057 -0.008468657 -0.3072288 -0.24250437 -0.2541701
0.057691284 0.086185515 0.05937019 -0.059594374 -0.049450792 0.005359345 -0.052235503 -0.14267775

in_layer1.layers.2.bias f4 [32]
00000000: 5285 7c3c 8905 3e3e d485 60bd 0069 f5bd
00000010: d85e e93c 37ea d63c eeaf dfbc a31e 0a3d
00000020: abb7 46bd 1c05 683d e927 2c3c 26d4 90bd
00000030: c741 d63c 5fae 01be 593d 52bd 2d57 2cbd
00000040: c642 ee3d 7cc3 31be ca59 c9bd 0f0a ca3b
00000050: 00df e43d d46c 323c 8d7b da3c b1c1 453d
00000060: 78ec 0abe e50a d3bd c5af e53d 8008 28be
00000070: fdf1 16be cea8 513d 5197 bdbc 1192 2fbc
0.015412645 0.18556799 -0.05481513 -0.11982918 0.028487608 0.02623473 -0.02730557 0.033720624
-0.048515003 0.056645498 0.010507562 -0.07071714 0.026154412 -0.12664174 -0.051328037 -0.042075325
0.1163383 -0.17359728 -0.09831579 0.00616575 0.111753464 0.010890204 0.026670242 0.04828042
-0.13566768 -0.10304812 0.11215166 -0.16409492 -0.14740749 0.051186375 -0.023143442 -0.010715977

in_layer2.layers.0.weight f4 [32, 3]
00000000: 3fa3 053f 666a acbe 5feb 02bf 9f6e a8be
00000010: 32b0 1c3f 1dc5 83be fb25 83be 37f9 d33e
00000020: 0bcc b5bd 4aee 04bf 7525 1f3f 099e c33d
00000030: 990d 003f 6ce5 bbbb 1dcf 5bbe c8c1 85be
00000040: d350 d53e 0a1e 89be 637d 8a3e 35b4 ddbe
00000050: 04ac bbbe 1ac0 9a3e 44c9 55bd 5859 42be
00000060: 82b2 98be a6db 293f 101b 16bf cce5 85bf
00000070: 97c3 ff3e 2f58 d53e 8297 d6be 88c2 27bf
00000080: db9e 2d3f ed9a b3bd c678 d5be 3ee8 cc3e
00000090: 3e33 23be 24da 8c3d 3865 a2be d83d fd3a
000000a0: bae9 1b3c 0025 0dbb f895 dcbe 51cc cf3e
000000b0: a56b 9b3e 67dc 7abe af4d e53e 4758 70bf
000000c0: 2315 59be 83cb eb3e 6d26 18bf 2c9d ab3b
000000d0: 7b71 fc3b 80e1 e83a 09c3 ccbe c412 a83e
000000e0: a50f 583e 8ad6 efbb 5f46 38bc 65b9 b5bb
000000f0: a1f1 803c 4d60 7c3c e0ac 843c 520c 4f3d
00000100: cea2 0cbe 8426 dc3e 01b9 323e 3b09 17be
00000110: 5fc9 ca3e f097 0abb 9a6e 75bb c385 d73a
00000120: 3a94 933d c493 b83e 8ce3 82be 7000 cebe
00000130: e3db 2bbf cead 373f b979 93bd bdf4 543e
00000140: 8180 c2be d266 b2be 34a9 603d f5f4 aa3e
00000150: 4779 93be 6c5a abbe 4cb5 113f 15eb 83be
00000160: 3e31 41be 2de0 59bd 96f1 c73e e2bb 3bbd
00000170: 31d6 4ab8 1fbf e0bd ee74 fc3e 288f 30bf
0.5220222 -0.33674926 -0.511404 -0.32896897 0.6120635 -0.25736323 -0.25614914 0.41401073
-0.08876809 -0.519261 0.6216653 0.09551627 0.5002075 -0.0057341363 -0.21465726 -0.26124406
0.41663226 -0.2678073 0.27048787 -0.4330155 -0.36654675 0.30224687 -0.052193895 -0.18979394
-0.2982369 0.6635078 -0.58635044 -1.0460753 0.4995391 0.4166884 -0.41912466 -0.65531206
0.6782052 -0.08769784 -0.41693705 0.40020937 -0.15937516 0.068775445 -0.3171785 0.0019320799
0.009516174 -0.0021536946 -0.43083167 0.4058557 0.30355564 -0.2449814 0.4478583 -0.938847
-0.2119947 0.46053705 -0.59433633 0.005237242 0.0077039576 0.00177674 -0.3999255 0.32826817
0.21099718 -0.007319276 -0.0112472465 -0.0055457824 0.015740218 0.015403819 0.016195714 0.05054886
-0.1373398 0.42998135 0.17453386 -0.14749615 0.3960676 -0.002114769 -0.0037449957 0.0016443062
0.07206006 0.36050236 -0.2556423 -0.4023471 -0.67132396 0.7174958 -0.07200951 0.20796485
-0.37988666 -0.3484407 0.054848865 0.33390012 -0.28803465 -0.33467424 0.5691726 -0.2576529
-0.1886644 -0.053192306 0.39051503 -0.045833476 -4.8360034e-05 -0.109739535 0.4930796 -0.6896844

in_layer2.layers.0.bias f4 [32]
00000000: d87b 8b3e 55c1 ed3d 0ac4 c63d c41d b93d
00000010: ecc0 babe d91b d03e 4a41 a23e 481d 88be
00000020: 2e0c 87be 961e 4fbe 07c7 c33e afe7 8ebe
00000030: d71b c53e 93de 953c 601e 2bbe aa9c 9f3e
00000040: abc0 24be d8d1 2ebc f2f3 c3bc 6c52 453c
00000050: 5ef7 43bd 0791 eebe 9dbd f9bc b0bd 8f3b
00000060: a430 a6be 8b0a 663d 856b 7fbe e7ea f53d
00000070: 0d74 8d3e 3666 d53e 189f e9be eca7 37bd
0.27242923 0.11609141 0.0970536 0.090388805 -0.36475313 0.40646246 0.31690437 -0.2658484
-0.2637648 -0.20226511 0.38237783 -0.27911136 0.38497803 0.018294608 -0.16710806 0.31174213
-0.16089122 -0.010670148 -0.023920033 0.012043577 -0.04784333 -0.46595022 -0.030485922 0.004386626
-0.32458985 0.0561624 -0.24943359 0.12007695 0.27627602 0.41679543 -0.4562919 -0.044837877

in_layer2.layers.2.weight f4 [32, 32]
00000000: 9102 7e3b b98e 823a 43d1 b0bb c222 0dbc
00000010: 3bbc 22bc fb43 f2b9 8cc6 0bbd f914 bbbb
00000020: 4386 a8bb 4e1e 68bc f16d e73a d771 9a3b
00000030: 35ab 0dbc e99a 42bc 9221 3fbc eb40 97bb
00000040: 7b11 aebb 1280 a4bb 5d8e 17bc 0532 3bbb
00000050: 101d 28ba ebf4 173c c707 5ebc ab41 833b
00000060: 66e7 2bbc 385f 3cbb 62bf 09bc 72d8 9aba
00000070: 9f27 5b3c 422f be3a b1cf 743a e61d 17bc
00000080: 2224 86bd 2da4 a0bc cf9c 283c b39a 04be
00000090: a7b2 80bd 7896 1b3d 9f86 f1bc 055e d6bd
000000a0: 7590 cbbd aa8b 55bc e38b 76be 57d1 d4bd
000000b0: 9052 2ebd d392 1a3c 5c10 bebd c723 f4bd
000000c0: 8840 95bd 558a 8e3c a666 92bd d1cf 783a
000000d0: 7807 b53a 034e bfbc c76d bf3b c38d 82bc
000000e0: d95a 5ebd b504 9fbe 8656 513c 82ae a6bd
000000f0: ddac 36be c54c 35bc 60a1 66bd d5bd b5bd
00000100: 8f17 49be 80c8 95bc ebaf 8e3d 4a56 e53b
00000110: c49b 72bd c31f 6a3d f8a0 9fbd ab1d b2bc
00000120: 3666 813d 32bb 06be fec5 1f3e cecb 703d
00000130: f632 803d ad5f 483c 00db ca3c 9277 ea3d
00000140: 5f79 39bc bc8c 193c 7ad9 4ebb 6ae7 d1b9
00000150: 541a 0039 a3af cd3d 0138 59bd 0be7 0abc
00000160: c99f bebc eaa7 7c3e 70c6 913d 02de c93d
00000170: 4fb9 b33c 4f09 5d3b 4a8d ac3c 5e36 a53d
00000180: 5ebc aebd e1dc 5fbc 45fb 02bc 2ed4 2fbc
00000190: 08d0 473d baf6 033d 0e5b e4bb e9fa d8bc
000001a0: df1b 8fbc 8a81 ffbc 1963 37be 8a4e 5fbd
000001b0: 1fec 18bc e3c2 323c d196 23bd b529 66bd
000001c0: 3e7a aebc 8f58 563b ba4c 0dbd 1002 163b
000001d0: 81c9 753a 5b0f aabc ebbc 2abd dfcf 85bb
000001e0: 037b 92bc 4158 60be 6256 19bc b8ba 54bd
000001f0: b02a dfbd 857b 42bb 446e 323c b017 0ebd
00000200: b4c7 5ebe c3e1 56be fd82 1c3d c1cd c1bd
00000210: 8d91 32be 7875 9abd f36a 20be dd57 0dbe
00000220: aa20 dfbd cb63 f3bd a235 693e 9da7 903e
00000230: b24c d8bd cc7c 1c3d f57d 423c d893 ebbc
00000240: ffd5 10bd 59d0 9abb 1cad d13c 987c 9b3a
00000250: 3246 213b 5591 753e 31f2 583d 41d0 09bb
00000260: a175 16bc 6293 9c3e 586a 903c c9eb 4b3e
00000270: fa86 b83e 4092 b8bd 0ea8 92bc 8f18 c9bc
00000280: 10fb ebbc 8634 9abd c25d dc3d bf8c 6f3e
00000290: 1601 12be fca3 903d 7ce3 063c 97b3 a6bd
000002a0: db86 1cbe efe3 073f e828 46be eedf 2abe
000002b0: d48b aebc 4538 2b3c da7c 5e3e 4bbf 9abe
000002c0: 8fb1 1abe 1433 133c 347c 2a3e 3e86 713a
000002d0: 88a0 1b3a 2016 05bd df41 003d 9d38 ccbb
000002e0: b40b f7bd 300e aebe 1219 90bd 3f76 163e
000002f0: b7f4 14be f1fb 113c 4427 eabd 927c 65be
00000300: 4d09 783c cace c53b d6b7 6d3b ba27 23bb
00000310: 5aa4 04bd 11bc 663c 8fa9 e4bb d2b5 85bc
00000320: 9c67 8d3b 9200 dcbc 2d15 f43c 1c43 2f3c
00000330: 9f02 a0bb 4c85 1ebd abd7 f8bb 46df 403c
00000340: 609f 9cb8 fef4 d5bb 0aa8 aabb 46a9 5fbc
00000350: 5fb2 74bb 9890 8c3c e911 91bb 13eb 953a
00000360: e8b9 93bb 3ca6 a43c 60af 23bc b7c8 123c
00000370: f90e aa3c 322c 1fba 8cae a8bc b6bb fa3b
00000380: b941 54bd ad82 eebb acf3 d1bc e5db 9dbc
00000390: 130c edbb 8ba6 21bd 880b 5639 2e55 53bc
000003a0: 18d7 e3bb 9133 e33b f1ab 34bd c52e 5d3c
000003b0: f420 90bc 33a6 eb3c d9c1 48bc 9588 b4bc
000003c0: c315 01bc 5423 433b 1762 2ebc ec81 5a3c
000003d0: 9745 3a3b c5f1 983c 028e d3bb 714e c6b9
000003e0: b625 b3bc cc74 13bd 622b 43bb 5767 17bc
000003f0: 8e2d 3a3c 6674 283c e00f 2a3c 908e afbc
0.0038758854 0.0009960748 -0.0053960397 -0.008614244 -0.009932573 -0.00046208486 -0.034124896 -0.0057092872
-0.0051429584 -0.014167381 0.0017656666 0.004713278 -0.008646776 -0.011877754 -0.011665719 -0.004615893
-0.0053121424 -0.00502015 -0.009250251 -0.002856375 -0.0006413022 0.009274702 -0.013551659 0.004005631
-0.010492181 -0.0028743278 -0.008407446 -0.0011813773 0.013376146 0.0014509934 0.000933881 -0.009223437
-0.065498605 -0.019609535 0.010291292 -0.12949638 -0.06284075 0.037985295 -0.029483138 -0.104671516
-0.09939662 -0.013033787 -0.240768 -0.10391491 -0.042559206 0.00943442 -0.09280464 -0.119208865
-0.07287699 0.017399946 -0.07148485 0.0009491416 0.001381143 -0.023352629 0.005841944 -0.015936738
-0.054285858 -0.3105828 0.012776976 -0.081387535 -0.1783938 -0.011065667 -0.056306243 -0.08874098
-0.19637893 -0.018284082 0.069671474 0.006998812 -0.05923058 0.057159197 -0.07794374 -0.021742662
0.06318323 -0.13157347 0.15602872 0.058788113 0.0625972 0.012229842 0.02476263 0.114485875
-0.011320441 0.009371933 -0.0031562732 -0.00040036003 0.00012216839 0.10043266 -0.053031925 -0.0084779365
-0.02326955 0.24673429 0.07117927 0.09856798 0.021938948 0.0033727472 0.021063466 0.0806701
-0.08532022 -0.0136635015 -0.007994478 -0.01073174 0.04878238 0.03221772 -0.0069688624 -0.02648683
-0.017469345 -0.031189699 -0.17908897 -0.05451826 -0.009333639 0.010910722 -0.03993875 -0.05619212
-0.021298524 0.0032706594 -0.034497 0.0022889413 0.0009376035 -0.020759275 -0.041684072 -0.004083618
-0.017880922 -0.21908666 -0.009358974 -0.05193588 -0.10896814 -0.0029675674 0.010890547 -0.03469056
-0.21755868 -0.20984559 0.038210858 -0.094630726 -0.17438336 -0.07541937 -0.15665798 -0.13803048
-0.10894902 -0.118842684 0.22774366 0.2825288 -0.105615035 0.038204953 0.011870851 -0.02875702
-0.035360333 -0.004724544 0.02559524 0.0011862693 0.002460849 0.23981221 0.052965347 -0.002102867
-0.009183318 0.30581194 0.017628834 0.19914164 0.3604048 -0.0901227 -0.0179024 -0.024547843
-0.02880624 -0.07529549 0.107600704 0.23393534 -0.14258227 0.070625275 0.008232947 -0.08139723
-0.15285818 0.53082174 -0.19351542 -0.16686985 -0.02130691 0.010450427 0.21727315 -0.3022407
-0.15106796 0.008984346 0.16648942 0.0009213424 0.0005936702 -0.032491803 0.03131282 -0.0062323348
-0.12062779 -0.339952 -0.07036032 0.14693545 -0.14546476 0.008910165 -0.114332706 -0.22410801
0.015138936 0.006036614 0.0036272905 -0.0024895505 -0.0323833 0.014082924 -0.006978221 -0.01632205
0.0043153297 -0.02685574 0.029795254 0.010697152 -0.004883125 -0.03870134 -0.007594069 0.011771983
-7.4683456e-05 -0.0065294495 -0.00520802 -0.013651198 -0.0037337763 0.017158791 -0.004427184 0.0011437855
-0.0045082457 0.020098798 -0.009990543 0.008958987 0.020759093 -0.0006071954 -0.020591043 0.0076517714
-0.05182049 -0.0072787614 -0.025628887 -0.019269893 -0.0072341054 -0.03946547 0.00020412926 -0.012898726
-0.0069531314 0.0069336374 -0.04410929 0.01349992 -0.017593838 0.028765773 -0.012253248 -0.022037784
-0.007878724 0.0029775696 -0.010643504 0.01333664 0.0028422826 0.018669972 -0.0064561376 -0.00037823946
-0.021868568 -0.036000058 -0.0029780497 -0.009240947 0.0113634 0.010281658 0.010379761 -0.021430284

in_layer2.layers.2.bias f4 [32]
00000000: b939 cc3c 7375 743d b320 f4bd d2e6 d03b
00000010: 9a74 b23b 7664 ab3d c4f7 ac3c 278c 743d
00000020: e7ab d13c 9e07 98bc 302a 2fbd 1c30 1c3c
00000030: 11ac 6bbd c429 873d 3bdb 84bd 0904 9dbd
00000040: c6aa 92bd fa66 c2bc 0253 ebbc 700f 83bc
00000050: 2f23 b2bd bf3d 973b f485 2cbd ce6e dcbd
00000060: ed64 23bd 31eb 903d d6d6 6fbc 9627 a13d
00000070: c109 013d cdb1 90bc 151a 733d 8522 fd3d
0.024929868 0.05968232 -0.119202994 0.006375172 0.005446029 0.08368771 0.021114238 0.059703972
0.025594665 -0.01855832 -0.042764843 0.009532955 -0.057537142 0.06599763 -0.064871274 -0.07666785
-0.07161479 -0.023730744 -0.028726105 -0.015998572 -0.08698117 0.004615515 -0.042119935 -0.10763322
-0.039891172 0.07076109 -0.014638623 0.078688785 0.031503443 -0.017662907 0.059351046 0.123601

sat_layers.layer0_1.0.agg_weight f4 [3]
00000000: 59bd a6bf 8984 be3c 56a7 b53e
-1.3026534 0.023256557 0.3547923

sat_layers.layer0_1.0.input_linear_layer1.weight f4 [32, 32]
00000000: d1ac 1abc f5b9 453c 9f8c 463c 555a a1bd
00000010: 1c78 713c 7820 e33a 4ab8 ca3b 7729 153c
00000020: 8ddc b43b 1094 783c a407 373c 0de7 383c
00000030: ccba 613c 1f55 0a3c 42b7 b23c d6bb 2f3b
00000040: 7d69 84bd 3f6a 293c 7d4f 213b 6b33 55bc
00000050: b3fa a7bd 3e04 94bb ad0e ecbd de1f 95bd
00000060: cc29 cc3b 555c d1bd 9b92 d5bc 1e59 fabb
00000070: 1007 393c 5f6b 35bb 2889 ca3c 0b55 403c
00000080: 7d08 a339 c9c8 beb9 c9cd 02ba 0a27 2239
00000090: 626d d738 25f7 f2b8 51ea a839 3dd2 ff39
000000a0: 9fc8 c5b9 1300 9539 ae9c d039 f37f 8938
000000b0: 6a2b 7ab8 b33f ad39 eedf 3e3a ef90 ce38
000000c0: 38af 2e3a ccf8 643a e8a0 f539 48e7 1e3a
000000d0: 3c96 d338 4a1c 363a 2e4d e438 3fe1 b139
000000e0: c1a3 2739 ffd4 2d3a 75a8 003a 0385 0738
000000f0: 1999 023a b8c4 fcb9 1b43 dbb7 e6b6 99b8
00000100: b60d 1a3b 638a af3a 3d90 903a e8b5 5f3b
00000110: 9a6a 733a 7293 aebb 0979 a13a 6a83 2d3b
00000120: d24c 8ebb c581 0c3b bed4 cb3a c4cc c239
00000130: 853f c7b9 c9de 433b 788f 323b cc32 ff3a
00000140: 4332 b63b cb62 723b efc6 763b be7e c43b
00000150: 3e60 6e3b 2731 b93b 76ae 8d3b 355e 2d3b
00000160: eea2 c43b f5a9 c73b d826 943b 582b 0b3a
00000170: 8549 763b 0041 8dba d501 283a 144f 13bb
00000180: c941 56bb 53e3 a83d c39a 993d 7730 723d
00000190: 3b42 bbbb 0073 83ba 8cea 13bc 0031 97bc
000001a0: 6c00 693b 8e8a c2bb 92cf 6bbc 4f71 d13a
000001b0: f072 21bc 82af 1bbc ffb4 cabc 78b5 a339
000001c0: a827 51bb 7df6 a9bc cb02 fb3b 5108 583c
000001d0: 1ece b73d f164 d93a df39 f53d 90aa 35ba
000001e0: 3908 1f3e 8bd9 003c 0d7b d739 7a9c 753b
000001f0: d97b f8bb 040b 413d 5d16 563c a170 2f3b
00000200: c3b3 83bc 9164 9cbc 42b5 573c 53eb 0fbe
00000210: a878 9e3b 1b08 013b 72de 2e3c 2360 7c3c
00000220: 172c 883c b415 a43c 2644 b13c 7b02 aa3c
00000230: 33f8 8e3c 6a19 2f3c 12d6 133d 3511 8f3b
00000240: 6b87 cabd 5abc 933c c49a 213c 7bbe 74bc
00000250: d427 c0bd 9b3e cfbb ff76 18be 10fa dabd
00000260: 703d 02bd cfe5 e4bd 36d9 85bd 5744 00bc
00000270: 6850 513c f1e4 e9bb 7f1f 903c 15ed e63c
00000280: 0a7c 3e38 99c2 a4b8 5c9d 15b8 c698 bfb8
00000290: b8eb 4337 1c87 83b7 baea 0b38 c223 5b38
000002a0: 052e 76b8 fe7c 1e38 7792 d137 50d5 45b6
000002b0: 7c9b ddb6 3979 fc38 c120 c938 a76a 1c38
000002c0: d492 2438 e109 dc38 52b1 4338 a4e4 6138
000002d0: 06a6 fbb8 4c27 a238 abfa 01b9 c1f8 e0b7
000002e0: 7b1b 08b9 66f8 b738 b410 a737 b3af c036
000002f0: eea2 cd38 a0cb 34b8 b553 42b8 dbfb f1b7
00000300: 6ecb ba3a 250c a53a 56a9 ad3a 7cee df3a
00000310: c518 e339 f2cf eeba 2b81 b83a f2ec 653a
00000320: 8e6d fcba c115 9d3a d383 d23a 78d1 d439
00000330: ca94 cbb9 4040 013b c493 fe3a fe12 aa3a
00000340: 0bbc 55ba e191 0c3b 7fbc 443b c9f0 eb3a
00000350: 0af2 203b ef6d 4c3b f070 413b d692 2db9
00000360: 2d1c 833b 70e1 b2ba f208 2dba 3429 8039
00000370: 6d4d 013b 4dd7 ab39 d72a bdb9 b8fb 94ba
00000380: 2bf2 80bb 29d3 703c 544f 783c d449 a4bc
00000390: 78e5 bfbb b206 11bb b795 633c 072e a4bb
000003a0: 2e91 3b3b 3514 97bb e184 01bc 4eab 80bc
000003b0: 322f 023c a782 273c e7da 44bc 4746 a0bb
000003c0: f77c 86bc b4cc e539 caaa 0abd d259 b5bc
000003d0: fe15 a3bc cafd 95bc c3ec a5bc 785c 93bc
000003e0: 628a 93bc 872c 90bc d7fd 96bc 52e1 6cbc
000003f0: c5df 08bb 5f67 d03b d463 993a 56d2 3abc
-0.009440617 0.012068261 0.012118488 -0.078785576 0.014738109 0.0017328402 0.0061865197 0.009104124
0.0055194558 0.01517202 0.011171255 0.011285556 0.013777446 0.008443146 0.0218159 0.002681484
-0.06465433 0.010340272 0.002461403 -0.013012747 -0.08202114 -0.0045171073 -0.11526237 -0.07281469
0.0062305685 -0.10222689 -0.026070883 -0.007640018 0.011293188 -0.0027682406 0.024723604 0.011739026
0.00031096107 -0.0003638922 -0.0004989771 0.00015464067 0.00010272373 -0.000115854935 0.00032218036 0.0004879403
-0.00037724242 0.0002841955 0.00039789587 6.5565015e-05 -5.9645077e-05 0.0003304459 0.0007281293 9.8498414e-05
0.0006663683 0.00087345834 0.00046849926 0.0006061685 0.000100892474 0.00069469644 0.00010886263 0.00033927892
0.00015987364 0.0006631165 0.00049079146 3.2310385e-05 0.000498192 -0.00048211752 -2.6138083e-05 -7.329676e-05
0.0023506708 0.0013392683 0.0011029314 0.0034135524 0.0009285599 -0.0053276354 0.0012319396 0.0026476034
-0.004342654 0.0021439653 0.0015551073 0.00037155126 -0.00038003564 0.002988743 0.0027246159 0.0019470095
0.005560191 0.0036985155 0.0037655195 0.005996554 0.0036373283 0.0056516114 0.004323776 0.0026453857
0.006000868 0.0060932585 0.004521232 0.0005308888 0.0037580442 -0.0010776818 0.00064089644 -0.0022477554
-0.003269302 0.08246484 0.075002216 0.05912825 -0.0057146824 -0.001002878 -0.009028088 -0.018455982
0.003555323 -0.005936927 -0.01439275 0.0015979203 -0.009854063 -0.009502294 -0.024744509 0.00031224987
-0.0031914506 -0.020747418 0.007660245 0.013185577 0.089748606 0.0016585869 0.11973929 -0.0006930018
0.1553048 0.007864366 0.00041099676 0.00374773 -0.007583123 0.047129646 0.013066855 0.0026770013
-0.016076928 -0.019090923 0.013165774 -0.14054613 0.0048361607 0.001968867 0.010673152 0.01540378
0.016622586 0.02002988 0.021638941 0.020753136 0.017452335 0.0106872115 0.036092825 0.004366065
-0.0988911 0.018034149 0.009863559 -0.014937992 -0.093825966 -0.006324602 -0.14889143 -0.10692227
-0.031796873 -0.11176645 -0.0653557 -0.0078287935 0.012775518 -0.0071378876 0.017593144 0.028189221
4.541505e-05 -7.856376e-05 -3.567092e-05 -9.136046e-05 1.1677788e-05 -1.5679332e-05 3.335879e-05 5.224697e-05
-5.869383e-05 3.7786544e-05 2.4982945e-05 -2.9479452e-06 -6.604414e-06 0.00012038876 9.590528e-05 3.7292626e-05
3.923739e-05 0.000104922576 4.6656765e-05 5.385712e-05 -0.00011999537 7.7320816e-05 -0.0001239578 -2.6818716e-05
-0.00012980208 8.772388e-05 1.991573e-05 5.7425e-06 9.80551e-05 -4.3104985e-05 -4.6331163e-05 -2.8846718e-05
0.0014251301 0.001259212 0.0013249319 0.0017084624 0.0004331527 -0.0018219932 0.0014076581 0.00087709643
-0.0019258724 0.0011984633 0.0016061015 0.00040591857 -0.00038830034 0.0019722134 0.00194227 0.0012975631
-0.0008153326 0.0021449255 0.003001958 0.0018000837 0.002455833 0.0031193455 0.002951678 -0.00016553266
0.0040011615 -0.0013647508 -0.0006600759 0.0002444476 0.0019729987 0.00032776073 -0.00036080807 -0.0011366522
-0.0039351187 0.014698782 0.015155632 -0.020054735 -0.005856212 -0.0022129235 0.013890675 -0.0050103697
0.002862047 -0.004610563 -0.007905216 -0.015706684 0.007945823 0.010224021 -0.012015081 -0.00489119
-0.01641701 0.000438308 -0.033854283 -0.022137556 -0.019907948 -0.018309493 -0.020254498 -0.017988428
-0.018010322 -0.017599357 -0.018431587 -0.014458017 -0.002088533 0.006359979 0.0011702725 -0.011402687

sat_layers.layer0_1.0.input_linear_layer1.bias f4 [32]
00000000: f0d3 bf3d a157 abba 1bd3 96bb 0fff 7abd
00000010: b460 823e 14c4 68b9 1db4 babb 5b17 843c
00000020: 3a18 8bb7 1602 1bbc d185 61bd 2c7d a039
00000030: 1fe4 44be 54c5 533b 765d 81bc 04bd 99bc
00000040: 00fd 96ba a474 423b 19ba 77bc a287 a5bb
00000050: ed78 aabd 39e8 a3bd b037 8abd c202 b539
00000060: 5ac2 14bb 2f47 0ebe 758f 753b 151a e8bc
00000070: 6f03 d7ba 45af 1cbc 686c 03be 1f70 943e
0.09366596 -0.001307238 -0.0046028025 -0.0612784 0.25464404 -0.00022198289 -0.0056977407 0.016124418
-1.6581373e-05 -0.009460947 -0.055059258 0.00030610838 -0.19227646 0.0032313662 -0.015791636 -0.018766887
-0.0011519492 0.0029671574 -0.015120053 -0.005051569 -0.08323846 -0.08003277 -0.06748903 0.00034525065
-0.002269885 -0.13894342 0.003746954 -0.02833275 -0.0016404222 -0.009563272 -0.12834322 0.28991792

sat_layers.layer0_1.0.input_linear_layer2.weight f4 [32, 32]
00000000: 5f88 ea3c 7bd2 563c 30eb 96bd e50a 683c
00000010: 2802 99bc 3440 013c b0da 86bb d518 f23a
00000020: 9c55 053b 37d4 98bc 2f1b 273d 4f10 2abd
00000030: 9994 ac3c 7ec0 b03b b22d 17bb 741f 8a3b
00000040: 1720 5a3d 59be a83c 6468 5ebd 3435 f539
00000050: 02ec e2bd 787d 023d 2eb0 173d 80fb db3d
00000060: 31a1 b33c 0363 333e 0eb8 813c f6c9 2d3c
00000070: 5727 e5bb 47e6 76bc c9f7 70bd 0c1d 83b7
00000080: bdfe 8fbc 1e0f 083d 21fd 3e3d 2569 213d
00000090: c42d 113d 8bc4 8dbc c4e2 073c 38c5 183c
000000a0: 74be b93a 3a5e aa3c edfa 123d 4c5f 213d
000000b0: 7cc2 63bc b277 10bb 1f3c 113c ec42 df3b
000000c0: 34e7 07be 5a55 cf3a 9846 343d a5af 26bd
000000d0: c169 94bc 443b 893c 5d23 a3bc 1e99 8bbd
000000e0: aa01 29bd 19ba 34be 9e33 14bd 60ef a4bc
000000f0: ab36 8f3b e374 84bd c44d 9ebd c694 403b
00000100: 281f 63bc f483 99bb 892f b63b b320 b0bc
00000110: cde7 823b 8525 57bc 0883 a43b 5694 8d3b
00000120: 7fc1 4ebc 5d1c 6c3b a969 873b 6bc9 433c
00000130: db77 1e3c 77e6 023c d74b d43b 95ee 06bb
00000140: 8ec2 aa3b 6861 d23b 530d 413c 7417 9eb9
00000150: 135f a2bc b234 12bc 6f73 5cbc 6f95 94bc
00000160: b826 92bc 4d87 10bd f19e eebb 0e65 8cbc
00000170: bc6b 903b d6c8 7a3b 4e3e 69ba c01f 35bc
00000180: 679c 72bc 0ff8 943c 334b cfbd 3ec9 a0bd
00000190: 2853 613c 65da a0bb 7c52 10bc fe88 0abd
000001a0: 1414 af3c c976 37bb e255 843c 0602 0a3c
000001b0: e010 023b 26b2 2cbc 363e c1bc d507 9eba
000001c0: f7ea 863c fb39 0cbd f699 a53c a159 14be
000001d0: f808 383d dbdc 4abd 6158 6dbd 4422 1bbd
000001e0: fce0 d8bd a242 1d3d 041e 5bbd a04b 96b9
000001f0: d31d 31bc 7930 bcbd 7b05 51bd ff29 393c
00000200: af25 b0bc bec6 02bd 67d3 01be 8a2c 1b3d
00000210: cdf8 c33c 4784 a3bb 1750 163b b51a 0abd
00000220: 1e2e 87bc 24ad 0cbc 68d1 bcbd 433f ddbc
00000230: ecf9 b8bc 5d84 78bd 49c6 7bbd 10d5 2f3b
00000240: 03fe f73d fd97 9cbc b310 a8bc 3b65 36bb
00000250: 2a10 8cbd f71a ec3c ae81 19bd f9d3 ca3c
00000260: a5ed c1bd 172f 5b3e fa75 443e b6c6 26bc
00000270: 02e8 ff3a 1247 e1bd 7643 b13d b737 c53b
00000280: a033 e339 b635 3b3b 1c7a 91b8 47fd 1ebd
00000290: 152b 183b a818 8e3b 8e0e 3d3a fef8 ecba
000002a0: 6ed2 10bc 28f4 443a ea85 613b a415 773b
000002b0: b640 263a 6984 543b 2c87 4e3b 099f 09bb
000002c0: 6b2c 3fbc 1bdb 3a3b 1162 933b b2b5 cb3a
000002d0: 87d7 1bbc 3492 2d39 c041 9639 eb80 57bc
000002e0: c3bc 49bc d836 51bc c99f e6bb f683 9e3a
000002f0: 7ae3 6b3b 095c cfba 373d d1bb 74a8 a5bb
00000300: ed58 82bb f7f3 213c e3bd 3d3c 1db5 8cbb
00000310: f9c1 1d38 d90f 083b b49a 4e39 5ca7 88bb
00000320: 3532 a23a 9da9 fbba 8d39 04ba 712c 483a
00000330: 2067 46bb 5839 9a3a 6fad 72ba f839 ceb9
00000340: 4203 be3b fa9c 26bb 11d1 5fba b315 03ba
00000350: 9bcc 8b3a 82b4 6abb fe14 8c3c 887e 66bb
00000360: 4511 74bb e541 3e3c aeef 243c b2da 37bb
00000370: 9d64 6abb 4f1c 703b 48c3 1a3b 19ac 583a
00000380: bb25 493d 68f9 50be 8149 7ebe 49e2 c03d
00000390: 1c99 9abc 1837 b93b a2ec e7bb 7e74 b03d
000003a0: 045a cfbd 3fb8 02bd 0ac2 17be 6e55 a6bc
000003b0: a222 2cbe 478a a63d b3da 8c3c e901 0cbc
000003c0: b5ea 5e3e e41e 483d ccf9 2cbd b93a 793e
000003d0: c0f7 d5bd 6d0f 1b3e 67a7 60be f752 873e
000003e0: 05e5 16be 6c95 df3e f74f 613e ecd1 3ebb
000003f0: 655f efbb b24e c5bd b990 643e 9b53 3ebc
0.02862948 0.013111706 -0.07369077 0.014162754 -0.018677786 0.007888842 -0.004115425 0.0018470535
0.0020345217 -0.01865588 0.04079741 -0.04151946 0.02106695 0.0053940406 -0.0023068008 0.0042151753
0.05325326 0.020598577 -0.054298773 0.0004676968 -0.11080171 0.031857938 0.037033252 0.10741329
0.021927448 0.17518239 0.015834834 0.010607233 -0.006993215 -0.015069551 -0.058830056 -1.5629943e-05
-0.017577523 0.033217542 0.04662812 0.039406914 0.035444036 -0.017305633 0.008293811 0.009324364
0.0014171139 0.020796884 0.035883833 0.039397523 -0.013901349 -0.0022044 0.008864432 0.0068133976
-0.1327179 0.0015818283 0.044012636 -0.04069485 -0.018116834 0.016751893 -0.019914323 -0.06816314
-0.041261353 -0.17649116 -0.03618204 -0.020133674 0.0043705306 -0.06467607 -0.07729676 0.002938555
-0.013862409 -0.0046849195 0.005559866 -0.021499967 0.003994918 -0.013131504 0.005020503 0.0043206615
-0.012619375 0.0036027648 0.0041324687 0.011949877 0.00967213 0.007989517 0.0064787674 -0.0020588983
0.005211181 0.006420303 0.011782962 -0.00030153582 -0.019820726 -0.008923696 -0.013455256 -0.018137662
-0.017840728 -0.035285283 -0.007282131 -0.01713803 0.004407374 0.003826668 -0.0008897529 -0.011054933
-0.014807797 0.01818469 -0.10121765 -0.07850884 0.013752736 -0.004908847 -0.008808728 -0.033822052
0.021371879 -0.0027994385 0.016154233 0.008423334 0.0019846484 -0.010540521 -0.023589235 -0.0012056777
0.016469462 -0.034234982 0.020215016 -0.14487316 0.04493043 -0.04952703 -0.057945613 -0.037874475
-0.10589787 0.038393624 -0.053495422 -0.00028666575 -0.010810333 -0.09188933 -0.051030617 0.011301517
-0.021502344 -0.031927817 -0.126783 0.037884273 0.023922348 -0.004990134 0.002293592 -0.033716876
-0.016501483 -0.008586202 -0.092196286 -0.027007705 -0.02258011 -0.060673106 -0.061468396 0.0026829876
0.12108996 -0.019115442 -0.020515775 -0.0027831334 -0.068390206 0.028821452 -0.037477188 0.02475928
-0.09469155 0.21404682 0.1918563 -0.010179212 0.00195241 -0.10999884 0.08655445 0.0060186046
0.00043335278 0.002856595 -6.9368834e-05 -0.038815763 0.0023219038 0.0043364353 0.00072119466 -0.0018079577
-0.008839233 0.0007513189 0.0034412094 0.0037702108 0.000634204 0.0032427555 0.0031513674 -0.0020999333
-0.011668305 0.0028511945 0.0044977744 0.001554182 -0.009511835 0.0001655303 0.00028659217 -0.013153295
-0.012313071 -0.012769423 -0.007038091 0.0012093771 0.003599374 -0.0015820275 -0.006385471 -0.0050554816
-0.003977886 0.009884826 0.011580917 -0.0042940513 3.7612368e-05 0.00207614 0.00019703322 -0.0041703414
0.0012374582 -0.0019200329 -0.0005043976 0.0007636017 -0.003027387 0.0011766357 -0.0009257411 -0.00039334572
0.005798728 -0.0025423155 -0.0008537928 -0.0005000487 0.0010665836 -0.0035813157 0.017099854 -0.0035170633
-0.0037241739 0.01161239 0.01006691 -0.0028053937 -0.0035765537 0.0036637967 0.0023614932 0.00082653906
0.04910825 -0.20407641 -0.24832727 0.094181605 -0.018871836 0.0056523196 -0.0070777694 0.08615969
-0.10124591 -0.031913992 -0.14820114 -0.020304408 -0.16810086 0.08131843 0.017194128 -0.008545377
0.21769221 0.048857585 -0.042230412 0.24338807 -0.10447645 0.15142603 -0.21938859 0.26430485
-0.14735802 0.43668687 0.2200316 -0.0029116822 -0.007305073 -0.096341506 0.22320832 -0.011616613

sat_layers.layer0_1.0.input_linear_layer2.bias f4 [32]
00000000: a88d f83c e77f c4bd 08c8 0fbb fd92 99bd
00000010: 2d5e 90bd deb9 57ba 2214 61bd 1b26 9d3a
00000020: 2046 f2bd 5fbb ebbd 272a c93c 15d0 c8bc
00000030: 6bfc 05be 7435 7a3d 63d0 f43d 29b9 4c3d
00000040: 0aa2 28be 578d a2bd b112 093e 1183 87bd
00000050: e03c 18bd 5503 9c3d e7f0 f23b b5c5 783d
00000060: abbb 203c fa78 d93d dee2 af3c bebb 2bbe
00000070: f515 29be fe54 983d 54fe 97bd 5769 203e
0.030340984 -0.09594708 -0.0021939296 -0.07498739 -0.070492126 -0.00082292955 -0.05495084 0.0011989506
-0.118297815 -0.115103476 0.024556233 -0.024513284 -0.13084571 0.061086133 0.11953809 0.04998127
-0.16468063 -0.07937115 0.13386036 -0.06616796 -0.03716743 0.07617823 0.0074139717 0.060735423
0.0098103685 0.106187776 0.021470483 -0.16770837 -0.16512282 0.07438086 -0.07421556 0.15665184
