output/modelparams/dynamicLearning-ER-UAU-SAT/epoch28_model_state_dict.pth (torch, 223885 bytes, 128 tensors)

in_layer0.layers.0.weight f4 [32, 2]
0	0xbd70c54a	-0.0587819
1	0x3e90ede7	0.28306505
2	0xbe8a3deb	-0.27000365
3	0xbe5c2378	-0.21497905
4	0xbe238840	-0.15969944
5	0x3e9ac2bc	0.30226696
6	0xbe624c3c	-0.22099394
7	0x3f30eaca	0.6910826
8	0xbeabbfbe	-0.33544725
9	0x3e8c7fe8	0.27441335
10	0xbe8494a9	-0.2589467
11	0xbe2226e1	-0.15835144
12	0xbf47cff6	-0.780517
13	0xbd75d4bf	-0.060017344
14	0x39b9053d	0.00035289853
15	0x39eb6fec	0.0004490608
16	0x3e8809b4	0.26569903
17	0x3e3c1075	0.18365653
18	0xbf0394ad	-0.51398736
19	0xbe3feb43	-0.18742089
20	0x3e85ec4e	0.2615685
21	0x3ea939f9	0.33052042
22	0xbefb8789	-0.49126843
23	0x3f25a577	0.64705604
24	0xbda08372	-0.07837571
25	0x3dc27280	0.094944954
26	0x3ef058cb	0.46942744
27	0xbe2b7bbc	-0.1674642
28	0xbefd3b45	-0.49459282
29	0xbc825171	-0.015907975
30	0xbe8b0d8e	-0.2715878
31	0x3ef54b12	0.47908837
32	0xbedf9818	-0.43670726
33	0xbd8f9823	-0.0701144
34	0xbed2eae3	-0.4119483
35	0xbf1ea241	-0.6196633
36	0xbf21dc98	-0.63227224
37	0x3f40f13e	0.75368106
38	0x3e42f0b4	0.19037133
39	0x3e1efa7a	0.15525237
40	0x3bd6850c	0.006546622
41	0xbef92fd7	-0.4866931
42	0x3e05cef4	0.13067228
43	0xbee465c8	-0.44608903
44	0xbec66992	-0.3875242
45	0xbe0e67e4	-0.13906819
46	0x3af6c87d	0.0018828061
47	0x3b01922f	0.001977097
48	0xbecad4eb	-0.3961557
49	0x3d88f5f9	0.066875406
50	0x3ebd386f	0.36957118
51	0x3f3b293b	0.7310979
52	0x3de11754	0.109907776
53	0x3d7e5fd0	0.062103093
54	0x3f01464e	0.504979
55	0xbf1fddb5	-0.62447673
56	0x3dad68e4	0.08467272
57	0xbf246d7d	-0.64229566
58	0xbf0d40ef	-0.55177206
59	0xbe310f80	-0.17291069
60	0x3ecebdd4	0.40379202
61	0x3df135d8	0.11777848
62	0xbf0d8894	-0.55286527
63	0xbc41b53a	-0.011822993

in_layer0.layers.0.bias f4 [32]
0	0x3e31d437	0.1736611
1	0xbeaee1c2	-0.34156615
2	0x3e189d89	0.14903845
3	0x3dca4717	0.098768406
4	0x3ea36b66	0.31917876
5	0x3f101dc7	0.56295437
6	0xbf21669d	-0.630472
7	0xb9d17a9c	-0.00039954938
8	0x3e61961e	0.22029921
9	0x3f02bcbd	0.5106924
10	0x3f114e2a	0.56759894
11	0x3f00b3c5	0.50274307
12	0x3d9a636e	0.07538496
13	0xbeec7807	-0.46185324
14	0x3d972f38	0.07382053
15	0xbecbbaca	-0.39790946
16	0xbf17f4c0	-0.59357834
17	0x3ed4e778	0.41582847
18	0x3f01473d	0.50499326
19	0xbf3b1e1c	-0.7309282
20	0x3cbd4193	0.023102557
21	0xbde105bf	-0.10987424
22	0xbe92a752	-0.2864328
23	0xbafdf021	-0.0019373932
24	0x3e83f321	0.2577143
25	0xbec4e69f	-0.384572
26	0x3d9de1f0	0.0770911
27	0x3eb4b9eb	0.35298094
28	0x3eddaa29	0.43293884
29	0x3e3da5b7	0.18520246
30	0xbecd0253	-0.40040836
31	0xbf3431f6	-0.70388734

in_layer0.layers.2.weight f4 [32, 32]
0	0x3d806034	0.06268349
1	0xbcd12e1b	-0.02553468
2	0xbe0785a1	-0.13234569
3	0xbd281abb	-0.041041117
4	0x3e1da2ad	0.15394087
5	0x3d1981e8	0.037477404
6	0xbd5bc1a4	-0.053651467
7	0xba0b054b	-0.0005303218
8	0xbe0c741e	-0.1371617
9	0xbb1a7600	-0.0023568869
10	0xbda80b30	-0.08205259
11	0xbd913230	-0.07089651
12	0xbcf139f7	-0.029446585
13	0xbbb234e8	-0.005438436
14	0xbdbf321f	-0.09335732
15	0x3d8ed827	0.069748215
16	0xbdb96f32	-0.09054412
17	0x3de66d76	0.11251347
18	0x3e2a491d	0.16629453
19	0xbdcf6816	-0.10127275
20	0xbbdcc4fc	-0.0067373496
21	0xbc26036d	-0.010132653
22	0xbc60e814	-0.013727207
23	0xba148818	-0.00056660315
24	0x3d86402b	0.06555208
25	0x3acdb5e3	0.0015694465
26	0xbdcafaf4	-0.09911147
27	0x3d9e26e3	0.07722261
28	0xbe1a0346	-0.15040311
29	0xbd8fdb8f	-0.07024299
30	0x3cb2d415	0.021829644
31	0xbd6426d4	-0.055701092
32	0x3d439804	0.047752395
33	0xbe5fd95b	-0.21860258
34	0x3e1baef8	0.15203464
35	0x3e494338	0.19654548
36	0xbc3655b0	-0.011128828
37	0x3cc9140c	0.024545692
38	0x3c29ed4a	0.0103715155
39	0xb88a6a56	-6.6001594e-05
40	0x3d3a6716	0.045508467
41	0x3d976a8d	0.0739337
42	0x3e11aa9d	0.1422524
43	0x3e83cf67	0.25744173
44	0x3e6b49d2	0.22977379
45	0xbde01d81	-0.109431274
46	0x3e2e9fcc	0.17053145
47	0x3e06b644	0.13155466
48	0xbe54cfd9	-0.20782413
49	0xbe216f7f	-0.15765189
50	0x3e99feda	0.3007725
51	0xbda12578	-0.07868475
52	0xbe8828da	-0.26593667
53	0xbea4db06	-0.32198352
54	0xbe4cfb74	-0.20017797
55	0xb899fea3	-7.343038e-05
56	0x3e0bf784	0.13668638
57	0x3e4ab671	0.19796158
58	0x3d0456f0	0.032309473
59	0xbe927a7e	-0.2860908
60	0xbcb3a3df	-0.021928726
61	0xbd51de8f	-0.05123764
62	0xbd92a6e9	-0.07160742
63	0xbe004dea	-0.12529722
64	0xbaeadade	-0.0017918011
65	0xbacdfd00	-0.0015715659
66	0xba82da71	-0.0009983314
67	0xbb68ed07	-0.003554167
68	0xbaee44fd	-0.0018178519
69	0x3b07ef58	0.0020742025
70	0x3a326eca	0.000680667
71	0xb8011d40	-3.0783238e-05
72	0xbc11ed5e	-0.00890669
73	0xba0a0f01	-0.0005266518
74	0x3da5e475	0.08100215
75	0xbc070c17	-0.008242629
76	0x38a9ef83	8.1031605e-05
77	0x39ad7cb8	0.00033090054
78	0xbb1c5828	-0.0023856256
79	0x3926d1ca	0.00015909146
80	0xba5e52ea	-0.0008480983
81	0xb94c77fb	-0.00019499652
82	0xbb5add66	-0.0033396124
83	0xbb31baec	-0.002711947
84	0x3977362a	0.00023575933
85	0x397ce1d5	0.00024116722
86	0x3a9a47e3	0.0011770691
87	0xb8285214	-4.0130762e-05
88	0xba8e7c91	-0.0010870864
89	0xba05002f	-0.0005073575
90	0x38cf642e	9.889189e-05
91	0xbc2979d7	-0.01034399
92	0xbc86e517	-0.01646666
93	0xba384e6d	-0.00070307293
94	0x37b1f207	2.1212747e-05
95	0x3a598abc	0.0008298566
96	0xbcf37846	-0.029720437
97	0x3d846210	0.064640164
98	0x3d94f34e	0.07272969
99	0x3d99fb74	0.07518664
100	0xbbf94afb	-0.0076078153
101	0xbd27dd4b	-0.040982526
102	0xbc88d837	-0.016704662
103	0xb8c8a5f8	-9.567657e-05
104	0xbdf1d0c0	-0.11807394
105	0x3db22875	0.08699123
106	0xbe40373c	-0.1877107
107	0x3b8f1c31	0.0043673743
108	0x3cbe8041	0.023254516
109	0xbd3c23f2	-0.045932718
110	0x3da08b1e	0.078390345
111	0x3e1fa628	0.15590727
112	0x3d8a5b4c	0.06755695
113	0xbcd20f67	-0.02564211
114	0x3e3b1ce6	0.18272743
115	0x3d67a1b8	0.05655071
116	0xbd9d0312	-0.07666601
117	0xbdca69dd	-0.09883473
118	0x3d97f483	0.07419684
119	0xb8d47fb6	-0.00010132736
120	0x3d8ca095	0.06866566
121	0x3d3072f2	0.04307837
122	0xbcd0d80e	-0.025493648
123	0xbec331a7	-0.3812382
124	0xbe6c6b42	-0.2308779
125	0x3d9ceea8	0.076627076
126	0x3c5fc6bf	0.013658225
127	0x3d19d7cb	0.03755931
128	0xbd061840	-0.03273797
129	0x3d584221	0.05279744
130	0xbc5d8083	-0.013519409
131	0xbc97d9a0	-0.018536389
132	0xbca354ab	-0.019937834
133	0xbd83cf55	-0.0643603
134	0x3d165be1	0.036708716
135	0xb8463be3	-4.7262653e-05
136	0xbdda824d	-0.10669384
137	0xbc115686	-0.008870726
138	0xbe51bb6a	-0.20481649
139	0xbd748c8c	-0.05970435
140	0xbb6bd5d7	-0.0035985613
141	0x3bcfd145	0.0063420855
142	0x3d26f9cb	0.040765565
143	0x3d448c2e	0.04798525
144	0x3d4ce50e	0.05002313
145	0x3b3c1bf6	0.002870319
146	0xbd4a9550	-0.0494588
147	0x3d500f96	0.050796114
148	0x3b1493da	0.0022671134
149	0x3b891a3f	0.004184037
150	0x3d586651	0.05283195
151	0xb81c569c	-3.727396e-05
152	0x3c0946b1	0.008378671
153	0xbc0b4a1e	-0.008501558
154	0xbd05a69f	-0.032629605
155	0xbe45bff3	-0.19311504
156	0xbdcef588	-0.10105425
157	0x3d1bd331	0.038043205
158	0x3b85740c	0.0040726718
159	0x3d2feab6	0.042948447
160	0xbdc931b0	-0.0982393
161	0x3da74e6b	0.08169254
162	0xbced23d4	-0.028947748
163	0xbe1065f1	-0.14101388
164	0xbd4fa76d	-0.05069678
165	0x3d1be74f	0.03806239
166	0x3d80a9a0	0.062823534
167	0x3943d372	0.00018675419
168	0x3cde67d4	0.027149118
169	0xbc881536	-0.016611677
170	0xbda6b713	-0.081403874
171	0xbe0aeeda	-0.13567677
172	0xbbb520cc	-0.0055275913
173	0x3c0cb1c2	0.008587303
174	0xbd4aeaf2	-0.049540468
175	0xbdab7153	-0.08371224
176	0xbd7dc460	-0.061954856
177	0x3b0a6919	0.0021119772
178	0xbe6a868e	-0.22902891
179	0xbd85b0f6	-0.06527893
180	0x3b9f3dd7	0.004859667
181	0x3c09a387	0.008400804
182	0x3c8e1c96	0.017347615
183	0x394cf7e2	0.000195473
184	0xbd1091d9	-0.03529534
185	0xbca9b407	-0.020715727
186	0xbda2c207	-0.07947164
187	0x3e075955	0.13217671
188	0x3d04335e	0.03227555
189	0x3d9b0627	0.07569533
190	0x3b80c6cc	0.0039299484
191	0x3d5f27de	0.05448138
192	0xbd404af0	-0.046946466
193	0x3c874f4d	0.016517306
194	0xbd2c8f42	-0.04212881
195	0xbde58d45	-0.11208586
196	0xbd7809a3	-0.060556065
197	0xbc81602e	-0.015792932
198	0x3cdb1e71	0.026747914
199	0x3829d197	4.0487936e-05
200	0x3da1937c	0.078894585
201	0xbcb477c0	-0.022029757
202	0x3cdde34e	0.027085926
203	0xbe38ab24	-0.18034035
204	0xbbdbdf79	-0.0067099896
205	0x3c713582	0.01472223
206	0xbd54e9ea	-0.05198089
207	0xbca15885	-0.01969553
208	0x3cedb66a	0.029017646
209	0x3b87aac0	0.004140228
210	0xbe2c87fe	-0.16848752
211	0x3d086b8d	0.033305693
212	0x3c88757e	0.016657587
213	0x3c87b670	0.016566485
214	0xbd2006a9	-0.03906885
215	0x3849e30e	4.8133596e-05
216	0xbd34f46a	-0.044178404
217	0xbcd6fe02	-0.026244167
218	0x3c808096	0.015686315
219	0x3e0bced4	0.13653117
220	0xbc6e0063	-0.014526459
221	0xbcba562b	-0.022746166
222	0x3bd42e09	0.0064752144
223	0x3ceb48c9	0.02872123
224	0xbcc9f65f	-0.024653612
225	0x3a608d44	0.0008565972
226	0xbd1fc78d	-0.039008666
227	0xbdea8107	-0.11450391
228	0xbd7716c3	-0.06032444
229	0x3db27e34	0.087154776
230	0x3cb8f7f1	0.022579165
231	0x38047ad2	3.1585638e-05
232	0x3da50e5f	0.08059382
233	0xbcba10ac	-0.022713028
234	0xbde73065	-0.112885274
235	0xbe1bbfd0	-0.1520989
236	0xbc09b07a	-0.008403892
237	0x3c89138a	0.01673295
238	0xbda9fe8c	-0.08300504
239	0xbd28801f	-0.04113781
240	0x3d249d11	0.040188853
241	0x3bc4ec83	0.0060096397
242	0xbe4253f5	-0.1897734
243	0x3d0c645f	0.03427541
244	0x3c931209	0.017952936
245	0x3c996fb3	0.01873002
246	0x3d38d980	0.0451293
247	0x381d2eff	3.7475485e-05
248	0xbd50df81	-0.0509944
249	0xbcde0851	-0.027103575
250	0x3d45ffbf	0.0483396
251	0x3e2b3b76	0.16721901
252	0x3c254410	0.010087028
253	0xbcc0ae77	-0.023520691
254	0x3c0e18c6	0.008672899
255	0x3d086b0a	0.033305205

in_layer0.layers.2.bias f4 [32]
0	0x3d53aa43	0.051676046
1	0x3bcf81f7	0.0063326317
2	0xbd268c6a	-0.040661253
3	0xbde7c4f4	-0.11316863
4	0xbeab3d9d	-0.33445445
5	0xbd7cb508	-0.061696082
6	0xbe16fd94	-0.1474517
7	0xbddb216d	-0.10699735
8	0x3d08f8cc	0.033440396
9	0xbd4c0ede	-0.049818866
10	0xbed0a36b	-0.40749678
11	0x3e82f558	0.25577807
12	0x3bc89a62	0.0061219195
13	0x3d63e6e0	0.0556401
14	0xbdc1780f	-0.094467275
15	0xbd92a60d	-0.07160578
16	0x3dde5a68	0.108570874
17	0xbc3e443f	-0.011612951
18	0x3d168990	0.036752284
19	0xbeb022b2	-0.3440147
20	0x3c248403	0.01004124
21	0xbc2ea1e5	-0.010658716
22	0xbcc7c0ae	-0.024383869
23	0xbc9d71bb	-0.01921927
24	0x3d96f618	0.073711574
25	0xbd81e35c	-0.063421935
26	0x3e3acc44	0.18241984
27	0xbea90269	-0.3300965
28	0x3dc63a33	0.09679069
29	0xbdaae3ae	-0.08344208
30	0x3d065d23	0.032803666
31	0xbea8a79e	-0.32940382

in_layer1.layers.0.weight f4 [32, 2]
0	0xbf1828a9	-0.5943704
1	0x3c2abb00	0.010420561
2	0x3f0ea421	0.5571919
3	0xbf1b062f	-0.6055631
4	0xbea17da9	-0.31541184
5	0x3f1efc73	0.62103957
6	0xbdf2da10	-0.11857998
7	0x3e95fcae	0.29294342
8	0xbf2e23e9	-0.68023545
9	0xbe63b560	-0.22237158
10	0xbeb7dad9	-0.35909155
11	0x3f189c41	0.59613425
12	0x3e9642ae	0.29347748
13	0xbf0415dd	-0.5159586
14	0x3de97b48	0.11400467
15	0xbc052780	-0.008127093
16	0xbe94c032	-0.29052883
17	0xbecec077	-0.40381214
18	0xbe7046de	-0.23464534
19	0x3f0eaf29	0.55736023
20	0xbf01c39e	-0.50689113
21	0xbf00f2aa	-0.50370276
22	0xbe5f6446	-0.21815595
23	0x3c498a80	0.012301087
24	0x3e451a3c	0.19248289
25	0x3cadd340	0.021218896
26	0xbe2e4dd0	-0.1702187
27	0xbedb85b0	-0.42875433
28	0xbe01ec50	-0.12687802
29	0xbe91bd68	-0.28464818
30	0x3f124031	0.571292
31	0xbf3034b9	-0.6883045
32	0xbee6edfb	-0.4510344
33	0xbf13468a	-0.5752951
34	0xbe04547c	-0.12922853
35	0x3f0d1045	0.5510295
36	0x3f1eaba9	0.6198068
37	0xbf1d965c	-0.61557555
38	0xbcfaf9e0	-0.030636728
39	0x3ed48122	0.4150477
40	0x3e9f95f2	0.31169087
41	0x3f14460d	0.5791939
42	0xbca0ad40	-0.019613862
43	0xbef3404c	-0.47509992
44	0x3eef7fe6	0.46777266
45	0xbe784bf2	-0.24247721
46	0x3ebb7566	0.36613005
47	0xbe327068	-0.17425692
48	0x3e99e686	0.30058688
49	0x3f22d041	0.6359902
50	0x3f285263	0.6575071
51	0xbf24bd47	-0.64351314
52	0xbeef7b40	-0.4677372
53	0xbe95b0e4	-0.2923652
54	0xbee6df58	-0.45092273
55	0x3f2db025	0.678469
56	0xbd7fcc70	-0.062450826
57	0xbef027aa	-0.4690526
58	0xbea11a77	-0.31465504
59	0xbec7fa33	-0.39058074
60	0x3e93b53c	0.28849208
61	0xbf1de4f2	-0.6167747
62	0xbf28c872	-0.65930855
63	0xbf32711c	-0.6970384

in_layer1.layers.0.bias f4 [32]
0	0x3e9bddca	0.3044265
1	0x3eb302fe	0.3496322
2	0xbee0daca	-0.43916923
3	0x3e338e40	0.17534733
4	0x3f05a02d	0.52197534
5	0x3dd26b38	0.102743566
6	0xbe193390	-0.14961076
7	0x3d55fc70	0.052242696
8	0xbd9b4840	-0.0758214
9	0x3eb64942	0.35602766
10	0xbef5d410	-0.48013353
11	0x3eb7973a	0.35857564
12	0x3ecc0db2	0.398542
13	0xbedb599d	-0.42841807
14	0x3f13d055	0.57739764
15	0x3f31cb5f	0.69450945
16	0xbe8eb9dd	-0.27876177
17	0xbe4acf5c	-0.19805664
18	0x3eb46c8a	0.3523906
19	0xbf0dd072	-0.5539619
20	0x3e8f2bcc	0.27963102
21	0x3e28ee40	0.16497135
22	0x3ee43426	0.44571036
23	0xbf1d3c10	-0.61419773
24	0xbf16635b	-0.58745354
25	0x3ea29a22	0.3175822
26	0x3e826904	0.25470746
27	0xbf287c97	-0.6581511
28	0xbec9e4f1	-0.3943248
29	0xbf25a0f9	-0.6469875
30	0xbf01afb8	-0.5065875
31	0xbea35a0a	-0.31904632

in_layer1.layers.2.weight f4 [32, 32]
0	0x3e15cceb	0.14628951
1	0xbd1020d4	-0.035187557
2	0x3dcfeff6	0.10153191
3	0x3e2be91d	0.16788144
4	0x3da4fe22	0.080562845
5	0xbe220ce6	-0.15825233
6	0x3db62fa2	0.08895804
7	0x3d8a1814	0.06742874
8	0x3e0c4d45	0.13701351
9	0xbe32904c	-0.17437857
10	0x3ddea8da	0.1087205
11	0x3e142bfd	0.14469905
12	0xbe2869fc	-0.1644668
13	0x3c9783d8	0.018495485
14	0x3e1a8805	0.1509095
15	0xbe03a826	-0.12857112
16	0x3d6d9570	0.058003843
17	0x3d9ffa0a	0.07811363
18	0x3d3dc604	0.04633142
19	0x3e33fbaf	0.17576478
20	0x3e143705	0.14474113
21	0x3e1b4e6f	0.15166639
22	0xbcb48200	-0.022034645
23	0x3e17d2bd	0.14826484
24	0xbe28b1b8	-0.16474044
25	0xbdc35ddf	-0.09539389
26	0xbd1addd0	-0.037809193
27	0xbd571794	-0.05251272
28	0x3e2734e3	0.16328768
29	0x3daac2d6	0.08337943
30	0x3de915ce	0.11381112
31	0x3df6431a	0.12024517
32	0xbe0738da	-0.13205281
33	0xbca7ba08	-0.020474449
34	0x3cd37758	0.025813743
35	0x3d3c53bc	0.045978293
36	0x3dba2c0e	0.09090434
37	0xbd900ec1	-0.07034064
38	0xbd5a5590	-0.053304255
39	0x3e177763	0.14791636
40	0xbd4254bc	-0.04744409
41	0xbdfb7cae	-0.1227964
42	0x3df57a02	0.11986162
43	0x3df5280e	0.119705305
44	0xbd630bf4	-0.05543132
45	0xbd10c1f0	-0.035341203
46	0xbe05920f	-0.13043998
47	0xbe172b09	-0.1476251
48	0x3d8824fc	0.06647679
49	0xbd9aa905	-0.07551769
50	0x3e101bd3	0.14073114
51	0xbe10f1cf	-0.14154743
52	0xbcc82bd8	-0.024434969
53	0x3b7a2540	0.0038169175
54	0x3dba119a	0.090853885
55	0x3e128127	0.1430708
56	0x3df52c9a	0.11971398
57	0x3d9f5e36	0.07781641
58	0xbda62c6b	-0.08113941
59	0xbe014648	-0.12624466
60	0xbe21f135	-0.1581467
61	0x3c0faba0	0.008768946
62	0x3e2f912b	0.17145221
63	0xbd098874	-0.033577397
64	0xbbf3dc60	-0.007442042
65	0xbe038bb0	-0.12846255
66	0x3d5e4c7c	0.05427216
67	0x3de586ca	0.112073496
68	0xbe327847	-0.17428695
69	0xbdfeeb62	-0.124472395
70	0x3e061519	0.13093986
71	0x3d2b6f94	0.041854456
72	0xbc3492d0	-0.011021331
73	0x3d016f50	0.031600296
74	0xbcdc2e20	-0.026877463
75	0xbdfd0d66	-0.12356071
76	0xbe29265e	-0.16518542
77	0x3dee1d9e	0.11626743
78	0xbcac3d18	-0.021025226
79	0xbd8674e0	-0.06565261
80	0xbd3ae534	-0.04562874
81	0xbdc576d8	-0.09641808
82	0xbd5675ac	-0.052358314
83	0xbe1b63bd	-0.15174766
84	0x3e0776f3	0.1322897
85	0x3d93d5f4	0.07218543
86	0xbdb69578	-0.08915228
87	0xbd77231e	-0.060336225
88	0x3da26c92	0.079308644
89	0xbd86109c	-0.06546137
90	0x3d3eef44	0.0466149
91	0x3d475e58	0.048673958
92	0xbde3e6a1	-0.11127973
93	0x3d3561e8	0.044282824
94	0x3c313550	0.010815933
95	0x3e1e1971	0.15439393
96	0xbd82fe2a	-0.06396134
97	0xbd3a2334	-0.04544373
98	0x3e1bf765	0.15231092
99	0xbe13d221	-0.14435627
100	0x3c514100	0.012771845
101	0x3e2e699d	0.17032476
102	0xbda25398	-0.079261005
103	0x3e2d8a3f	0.16947268
104	0x3e20a035	0.15686114
105	0x3e2868d3	0.16446237
106	0xbc8a2ff8	-0.016868576
107	0x3e23c191	0.15991808
108	0xbd9dbf4c	-0.077025026
109	0xbd77dafe	-0.06051158
110	0x3d88ef50	0.0668627
111	0x3d18f594	0.037343577
112	0x3dc79546	0.097452685
113	0x3e2c06b3	0.1679943
114	0xbde2a1db	-0.11066028
115	0x3dc024c2	0.09382011
116	0x3d724028	0.059143215
117	0x3dbf0002	0.09326173
118	0x3dabab32	0.08382262
119	0xbd876d83	-0.066126846
120	0xbe0f11d9	-0.13971652
121	0x3e10e297	0.14148937
122	0xbdce7285	-0.100804366
123	0x3de7760e	0.11301814
124	0xbe2c7268	-0.16840518
125	0xbcfa88c0	-0.030582786
126	0x3af59500	0.0018736422
127	0x3cfa90a0	0.03058654
128	0x3c6a1d50	0.014289215
129	0x3d64294c	0.055703446
130	0xbca13e80	-0.019683123
131	0x3d315468	0.043293387
132	0x3e332247	0.17493545
133	0xbdea4203	-0.11438372
134	0xbc1e2110	-0.009651437
135	0xbd8a32d1	-0.06747974
136	0x3e1ed4eb	0.1551091
137	0x3e1af5b3	0.1513279
138	0xbb9df5e0	-0.0048205703
139	0xbd7afd22	-0.061276563
140	0xbddfb102	-0.109224334
141	0x3e0186c9	0.12649073
142	0xbc477350	-0.012173489
143	0x3e2a7c59	0.16648997
144	0x3dce74f6	0.10080902
145	0x3e1e7271	0.15473343
146	0x3e0f2c27	0.13981687
147	0xbdeb449e	-0.11487697
148	0x3d53f064	0.051742926
149	0xbd961f60	-0.07330203
150	0x3db5a772	0.08869828
151	0xbc823408	-0.015893951
152	0x3c7abbb0	0.015303537
153	0xbdfa639e	-0.12226032
154	0xbe21c818	-0.15798986
155	0x3d885580	0.06656933
156	0x3d2843d8	0.041080326
157	0x3c7b94e0	0.015355319
158	0x3df5e50a	0.12006576
159	0xbd972d97	-0.073817424
160	0x3d80844c	0.062752336
161	0xbdc765a1	-0.09736181
162	0x3d16075c	0.036628112
163	0xbd254e48	-0.040357858
164	0x3dfd8b9a	0.123801425
165	0x3e1e4c59	0.15458812
166	0x3e1d3837	0.15353476
167	0x3c0249d0	0.007952169
168	0x3dd57dde	0.10424398
169	0xbe34dd05	-0.17662437
170	0xbdd45eab	-0.10369619
171	0x3d0168d0	0.031594098
172	0x3a813880	0.0009858757
173	0xbe0e1d06	-0.13878259
174	0xbda03e15	-0.07824341
175	0xbda91777	-0.08256429
176	0xbe3358db	-0.17514364
177	0x3c8a1c90	0.016859323
178	0x3df6ccb2	0.12050761
179	0x3d92f030	0.071747184
180	0xbdac0439	-0.08399243
181	0xbe263948	-0.16232789
182	0xbe120ad0	-0.14261937
183	0x3b56e580	0.0032790601
184	0x3df90d1e	0.12160705
185	0xbd929da0	-0.07158971
186	0xbdc50064	-0.09619215
187	0xbdc121c2	-0.09430267
188	0xbc7abad0	-0.015303329
189	0xbe2be7e6	-0.16787681
190	0xbe1fbd51	-0.15599562
191	0x3e323199	0.17401733
192	0xbdaca97d	-0.08430765
193	0xbd0298e4	-0.03188409
194	0xbd41ba98	-0.04729709
195	0xbe1f06d0	-0.15529943
196	0xbcff4cb8	-0.031164512
197	0x3d5da6f4	0.054114297
198	0xbd930230	-0.071781516
199	0xbbf6e160	-0.007534191
200	0xba5dac00	-0.0008456111
201	0xbe3434a4	-0.17598206
202	0x3e038cbb	0.12846653
203	0x3e1238f5	0.1427954
204	0x3df6d706	0.12052731
205	0xbd6dc92a	-0.058053173
206	0x3dbd3026	0.09237699
207	0xbe2999e0	-0.16562605
208	0xbd332088	-0.043732196
209	0xbd134414	-0.035953596
210	0xbd7fb52a	-0.06242863
211	0x3d980e66	0.07424621
212	0xbda4f73c	-0.08054969
213	0xbca7d8c0	-0.020489097
214	0xbd51146c	-0.051044866
215	0xbe29fdff	-0.16600798
216	0xbcef2630	-0.029193014
217	0xbe1968da	-0.14981404
218	0x3dd31b32	0.103079215
219	0x3dc17f0a	0.09448059
220	0x3e2993d5	0.165603
221	0xbd7325ae	-0.059362106
222	0x3c1348a0	0.008989483
223	0x3d0dd708	0.034628898
224	0x3e34b265	0.17646177
225	0x3e25ecbd	0.1620359
226	0xbdbb5e8b	-0.09148892
227	0xbe1a07a3	-0.15041976
228	0xbe23268e	-0.15932676
229	0xbdae57df	-0.08512854
230	0x3e1832d9	0.14863147
231	0x3d732e5c	0.059370384
232	0x3e2ea837	0.17056356
233	0x3e062ce1	0.13103057
234	0x3b27f580	0.0025628507
235	0xbde061f6	-0.109561846
236	0x3e30c3f7	0.17262255
237	0x3e113561	0.14180519
238	0x3d9cbdfa	0.07653423
239	0xbdc5c4bc	-0.09656665
240	0x3e0e9a71	0.13926102
241	0x3c83ce20	0.016089499
242	0x3def646a	0.11689074
243	0x3d971a56	0.0737807
244	0x3dc03ede	0.09386991
245	0xbe1ed712	-0.1551173
246	0xbdc8be5e	-0.09801935
247	0x3dd923f6	0.10602562
248	0xbd16d9ec	-0.03682892
249	0xbe1d7bb0	-0.15379214
250	0x3e249e6d	0.1607606
251	0xbb7a8980	-0.003822893
252	0x3e12067f	0.1426029
253	0xbe0d7cde	-0.13817164
254	0x3d794b9c	0.060863122
255	0xbd885e5f	-0.06658625

in_layer1.layers.2.bias f4 [32]
0	0x3d4e38a8	0.050347
1	0x3d2b3df8	0.041807145
2	0x3b7fb480	0.0039017498
3	0x3dcf9dfe	0.101375565
4	0xbd1e49f8	-0.03864476
5	0xbdd51cb6	-0.10405867
6	0x3d8a3e68	0.06750184
7	0x3d412e40	0.047163248
8	0x3d89d882	0.06730749
9	0xbca0d920	-0.019634783
10	0xbcc02d30	-0.023459047
11	0xbc663220	-0.014050037
12	0x3d3eed3c	0.046612963
13	0xbe0ae821	-0.13565113
14	0xbe28b884	-0.16476637
15	0x3d877930	0.066149116
16	0xbdc637af	-0.096785896
17	0xbc73a540	-0.014870942
18	0x3d48bc24	0.04900755
19	0x3ccb1e08	0.024794593
20	0x3de96482	0.113961235
21	0x3cbdd448	0.023172513
22	0x3d334380	0.043765545
23	0xbc81a028	-0.015823439
24	0x3cd5c308	0.026093975
25	0x3d84c034	0.06481972
26	0x3df6fcee	0.12059961
27	0xbe2b849b	-0.16749804
28	0xbd96cfdd	-0.073638655
29	0xbe226f83	-0.15862851
30	0xbd9057be	-0.070479855
31	0x3ddcb0fe	0.10775946

in_layer2.layers.0.weight f4 [32, 2]
0	0xbf2b8423	-0.669985
1	0xbf223255	-0.6335805
2	0x3ed1a0f2	0.40943104
3	0xbed5cc19	-0.41757277
4	0x3f044d07	0.51680034
5	0x3e619d58	0.22032678
6	0x3e35c160	0.17749548
7	0x3f0fcdd5	0.5617345
8	0xbf27ad66	-0.6549896
9	0x3f048f41	0.5178109
10	0x3e6ad10c	0.22931308
11	0xbef29b08	-0.47383904
12	0x3e302d3c	0.17204756
13	0xbe49cccc	-0.1970703
14	0xbe91519e	-0.2838258
15	0xbd9cd710	-0.076582074
16	0xbeaab045	-0.33337608
17	0x3f1e4a3b	0.61832017
18	0x3f1bcdc1	0.6086083
19	0xbd9a7c58	-0.07543248
20	0xbf208613	-0.6270458
21	0xbd312ee0	-0.043257594
22	0x3d3f5c40	0.046718836
23	0x3ef1fe86	0.47264498
24	0x3cba5f60	0.022750556
25	0x3e52bd64	0.2058006
26	0x3e401f8c	0.18762034
27	0xbecd6bda	-0.40121347
28	0xbee09159	-0.4386089
29	0xbf21ca28	-0.6319909
30	0xbbb5f400	-0.0055527687
31	0x3e6044a0	0.21901178
32	0xbd4df100	-0.050278664
33	0x3f2fb597	0.6863646
34	0xbe0a2078	-0.13488948
35	0xbeec3d70	-0.46140623
36	0x3df15c60	0.11785197
37	0xbe4be880	-0.1991291
38	0xbdc686d0	-0.09693682
39	0x3f2f660f	0.68515104
40	0xbca63460	-0.020288646
41	0x3f1e20c1	0.6176873
42	0x3dc16500	0.09443092
43	0xbe86afb0	-0.26305914
44	0x3f04b74d	0.51842195
45	0xbece3a48	-0.4027884
46	0x3cbfa8e0	0.023395956
47	0x3e22c0f8	0.15893924
48	0x3ea27ece	0.3173737
49	0xbf2704eb	-0.6524188
50	0x3d0e14a0	0.03468764
51	0xbe3b7a58	-0.18308389
52	0x3eeabbd2	0.4584642
53	0x3e739c84	0.23790175
54	0x3e911aa0	0.28340626
55	0x3ed9ade6	0.42515486
56	0xbe221b70	-0.15830779
57	0xbd3990b0	-0.045304
58	0x3f113931	0.5672789
59	0xbf11e64d	-0.56992036
60	0xbefa3f8e	-0.48876613
61	0x3d53e130	0.051728427
62	0xbe8f69db	-0.2801045
63	0x3d25dfe0	0.040496707

in_layer2.layers.0.bias f4 [32]
0	0x3f1fe7bf	0.6246299
1	0xbda7e018	-0.08197039
2	0xbf1a57e5	-0.60290366
3	0xbea4931d	-0.3214349
4	0x3f263dfd	0.64938337
5	0xbe1f1274	-0.15534383
6	0xbe9ebef6	-0.31005067
7	0x3ea2f696	0.31828755
8	0x3db346b0	0.08753717
9	0xbf1f99de	-0.6234416
10	0x3f16c021	0.58886915
11	0x3ecbdf7a	0.39818937
12	0x3f1d56dd	0.6146067
13	0x3e9e6d8a	0.30942947
14	0xbe742022	-0.23840383
15	0xbe6c5f80	-0.23083305
16	0x3eaf73b2	0.34267956
17	0xbe0c5d7c	-0.13707536
18	0x3e0df538	0.13863075
19	0xbf2f67d5	-0.6851781
20	0xbeb2f6bb	-0.34953865
21	0x3e867a78	0.2626531
22	0xbd0ec8f0	-0.034859598
23	0xbeae0ce3	-0.33994207
24	0xbf1de5b4	-0.61678624
25	0x3ee618e6	0.4494087
26	0xbe119508	-0.14217007
27	0xbf31db83	-0.69475573
28	0x3f2ea507	0.6822056
29	0x3eb02d7a	0.34409696
30	0xbed88caa	-0.42294818
31	0xbf041d14	-0.5160687

in_layer2.layers.2.weight f4 [32, 32]
0	0x3e2eebd9	0.17082156
1	0x3a417d00	0.0007380992
2	0xbdd9bcf9	-0.10631747
3	0x3dd0557e	0.10172556
4	0xbd16d318	-0.03682241
5	0x3c4667f0	0.012109742
6	0xbdbc991e	-0.09208892
7	0xbe19528a	-0.14972892
8	0xbdf07027	-0.11740141
9	0xbc9f0300	-0.01941061
10	0xbe030c6c	-0.12797707
11	0x3e326a0d	0.17423268
12	0x3afac700	0.0019132793
13	0xbd8a9994	-0.06767574
14	0x3d8f15c2	0.06986572
15	0xbe207c70	-0.15672469
16	0xbdb92e10	-0.09041989
17	0x3d87fb6c	0.06639752
18	0xbe19ce2d	-0.15020056
19	0x3db470ee	0.08810602
20	0x3c737320	0.014858991
21	0xbe16ef6b	-0.14739768
22	0xbe33a640	-0.17543888
23	0x3d64d858	0.055870384
24	0x3dab1fca	0.08355673
25	0xbd10bf68	-0.03533879
26	0xbe20113c	-0.15631574
27	0xbdd0a8e1	-0.10188461
28	0x3c99ea30	0.018788427
29	0x3bd2bdc0	0.0064313114
30	0x3d3958dc	0.04525076
31	0x3d000810	0.03125769
32	0xbc17d060	-0.009265989
33	0x3dbf0eb2	0.09328975
34	0x3e2f975b	0.17147581
35	0x3e16c161	0.14722206
36	0x3e247ce7	0.16063271
37	0xbd7460e6	-0.059662722
38	0xbd772368	-0.0603365
39	0xbca02af8	-0.01955174
40	0x3d5601e8	0.05224791
41	0x3d928ba8	0.071555436
42	0xbc811538	-0.015757188
43	0xbde9d9ab	-0.1141847
44	0xbe089440	-0.13337803
45	0x3e2e454b	0.1701862
46	0xbd42ac24	-0.047527447
47	0xbcc3bed0	-0.023894697
48	0xbddde10c	-0.1083394
49	0xbdb37bf7	-0.08763879
50	0x3d1f093c	0.038827166
51	0x3d987c5e	0.07445596
52	0xbd8f1f55	-0.06988398
53	0xbd8541a3	-0.0650666
54	0x3e0f6569	0.14003529
55	0xbdba74b9	-0.09104294
56	0xbe070e47	-0.1318904
57	0xbce1ef50	-0.027579933
58	0x3e2c3f75	0.16821082
59	0x3d1d8d1c	0.03846465
60	0x3cc818a0	0.024425805
61	0xbcb45030	-0.022010893
62	0x3de23be2	0.11046578
63	0xbdb371dd	-0.08761952
64	0x3df57756	0.11985652
65	0x3d2b0f18	0.04176244
66	0x3ca102a8	0.019654587
67	0x3cc75cb8	0.024336204
68	0xbddf4743	-0.10902264
69	0x3e0671bd	0.13129325
70	0x3dbe2542	0.0928445
71	0xbe0d9411	-0.13826014
72	0xbe288b35	-0.16459353
73	0xbd3a660c	-0.045507476
74	0x3df0856a	0.11744197
75	0xbdb23e3b	-0.08703276
76	0x3e27c681	0.16384317
77	0xbdb60637	-0.08887904
78	0xbe2383e4	-0.15968281
79	0x3d9f419e	0.07776187
80	0xbddacbc0	-0.106833935
81	0xbce448e0	-0.02786678
82	0xbd61d7b4	-0.05513735
83	0xbc662370	-0.014046535
84	0xbe1dbc41	-0.15403844
85	0xbe2607fa	-0.1621398
86	0x3d9ba1ce	0.07599221
87	0xbca41928	-0.020031527
88	0xbdda648c	-0.10663709
89	0xbb9390a0	-0.0045033246
90	0xbe2538e4	-0.16134983
91	0x3d403368	0.046924025
92	0x3dabeeea	0.083951786
93	0x3e2f8e39	0.17144097
94	0xbe1378b9	-0.14401521
95	0xbcaf9960	-0.02143544
96	0x3dc479fe	0.09593581
97	0x3e25e5a9	0.1620089
98	0xbe00ca4a	-0.12577167
99	0x3d99da4e	0.075123414
100	0x3d957908	0.072984755
101	0x3dda4336	0.10657351
102	0xbdf99866	-0.12187271
103	0x3e012dab	0.12615077
104	0xbd9db0de	-0.0769975
105	0xbddeda3a	-0.10881467
106	0x3d0fc550	0.03510028
107	0x3e195947	0.14975463
108	0xbdefbff4	-0.11706534
109	0x3dc14b9a	0.09438248
110	0xbca5d9d8	-0.020245478
111	0x3d67270c	0.056433722
112	0x3e0d3535	0.13789828
113	0x3d449a08	0.04799846
114	0xbe16463d	-0.14675231
115	0xbd5a0094	-0.053223208
116	0x3d0fb67c	0.03508614
117	0xbe18b4c7	-0.14912711
118	0x3cf0c160	0.029389083
119	0xbdc2674d	-0.09492359
120	0xbd0fee18	-0.035139173
121	0x3d81841e	0.063240275
122	0xbe11b01c	-0.14227337
123	0xbde86f1d	-0.11349318
124	0x3da5209e	0.08062862
125	0xbe330915	-0.17483933
126	0x3df9269a	0.12165566
127	0xbe0b948a	-0.13630882
128	0xbb3a8b40	-0.0028464347
129	0x3d14a42c	0.03628938
130	0x3d8edb92	0.069754735
131	0xbde0b4a9	-0.10971958
132	0x3cc2e1e0	0.023789346
133	0x3d9be3a6	0.0761178
134	0x3e1b4313	0.15162306
135	0xbe0839da	-0.13303319
136	0xbdb3fed8	-0.08788842
137	0x3d52ef7c	0.05149792
138	0xbbb9f560	-0.005675003
139	0xbdf45042	-0.119293705
140	0xbe185ae5	-0.14878424
141	0xbe20bb7d	-0.15696521
142	0xbdfd55fd	-0.123699166
143	0xbd9a250b	-0.07526597
144	0xbdfb6643	-0.12275364
145	0xbe1ecc76	-0.15507683
146	0x3c621540	0.013799012
147	0x3dd451e2	0.103671804
148	0xbdaab24e	-0.0833479
149	0x3c90cff0	0.017677277
150	0xbb0ed1c0	-0.0021792501
151	0x3da93a9a	0.082631305
152	0xbdfb1388	-0.12259585
153	0x3c0981c0	0.008392751
154	0x3e28f669	0.16500248
155	0x3e013ba9	0.12620415
156	0xbe33694b	-0.17520635
157	0xbcda0128	-0.02661188
158	0x3ad7fd00	0.0016478598
159	0xbd6f166a	-0.058370985
160	0xbdeddab6	-0.116139814
161	0xbdfbea80	-0.12300587
162	0x3df0901a	0.11746235
163	0xbd6a6ade	-0.057230823
164	0xbc3a63c0	-0.011376321
165	0x3d547774	0.051871732
166	0xbdde373d	-0.108503796
167	0x3c8113a0	0.015756428
168	0x3dd7585a	0.105148986
169	0xbdd3ae03	-0.103359245
170	0x3d52a940	0.05143094
171	0xbbc5da60	-0.006037995
172	0x3dc70fd6	0.09719817
173	0x3df0914a	0.11746462
174	0x3d401a10	0.046899855
175	0x3baf0740	0.0053414404
176	0xbe1bd3b6	-0.1521748
177	0x3d9025b2	0.0703844
178	0x3ddcb902	0.10777475
179	0xbd83806a	-0.064209774
180	0xbe33bde7	-0.17552911
181	0x3e12b113	0.14325361
182	0xbd29f618	-0.04149446
183	0x3d10de28	0.035368115
184	0xbd4b8b50	-0.049693406
185	0x3de6e1f2	0.112735644
186	0x3e308b5f	0.17240666
187	0x3de2f09a	0.11081047
188	0xbd666ede	-0.056258075
189	0x3dfdb68a	0.12388332
190	0x3db0a672	0.08625497
191	0x3c8d4900	0.017246723
192	0xbe11cebe	-0.14239022
193	0xbd9b74f9	-0.0759067
194	0xbe33191e	-0.1749005
195	0x3df224c6	0.1182342
196	0x3e32ef9b	0.17474215
197	0x3dd2e47e	0.10297488
198	0x3d675b54	0.05648358
199	0x3d2b2120	0.041779637
200	0x3e2e41c9	0.17017283
201	0xbdb78bc6	-0.089622065
202	0xbd731756	-0.059348427
203	0xbe22888a	-0.15872398
204	0xbc8f66c8	-0.017505065
205	0x3c46ac80	0.012126088
206	0x3d463580	0.048390865
207	0xbdfbdd55	-0.12298075
208	0xbca79458	-0.020456478
209	0xbe1528fc	-0.14566416
210	0xbe133f92	-0.14379719
211	0x3cbcc200	0.023041725
212	0xbe30b3d3	-0.17256097
213	0x3d40ce54	0.04707177
214	0xbe26c138	-0.16284645
215	0xbdfbea75	-0.123005785
216	0xbd163e40	-0.03668046
217	0xbe2cbe4e	-0.1686947
218	0x3e123273	0.14277057
219	0x3e1451bf	0.14484309
220	0xbdbd1a71	-0.09233559
221	0x3d17ae04	0.03703119
222	0x3db935be	0.09043454
223	0x3d6617a0	0.056174874
224	0xbcc1fd20	-0.02368027
225	0xbe2abd4d	-0.16673775
226	0x3e03a04f	0.12854122
227	0xbe1ec57f	-0.15505026
228	0xbd061954	-0.032739
229	0x3c33a990	0.01096572
230	0xbd6e7816	-0.05821999
231	0xbd846ad8	-0.06465691
232	0xbe1c731d	-0.15278287
233	0x3c1f95a0	0.009740263
234	0xbca46e48	-0.020072117
235	0x3e1dd027	0.15411435
236	0xbd6e61ae	-0.058198623
237	0x3e0be99d	0.13663335
238	0x3c091c80	0.008368611
239	0xbda2a853	-0.079422615
240	0xbd2c32f4	-0.04204078
241	0xbca45698	-0.020060822
242	0x3af00100	0.0018310845
243	0xbcee9658	-0.029124424
244	0x3d56e2fc	0.052462563
245	0x3e151285	0.14557846
246	0x3ce3a048	0.027786389
247	0x3d832292	0.06403078
248	0x3ddf90f6	0.10916321
249	0x3d1c1384	0.03810455
250	0x3da6e3a6	0.08148889
251	0x3dbde85a	0.09272833
252	0x3e296fbd	0.16546531
253	0xbe25353e	-0.16133592
254	0x3d77c5e4	0.060491458
255	0xbc033c70	-0.008010015

in_layer2.layers.2.bias f4 [32]
0	0x3e22cf39	0.15899362
1	0xbc81feb0	-0.015868515
2	0xbd67e334	-0.056613162
3	0x3e17542b	0.14778201
4	0x3d499cfc	0.049221978
5	0x3d09f3f0	0.033679903
6	0xbdad1a15	-0.084522404
7	0x3e2c8663	0.1684814
8	0xbd5c8800	-0.053840637
9	0x3e168f29	0.14703049
10	0xbc54e740	-0.012994587
11	0x3db59cba	0.08867784
12	0x3dfe8ebe	0.1242957
13	0xbe06c4f3	-0.13161068
14	0xbdf14cc8	-0.11782223
15	0xbe330071	-0.17480637
16	0x3e028fff	0.12750243
17	0x3e1bac8d	0.15202542
18	0xbd84506a	-0.0646065
19	0xbdb151ab	-0.08658155
20	0x3cf26830	0.029590696
21	0x3dc2ea06	0.09517293
22	0x3d32ba5c	0.043634757
23	0xbd16e7a8	-0.03684202
24	0xbde6489e	-0.112443194
25	0x3e1ad1ed	0.15119143
26	0xbdea7610	-0.114483
27	0xbe2eeb37	-0.17081915
28	0xbd908d57	-0.070582084
29	0x3d106308	0.035250694
30	0x3d869104	0.06570628
31	0x3d8bfd0e	0.06835376

sat_layers.layer0_1.0.agg_weight f4 [3]
0	0xbe0ecc86	-0.13945207
1	0xbf0c5623	-0.54818934
2	0xbf87bfaf	-1.0605372

sat_layers.layer0_1.0.input_linear_layer1.weight f4 [32, 32]
0	0x3337e2ed	4.2814396e-08
1	0xb6c21b37	-5.7848188e-06
2	0xb31bc433	-3.6267192e-08
3	0xb803e7e1	-3.1448788e-05
4	0xb7d162c3	-2.4960731e-05
5	0x354c2e2c	7.606311e-07
6	0xb3ec1f9e	-1.09953575e-07
7	0xb3f72cd0	-1.1509985e-07
8	0xb30591b4	-3.1098992e-08
9	0xb39db34a	-7.343495e-08
10	0xb7e79760	-2.7607835e-05
11	0x35e16c91	1.6795403e-06
12	0xb349d27c	-4.6990394e-08
13	0xb30c9de9	-3.273991e-08
14	0xb408eb55	-1.27516e-07
15	0xb2995e75	-1.7854498e-08
16	0xb69307aa	-4.3818336e-06
17	0xb3065af4	-3.1282028e-08
18	0xb32e7390	-4.0617635e-08
19	0xb7eb7b2b	-2.8071538e-05
20	0x381b7cee	3.707123e-05
21	0xb45c7042	-2.0529936e-07
22	0x3272a5b8	1.4123934e-08
23	0xb324314a	-3.8229054e-08
24	0xb3651993	-5.3341477e-08
25	0xb3314cb5	-4.128079e-08
26	0xb687425b	-4.0310383e-06
27	0xb7d16b07	-2.496458e-05
28	0x380f0a79	3.410361e-05
29	0xb324c9f7	-3.836791e-08
30	0x31fc3f98	7.341395e-09
31	0xb7d17555	-2.4969379e-05
32	0x3aedfafa	0.0018156462
33	0xbc17ddb1	-0.009269164
34	0x39bad058	0.00035631913
35	0x3d83f452	0.06443085
36	0x3d612c3c	0.054973826
37	0x3b77f8de	0.0037837545
38	0x3adb2c28	0.0016721534
39	0x3aefb2bf	0.0018287523
40	0x395b721d	0.00020927978
41	0x3a0a80b8	0.0005283463
42	0x3c6709b2	0.014101433
43	0xbc44081f	-0.011964827
44	0x39cdcc6e	0.0003925296
45	0x3991c0fc	0.0002780034
46	0x3b030e42	0.0019997512
47	0xb9c44c4c	-0.0003744088
48	0xbd1367e4	-0.03598775
49	0x398b3e0e	0.0002655838
50	0x39aab014	0.00032556115
51	0x3cffc10c	0.031219982
52	0x3dccaed2	0.09994282
53	0x3af882c8	0.0018959874
54	0xb9cbf117	-0.00038898803
55	0x39999cca	0.0002929925
56	0x380a65dc	3.2996628e-05
57	0x39b58ded	0.00034628753
58	0x3db8d8cc	0.09025726
59	0x3d77d124	0.060502186
60	0x3c949ba6	0.018140625
61	0x3b8deaf4	0.004330987
62	0x391e8a1b	0.00015119502
63	0x3d4982d5	0.049197037
64	0x3c15e627	0.009149111
65	0xbc9695d1	-0.018381985
66	0x39df228c	0.00042559614
67	0x3da2e0b2	0.079530135
68	0x3dd1e457	0.102486305
69	0x3c3d54f9	0.011555904
70	0x3b7660a3	0.003759422
71	0x3b81f488	0.003965918
72	0x38b4a82a	8.614392e-05
73	0x3a34cbe3	0.00068968366
74	0x3d8c5922	0.06852938
75	0xbce7ab74	-0.028279997
76	0x3a03346c	0.0005005065
77	0x39715acc	0.00023017375
78	0x3b90699d	0.0044071213
79	0xba633403	-0.0008667113
80	0xbe09668c	-0.13418025
81	0x395a12e8	0.00020797143
82	0x39b19143	0.000338683
83	0xbc9ef2a9	-0.019402819
84	0x3acb216d	0.0015497633
85	0x3b8e814c	0.0043489095
86	0xba1a0861	-0.00058758823
87	0x397c046c	0.0002403424
88	0x36ac1bd4	5.129239e-06
89	0x39c47f84	0.0003747904
90	0x3d419133	0.047257613
91	0x3e167b3c	0.14695448
92	0x3d86b2cd	0.06577072
93	0x3c181d6a	0.009284357
94	0x391f5931	0.00015196648
95	0x3ddc8c6d	0.107689716
96	0x3c00cbdc	0.007861104
97	0x3deeabc4	0.116538554
98	0xbc314c5e	-0.01082143
99	0xbe6206af	-0.22072862
100	0xbd307d9e	-0.043088548
101	0xbe002f02	-0.12517932
102	0xbcfcf338	-0.030877694
103	0xbd155945	-0.036462087
104	0x3ab2c140	0.0013637915
105	0xbc8313ef	-0.016000716
106	0xbe7b8f44	-0.2456637
107	0x3e747e62	0.23876336
108	0x3af3a386	0.0018588162
109	0x3bf1b5b6	0.007376398
110	0xbc632bcd	-0.013865423
111	0xbc3fbec4	-0.011703197
112	0xbc2da181	-0.010597588
113	0xbb2bb3b8	-0.002619965
114	0xbb6cb177	-0.003611652
115	0xbd58d4d5	-0.052937347
116	0xbdf5fe2b	-0.12011369
117	0x3d1f06ac	0.038824722
118	0xbbd32b18	-0.006444346
119	0xbb023590	-0.0019868352
120	0x3d1a98cd	0.03774338
121	0xbbe0d5bd	-0.006861417
122	0x3da6f3cb	0.081519686
123	0xbe16569f	-0.14681481
124	0xbe43903f	-0.19097994
125	0xbcc45af6	-0.023969155
126	0xbae6aad7	-0.0017598522
127	0xbe628270	-0.2212007
128	0x3ad70447	0.0016404473
129	0xbc26b951	-0.010176019
130	0x39b8960e	0.00035207014
131	0xbc3644db	-0.011124815
132	0x3dd630de	0.104585394
133	0x3b614b32	0.0034377095
134	0x3acf1bbb	0.0015801111
135	0x3ae2d41b	0.0017305644
136	0x395e10cf	0.00021177832
137	0x3a07a08a	0.00051737635
138	0x3da44165	0.080202855
139	0xbc44f0e9	-0.012020328
140	0x39ca989f	0.00038642154
141	0x3991c729	0.0002780494
142	0x3af82ce4	0.0018934277
143	0xb9b949ac	-0.0003534084
144	0xbdbb799e	-0.09154056
145	0x398b6bd1	0.00026592475
146	0x39a96edf	0.00032316797
147	0x3d95c381	0.0731268
148	0x3e1e67e9	0.15469326
149	0x3aec2925	0.0018017633
150	0xb9c622e7	-0.00037791507
151	0x39999753	0.0002929518
152	0x383035b7	4.2011696e-05
153	0x39b3af2b	0.0003427205
154	0x3d90715f	0.07052874
155	0x3cb90b80	0.022588491
156	0x3d681ea9	0.056669865
157	0x3b879ffd	0.004138945
158	0x391da49b	0.00015034007
159	0x3d5f96bb	0.054587107
160	0xbd7a7b84	-0.06115295
161	0x3e4c5488	0.19954121
162	0x3b11096c	0.002213086
163	0xbcab7eaa	-0.020934422
164	0xbe561987	-0.20908175
165	0xbcc0b9c3	-0.023526078
166	0xbc79f4f0	-0.015256152
167	0xbcfb266b	-0.030657968
168	0x3b85d689	0.0040844125
169	0xbc2934da	-0.010327542
170	0xbe56bcf5	-0.20970519
171	0x3e0dd109	0.13849272
172	0xbbf20297	-0.0073855626
173	0x3ab5f62f	0.0013882573
174	0xbc81b0d7	-0.015831394
175	0x3c154413	0.009110468
176	0x3e2f884e	0.1714184
177	0x3a42df33	0.0007433772
178	0xba9e90dd	-0.0012097616
179	0xbe361e3a	-0.17784968
180	0xbe380b13	-0.17972974
181	0xbcc266c0	-0.023730636
182	0xbb83c171	-0.0040208627
183	0xba2cf394	-0.0006597575
184	0x3c09d7dc	0.008413281
185	0xbae89e47	-0.0017747366
186	0xbe343cfa	-0.17601386
187	0xbdac29b1	-0.084063895
188	0x3d939441	0.072060116
189	0xbdac1fbb	-0.084044896
190	0x3a73f13b	0.00093056605
191	0xbe5fc431	-0.21852185
192	0x3b449c86	0.0030000522
193	0xbc75313d	-0.014965353
194	0x39e27305	0.00043191775
195	0x3cb4ec3f	0.022085307
196	0x3e70024c	0.23438376
197	0x3c13eeb9	0.009029084
198	0x3b81b0c5	0.00395784
199	0x3b878e7a	0.0041368576
200	0x38900292	6.866934e-05
201	0x3a37a673	0.0007005699
202	0x3e30f90c	0.17282504
203	0xbce259f1	-0.027630778
204	0x3a0593bd	0.0005095562
205	0x39695034	0.0002225049
206	0x3b97dcd7	0.0046344805
207	0xba625a60	-0.0008634683
208	0xbdcb1e1a	-0.09917851
209	0x39504cb7	0.00019865004
210	0x39b0a8de	0.00033695152
211	0x3e004921	0.12527896
212	0xbc071b21	-0.008246214
213	0x3b88f0a3	0.0041790768
214	0xba1e1e7f	-0.0006031766
215	0x3972747f	0.00023122317
216	0x38297d7f	4.0409617e-05
217	0x39c45e10	0.00037454115
218	0xbd129eb5	-0.035795886
219	0x3de3d77b	0.11125084
220	0x3dac2ca0	0.08406949
221	0x3c21c259	0.009872996
222	0x391e745f	0.00015111406
223	0x3db4b9a5	0.088244714
224	0xb86e7f7c	-5.686235e-05
225	0xb9014f3d	-0.00012331917
226	0x36848d86	3.950382e-06
227	0x37fbbba9	3.0008918e-05
228	0x38204c96	3.82183e-05
229	0x381ca317	3.7345188e-05
230	0x3992e5cf	0.0002801851
231	0x398feae7	0.000274501
232	0x367becc7	3.7539737e-06
233	0x372ae712	1.018659e-05
234	0x38127064	3.4913784e-05
235	0xb9b0537d	-0.0003363154
236	0x36d4a5ac	6.337379e-06
237	0x3663fafd	3.397173e-06
238	0x3986fce3	0.00025746887
239	0xb703b66c	-7.850682e-06
240	0xb8b48619	-8.6080465e-05
241	0x36499799	3.0039575e-06
242	0x36a94e06	5.0456756e-06
243	0x3811ddd5	3.477729e-05
244	0xb7da7ef1	-2.6046737e-05
245	0x399994be	0.00029293256
246	0x36e48ae1	6.811097e-06
247	0x3682d9ee	3.8996723e-06
248	0xb61e2ca7	-2.3569826e-06
249	0x369b11cd	4.6214323e-06
250	0xba258b9c	-0.0006315054
251	0x3820659a	3.8241596e-05
252	0xb7e8f3b0	-2.7770031e-05
253	0x36f9923d	7.4378027e-06
254	0x3493b77c	2.7514386e-07
255	0x38203e97	3.8205264e-05

sat_layers.layer0_1.0.input_linear_layer1.bias f4 [32]
0	0xb806b173	-3.2113352e-05
1	0xbe7e93cd	-0.24861069
2	0xbe8d06db	-0.27544293
3	0x3e08b901	0.13351823
4	0xbdf1de4e	-0.118099794
5	0x3e8459ef	0.25849864
6	0xbe5eeacc	-0.21769255
7	0x39e96c05	0.00044521704
8	0x3e61a97e	0.22037312
9	0xbea10e2c	-0.31456125
10	0xb7c3436f	-2.3277213e-05
11	0xbe0e8b1a	-0.1392025
12	0x3ca71b31	0.020398708
13	0xb8360a68	-4.3401873e-05
14	0x3e559747	0.20858489
15	0x3e511a2d	0.20420142
16	0xbe80a1b4	-0.2512337
17	0xb829be68	-4.047007e-05
18	0x3e9a5559	0.3014324
19	0x3e040f26	0.12896404
20	0x3e84f8c0	0.2597103
21	0x3e0bd4ae	0.1365535
22	0x3ea5c081	0.3237343
23	0x3e6c1c73	0.23057728
24	0xb8efa4ea	-0.00011427126
25	0xb86d3ca7	-5.656169e-05
26	0xb82fad78	-4.1884807e-05
27	0x3e632db9	0.2218541
28	0x3e924d9b	0.28574833
29	0xba1cbdee	-0.00059792295
30	0x3e741469	0.23835911
31	0x3eb5de35	0.35521093

sat_layers.layer0_1.0.input_linear_layer2.weight f4 [32, 32]
0	0xbe0f5d19	-0.14000358
1	0xbe94c492	-0.2905622
2	0xbc0707cf	-0.008241608
3	0xbdc7d9a1	-0.09758306
4	0xbdf5a922	-0.1199515
5	0xbdf9f8a2	-0.12205626
6	0xbe2d6c93	-0.16935949
7	0xbe393d86	-0.18089876
8	0xbc802eb1	-0.015647264
9	0xbc87f39a	-0.01659565
10	0x3dbd85fa	0.092540696
11	0xbd406d67	-0.046979334
12	0xbbe9e6ad	-0.0071380944
13	0xbb82c69c	-0.0039909612
14	0xbe8c579c	-0.2741059
15	0xbd05690f	-0.032570895
16	0xbe5445a1	-0.20729686
17	0xbbf50443	-0.0074773147
18	0xbc083650	-0.00831373
19	0xbe12a626	-0.14321193
20	0xbe61eb5c	-0.22062439
21	0x3c95a777	0.01826833
22	0x3c8e59fb	0.01737689
23	0xbc0b9056	-0.008518299
24	0xbd16156c	-0.036641523
25	0xbc055100	-0.008136988
26	0xbda25e0f	-0.079280965
27	0xbe13b9c2	-0.1442633
28	0xbd814e2a	-0.06313737
29	0xbd7181c5	-0.05896165
30	0xbb87eecc	-0.00414834
31	0x3d2904d0	0.041264355
32	0xbe05b63a	-0.13057795
33	0x3d55d4fd	0.052205075
34	0xbba41565	-0.0050074332
35	0xbda239a4	-0.0792115
36	0x3d33076c	0.04370825
37	0xbe41753e	-0.1889238
38	0xbd2bf912	-0.04198558
39	0xbda91553	-0.082560204
40	0xbc1c6c83	-0.009547356
41	0xbc222167	-0.009895659
42	0x3bf4bc40	0.00746873
43	0xbdd97cef	-0.10619532
44	0xbb90aa42	-0.0044148276
45	0xbb6da954	-0.0036264258
46	0xbe17b8be	-0.14816567
47	0xbc349e4e	-0.011024071
48	0xbdf79a5f	-0.12089991
49	0xbb828337	-0.003982927
50	0xbb98c5f6	-0.0046622707
51	0xbd017540	-0.03160596
52	0xbe5c2b99	-0.21501006
53	0xbda7106e	-0.081574306
54	0x3c582050	0.013191298
55	0xbb9803e6	-0.0046391366
56	0xbc6ed9ea	-0.014578322
57	0xbb790afd	-0.0038000934
58	0xbdb1330d	-0.08652315
59	0xbc2ef2ce	-0.010678006
60	0x3d0977e3	0.0335616
61	0xbce22ebd	-0.027610177
62	0xbb49988d	-0.0030761093
63	0x3d270e9c	0.040785417
64	0xba5ba751	-0.0008379119
65	0xbcec4d86	-0.02884556
66	0xb9b59387	-0.00034632927
67	0xbbe56f8f	-0.007001824
68	0x3c611f77	0.013740412
69	0xbb5f427e	-0.0034066732
70	0xbb2172a6	-0.0024634986
71	0xbb3408aa	-0.0027470984
72	0xb9d6116f	-0.0004083025
73	0xb9ce692f	-0.0003936975
74	0x3be3d667	0.006953049
75	0x3d567394	0.052356318
76	0xb9b2fda0	-0.0003413977
77	0xb9a57931	-0.00031561547
78	0xbb46db59	-0.0030343144
79	0xb9bafd88	-0.0003566558
80	0xbd46c54d	-0.048528004
81	0xb9a34e35	-0.00031148051
82	0xb9b5440e	-0.00034573715
83	0x3c0952f9	0.008381599
84	0x3af95b32	0.0019024371
85	0xbb201902	-0.0024428968
86	0x394fede8	0.00019829685
87	0xb9bcd3ce	-0.0003601596
88	0xb9c38b79	-0.00037297214
89	0xb9b1ba3c	-0.00033898826
90	0xbd005018	-0.031326383
91	0x3c5154e8	0.012776591
92	0xb9499683	-0.00019224924
93	0xbaaa732a	-0.0013004292
94	0xb9898770	-0.00026231585
95	0x3c5fa108	0.013649233
96	0x3e4ac0e3	0.19800143
97	0x3e92603a	0.2858904
98	0x3b8d9fd0	0.0043220297
99	0x3def799a	0.116931155
100	0x3cde8392	0.027162347
101	0xbe840c8b	-0.2579082
102	0xbdfbd340	-0.12296152
103	0xbdfca2b1	-0.123357184
104	0xb8418350	-4.613708e-05
105	0x3c417153	0.011806804
106	0x3dddc180	0.10827923
107	0x3e810518	0.251992
108	0x3bd61fd3	0.0065345555
109	0x3ba29ab3	0.0049622892
110	0xbe63412b	-0.22192828
111	0x3cfbaade	0.030721124
112	0x3e28cf1d	0.16485257
113	0x3b7fda5a	0.003904006
114	0x3bae8767	0.0053262
115	0x3c7e6ee2	0.015529366
116	0xbe8f3e47	-0.279772
117	0xbc50ff22	-0.012756141
118	0xbc2a35f0	-0.010388836
119	0x3b739944	0.003717021
120	0x3c6888c4	0.014192764
121	0x3ba41035	0.005006815
122	0xbe765a7d	-0.24057956
123	0xbe42d225	-0.19025476
124	0x3b86c545	0.004112872
125	0x3d6f6aeb	0.058451574
126	0x3aa4c352	0.0012570417
127	0x3ccf5f0c	0.025313877
128	0x3de4dcc2	0.11174919
129	0x3db770e7	0.08957081
130	0xb9ee1277	-0.00045408655
131	0x3ba5ffad	0.0050658793
132	0x3d2f7cd2	0.042843647
133	0xbd2a49bb	-0.04157422
134	0xbd2d1141	-0.042252783
135	0xbd8d77eb	-0.06907638
136	0xbbaa7a44	-0.0052025635
137	0x3b20b732	0.0024523255
138	0x3d9bf2e5	0.07614688
139	0x3d8855a9	0.066569634
140	0x3adb1cdc	0.0016716975
141	0x38b168f7	8.459569e-05
142	0xbc791279	-0.015202158
143	0x3ae09475	0.0017134087
144	0xbd47640b	-0.048679393
145	0xba7f0105	-0.000972763
146	0x392d31b7	0.00016517086
147	0x3c3fd9d0	0.011709645
148	0xbc3fd970	-0.011709556
149	0x3ddfc95a	0.10927077
150	0x39b3df2c	0.00034307817
151	0xbac95ecf	-0.0015363338
152	0xbca537d0	-0.020168215
153	0x38905015	6.8813715e-05
154	0x3e1e3b92	0.15452412
155	0xbb5ca57d	-0.0033667975
156	0x3dab6fc8	0.0837093
157	0x3a88fde4	0.0010451642
158	0xba4f83c2	-0.0007916057
159	0x3d34a021	0.044098023
160	0xbb6c6339	-0.0036069883
161	0xbdb8dbf0	-0.09026325
162	0xbabad5bb	-0.001425437
163	0x3d76192a	0.060082592
164	0xbc226cf9	-0.009913676
165	0xbdb05b36	-0.08611147
166	0xbd5eaa0c	-0.054361388
167	0xbd853393	-0.065039776
168	0xbaad43c1	-0.0013219045
169	0xba11c3fa	-0.0005560514
170	0xbd6c2fa2	-0.057662614
171	0xbdedb6d2	-0.11607136
172	0xba0f04e2	-0.00054557447
173	0xbaa56ae0	-0.0012620352
174	0xbdaa8e13	-0.0832788
175	0xbb56e6fa	-0.0032791481
176	0x3c8adda7	0.016951395
177	0xbac855ed	-0.0015284397
178	0xba722854	-0.0009237577
179	0x3d330ef3	0.04371543
180	0xbe0c6c94	-0.13713294
181	0xbd46f0bb	-0.048569422
182	0xba1e9da0	-0.00060507096
183	0xbac89a19	-0.0015304714
184	0xb97158b7	-0.000230166
185	0xbaa412d8	-0.0012517823
186	0xbe2f41b6	-0.1711491
187	0xbdc49d28	-0.09600288
188	0x3c197480	0.009366155
189	0xbb985387	-0.004648629
190	0xba129163	-0.00055911223
191	0xbc1ca695	-0.009561201
192	0xb937c044	-0.00017523865
193	0x3cf65836	0.03007136
194	0xb9984bd3	-0.00029048193
195	0xbb44c992	-0.0030027372
196	0x3c2036cf	0.009778692
197	0xbb808b7a	-0.003922877
198	0xbb4e44ad	-0.003147404
199	0xbb5c0e5f	-0.0033577902
200	0xb9b6ffb2	-0.00034904253
201	0xb9a03978	-0.00030560396
202	0x3be27ea8	0.0069120713
203	0xbc6cfc70	-0.014464483
204	0xb9927c11	-0.00027939727
205	0xb986ca61	-0.00025709256
206	0xbb69133e	-0.0035564448
207	0xb9c0ee43	-0.00036798613
208	0xbbd1822d	-0.006393692
209	0xb98a7615	-0.0002640939
210	0xb997a159	-0.00028921178
211	0x3bfd1872	0.0077238614
212	0xb97fa785	-0.00024381101
213	0xbb446540	-0.0029967576
214	0x39097d20	0.00013111951
215	0xb9a1bef0	-0.00030850573
216	0xb9913c88	-0.00027701654
217	0xb991afd2	-0.00027787552
218	0xbd47ca3a	-0.048776843
219	0x3c211db2	0.00983374
220	0xbab50e44	-0.0013813456
221	0xbaa31511	-0.0012442191
222	0xb95d421e	-0.00021100833
223	0x3c2cab8d	0.010538948
224	0x38915f74	6.931918e-05
225	0x3cf43574	0.029810645
226	0xb986e047	-0.0002572557
227	0xba7607e9	-0.0009385334
228	0x3c0bacda	0.008525098
229	0xbb8686ab	-0.004105409
230	0xbb5ee50a	-0.003401103
231	0xbb6b3b08	-0.003589334
232	0xb9a52887	-0.00031501448
233	0xb987839c	-0.00025847263
234	0x3bcf8458	0.0063329153
235	0xba9a658f	-0.0011779534
236	0xb9800291	-0.00024415975
237	0xb9699a32	-0.00022278054
238	0xbb766e53	-0.003760238
239	0xb9c427ec	-0.00037413777
240	0x3ca5334e	0.020166066
241	0xb9773d73	-0.00023578647
242	0xb986b645	-0.00025694273
243	0x3bf5ae2c	0.0074975695
244	0xbb919993	-0.0044433563
245	0xbb50ec80	-0.0031879246
246	0x38d8bd7b	0.00010334976
247	0xb992274a	-0.00027876563
248	0xb976042d	-0.00023461944
249	0xb98035f9	-0.00024454275
250	0xbba511eb	-0.0050375364
251	0x3c02e183	0.0079883365
252	0xbb003b8a	-0.0019566738
253	0xba9f1268	-0.0012136223
254	0xb93b9a6c	-0.00017891236
255	0x3c15f5ad	0.009152812

sat_layers.layer0_1.0.input_linear_layer2.bias f4 [32]
0	0x3ce2a93d	0.02766859
1	0x3df6301d	0.12020896
2	0x3b781feb	0.0037860821
3	0x3e110679	0.14162625
4	0xbe0d66b8	-0.13808715
5	0x3e0f9a19	0.14023627
6	0xbc5b88e8	-0.01339934
7	0xbd7dfc6a	-0.0620083
8	0xbbada3bc	-0.0052990597
9	0xbe029524	-0.12752205
10	0x3cee2b1c	0.02907329
11	0xbd073c24	-0.03301634
12	0xbd9df0e6	-0.07711963
13	0xbd40875f	-0.0470041
14	0x3bdb5df7	0.006694551
15	0xbdb8d4a0	-0.0902493
16	0xbd442482	-0.04788638
17	0xbd6ebf2c	-0.058287784
18	0xbd77762d	-0.060415436
19	0xbdb5691b	-0.08857938
20	0x3df6ac73	0.12044611
21	0x3b6dabcd	0.0036265731
22	0xbd42c0ad	-0.04754703
23	0xbd08dc62	-0.0334133
24	0xbe109c4e	-0.14122126
25	0xbd39f6f1	-0.045401517
26	0xbd8a8c4f	-0.06765043
27	0xbe364498	-0.17799604
28	0x3dc9072c	0.09815821
29	0x3cbc10f6	0.022957306
30	0xbd4047e4	-0.04694356
31	0xbd296cc9	-0.04136351
