output/modelparams/dynamicLearning-HIGHSCHOOL-SCCompUAU-GAT/epoch1_model_state_dict.pth (torch, 126225 bytes, 66 tensors)

in_layer.layers.0.weight f4 [32, 3]
000000 b4 32 61 bc f1 d8 0a 3f 24 d0 2c bf 59 4e e3 be
       -0.013744999 0.54237276 -0.675051 -0.44395712
000010 20 d9 a9 be a3 f1 a1 3e b9 47 1d bd 73 02 39 3f
       -0.33173466 0.31629667 -0.03839848 0.7226936
000020 a6 b2 93 be f7 b3 87 3e 9f 6a b2 be 61 78 ca bd
       -0.28847235 0.2650449 -0.3484697 -0.09886242
000030 c2 a4 08 bf 51 f8 24 bf f9 aa 3f bd 55 79 62 bd
       -0.533764 -0.644414 -0.04679391 -0.055291492
000040 39 1a 9f 3e 95 a7 02 3f 7c 76 c8 be 75 7c b5 be
       0.31074694 0.5103696 -0.39152896 -0.35446516
000050 67 32 e5 3e 0d 5e f3 3e 6c c7 bc be 2a 6b 24 3f
       0.44765016 0.47532693 -0.36870897 0.6422602
000060 1c 0b 98 bd 68 36 24 bd 67 1a 33 3f c8 f2 00 bf
       -0.07423994 -0.04009095 0.6996216 -0.50370455
000070 e3 a0 0e bf 90 4f 9e 3d 12 18 8b be 22 47 3e 3f
       -0.55714244 0.07730019 -0.27166802 0.7432729
000080 3f 78 f4 be e5 1e 10 be ab 55 b9 be 14 2d c5 be
       -0.4774799 -0.14074285 -0.36198172 -0.38510954
000090 4d 0b b6 be b4 a2 34 3f 14 7f f1 3d e2 ff 95 3e
       -0.35555497 0.70560765 0.11791816 0.29296786
0000a0 51 04 2d 3e 1f 1c 0e bf ce 97 4f 3e 4b 36 08 bf
       0.16896178 -0.5551166 0.20272753 -0.53207844
0000b0 d3 51 8d be dc 43 be be 76 5e c7 3e 0d 3a 03 3f
       -0.2760149 -0.37161148 0.38939255 0.51260453
0000c0 46 15 58 be d7 81 6a be 5c 1d 11 3f 02 24 0d 3f
       -0.21101865 -0.22901092 0.56685424 0.5513307
0000d0 f8 83 26 3e d7 0d 04 3e 8a 2d d2 3e b1 5a 20 bf
       0.1626128 0.12895904 0.4105037 -0.62638384
0000e0 e5 4e a8 3e 7f 67 06 bf 7e 41 3f be e5 cc 00 be
       0.32872692 -0.5250167 -0.18677327 -0.12578161
0000f0 6f 0b 68 3e e1 5b fe 3e 0f 02 09 bf 4e 90 20 3e
       0.22660612 0.49679473 -0.53518766 0.15680048
000100 85 92 fc 3e 80 a7 95 be 61 3a 34 3b 4d 9d 5b be
       0.49330536 -0.29229355 0.0027500617 -0.21446724
000110 a6 40 17 3f 4e b2 14 3f 89 dd 2e bf ca 0a 5f bd
       0.5908302 0.5808457 -0.68306786 -0.05445365
000120 ac 47 09 3e 72 c5 01 3f 64 04 2b 3f b0 ef 07 3f
       0.13406247 0.506919 0.66803575 0.5310011
000130 b5 a7 7f 3e aa e3 36 bf 00 06 35 3e 27 b1 d0 be
       0.24966319 -0.7144114 0.1767807 -0.40760157
000140 dd ff de be 93 ea 01 3f 05 e9 29 3f 0d a0 54 bf
       -0.43554583 0.50748557 0.66371185 -0.8305672
000150 bc 07 71 3e 80 d8 f9 bd 1a f6 da bd 74 cb 4c be
       0.23538107 -0.12199497 -0.106914714 -0.19999486
000160 b9 5c 80 3e 46 be 81 be c5 16 2f 3e 44 51 d9 bc
       0.25070742 -0.2534048 0.1709853 -0.026528008
000170 e5 87 4a 3f 52 d7 90 3e 61 ab 09 bf 8e e8 da be
       0.7911361 0.28289276 -0.5377713 -0.4275555

in_layer.layers.0.bias f4 [32]
000000 c1 fa a8 3e f7 ef 24 3e ec 0d 9a be 18 83 88 be
       0.3300381 0.16107164 -0.30088747 -0.26662517
000010 9e 36 0e 3f 27 d2 dc 3e 1a 4b ab bd cb 45 ba bd
       0.5555209 0.43129084 -0.08363934 -0.09095343
000020 fa 0d d4 be b7 5c 75 3d ef 25 76 be 69 4a 69 be
       -0.41416913 0.059902873 -0.24037908 -0.22782291
000030 85 c4 e7 3c 2b a3 c7 3d 42 19 05 be a1 8d d0 3e
       0.02829195 0.09747919 -0.12997916 0.40733054
000040 7a 6d 7e be 77 0b f3 3e 58 bf e2 3e 5d 64 0a bf
       -0.2484645 0.47469684 0.4428661 -0.5405939
000050 d9 cb db bd 06 f1 1f 3d c0 1d 08 3e 2e 4f 2d 3e
       -0.1073224 0.039048217 0.13292599 0.16924736
000060 35 e9 78 3e dc 6c 94 3d 71 09 27 be 75 96 ac 3e
       0.24307711 0.07247326 -0.16312195 0.3370854
000070 1b 50 cf be 62 da 96 be fd 86 00 be a6 25 6f be
       -0.40490803 -0.29463488 -0.12551494 -0.23354205

in_layer.layers.2.weight f4 [32, 32]
000000 e5 03 5a bd cd df 86 be 55 be fb bd ac 73 8d 3d
       -0.05322637 -0.2634262 -0.12292162 0.06906828
000010 df 79 13 be 2d e6 c2 bc 05 e7 62 3d a5 ba 69 3d
       -0.14401959 -0.023791397 0.0553961 0.057062764
000020 8b 7d 64 bd e7 f7 72 bd 20 1f 84 bd 06 96 ab 3d
       -0.05578379 -0.05931845 -0.06451249 0.08378224
000030 6a 1c 0a bd 5d 9f 4e 3e 21 9d 53 3e 7c b1 c6 bd
       -0.033718504 0.2017798 0.20665409 -0.09701821
000040 ea af 5b be e3 25 12 bd b8 f2 40 3e 8b f5 a2 bc
       -0.21453825 -0.035680663 0.1884259 -0.019892475
000050 76 00 9c 3c 85 01 e3 bd aa a8 27 be 61 98 f8 bc
       0.019043189 -0.11084274 -0.16372934 -0.030346097
000060 7b 7e 46 bd 7f 5a 48 3e b1 69 e8 3d 9c a5 e0 bd
       -0.048460465 0.19565772 0.11348284 -0.109690875
000070 8a ae b6 3d 80 18 2b be 3f 6b 8a bd 27 c9 26 3d
       0.089200094 -0.16708565 -0.06758737 0.040719178
000080 28 c5 41 be c0 ca 03 3e af ea 83 be b2 30 33 be
       -0.18922865 0.12870312 -0.25764987 -0.17499045
000090 42 91 ce 3d 15 6c 8b 3d 16 a1 bb 3d 86 f5 27 3e
       0.100862995 0.068077244 0.09161584 0.16402254
0000a0 01 d1 d5 3b c5 08 b3 3d 7e dc 2f 3d 12 8b a9 bd
       0.0065251593 0.08741907 0.042934887 -0.08278479
0000b0 1c fd c8 3d 12 59 c3 bd c7 70 50 be 37 05 40 3e
       0.09813902 -0.09538473 -0.20355521 0.1875199
0000c0 d7 76 19 3e 15 44 e2 bd 20 dc 4b 3e fd 8d 22 be
       0.1498674 -0.11048142 0.1990819 -0.15874477
0000d0 60 5a 1e be bf c1 41 be 3e eb 76 3e 11 e1 a8 3c
       -0.15464163 -0.18921565 0.24113175 0.020615133
0000e0 e2 5c 0b 3e 95 4d ba bd d0 f1 a7 bd 26 07 49 be
       0.1360965 -0.09096829 -0.08200419 -0.19631633
0000f0 c8 02 23 be 45 5c 1e 3d 95 d3 8b 3e 41 24 51 3d
       -0.1591903 0.038662214 0.27309862 0.051059965
000100 0e f5 88 be 89 19 14 3e 59 19 57 be 96 95 e8 bd
       -0.26749462 0.14462866 -0.21005763 -0.11356656
000110 34 e4 20 bc 11 80 c8 3d 5d 3c b5 bb 7d a0 8e 3d
       -0.009820033 0.09790052 -0.0055308775 0.069642045
000120 a0 8d ba 3d dd ec 19 3e b2 6f 65 be 9d a0 05 be
       0.09109044 0.15031762 -0.2240589 -0.1304955
000130 cf a9 28 be d0 53 ee 3c da 70 b7 bd 34 08 47 3e
       -0.16471027 0.0290927 -0.089570716 0.19436723
000140 5d 2e 23 3e 52 a8 75 3c 03 dc 2e 3d a2 bb 47 bd
       0.15935655 0.014993744 0.04269029 -0.048762925
000150 68 12 35 be 1b d3 26 be 07 b5 a6 3d 62 92 c3 3c
       -0.17682803 -0.16291468 0.08139997 0.023873512
000160 09 44 df bd 03 59 36 be c0 25 f5 3d c9 09 73 be
       -0.109016486 -0.17807393 0.11970091 -0.23734201
000170 0e 72 cb bc c1 a9 09 3e 82 d9 29 3e 7b 8d eb bc
       -0.024834659 0.13443662 0.16586879 -0.028753987
000180 84 96 93 be 07 60 8e 3e 6b f9 7a be 6c d3 ea bd
       -0.28825772 0.27807638 -0.24509208 -0.11466107
000190 11 77 eb 3d dc d9 67 3d fc e4 f9 3d 7a c9 83 3e
       0.114973195 0.05660425 0.122018784 0.25739652
0001a0 e3 7d ec 3d c1 d2 3c 3e 41 72 96 bc f8 d6 1c be
       0.115474485 0.18439771 -0.018365027 -0.15316379
0001b0 4b 03 62 3d 25 33 50 be 1f 8a 1e be 5d 87 2d 3e
       0.05517892 -0.2033201 -0.15482377 0.16946168
0001c0 8c c7 2a 3e 9d 13 1c 3e eb 01 86 3c fd 35 3e bd
       0.16677684 0.15241857 0.016358336 -0.046438206
0001d0 9f 00 3b be 32 5c 92 be 2e e6 8c 3e 59 27 eb bd
       -0.18261956 -0.28585964 0.27519363 -0.11482114
0001e0 a9 7b 9b 3d ce 08 c6 bd f7 43 22 be 54 86 48 bd
       0.07591946 -0.09669648 -0.15846239 -0.04895623
0001f0 9e 8f c5 3d 7c 45 f2 bd 2b 21 b6 3d 59 62 2f be
       0.096465334 -0.11829659 0.08893045 -0.1712736
000200 05 25 60 be a7 3e 2f 3e 38 f3 08 be 41 14 23 be
       -0.21889122 0.17113744 -0.1337403 -0.15925695
000210 1c 70 35 3c 53 a0 23 3e 57 47 f2 3d a4 57 3d 3e
       0.011074092 0.15979128 0.11830013 0.18490463
000220 29 6d ae 3d d7 24 71 bd ce f9 c9 bd 3d 19 9c 3c
       0.085169144 -0.058873024 -0.098620996 0.019055003
000230 47 0b 55 3e 3a 9f 22 bb 90 d0 08 be 6e 74 07 3c
       0.20805083 -0.0024814145 -0.1336081 0.008267505
000240 5c a4 01 be 0e ef 4e 3d f1 16 8b bd e1 9f 42 be
       -0.12660354 0.05052095 -0.06791485 -0.19006301
000250 f9 2c 0d 3d 26 79 17 be f8 d0 8f 3d 8b ac 0d 3d
       0.034466717 -0.14792308 0.070222795 0.034588378
000260 e7 6d 74 3d 98 3b 2a be d3 4d 3e be bf 10 d4 3d
       0.059675124 -0.16624296 -0.18584375 0.103547566
000270 0e 2e d9 bb 21 23 ce 3d 2c 23 5c 3d 5d ab 0a bd
       -0.0066278046 0.10065294 0.05374448 -0.03385483
000280 e3 cf 39 3d ba 26 28 bd a4 dc ed bc ca b9 c2 3c
       0.04536427 -0.041052558 -0.029035874 0.023770232
000290 c0 b2 27 3d 6d 2a ce 3b 85 a7 99 bd eb 91 38 be
       0.040941954 0.0062916786 -0.07502655 -0.18024413
0002a0 d4 b1 af 3d ca d3 10 be 7d 86 1d 3e 13 c8 74 bd
       0.0857884 -0.14143291 0.15383334 -0.05976112
0002b0 ec 9b 13 3d 7a 06 26 3d 43 d8 02 be f1 f7 96 3d
       0.03603737 0.04053352 -0.1277781 0.0737151
0002c0 55 d1 9a ba ab 06 08 be 92 b3 9e bc de 31 8f 3d
       -0.0011811653 -0.13283794 -0.019372735 0.06991933
0002d0 b0 b6 01 3e b6 e3 56 3d 22 c9 22 be 80 2e b1 bd
       0.12667346 0.052463256 -0.15897039 -0.08651447
0002e0 f0 10 99 3d 71 26 83 bd 65 e9 13 3d 70 5f 17 3e
       0.07473934 -0.064038165 0.036111254 0.147825
0002f0 ab 57 c6 bd 25 1d af 3c fa ed 38 3d d9 00 07 bd
       -0.0968469 0.021376202 0.045148827 -0.032959793
000300 39 3d 9a 3c c1 7e 92 bd 49 c3 83 be 51 ff 96 3b
       0.018828021 -0.07153083 -0.25734928 0.004608073
000310 bb a6 bb 3d 02 61 39 3e 67 98 0a 3d b0 34 00 3e
       0.09162661 0.18103412 0.03383675 0.12520099
000320 d7 f1 53 3c 74 64 18 be 18 43 8c be b0 6a 4d be
       0.012936077 -0.1488207 -0.27394938 -0.2006023
000330 57 30 06 bd ba e3 45 3e c0 06 d4 bd 48 3f 22 bc
       -0.032760944 0.19325152 -0.1035285 -0.009902783
000340 50 da 78 3d ba 6a 7b 3e 58 4a 7b 3e e9 0c b0 3d
       0.060755074 0.24552432 0.24540079 0.085962124
000350 c4 07 bc bc 3c f0 18 bd 47 17 2c 3e 0e b9 51 3e
       -0.022952922 -0.03733848 0.16805755 0.20480749
000360 6e da a7 bd df 68 7b 3e ae 8e 90 3d cc b8 22 3e
       -0.08195959 0.24551724 0.07058464 0.15890807
000370 08 8a 1c be fb 2f 95 bc 1f 7c 90 bd bf 28 5a 3e
       -0.1528703 -0.018211355 -0.07054924 0.21304606
000380 52 5b b9 3a 88 c1 a2 bc db a9 77 3a fa b8 d3 3d
       0.0014141595 -0.019867674 0.00094476127 0.10338016
000390 36 7f 3b be 65 36 76 3d fc c5 35 be 02 82 87 3d
       -0.18310246 0.06011047 -0.17751306 0.06616594
0003a0 34 6f 2d be 62 28 56 be cf ed 32 be e9 36 01 3e
       -0.16936952 -0.20913842 -0.1747353 0.12618603
0003b0 5a d8 17 3c 0c e4 65 3e f8 65 4a 3e d3 61 89 be
       0.009267891 0.22450274 0.1976546 -0.26832446
0003c0 66 13 35 be 53 6c 61 3b e9 5c a6 bd 26 33 e3 3d
       -0.17683181 0.0034396842 -0.0812319 0.1109374
0003d0 94 bb 19 bd 14 e3 43 bd 07 c9 6c be f5 1a 2c bd
       -0.037532404 -0.04782398 -0.23123561 -0.042017896
0003e0 f2 28 01 3e bf b1 52 3e f0 a3 16 3e 0c ef 3e 3e
       0.12613276 0.20575617 0.14710975 0.18645877
0003f0 3a e7 1a 3e d1 e5 80 bd 16 f4 15 bd 0d 0c 6b 3e
       0.15127268 -0.06293834 -0.03660973 0.22953816

in_layer.layers.2.bias f4 [32]
000000 4b 58 00 be b1 17 cd 3c cd d8 20 3e 17 44 d2 bd
       -0.12533681 0.025035711 0.15707703 -0.10266893
000010 1f 9a 25 bd 66 b8 22 3e 47 dd a3 3c 5d 92 ad 3d
       -0.040430184 0.15890655 0.020002974 0.08475182
000020 2e f3 0a be 39 0d f9 bc 64 81 4e bd 1d 8e 3b 3e
       -0.13569328 -0.030401813 -0.050416365 0.1831593
000030 e9 60 86 3d 67 90 c4 bd f7 f9 f7 bb 2a d8 63 bc
       0.06561453 -0.09597855 -0.00756764 -0.013906518
000040 e4 be ba bd b5 53 a4 bd ec 07 1b 3c e0 46 18 3e
       -0.09118441 -0.08023778 0.009462338 0.14870787
000050 06 03 f2 bd 11 3c 57 bd 06 22 16 bc 24 83 11 3c
       -0.11816983 -0.05254752 -0.009163385 0.008881364
000060 ed 18 83 3d 14 0a 92 3d 50 75 3e 3b 74 e6 bc bd
       0.064012386 0.071308285 0.0029061623 -0.09223643
000070 d6 d0 0e bd d9 29 9a bd f4 41 0a 3e ff 13 de bd
       -0.03486713 -0.07527513 0.13501722 -0.10843658

gat_layer_1.layer0_1.0.input_linear_layer1.weight f4 [32, 32]
000000 5a d5 90 bd a4 90 3f 3c 35 86 47 3d 56 a8 11 3e
       -0.070719436 0.0116922 0.048711974 0.14224371
000010 4e 93 19 3e e9 c3 d1 bd b8 db 34 3d d2 03 77 3d
       0.14997599 -0.10242445 0.044154853 0.060306378
000020 4b a9 9b 3c 92 c1 80 3d 5b 34 cc 3d 73 6b eb 3c
       0.019001624 0.062869206 0.099709235 0.02873776
000030 8e 40 dc 3d 18 82 3d 3d 32 e9 88 3d 56 bc f0 bc
       0.107545 0.046266645 0.066851035 -0.02938668
000040 ae 58 7b 3c da ea c6 3d 50 94 48 3e 8f 2d 16 be
       0.015340967 0.09712763 0.19587827 -0.14665817
000050 7b 58 ed bc 88 6d d7 3d 3b 4a 50 bc 32 f7 af 3d
       -0.028972855 0.10518938 -0.01271301 0.08592071
000060 46 e8 03 3e f6 7c c3 3d 1c 88 04 ba 22 44 9d bb
       0.12881574 0.09545319 -0.0005055682 -0.004799382
000070 12 50 51 3d e5 69 23 bd 60 09 ba bd 30 79 68 bd
       0.05110175 -0.03989591 -0.090838194 -0.0567562
000080 54 10 1d 3c d2 b8 83 3e 43 ec af 3d 2d 3b 30 3e
       0.009586412 0.25726944 0.08589985 0.17210074
000090 2d ae 41 3e 7a fb 57 3d 4b 4e 2a 3d af 34 63 bd
       0.18914099 0.05273006 0.041578572 -0.055470165
0000a0 40 2f 13 bd 26 92 3b bc fe d4 9a 3d 19 f1 95 3e
       -0.035933733 -0.011448419 0.07560156 0.29285505
0000b0 cb a8 53 3d fd ea 05 3d cf a9 ab 3d 3e e1 21 3d
       0.051674645 0.032694805 0.08381998 0.03952145
0000c0 11 5a 24 bd 7a 6f 54 3d db 5c 75 3e ef c2 e2 bd
       -0.040124957 0.051864125 0.23961203 -0.11072337
0000d0 a9 5f 1a 3e 20 79 97 3e ef 9a 74 3e a2 5e 26 be
       0.15075554 0.295846 0.23887227 -0.16247037
0000e0 04 a9 04 3e 62 f9 6c 3e 82 03 02 3e 04 15 08 3b
       0.129551 0.23142007 0.1269665 0.002076448
0000f0 4e 99 83 bc 63 8b 21 3d c5 f1 82 bc bc 35 b8 bb
       -0.016064312 0.03943957 -0.015984425 -0.00562164
000100 fa 7e 1b 3e 60 b4 c9 3c 64 b4 0d 3d 90 21 30 3e
       0.15185156 0.024622142 0.034595862 0.17200303
000110 c4 ab 37 3e 2d 79 12 be 63 be 04 3e b1 7e f5 3c
       0.17936617 -0.14304037 0.12963252 0.029967638
000120 00 6a af 3d 60 4d 41 be ed 39 45 3e df c9 73 3e
       0.0856514 -0.18877172 0.19260378 0.23807476
000130 6d f7 e6 bd 30 63 0c 3e b5 02 08 3e 2f 76 0c be
       -0.112776615 0.13709712 0.13282283 -0.13716958
000140 e5 0b a5 3b 5b bd fa 3d 36 64 01 3e 65 44 2b 3e
       0.0050368183 0.12243148 0.12635884 0.16725309
000150 5a de 1e 3e 2a b4 49 3e a8 90 f4 3c 35 6e e1 3d
       0.15514508 0.19697633 0.029854134 0.110073484
000160 e8 cb 48 bd 25 43 0a 3e 27 fc bb bb bd 95 e2 bc
       -0.049022585 0.13502176 -0.005736846 -0.027659291
000170 58 4b 14 3e d3 d6 f6 3d 5b 59 00 3e 81 1a 1a 3e
       0.14481866 0.12052693 0.12534086 0.15049173
000180 f5 4b 8a bd 0e 3f fc bc 77 65 12 3d ba 7b f4 3c
       -0.06752769 -0.030791786 0.035741296 0.029844154
000190 93 37 fc 39 cf 4d b2 bd 32 4f 9f bd cf d9 17 3e
       0.00048106592 -0.08706247 -0.07778777 0.14829181
0001a0 9e 09 bc ba 39 95 4e bd 75 a5 07 3d 2d 3c 15 3d
       -0.0014346128 -0.05043528 0.033116776 0.03643434
0001b0 d8 15 4e bd 18 d1 ae bd 85 48 94 bd f0 15 7b bc
       -0.0503138 -0.08535975 -0.072403945 -0.0153250545
0001c0 77 7f 37 3d 5e 93 85 bd 05 4e 90 3b 6a a3 12 be
       0.044799294 -0.06522249 0.004403832 -0.1432015
0001d0 09 9e d4 bb eb 75 f4 bb 51 86 cd 3c 42 5c 40 3d
       -0.006488566 -0.007460346 0.025088461 0.046962984
0001e0 4a d9 df 3c 45 3f 10 bd 1a 0b a1 bd 5e 0e b6 bb
       0.027325291 -0.03521659 -0.078634456 -0.005555912
0001f0 a4 e8 89 bd c9 4f e3 bc ee a2 84 3d 34 7f 9c bc
       -0.06733826 -0.027748005 0.06476389 -0.019103624
000200 7c 58 f4 bc d5 aa 35 bd 89 54 ac bb eb b6 fc 3d
       -0.029827349 -0.04435237 -0.005259101 0.12339576
000210 08 24 83 bc 7c 5d 4e bd e1 16 44 3e a0 1f d1 ba
       -0.016008392 -0.050382122 0.19149353 -0.001595486
000220 69 61 90 bd 47 10 a6 bc 7e ed 77 3d d7 31 8b bc
       -0.070498295 -0.020271434 0.060529225 -0.016991539
000230 da c3 2e be f3 79 4d 3e ce 7c 11 bd aa 25 aa bd
       -0.17066899 0.20066051 -0.035519414 -0.08307965
000240 44 92 17 bd 09 14 e1 bc 3b f6 51 3d ca 73 ed bd
       -0.037004724 -0.027475374 0.051260214 -0.11594351
000250 4c dd 15 3e cf 56 06 3e 5c f5 dc bc be 88 b4 bd
       0.146352 0.13119052 -0.026972465 -0.08815144
000260 c7 57 3b 3e 39 19 33 3e 27 ee aa 3d 79 0b 92 3b
       0.18295203 0.1749009 0.08346205 0.004456934
000270 de 51 b4 bd 5e 96 03 3e 84 50 c0 3d 73 3b f6 3d
       -0.088046774 0.1285033 0.09390357 0.12023058
000280 1e 06 7c bd 78 dc eb bb 27 26 a1 3c 64 85 68 bd
       -0.06152927 -0.007197913 0.019671513 -0.056767836
000290 bb fa ac b9 32 b6 14 3e 21 08 f4 bc b2 01 11 3e
       -0.00032993205 0.14522627 -0.029789032 0.14160803
0002a0 99 eb 48 3d f4 e7 93 3d ef d7 83 bd 63 f2 d7 3d
       0.04905281 0.07221976 -0.064376704 0.105442785
0002b0 f0 13 87 bd f6 56 43 bd 3f 5d 8f 3d b1 6b f0 3a
       -0.065956 -0.047690354 0.07000207 0.0018342641
0002c0 da 0d 74 3d ac df fc 3c df 2a 00 bd a6 ef f4 3d
       0.059583522 0.030868374 -0.031290885 0.11959772
0002d0 ab 64 0a 3d ab 31 6e 3c a2 d5 36 3c 73 3a fa bc
       0.03378741 0.014538209 0.0111593325 -0.030545449
0002e0 c9 0f 06 be 26 b0 ef bc 85 37 95 bd 2e cb 68 3c
       -0.13091959 -0.029258799 -0.0728598 0.014208598
0002f0 6a 51 a1 bd 2e 3d b8 3a b7 b1 f8 3c 99 49 d6 bc
       -0.078768566 0.0014056319 0.030358179 -0.026158141
000300 9f a1 02 ba ec 0a e7 3d 84 7e 56 bd 66 7f 83 3d
       -0.000498319 0.1128138 -0.05236675 0.06420784
000310 d4 1e 76 3e 72 7d 76 bd a3 1e 48 3d 75 18 d0 bd
       0.24035197 -0.060178228 0.048857342 -0.10160915
000320 63 67 9c 3d 1e 15 c4 3d 41 4d ab 3d 67 eb 26 3d
       0.07636907 0.0957434 0.083643444 0.04075184
000330 c7 82 d6 bd 28 27 61 3e f8 fd c6 bc c0 db d8 3d
       -0.104741625 0.21987593 -0.024291024 0.10588789
000340 0a f6 a2 3d f5 3a 3c 3e 51 0d 4c 3e e1 88 b9 bd
       0.079570845 0.18381865 0.19926955 -0.09059311
000350 8a 55 9c 3d 72 ad b7 3b b9 88 0b 3e cd c9 4a bd
       0.07633503 0.005605393 0.13626374 -0.04950886
000360 d3 bd fe 3d 98 6a 10 3e 5b 6b cb bd f2 37 e5 3c
       0.1243855 0.14103162 -0.09932586 0.027980778
000370 e2 77 2c 3d a4 2b ba 3d 20 e1 34 3e 04 77 84 bd
       0.042106517 0.09090355 0.17664003 -0.06468013
000380 a7 62 1d 3d 24 ba f8 bc 43 42 d3 bc ff 8a 90 bc
       0.03842416 -0.030362196 -0.025788432 -0.017644404
000390 42 82 4a 3e 45 f3 56 3e 19 8e 5b 3e 3e be d2 bc
       0.19776252 0.20991237 0.21440925 -0.02572548
0003a0 b6 5a e8 3c a3 de 53 be 86 89 76 bc 06 79 03 3e
       0.028363567 -0.20690398 -0.015047437 0.12839136
0003b0 84 9e 3b bc 20 6f a0 3c f9 11 b5 bd 5e d5 e3 bd
       -0.011451367 0.019584239 -0.08841319 -0.11124681
0003c0 5f 02 1a be b6 86 bc 3d 0a b4 3c 3e 76 40 df 3d
       -0.15039967 0.092053816 0.18428054 0.10900967
0003d0 2e 97 3e bd 2c 04 a1 bd f1 35 b0 bd 84 49 3a bc
       -0.046530895 -0.07862124 -0.086040385 -0.011370067
0003e0 bc 26 62 3e 22 d0 5a 3e a0 12 15 bc 78 96 a5 bd
       0.22085088 0.21368459 -0.009098679 -0.0808534
0003f0 f4 d5 57 bc 44 f4 81 bd c3 e2 48 bd f5 70 18 3e
       -0.013173569 -0.06345418 -0.04904438 0.1488684

gat_layer_1.layer0_1.0.input_linear_layer1.bias f4 [32]
000000 64 e3 47 bd 08 2e 43 bd a4 c7 6f 3d d4 6d 09 be
       -0.04880084 -0.04765132 0.05854 -0.13420802
000010 cd ba 53 3e 24 79 b0 bd f5 6e 5c 3e 21 44 3b 3e
       0.20676728 -0.08616856 0.21526702 0.18287708
000020 58 cc ed 3d 65 f3 44 bd 03 ad 7d bb 9c 9c be bd
       0.11611241 -0.04808368 -0.003870786 -0.093072146
000030 03 b7 02 3e 6d 98 a8 bd 12 4e ca 3b 17 60 8f bc
       0.12765126 -0.08232198 0.0061738575 -0.017501874
000040 0d 09 b2 bb 88 ed 42 be 66 a1 f4 3d e8 d6 62 bd
       -0.005433208 -0.19035923 0.11944847 -0.05538073
000050 ec 43 6f 3e 0c 54 ec bd d8 18 f6 bd 28 cf e8 3c
       0.23365754 -0.11539468 -0.12016457 0.028419092
000060 f6 3f 70 3d f7 f8 f3 3d 33 1a 17 be e3 4c 04 3e
       0.058654748 0.11912721 -0.14756088 0.12919955
000070 4f 00 26 3e 25 8b 0f 3e b9 8e 14 3e ea 6c 1c 3e
       0.16211055 0.14017923 0.1450757 0.15275922

gat_layer_1.layer0_1.0.input_linear_layer2.weight f4 [32, 32]
000000 93 4e ab bd b8 54 d9 bd d1 f0 01 be 54 5f 7f bd
       -0.08364596 -0.10611862 -0.1268952 -0.06234677
000010 45 41 56 3c c5 be 40 3e c0 c3 1a bd fe 19 f1 3b
       0.013077085 0.18822773 -0.037784338 0.007357835
000020 fd 52 92 3c eb bf 26 be 64 74 35 3c c2 b9 47 3e
       0.017861838 -0.16284148 0.011075113 0.19504455
000030 9c 7c 12 3d dc 4b a1 3e 1f 52 88 bd ca 99 5f bd
       0.035763368 0.3150319 -0.06656288 -0.054590024
000040 6b 3b 66 3e 7b 0c f2 3d 45 49 70 3c c3 a5 76 3e
       0.22483604 0.11818787 0.014665906 0.2408667
000050 8b bd a3 3d ed cb 80 bd 0b 5e 44 3e 5a 7e 4c 3e
       0.07995137 -0.06288896 0.191765 0.19970074
000060 15 24 f5 3d 3b dd 37 3d d0 a9 73 3e 1b f5 2f 3d
       0.11969773 0.044888716 0.23795247 0.04295836
000070 91 7a ac 3c 59 d0 b5 bb e1 0e 81 3e 04 c6 8c bc
       0.021054538 -0.0055485186 0.25206664 -0.017184265
000080 91 8d bb 3d 86 2f 09 3c c9 22 d1 bc 8d aa 80 3d
       0.09157861 0.008373147 -0.025529282 0.0628253
000090 12 ec bb bd 63 1a 43 be 90 ef 22 bc f5 34 f7 ba
       -0.09175886 -0.19053034 -0.009944811 -0.0018860387
0000a0 59 59 5f 3d 14 12 28 3d ae 32 98 bd fd a7 77 bd
       0.054528568 0.041032866 -0.074315414 -0.06046294
0000b0 b5 1a 33 3d eb 11 54 be 96 5f 41 be 07 a8 13 3c
       0.04372664 -0.2070996 -0.1888412 0.009012229
0000c0 a6 84 1d be fd 90 8f bd 8d 9d f6 bc b5 f1 87 bd
       -0.15382633 -0.07010076 -0.030104423 -0.06637899
0000d0 8a c2 98 3d d0 d2 c1 bc 81 37 9d 3c 71 fd ab bd
       0.074589804 -0.023660094 0.019191505 -0.083979495
0000e0 5f 37 9d bc 21 c2 4e bd 0b b6 d4 3a 1b 9f f0 bd
       -0.019191442 -0.050478105 0.001622857 -0.11749097
0000f0 24 cc df bd f1 5d 3a be 09 92 09 be ba 01 ea 3d
       -0.109276086 -0.18199898 -0.13434614 0.114261106
000100 f2 61 fa bd 1e a3 03 be f2 18 06 3e 5e 6b 81 bd
       -0.12225713 -0.12855193 0.13095453 -0.06319307
000110 b0 5b d4 3d 15 f4 3f 3c d7 ed a6 3c f2 ef f2 3d
       0.103690505 0.011715909 0.020377083 0.11862172
000120 15 12 34 be a7 db 08 3e cd 0e 15 3d 5f 8f ec bd
       -0.17585023 0.1336504 0.03639107 -0.11550783
000130 85 d0 1a 3d b7 b5 b1 bd 24 34 ae bd 7e b3 80 bd
       0.037796516 -0.086772375 -0.08506039 -0.062842354
000140 da 2d 03 be c9 80 f4 3d 4e ed 15 3e f2 a7 54 bd
       -0.1281046 0.11938626 0.14641306 -0.051917978
000150 19 a7 2b be 67 63 16 3d 2e e6 3c 3d 9e 89 84 3d
       -0.16762961 0.03671589 0.046117954 0.06471561
000160 2e 71 4a 3c 46 fb 42 3c 2b 67 24 3c ac b5 e3 bd
       0.012356086 0.011900729 0.010034363 -0.111186355
000170 ea 04 13 be e0 b5 32 be 05 7e d7 bc 85 9c 65 3d
       -0.14357343 -0.17452192 -0.026305208 0.05605747
000180 d8 66 7f 3d a5 5b 36 3e 09 fc 36 bc d0 d8 0c be
       0.06235394 0.17808397 -0.011168488 -0.13754582
000190 13 ef 3d bc f9 0b d2 bd 0d f1 b4 bc 9e 5b 56 3e
       -0.011592644 -0.1025619 -0.022087598 0.20933387
0001a0 6a 83 af bd fd 24 12 3e d0 89 b4 3c d2 ca 7e bd
       -0.08569987 0.14271922 0.02203837 -0.062205143
0001b0 5f aa 25 3e e0 89 69 be 65 fe 9c 3d 3d 80 1c 3d
       0.16178273 -0.22806501 0.076657094 0.038208235
0001c0 af 4f 04 bd ec fa 86 be 9d 68 81 bd bf b7 9f bd
       -0.032302555 -0.26363313 -0.063187815 -0.07798719
0001d0 b1 7c 96 3c 2a d2 80 3d 9a 52 38 3d 60 ea 68 bd
       0.018370004 0.062900856 0.04500065 -0.056864142
0001e0 cc 9b 25 bd 0f 1c 1e be 1f 8e 7b bd 83 6a d9 bd
       -0.040431783 -0.15440391 -0.061414834 -0.106160186
0001f0 b1 55 1b be 77 b0 b5 bd 3f 2d 10 be eb 63 90 3c
       -0.15169407 -0.088715486 -0.1407976 0.01762577
000200 56 51 11 3e 9d aa bf bc 45 03 08 be 76 f2 cb bd
       0.14191183 -0.023396784 -0.13282497 -0.09958355
000210 58 18 e7 3d e0 72 1e bd 45 56 66 bd 38 a7 e0 3d
       0.1128394 -0.038683772 -0.056234617 0.109693944
000220 69 d6 52 bc 1b 8c 14 be 21 7a fd 3d 93 22 b7 3d
       -0.012868502 -0.14506571 0.1237681 0.089421414
000230 7b 15 06 3e bc 3a b9 3d 39 6d f3 bc 8a 38 22 bd
       0.13094132 0.09044406 -0.029715167 -0.0396047
000240 16 10 26 3d 55 c8 fa bc 1d af 2b 3d 6b 9d 1e be
       0.040542684 -0.030613104 0.041915048 -0.15489738
000250 8c 89 e9 bd 98 77 8f 3d 85 96 63 bd f4 f8 74 bd
       -0.11403188 0.070052326 -0.05556347 -0.059807733
000260 cd b8 19 be df 1c 12 3e 6c 75 8a bc 79 9b b2 bd
       -0.15011902 0.14268826 -0.016901694 -0.0872106
000270 ec 47 09 3e 8a 88 64 3d 32 00 a8 bd d3 5e d7 bd
       0.13406342 0.055794276 -0.08203162 -0.10516133
000280 90 20 dd 3d 7b 76 83 3c 08 75 c0 bd 51 df a2 3d
       0.107972264 0.016047707 -0.09397322 0.079527505
000290 fa 58 4a 3a 35 e5 82 3d 6d d7 8e bd a7 2e 0b be
       0.0007718947 0.06391374 -0.06974683 -0.13592015
0002a0 45 59 bf bd 29 1a 17 bd 69 9e 01 be 62 4d 3d 3e
       -0.09343199 -0.036890183 -0.12658085 0.1848655
0002b0 ea 46 88 bd d2 c7 a4 3c c3 e8 8a 3d d5 79 0e be
       -0.06654151 0.020114813 0.06782677 -0.13913663
0002c0 71 e9 10 3c 4e 40 0b 3e de 89 c9 bd 53 d1 07 3e
       0.008844719 0.13598749 -0.09840749 0.13263445
0002d0 35 5a b8 3d 33 9e 07 be 8c 11 4f be 36 d4 00 3e
       0.090015806 -0.13243942 -0.20221537 0.12580952
0002e0 88 a8 b7 3d 3b 80 56 3d 3d 36 8d bd 1c 2d 72 bd
       0.08967692 0.052368384 -0.06895111 -0.05912505
0002f0 25 38 a8 3d f4 49 a0 3d f5 2d ba 3d be ff 9f bc
       0.08213834 0.078266054 0.09090797 -0.019531127
000300 6f 7e c4 3c 3b 05 bf bb fb 5c 9b 3c 44 7e 89 bd
       0.02398607 -0.005829481 0.018965235 -0.067135364
000310 1a ff 80 3d f8 a4 bf bd 35 71 8c bd 71 0f f8 bb
       0.06298657 -0.09357637 -0.0685753 -0.0075702
000320 ba cd fe 3a 09 85 e5 3d 5c ea 6c bd a5 db 39 be
       0.0019439973 0.11207015 -0.05784069 -0.18150194
000330 e5 6d cf bd 82 af b0 3d 44 87 86 3a 3a a5 13 3d
       -0.101283826 0.086272255 0.0010263701 0.036046244
000340 90 a3 ee bd d7 44 29 be 52 5e ee bd a2 02 4c 3d
       -0.11652291 -0.16530167 -0.11639084 0.0498072
000350 4a 13 11 be 4e fd 81 be 99 1b be bc 03 3e 5b be
       -0.14167514 -0.2538857 -0.023206519 -0.21410374
000360 ac 41 5f be 63 ff 19 be 2a 79 fa 3c 24 f5 b8 3d
       -0.21802396 -0.15038829 0.030575354 0.09031132
000370 60 83 b3 3c d9 7f 96 bd 6f 83 50 3d 02 08 f1 bd
       0.02191323 -0.07348604 0.050906595 -0.117691055
000380 f4 a5 08 3e ad 2d d7 bc 8d 70 8c bd fa bf 13 bd
       0.13344556 -0.026266897 -0.06857405 -0.036071755
000390 68 fe 0e be 9d 51 a1 3d b9 0c 2e 3d 82 7a 3b be
       -0.13964236 0.078768946 0.042492602 -0.18308452
0003a0 86 5f d8 bd c7 d7 ae 3c a0 5f a6 3d dd c0 11 be
       -0.10565095 0.021343125 0.08123708 -0.14233728
0003b0 5d 33 1b 3e 6e 81 3e be 2e f6 36 be fd ba c7 3d
       0.15156312 -0.18604061 -0.17867348 0.09752462
0003c0 3f 36 b0 bd c8 bc ce bd 17 19 24 be 3e dd 8c bd
       -0.086040966 -0.10094601 -0.16025196 -0.06878136
0003d0 e1 73 00 be 19 fb 8c be 66 ba 54 3d 8a 7c d1 bd
       -0.12544204 -0.27535322 0.051935576 -0.10228832
0003e0 35 4b 32 be c6 bb 0f be 30 1f 84 be 2f 89 ac 3d
       -0.17411502 -0.14036474 -0.25805044 0.08424603
0003f0 60 61 9b 3d 39 5a 20 3e 21 e5 52 be f1 20 c3 bc
       0.07586932 0.15659417 -0.20595218 -0.023819419

gat_layer_1.layer0_1.0.input_linear_layer2.bias f4 [32]
000000 7c a3 3f 3e a7 37 9a bc 71 68 25 be 0f 31 ef bd
       0.18714708 -0.018825365 -0.16153122 -0.11679279
000010 8b 3e 0a be e5 59 0d 3d a2 94 d8 bd b4 6d 84 bd
       -0.13500421 0.03450956 -0.105752245 -0.06466237
000020 78 6f cb ba d7 40 09 be 63 fe 1b be f0 d5 34 be
       -0.0015520891 -0.1340364 -0.1523376 -0.17659736
000030 e4 ed 1a be 7c 98 ee 3c 14 f7 94 bd 72 f2 57 3d
       -0.1512981 0.029125445 -0.07273689 0.05272145
000040 bc ff cc 3c 15 b6 ec 3d ee 38 25 be 23 c8 23 3e
       0.025024287 0.11558167 -0.16134998 0.15994315
000050 af 26 1f be 83 e4 1d be ac 20 19 3d 27 cd 06 be
       -0.155421 -0.15419202 0.037384674 -0.13164197
000060 01 f0 80 3d 79 1e d9 bd a8 90 03 3e 1f 3c c5 3d
       0.06295777 -0.10601515 0.1284815 0.09630608
000070 de 64 68 bc 82 dc 50 3d 4d 5c 17 3e 52 cf 2f 3d
       -0.014184205 0.050991543 0.14781304 0.042922325

gat_layer_1.layer0_1.0.a_1.weight f4 [1, 32]
000000 37 62 00 be 7f 71 22 be ed 1b 65 be 1e b0 05 3e
       -0.12537466 -0.15863608 -0.22373934 0.13055465
000010 8d a8 1a be f8 bf 8b 3c 20 1e 4d be ca 89 45 be
       -0.1510336 0.017059311 -0.20031023 -0.19290844
000020 79 80 36 3c 7b e3 32 3e 9a d5 b1 be 67 19 18 3d
       0.011139029 0.1746959 -0.34733278 0.0371336
000030 22 ad 10 3e 0f fa 2c 3e a1 46 62 be 92 e9 27 3e
       0.14128545 0.16892265 -0.22097255 0.16397694
000040 99 f7 e6 3c d4 25 50 3e bd 5d 60 bc 56 a4 c3 be
       0.028194236 0.2032693 -0.013694224 -0.38211316
000050 6e 99 34 be f9 38 47 3c 2b 75 c3 3d b7 c9 61 be
       -0.17636654 0.012159579 0.095438324 -0.22049604
000060 62 27 af 3d 16 43 13 bf c6 ed dd 3d ff 4d 08 3e
       0.085524336 -0.5752424 0.10836367 0.13311003
000070 06 9a 35 3c 33 2e e6 bd a3 3f c1 3d bb 04 36 be
       0.011084085 -0.112392806 0.09435966 -0.17775242

gat_layer_1.layer0_1.0.a_2.weight f4 [1, 32]
000000 ca 6b 10 be e6 79 2f 3e 54 dc 54 3e c6 37 a1 3c
       -0.14103618 0.17136344 0.20787174 0.019679915
000010 d8 81 ec bd 7d 76 3c be 28 1f ad 3d 68 8c ed 3d
       -0.11548203 -0.18404575 0.08453208 0.11599046
000020 ea f4 80 bd 01 9e b8 3d f0 a6 af 3b 04 42 4b 3e
       -0.06296714 0.09014512 0.0053604767 0.19849402
000030 ad 58 a1 3d dc bb f9 bd 65 a9 81 be 18 5b 74 be
       0.07878242 -0.121940345 -0.2532455 -0.23862875
000040 99 ee 0c be c4 39 b1 bc 86 9d 15 3e 82 aa 4c be
       -0.13762893 -0.02163399 0.14610872 -0.19986919
000050 88 a8 a0 3d 49 9b 11 3d 49 18 f7 bb db d2 60 bd
       0.07844645 0.035548482 -0.007540737 -0.054888587
000060 7a 8e 56 3c e4 4c d5 3c ad 5f 2b 3d 1d 56 8f 3c
       0.0130954925 0.02603764 0.04183929 0.017497117
000070 5e f8 56 bc 4b c4 3d bd e2 fa 10 3c cc a3 05 be
       -0.013120739 -0.046329778 0.008848878 -0.13050765

gat_layer_1.layer0_1.1.input_linear_layer1.weight f4 [32, 32]
000000 81 5a 19 be 92 23 a9 bd 54 e1 a1 bd 0f 2b 0b 3c
       -0.14975931 -0.082587376 -0.07904306 0.008494153
000010 82 6c 0d bd ed 6d 84 bd 43 ca 37 3d da a0 9a bd
       -0.03452731 -0.06466279 0.044870626 -0.07550211
000020 32 a6 27 3d e9 23 27 be 49 c0 25 bd 98 51 a7 bd
       0.04092998 -0.16322292 -0.04046658 -0.0816986
000030 59 eb 6e bd f3 c7 07 bd 99 de 5b bc 4b 29 00 3e
       -0.058329914 -0.03314967 -0.013419771 0.12515752
000040 6f 60 02 bd 0a 19 45 bd 48 9f b5 bc cb 0c 10 3e
       -0.031830247 -0.048119582 -0.022170678 0.1406738
000050 e3 09 db 3d 07 56 89 bd 6e 9e 4c bd 32 9a 95 3c
       0.10695245 -0.067058615 -0.049955778 0.018262003
000060 2a ca c8 3d ba a0 22 bd 83 51 cd 3c ff 21 08 3d
       0.09804185 -0.039704062 0.025063282 0.033235546
000070 a0 26 32 bd fc b4 cd 3b ce 32 cc bd 36 3c a9 bc
       -0.043493867 0.0062776785 -0.09970628 -0.020658594
000080 00 d1 93 3d 7f 1e c3 bc 68 eb 16 bc 48 4e 22 3c
       0.07217598 -0.023818253 -0.009211399 0.009906359
000090 e5 06 26 3b a7 8b 8c 3d 52 a5 2e 3d 50 1c 18 be
       0.00253337 0.06862574 0.04263813 -0.1485455
0000a0 96 0c 5f bd 90 ef de bd 46 44 3b 3c 17 7e b2 3d
       -0.054455362 -0.10885537 0.011429852 0.08715456
0000b0 20 a4 bf bc 54 d0 a9 3c cc 81 98 bc 7d d8 7f 3c
       -0.02339369 0.020729221 -0.01861658 0.01561558
0000c0 2f e4 20 3d 95 3a ad bb 5b bd f8 bc 4b 66 e3 3d
       0.039280113 -0.0052865245 -0.03036373 0.11103495
0000d0 3e bd 2a bd f7 f4 bb bc fc 53 7c 3d 4b 8e 80 bd
       -0.04168438 -0.022943957 0.06160353 -0.0627714
0000e0 5b e2 eb bd 76 2f 3d bc 0b 87 66 bd 20 56 a2 bb
       -0.11517783 -0.01154696 -0.05628113 -0.0049541146
0000f0 43 af 02 3d 4a 7c 5d bd c3 10 92 3d 12 96 2f bc
       0.031905424 -0.05407361 0.07132103 -0.010716932
000100 5c 5e 94 bd 4f 41 ec 3d 08 c4 0c bd cd c2 a3 3c
       -0.0724456 0.11535894 -0.034366637 0.01999035
000110 7e bf 1a be 78 d1 1c 3e d8 1d 3a bd 28 33 e9 3d
       -0.15112111 0.15314281 -0.045438617 0.113867104
000120 20 85 bc bc 9a 2c 7e 3d 53 e4 b0 3d 5e b0 0b be
       -0.023012698 0.062054254 0.086372994 -0.13641497
000130 dd 01 4d be 15 71 e1 bd 90 a5 ec 3d 82 47 b0 3d
       -0.20020242 -0.11007897 0.11555016 0.08607389
000140 0f 76 8b 3a de bf ed bc 1f 42 61 bd cc 67 bc 3d
       0.0010640043 -0.029022153 -0.0549947 0.09199485
000150 2b 13 81 3d 8a 5d ff bd e2 4c b0 bd a8 f8 22 3e
       0.06302484 -0.12469013 -0.08608414 0.15915167
000160 3f ef 12 be 15 ae 09 be 53 9a 61 bd c4 9b 64 bc
       -0.14349078 -0.13445313 -0.055078816 -0.013953153
000170 68 76 90 3d 84 5d 00 3e f1 67 1e bd 4b 40 03 be
       0.07053834 0.12535673 -0.038673345 -0.12817495
000180 b8 e2 7f ba f1 b9 9d bd f0 49 88 bd 37 8a 02 bd
       -0.0009761262 -0.07701481 -0.066547275 -0.031870093
000190 5f 6c 6f 3a 79 31 b6 bd bb 2e 91 bd 7f 4f a2 bd
       0.0009133275 -0.08896155 -0.07088991 -0.07925319
0001a0 56 d4 1a bc c4 10 63 bd ea f7 4e bd c4 fe 35 3b
       -0.009450039 -0.05543591 -0.050529398 0.002777026
0001b0 ba de b0 bd 72 7d 95 bb b3 20 de bc d1 38 88 bc
       -0.08636232 -0.0045620734 -0.027115202 -0.016628655
0001c0 a9 6b f4 bc 43 e1 d0 bc 16 db 02 bd a5 61 f5 bd
       -0.029836493 -0.025498038 -0.031947218 -0.11981515
0001d0 f2 34 0e bc 80 1f 11 37 65 3d 2a 3d 5d 0b 21 bd
       -0.008679615 8.650008e-06 0.041562457 -0.039317477
0001e0 24 da 2c bc ba 43 07 bd e3 1f 1f bc 0d 78 bc bb
       -0.010550056 -0.033023573 -0.009712192 -0.005751616
0001f0 b0 28 35 bd 00 8d ab bd 86 6d 4a bd 02 21 74 3b
       -0.044228256 -0.08376503 -0.049420856 0.003725112
000200 aa 55 87 bd 77 74 21 3d b5 ec 73 bd f3 c8 7d bc
       -0.06608136 0.03941771 -0.059551913 -0.015489805
000210 cd ba 6f bd 2a 33 9b bd d5 95 cc bd d2 dc 6a 3d
       -0.058527756 -0.07578118 -0.09989516 0.057339497
000220 b5 17 cd bd a5 d9 9c bd 95 2a d0 3d bc ac 8b bc
       -0.100142874 -0.076587 0.10164372 -0.01705014
000230 4a fa c8 bd 5b 92 f7 bd 53 10 12 be 09 c3 95 3d
       -0.09813364 -0.12088462 -0.1426404 0.07312591
000240 dc ed d8 bc f6 29 15 3d 87 8e 3b bd 1d f2 94 bb
       -0.026480608 0.03641697 -0.04579022 -0.0045454637
000250 d5 8a da bd 3f 02 c8 bd 12 a6 fe bc 95 45 e0 bd
       -0.10671011 -0.097660534 -0.031085048 -0.10950772
000260 91 2e 2a bd 5e e3 20 bd d2 b1 0e be bf b3 ac bb
       -0.041548315 -0.039279334 -0.1393502 -0.005270451
000270 c2 e5 14 3e 28 6f 3a 3d 41 be 2e 3e e1 64 dd 3c
       0.1454077 0.045516163 0.17064764 0.027025642
000280 da 45 3d be 99 51 cc 3c 83 31 09 3e b1 13 9b 3d
       -0.18483678 0.024941253 0.13397793 0.07572115
000290 3a 38 31 3e 42 c9 4a 3e 9a ee 11 3d 24 72 cd bd
       0.17306605 0.19803336 0.03562794 -0.10031536
0002a0 11 52 97 bd 9c ff 1a be 79 22 23 bd 43 9b 08 3e
       -0.073887 -0.1513657 -0.039827798 0.13340478
0002b0 d9 f3 5a 3c 8a 1d 8b bd 50 18 2d be d0 2a 6f 3d
       0.013363802 -0.067927435 -0.16903806 0.05839044
0002c0 d4 a3 be bd a8 ef 76 bd 70 a9 1b 3e 17 c4 5c 3e
       -0.093085915 -0.060287148 0.15201354 0.21559177
0002d0 c9 94 f5 3c 07 95 80 3e 2c 4f e8 bd d7 c4 22 3e
       0.029978173 0.251137 -0.11343226 0.15895401
0002e0 0b 90 25 3d 78 59 1b 3e 83 de 2a 3e f3 92 69 3d
       0.040420573 0.15170848 0.16686444 0.057024907
0002f0 23 ec 00 3e b9 59 8e 3d c6 ef 77 3d 19 af 63 bc
       0.12590079 0.06950707 0.0605314 -0.013896727
000300 df da 1b be bd b4 2c 3e c0 f7 71 3e b6 4d b9 3c
       -0.15220211 0.16865821 0.23629665 0.022620063
000310 b9 38 0b 3e 2a c0 9b bd 0b 1e 80 3c 8b 73 06 be
       0.13595857 -0.07605012 0.015639326 -0.13130014
000320 a2 b1 32 bd 73 11 b7 3d 81 cf f2 3d 39 c5 3f 3e
       -0.043626435 0.08938875 0.118559845 0.18727578
000330 3d 78 25 3d ec c9 0d 3b 4d ec a5 bd 5b 09 18 bd
       0.04039787 0.0021635247 -0.081017114 -0.037118297
000340 1a 42 05 bd c3 53 58 3d d4 ec 4d 3e c2 a2 52 3e
       -0.032533742 0.052814256 0.20109874 0.205699
000350 fd 23 0f 3c aa 69 3b 3e 3f 71 3d 3e b6 19 98 bd
       0.008736608 0.18302026 0.18500231 -0.07426779
000360 14 c6 86 3e 0c c1 25 3e f7 ac f6 3c 1f 36 6c 3d
       0.26322997 0.16186923 0.030111773 0.0576688
000370 91 12 0f 3d ec 56 22 3d 9d 8a f0 bc fc 59 25 bd
       0.034929816 0.039633676 -0.029362971 -0.04036902
000380 a4 06 83 bd 90 a4 f0 bb 49 b1 1f 3e 5f cc 97 3d
       -0.06397751 -0.007343836 0.15594973 0.074120276
000390 24 e2 6f 3e 77 da 72 3d ec d6 9f 3c a2 79 be bc
       0.2342611 0.059290376 0.019511662 -0.023251358
0003a0 49 12 71 3d 2e a1 69 bd a3 08 23 be 99 a7 9f 3d
       0.05885533 -0.05703848 -0.15921263 0.077956386
0003b0 92 7d 2d be ae 5e 11 3e 66 34 85 be c0 54 f7 bd
       -0.16942433 0.14196274 -0.2601654 -0.12076712
0003c0 ae b2 59 3d 1f ef 8a 3e 1b dc d2 3e 5d 82 f4 3d
       0.053148918 0.2713556 0.41183552 0.11938927
0003d0 47 39 87 3e 84 81 e3 3e 6d 44 38 bd 34 30 6b 3e
       0.26410887 0.4443475 -0.04498713 0.22967607
0003e0 e0 a3 84 3d 09 32 6e 3e 98 bd ad 3e df a8 22 bd
       0.06476569 0.23261274 0.3393371 -0.03971183
0003f0 4b 7c 45 bd a6 64 49 3e 05 a1 30 3d 2a 25 bf 3d
       -0.048214238 0.196673 0.04312231 0.0933326

gat_layer_1.layer0_1.1.input_linear_layer1.bias f4 [32]
000000 a4 88 a3 bd 1f 66 86 bd 48 53 c6 bc 49 43 1e be
       -0.079850465 -0.06562447 -0.024209633 -0.15455355
000010 24 ec 0c 3d 09 f3 97 3d ae f9 b2 bc 5b 99 cd 3d
       0.03440489 0.07419402 -0.021847572 0.10039016
000020 68 37 3f 3e a2 9c 8d ba fd d8 68 bc 2c 0b bb bd
       0.1867348 -0.0010804127 -0.01421189 -0.0913299
000030 83 6f 52 bd 6a 40 77 bd 91 0a 0f be 10 a8 92 bd
       -0.051375877 -0.060364164 -0.13968875 -0.07160962
000040 7b ee 06 3e 42 f3 13 3e 68 29 90 3d e5 43 3e 3e
       0.1317691 0.14448264 0.070391476 0.18580587
000050 e6 fb 76 bd e3 c9 76 bd 22 0f 44 bb 31 d5 9f bd
       -0.060298823 -0.060251128 -0.0029916246 -0.07804335
000060 75 c1 de 3d 31 16 bb bc 4a af 05 be 47 a2 0b be
       0.10876743 -0.02283773 -0.13055149 -0.13636123
000070 fc 24 0b be a3 41 13 3e 3f 35 11 3e 2c 8e fb 3d
       -0.13588327 0.14380507 0.14180468 0.122829765

gat_layer_1.layer0_1.1.input_linear_layer2.weight f4 [32, 32]
000000 9c 73 26 3c 12 b2 57 be 49 a4 07 be 49 71 cf bd
       0.010159399 -0.21064022 -0.13246264 -0.10129029
000010 ee 58 33 be 69 ac 7c be 7a 77 33 bc 10 4b 60 be
       -0.17514393 -0.24675144 -0.010953778 -0.21903634
000020 21 27 9b bb 67 fa 36 3e b7 14 56 be de b7 99 bd
       -0.004734889 0.17868958 -0.2090634 -0.07505773
000030 b8 2f 0c 3e 2b ed f9 3d 57 f2 b0 3c 16 8c 12 3d
       0.13690078 0.12203439 0.021599932 0.035778128
000040 72 69 0a 3d 98 ff 63 bd 59 bd 2a be f9 3f bb bd
       0.033791967 -0.055663675 -0.16673793 -0.09143061
000050 71 01 99 bc 61 62 4f bc af fe 8e 3d 95 b8 d5 3d
       -0.018677445 -0.012657733 0.06982171 0.10435597
000060 33 fe a8 bd 4c cd 4d bd 57 5c 2e 3d 73 61 1d 3d
       -0.0825161 -0.050244614 0.04256853 0.038423013
000070 49 fe 31 be f9 2b 8d bd b9 a4 24 be 68 84 99 bd
       -0.17382158 -0.06893153 -0.16078462 -0.074959576
000080 92 d0 96 3d 0d d0 40 3d c2 2f 24 3c 40 86 1c be
       0.073640004 0.047073413 0.010021152 -0.15285587
000090 f9 3d 86 3d 96 32 28 3e a2 fc 13 3d 72 25 b5 3d
       0.06554789 0.16425547 0.0361296 0.08845033
0000a0 c3 ca 54 be 95 31 c3 3d 0c 7f 5e 3d ba ad ac 3d
       -0.20780472 0.095309414 0.05432038 0.08431573
0000b0 e7 4e 2f 3d 79 5d 66 bd 25 4f 90 3c e8 fa b0 3d
       0.042799857 -0.056241486 0.017615864 0.086416066
0000c0 b8 2c f4 3d f8 77 eb bd bc bb ee 3d 39 eb 3c 3e
       0.11922592 -0.114974916 0.11656901 0.18449105
0000d0 a3 1d 8a 3c c6 34 16 be f6 a9 c2 bc 79 31 88 bd
       0.016859835 -0.14668569 -0.023762684 -0.06650061
0000e0 61 1a fa 3d ee ef 4e be 16 78 4d 3c 70 ff 06 bd
       0.122120626 -0.20208713 0.012540838 -0.032958448
0000f0 49 1b 35 b9 6f 8c 0a 3e 8b fd 87 3c 59 53 21 be
       -0.0001727167 0.13530134 0.01660039 -0.15754451
000100 39 d1 c8 bd af a2 48 bc 54 04 8e 3d c8 35 9e 3d
       -0.09805531 -0.012245818 0.06934419 0.07725102
000110 9f b4 e4 bc 13 ab 8b bd 3c 32 bb 3d ff db 1c be
       -0.027918158 -0.06819739 0.09140441 -0.15318297
000120 ae 1c 67 3d b2 39 24 bd c5 e6 01 3e 77 26 2c 3e
       0.056423835 -0.040094085 0.12685688 0.16811548
000130 b2 a8 c1 bc 9a f4 03 3d 90 d6 a0 bd 23 ba 88 3d
       -0.02364001 0.032215692 -0.078534245 0.06676128
000140 fe 53 ae 3d e8 ca fc bc 57 9d b9 3d f9 d8 47 bb
       0.08512114 -0.030858472 0.09063213 -0.0030494316
000150 8c 77 1d 3e 8c 69 0d 3e 30 c6 08 3e 78 42 4d be
       0.15377635 0.13809794 0.13356853 -0.20044887
000160 bf 1b 51 3e 6f 24 49 3d e6 e0 74 3d 95 e9 61 3a
       0.2042074 0.04910701 0.059784792 0.0008617875
000170 65 c1 ca 3d 0c 0a 37 3e d4 0a 80 bb e4 f7 25 be
       0.09900168 0.17874926 -0.003907541 -0.16207844
000180 69 8d 5a 3d 0b af 32 3e bc 20 08 3e f8 4c 93 3e
       0.053357515 0.17449586 0.13293737 0.2876966
000190 8c c9 85 3e d2 34 8c 3d 77 6e 74 3d b0 56 fa 3b
       0.2613033 0.06846012 0.05967566 0.0076397285
0001a0 cb f6 c5 3d 1e 22 8e 3c 18 61 60 3e 6d 45 89 3e
       0.09666213 0.017350253 0.21912038 0.2681078
0001b0 0b 40 32 be 22 45 5c 3c d1 f2 d0 bd a5 ef 55 3d
       -0.17407243 0.013444217 -0.102025636 0.052230496
0001c0 35 a9 07 be 7c 32 23 be 39 4d a8 bc cc 89 27 3e
       -0.13248141 -0.15937227 -0.020544635 0.16361159
0001d0 44 a2 10 3e e5 c2 79 3e 86 c9 29 3e 18 9d 2d be
       0.141244 0.24390753 0.16580781 -0.16954458
0001e0 88 67 d2 3d 35 64 d2 bd 2c 2e 99 bd c3 37 a6 bd
       0.10273653 -0.10273019 -0.0747951 -0.081161045
0001f0 ca b9 c1 3d 85 df 7a 3e 52 41 ec bd 73 bf 72 3d
       0.094592646 0.24499328 -0.11535896 0.05926461
000200 07 f1 0d be b9 b6 c1 bd 35 36 8e 3b cc e4 30 bd
       -0.13861476 -0.0945868 0.004339958 -0.043186948
000210 c8 43 b9 3d f1 2e 1e 3c 64 fa 90 bd 76 28 21 bd
       0.09046131 0.009654746 -0.07079008 -0.039345227
000220 1d c5 c1 3b 22 c4 09 be 3e cc 46 be dc 81 d3 bd
       0.0059133903 -0.13453725 -0.1941385 -0.10327503
000230 b8 f2 1c bd 4a 54 ab bd 0e 05 d2 bd f6 b4 53 3d
       -0.038317412 -0.08365686 -0.1025487 0.05168625
000240 a3 23 1d 3e 61 a6 25 bd d6 75 18 be 7f b8 47 bd
       0.15345626 -0.040441874 -0.14888701 -0.048759934
000250 b3 8a 34 3d d9 55 06 3d 38 44 08 be 20 79 d8 bd
       0.044077586 0.032796714 -0.13307273 -0.10569978
000260 25 fa a3 bd 4a 92 77 3c 24 0f 01 3e ad e2 05 be
       -0.08006696 0.015110562 0.12603432 -0.13074751
000270 10 e9 9c 3d 8c 38 e9 3c 23 41 ae 3b 32 7e 18 be
       0.07661641 0.028469346 0.0053178235 -0.1489189
000280 4c 29 52 3e 9a 05 33 be 44 87 ae bc a1 f3 65 be
       0.20523566 -0.17482606 -0.021304734 -0.22456218
000290 a0 d8 91 be 9a 60 3d be b6 85 1a be b2 90 b4 bd
       -0.28485584 -0.18493882 -0.15090069 -0.08816661
0002a0 d4 89 4c 3c d3 ff 49 3e 1e 4e 6b be 86 26 06 bd
       0.012484033 0.19726495 -0.22979018 -0.032751583
0002b0 3a 0b 32 3e 45 ce de bc 95 04 01 be b6 c0 72 3d
       0.17387095 -0.027197966 -0.12599404 0.059265815
0002c0 28 0e 93 3c c1 f1 db 3c 2e 0a 21 be c4 66 df bd
       0.017951086 0.026848676 -0.1572654 -0.10908273
0002d0 38 4e 25 be 7c f6 ac be 3c 21 54 bd 76 d0 d3 bd
       -0.1614312 -0.33781803 -0.051789507 -0.10342495
0002e0 e2 ec 48 be 73 3a ed bc 4a 9f dc 3d 9d b6 ed 3d
       -0.19621614 -0.028958535 0.107725695 0.11607096
0002f0 87 51 06 be f2 0b 78 3d 3d c8 cc 3d 46 f1 c5 3d
       -0.13117038 0.060558267 0.0999913 0.0966516
000300 1e 21 ca 3c bc 77 c5 3d 78 61 c1 3c 63 a6 87 be
       0.024673995 0.09641978 0.023606047 -0.2649413
000310 29 90 06 be a8 85 c7 bb 97 b8 ee bd 73 32 18 bd
       -0.1314093 -0.006088931 -0.116563015 -0.037157487
000320 3a 98 bc 3d 69 cb b7 3d c3 9a 13 3e 87 8b cd bc
       0.092087224 0.08974344 0.14414506 -0.025090946
000330 8b d0 aa bd 91 eb d0 3c 2d 11 84 3d fe 7a ac 3d
       -0.08340558 0.025502952 0.064485885 0.084218964
000340 da a9 8a bd f7 a9 89 bb d3 83 6b be 5f 9c 0b 3e
       -0.06770678 -0.0042011696 -0.22999506 0.1363387
000350 e5 a7 eb 3d 48 1a 56 bd 80 a3 dd 3c e0 aa c1 bb
       0.11506633 -0.052271158 0.027055502 -0.0059102625
000360 cf be d9 bd 91 de 93 be 39 83 0b be 12 ce 1e 3e
       -0.10632097 -0.28880742 -0.13624276 0.15508297
000370 3a 39 f4 3b 64 17 31 bb a5 f2 d1 3d d7 b9 a4 3c
       0.007453111 -0.0027021999 0.10251359 0.020108147
000380 c5 80 10 3e 48 b1 43 bb 78 c1 0e bc 71 da c8 bc
       0.14111622 -0.0029860307 -0.008713119 -0.024518223
000390 f8 5d bb bc f5 04 14 be 26 69 7b 3d 66 54 91 3d
       -0.022871956 -0.14455016 0.061379574 0.07096176
0003a0 ef ab cf 3d 51 ed 82 3d d7 c5 92 bd b4 2a 4f be
       0.101402156 0.06392921 -0.07166641 -0.20231134
0003b0 68 c6 0f bd 7a b2 66 be f4 d2 3b be 72 03 05 bc
       -0.035101324 -0.22529021 -0.18342191 -0.008118497
0003c0 32 84 9b bc 4f d6 0f bd 93 26 38 be aa 6d 80 3d
       -0.018983934 -0.03511649 -0.17983465 0.06270917
0003d0 25 85 f8 bd ac e1 03 be ad b9 b5 bc 3c f2 a4 bd
       -0.1213477 -0.12879056 -0.022183264 -0.08054015
0003e0 1e f6 23 3d dc c0 25 be 16 fe 33 bd 42 93 82 3c
       0.040029638 -0.16186851 -0.043943487 0.015939359
0003f0 2f 22 61 bd 04 b8 71 bc aa 90 d7 bc ec 90 2b be
       -0.05496424 -0.014753345 -0.026314098 -0.16754502

gat_layer_1.layer0_1.1.input_linear_layer2.bias f4 [32]
000000 f7 c6 6e 3d 59 d3 91 bd 37 b0 b0 3d ea 39 a8 bd
       0.058295216 -0.071203895 0.0862736 -0.08214171
000010 fc 48 ba 3d c0 1b 90 3d 68 cf 11 be 91 35 d4 bd
       0.09095952 0.07036543 -0.14239275 -0.103617795
000020 4a 18 08 3d f7 34 e8 bd 79 b3 ea bd 65 29 48 3d
       0.03322629 -0.11338227 -0.11460013 0.048867602
000030 df fb b7 3d b7 53 1e bc ed 7a f2 bc 0f a9 26 be
       0.089835875 -0.009663514 -0.029599631 -0.16275428
000040 b4 a9 66 be 3c 78 bc 3d 9c a8 bf 3d 24 6f e2 bd
       -0.22525674 0.092026204 0.093583316 -0.11056355
000050 db 10 83 bd d5 20 b6 bc 5c a9 96 3d 57 57 65 be
       -0.06399699 -0.022232452 0.073565215 -0.22396599
000060 eb 3e b4 bd 90 35 bd bd 16 6c 6f bd b8 37 10 3d
       -0.08801063 -0.09238732 -0.05845269 0.035209388
000070 9a e4 d9 3d 3c 05 6c 3d de 16 51 be d6 3c 15 3e
       0.106393054 0.05762218 -0.2041888 0.14573988

gat_layer_1.layer0_1.1.a_1.weight f4 [1, 32]
000000 99 07 e8 3d 2a 9f 98 3c 95 33 c2 3d df 99 b0 3d
       0.11329574 0.018630583 0.09482495 0.086230986
000010 05 a8 1f 3e 1d 0e 61 be 58 1b 27 be 53 c1 c4 be
       0.15591438 -0.2197804 -0.16319025 -0.38428745
000020 43 55 c2 bd fd 02 b6 be 4b 67 ff be 8f 6a c0 be
       -0.09488919 -0.35549155 -0.49883494 -0.37581298
000030 f3 79 0a 3a fb b3 05 3e 83 6a e8 3d b1 93 32 3d
       0.0005282454 0.13056938 0.113484405 0.04359788
000040 9d be 14 be 2d ff a8 be 8e 07 81 b9 df ed 48 be
       -0.14525838 -0.33007184 -0.00024610426 -0.1962199
000050 e1 14 4b be 37 4b 48 3d 4b 81 10 3e 16 03 8b be
       -0.19832183 0.048899855 0.14111821 -0.27150792
000060 38 ad ee 3d a4 ee 67 3c 3a a1 f8 bd e5 97 37 3e
       0.116541326 0.014156017 -0.121401265 0.17929037
000070 b1 66 35 3e 38 5e e3 be 83 4b e0 bd 9c 64 dd 3b
       0.17714955 -0.4440782 -0.10951903 0.0067563783

gat_layer_1.layer0_1.1.a_2.weight f4 [1, 32]
000000 44 37 2f 3e df 8e 27 be 0b f1 49 bd de 66 f6 bd
       0.17110926 -0.16363095 -0.049302142 -0.12031339
000010 ef 37 81 3d 6d 23 3d 3c cb 1c fe bc 50 48 b6 3d
       0.063094966 0.011544091 -0.031019589 0.08900511
000020 45 40 51 bd b2 52 cf bb 5c 0a 43 be aa c6 9b be
       -0.051086683 -0.0063269967 -0.1904692 -0.30425006
000030 b6 3f 0e be 20 21 e2 3c 19 f0 9a 3d e4 06 09 be
       -0.13891491 0.027603686 0.07565326 -0.13381535
000040 bc 7a 83 bd e7 8b 8a 3c cc 39 c5 bc b5 0b 08 3e
       -0.06419894 0.016912414 -0.024075411 0.13285716
000050 34 08 fd bd 2a da c0 bd 4b cb 9b bb c3 a1 14 be
       -0.1235508 -0.094166115 -0.004754459 -0.14514832
000060 7b ab c3 3c ed 2a e1 bd 2b 5d 6a 3d 64 c5 93 3d
       0.02388548 -0.109945156 0.05721776 0.07215384
000070 ac a4 4b bd 61 04 58 3d 24 72 0d 3e 86 e1 b1 3d
       -0.04971759 0.05273855 0.13813072 0.08685593
