output/modelparams/dynamicLearning-ER-UAU-GAT/epoch6_model_state_dict.pth (torch, 125457 bytes, 66 tensors)

in_layer.layers.0.weight f4 [32, 2]
000000 51 c1 06 bc 23 8e 00 bc 38 4b 91 bd 9b fe 13 bf
       -0.008224801 -0.007846388 -0.07094425 -0.5781037
000010 2d f3 ab be eb da 97 3e 6c 69 2b be 19 f1 37 3f
       -0.33583966 0.2965921 -0.16739434 0.7185226
000020 e6 eb 7c be af 29 62 3e 5f a0 83 be 0c 7c bc be
       -0.24699363 0.22086214 -0.2570829 -0.3681339
000030 8b 66 12 be 48 5b 67 3a a1 39 56 be 82 7c 26 3e
       -0.1429693 0.00088255526 -0.20920421 0.16258433
000040 20 49 27 3e 3f be 02 3e b1 35 0f bf 84 cd 10 be
       0.16336489 0.12767886 -0.559413 -0.14140898
000050 ea f3 1f be ef ab 04 3f f8 5a c2 be 57 91 17 3f
       -0.1562039 0.5182485 -0.3796003 0.59206146
000060 98 ba 89 be 25 72 6a 3e db 2f 2e 3f d2 17 cb be
       -0.26900172 0.22895105 0.6804177 -0.3966661
000070 92 25 a4 be 7d 03 2d bd 4b 52 85 be eb ef 45 3f
       -0.32059914 -0.042239655 -0.26039347 0.7731921
000080 d8 b0 f8 bd 6f a5 84 be 7b 6a bc be 46 a8 59 bf
       -0.12143105 -0.25907466 -0.36799988 -0.8502239
000090 73 40 0f bf 13 33 4b 3f d8 cf dd 3d a9 cb ed 3d
       -0.55957717 0.7937481 0.10830659 0.11611111
0000a0 a0 92 1f 3e 31 a7 17 bf 2c 09 5c 3e c1 9c 23 bf
       0.15583277 -0.5923949 0.21487874 -0.6391106
0000b0 be 4c 49 be 09 b6 b0 bd ac f5 7d 3d 8b b2 81 3d
       -0.19658181 -0.086284705 0.06200187 0.063328825
0000c0 52 73 d3 be df c3 04 3e cf 6b b5 3e 38 e8 f9 3e
       -0.4129892 0.12965344 0.35433814 0.4880998
0000d0 c7 6a 3b 3e 78 ce 18 be 4b ba 04 3f 50 ac 2c bf
       0.18302451 -0.14922512 0.5184676 -0.6745043
0000e0 58 5b 52 3e 4f 7c 40 bf 34 45 b1 be 5a 2f 59 be
       0.20542657 -0.7518968 -0.3462311 -0.2120947
0000f0 a6 4b 02 3e 39 78 0a 3e bb be eb 3d ec 23 f5 3d
       0.1272417 0.13522424 0.11510988 0.11969742

in_layer.layers.0.bias f4 [32]
000000 24 21 0a 3c d9 01 92 3d 23 77 4c 3d bc 6f 0b 3e
       0.008430753 0.07129259 0.049918305 0.13616842
000010 5c d2 9c 3e 2a a8 c5 3e aa 68 4b be e4 77 1a be
       0.3062924 0.38604861 -0.19864145 -0.15084797
000020 d2 d8 07 be 30 6e 0a 3f 0d d3 af 3e 03 d1 f7 3e
       -0.13266304 0.5407438 0.34340706 0.4840165
000030 d3 d6 0f 3e 95 62 eb be cd 2f 9e 3d 4d 15 95 be
       0.14046793 -0.4597365 0.07723961 -0.29117814
000040 80 77 dd be cc 22 17 3f fe 55 0d 3f fe 53 ee bd
       -0.43255234 0.5903747 0.5520934 -0.11637114
000050 54 8b 1e 3e f3 cf 37 bd 2e 88 bb 3d 0f 5f 7f bd
       0.15482837 -0.04487605 0.091568336 -0.062346514
000060 6d 13 8b 3e 72 d1 eb be 5e f4 0a 3e 40 13 ab 3e
       0.27163258 -0.46058232 0.13569781 0.33413124
000070 8c 21 f9 3e b1 a6 61 3e 4e f5 0a be ae 95 f4 bd
       0.48658407 0.22036244 -0.13570139 -0.11942612

in_layer.layers.2.weight f4 [32, 32]
000000 18 36 2d ba 65 32 b3 3c eb dc a4 bd 76 31 fc bd
       -0.0006607487 0.021874616 -0.08049949 -0.123141214
000010 f3 ee 40 bd 6f 53 e1 3c e8 62 13 bc 9d 7a 02 bd
       -0.04710288 0.027505605 -0.008995749 -0.031855214
000020 c9 2f 4e bb 2c 3e 38 bd b1 b0 01 be 6f e5 2a be
       -0.0031461588 -0.044981167 -0.12665059 -0.16689084
000030 99 9e 43 bd 53 ac 29 3d 1a 66 ff bc a0 b9 49 bd
       -0.047758672 0.041424107 -0.031176616 -0.04924929
000040 76 64 8a bc 80 64 6a 3d cc f8 5a be fd b7 22 ba
       -0.016893607 0.05722475 -0.21383971 -0.0006207226
000050 86 b3 e5 3c f0 0e f5 3c 2c d4 da bb 29 eb ff b9
       0.028039705 0.02991435 -0.006678125 -0.00048812598
000060 69 4e 4a bd e5 ac 8d bc 86 29 4f bc ca b5 eb 3d
       -0.049391184 -0.017294357 -0.012644177 0.11509283
000070 1f ff 8d bd 49 09 b6 bc bb 8b a4 3a a2 ad c8 b7
       -0.06933426 -0.022221224 0.001255385 -2.3922712e-05
000080 f5 39 77 bb 7f 5f 21 be 82 cf 57 3e e0 d2 8f 3e
       -0.0037723754 -0.15759085 0.21075252 0.28090572
000090 70 21 a7 bb 2c 99 54 bd 14 41 c7 3d 93 24 b3 3b
       -0.0051004216 -0.05190389 0.097292095 0.0054670065
0000a0 ad 73 98 3c d6 3d 23 3e 36 a3 f5 3d 60 69 93 3e
       0.018609846 0.15941557 0.11994021 0.28791332
0000b0 80 85 be 3e 4b b5 56 be fa 01 16 3e db d4 63 3e
       0.37211227 -0.20967595 0.14649191 0.22249167
0000c0 70 85 20 be e6 bc 84 be 24 f5 cb 3e 5d 96 50 3b
       -0.15675902 -0.25925368 0.39835465 0.0031827905
0000d0 fe 69 af be 31 7b d7 be dc c2 90 3c 1f db 56 ba
       -0.34260553 -0.42086175 0.017671041 -0.0008196104
0000e0 37 29 6a 3e 4d 67 0a 3e bc 28 72 bc da 6d eb be
       0.22867285 0.13515969 -0.01478022 -0.45982248
0000f0 21 f2 3f be 6f 8d 05 bd 9e 6a 8a b9 89 64 bc bb
       -0.18744709 -0.032605585 -0.00026400847 -0.0057492894
000100 d0 8f bd 3b ae 3d f8 bd 07 a6 dd 3d c7 8e 8a 3d
       0.005784966 -0.121211395 0.10822683 0.06765514
000110 aa 9b e8 3d e5 55 4a 3c df c2 1d be ca c3 01 3c
       0.113578156 0.01234958 -0.15406369 0.007920215
000120 94 8d 99 bd e4 27 20 3e 21 46 8f 3e 91 a5 ef 3d
       -0.07497707 0.15640217 0.27983192 0.11701501
000130 77 42 ad 3e 2b 60 64 be 86 c4 ca bd 00 8c c0 3e
       0.3383977 -0.2230231 -0.09900765 0.37606812
000140 6e ae c9 bd 05 7d 8f be f6 30 c3 3e 6e 57 96 bb
       -0.09847723 -0.2802507 0.38123292 -0.004588059
000150 f0 aa 96 be f0 e9 9b be d2 73 fa 3c bf 0b 2e 3a
       -0.2942729 -0.30451918 0.030572806 0.00066393235
000160 17 50 a4 3e 2a c7 f7 3d 93 03 0f bd 6c 63 aa be
       0.32092354 0.120985344 -0.034915518 -0.33278978
000170 89 13 ca be 44 a8 ef 3c 45 57 0f 3b 5b fc a1 3a
       -0.3946803 0.02925504 0.0021872085 0.0012358533
000180 5f 37 5c 3a 49 9c d1 3c 45 a3 a2 bd 0c 67 09 be
       0.0008400585 0.025587218 -0.079412974 -0.13418216
000190 73 e5 8d bd 47 27 61 3c a2 81 9b bc 4b 7a bd bc
       -0.069285296 0.013742275 -0.018982712 -0.023129603
0001a0 c7 08 97 3b df 0d 47 bd 64 09 02 be 3d 6a 2f be
       0.0046092006 -0.048597213 -0.12698895 -0.1713037
0001b0 04 82 55 bd 9f a8 31 3d 58 b7 f5 bc 62 a3 1a bd
       -0.052125946 0.0433737 -0.029994652 -0.03775347
0001c0 89 ff e3 3c 8d 66 e7 3c 9e e9 71 be 3e 66 31 39
       0.02783181 0.028247142 -0.23624274 0.00016918124
0001d0 95 e4 38 3d 5a b3 c8 3c ed c5 2c bc 66 40 33 3a
       0.045139868 0.024499584 -0.010545236 0.0006837904
0001e0 63 4a 80 bd 73 8e 8b bc ed 9f c5 3d 38 19 78 bd
       -0.06264188 -0.017035699 0.09649644 -0.060570925
0001f0 1f 20 09 3d 4f 97 b5 3a f6 80 1a 3a 84 53 4e 37
       0.0334779 0.0013854298 0.00058938505 1.2298002e-05
000200 e7 f2 fb b9 23 34 9a 3c 16 5b c2 bd b7 78 eb bd
       -0.00048055427 0.018823689 -0.094900295 -0.11497634
000210 da 2c 51 bd 73 e7 b9 bb 7b 14 0e bb 51 c5 e4 3c
       -0.051068164 -0.005673343 -0.0021679688 0.027926119
000220 d1 f5 48 3c ab 63 26 bd 94 d5 67 3a 5a 1b 11 be
       0.012265638 -0.040622395 0.00088437763 -0.1417059
000230 e4 0a 33 bd 58 56 72 bb 2b 47 37 bd 83 ef 66 bd
       -0.043711558 -0.0036977734 -0.044745605 -0.05638076
000240 67 30 b5 3c 21 ec 86 3d 93 2a 5a be c9 2c 9f 3a
       0.022117807 0.06588007 -0.21305303 0.0012144084
000250 b1 06 ac 3d 5e 48 09 bb 9e 8a 2c 3c 5b c1 4d b9
       0.08399714 -0.0020947675 0.010531096 -0.00019622354
000260 f4 c8 62 bd 20 0f b6 bc 54 9e b7 bc 61 32 91 3d
       -0.055367425 -0.022224009 -0.022414364 0.07089687
000270 9f 50 21 3e 1c f9 d2 bc 7e a6 77 3b 0c 34 a7 3a
       0.15753411 -0.02575355 0.0037788446 0.00127566
000280 7f 9f 4d ba 8c c7 84 3c 34 e4 a5 bd 61 53 07 be
       -0.0007843896 0.016208433 -0.08100167 -0.132154
000290 82 04 9a bd dc 88 00 3d 41 b6 9e 3d 19 53 93 3d
       -0.07520391 0.03138052 0.07749606 0.07193584
0002a0 66 c0 80 3c 86 36 22 bd 86 3b c2 bd a4 2c df bd
       0.015716743 -0.03960278 -0.094840094 -0.108971864
0002b0 b7 00 21 bb ff 17 ae 3c a6 5c 23 bd ab 12 d7 bd
       -0.0024567076 0.021251677 -0.03988328 -0.105016075
0002c0 5f 02 94 bd 2d 79 0f 3c 77 ff 83 be 61 f7 3d bb
       -0.07227015 0.008756918 -0.25780842 -0.002898656
0002d0 3d 98 ce 3d 38 03 40 bd 85 2f aa bb 94 9d 81 ba
       0.10087631 -0.04687807 -0.005193653 -0.0009888881
0002e0 62 a5 56 bd c4 b2 d6 bc 4b f7 de bd 07 20 05 3e
       -0.052403815 -0.026208289 -0.10887011 0.13000499
0002f0 81 cb d8 3c 87 fc 48 3d 16 25 3b 39 ed 60 ed ba
       0.026464226 0.049068954 0.00017847525 -0.0018110551
000300 99 32 88 ba dd 41 6b bb 91 d7 c1 bb f9 70 99 3c
       -0.0010391056 -0.0035897412 -0.00591559 0.018730627
000310 17 d4 49 3c 26 c0 96 3b a4 83 4b bc 58 f4 52 bc
       0.012318633 0.0046005426 -0.012421522 -0.012875639
000320 7a c0 19 3b 25 f5 dd 3a 35 8e 06 3d 43 df f1 bb
       0.0023460672 0.0016934021 0.032850463 -0.007381351
000330 a3 cf 8c ba 0a 88 4a 3b 3b fd 05 bc 94 cd 61 bb
       -0.0010743033 0.003090384 -0.008178051 -0.003445481
000340 46 32 05 bc 1e c7 c2 3a 72 df 04 3d 8f 1d 60 bb
       -0.008129662 0.0014860367 0.032439657 -0.0034197306
000350 44 07 70 3c 02 8f 5f 3a 8f 26 83 bb e1 98 b8 b9
       0.01465017 0.0008528085 -0.0040023993 -0.00035209119
000360 b6 90 d4 38 38 3c 05 bb ce e6 c1 3c 93 12 a2 3d
       0.00010135902 -0.0020330083 0.023669627 0.07913699
000370 86 51 b8 bc 0e 61 31 bb ae 32 91 bb 1f 71 db ba
       -0.02249981 -0.0027065906 -0.0044310903 -0.0016742087
000380 a9 c8 e7 ba ec 20 aa 38 f8 40 66 bc 74 00 5e 3c
       -0.0017683703 8.112364e-05 -0.014053576 0.013549913
000390 76 c1 ce 3c b1 02 a1 3c db 60 b3 ba 94 39 0d bc
       0.025238734 0.019654604 -0.0013685481 -0.008619685
0003a0 db b1 26 3b 87 5c 8e bb 26 2b 11 bd 14 19 3e bd
       0.00254356 -0.004344526 -0.03544154 -0.046410635
0003b0 8c ee 97 39 d3 01 73 3c 05 6b 48 bc 74 09 72 3b
       0.00028978696 0.014831978 -0.012232547 0.0036931904
0003c0 08 2b c4 3a f6 3c 8b 3c 28 e5 b6 3d fa 3f ae bb
       0.0014966438 0.016996842 0.08930427 -0.005317685
0003d0 2e 27 0a 3c 21 76 db 3b d1 75 8b bb d8 3d a7 b9
       0.008432193 0.0066974317 -0.004255988 -0.000318988
0003e0 4e aa fc bb 4e fa a3 bb 47 74 21 3d 1c 92 ac 3d
       -0.0077107316 -0.005004204 0.03941753 0.08426306
0003f0 4c 12 be bc 5d 17 9d bb 47 5d c2 bb 96 da 12 bb
       -0.023202084 -0.004794045 -0.0059315297 -0.002240812

in_layer.layers.2.bias f4 [32]
000000 9f 5c 40 bd 6f 75 e8 bd 17 67 ab bc 29 60 1c bb
       -0.04696333 -0.11350524 -0.02092318 -0.0023861027
000010 97 a2 0d be d2 c1 46 bd 45 0d 79 bd 1a 7c 41 bd
       -0.13831554 -0.048524685 -0.06080367 -0.047237493
000020 cc 44 bc 3d 35 99 db bd aa ab 33 bd b2 4a 03 3e
       0.091928095 -0.10722581 -0.043864883 0.12821463
000030 6d 03 ba 3c da 0b 52 3e 30 7a f8 3d 97 48 8a be
       0.022706712 0.20512334 0.121326804 -0.27008507
000040 61 d5 dd bc 71 88 12 bd 40 27 1e 3d 3b 42 af bd
       -0.027079286 -0.035774652 0.03861165 -0.08557554
000050 ae db d6 bd b7 85 54 3d 56 7a 9d bd bb c8 8d bd
       -0.10491119 0.051885333 -0.07689349 -0.06923052
000060 27 50 7a bb 1b bd f6 bd 5e 27 ed ba ff f5 ae bd
       -0.0038194747 -0.12047788 -0.0018093397 -0.08543014
000070 a8 26 aa bb 91 d7 03 be 78 93 3b 3d e0 cd cb bd
       -0.0051925965 -0.12875201 0.045794934 -0.09951377

gat_layer_1.layer0_1.0.input_linear_layer1.weight f4 [32, 32]
000000 ad 72 88 3a 7f 5e 77 3a 06 e3 64 3a 8b af 78 3a
       0.0010410153 0.0009436383 0.0008731339 0.0009486607
000010 6c ed 87 3a dc 09 91 3a 37 3b 83 b9 57 83 23 b9
       0.001037044 0.001106556 -0.00025030386 -0.00015593819
000020 f9 a4 20 ba 09 2a 7b 3a 1c b0 ed 39 13 cb 05 3a
       -0.00061280985 0.0009581154 0.00045335374 0.0005103808
000030 43 29 e3 39 8f b8 bd b9 ff cb c0 ba 5f 03 8e 38
       0.00043327556 -0.00036186396 -0.0014709233 6.7717156e-05
000040 34 45 92 39 4e bb 66 3a 32 34 81 b9 0e 08 d3 38
       0.0002789885 0.0008801714 -0.00024643686 0.00010062764
000050 86 6f 73 ba 72 7d eb 37 0e 70 93 3a e0 f2 d6 39
       -0.00092863326 2.8072598e-05 0.0011248605 0.00040998217
000060 79 a6 5d 3a 70 a3 68 b9 67 5b 8e 3a 84 50 90 3a
       0.00084552873 -0.0002218613 0.001086098 0.0011010324
000070 a2 93 3f 3a 46 8f 68 3a da 23 99 39 cf 7a 43 3a
       0.0007308071 0.0008871447 0.00029209146 0.00074569596
000080 ec a9 a6 36 05 a5 97 38 7b 8c 82 38 1c b3 9e 36
       4.966967e-06 7.2309784e-05 6.2250496e-05 4.729618e-06
000090 e1 b8 dc 36 7d 96 5b 37 01 e5 b4 b4 74 6e 34 b5
       6.5780337e-06 1.30884555e-05 -3.3694235e-07 -6.7215956e-07
0000a0 0b 2d b0 39 8b 1c a7 36 2c 8d ec 35 19 cf a9 b7
       0.00033602896 4.9803107e-06 1.7624457e-06 -2.0242807e-05
0000b0 d8 63 14 b8 c0 a1 00 b7 41 6b 90 39 e4 ac 23 b9
       -3.5378936e-05 -7.667055e-06 0.0002754573 -0.00015609298
0000c0 5c bb 61 35 c7 c6 97 36 32 2b 49 b5 d3 4a 8f 34
       8.4091675e-07 4.5232914e-06 -7.494119e-07 2.6690267e-07
0000d0 33 27 4b b7 4e dd 79 b4 20 69 fd 36 23 e3 82 b8
       -1.210887e-05 -2.3270442e-07 7.5522257e-06 -6.2411906e-05
0000e0 7e c1 8f 36 1d a4 18 b8 d5 8b 40 37 b1 f8 b9 36
       4.2842576e-06 -3.6392466e-05 1.1476649e-05 5.542381e-06
0000f0 ec b4 8a 35 08 42 83 36 1b d4 76 35 99 7d 2f 36
       1.0334456e-06 3.9117913e-06 9.1950795e-07 2.615014e-06
000100 49 48 a4 bc d8 db 8d 3e 87 21 48 3e 8d 8b 8b bc
       -0.020054 0.2770679 0.1954404 -0.017034316
000110 b8 7e c7 bc 27 7c 03 bd e3 35 06 3b cc d1 9c bb
       -0.024352416 -0.032100823 0.0020478896 -0.004785752
000120 b7 20 30 bd dc e3 ac bc 0b ac 00 bb d8 d7 58 3e
       -0.04299995 -0.021104746 -0.0019633796 0.21176088
000130 c6 73 65 3e 4f b2 49 3e e8 11 bf 3d 93 da bd 3c
       0.22407445 0.19696926 0.09329587 0.023175513
000140 7f ea eb 39 87 dd a6 bc 76 bd cc 3a 07 4b 01 b9
       0.00044997406 -0.020369304 0.0015620429 -0.00012330349
000150 ce de ca 3c 5a 0c 35 3b 58 92 0f bd 25 da b6 3d
       0.024764445 0.002762577 -0.035051674 0.089283265
000160 94 28 4f bc d0 f8 2e 3e 58 98 e8 bc ae 2a b2 bc
       -0.012643952 0.17087102 -0.028392956 -0.021748867
000170 29 19 99 bc 51 5d bd bc 53 73 7e bb 64 cd 6d bc
       -0.018688755 -0.023115786 -0.0038826063 -0.014514301
000180 d8 48 22 bd 5c e1 9f 3e 2b 54 c2 3e 71 8f 16 bd
       -0.03962025 0.31226623 0.3795484 -0.03675789
000190 b3 8a 5a bd 4e a7 e8 bd 71 92 be 3a b4 39 dd bb
       -0.05335493 -0.11360036 0.0014539493 -0.0067512635
0001a0 48 86 1b 3d df ae 42 bd 69 e0 53 bb 0e a6 a7 3e
       0.037969857 -0.04753005 -0.0032329804 0.32743877
0001b0 e9 bc 4e 3e 24 b2 9f 3e 9a f2 a4 3d 85 08 8a bd
       0.20189251 0.31190598 0.08054085 -0.06739906
0001c0 72 68 82 ba 11 37 0a bd cc 03 41 3b d8 16 fb b8
       -0.000994934 -0.03374392 0.0029451726 -0.00011972868
0001d0 11 9e 0a 3d 3e a7 1a 3b a8 04 8c bd 40 87 8c 3e
       0.03384215 0.002359822 -0.068368256 0.27446938
0001e0 c9 7b 16 bd 76 9b 62 3e 6f c5 a9 bd e4 e4 32 bd
       -0.036739144 0.22129616 -0.082896106 -0.04367532
0001f0 33 44 d0 bc 6a 3e 1c bd 0b f6 c9 bb 76 37 08 bd
       -0.025423145 -0.03814546 -0.006163364 -0.033256017
000200 20 6e 5a bd 56 6d 8c 3e 4f 15 a3 3e 03 39 2f bd
       -0.05332768 0.27427167 0.31852195 -0.04277898
000210 23 5d 6d bd f2 69 9b bd a5 92 ae 3a e9 01 ea bb
       -0.05795015 -0.07588567 0.001331885 -0.007141341
000220 c9 ca 49 bd 35 fb 59 bd 9a f1 6a bb cd 82 97 3e
       -0.049265657 -0.053218085 -0.0035849572 0.2959198
000230 53 8d 65 3e f3 41 9f 3e 63 ef c4 bd fb bc ec bd
       0.22417192 0.31105003 -0.09615972 -0.11559483
000240 a9 82 ba ba ac 5f 4f bd 0c c5 70 3b 33 0a 4a b9
       -0.0014229614 -0.05062835 0.0036738543 -0.0001926802
000250 b7 32 ef 3c e6 e1 0f 3b 65 13 61 bd 2b 86 85 3e
       0.029198987 0.0021954714 -0.054950137 0.26078925
000260 cb de 0a bd 61 43 8b 3e 60 cc a4 bd c8 ae 5c bd
       -0.03390388 0.27199844 -0.08046794 -0.053877622
000270 50 54 5e bd 7f 93 35 bd 3a 42 d3 bb 99 da 26 bd
       -0.054279625 -0.044330116 -0.006447104 -0.040735815
000280 d9 d0 8c b8 f2 bf 77 39 86 9d 65 39 68 b1 f1 b7
       -6.714621e-05 0.00023627261 0.00021897824 -2.881205e-05
000290 15 f0 99 b8 c9 4e 20 b9 d2 7d 3a b7 bc 73 96 37
       -7.340327e-05 -0.00015288139 -1.1115759e-05 1.7935286e-05
0002a0 fe 34 7d 39 91 0e 8a b8 58 27 81 b8 00 a3 00 39
       0.00024147701 -6.583066e-05 -6.158528e-05 0.00012267753
0002b0 51 77 07 39 fc 95 43 39 8d 9b 19 3a 18 c9 d6 b8
       0.00012919052 0.00018652523 0.00058596657 -0.00010241772
0002c0 08 b4 a2 b8 62 44 ce b8 cb 74 2b 39 59 6c 10 b8
       -7.7582954e-05 -9.835583e-05 0.0001635134 -3.4433182e-05
0002d0 5a 7c 2d 39 9e 17 56 38 82 eb a1 b8 45 10 8c 38
       0.0001654489 5.104357e-05 -7.720945e-05 6.678751e-05
0002e0 2a ab e0 b7 28 0d 2f 39 4d 95 bf b8 e9 29 2a b8
       -2.6782585e-05 0.00016694202 -9.135399e-05 -4.057019e-05
0002f0 f4 66 b2 b8 46 91 18 b8 f3 d3 87 b9 86 45 ad 37
       -8.506878e-05 -3.637492e-05 -0.0002590712 2.0655581e-05
000300 98 e6 99 b9 64 f0 ce 3a 23 eb cb 3a 10 4d 8d b9
       -0.0002935424 0.0015788195 0.0015557747 -0.00026951032
000310 08 fa 18 ba a8 5a 47 ba 93 7f 8b 39 08 a8 34 39
       -0.00058355974 -0.00076047564 0.00026607196 0.00017228734
000320 82 36 ba ba c9 7b 96 38 18 64 36 ba f3 e3 bf 3a
       -0.0014206918 7.175614e-05 -0.0006957664 0.0014640078
000330 48 41 bc 3a 32 30 9d 38 29 d4 ce ba ca e6 d3 3a
       0.0014362717 7.4953205e-05 -0.0015779781 0.0016166803
000340 6b 77 6e b9 20 9a f2 37 14 e8 99 38 fa a1 ba b8
       -0.00022741935 2.8920418e-05 7.3388364e-05 -8.8993416e-05
000350 d0 ad ee 3a c6 4e d4 b8 12 4c cd b8 15 84 be 3a
       0.0018209759 -0.000101236205 -9.789331e-05 0.0014535213
000360 a4 a7 a7 37 46 8f 94 3a d1 56 10 ba 2f 90 dc b9
       1.9986015e-05 0.0011334203 -0.0005506101 -0.00042069095
000370 d5 90 66 39 c6 a0 80 b8 d8 81 23 ba ac 68 86 b9
       0.00021988463 -6.133462e-05 -0.0006237305 -0.00025636458
000380 c0 c7 02 38 f6 a9 08 39 7c 00 f2 38 6f 45 05 38
       3.1180447e-05 0.00013033286 0.000115395495 3.1774336e-05
000390 68 c4 a0 37 ec 91 c9 36 95 ee 82 b6 22 70 8c b6
       1.9164945e-05 6.0072543e-06 -3.9020765e-06 -4.185379e-06
0003a0 5a 2c 0a b7 40 a5 54 38 1e 2c c3 37 a4 09 ba 37
       -8.235767e-06 5.069864e-05 2.3266355e-05 2.2177417e-05
0003b0 dd 74 fc 36 9f 5a 4d b9 11 99 8e 38 4e 0e 7c b8
       7.52379e-06 -0.00019584082 6.7995985e-05 -6.0094804e-05
0003c0 a7 9f 9c 36 ca 0b 5b 38 d2 58 5f b7 d5 39 aa 36
       4.6677483e-06 5.222465e-05 -1.3312516e-05 5.0731273e-06
0003d0 30 ae 03 39 0a d2 a7 b6 69 ba 04 38 80 3b 6f b7
       0.00012558023 -5.0014396e-06 3.164486e-05 -1.42593635e-05
0003e0 ba d8 fe 37 48 37 1b b8 1a 9f c1 36 e2 68 9e 37
       3.038008e-05 -3.7006364e-05 5.77037e-06 1.8883908e-05
0003f0 3e a2 85 38 5b 0f 32 38 82 b9 5e 37 05 ad 02 38
       6.372154e-05 4.2452808e-05 1.3275423e-05 3.1155552e-05

gat_layer_1.layer0_1.0.input_linear_layer1.bias f4 [32]
000000 45 aa 69 ba 73 8f 93 b9 88 1f 08 3d 41 e9 6c 3d
       -0.0008913617 -0.00028144903 0.033233196 0.057839636
000010 1c fd 55 3e af 78 9e ba 82 9d 16 bb d1 34 a2 b9
       0.20897335 -0.001209041 -0.0022982066 -0.000309384
000020 a3 a4 c3 b8 79 74 b2 3d 5a 67 27 3d a2 e0 54 3a
       -9.3289906e-05 0.08713622 0.040870048 0.0008120631
000030 5d a0 81 3b e4 93 39 3a 6c 80 b7 3d 8e f2 89 bb
       0.0039558844 0.00070792274 0.089600414 -0.004209823
000040 72 39 3f b9 19 a2 cb b9 8a 97 9e 3d 8a 30 8b b9
       -0.0001823658 -0.0003883995 0.077437475 -0.0002654831
000050 71 08 b3 3d 1f 67 10 3d 91 df 19 ba 9c be e7 b9
       0.087418444 0.035254594 -0.0005869801 -0.00044201768
000060 27 af 9a ba 84 e7 03 b9 1d ad 23 bb 7e 18 a6 bb
       -0.0011801467 -0.0001257938 -0.002497501 -0.0050688377
000070 52 05 c4 b9 2b a8 25 b9 2d 1e 21 bb 8f 68 79 b8
       -0.00037387997 -0.00015798274 -0.0024584637 -5.9463604e-05

gat_layer_1.layer0_1.0.input_linear_layer2.weight f4 [32, 32]
000000 2d 9b c6 bb d7 f7 46 bd e0 fd a2 3c 9c f5 02 3a
       -0.006060979 -0.048576202 0.019896448 0.0004995705
000010 c9 4a 2e bb 69 3c 9e bb dd 45 de ba 2c d0 4c 3b
       -0.0026594868 -0.004828979 -0.0016958077 0.003125201
000020 ea f6 01 3d 54 fc 60 39 39 b3 d1 b8 db cf 85 bc
       0.031729616 0.00021456304 -9.9992794e-05 -0.016334465
000030 79 ab 1c 3d 86 63 78 bc c1 58 48 bd c7 6f 1a 3c
       0.038249467 -0.015160447 -0.048912767 0.009426064
000040 cb 6c 0c ba 5d 17 af b9 5f cb 7e 3b 7f 52 4c bb
       -0.00053567876 -0.00033396008 0.0038878543 -0.0031177101
000050 da 8f 32 3b 1e 4e 01 bb f1 19 47 3b 06 ff 6a ba
       0.0027246387 -0.00197304 0.0030380453 -0.0008964393
000060 47 74 0a 3b 44 0b 33 bb 1b 92 e4 3a 73 23 9d bb
       0.0021126436 -0.0027319947 0.0017438562 -0.0047954856
000070 9e 3e 90 3a dc 13 82 bb 48 e0 1f 3a 8d 7d 14 bb
       0.001100499 -0.0039696526 0.0006098789 -0.0022657842
000080 e6 80 a4 bd 8f da 99 3e 7e de 88 3e f8 20 ee bd
       -0.08032398 0.3004956 0.26732248 -0.11627382
000090 d9 8b 58 bd a2 91 fd 3c 0e 5e 90 bc 56 16 0f bc
       -0.052867744 0.030953232 -0.017622974 -0.008733353
0000a0 c9 d3 54 bc 03 61 f6 bd 10 d9 33 3a 95 df 07 3f
       -0.012989947 -0.12030222 0.0006860653 0.53075534
0000b0 ae 3d f0 3e d9 f1 db 3e 26 8f 04 3c 8f 68 99 bd
       0.46922058 0.42957953 0.00809077 -0.07490646
0000c0 bd 29 87 3c 90 a4 0b bd f0 d3 b2 3c 51 e1 ff bb
       0.016499395 -0.034092486 0.021829575 -0.007808842
0000d0 43 42 38 be 72 b0 12 bb d3 0d 03 3d 84 f6 ac 3e
       -0.17994027 -0.0022383002 0.031995606 0.33781826
0000e0 3c fe 44 3c 7e 6a d6 3d ae 41 c5 3c 5d a1 27 bc
       0.012023505 0.104695305 0.02407917 -0.010231343
0000f0 39 b1 62 bd 51 45 f3 bd fe 14 ed 3c e4 f2 bf 3c
       -0.055344794 -0.118784554 0.028940674 0.023431249
000100 0a 9d 5e 3c 9e e0 8b 3d c3 80 dc 3c 09 76 b8 3c
       0.013587246 0.06829952 0.026916867 0.022517221
000110 fd 19 5a 3b 66 a6 cd 3c b6 e4 08 3b 27 72 9b 39
       0.003327965 0.025103759 0.0020888275 0.00029648954
000120 c4 ff f6 3d 04 de 86 3b a4 01 04 ba a7 82 33 bc
       0.12060502 0.004115822 -0.0005035645 -0.010956443
000130 69 85 aa 3c 28 44 b7 bd 53 9d c7 bd fb 40 1c 3d
       0.020815568 -0.08948547 -0.09746804 0.038147908
000140 c0 63 49 ba 26 1e 23 3d f5 ba 4e 3c a7 c2 91 bb
       -0.00076824054 0.039823674 0.012617816 -0.004448253
000150 d1 a6 61 3d de 69 db bb 3d 46 d9 3c 00 0d c4 bc
       0.05509073 -0.00669597 0.02652275 -0.02393198
000160 3c 21 28 3c 7d 8d c2 3b f5 e3 a2 3d dc 00 66 bb
       0.01026183 0.005937277 0.079536356 -0.0035095727
000170 70 ff ba 3c 0f b8 1e 3c 9e 7e bb 39 50 e2 ed 3c
       0.02282688 0.009687438 0.00035761757 0.029038578
000180 ee 98 28 3a 16 28 52 bd 1b b3 20 3d 23 61 18 bb
       0.00064314797 -0.05130776 0.03923331 -0.0023251257
000190 53 a9 8b 3a 67 0e 8a 3b 98 c7 5a 3b 1a b1 96 3b
       0.0010655321 0.0042131427 0.0033383127 0.004598749
0001a0 87 8b eb bc 66 4d 0c 3b aa 01 63 bb 28 65 e4 bc
       -0.028753055 0.0021408438 -0.0034638443 -0.027880266
0001b0 5e bf 60 3b 65 32 cd 39 b8 65 86 3b 0c 45 d9 bb
       0.0034293751 0.00039138194 0.0041014813 -0.0066305455
0001c0 cf 14 de 3b 30 0a 1b b6 cb f3 fe bb f1 01 d4 3a
       0.006777383 -2.310273e-06 -0.007780527 0.0016174895
0001d0 f9 01 b1 3b da ac 27 3c b4 1c 11 3b 4d 41 8b 3c
       0.0054018465 0.010234082 0.0022142353 0.016998911
0001e0 24 4b 55 3b 7e 0d 82 bb 4e 99 88 3b 7b 9b f6 3a
       0.0032546008 -0.0039688936 0.004168666 0.0018814647
0001f0 a4 f7 8f 3b 75 34 0a ba f5 52 df ba 30 f6 6b 39
       0.0043935347 -0.0005272099 -0.0017038273 0.00022503058
000200 c3 31 7a bb 6a 9a 82 3d 47 31 a2 bc fd 7d 64 3b
       -0.0038176633 0.063771084 -0.019798888 0.0034865134
000210 a2 00 c2 bb 82 f9 fa ba bb ea 5c 3b 47 ca 0d 3c
       -0.0059204856 -0.0019147845 0.0033709246 0.008654184
000220 79 e2 46 3c bd 2a 1e 3b a3 8b 00 bc da ae 0c bd
       0.012138956 0.002413436 -0.007845792 -0.03434644
000230 b7 f1 e8 3c 6e 62 4b bd 3a 08 0f 3c bf f3 11 3c
       0.028435571 -0.049654417 0.008729989 0.008908211
000240 8b d4 50 3a 96 8b bc 3b 0f 69 b3 3b 50 06 91 bb
       0.00079662417 0.0057539446 0.0054751704 -0.0044258013
000250 a4 59 49 3c 26 9b 4a bb 6a 70 d0 3b 60 a0 b9 3c
       0.012289438 -0.003091523 0.006361057 0.02265948
000260 e7 af 20 3b 9d d9 07 bc db 01 6b 3c df 12 be bb
       0.0024518908 -0.008291629 0.014343704 -0.0058005895
000270 1e 1c 63 3b 16 45 a2 ba e5 2b 8c ba 9c e2 2e 3b
       0.003465421 -0.0012380208 -0.0010694234 0.0026685363
000280 9f 9a a7 bc 1f 05 47 bd 29 5b df bd 21 6e 50 bc
       -0.020459471 -0.04858887 -0.10906059 -0.012721569
000290 e8 10 42 bc 04 ba f8 bc 56 5b c6 3a c3 8e 42 3b
       -0.011844851 -0.030362137 0.0015133421 0.0029687143
0002a0 6f f2 b4 bb 8d 35 79 bc db 28 a9 3a da 5d 0a 3d
       -0.0055220644 -0.015210521 0.0012905853 0.03378091
0002b0 2a 11 81 3d b6 34 2f 3d bc cf 8b bd 2f 67 ff bc
       0.06302102 0.04277488 -0.068267316 -0.031177131
0002c0 ba 3a 41 3b a9 3e 84 bc 0e cc 0f 3c f9 c6 35 bb
       0.0029484467 -0.01614316 0.008776678 -0.0027737005
0002d0 0e 83 3a ba 9c 77 d9 3a 9b 6c fe bb 80 ad 48 bd
       -0.00071148656 0.0016591433 -0.0077644116 -0.048993587
0002e0 b6 3f a7 bc ba ad 0f 3d f0 7d dc bb 9b b4 e5 bc
       -0.020416122 0.035077788 -0.00672888 -0.028040221
0002f0 92 e1 06 bc 81 e5 8d bc d5 d8 ed 3b ba ff 83 bc
       -0.008232491 -0.01732135 0.0072585144 -0.01611315
000300 d7 70 fa 3b 5d 83 0b 3b d9 45 22 bd 04 ee be ba
       0.007642846 0.0021288015 -0.039617393 -0.0014566784
000310 46 d3 88 3b e0 15 be 3b 68 a2 3e bc 24 8c 12 b9
       0.0041755764 0.0058009475 -0.0116354 -0.00013975851
000320 4a 79 4c bd 64 6a 92 3b 67 53 4e ba ac 2b 5a 3d
       -0.049920358 0.004468249 -0.0007870704 0.053264305
000330 66 03 88 3b 2d 1c 7a bc a2 f2 4f 3d 73 9d 44 bc
       0.0041507958 -0.015265507 0.050768502 -0.012000429
000340 8d f6 6c bb 7d 1c fd 3a 1d dd 0b bc 2d 23 8b bb
       -0.0036157698 0.0019310858 -0.008536604 -0.0042461366
000350 49 19 84 ba cc cb e3 b9 f7 8f 39 bb 5d 68 b4 3c
       -0.0010078336 -0.00043448654 -0.002831457 0.02202242
000360 ed 47 7b 3a 5f 7d 98 bb 14 47 11 bc a2 26 68 3b
       0.0009585608 -0.0046536173 -0.008867044 0.0035423418
000370 d0 37 65 3b d1 5d f0 3a cd 90 96 bb 98 01 49 3a
       0.0034975894 0.0018338506 -0.0045948983 0.0007667779
000380 7f 7d 3c 3b d1 8b 89 3c 2e 16 91 3d e0 96 2d 3c
       0.0028761325 0.016790302 0.070843086 0.010595053
000390 e6 6b 3d 3b a2 d2 9b 3b 3e e2 f2 3a 8e ea f3 ba
       0.0028903424 0.004755334 0.001853056 -0.0018609331
0003a0 70 d3 65 3d 26 33 9f 3b eb 14 fd ba 5f d4 63 bd
       0.056109846 0.0048583923 -0.0019308602 -0.055622455
0003b0 12 86 49 bd 03 f3 8f 3c 45 5e cb bb 0d a5 bc 3b
       -0.049200125 0.017571932 -0.006206306 0.0057569803
0003c0 d6 c2 ec bb 9a c1 11 3c 01 11 25 3c 13 4f 04 bc
       -0.0072253747 0.008896256 0.010074855 -0.008075493
0003d0 50 e8 81 3c f9 74 0f bc fa b2 e6 3b 8e 96 d9 bc
       0.015857846 -0.008755916 0.0070403786 -0.026561048
0003e0 82 0f 00 3c 7e 80 fa bb 2d 0d 43 3c 0a 0c 56 3b
       0.007816197 -0.007644712 0.011904997 0.0032660984
0003f0 48 d1 9b 3b ce 79 de 3b ed af 09 bc 65 41 11 3c
       0.004755173 0.0067894226 -0.00840376 0.008865689

gat_layer_1.layer0_1.0.input_linear_layer2.bias f4 [32]
000000 16 3a 76 3c f5 c5 f2 3c 5b 82 c7 ba a9 fc 06 bc
       0.015028497 0.029635409 -0.0015221344 -0.00823895
000010 45 2a 99 bc f3 5c cd 3c 1b 81 9e bc 2c 80 1b bd
       -0.018696913 0.025068736 -0.019348672 -0.03796403
000020 e7 27 96 3d 84 3a 47 be ee 02 a9 3c 75 53 4a 39
       0.073318295 -0.19455916 0.02063128 0.00019295311
000030 21 76 3a bc 52 18 73 bd 73 22 08 be 49 dc 27 3e
       -0.011380703 -0.059349366 -0.13294391 0.16392626
000040 b6 b1 db 3c 76 1a 28 3d d0 5f c7 3c 76 83 8b bc
       0.026818138 0.04104086 0.02433768 -0.017030459
000050 d6 5a ed 3c 60 19 91 bd e7 79 be 3d 36 d7 16 3d
       0.028973978 -0.07084918 0.09300595 0.036826335
000060 63 f1 f2 bc 5c 28 ce bd 85 db ca bd 1c 83 b4 bc
       -0.029656118 -0.10066292 -0.09905151 -0.022035174
000070 8b 5c ee 3c 3e 7a 8a bb 37 47 38 bd 63 f7 3d bd
       0.029096862 -0.004225998 -0.04498979 -0.046378504

gat_layer_1.layer0_1.0.a_1.weight f4 [1, 32]
000000 45 1f ae 39 3c 03 1c 35 c4 42 83 be 54 1a d1 be
       0.00033211164 5.8119235e-07 -0.25636876 -0.408404
000010 44 4c e2 be 76 69 a7 b9 9a bb c9 ba 20 7a 93 b8
       -0.4419881 -0.00031931297 -0.0015390993 -7.032254e-05
000020 e6 af c0 37 67 88 91 bc 7c bd 6e bd d1 db 52 38
       2.2970093e-05 -0.017765237 -0.058286175 5.027262e-05
000030 b8 c6 e9 b7 d0 bf ca ba f2 1a 53 be ed 85 2b bb
       -2.78683e-05 -0.0015468542 -0.20615748 -0.0026172355
000040 12 0b 4e 35 8f a8 1e b7 88 6a 6b bd b4 25 8e b6
       7.675709e-07 -9.4567795e-06 -0.057474643 -4.236319e-06
000050 96 1e 8b be 32 fb 18 be 63 3a b6 b6 fd 00 56 39
       -0.27171773 -0.14939573 -5.43082e-06 0.00020408999
000060 19 52 67 b9 c2 74 c4 b5 63 a4 e0 39 d1 06 8a bb
       -0.0002206046 -1.4637119e-06 0.00042847087 -0.0042122384
000070 2e 7e 87 b8 0c b8 a2 b8 82 a2 97 ba fb ef 43 b7
       -6.4608044e-05 -7.7590434e-05 -0.0011568817 -1.16787805e-05

gat_layer_1.layer0_1.0.a_2.weight f4 [1, 32]
000000 36 05 55 3b b0 2d 91 be ea 2f 83 3c ba 7e d4 3a
       0.0032504327 -0.2835517 0.016014058 0.0016212084
000010 9f 03 f8 3b 6a 97 a9 3c 27 d4 65 3a 5c 5d 98 3b
       0.007568791 0.020702083 0.000876727 0.004649801
000020 32 aa 57 3e cf c3 64 3c ab 92 ec 3a 9d eb 89 3c
       0.21061018 0.0139627 0.0018049082 0.016835982
000030 88 26 88 bc dd 74 49 bc a3 bc 70 3e 68 37 07 bc
       -0.016619936 -0.012295929 0.23509459 -0.008252956
000040 1d 36 bb 3a 2e bb ab 3b ee a1 d7 ba e2 57 5e 3b
       0.0014283095 0.0052408194 -0.0016451457 0.0033926894
000050 db 59 41 bd 49 9a b8 3a 56 1d 61 be 7e 0e bf bc
       -0.047204833 0.0014084066 -0.21983847 -0.02332234
000060 3e 74 0c be f4 46 40 bc cd 83 60 3c e2 d1 c1 3b
       -0.13716218 -0.011735667 0.013703299 0.0059149126
000070 56 a2 85 b9 44 72 cc 3b c0 23 4c 3b 0a 6c ee bb
       -0.00025488687 0.0062392075 0.0031149238 -0.007276063

gat_layer_1.layer0_1.1.input_linear_layer1.weight f4 [32, 32]
000000 3d b1 b2 b8 f2 f2 9c ba 39 19 94 ba 8f 2c 8d b8
       -8.5207146e-05 -0.0011974259 -0.0011299021 -6.7317036e-05
000010 82 49 c0 b8 cc 90 be b8 ea d0 2f 38 9b c8 c3 37
       -9.168965e-05 -9.0868765e-05 4.1917818e-05 2.3339226e-05
000020 66 52 83 b9 bc 1d 3c b8 cb 93 d7 b7 ed 00 37 ba
       -0.0002504766 -4.4850385e-05 -2.5698819e-05 -0.0006981034
000030 db b2 23 ba de b0 87 b7 48 77 e7 bb 7e 0c 4b 39
       -0.0006244608 -1.6175614e-05 -0.00706378 0.00019364242
000040 a9 20 e3 b7 24 ed ac b8 e9 a1 d0 38 cb 13 90 37
       -2.7075717e-05 -8.24577e-05 9.948371e-05 1.7175355e-05
000050 97 73 89 38 c2 43 3d 38 61 93 8c b8 42 db f8 b9
       6.554199e-05 4.5124216e-05 -6.703172e-05 -0.00047465606
000060 a2 7e 0a b9 7b da 44 38 72 70 9b b8 8e 96 9c b8
       -0.0001320788 4.6933517e-05 -7.4119205e-05 -7.466703e-05
000070 82 f3 49 b8 f3 a5 ce b8 58 c6 23 b8 a9 1f 97 b8
       -4.814892e-05 -9.853756e-05 -3.904695e-05 -7.206138e-05
000080 4d e8 17 3a 34 70 13 3b 68 db 0b 3b 4f 73 2f 3a
       0.00057948084 0.0022497298 0.0021340493 0.00066929025
000090 30 36 93 39 16 d9 ca 38 e0 3c e3 b9 73 3f ef b9
       0.00028078398 9.672546e-05 -0.0004334217 -0.00045632906
0000a0 f8 78 2f 39 99 51 6f 39 cd 86 61 39 6a c3 9e 3a
       0.00016734365 0.00022823214 0.0002150789 0.0012112681
0000b0 44 1c 93 3a de 3e c5 3a f6 9c b9 38 75 73 9e ba
       0.0011223634 0.0015048643 8.850724e-05 -0.0012088852
0000c0 80 89 03 3a c6 1c 57 3a d8 09 c3 38 14 fa dc 39
       0.00050177425 0.00082058867 9.300158e-05 0.00042147993
0000d0 76 ee 5d ba bc fe 85 b8 8f fe 18 ba 01 c0 2d 3a
       -0.00084660144 -6.389382e-05 -0.0005836272 0.0006628037
0000e0 36 de 37 39 30 93 96 36 0e a7 38 ba 60 15 40 39
       0.0001753502 4.4874832e-06 -0.0007043936 0.0001831851
0000f0 ce f7 77 3a a5 e4 2b 3a 6c 84 0f 3a 5e f8 83 3a
       0.0009459228 0.0006557203 0.00054747495 0.0010068526
000100 dc 6a 52 39 71 58 eb 39 55 f2 da 39 bb a1 4f 39
       0.00020066969 0.00044888587 0.00041760752 0.00019801308
000110 d9 8f 42 39 58 3b e7 38 4a a9 1c b7 48 86 84 b8
       0.00018554869 0.00011025992 -9.33774e-06 -6.319262e-05
000120 68 ea 30 b9 9a 0b 44 39 73 62 e0 38 bc 1a 68 39
       -0.00016871991 0.00018696339 0.0001069949 0.00022135203
000130 5a 30 48 39 26 ad 17 ba 07 2a 25 39 ac a5 26 b8
       0.00019091499 -0.0005785994 0.00015751283 -3.9731778e-05
000140 40 cd ee 37 45 5e 73 39 79 9a f5 b8 6f c2 2b b8
       2.8467388e-05 0.00023209404 -0.00011711283 -4.0950657e-05
000150 01 89 34 39 0e ee a7 b7 d1 9f 01 39 62 1f 08 39
       0.00017217176 -2.0018804e-05 0.00012361935 0.00012981662
000160 18 94 13 39 9f 1b aa b8 68 c8 bf 38 5b c5 3a 39
       0.00014074182 -8.1113765e-05 9.144918e-05 0.00017811863
000170 84 42 80 39 e5 18 65 39 a6 f4 96 38 8a 5f 68 39
       0.0002446362 0.00021848416 7.198127e-05 0.00022160835
000180 b6 ed 02 bd 9a fb b1 3e 37 81 88 3e 46 ef d0 bc
       -0.03196498 0.3476227 0.26661083 -0.02550472
000190 75 aa 35 bd 34 5d 24 bd df 17 e8 3a 50 01 d2 bb
       -0.044352014 -0.040127948 0.001770731 -0.006408848
0001a0 8d 3c ce bd 71 e5 e7 bc 18 1e 86 bb 60 bd 12 3e
       -0.10070143 -0.028307648 -0.004092943 0.14330053
0001b0 31 54 19 3e 61 6d 56 3e f5 26 8c 3d 86 83 ab 3d
       0.14973523 0.20940162 0.06843368 0.083746955
0001c0 c2 c1 c7 ba 23 f0 44 bd 80 10 1d 3b 1c e2 30 3a
       -0.001524024 -0.048080575 0.0023966134 0.000674756
0001d0 cd ce 4b 3d 07 60 c2 3a 3f 63 8b bd 31 5b 76 3e
       0.049757767 0.0014829644 -0.06806039 0.24058224
0001e0 37 ea bf bc 60 8e fd 3d 90 a0 c2 bd 91 1a 01 bd
       -0.023427112 0.123806715 -0.09503281 -0.031519476
0001f0 10 b3 bf bc 6c 18 f7 bc 8f 90 dd bb 06 df d6 bc
       -0.023400813 -0.030163012 -0.0067616175 -0.026229393
000200 76 5b e2 39 11 fd 0c ba d7 79 0a ba 1b bc 08 3a
       0.00043174223 -0.0005378286 -0.0005282438 0.0005216018
000210 c0 0c d3 39 bb 4d cd 39 d4 d7 78 b8 c8 cc 88 b7
       0.00040254556 0.0003915856 -5.9328813e-05 -1.6307822e-05
000220 18 e2 9a 3a c8 9c 0b 3a 74 9b 83 38 49 1e 1c ba
       0.0011816649 0.00053257914 6.275522e-05 -0.00059554406
000230 81 27 16 ba 0f dd 3c 39 9b 40 37 3b fd db 92 ba
       -0.00057279324 0.00018011428 0.0027962092 -0.0011204478
000240 4d 42 67 38 d7 63 0e 3a 74 30 2e b8 ec 3b c8 37
       5.513644e-05 0.00054317474 -4.152996e-05 2.3869761e-05
000250 08 98 2f ba eb 1e c7 37 1c c8 30 3a bc d7 26 ba
       -0.00066983746 2.3737046e-05 0.0006743686 -0.00063645444
000260 0b d7 de 39 cf e8 ce b9 b7 2a 54 3a 44 03 e7 39
       0.0004250336 -0.00039464838 0.0008093523 0.00044062186
000270 72 b9 af 39 bd a8 cc 39 38 02 cc 38 5d 54 7f 39
       0.0003351677 0.00039035632 9.727891e-05 0.00024350123
000280 5a 8b 23 ba 2f 53 a1 ba 02 12 97 ba 32 9b 07 ba
       -0.00062387215 -0.0012308116 -0.0011525752 -0.0005172967
000290 c4 b6 36 ba 56 7a df b9 ca 69 99 39 d6 ab 65 39
       -0.0006969983 -0.00042625022 0.00029261253 0.00021903156
0002a0 76 2b ad 3a 51 c0 f5 b9 a9 05 d3 b9 0a 07 75 ba
       0.0013211805 -0.00046873328 -0.00040249273 -0.0009347057
0002b0 a7 d3 6d ba 3d c8 62 39 2d 52 85 38 a2 53 e3 b9
       -0.0009072371 0.00021627634 6.3572406e-05 -0.00043359125
0002c0 7c 25 97 b9 db e8 3d ba e1 7d 1a 39 77 24 33 b8
       -0.00028828892 -0.0007244476 0.00014733478 -4.2710886e-05
0002d0 00 82 86 3a 4c c3 f2 39 43 50 c9 b9 f7 78 52 ba
       0.0010262132 0.00046303344 -0.00038397507 -0.00080288894
0002e0 40 de 02 ba 42 e4 d2 b7 cb 37 f4 b9 19 58 f0 b9
       -0.0004992224 -2.5140242e-05 -0.00046580876 -0.00045842005
0002f0 68 cc af b9 b3 9a f9 b9 40 b5 85 b5 51 bc ea b9
       -0.00033530896 -0.0004760824 -9.962023e-07 -0.00044772265
000300 f0 5a c6 bc 25 cb 47 3e 1a 8f 3f 3e 12 a8 9b bc
       -0.024213284 0.19511087 0.18706933 -0.01900104
000310 fa 9d fc bc 21 3d 0d bd cf 60 02 3b 38 f6 ba bb
       -0.030837048 -0.034482125 0.0019894128 -0.005705621
000320 05 2d e2 bd d1 80 c2 bc a9 82 56 bb 9f c9 5b 3e
       -0.11043743 -0.023743065 -0.0032731688 0.21463631
000330 cf 7c 34 3e 08 0c 42 3e 35 65 14 be 88 75 b2 3c
       0.17625736 0.18949902 -0.14491732 0.021784559
000340 57 d2 1b ba cd 56 13 bd f8 ec e8 3a c0 e2 fb 39
       -0.0005944124 -0.03597145 0.0017770818 0.00048043393
000350 00 4f 1f 3d 98 36 01 3b a6 42 53 bd 27 bf 39 3e
       0.0388937 0.0019716378 -0.051577233 0.18139325
000360 f8 38 77 bc bf c0 1a 3e 58 9d 26 bd a7 3b c2 bc
       -0.015089266 0.1511259 -0.0406774 -0.023710085
000370 eb 04 5d bc a8 5f cd bc 83 77 ac bb dd 70 9b bc
       -0.013489942 -0.025070027 -0.0052632703 -0.018974716
000380 71 f1 ac bb 6e b5 f5 3d 2b 8b 1e 3e e3 3d 2d bb
       -0.0052778055 0.119974956 0.15482776 -0.0026434592
000390 09 5f bd bb 39 0c e2 bc 26 8d 32 3b e2 fb 42 bb
       -0.0057791513 -0.027593719 0.0027244776 -0.0029752185
0003a0 c8 9f 8b bd ae 30 a0 bb 88 c0 c4 ba 76 53 dd 3d
       -0.06817585 -0.0048886156 -0.0015010992 0.108069345
0003b0 c4 1a c0 3d 0d 62 bd 3d 8c 66 37 bd 42 a3 07 bd
       0.09380105 0.09247217 -0.04477553 -0.03311468
0003c0 06 2e c9 39 cc 57 78 ba bc a7 c3 3a 34 38 29 b9
       0.00038371998 -0.0009473532 0.0014927308 -0.00016138033
0003d0 dd 3c 82 3c 96 96 12 3b ad 84 51 bc 06 c9 02 3d
       0.015898162 0.0022367588 -0.01278798 0.031929992
0003e0 d0 29 18 3a ec 61 66 3d a1 b9 d4 bc 03 5f b2 bb
       0.00058045704 0.05624573 -0.025967421 -0.005443455
0003f0 76 c5 9b ba 17 70 b6 bb f6 f1 f4 ba a7 71 25 bb
       -0.001188441 -0.0055675614 -0.0018687833 -0.0025244744

gat_layer_1.layer0_1.1.input_linear_layer1.bias f4 [32]
000000 98 5c 48 3b bc f9 54 3a 0b 16 10 38 71 ed da 3d
       0.0030572768 0.00081243715 3.4352805e-05 0.106898196
000010 b7 53 37 bb ad 32 a7 bb a5 df c9 3d dc 1f 7d 3d
       -0.0027973482 -0.0051024766 0.0985711 0.06179796
000020 f8 76 53 ba 37 1a b5 3d 73 90 2c 3e 56 b4 0e bb
       -0.0008066739 0.08842891 0.16851978 -0.002177497
000030 ec d4 82 bd 7b d1 24 3e 85 c5 1c 3b 09 09 a4 3d
       -0.06388268 0.16095535 0.0023921442 0.08009536
000040 c1 d0 01 bd 91 69 12 bc dc a5 92 3b bf 0b 0d 3d
       -0.031693224 -0.008936302 0.0044753384 0.03443503
000050 b5 7d b5 3d 47 f3 22 3d 8b 2e 90 ba 21 ea 33 3e
       0.08861867 0.03978279 -0.0011000199 0.17569782
000060 85 ba 4f 3e 8e 54 ff 3d 49 89 db 3d 41 c5 2d 3e
       0.20285995 0.124672994 0.107195444 0.16969778
000070 47 fd 84 3a 47 a8 39 ba 1f 30 e3 3d 31 7c 21 bc
       0.0010146283 -0.0007082265 0.11093163 -0.00985627

gat_layer_1.layer0_1.1.input_linear_layer2.weight f4 [32, 32]
000000 a3 bb c8 bb 01 59 ba bc 75 ce b0 3c eb f4 ae 3b
       -0.0061258837 -0.022747518 0.021582821 0.005339255
000010 c5 22 74 b9 f3 df e6 39 d3 3a 18 ba db c6 e3 3b
       -0.00023282606 0.00044035874 -0.00058071053 0.0069511957
000020 b2 5d 63 3d 04 60 d1 3b 72 67 f1 3b 8a 1c 12 bd
       0.055509277 0.00638962 0.007367068 -0.03567175
000030 e4 2a de bc aa 31 0b bd 51 43 eb bd 46 2c bb 3b
       -0.027120061 -0.03398291 -0.11487449 0.005712065
000040 cf c4 74 bb 66 42 c6 3b a1 08 f9 3b c3 8a d5 ba
       -0.0037348752 0.006050396 0.0075999056 -0.0016291965
000050 f6 73 04 3c b1 65 0d bc 70 71 52 3c dc 5b 00 bd
       0.008084288 -0.008630202 0.012844428 -0.031337604
000060 63 76 e9 3b 44 72 33 3b 64 79 59 39 e9 bc 05 bb
       0.0071247085 0.002738134 0.00020739954 -0.0020406789
000070 11 1b c1 3b 74 6c c9 ba 13 9d 2e bb 8c 5a 65 3b
       0.005893119 -0.0015367405 -0.0026643916 0.0034996597
000080 9d 32 48 be da 8d 1f 3d 60 eb 76 3d d7 0b 86 be
       -0.19550557 0.03895364 0.060283065 -0.26180908
000090 af 11 39 be 83 f5 a4 be 1e 79 18 3c 8e 0b 00 bd
       -0.18073152 -0.3221856 0.00930622 -0.03126102
0000a0 23 a6 77 be e9 78 a1 bc 97 c6 10 bd 63 09 21 3e
       -0.2418447 -0.019710975 -0.03534564 0.15726237
0000b0 46 c3 64 3e 2d 47 75 3e 9a 59 5f 3d 97 32 e8 bd
       0.22340116 0.23952933 0.05452881 -0.11337774
0000c0 2a db 25 3c 10 2b f9 bd 7d a9 8b bd 6a b1 14 3c
       0.010123054 -0.12166417 -0.06819437 0.009075502
0000d0 e9 c2 06 be 31 4b 7e 3c 71 13 c2 bd 86 ed 2f 3e
       -0.1316029 0.015520857 -0.094763644 0.17180452
0000e0 d4 c8 40 be 9f 2f 0c 3d 33 85 9f bd dc e3 ab bd
       -0.1882661 0.034225103 -0.077890776 -0.0839307
0000f0 05 b4 a5 be 74 7f 1c be 35 47 92 bd 45 59 55 be
       -0.32363907 -0.15282995 -0.07142488 -0.20834835
000100 49 03 2d 3d 6b 0b 4d 3d 7b c1 2b 3d f5 df f5 3c
       0.04223946 0.050059717 0.041932564 0.030014018
000110 f5 c1 3c 3d 5a d4 0c 3e 84 25 31 3a e6 65 d0 bb
       0.04608341 0.1375288 0.00067576044 -0.0063598035
000120 f6 ff 83 bd 32 2e 4d 3d 9e 7b c2 3b 47 25 51 3d
       -0.06445305 0.050092883 0.0059351465 0.05106094
000130 a8 4a 2f 3d 03 99 ab bd 76 fd a6 3c ce e8 11 3e
       0.042795807 -0.08378794 0.020384531 0.14248964
000140 d7 3c e6 3a 1e 22 15 3d 0f a0 a2 3c 05 6f 16 bb
       0.0017565739 0.03640949 0.019851713 -0.0022954356
000150 3f 44 77 3d a8 61 fd bb 3d b4 56 3d c3 91 07 bd
       0.06036782 -0.007732589 0.052417982 -0.033097994
000160 42 56 46 3d f3 83 f9 bd c1 8c ae 3d 61 2e a3 3c
       0.048422106 -0.121833704 0.085229404 0.019919576
000170 73 1e 61 3d 0b 31 72 3d b6 b9 7d 3a 8f 79 9f 3c
       0.05496068 0.059128802 0.0009678857 0.019467143
000180 57 19 52 3b 51 cc e3 bc 90 35 b1 3b 2d 35 da bb
       0.003205856 -0.027807387 0.0054079965 -0.006659171
000190 06 2d 6f 3b 4c 62 9b 39 36 6a 0b 3c 7a da 93 3b
       0.0036495342 0.0002963714 0.008509209 0.0045121284
0001a0 85 b1 be 3d 54 e8 b8 3a ac 7a 66 bb 28 2e 84 3d
       0.09311203 0.0014107325 -0.0035168333 0.06454116
0001b0 0f 81 5c 3b 85 9f ec 3c b4 93 48 bd 4f 70 fc 3c
       0.003364626 0.028884659 -0.048968986 0.030815272
0001c0 db 06 3a 3c 37 34 fa ba 66 7a 01 bc f5 1e 8b 3b
       0.0113541735 -0.0019089048 -0.007902717 0.0042456337
0001d0 fa fa 22 bb 93 65 1a 3c fb c7 f1 3b 3d ae 95 bd
       -0.0024868832 0.009423631 0.007378576 -0.07308624
0001e0 0c c7 3c 3c a1 75 a2 3b 64 ae 2c 3c b8 04 de 3b
       0.011522066 0.00495787 0.010539625 0.006775465
0001f0 2d 14 62 3c 4c 5b 88 3b 05 52 70 bb a5 dd fd ba
       0.013798756 0.004161274 -0.0036669981 -0.0019368423
000200 47 76 f2 3b 81 9b 15 bd 49 db 0e bd d7 3d 49 3c
       0.0073993537 -0.036525253 -0.034877095 0.01228281
000210 54 a2 aa 38 aa c1 7c 3a e1 56 ae 3b 6e b8 79 3c
       8.136468e-05 0.00096418953 0.0053204154 0.015241725
000220 d7 21 c5 3d be ad 44 3c 55 84 84 bb f1 84 a5 3d
       0.09625595 0.012004314 -0.0040440955 0.08081997
000230 83 d9 09 bd 8a bf 2a 3d 37 74 f7 bd 28 60 1a 3d
       -0.0336547 0.041686572 -0.12082713 0.037689358
000240 aa 1c ed bb 6a 6e 7e bc fd c8 8b 3c 7f b1 ec bb
       -0.007236083 -0.015529254 0.017063612 -0.0072233076
000250 27 59 24 3c cf 40 b4 bb 09 ac a4 3b 15 50 f8 3b
       0.010031021 -0.00550089 0.005025391 0.007577906
000260 07 98 eb bb 7b 4d dd bc be 4f 5e ba 3a f5 89 bc
       -0.007189754 -0.027014485 -0.00084805104 -0.016840566
000270 eb 91 67 3b ba f0 25 3c 5f 26 2a b9 db 70 70 3c
       0.0035334777 0.0101281945 -0.00016226758 0.014675344
000280 44 2a 6d bd 75 48 84 bd 84 1a 41 3d 2a cc 8d bc
       -0.057901636 -0.064591326 0.047144428 -0.017309267
000290 82 c8 28 ba 46 e5 10 bd ce 9c 3a 39 16 c0 f3 3b
       -0.00064385694 -0.035374902 0.00017796757 0.00743867
0002a0 3c 4f 23 3d 99 e2 42 bd 62 31 02 3c 73 c6 fc bc
       0.039870486 -0.04757938 0.007946344 -0.030856347
0002b0 93 00 a1 3c 4c 68 2d bd 83 8a 1f bd c1 b6 86 3c
       0.019653594 -0.042335793 -0.038950454 0.016444566
0002c0 9c bf ae 3a 13 13 2b bd 07 65 8c 3c 1c a1 51 bb
       0.001333225 -0.041766237 0.017138017 -0.0031986898
0002d0 7c fb 04 3a 49 fe ca ba 90 c6 cd bc 03 48 93 bd
       0.00050728745 -0.001548716 -0.025119096 -0.071914695
0002e0 8e 60 44 bd 7a 24 84 3c aa a7 2b 3c cb 76 3c bd
       -0.047943644 0.016130675 0.010476986 -0.046011727
0002f0 30 e7 dd bb fd 23 b5 bc 90 50 2f 3c 5d 31 54 bd
       -0.0067719445 -0.022111887 0.01070036 -0.05180489
000300 38 4f 39 3c be 4a 88 bc d1 e8 71 3d ae be fc ba
       0.011310391 -0.016637202 0.05905992 -0.0019282901
000310 e9 0d 46 3b e3 80 6b 3c 06 66 6c bc 41 ed e9 39
       0.0030220693 0.014373991 -0.014428621 0.0004461799
000320 31 01 a0 3d 10 c0 13 3c d4 b9 3c bb 52 96 43 3c
       0.07812727 0.009017959 -0.0028797286 0.011937695
000330 ed d4 72 3d 22 30 8c 3c 00 54 1b 3d 8e 15 ac bc
       0.059285093 0.017112795 0.037921906 -0.021006372
000340 1d d0 82 bb a3 37 95 3c fa 52 62 bc 3d 6d bc bb
       -0.003992094 0.018215006 -0.0138137285 -0.005750327
000350 7a b5 0d bc 51 a0 2d 3b 4e 8a f5 3b a8 f7 9f bd
       -0.008649224 0.002649326 0.007493294 -0.078109086
000360 01 59 95 3b b2 2c 27 bc f7 86 fc 3c 71 07 4c 3c
       0.0045577292 -0.010203527 0.030826075 0.012452946
000370 45 14 ba 3b 38 40 63 3c 24 3d bd bb 96 78 e3 3b
       0.005678686 0.013870291 -0.005775111 0.006941865
000380 7c 99 62 3b 0d 70 3c 3d ba 0b 2b 3d 92 a6 90 3c
       0.0034576347 0.046005297 0.04175923 0.017657552
000390 e7 0e 4c 3b 7d 50 95 3c e5 4f 49 3b e5 8c 87 3c
       0.0031136812 0.018226856 0.0030717787 0.016546676
0003a0 ed 0a e5 3d 01 b9 0e 3c ed f4 8d bb c0 4d ee bc
       0.111837246 0.008711101 -0.004332176 -0.029089808
0003b0 28 f6 4d bd 19 8f 40 3b 17 4c 26 3c 66 60 97 3c
       -0.05028358 0.0029382168 0.010149977 0.018478584
0003c0 04 3d 9e bc df 0d ab 3c 47 1b f9 3c 83 96 5f bc
       -0.019316204 0.020880638 0.030408515 -0.013646725
0003d0 02 96 e5 3c 26 f5 be bc bb b3 87 3c 26 b1 74 3c
       0.02802563 -0.023310255 0.016565194 0.014934814
0003e0 9d 17 5d 3c c1 c1 49 bd 29 d5 b5 3c 2f 30 2e 3b
       0.013494399 -0.049257044 0.02219637 0.0026579013
0003f0 ae 43 3a 3c 2f 68 44 3c c4 a5 76 bc 94 74 86 3c
       0.011368675 0.01198773 -0.01505417 0.01641301

gat_layer_1.layer0_1.1.input_linear_layer2.bias f4 [32]
000000 e1 ed 29 3d 25 67 88 3d b1 01 90 ba 51 66 cb bb
       0.041486625 0.06660298 -0.0010986832 -0.0062072654
000010 3a 50 df 3c 40 24 d8 3b 59 f3 5f bd 37 e0 47 bd
       0.027259935 0.006596118 -0.054675434 -0.048797812
000020 d8 9b 61 bd f1 70 cd 3d a2 6c 2a bc 39 d6 b9 bd
       -0.055080265 0.100313075 -0.010401877 -0.09074063
000030 7a 59 a9 bd 1b 8e ca 3c d2 83 fd bd c3 fb ff 3d
       -0.082690194 0.024725964 -0.12378658 0.124991916
000040 4e a4 1e 3d 55 49 ea bd d9 74 2b be 14 c1 88 3c
       0.038730912 -0.11439768 -0.16743793 0.01669363
000050 bb 06 30 3e 06 af a1 bd a2 bf ea 3c 7d b1 40 be
       0.17190067 -0.07894711 0.02865583 -0.18817706
000060 c8 6e 17 3e a9 fc a9 3c 4c e0 36 3d a6 dd 44 3a
       0.14788353 0.02075036 0.0446475 0.0007509835
000070 c8 6f 37 bd f3 60 02 bd a3 fd 5f bd 53 4b 1d bd
       -0.044784337 -0.03183074 -0.054685246 -0.038401913

gat_layer_1.layer0_1.1.a_1.weight f4 [1, 32]
000000 5c b8 39 b9 89 f1 dc 39 ed e2 2f 38 f4 d0 98 be
       -0.00017711654 0.00042141628 4.1934592e-05 -0.2984692
000010 cb 12 cb 36 13 f3 c2 ba 80 1e 7d be 09 1c cc bd
       6.0520592e-06 -0.0014873467 -0.24718666 -0.09966285
000020 cd 41 5c 3a 3a 99 9f be 57 eb 0e be 75 2c ab ba
       0.0008402139 -0.3117159 -0.13956963 -0.0013059514
000030 82 ac 5c bc c2 38 0a be 76 c5 cf 37 06 48 a9 be
       -0.013468863 -0.13498214 2.4768273e-05 -0.33062762
000040 4c 50 a9 be a4 22 2d ba 52 c7 2b 39 0c 6b a5 bc
       -0.33069074 -0.0006604588 0.00016382083 -0.020192645
000050 aa a7 67 be 75 9d 4a bd 7a f8 73 3a 2b a5 0e be
       -0.22622553 -0.04946657 0.000930674 -0.13930194
000060 e2 c7 8a be 0b b7 4f be 40 d0 3f bd f6 24 f0 bd
       -0.27105623 -0.20284669 -0.046829462 -0.117258
000070 7a 40 7e 39 27 f1 c6 b9 dd da 4a be 55 4f 32 bb
       0.00024247347 -0.00037945175 -0.19810052 -0.002720793

gat_layer_1.layer0_1.1.a_2.weight f4 [1, 32]
000000 60 a2 c6 3b 12 80 20 3d 34 ef 3b 3c 0d a4 2e 3c
       0.006061837 0.039184637 0.011470605 0.01065923
000010 af 3d 67 3c 6b 2a 1a 3d f6 24 2b 3b bb 9a 29 3c
       0.014113828 0.03763811 0.002611456 0.010351832
000020 80 43 02 3d 79 24 8b 3c ef a2 07 3c e1 f8 c8 3c
       0.031802654 0.016985165 0.0082785925 0.024532737
000030 c9 b2 eb bc ad 25 43 bc f5 1d 0d 3e 07 66 23 be
       -0.028771775 -0.011910838 0.13780959 -0.15956889
000040 4a c4 1b bc c3 91 20 3c e6 87 0c 3a f1 97 18 bb
       -0.009507248 0.009800377 0.00053608266 -0.0023283924
000050 10 81 4d 3b ed 8d 25 bb 51 ed 5c 3d f8 12 28 bd
       0.0031357445 -0.0025261596 0.05393726 -0.041033715
000060 72 a6 c8 bd 7e 0c 84 bc ae e4 01 bc c0 0b 40 3c
       -0.09797372 -0.016119238 -0.007928057 0.011721551
000070 89 52 69 bb 0c 97 b6 3b f0 82 ac 3b 57 fa 09 bc
       -0.0035602173 0.0055722054 0.0052646324 -0.008421502
