output/modelparams/dynamicLearning-ER-UAU-GAT/epoch8_model_state_dict.pth (torch, 125457 bytes, 66 tensors)

in_layer.layers.0.weight f4 [32, 2]
00000000: 0554 bd3a 722a 43ba d991 61bd 0647 0fbf
00000010: b540 a7be 37e7 973e 43e8 34be b74b 383f
00000020: 1843 81be bc10 5b3e faf5 79be 0fa3 a2be
00000030: efcc debd aeae 1e3d 7ecd 32be ebfb 083e
00000040: fda8 d13d 4374 d43d d2e7 08bf 621d 0fbe
00000050: 5951 30be 27fd 033f 388a c6be b05c 173f
00000060: 354c 88be d46f 6c3e b1c4 2c3f d2c6 acbe
00000070: a376 5ebe 9cd9 63bd 77b8 70be 9834 463f
00000080: c200 b2bd ddec 5fbe 009f acbe d0fb 58bf
00000090: 25fb 10bf 90b8 4c3f 2613 043d 7f7c 063d
000000a0: 44eb 263e 71ce 18bf 3da0 643e 2b87 1dbf
000000b0: 25d4 09be 427e abbd 6ec6 b63c 2e38 823c
000000c0: 2ae8 d0be d420 083e 75db a63e 6c41 b93e
000000d0: 0069 2a3e 7963 febd 7b85 073f 542a 2ebf
000000e0: ba12 5e3e 4193 41bf ceed 90be 0d5b 2cbe
000000f0: 7ad8 193d 6e5f 2d3d 4d31 223d d28e 173d
0.0014444595 -0.00074449845 -0.05507073 -0.5596775 -0.32666555 0.2966859 -0.17666726 0.7199053
-0.252465 0.21393102 -0.24410239 -0.3176503 -0.10878932 0.038740806 -0.17461202 0.13377349
0.1023731 0.10373738 -0.5347873 -0.13976052 -0.17218532 0.51558155 -0.38777328 0.59125805
-0.2662064 0.23089534 0.6748763 -0.33745438 -0.21724944 -0.05562745 -0.23507868 0.77424
-0.08691551 -0.218677 -0.33715057 -0.84759235 -0.56633216 0.7996912 0.032244824 0.032833572
0.16300684 -0.59690005 0.22326751 -0.61534375 -0.13459833 -0.08373691 0.022311416 0.01589593
-0.40802127 0.13293773 0.32589307 0.36182725 0.16641617 -0.12421317 0.5293805 -0.6803334
0.21686831 -0.75615317 -0.2830643 -0.16831608 0.037559964 0.042327337 0.0395978 0.03700144

in_layer.layers.0.bias f4 [32]
00000000: 2045 f63a 0403 863d 6ec2 4c3d d454 0d3e
00000010: 5274 963e 070a a53e 7ba8 02be e3d0 05be
00000020: 1a29 d3bd 25c5 083f e444 ad3e b5ab f53e
00000030: 79b0 103e 0c47 dfbe 119b 823d ec72 92be
00000040: a8b1 b9be 8381 133f eb75 0e3f 5cd4 06bd
00000050: 6cd3 183e 5482 1dbd 2a52 b33d a8cb 73bc
00000060: 33af 8b3e 5fb3 b8be 251d fd3d c84d a93e
00000070: fa1c f53e c054 343e f79f 28bd 6586 1abd
0.0018788911 0.06543544 0.04999011 0.1380189 0.2938562 0.32234213 -0.12759583 -0.13067965
-0.10310574 0.5342582 0.33841622 0.47982565 0.14129819 -0.43608892 0.06377233 -0.28603303
-0.36268353 0.57619494 0.5564868 -0.032917365 0.14924401 -0.03845437 0.08755906 -0.014880098
0.27282104 -0.3607435 0.123590745 0.33067155 0.4787367 0.17610455 -0.04116818 -0.037725825

in_layer.layers.2.weight f4 [32, 32]
00000000: 2470 37b9 c8c0 b63c a3f9 76bd 474c fcbd
00000010: aa2c 62bd 64a8 2c3c 3e07 5cbb ee61 aabc
00000020: 3b24 d3b9 a2d3 2dbd 9ae1 ebbd 5502 22be
00000030: 7e83 3bbd c3ec 133d db87 6dbc 8c9f 71bd
00000040: 6c18 c9ba 0907 263d 2994 60be 7c44 c839
00000050: 6d5e f63c 13d2 f53c 5395 d7bb f3a7 1a3b
00000060: f8ab 4cbd b7ad 19bc fddf 9bba 87ed dc3d
00000070: 6e7a 49bd 3e11 31bc adfa ebb9 c4fd 9e39
00000080: d03d 3dbb 8666 26be 2e66 593e 1c5c 933e
00000090: 0c35 0e3b 7f16 64bc d5d9 bc3d bd0a 55ba
000000a0: 5a56 273b 4bfb 253e 76a4 023e 2365 973e
000000b0: ab50 bd3e c2a3 5ebe 1d84 963d 32c6 683e
000000c0: 9164 23be 5681 83be 974e d03e e139 65ba
000000d0: 6834 b0be 9a72 d7be 0b4f 773c d0bb 03bb
000000e0: 1948 6c3e 1f51 0e3d 8e6b a8bb cab7 eebe
000000f0: 9f56 4dbe cc2c f8bb e4ad 8a3b 0bb2 4bbb
00000100: 0018 0239 db55 03be 3718 e73d 4cdf 9b3d
00000110: d8bf f33d 01bf 8239 e2e0 10be e4ab 22bc
00000120: 5b80 c7bb bc99 233e e7b9 923e 28bf 003e
00000130: bfa8 ad3e 2ca6 6dbe d337 d9bd 68a3 c23e
00000140: aa7f d5bd c2ad 8fbe f8b8 c73e fb5f eeba
00000150: ffde 99be 1f3d 9fbe b490 873c 4575 9ab8
00000160: 9b54 a53e a19e 713d c69e 86bc 1d6d b2be
00000170: e362 cebe 9282 323c 610c f839 dc7c 1fba
00000180: a3fb c2b9 0a47 cc3c 2bcc 79bd 2751 06be
00000190: 5ea6 7fbd 572b 003c 2700 e8bb 4e7f 8cbc
000001a0: 96e0 0fb8 c823 3ebd 6190 f6bd 27dc 2cbe
000001b0: 8a86 46bd ac55 203d 9c16 62bc 91d4 66bd
000001c0: 2167 b43c 7299 e83c 422e 72be 4b2c c739
000001d0: 8e2e 2e3d 4853 fa3c 7221 c8bb f989 113b
000001e0: 5bfe 5fbd c579 fcbb 3ea3 833d a429 25bd
000001f0: 5bff 1e3d 805c d5bb 5842 923a ae88 33ba
00000200: 6ca4 0aba b424 9b3c 22b6 8fbd b6e5 e1bd
00000210: 965a 45bd 3911 bd3b 44f2 52bb 5f5b f03b
00000220: 612b f438 347a 18bd 9616 3cbd 417a 0dbe
00000230: ca03 31bd f794 373c ce34 c2bc cd40 7cbd
00000240: 3c67 853c 9cc5 483d 64f8 4ebe 27a1 e239
00000250: 5242 8b3d 1888 6d3c d1f8 c9bb 2819 8a39
00000260: 52b7 4abd a1b0 51bc 24e4 e4bb 4966 933d
00000270: baee 133e a349 79bc 3c04 cbb9 6a85 9738
00000280: 6ad3 2b3a 0e20 913c 8f61 83bd b172 febd
00000290: 14af 6fbd 4ef1 653c 2fe2 5d3d 965d 443d
000002a0: f442 3239 21c7 23bd ee29 d3bd 8555 0cbe
000002b0: f82a c2bc 57da 8b3c e4ff a8bc 8510 bcbd
000002c0: 90af 31bd 07d0 023c 9f76 72be 1d20 c339
000002d0: ec93 a13d 1d12 c3bc 595b 94bb 55d5 1e3b
000002e0: 041e 42bd 6657 76bc 8f27 aebd 9387 f43d
000002f0: 513e ba3c 655c 8a3c d652 8bba 90e0 383a
00000300: c961 953a fc2d 13bb 2e91 d7b9 07b8 2c3c
00000310: 3f9f c93b 7bfc a1ba bfd7 9fbb 7433 84bb
00000320: 8df1 9ab9 87ed 6b3b 21f8 a03c fee9 1c3b
00000330: 4c63 223b 39dd 073b fc8e fcba d5e1 6dba
00000340: 123d cebb f9b0 fd3a 158a ba3c fb29 3139
00000350: a58a ef3b 10a3 c239 678c d33a 18f2 283b
00000360: 5a9b 153b ff85 3d3a c6dd 233c 52e8 803d
00000370: 004c 37bc d21b 703a 8f27 52bb 8d38 1b3b
00000380: cb39 a9ba b458 13ba 88a2 ddbb d49c 003c
00000390: b4e1 e13b 43e5 9f3b 3bb8 8cbb a5bb d6bb
000003a0: 8793 bdba ecb8 883a 71f5 3fbc 7afb 9cbc
000003b0: 0f65 35bb a54d 093c 5122 b8bb 4c8d 24bb
000003c0: b705 78bb 63fa 123c ed71 633d 12e3 8d37
000003d0: 92d4 003c 8472 c73b a75a 82bb 4550 2d3b
000003e0: 9d8b 53bb 1a70 7bbb 67e9 9b3c 26d5 8a3d
000003f0: 8d2b 3cbc 6c39 9cbb 10e6 fdb9 d808 8eb8
-0.00017494016 0.022308722 -0.060296666 -0.12319236 -0.055218376 0.010538194 -0.0033573653 -0.02079865
-0.0004027205 -0.042438157 -0.115176395 -0.15821202 -0.045779698 0.036114465 -0.0144977225 -0.058990046
-0.0015342361 0.040534053 -0.21931519 0.00038197997 0.030074323 0.030007398 -0.00657908 0.002359864
-0.04996869 -0.009379796 -0.0011892315 0.10787492 -0.049189024 -0.0108073335 -0.0004500946 0.00030325179
-0.0028875954 -0.16250047 0.21230385 0.2878121 0.00216991 -0.013921379 0.09221236 -0.00081269053
0.0025533647 0.16209142 0.1275805 0.2956935 0.36975607 -0.21742156 0.07349417 0.22731856
-0.15956332 -0.25684613 0.4068496 -0.00087442814 -0.34414983 -0.42079622 0.015094529 -0.0020100959
0.23074378 0.03474533 -0.0051397746 -0.46624595 -0.20052575 -0.0075736996 0.004232155 -0.0031081464
0.00012406707 -0.1282572 0.112839155 0.0761095 0.11901826 0.0002493784 -0.14148286 -0.009928677
-0.006088299 0.15976614 0.28657457 0.1257292 0.33917806 -0.23207921 -0.10606351 0.38015294
-0.104247406 -0.28062254 0.39008307 -0.0018186563 -0.30052945 -0.3110132 0.016548492 -7.3651354e-05
0.3229111 0.05898917 -0.016433131 -0.34848872 -0.4030982 0.010895388 0.0004731147 -0.0006083974
-0.00037190047 0.024936218 -0.060985725 -0.13116895 -0.06241452 0.007822833 -0.0070800963 -0.017150547
-3.430302e-05 -0.046420842 -0.12039257 -0.16880856 -0.04846815 0.039144203 -0.013799336 -0.056355063
0.022021832 0.02839348 -0.23650458 0.0003798924 0.042524867 0.03055729 -0.0061075026 0.0022207482
-0.05468593 -0.0077049457 0.0642762 -0.040322915 0.038817745 -0.006511271 0.0011158688 -0.0006848675
-0.0005288783 0.0189384 -0.07017161 -0.11030142 -0.048182093 0.0057698754 -0.0032187859 0.007335111
0.000116429066 -0.037225917 -0.045919977 -0.13816167 -0.043216504 0.01120495 -0.02370682 -0.061585236
0.016284578 0.04901658 -0.20211941 0.00043226147 0.06799759 0.014497779 -0.0061636944 0.00026340154
-0.049491234 -0.012798459 -0.0069852043 0.07197244 0.14446536 -0.01521531 -0.00038722332 7.2250914e-05
0.00065546355 0.01771548 -0.06415092 -0.124242194 -0.058516577 0.014034582 0.054170784 0.047940813
0.00017000345 -0.039984826 -0.10310732 -0.13704498 -0.02370213 0.017071886 -0.02062983 -0.09182838
-0.04338032 0.007984168 -0.23678063 0.00037217225 0.07889542 -0.023812348 -0.004527491 0.0024236043
-0.047391906 -0.015035486 -0.08503639 0.11939921 0.022734793 0.01688976 -0.0010629545 0.00070525054
0.001139694 -0.0022457829 -0.00041116163 0.010541922 0.006153017 -0.001235857 -0.004878014 -0.004034454
-0.00029553138 0.0035999732 0.019649567 0.002394318 0.0024778424 0.0020731224 -0.0019268687 -0.0009074484
-0.0062939012 0.001935511 0.02277092 0.00016895674 0.007310229 0.00037124055 0.0016139866 0.0025779065
0.0022828192 0.0007229745 0.010001605 0.062943116 -0.011187553 0.0009159419 -0.0032067036 0.002368483
-0.00129109 -0.0005620823 -0.00676376 0.007849891 0.006893361 0.004879625 -0.004294423 -0.0065531307
-0.0014463522 0.0010431088 -0.011716233 -0.019162882 -0.0027678644 0.008380328 -0.005619325 -0.0025108634
-0.0037845203 0.00897083 0.05552857 1.6914248e-05 0.007863181 0.0060866494 -0.0039780918 0.002644555
-0.003227926 -0.0038366378 0.019032193 0.06778936 -0.011484993 -0.0047675874 -0.0004842733 -6.772735e-05

in_layer.layers.2.bias f4 [32]
00000000: f1e1 55bd 0a22 d5bd 3a9a 4abc 400e 3dbc
00000010: 0503 07be de25 67bd ed37 36bd e497 11bd
00000020: 7eb2 b73d 7eee dabd 1e81 1dbd 766a 083e
00000030: 2ef2 ca3c 9163 573e c797 153e 5838 88be
00000040: 0426 b0bc 09d6 42bd 7f89 f63c dd28 86bd
00000050: b3e4 dfbd 1f2a 283d a15c 9abd bc68 81bd
00000060: 7c26 7abc cd07 eebd c29b 75bc bbda b0bd
00000070: a807 9bbc a9e7 f3bd 9bc1 0e3d 11e5 b6bd
-0.052217428 -0.10406883 -0.012365872 -0.011539042 -0.13184746 -0.056432597 -0.04448693 -0.035545245
0.089695916 -0.1069002 -0.038453214 0.13321862 0.024773683 0.21034075 0.1460868 -0.26605487
-0.021502502 -0.0475674 0.03009486 -0.06550763 -0.10932293 0.041055795 -0.07537199 -0.063188046
-0.015267964 -0.11622582 -0.014990749 -0.086354695 -0.01892455 -0.1190942 0.034852605 -0.0893041

gat_layer_1.layer0_1.0.input_linear_layer1.weight f4 [32, 32]
00000000: 507c b538 0c29 253a 9fa0 103a 201e c738
00000010: 1b4e cb38 edd7 a638 9f15 deb6 f39e 16b6
00000020: 7d66 083a 00c9 c038 449d 2e36 ae52 8738
00000030: 329e 1637 b426 84b9 ddd5 43b8 e96d dbb9
00000040: bf9e a935 2dba d038 3ee1 cdb4 e740 da35
00000050: 6b7f d138 2088 d436 21b1 8538 5573 28b9
00000060: adfc a738 d104 62b9 b0e3 5638 6f8b b638
00000070: 79dd d538 1ac8 c838 8aed 4837 5181 c638
00000080: 9b88 83b6 44d0 97ba 9fa7 92ba c66f 09b5
00000090: 9a9d 2a36 e099 a838 ecf4 d6b6 a7d6 3cb8
000000a0: 5182 98b9 d45d 76b7 df92 39b7 15da 5bba
000000b0: 9881 56ba 15d6 22ba 807b ebb9 67dc a6b8
000000c0: 964c 8a37 360c 0fb8 1856 9137 1752 1db8
000000d0: d166 81b8 9a73 0138 c8ad d438 ac46 36ba
000000e0: 4a2e f535 7d1e 02ba b1be 1639 75b6 af37
000000f0: c118 bbb7 4e66 eb36 bdf5 2c37 d5cc 94b7
00000100: c745 91bc 210e 8c3e 4f3d 4d3e 2666 3bbc
00000110: 9444 80bc f298 c9bc 8bef e9ba 9b07 2fba
00000120: 2a58 35bd 7e8e 72bc 86c1 033a fa6c 513e
00000130: 42db 5a3e 852d 3e3e ffeb ae3d 08d7 9e3c
00000140: 2e7b ecb9 07ba 2dbc 98a4 0236 96be 213b
00000150: e4ac b13c ffbf 2b3b cc8c 0cbd 8806 bf3d
00000160: a796 0cbc 5b80 0c3e 90c1 c1bc 4fd2 92bc
00000170: f4f4 56bc 30ce 72bc f7f8 d5bb 88a4 4cbc
00000180: f737 0cbd 2dee a33e eed7 c23e f195 dbbc
00000190: 0b84 11bd 3019 a0bd 19e6 10bb ffa3 98ba
000001a0: 166c f83c 7f1d 0abd 673d 153a 40f1 a43e
000001b0: 9911 543e b59c 9a3e 87cc 953d 9854 68bd
000001c0: fb18 d6ba 75f3 bdbc 3708 ea38 643f 043b
000001d0: b5d1 023d eb32 1b3b 6235 81bd 95c0 883e
000001e0: 978d c6bc cb0e 493e e2f0 80bd da82 11bd
000001f0: 3412 c1bc c9fa efbc 20ec febb bc57 d9bc
00000200: ad98 2bbd a20f 933e ce4c a73e e2ce ffbc
00000210: f531 23bd 02eb 76bd 3745 14bb be3f a9ba
00000220: 4989 59bd 094d 1dbd 71bf 033a 2a82 973e
00000230: 27ca 6a3e 82b0 9c3e b47f ccbd a26a cbbd
00000240: 7ace faba 51ac 01bd c85c 4c39 932b fa3a
00000250: d12f fb3c b26c 153b 1f64 70bd ab98 833e
00000260: 0f23 cbbc 3074 773e 3ca1 83bd b2e9 2bbd
00000270: f533 17bd d95b 0abd a12b 03bc b3ce febc
00000280: 4d4c 0eb9 cfd7 143a e0b1 143a b02c 96b8
00000290: 51eb 42b9 51b1 8fb9 1c1d 6e35 139f 3db9
000002a0: ba77 41ba 820b 5239 c561 aab8 6887 163a
000002b0: ba44 143a 0c8e 9038 2244 5cba 9205 493a
000002c0: 5896 0e39 0295 2339 12db 4c39 9ae0 83b9
000002d0: daa8 133a 64be ef38 343a 11b8 0fb4 1c3a
000002e0: df9d 6238 3f22 063a f2da 97b8 162e c9b8
000002f0: d6fe 7237 ce53 d5b8 fd7c 4139 1558 a2b8
00000300: f06b 80b9 a859 a73a 9a56 a53a 8798 b4b8
00000310: d11a d0b9 ae3b 49ba 27dd 8cb9 e376 83ba
00000320: b153 a6ba 914b f0b9 0a8d 14b9 7189 9e3a
00000330: 9819 9f3a 05c2 853a 8bc6 fdba 4f84 983a
00000340: 8919 dd39 6e7e e2b9 7062 283a 1b32 50ba
00000350: 6b66 863a 6446 6039 0f3d ffb9 d115 9d3a
00000360: 0a4b 9fb9 d404 933a 3617 8eb9 c6e2 41b8
00000370: 801d eeb9 61f1 81b9 0982 bc39 9061 07b9
00000380: 6993 213a ebbe 4fba 25e0 41ba 9403 883a
00000390: 2759 a13a 5893 2a3b 9b60 38b9 51d6 d4b9
000003a0: dee8 12bb 1e6e 7339 791b d3b8 83eb c3b9
000003b0: 0a18 d0b9 0189 76bb 54b1 65bb c091 553a
000003c0: e6c9 e538 6c62 4239 c23f 8939 6544 9bb9
000003d0: 92f5 fc36 47e2 b038 7829 1e3b 23c6 41b9
000003e0: 9c40 a93a 5b2b edba c3e0 1d3b ce4e 5d3a
000003f0: dbf1 3b3a c500 a43a c74e 8939 ace3 7d39
8.6539076e-05 0.0006300367 0.00055170985 9.494671e-05 9.6943426e-05 7.955716e-05 -6.6186326e-06 -2.2444262e-06
0.000520326 9.1927126e-05 2.601956e-06 6.452702e-05 8.977529e-06 -0.00025205838 -4.66908e-05 -0.00041852825
1.2637682e-06 9.952891e-05 -3.834811e-07 1.6261155e-06 9.98963e-05 6.3339394e-06 6.374927e-05 -0.00016064693
8.010245e-05 -0.00021554834 5.1233626e-05 8.704408e-05 0.00010197884 9.574015e-05 1.1976235e-05 9.465463e-05
-3.920007e-06 -0.0011582454 -0.0011188871 -5.119913e-07 2.542371e-06 8.039526e-05 -6.4062096e-06 -4.5022603e-05
-0.00029088793 -1.4684589e-05 -1.1061055e-05 -0.0008386684 -0.0008182763 -0.000621171 -0.00044914708 -7.95655e-05
1.6486545e-05 -3.410523e-05 1.7325438e-05 -3.750817e-05 -6.1703504e-05 3.086366e-05 0.00010141317 -0.000695328
1.8267394e-06 -0.00049636496 0.00014376153 2.0946589e-05 -2.2303664e-05 7.0154556e-06 1.0309214e-05 -1.7738357e-05
-0.017733468 0.2735453 0.20042919 -0.011437928 -0.0156577 -0.024609063 -0.0017847879 -0.00066768535
-0.044273533 -0.014804481 0.00050260907 0.20451728 0.21372703 0.18572052 0.085411064 0.019389644
-0.00045105204 -0.010603434 1.9467316e-06 0.0024680248 0.021688886 0.0026206968 -0.034313962 0.093274176
-0.00858084 0.13720839 -0.023651868 -0.017922549 -0.013119925 -0.014819667 -0.006529923 -0.012490399
-0.03423306 0.3201765 0.38055366 -0.026804896 -0.035526317 -0.07817304 -0.0022109805 -0.0011645554
0.030324977 -0.033719536 0.00056930486 0.3221531 0.20709838 0.30197683 0.07314401 -0.0567213
-0.0016334349 -0.023187378 0.000111595196 0.0020179385 0.031938273 0.0023681473 -0.0630901 0.26709428
-0.024237437 0.1963455 -0.06295945 -0.03552518 -0.02356825 -0.029294388 -0.007779613 -0.026531093
-0.04189365 0.28722864 0.32675785 -0.03122658 -0.039842565 -0.060282715 -0.0022624263 -0.0012912673
-0.05310944 -0.038403545 0.00050257804 0.29591495 0.22928677 0.30603415 -0.09985295 -0.09932448
-0.0019135021 -0.031658474 0.0001948952 0.0019086472 0.03066245 0.0022800383 -0.058689233 0.25702414
-0.02479699 0.24165416 -0.064272374 -0.041970916 -0.036914784 -0.033779 -0.008006007 -0.031104421
-0.000135706 0.000567791 0.00056722574 -7.160881e-05 -0.00018588944 -0.00027407196 8.870427e-07 -0.00018083704
-0.00073802064 0.00020031448 -8.124443e-05 0.0005742223 0.0005655993 6.8929134e-05 -0.00084024866 0.00076683715
0.00013598183 0.00015600401 0.00019536566 -0.00025153608 0.0005632766 0.00011431871 -3.46249e-05 0.00059777586
5.4029628e-05 0.00051167974 -7.241023e-05 -9.593011e-05 1.4483658e-05 -0.00010172241 0.00018452476 -7.7411685e-05
-0.00024494482 0.0012767809 0.001261431 -8.611479e-05 -0.0003969283 -0.00076764345 -0.00026867652 -0.0010029938
-0.0012689737 -0.0004583267 -0.00014166921 0.0012095404 0.0012138365 0.0010204917 -0.0019361539 0.0011636111
0.0004217143 -0.00043200277 0.000642336 -0.00079420366 0.0010253912 0.00021388527 -0.00048682882 0.0011984651
-0.00030382752 0.0011216649 -0.00027101644 -4.6225985e-05 -0.00045416877 -0.0002478464 0.00035955038 -0.00012910948
0.00061636284 -0.00079248723 -0.0007395766 0.0010377043 0.0012309895 0.0026027765 -0.00017583596 -0.0004059547
-0.0022416632 0.00023215308 -0.00010066381 -0.00037368768 -0.00039690762 -0.0037618282 -0.0035048323 0.00081470236
0.000109571774 0.00018537947 0.0002617818 -0.00029614862 7.5387734e-06 8.4344814e-05 0.0024133604 -0.00018479726
0.0012912932 -0.0018094586 0.0024090267 0.0008442224 0.0007169523 0.0012512436 0.0002618937 0.00024212775

gat_layer_1.layer0_1.0.input_linear_layer1.bias f4 [32]
00000000: c62a 52b8 42e8 66ba 43e0 193d e356 7a3d
00000010: b0db 563e dbf5 65ba bd9d 3bbb b386 87bb
00000020: 2146 1eba f979 e43c 9678 083d ca9a 20ba
00000030: 7b32 f4b9 8068 3db9 748c be3d 9a8a d7b8
00000040: 3a19 2cbb 52bf 00ba a2c5 843d 3830 79b9
00000050: 91c0 b93d 27da 263d ea48 6534 d309 16bb
00000060: 6b9f 22b9 8606 99ba 9584 12ba 7445 98bb
00000070: 563c b3ba c3dc dbb8 b868 2cba 5454 feb8
-5.0107737e-05 -0.0008808413 0.03756739 0.061118018 0.20982242 -0.0008772292 -0.0028627955 -0.0041359304
-0.00060376717 0.027890192 0.033318125 -0.0006126581 -0.00046576918 -0.00018063374 0.09304133 -0.000102778155
-0.0026260153 -0.00049113214 0.06483008 -0.00023764453 0.09069932 0.04073539 2.1353813e-07 -0.002289404
-0.00015508912 -0.0011674918 -0.0005589214 -0.0046469513 -0.0013674598 -0.00010483854 -0.00065768836 -0.00012127371

gat_layer_1.layer0_1.0.input_linear_layer2.weight f4 [32, 32]
00000000: f935 eb3a 1ead 11bd 6f83 1e3c bd0d 993b
00000010: b74d 993b 5acf 1d3b e465 0fbb 2637 4abb
00000020: fb65 ce3c 0352 8c3b d128 b5bb abe7 51bc
00000030: de1d 7f3c 5cf9 4abc a513 18bd 5d62 4c3c
00000040: cfa0 383a 8aa9 953b 7b7a 803b d04e 9cbb
00000050: add7 3c3c 9c39 9839 7126 aa3b d54c babb
00000060: b563 e03b 6206 f6bb 10f2 ca3b 56cb 263b
00000070: 9447 a03b 2646 aa3b a024 f73a 5a76 9a3b
00000080: a499 8ebd 5716 a53e b5e7 933e a8d4 cfbd
00000090: 9d49 38bd 7d66 173d 45d8 3cbc 2659 d3bb
000000a0: fb81 18bc cc4c dbbd 6714 133b d224 0b3f
000000b0: 4cd1 f63e 3321 e23e abbd cd3b 2504 9ebd
000000c0: ffa0 c73b be3f f2bc cdff 7b3c ce00 babb
000000d0: 2179 2abe 5f43 9b3b 8b4a 063d e306 b43e
000000e0: 2a6a 363c f97a ed3d cbfa e83c bd1f 28bc
000000f0: feeb 3fbd d9ed d5bd a9d8 c73b 5c08 a53c
00000100: 4a44 8f3b 324a 693d c36a a63c 8c36 273c
00000110: 1584 2f3b 9f23 4c3c 7c25 763b 5ca1 1fbc
00000120: b5de f13d d602 eeba f999 523b c900 87bc
00000130: 30c2 2e3c d89f 8cbd e592 a9bd 5b62 f03c
00000140: 67f8 ccbb f42c 383c dab3 4a3c 823b 74bb
00000150: 88e4 143d 9569 34bb e3e6 693c b46e e8bc
00000160: 8886 ff38 aeea 76b9 2f5c 1f3d 8488 96ba
00000170: d78d 193c d292 b63b 10ae debc 1aba 223b
00000180: eae0 aa39 aebc f2bc e46b ef3c 3514 ceb9
00000190: db68 ba3a 513f 9d39 9d39 bfba c0bd 133b
000001a0: d541 21bc fa2c efb9 8feb 833b 9e29 6dbc
000001b0: 8a85 f53a 4ea7 ad3a 68cb e83b d7e0 4d3b
000001c0: eb0d 943b 926e 7039 4d01 b7bb 8eaf 283b
000001d0: 1e2c c93b 8e47 de3b d217 463a 5134 c43b
000001e0: 161d 113b aeea b5bb 76ae 0b3b f6f2 4b38
000001f0: f822 cc3a d15f 8b3a 9b34 e7ba be7f 923a
00000200: f22b b8ba 04b3 2a3d 85fc 82bc cc23 7d3a
00000210: e1fa 34bb a7aa 5bba 7346 aabb cdd3 6abb
00000220: 2959 773c 47e6 863b bafb 93bb 15e8 c4bc
00000230: 4c79 403c 12c3 00bd 80d6 4e3c c605 e13b
00000240: 7361 6dba ed37 bd3b a55b ba3b 1ec2 eabb
00000250: 992f e83b 535e 8d3b 2a91 6d3b 50cb cf3b
00000260: c4a1 383b c7cc 09bc 65f9 d83b d2ec 28bb
00000270: 9e9d d83a 8eeb 05ba 4490 693c ad7d cd3a
00000280: 73c4 75bc 1114 06bd 0c9f a0bd d1af 1bbc
00000290: 3a74 1cbc 44a2 8dbc 11c6 89bb 99aa 403a
000002a0: 7aff 8e3a 83f3 2abc 57e0 28bb 87db de3c
000002b0: 283d 3a3d 30b6 063d 0b46 70bd eb4e 62bc
000002c0: eb6a 8dba 87a6 15bc b242 cc3b e416 99bb
000002d0: 54b7 043c b11c 7f3b 551a e9bb 0226 f6bc
000002e0: c62b dbbb a6be 483c 3c2f b2bb b88d 5bbc
000002f0: 782c 21bc 02af 1bbc 2099 893c b51d 09bc
00000300: 2b7f 64bb a3d3 973b 95de 9fbc 7f65 353a
00000310: 06ff b6bb 8e76 38bb 4520 c4ba 3ffd c1bb
00000320: bedc f6bc 2006 32bb 0139 b7bb 2fc5 e03c
00000330: b84a 673b 52ca a4bb 1e7a 253d 9cb8 5f3a
00000340: d8de 2fbb f656 9eb9 8c26 313c 8cdb 0abc
00000350: 3b95 b23b afa2 063b a1e4 76bb 9183 1e3c
00000360: 6a77 dcba d7cc afba 7336 8eba c51d a0bb
00000370: b303 0abb 5e66 54bb 8696 213a a9b6 acba
00000380: 7982 73bb acce 6e3c d228 433d 6ec1 a5ba
00000390: 425b 2cbb b6a3 29bb 780c 9eba 30b1 29bc
000003a0: 0655 423d 647c c9ba 1908 16bc 8626 e2bc
000003b0: 9d0c c2bc 708c 503c 18c9 653c dc22 51bb
000003c0: ecd1 2fba 053a 58b9 281b 183c 7bf5 76bc
000003d0: 2d76 433a 77c0 063c 6f0a 01bb 4a69 61bc
000003e0: d8cd 13bb c529 10bb 447c a8ba 722c 88bb
000003f0: 0482 0dbb 3560 f8ba ff89 cb3b 0ad4 2cbb
0.0017945162 -0.035565488 0.009674891 0.004670827 0.004678454 0.002407989 -0.00218808 -0.0030855625
0.025195112 0.0042822375 -0.0055285473 -0.012811582 0.015571086 -0.0123885535 -0.03712811 0.0124746235
0.00070430053 0.00456733 0.003920851 -0.0047701374 0.0115260305 0.00029034622 0.005192571 -0.0056854286
0.0068478235 -0.007508085 0.006193407 0.0025450788 0.0048913453 0.0051963506 0.001885552 0.0047138156
-0.069628984 0.32243606 0.28887716 -0.10147983 -0.044992078 0.036962975 -0.011526172 -0.0064498363
-0.0093083335 -0.10708007 0.002244258 0.5435306 0.48206556 0.44165954 0.0062787137 -0.07715634
0.0060921903 -0.02957141 0.015380812 -0.0056763655 -0.1664777 0.004738256 0.032785933 0.35161504
0.01113371 0.11595721 0.0284399 -0.010261473 -0.04685592 -0.104457565 0.006098826 0.020145588
0.0043721544 0.056955524 0.02031458 0.010205876 0.0026781608 0.012459665 0.0037558964 -0.009743061
0.11810056 -0.0018158804 0.0032135232 -0.016479867 0.010666415 -0.06866425 -0.08279971 0.029343775
-0.006255198 0.011241186 0.0123719815 -0.0037266915 0.036350757 -0.0027528752 0.014276239 -0.0283731
0.00012184406 -0.00023547813 0.038906273 -0.0011484777 0.009372196 0.0055717016 -0.027182609 0.0024830163
0.000325925 -0.029630985 0.029226251 -0.00039306437 0.0014221923 0.00029992548 -0.0014589314 0.002254352
-0.009842356 -0.00045619142 0.0040258835 -0.014475254 0.0018731814 0.0013248713 0.007104326 0.0031414533
0.0045182607 0.00022929374 -0.005584872 0.0025739404 0.0061392924 0.0067834323 0.000755665 0.005987682
0.002214258 -0.0055516576 0.0021313704 4.8625247e-05 0.0015574386 0.0010633414 -0.0017639579 0.0011176986
-0.0014051183 0.04167463 -0.015989551 0.0009656518 -0.0027615356 -0.0008379616 -0.0051963865 -0.003583181
0.015096941 0.0041168067 -0.004516092 -0.024036447 0.011747669 -0.031436034 0.012624383 0.0068671433
-0.00090553536 0.005774489 0.0056871944 -0.007164254 0.007085752 0.004314223 0.0036249855 0.0063413754
0.0028172592 -0.008410639 0.006621527 -0.0025775922 0.0016526466 -0.0005108648 0.014255587 0.0015677713
-0.01500045 -0.03273398 -0.07842836 -0.009502367 -0.009549195 -0.017289288 -0.0042045196 0.000734964
0.0010909878 -0.010434034 -0.0025768483 0.027204288 0.04546848 0.03288859 -0.05866055 -0.013812761
-0.001078931 -0.0091339415 0.0062335366 -0.004671918 0.008100349 0.0038927014 -0.0071137347 -0.03004742
-0.006688568 0.012252485 -0.0054377597 -0.013400488 -0.009837262 -0.009502174 0.016796649 -0.008368899
-0.0034865837 0.0046333834 -0.019515315 0.0006919726 -0.0055846004 -0.0028146836 -0.001496323 -0.005920082
-0.030134555 -0.0027164295 -0.005591512 0.027437774 0.0035292339 -0.0050290013 0.040399663 0.0008534284
-0.0026835706 -0.000302009 0.010812413 -0.008475196 0.0054499186 0.0020543744 -0.0037672895 0.009674923
-0.0016820256 -0.0013412487 -0.0010849967 -0.0048863613 -0.0021059334 -0.0032409648 0.00061640923 -0.0013176996
-0.0037156625 0.014575642 0.04764635 -0.0012646148 -0.002629951 -0.0025884933 -0.0012058159 -0.010357186
0.047444366 -0.0015372154 -0.009157204 -0.02760626 -0.023687655 0.012728795 0.014024995 -0.0031911647
-0.0006707001 -0.00020620979 0.009283818 -0.015073176 0.0007456269 0.008224598 -0.0019690057 -0.013758013
-0.0022553112 -0.0021997553 -0.0012854417 -0.004155689 -0.0021592388 -0.001894957 0.006211519 -0.0026371502

gat_layer_1.layer0_1.0.input_linear_layer2.bias f4 [32]
00000000: 56c6 e03b 7d28 fc3c ea79 1abb 0f3b 2bbc
00000010: 4b9a 8dbc d9ff df3c 1d9b b2bc c644 aabc
00000020: a38e a53d 1918 36be 81e2 0f3c c3f5 c7ba
00000030: a55f 60bc 5a0e 88bd 2651 00be 268d 283e
00000040: 2071 8a3c b431 143d 1da0 883c e078 70bc
00000050: 13fa fb3c 85a7 80bd fb04 af3d cf48 073d
00000060: 3290 12bd d428 9abd 0fc4 c1bd 193c 02bd
00000070: 7fa4 393c ed3c cfbb 2c34 19bd fca8 17bd
0.006859581 0.030781025 -0.0023571202 -0.010451092 -0.017285487 0.027343677 -0.02180248 -0.020784747
0.080838464 -0.1778263 0.00878203 -0.0015255738 -0.013694678 -0.06643362 -0.12530956 0.16460094
0.016899645 0.036180213 0.01667791 -0.014677256 0.030758893 -0.06281952 0.08545872 0.03302842
-0.035782047 -0.075273186 -0.09461223 -0.031795595 0.011330723 -0.0063244016 -0.03740327 -0.03702639

gat_layer_1.layer0_1.0.a_1.weight f4 [1, 32]
00000000: 2230 62b7 63e7 f8b8 b24c 87be 8d47 d9be
00000010: 616f ecbe 3e5e 39ba 5ea1 edba 2893 99ba
00000020: 26e6 94b9 1d74 2aba aba3 cdbc 207e cf39
00000030: 17c7 5fb7 fa73 c737 948e 5dbe 59e9 91b8
00000040: 38a0 cfba 8484 6439 9f1f c5bc 7400 98b7
00000050: cf31 91be 491c 16be 0dcf 1837 677c e5b9
00000060: 0377 4b38 8222 07ba 6b5d 7fb9 a38a 5cbb
00000070: f42b acba 5456 5db5 00e5 b2b2 bd8e 3cb8
-1.34818565e-05 -0.00011868661 -0.264257 -0.424374 -0.46178725 -0.0007071233 -0.0018129756 -0.001171683
-0.00028400234 -0.00065022876 -0.025102457 0.00039576087 -1.333819e-05 2.3776654e-05 -0.2163642 -6.957603e-05
-0.0015840596 0.0002179314 -0.02406293 -1.8120023e-05 -0.28358313 -0.14659227 9.108114e-06 -0.0004377097
4.850981e-05 -0.00051549834 -0.00024353496 -0.003365197 -0.0013135658 -8.245454e-07 -2.0826064e-08 -4.495563e-05

gat_layer_1.layer0_1.0.a_2.weight f4 [1, 32]
00000000: d48d 343b 31b1 92be 7329 6c3c f5ad b33b
00000010: 6632 a9b8 c254 503c 9e56 bbb9 9d1c c139
00000020: c547 503e a011 f13b 529c ca3b 5bc0 223c
00000030: 68cf 93bc f1b6 15bc d59a 6d3e a622 87bc
00000040: adaf d138 b7b8 93ba 7cb0 513b eff1 77bb
00000050: db3c 6fbd 44d0 8139 cd50 4abe 6720 96bc
00000060: 4902 00be 677e bbbb 6394 3d3c ecef 50bb
00000070: f617 ea38 21e5 253a c004 84b9 12b3 63b9
0.0027550356 -0.2865081 0.014414179 0.005483384 -8.0679354e-05 0.01271552 -0.00035731954 0.00036833147
0.20339878 0.0073568374 0.0061831856 0.009933556 -0.018043235 -0.009137855 0.23203595 -0.016496014
9.998619e-05 -0.0011270259 0.0031996062 -0.0037833413 -0.058407646 0.00024759967 -0.19757386 -0.018325998
-0.12500872 -0.0057218554 0.011571023 -0.0031881286 0.000111624526 0.00063283934 -0.0002518054 -0.00021715116

gat_layer_1.layer0_1.1.input_linear_layer1.weight f4 [32, 32]
00000000: 94ed 26ba 5b42 083b 6fa3 073b 4954 adb9
00000010: abd8 82ba 0ea0 9fba cc24 b4b7 a76b 5fba
00000020: 1b14 02bb 47d6 443a 102d 7d39 0988 053b
00000030: 8cd9 033b 5b23 9539 362e 15bb abf5 113b
00000040: 53cd 5ab9 4c00 283a 6ca1 78b7 ffcc 01b9
00000050: 439d fe3a 2cf2 04ba 0bb4 bcb8 1bf5 063b
00000060: 095e 98b9 cba8 e03a 9a6e 89b9 053d 18ba
00000070: 0f23 0838 72d2 1eba 8167 1dbb 98ad 0dba
00000080: 55c9 c835 1959 3336 4ddb 3fb7 9926 0335
00000090: 3d5e c035 86b2 9c36 e773 1c35 7dcf f433
000000a0: 8bc7 223a 87bb e1b5 e596 18b6 8848 3fb8
000000b0: f56a 2db8 9b74 c8b6 63d6 5b39 3e95 a338
000000c0: 157e 6c35 f286 bbb5 9db4 deb5 a2da 0db5
000000d0: 81f8 18b7 b6bf 5536 0366 8b36 a9d3 5ab8
000000e0: 5927 7435 bee8 68b7 e7c1 d436 91fc 76b4
000000f0: a9be e433 382e 9235 5516 d736 c175 2c36
00000100: 4d5a 6d39 ed3d 4239 4432 4339 d3cb 4039
00000110: 077c a838 6baa 95b8 6dfc 0eb9 c6fa c138
00000120: 2042 a0b9 db86 bbb6 2f67 dab8 a884 7a39
00000130: f05a 8239 a5f2 a839 bd00 e9b9 5f1a d239
00000140: 438c 3338 422b 93b7 ea7a 1939 ca20 c0b7
00000150: c6d1 9a39 1abe 0839 52ab 9bb8 2bb3 8f39
00000160: 08e3 b2b8 8124 b839 cec0 0fb8 1b7c 8839
00000170: 8254 e238 7665 6c39 b270 ca39 12d3 ea39
00000180: e0ea efbc 1448 b03e 7578 893e a78b a4bc
00000190: c78d f4bc 5cb0 17bd a931 a5ba 51a1 18bb
000001a0: 53fe ccbd fd6d c3bc 6a92 eb39 37a0 173e
000001b0: 923f 1d3e fa31 573e 9a2a 823d 0803 993d
000001c0: 8807 20bb 6acb d4bc 319e 053a 1ea3 f63a
000001d0: 5235 323d 0644 e33a a117 78bd b004 6d3e
000001e0: 5dae 8dbc 1244 e93d 24a2 8cbd 86d2 ecbc
000001f0: cfe0 abbc cc50 c3bc d35e fbbb 58e5 babc
00000200: 9f2c 8d39 7497 9139 7060 9639 804a 9338
00000210: f351 c338 dfa8 bbb8 e45a e7b8 203e e138
00000220: 9bd5 07ba 43da 2f38 09de bfb9 4f95 ca39
00000230: 5981 d639 75d5 f639 4cb0 d3b9 3e56 383a
00000240: c535 0d38 50ff 2fb5 c249 5339 ba98 2fb9
00000250: 4599 da39 9e08 503a 72a9 0cb9 4251 ea39
00000260: 7a9a 19b9 5c7e 0d3a c496 62b8 34ba be39
00000270: 10b2 0c39 b522 1539 870b 823a ec06 083a
00000280: 48d1 a2b6 7a40 a4b8 336b b8b8 0947 73b6
00000290: ba00 c4b6 a2d6 9535 7377 cd36 0075 00b7
000002a0: 8950 fd39 c7af 80b7 812b 24b6 6d5f f0b8
000002b0: 663c eab8 a72c b8b7 d4a2 1e3a 5869 34b8
000002c0: 7426 ae36 de3c 6eb7 5fc8 01b6 5f19 0db7
000002d0: 230c e9b7 e191 4937 ae02 e8b6 8024 f2b8
000002e0: 0b57 c1b6 23fd 2eb8 8857 8db6 1969 27b7
000002f0: 6a43 54b7 aaf5 4eb6 cfc3 a337 b136 f9b6
00000300: 7c89 bbbc dd4a 4c3e cbb4 433e ac47 72bc
00000310: a1ff adbc 558e f6bc 77af a5ba 94fd fcba
00000320: 9727 dbbd 2637 9bbc 11be 123a 3223 553e
00000330: ab5d 313e 4e12 3e3e eb5f 12be acde 993c
00000340: 3121 e7ba 31c1 93bc d5df ba39 cce6 083b
00000350: 54a3 083d 212a 003b 56c5 3dbd 964f 313e
00000360: 9032 41bc 33ef 043e c82e 07bd bda6 b8bc
00000370: 9578 75bc 073e 99bc 7bca e9bb 5cfe 90bc
00000380: 3747 bcbb e7a4 dc3d 28a5 083e 6a22 81ba
00000390: 6bb0 8dbb e8ec 15bc a9b4 19ba 2a54 33ba
000003a0: 3977 67bd c5ce 62bb 2c27 25b9 bf7c b83d
000003b0: 001b a13d d7af 953d fb6c 1ebd 3bdd cabc
000003c0: 6d59 ad39 7ec8 b3ba f008 8639 29fa 273b
000003d0: a8a0 3d3c 9429 d53a 937f 48bc c32a ef3c
000003e0: b856 3dba fdfe 0d3d 51bc 10bc de3d b7bb
000003f0: 0eae 40bb 445f 5fbb 21cf 83bb c1d9 7fbb
-0.00063677994 0.0020791504 0.002069678 -0.0003305993 -0.0009982785 -0.0012178437 -2.1474807e-05 -0.00085228164
-0.001984841 0.00075087365 0.00024144747 0.0020375273 0.0020118682 0.00028445837 -0.002276314 0.0022271674
-0.0002086659 0.00064087356 -1.4819536e-05 -0.00012378766 0.001942553 -0.0005071487 -8.998074e-05 0.0020592872
-0.0002906176 0.0017140148 -0.0002621308 -0.00058074325 3.2457578e-05 -0.00060585805 -0.0024017992 -0.00054045906
1.4959757e-06 2.672494e-06 -1.1435547e-05 4.885747e-07 1.4332542e-06 4.669945e-06 5.828319e-07 1.1399877e-07
0.0006209544 -1.6818384e-06 -2.2737597e-06 -4.56055e-05 -4.1346026e-05 -5.974039e-06 0.00020965333 7.800244e-05
8.8100325e-07 -1.397186e-06 -1.6592854e-06 -5.2844746e-07 -9.117765e-06 3.1851064e-06 4.1543985e-06 -5.2172374e-05
9.095434e-07 -1.3882467e-05 6.3406655e-06 -2.3002418e-07 1.0651758e-07 1.0891299e-06 6.410099e-06 2.569854e-06
0.00022635721 0.00018524351 0.00018615375 0.00018386477 8.033966e-05 -7.1366165e-05 -0.00013636211 9.249667e-05
-0.00030566845 -5.5887335e-06 -0.000104142695 0.00023891276 0.00024863286 0.0003222424 -0.00044441773 0.0004007397
4.2807555e-05 -1.7543909e-05 0.00014637006 -2.2903452e-05 0.00029529462 0.00013040789 -7.422887e-05 0.00027408576
-8.529989e-05 0.00035122412 -3.427342e-05 0.00026032407 0.000107922606 0.00022544511 0.00038612407 0.00044789218
-0.029286802 0.3442999 0.26849714 -0.020086123 -0.029852761 -0.037033424 -0.0012603301 -0.0023289511
-0.10009446 -0.023856157 0.0004493178 0.14807211 0.15356281 0.21015158 0.06355782 0.07471281
-0.0024418551 -0.025975902 0.000509712 0.0018816923 0.04350788 0.0017338998 -0.06056941 0.2314632
-0.017295057 0.113899365 -0.06866863 -0.02890898 -0.02098122 -0.023842238 -0.007671216 -0.022814438
0.0002692686 0.00027769397 0.0002868208 7.023383e-05 9.313589e-05 -8.9483096e-05 -0.00011031868 0.00010740408
-0.0005181671 4.1926523e-05 -0.00036595788 0.00038639686 0.00040913632 0.00047079814 -0.00040376408 0.0007031894
3.3667096e-05 -6.556411e-07 0.00020150005 -0.00016746196 0.00041694395 0.00079358544 -0.00013414564 0.000446925
-0.00014648764 0.0005397552 -5.402301e-05 0.00036378356 0.00013417774 0.00014222677 0.0009921648 0.000518902
-4.8523398e-06 -7.832139e-05 -8.793771e-05 -3.625117e-06 -5.8413398e-06 1.1163831e-06 6.123382e-06 -7.656636e-06
0.00048315924 -1.5340642e-05 -2.4463227e-06 -0.00011461866 -0.000111692396 -2.1955302e-05 0.0006051485 -4.3013453e-05
5.1900806e-06 -1.4200077e-05 -1.933913e-06 -8.410162e-06 -2.7781416e-05 1.2014499e-05 -6.9144508e-06 -0.00011546258
-5.7619814e-06 -4.1720585e-05 -4.2123174e-06 -9.978446e-06 -1.2651881e-05 -3.0839387e-06 1.9522295e-05 -7.427145e-06
-0.022892706 0.19950433 0.19111936 -0.014787596 -0.021240057 -0.030097166 -0.0012640794 -0.0019301646
-0.107009105 -0.018947195 0.000559778 0.20814207 0.17320888 0.1856167 -0.14294402 0.018782936
-0.0017633793 -0.018036457 0.00035643452 0.0020889519 0.033358887 0.001955636 -0.046330772 0.17315516
-0.01179184 0.12981872 -0.0330036 -0.022540445 -0.014982362 -0.018706335 -0.0071347333 -0.017699413
-0.005745794 0.1077364 0.13344252 -0.0009852175 -0.004324009 -0.009150721 -0.0005863407 -0.00068408495
-0.056510184 -0.0034608108 -0.00015750219 0.090081684 0.07866478 0.073089294 -0.03867815 -0.024763694
0.0003306376 -0.0013716368 0.0002556513 0.0025631285 0.011573948 0.0016263002 -0.012237447 0.029195195
-0.00072227 0.034667004 -0.008833961 -0.005592092 -0.002940062 -0.0034083882 -0.0040224944 -0.0039039704

gat_layer_1.layer0_1.1.input_linear_layer1.bias f4 [32]
00000000: 108f 12bb 0ed8 abb9 9283 74ba c402 e13d
00000010: 6c78 e0ba 2070 20ba e152 d23d 1df8 8d3d
00000020: 79c6 b0b8 2447 bc3d 58ab 2b3e b215 53bb
00000030: ebe7 0abc 252a 213e 0d2f c9b9 1fc3 ab3d
00000040: de88 d7bc 741b 29bc 57b5 3d39 6972 3b3c
00000050: 47a2 be3d 7bc5 bc3c 5cd0 d2b9 851b 343e
00000060: b1e2 503e 4b07 033e 54c9 a93d 4787 253e
00000070: 1944 0339 8ba1 b5bb 2975 e83d 949e dbba
-0.0022363104 -0.00032776635 -0.0009327467 0.109868556 -0.0017125732 -0.00061202236 0.10269714 0.069320895
-8.4293024e-05 0.091932565 0.16764581 -0.0032208976 -0.008478145 0.15738733 -0.00038372763 0.08386826
-0.02631038 -0.010321487 0.00018091999 0.011440852 0.09308296 0.023043385 -0.0004020956 0.17588623
0.20398976 0.12795751 0.082903534 0.16164885 0.00012518502 -0.005542939 0.113504715 -0.0016755634

gat_layer_1.layer0_1.1.input_linear_layer2.weight f4 [32, 32]
00000000: 8bf6 a8bb 5224 73bc 7326 9f3c d9ef 6b39
00000010: 5a1d 1dbb 2638 62bb 0b8a 05bc a6c4 343b
00000020: 7843 4f3d 34e1 a839 d078 9c39 8282 c5bc
00000030: 7147 99bc c373 aebc 5d72 bbbd cbdb 723b
00000040: bdd7 d33a 5e6d 543a a2ee f03a 3543 46ba
00000050: c206 2a3c eb52 ce3b a881 223b 150b b8bc
00000060: 9b9d 2c3b b600 a0bb a40b 703b 1bc9 bdbb
00000070: eaab f539 c408 41ba a2d0 39bb 645c deba
00000080: 00d9 4dbe a4f9 253d 5dfa 7b3d 1275 88be
00000090: c5d2 3ebe 602c a6be 79b2 083c 697b 6abc
000000a0: b5b4 79be 0b4b e4bc b6e0 80bc 9943 1f3e
000000b0: 0c25 623e 2b20 733e 3454 3f3d 6c85 f5bd
000000c0: e79c 3d3b e650 03be 9d06 2cbd 9e7b 253c
000000d0: 77a8 0ebe f774 cb3b e729 cfbd 80ee 2a3e
000000e0: 9a99 46be 6b63 b43c 252b acbd 6ad2 babd
000000f0: a298 a7be e6e2 22be 1f35 37bd c8e8 5abe
00000100: 2fb4 bd3c d25f 3b3d e9ca 1a3d 07c1 af3c
00000110: 9cfb d23c 6da9 9d3d d152 153c 66aa 1ebc
00000120: 3e12 5abd d931 bb3c 9eaa 6c3b 1285 273d
00000130: cfb3 0b3d 8894 97bd 0fb6 e13c 8bbd fe3d
00000140: 874e a7bb d92d ae3c a443 943c bbaf 1dbb
00000150: 1450 593d 48d2 4cbb c048 033d d775 10bd
00000160: ded6 bc3c 841b c2bd 7112 663d a423 463c
00000170: 183b 003d ca54 093d fc5f a1bc bb9c 073c
00000180: 7fd9 90b9 5f05 a9bc 9c11 b33b 6c19 edba
00000190: f2ef ae3a ce05 883a 9fda 0dbb a4f5 363b
000001a0: 61d4 a13d e092 ca36 a680 193c f828 333d
000001b0: 829e c039 6007 a93c ad17 00bd daeb 983c
000001c0: ab70 283c 115f 95b9 b55c 3fbc 1f3b 033c
000001d0: 907d fc3b c1e2 363c 2a66 673b b3c4 4dbd
000001e0: d038 a03b 75fa 81bb 2389 cb3b 5be1 b339
000001f0: e23c 583b 743a fa39 8ee4 1bba 5e64 3938
00000200: cf50 803b 7f7d 01bd b162 f4bc 4dba fe3b
00000210: 8450 a9b9 2d88 79b9 c47a 1fbc fe7e 2b3a
00000220: 521b c53d 45c8 283c b0f3 22b9 7f6d 793d
00000230: 89f8 e7bc b8ec dc3c 3873 c0bd 0e98 d53c
00000240: 2140 aa3b 3dd3 0a3c f6e4 313b 548a a1bb
00000250: 74dd 703c 8408 413b 538b f83b 1a49 263a
00000260: 1d10 3b3b c1f8 a4bc 503d f93b 5c78 7dbb
00000270: 6fc0 d53b a90c c23b 0c3f a63b 15cd 3b3c
00000280: 3b5b cfbc 881e 5fbd 93d2 2b3d 881c 07bc
00000290: 381d 8fbb d304 a9bc 4c41 90bb d543 5fbb
000002a0: 23ce 153d 4455 8cbc 7351 36bc d7fa b7bc
000002b0: 38e8 883c a601 0abd 222c 14bd 61f6 9b3c
000002c0: bd8d 11bc 4de4 5ebc f5a3 623c 93f3 23bc
000002d0: 16bc 733c 5365 13bc 2de0 0ebc 569f 58bd
000002e0: e3f8 47bc f3ea d03b a5c7 3f3b 3d69 9fbc
000002f0: 6d4e a6bb 9cd1 10bc e600 503c 2259 8cbc
00000300: 32c8 f7ba 7e31 36bc 1221 3c3d 5fb5 04bb
00000310: 9482 92bb 2702 37b9 b3e3 9339 cd62 5bbc
00000320: 8377 803d fe33 213b 6343 61bc 2be9 ee3b
00000330: fac0 1a3d 49d6 3a3c 9ab4 273d 5ee9 f6bb
00000340: 68af c8bb ffba 8d3b 958e 503c 8827 76bc
00000350: f6dd 573b 11ce 60bb ba0c 86b9 7952 52bd
00000360: 57a9 ea3a 8c98 d0bb bbd8 b93b 31e5 34bb
00000370: 2541 a03a 3ef8 f2b9 7cb2 063b 4603 853a
00000380: 8b80 403b e37a 193d 9ab4 0a3d d181 013c
00000390: 2725 473b e000 7f3b d0f9 f0ba 3fe3 aebb
000003a0: 2062 b93d 294f c03b 1751 a0bb e965 aabc
000003b0: 5038 12bd 7e22 183a 444a ad3c 3d67 3c3c
000003c0: d89d 1eba 23a5 2c3c f536 113c af99 54bc
000003d0: 56cd 7f3c 26a4 a03b deab a73b d3de 133c
000003e0: 01df 9d3b 9045 b8bc cdd0 883b 501b 243b
000003f0: 6cd8 bc3b 7061 e73b a25e 0f3c a10a dd3b
-0.0051563433 -0.014840202 0.019427514 0.00022500697 -0.0023973794 -0.003451833 -0.008150588 0.0027583032
0.050601453 0.00032211246 0.0002984465 -0.024110083 -0.018710824 -0.021295434 -0.091526724 0.0037057276
0.0016162317 0.0008103455 0.0018381665 -0.0007563115 0.010377588 0.0062965057 0.002479652 -0.022466222
0.0026339057 -0.0048828973 0.0036628032 -0.005791796 0.00046858127 -0.0007363672 -0.0028353115 -0.001696479
-0.2010231 0.04052128 0.061518062 -0.26651818 -0.1863509 -0.3245573 0.008343332 -0.01431165
-0.2438534 -0.027867815 -0.01573215 0.1555313 0.22084445 0.2374274 0.04671116 -0.11988339
0.0028932632 -0.12823829 -0.041998494 0.010100273 -0.13931452 0.0062090117 -0.10115414 0.16692543
-0.19394532 0.022020062 -0.08406667 -0.091221645 -0.32733637 -0.15906867 -0.044728395 -0.21377861
0.023157207 0.04574568 0.037791166 0.021454347 0.025754742 0.07698331 0.009113983 -0.009684181
-0.053240053 0.022850918 0.0036112438 0.04089839 0.034107026 -0.07401377 0.027552633 0.12438496
-0.0051057967 0.021262096 0.01809866 -0.0024061042 0.053054884 -0.0031253267 0.0320518 -0.03526863
0.023051675 -0.094779044 0.05616993 0.012093458 0.031306356 0.033528127 -0.01969909 0.008277114
-0.00027627868 -0.020632444 0.0054647457 -0.0018089241 0.0013346656 0.0010377706 -0.00216452 0.002791741
0.07901836 6.0371676e-06 0.009369051 0.043740243 0.0003673919 0.0206334 -0.03127258 0.01866715
0.010280768 -0.00028490325 -0.011679818 0.008009701 0.007705398 0.011162461 0.0035308697 -0.050236415
0.004889585 -0.0039666244 0.0062114163 0.00034309443 0.0032995273 0.00047727267 -0.0005946838 4.420091e-05
0.003915883 -0.031613823 -0.029832216 0.0077736736 -0.0003229418 -0.0002379722 -0.009733859 0.00065420556
0.096243516 0.010301654 -0.00015540305 0.06089544 -0.028316753 0.026968345 -0.09396976 0.026073482
0.005195633 0.008473215 0.0027144528 -0.00492982 0.014701236 0.0029454539 0.007584968 0.00063432904
0.002854354 -0.020138146 0.007606186 -0.0038676476 0.006523184 0.0059219194 0.0050734337 0.01146247
-0.025312057 -0.054472476 0.041948866 -0.0082465485 -0.004367497 -0.020632183 -0.0044023152 -0.003406753
0.03657354 -0.017130502 -0.011127817 -0.022458477 0.016712293 -0.03369298 -0.0361749 0.019038381
-0.008883891 -0.013604236 0.013833036 -0.010006803 0.014876386 -0.008996326 -0.00872044 -0.05288633
-0.012205335 0.0063756644 0.0029263285 -0.019459361 -0.005075267 -0.008839037 0.012695527 -0.017132346
-0.0018904267 -0.011120198 0.045929976 -0.0020249707 -0.0044711325 -0.00017453042 0.00028207674 -0.013390255
0.06272795 0.002459764 -0.013748976 0.0072909794 0.037781693 0.011403629 0.04094372 -0.0075351438
-0.0061244257 0.00432527 0.012729307 -0.015024073 0.0032938696 -0.0034302513 -0.00025567954 -0.051348183
0.001790325 -0.0063658413 0.0056715882 -0.002760243 0.0012226446 -0.00046342792 0.0020553162 0.001014807
0.0029373493 0.03747071 0.03386364 0.007904486 0.0030387135 0.0038910434 -0.0018384997 -0.0053371484
0.09051919 0.0058688116 -0.004892479 -0.020800548 -0.035698235 0.00058034796 0.021153577 0.011499223
-0.0006050742 0.010537419 0.0088632 -0.012976094 0.015612921 0.0049023805 0.0051169237 0.009025293
0.004817844 -0.022494107 0.0041752816 0.0025040694 0.005763104 0.007061176 0.00875059 0.006745652

gat_layer_1.layer0_1.1.input_linear_layer2.bias f4 [32]
00000000: a60b 2d3d 7de9 933d 8386 9ebb 47db d4bb
00000010: 3434 f63c b7cb 9a3b c625 4cbd bffb 27bd
00000020: 15d9 44bd 0637 c33d 3be2 a1bc 59b1 b0bd
00000030: d1a5 a7bd 1131 c23c 34e7 f3bd 9931 073e
00000040: dc0c 183d dae5 d6bd d49b 21be 2452 363b
00000050: 4419 353e b45a 9ebd fb49 863c 3a03 42be
00000060: 23b9 153e 4fcc dd3b f5c0 303d ed52 1cbc
00000070: 9b51 b6bc 8925 cbbc 8267 4ebd dc2d 13bd
0.042247437 0.07222269 -0.0048378124 -0.0064958665 0.03005419 0.0047239917 -0.04984071 -0.04101157
-0.048058588 0.09531979 -0.019761195 -0.086275764 -0.08185924 0.023705037 -0.11909333 0.13202514
0.03712164 -0.104930595 -0.157821 0.0027819956 0.1768542 -0.07732144 0.016392699 -0.18946543
0.14621405 0.0067687402 0.04315277 -0.009541255 -0.02225571 -0.024798172 -0.05039168 -0.035932407

gat_layer_1.layer0_1.1.a_1.weight f4 [1, 32]
00000000: 5332 fbba d71d 6835 bf3e bcb9 2989 9cbe
00000010: 8e85 0fba 6cb3 5f36 b733 81be 0a79 abbd
00000020: 145a 2ab5 8762 a3be 7f93 05be 20f7 09bb
00000030: 1559 463a 14d7 fbbd 15a5 2cb6 943e acbe
00000040: b26a acbe 9f43 653a 9104 0bb7 ecda eeb7
00000050: e55b 6bbe e9ab 8dbb 169d 8239 3da4 04be
00000060: 9a2c 8fbe 0579 52be 8a18 30bc 93d7 dabd
00000070: d1b7 b7b8 62e1 5fbb 30be 46be 6ea8 b736
-0.0019164778 8.647016e-07 -0.00035904904 -0.30573395 -0.0005474918 3.3334027e-06 -0.25234768 -0.08372696
-6.3461016e-07 -0.31911108 -0.13044547 -0.002105184 0.0007566375 -0.12296882 -2.5726088e-06 -0.33641493
-0.33675152 0.0008745733 -8.286109e-06 -2.8473754e-05 -0.22984274 -0.004323472 0.0002491257 -0.12953277
-0.27963716 -0.20553978 -0.010748038 -0.10685649 -8.7603585e-05 -0.0034161438 -0.19408488 5.473433e-06

gat_layer_1.layer0_1.1.a_2.weight f4 [1, 32]
00000000: f583 e23b b6d8 df3c fa9b 9c3c 887c f13a
00000010: fa9e 4e3b b159 443c 21ce 243b de5e 703b
00000020: 962e 543d 1f28 183c 52a3 87bb ab0e 8a3c
00000030: 0a01 d5bc 45b4 1cbc 678f 163e 749e 2cbe
00000040: 9c6d c33a 542d 043c 1ac6 353b 35d2 0f3a
00000050: 1950 d1bb 1a56 433b 1904 843d 738f 05bd
00000060: d396 debd 2984 6cbb ac0c ff3a 8aa2 3c39
00000070: a0d9 e5b9 5c03 8f38 4f02 b1b9 a3ce 363b
0.006912703 0.027325016 0.019117344 0.0018423954 0.0031527863 0.011984275 0.0025147276 0.003667764
0.05180224 0.009286909 -0.0041393423 0.016852697 -0.026001472 -0.009564464 0.14703141 -0.1685732
0.0014909985 0.008067448 0.0027736486 0.00054863404 -0.006387722 0.002980596 0.06446094 -0.032607507
-0.10868611 -0.0036089516 0.0019458733 0.00017989628 -0.00043840427 6.819397e-05 -0.0003376179 0.0027894161

out_layers.layers.0.weight f4 [32, 32]
00000000: 2d62 12bc 6d8f fdbd 15cc 083d f96e 2e3c
00000010: 0821 beba e202 2dbc 3113 713b 07e3 6e3b
00000020: 04ba 18be 3b64 76bd 3fa4 a23b 9cd8 e43c
00000030: daef bebc b72e c53d fad7 c5be b415 28be
00000040: 606f 9eb6 4faa f53b 5071 67bb 0dd6 a7b9
00000050: 0613 1cbe 0f9e 093c eb5e 10be e364 883d
00000060: 217c 98be dd7f c23c 7907 9bbd ae1c 16bc
00000070: e4fb 97bb 15ed be3b d18d 3fbb 4f83 093b
00000080: d90f 6fbc 2007 503c 0276 253e b6e3 bcbc
00000090: f434 4b3c 97b4 e4bc d7e4 15bc e377 9dbb
000000a0: 8307 66be 1136 04bc a844 a33c 028e 5f3d
000000b0: a6da 91bc 1407 153c 4e08 a7be cde4 593c
000000c0: 2ca1 9c3c d675 2a3d 49c9 39bb 811f dd3c
000000d0: 61c9 0ebe 506c 1dbc 5390 dabd dd33 97bd
000000e0: 48a1 bd3c 3789 6ebc 1789 09be df03 693c
000000f0: 8a31 203d 3e73 633c 3458 a3bb 960e afbc
00000100: df91 5dbb 76c1 8d3d c3d9 66bd 5493 6cbc
00000110: 2335 db3a 9a29 a1bb 808c b6bc ed30 8abc
00000120: 7687 5d3d e3c9 6abb 1fa8 44bc 2926 12bc
00000130: 5954 5a3d 355a eb3c b0bd 8a3d d902 85bd
00000140: 34e2 71bc a886 e8bb 3722 d03c f6f4 8fbc
00000150: bc6f 0d3c a3f0 a1bc 8b82 493d c4b7 28bd
00000160: 4371 513c 0480 f73b c149 83bc ca10 263b
00000170: c25e 8ebc 9e8a 30bc 917c 9cbb 73c1 d53a
00000180: 4ac0 2dbc 4988 35be 7600 5b3d 421b aebb
00000190: 720e de3b 5a04 d4bb ecc1 1ab8 5e7f ae3b
000001a0: 6d46 583d 2480 79bd 5610 1abb e62c 8ebd
000001b0: bfb1 3cbd a417 253d 6fa2 9d3d 4c7d 3bbe
000001c0: 2c13 9a3b 78de 9fbb 1dd2 8dbb 9718 693c
000001d0: e326 25be eb06 8ebb a32e da3c 53ad 9d3d
000001e0: f5f2 01be ac36 863c 9620 aa3d b435 a63b
000001f0: 045d 613c e25c 4dbb c53a 463c 03ec a9bb
00000200: a994 bdba be2f 1ebe 1c75 5b3e 3708 cebc
00000210: f4bd b93d 38bd d3bc f960 9abc 9183 24bc
00000220: f5a9 d8be ca49 3b3c 1ad0 1d3d 57f2 583e
00000230: c14c 54ba 8d32 31be 1ccb 62be 615c 61be
00000240: d26e 723c a051 a4bb 4df6 32bd 34df 45bc
00000250: 7d98 c9bd 953f 8b3d 6948 6dbe 73e3 a9bd
00000260: 6e86 9bbe 1357 d4bc 3555 4cbe 80a0 f43d
00000270: d7b7 71bd 22cf 14bd 2bf2 2c3d 65ad 383d
00000280: 4a8e 83bc ca76 b1bd baab 66bd 1054 fabb
00000290: d56a 243c 867d a4bb 32fc 303c 4930 a3bb
000002a0: c82f 223e a4f3 05be 2c17 28bc 051d ff3c
000002b0: 3653 95bd 9ba9 dbbb d40c 983e 9581 27be
000002c0: 267e 46bb 2e43 0fbd e62c 593c 3fac 603c
000002d0: 5cc8 01be 9333 64bc a71b 023d 9fd8 4b3c
000002e0: a49d 03be 477f 093d 7a71 3bbe bd5c a9b8
000002f0: 5d7b 3a3d 9864 b23c aad0 bc3c 8c88 ae3c
00000300: 38cb 9fbc a52f 21be ac08 a23d 7509 1d3d
00000310: 5bb5 11bc 0043 95bd 0860 9d3c f78e 8cbc
00000320: 0d8f 27be c5ab 89bd 7e66 f83b 86cd 263d
00000330: 997b b33c c601 073e 418e cebe 0d26 10be
00000340: ec0c b6bc 961a 883d bf6d 94bc 9e33 3f3c
00000350: d9b0 1abd 268b 4fbc 3052 24be 0ab0 fb3c
00000360: 2234 8abe 68dd 333d a306 083c 665a 49bc
00000370: 1140 79bc 7925 2e3c d227 9139 36cb 4bbc
00000380: 40b3 a6bd f7e2 c7be 175a 2d3d a2f4 fcbc
00000390: ae1e d5bc 69df ea3c 0891 423c e779 b3bb
000003a0: 3288 713e 64fd 68bc 39bd 683a 920c dbbb
000003b0: 835a e73d 90c3 193e a498 ae3e dc9d 90be
000003c0: 4dc1 333d 70f2 473d 372b a1bd 3752 853d
000003d0: dfc6 7cbe d831 403d af91 b23d b0e1 b0bc
000003e0: 83a8 d2bd b066 ff3c 5274 5e3d dd93 9ebd
000003f0: d09d 89bd 807c 59bd edee 813b a5d6 5dbd
-0.00893454 -0.12380872 0.033397753 0.010646575 -0.0014505694 -0.010559769 0.003678512 0.0036451237
-0.1491471 -0.06015418 0.0049634273 0.027935319 -0.02330773 0.09628051 -0.3864134 -0.16414529
-4.7217327e-06 0.007497109 -0.0035315342 -0.00032012202 -0.15241632 0.0083995005 -0.14098708 0.066598676
-0.29782203 0.02374261 -0.07569785 -0.009162111 -0.004638182 0.005826602 -0.0029228816 0.0020982807
-0.014591181 0.012697011 0.16158298 -0.0230578 0.012402762 -0.027918143 -0.009148798 -0.0048055514
-0.22463803 -0.008069531 0.019930199 0.05457879 -0.017804455 0.009095926 -0.32623523 0.013299179
0.019119821 0.041616283 -0.0028348735 0.026992561 -0.13944007 -0.009608343 -0.10672059 -0.07382939
0.023148194 -0.014559082 -0.13431202 0.014222114 0.039109744 0.013882456 -0.00498488 -0.02136926
-0.003380887 0.06921665 -0.056360018 -0.014439423 0.001672421 -0.0049182894 -0.022283792 -0.016869033
0.054084264 -0.00358259 -0.012002974 -0.008920231 0.053303096 0.028729538 0.06774461 -0.06494684
-0.014763404 -0.0070961304 0.02540694 -0.017572861 0.008632597 -0.019768065 0.04919676 -0.041190878
0.012783351 0.0075531024 -0.01602638 0.0025339597 -0.017379168 -0.010775236 -0.0047755917 0.0016308263
-0.010604927 -0.1772777 0.053467236 -0.005313308 0.0067766244 -0.0064702453 -3.6897065e-05 0.005325242
0.05280154 -0.06091322 -0.0023508272 -0.069421574 -0.04606795 0.04030575 0.076969974 -0.18309516
0.0047019925 -0.0048788153 -0.004328026 0.014227054 -0.16128115 -0.004334321 0.026633566 0.076990746
-0.12690337 0.016383491 0.083069965 0.00507232 0.013755087 -0.003133588 0.012098973 -0.0051856055
-0.001446386 -0.154479 0.21431392 -0.025150402 0.09069434 -0.025847062 -0.018845068 -0.0100411335
-0.42317167 0.011431167 0.03852854 0.21186195 -0.00080985954 -0.1730444 -0.22147793 -0.22007896
0.014796929 -0.0050146133 -0.043691922 -0.012077142 -0.09843538 0.06799237 -0.23172154 -0.082953356
-0.30376 -0.025920426 -0.19954379 0.119446754 -0.059013214 -0.03633035 0.042223137 0.045087237
-0.01605906 -0.08665235 -0.056316115 -0.0076394156 0.010035236 -0.0050198464 0.010802316 -0.0049801213
0.1583854 -0.13081223 -0.010259431 0.031141767 -0.07291262 -0.006703568 0.29697287 -0.16358025
-0.0030287593 -0.034976177 0.0132553335 0.013712942 -0.12674087 -0.013928312 0.031764653 0.012441783
-0.12853104 0.033568647 -0.18305007 -8.075822e-05 0.045527805 0.021776482 0.023048718 0.021305345
-0.019506082 -0.15740831 0.0791181 0.038339097 -0.008893336 -0.0728817 0.01921083 -0.017158015
-0.16363163 -0.067222156 0.0075805774 0.040723346 0.021909522 0.1318427 -0.40342906 -0.14077015
-0.022222959 0.06645696 -0.018118737 0.011670021 -0.03776631 -0.012667453 -0.16046977 0.03072359
-0.269929 0.04391232 0.008302364 -0.012289619 -0.0152130285 0.010629051 0.00027686224 -0.012438586
-0.08139658 -0.39040348 0.042322244 -0.030878369 -0.026015606 0.028670983 0.011875398 -0.0054771784
0.2358711 -0.014220569 0.0008878294 -0.006684848 0.112965606 0.15016007 0.3410083 -0.28245437
0.043885518 0.04881519 -0.07869571 0.06509822 -0.24685238 0.046922535 0.08719193 -0.021591991
-0.10286047 0.031176895 0.05431015 -0.077430464 -0.067195535 -0.053097248 0.0039652498 -0.05415978

out_layers.layers.0.bias f4 [32]
00000000: 0227 f7bd 5601 afbe 9ec8 65bd aba7 813e
00000010: 5d61 07be 467e 933e 5257 39be 8ddb b83e
00000020: 4f27 743e 6d93 9bbe 680c 9fbe 7989 b8bd
00000030: c83a 883e 7352 a53d a6fa 87be 06f7 acbd
00000040: 8e28 0d3d fe13 29bc c915 31bd 9496 8cbd
00000050: 353d 86be 59e3 8bbe 9a39 043e 8eb8 94be
00000060: 0476 a2bc 5679 943c fa60 233e fd98 abbe
00000070: 071a 993c a98c 963e eda3 2b3e 270b 97bd
-0.12067987 -0.34180707 -0.056099527 0.25323233 -0.13220735 0.28807276 -0.18099716 0.36105004
0.2384312 -0.30385914 -0.31064153 -0.09010596 0.26607347 0.080723666 -0.26558417 -0.084455535
0.034462504 -0.010319708 -0.043233667 -0.06864658 -0.26218572 -0.2732189 0.12912598 -0.29047054
-0.019831665 0.018124264 0.15954962 -0.33515158 0.018689169 0.2940419 0.16761751 -0.07375174
