output/modelparams/dynamicLearning-HOSPITAL-SCUAU-GAT/epoch19_model_state_dict.pth (torch, 125563 bytes, 66 tensors)

in_layer.layers.0.weight f4 [32, 2]
-0.0015852759 0.0006542297 -0.0062908963 0.004157138 -0.39984632 0.42341632 -0.1831553 0.6968304
-0.25531325 0.30555964 -0.17661856 -0.11637684 -0.06900485 0.0308898 -0.12943384 0.05830544
-0.10318845 0.49059832 -0.14769176 -0.12671249 -0.2190201 0.4865111 -0.33563185 0.5823384
-0.005946185 0.0031193802 0.44162208 -0.15378502 0.0015590793 -0.00044042463 -0.10800983 0.5377049
-0.11328916 0.050164554 -0.20880327 -0.61445695 -0.55593383 0.80980915 0.0011720699 -0.0010692236
0.18633519 -0.48811617 0.29596275 -0.46086785 -0.0026776723 0.0018775328 -0.0017974587 0.0012725381
-0.29254 0.15513101 0.0022420178 -0.0011585748 0.41534096 -0.30837306 0.4863824 -0.52086234
0.2190714 -0.64715695 -0.00030646063 0.0006569066 0.0014978963 0.0014387668 -0.0006609671 1.0023977e-05
00000000: 08c9 cfba 9d80 2b3a dd23 cebb 9a38 883b
00000010: a8b8 ccbe 06ca d83e 108d 3bbe 7a63 323f
00000020: 6bb8 82be 5072 9c3e 7fdb 34be fb56 eebd
00000030: 6a52 8dbd 9b0c fd3c 4e8a 04be afd1 6e3d
00000040: 7754 d3bd b42f fb3e 823c 17be ebc0 01be
00000050: ce46 60be fc17 f93e f0d7 abbe 2114 153f
00000060: 37d8 c2bb 846e 4c3b 4a1c e23e d279 1dbe
00000070: 055a cc3a cbe8 e6b9 4234 ddbd 07a7 093f
00000080: 2604 e8bd 5979 4d3d 86d0 55be 0d4d 1dbf
00000090: ae51 0ebf a74f 4f3f 24a0 993a 3125 8cba
000000a0: a7ce 3e3e 5dea f9be 6e88 973e dff6 ebbe
000000b0: e37b 2fbb 8c17 f63a b598 ebba 4bcb a63a
000000c0: cec7 95be aada 1e3e d1ee 123b 52db 97ba
000000d0: 92a7 d43e 13e3 9dbe 1d07 f93e 3c57 05bf
000000e0: 4154 603e 14ac 25bf 73ac a0b9 4134 2c3a
000000f0: 0f55 c43a 0195 bc3a c044 2dba a72c 2837

in_layer.layers.0.bias f4 [32]
0.0005341795 -0.0026694085 0.15103349 0.1804428 0.33718738 0.28535157 -0.04435464 -0.078285836
0.18727262 0.2343221 0.29626694 0.41261435 -0.0021228285 -0.33907524 -0.00069868175 -0.27208143
-0.081112936 0.39375046 0.5903125 0.00020973751 0.12197386 0.04139048 -0.0002465836 9.3700575e-05
0.28168508 -0.00010947105 0.22979234 0.30449298 0.42999262 -0.00030284983 -0.0015202593 0.0007262271
00000000: 2e08 0c3a 3ef1 2ebb 86a8 1a3e ffc5 383e
00000010: d3a3 ac3e 9a19 923e 36ad 35bd 5354 a0bd
00000020: 65c4 3f3e 22f2 6f3e 4db0 973e 3042 d33e
00000030: 271f 0bbb 459b adbe bd27 37ba 424e 8bbe
00000040: 8a1e a6bd a999 c93e b81e 173f fcec 5b39
00000050: 6ecd f93d 1089 293d e447 81b9 1d81 c438
00000060: 0739 903e d393 e5b8 af4e 6b3e 81e6 9b3e
00000070: fe27 dc3e d1c7 9eb9 7043 c7ba 4760 3e3a

in_layer.layers.2.weight f4 [32, 32]
-0.0008379548 -0.00044494998 -0.04751477 -0.07771648 -0.042094626 -0.0037449494 -0.0019028363 -0.003538919
-0.04745911 -0.00090919546 -0.06223747 -0.09351017 -0.0020954215 0.013826365 0.0007766009 -0.018771503
-0.003006801 0.011301041 -0.1623144 0.0007093445 0.020391895 0.023697473 -0.0012657071 -0.0009970558
-0.023709057 0.00023792424 0.015461004 0.067192346 0.008721516 -0.00033769253 3.7656569e-06 -0.00046911984
-0.00016418668 -0.00011470635 0.0008009419 0.0010726249 0.00048179243 0.00013450789 8.682672e-05 -1.7636126e-05
0.00059931114 -0.00029358696 0.00082232576 0.0014347073 0.00018263425 -0.00035004682 0.00016843827 0.00010549509
-8.291521e-06 -2.5114556e-05 0.0027720686 -0.00031811025 0.00018918487 0.00019459077 -7.1071285e-05 -0.00013063182
0.00028101096 0.00021157642 0.006211695 0.0017443367 0.0059695104 0.00012928544 4.0754526e-06 -0.00021214147
-0.000690524 -0.0003673831 -0.050209716 -0.079634406 -0.044117153 -0.0045644036 -0.0023192074 -0.0045746537
-0.049620718 -0.001107187 -0.063071094 -0.094620004 -0.0019598834 0.014905869 0.0006360944 -0.02222599
-0.0038941405 0.013164535 -0.16289832 0.00071034225 0.026195312 0.028625034 -0.0011050395 -0.00084443134
-0.025259174 -4.8910233e-06 0.039387606 0.055206515 0.028021272 -0.0003278067 6.380472e-06 -0.00035377246
0.0002849677 0.00033277937 -0.04955948 -0.08468077 -0.047042426 -0.006409711 -0.0009421138 -0.0030672934
-0.052959867 -0.0023685545 -0.06863711 -0.101692855 -0.0007756679 0.013944387 -0.00030068678 -0.02064353
-0.0023160102 0.011831296 -0.17601831 0.00012512998 0.022075498 0.02412823 6.7759356e-05 0.000211861
-0.02596202 -0.0009195932 0.05309351 0.005706649 0.03384377 2.9294732e-05 2.9508543e-05 0.00035254666
-0.0008076207 -0.00030666875 -0.0526552 -0.080257304 -0.045868438 -0.0044525135 -0.0028592953 -0.005334407
-0.050954815 -0.0007867374 -0.064524226 -0.094624706 -0.0022917935 0.016144799 0.0007457714 -0.024857022
-0.0045962767 0.014701375 -0.1597856 0.00096241804 0.028954538 0.02634908 -0.0012851405 -0.000985051
-0.026752358 -0.00013407452 0.022381254 0.067649916 0.08257875 -0.00048252702 -4.093028e-06 -0.00040932317
0.004158573 -0.0040890044 -0.06673385 -0.08790201 -0.051484663 -0.010224663 0.0028573335 0.0022895243
-0.057835814 -0.0056681423 -0.07289405 -0.104505904 0.0033722173 0.015577128 -0.004183404 -0.034680136
-0.0038921407 0.012888398 -0.17667477 0.0033567937 0.037049875 0.012854456 0.004262031 0.0041068564
-0.02959353 -0.0003842267 -0.050080433 0.093812086 0.031393006 -0.0019623267 -0.00012340344 0.0040820213
-0.0010921321 -0.003282555 -0.004936699 0.0013959967 0.0041039027 0.0062972903 -0.0063714487 -0.006464433
0.00421347 0.0061132046 0.00394625 0.0042706453 -0.0035052784 0.0063101607 0.0009784645 -0.0061673205
-0.0064609502 0.0064862873 0.004863887 0.00014825331 0.0068456656 0.006876999 -0.001858429 -0.001358625
-0.0010831173 0.0014135404 0.013208151 0.018980172 0.008396811 7.492748e-05 9.38909e-06 -0.00051744643
-0.0005414625 -0.00021832428 -0.041296728 -0.06491375 -0.033084806 -0.002982284 -0.0019052773 -0.0039678104
-0.037411533 -0.00037179844 -0.050705224 -0.078171216 -0.0016642895 0.0115949195 0.0004933178 -0.017418811
-0.0034396672 0.010139957 -0.13508026 0.00069464225 0.020295763 0.022564603 -0.0009084191 -0.0006792278
-0.019293582 4.972586e-05 0.043292873 0.06969273 0.03063011 -0.00032486886 1.3480961e-05 -0.0002520867
00000000: 32aa 5bba 2d48 e9b9 d99e 42bd d129 9fbd
00000010: 6a6b 2cbd d36d 75bb 9768 f9ba 35ed 67bb
00000020: 7c64 42bd 1357 6eba b8ec 7ebd 4382 bfbd
00000030: 5753 09bb fa87 623c ce94 4b3a b2c6 99bc
00000040: c00d 45bb 0028 393c bf35 26be 4ef3 393a
00000050: e70c a73c 3421 c23c 15e6 a5ba a4af 82ba
00000060: 7f39 c2bc 4d7b 7939 2750 7d3c 249c 893d
00000070: b0e4 0e3c 530c b1b9 7eb5 7c36 33f4 f5b9
00000080: 8729 2cb9 818e f0b8 4df6 513a 5297 8c3a
00000090: 1699 fc39 b00a 0d39 be16 b638 4bf1 93b7
000000a0: 171b 1d3a 93ec 99b9 5991 573a ca0c bc3a
000000b0: 8281 3f39 7d86 b7b9 ce9e 3039 3f3d dd38
000000c0: d01b 0bb7 19ad d2b7 98ab 353b 09c8 a6b9
000000d0: ed5f 4639 100b 4c39 1b0c 95b8 36fa 08b9
000000e0: a754 9339 9dda 5d39 798b cb3b 3aa2 e43a
000000f0: e29b c33b cc90 0739 dfbf 8836 4b72 5eb9
00000100: 4804 35ba 539d c0b9 b4a8 4dbd 5d17 a3bd
00000110: 30b4 34bd fe90 95bb d8fd 17bb fae6 95bb
00000120: 183f 4bbd 081f 91ba 6b2b 81bd 22c8 c1bd
00000130: 6371 00bb bf37 743c 93bf 263a 4813 b6bc
00000140: d634 7fbb 10b0 573c d1ce 26be 4336 3a3a
00000150: 8d97 d63c 0c7f ea3c f9d6 90ba d45c 5dba
00000160: 54ec cebc 921d a4b6 e654 213d 3a20 623d
00000170: de8c e53c 78dd abb9 d617 d636 897a b9b9
00000180: b867 9539 e478 ae39 e2fe 4abd 1d6d adbd
00000190: 8faf 40bd 8e08 d2bb 30f8 76ba a504 49bb
000001a0: 72ec 58bd c039 1bbb 9d91 8cbd 5844 d0bd
000001b0: 3156 4bba 0077 643c 7fa5 9db9 9f1c a9bc
000001c0: 34c8 17bb 0dd8 413c 253e 34be 5335 0339
000001d0: add7 b43c 91a8 c53c 071a 8e38 0127 5e39
000001e0: 4dae d4bc db10 71ba 9578 593d d7fe ba3b
000001f0: c49f 0a3d f5bd f537 1d89 f737 03d6 b839
00000200: 82b6 53ba 62c8 a0b9 fbac 57bd f15d a4bd
00000210: 8be0 3bbd 64e6 91bb 0463 3bbb 40cc aebb
00000220: ffb5 50bd 0e3d 4eba 4725 84bd 99ca c1bd
00000230: ea31 16bb 1942 843c df7f 433a f4a0 cbbc
00000240: 5d9c 96bb 09de 703c d69e 23be c84a 7c3a
00000250: 1132 ed3c 07da d73c 2972 a8ba d41c 81ba
00000260: c327 dbbc 5b96 0cb9 e458 b73c 0a8c 8a3d
00000270: 0c1f a93d aefb fcb9 d856 89b6 6d9a d6b9
00000280: a444 883b 0efd 85bb c2ab 88bd f805 b4bd
00000290: 95e1 52bd 5885 27bc 1a42 3b3b d80b 163b
000002a0: 3fe5 6cbd d3bb b9bb 7a49 95bd 3107 d6bd
000002b0: 6b00 5d3b 3637 7f3c f014 89bb c20c 0ebd
000002c0: 4913 7fbb dc29 533c 3bea 34be a7fd 5b3b
000002d0: 9cc1 173d 7f9b 523c 82a8 8b3b cf92 863b
000002e0: 216e f2bc 0972 c9b9 2421 4dbd 8d20 c03d
000002f0: f495 003d 619a 00bb dc65 01b9 7ac2 853b
00000300: df25 8fba 2220 57bb 08c4 a1bb e0f9 b63a
00000310: 087a 863b 8059 ce3b 96c7 d0bb 98d3 d3bb
00000320: 2611 8a3b 4751 c83b 8b4f 813b c5f0 8b3b
00000330: d0b8 65bb 77c5 ce3b d23f 803a 3c17 cabb
00000340: 61b6 d3bb ec8a d43b 3e61 9f3b 7274 1b39
00000350: 9b51 e03b 7358 e13b 8896 f3ba e413 b2ba
00000360: 63f7 8dba 8c46 b93a 0067 583c 4e7c 9b3c
00000370: c792 093c 6222 9d38 d685 1d37 3ea5 07ba
00000380: eff0 0dba faed 64b9 c226 29bd 80f1 84bd
00000390: ef83 07bd 6c72 43bb 7fba f9ba 6804 82bb
000003a0: d63c 19bd f1ed c2b9 48b0 4fbd 3b18 a0bd
000003b0: 4a24 daba 9ef8 3d3c ff51 013a e5b1 8ebc
000003c0: 0a6c 61bb 1022 263c 7b52 0abe a718 363a
000003d0: 4d43 a63c 67d9 b83c f922 6eba 350e 32ba
000003e0: 930d 9ebc bc90 5038 de53 313d 10bb 8e3d
000003f0: ffeb fa3c 2953 aab9 492c 6237 812a 84b9

in_layer.layers.2.bias f4 [32]
-0.04749103 -0.00788984 -0.064451225 -0.038788203 -0.09007373 -0.067335434 -0.007098476 -0.076438576
-0.046709646 -0.008256832 -0.011333723 0.08053631 -0.061998293 0.1823361 0.118859775 -0.015844477
0.06548896 -0.05497208 0.1097808 -0.18076734 -0.23487124 0.002478757 -0.076289654 8.553485e-05
-0.041036114 -0.008938421 -0.011632998 -0.37504256 0.0074290796 -0.08176622 0.0032583377 0.001254174
00000000: f485 42bd 6344 01bc 01ff 83bd 61e0 1ebd
00000010: 9378 b8bd 29e7 89bd 559a e8bb d48b 9cbd
00000020: 9d52 3fbd aa47 07bc 14b1 39bc 39f0 a43d
00000030: ecf1 7dbd 51b6 3a3e c16c f33d 47cc 81bc
00000040: 131f 863d 672a 61bd c2d4 e03d 131b 39be
00000050: 1682 70be a472 223b c03d 9cbd 2c61 b338
00000060: 7c15 28bd 7472 12bc 5498 3ebc 9405 c0be
00000070: a36f f33b 0c75 a7bd d689 553b 1963 a43a

gat_layer_1.layer0_1.0.input_linear_layer1.weight f4 [32, 32]
1.3094845e-09 1.3574628e-10 4.8775934e-09 3.4788217e-10 5.2333515e-10 1.5133251e-08 -1.3571632e-08 8.188523e-09
1.3217656e-09 7.669962e-09 -3.7790224e-09 2.8238487e-09 7.658937e-09 -3.1013786e-07 5.7403295e-06 5.1047233e-09
-2.8921946e-07 7.10643e-09 -7.422699e-08 -3.6537905e-08 -2.8616117e-07 -3.5733612e-09 6.791985e-10 -7.665756e-09
6.7017005e-09 -3.8906919e-07 6.1114442e-09 -2.7585955e-07 -7.3342292e-09 6.920962e-09 7.605788e-09 -7.296607e-09
4.0753996e-05 7.6757794e-07 3.8697708e-05 3.4588935e-05 4.3018827e-05 -4.4710872e-05 7.606878e-05 3.3130334e-05
3.177455e-05 -8.640929e-06 6.10418e-05 -3.3430195e-05 3.1986205e-05 -0.00074429455 -0.00024456758 -4.8696184e-05
-0.00075151114 3.538723e-05 -0.00041510878 -0.00015333988 -3.0192163e-05 5.199443e-05 4.2691765e-05 7.8605044e-05
-9.024652e-05 -0.0009942816 7.491787e-05 5.3710944e-05 7.688326e-05 2.9343832e-05 -5.8649413e-05 6.8112924e-05
-0.016260223 6.0944058e-05 -0.016854133 -0.017217746 -0.017419403 -0.012866887 -0.0029977867 -0.015148291
-0.016450746 -0.0003782004 -0.00060128333 0.01543263 -0.016580323 0.17944367 -0.0016062293 0.0014909914
0.17833337 -0.01508676 0.10606534 -0.009526185 0.032221217 -0.0173016 -0.018893026 -0.0036695502
-0.012013658 0.2672666 -0.021912245 -0.03662717 -0.004097407 -0.016548038 0.0012955745 -0.004072637
-0.01450178 0.00010935191 -0.014976137 -0.015337921 -0.015523704 -0.01138836 -0.002852837 -0.013465522
-0.014622299 -0.000341439 -0.0007502192 0.013559846 -0.014797539 0.16844891 -0.02031032 0.0013914409
0.16865592 -0.013467954 0.09233 -0.008498156 0.032342877 -0.015347998 -0.016816908 -0.0033334629
-0.010774752 0.22803305 -0.019253325 -0.019463018 -0.0037654287 -0.014761453 0.0011915076 -0.0036642698
-0.019592993 -3.128189e-05 -0.020395376 -0.02076062 -0.020975886 -0.015648708 -0.0032538066 -0.018368417
-0.019769689 -0.00044866806 -0.00031867178 0.01880435 -0.019989181 0.20431006 -0.11729403 0.0016868256
0.20913906 -0.01817605 0.1257062 -0.012239783 0.032921776 -0.020749277 -0.022840349 -0.0042717424
-0.014880724 0.29284057 -0.02647161 -0.0374388 -0.0046865684 -0.019913131 0.0014831929 -0.004813902
4.144315e-05 -2.63629e-06 3.2674783e-05 -2.6062053e-05 3.2655807e-05 -9.2714996e-05 0.00014566269 4.2283365e-05
-1.5297654e-05 3.2831522e-05 8.7758744e-05 8.356099e-05 1.2003231e-05 -0.0003173302 0.00043092467 -1.1421823e-05
-0.0002983244 4.6422407e-05 0.00021741641 0.00048798023 -5.4028133e-05 -0.00011534994 2.515409e-05 -7.251801e-06
0.00017723333 -0.0004626697 -0.00033483093 -1.5517138e-05 8.516036e-05 2.848721e-05 -4.7706613e-05 9.1029615e-05
-0.017801946 1.7643593e-05 -0.018470265 -0.018843062 -0.019043362 -0.014135386 -0.0031201968 -0.016628256
-0.017946877 -0.00041101893 -0.00047106267 0.016950596 -0.018165637 0.19397579 -0.07091071 0.0015809842
0.20049055 -0.016527494 0.112189695 -0.010557986 0.04115174 -0.018824538 -0.020707306 -0.003960855
-0.013372768 0.2840873 -0.02410475 -0.007411357 -0.004380107 -0.018094344 0.0013858415 -0.0044235187
-0.003996147 0.00020365155 -0.0040592463 -0.004444407 -0.004404415 -0.0021760075 -0.0018150798 -0.0036115854
-0.0039901533 -0.00032899497 -0.0012795368 0.003874257 -0.0041944445 0.054656155 -0.03635352 0.000817818
0.053724512 -0.0036925324 0.025990428 -0.0011773721 0.00905115 -0.004769543 -0.0047822674 -0.0011816263
-0.0020105876 0.07903949 -0.0060837017 -0.00015053771 -0.0017125315 -0.004019601 0.0006346731 -0.0014529212
00000000: 64f9 b330 2e41 152f c497 a731 1040 bf2f
00000010: 70da 0f30 5ffe 8132 ab28 69b2 81ad 0c32
00000020: 7ea9 b530 dac4 0332 a2d8 81b1 ac0d 4231
00000030: 5c94 0332 0681 a6b4 0e9d c036 9f65 af31
00000040: 0546 9bb4 d22c f431 b866 9fb3 daed 1cb3
00000050: b1a1 99b4 3c8f 75b1 58b2 3a30 5ab2 03b2
00000060: c844 e631 43e1 d0b4 d5fc d131 d919 94b4
00000070: 9000 fcb1 6dcd ed31 9caa 0232 a2b5 fab1
00000080: 45ef 2a38 8e0b 4e35 594f 2238 9613 1138
00000090: 1d6f 3438 ef87 3bb8 1e87 9f38 6df5 0a38
000000a0: aa45 0538 82f8 10b7 9103 8038 6637 0cb8
000000b0: ed28 0638 c31c 43ba 4e39 80b9 213f 4cb8
000000c0: 0f01 45ba c06c 1438 f5a2 d9b9 dcc9 20b9
000000d0: 2d45 fdb7 9814 5a38 ef0f 3338 c3d8 a438
000000e0: bb42 bdb8 8e52 82ba 3a1d 9d38 b047 6138
000000f0: 633c a138 6627 f637 54fe 75b8 d9d7 8e38
00000100: 2934 85bc 2f9e 7f38 ae11 8abc 3b0c 8dbc
00000110: 23b3 8ebc a3cf 52bc 8476 44bb 8a30 78bc
00000120: b7c3 86bc 3349 c6b9 719f 1dba 24d9 7c3c
00000130: 75d3 87bc 15c0 373e 1d88 d2ba 5f6d c33a
00000140: 069d 363e 752e 77bc c938 d93d b713 1cbc
00000150: 65fa 033d 16bc 8dbc 8cc5 9abc d67c 70bb
00000160: efd4 44bc 2bd7 883e 4f81 b3bc 5f06 16bd
00000170: 8b43 86bb c08f 87bc 44d0 a93a c173 85bb
00000180: e098 6dbc dc53 e538 795e 75bc e74b 7bbc
00000190: 2257 7ebc 3e96 3abc aaf6 3abb 7e9e 5cbc
000001a0: 5e92 6fbc 2b03 b3b9 5caa 44ba 1e2a 5e3c
000001b0: 6171 72bc df7d 2c3e d461 a6bc 0261 b63a
000001c0: 23b4 2c3e b1a8 5cbc 8317 bd3d da3b 0bbc
000001d0: f779 043d 2b76 7bbc 9dc3 89bc 3a76 5abb
000001e0: 9688 30bc 7f81 693e 26b9 9dbc e870 9fbc
000001f0: 69c5 76bb 05da 71bc 5c2c 9c3a 3f24 70bb
00000200: 7c81 a0bc ac34 03b8 3414 a7bc 2d12 aabc
00000210: 9fd5 abbc b831 80bc d13d 55bb 5d79 96bc
00000220: 0bf4 a1bc 353b ebb9 6713 a7b9 950b 9a3c
00000230: 5ac0 a3bc a836 513e da37 f0bd 7a18 dd3a
00000240: 8d28 563e f1e5 94bc 20b9 003e 5f89 48bc
00000250: fcd8 063d 63fa a9bc af1b bbbc f9f9 8bbb
00000260: 48ce 73bc 33ef 953e fdda d8bc 6d59 19bd
00000270: c991 99bb dd20 a3bc b267 c23a f0bd 9dbb
00000280: 3ed3 2d38 1eeb 30b6 480c 0938 d59f dab7
00000290: e8f7 0838 fc6f c2b8 08bd 1839 6b59 3138
000002a0: 7653 80b7 94b4 0938 1e0b b838 773d af38
000002b0: 7c61 4937 575f a6b9 bbed e139 5ba0 3fb7
000002c0: 6c68 9cb9 aeb5 4238 46fa 6339 99d7 ff39
000002d0: 449c 62b8 07e8 f1b8 ff01 d337 7f54 f3b6
000002e0: b6d7 3939 7a92 f2b9 3f8c afb9 cd2a 82b7
000002f0: 1f98 b238 d1f7 ee37 9618 48b8 27e7 be38
00000300: 63d5 91bc 5401 9437 f44e 97bc c45c 9abc
00000310: d300 9cbc 1b98 67bc 377c 4cbb fb37 88bc
00000320: 5405 93bc 077e d7b9 f6f8 f6b9 fadb 8a3c
00000330: 1ad0 94bc 97a1 463e a239 91bd 0739 cf3a
00000340: 654d 4d3e ab64 87bc b6c3 e53d 67fb 2cbc
00000350: ba8e 283d eb35 9abc 5ea2 a9bc 0fca 81bb
00000360: 7419 5bbc e473 913e 5377 c5bc f8da f2bb
00000370: 0087 8fbb 973a 94bc 20a5 b53a 2af3 90bb
00000380: 1cf2 82bb 4c8b 5539 6d03 85bb 63a2 91bb
00000390: e952 90bb 599b 0ebb f9e7 edba 59b0 6cbb
000003a0: d5bf 82bb f57c acb9 21b6 a7ba 3fe7 7d3b
000003b0: 8d71 89bb 22df 5f3d 6ee7 14bd d662 563a
000003c0: 3c0e 5c3d 6afe 71bb e1e9 d43c 0d52 9aba
000003d0: 464b 143c d449 9cbb 91b4 9cbb cde0 9aba
000003e0: 10c4 03bb 75df a13d ca59 c7bb a9d9 1db9
000003f0: 0677 e0ba dbb6 83bb 3160 263a f26f beba

gat_layer_1.layer0_1.0.input_linear_layer1.bias f4 [32]
-3.941249e-06 -0.0005581771 0.092986226 0.0985303 0.17271805 0.00027301093 0.14849669 0.045775883
1.01413325e-05 -0.0011440588 0.092998475 0.0062526325 0.12634316 1.9254276e-07 0.11965175 -0.00023598483
0.0039698766 -0.00020160366 0.10054805 -0.0011000888 0.09953689 0.005044312 0.006395041 -1.5535337e-05
-0.0004257384 -1.480396e-05 0.0057613463 -3.7545792e-06 0.0007923216 -0.0017260353 0.000233083 1.1746531e-06
00000000: 123f 84b6 a252 12ba 906f be3d 41ca c93d
00000010: 00dd 303e e822 8f39 840f 183e 7e7f 3b3d
00000020: b124 2a37 3ef4 95ba fc75 be3d e2e2 cc3b
00000030: 1a60 013e c0bd 4e34 fa0b f53d b272 77b9
00000040: bd15 823b 9265 53b9 23ec cd3d db30 90ba
00000050: ffd9 cb3d c24a a53b 7e8d d13b e251 82b7
00000060: a435 dfb9 865e 78b7 adc9 bc3b 2ef7 7bb6
00000070: cdb3 4f3a 223c e2ba be67 7439 c6a8 9d35

gat_layer_1.layer0_1.0.input_linear_layer2.weight f4 [32, 32]
0.0006886675 9.251991e-06 0.00071698154 0.00040792828 0.00073132967 0.002106177 -0.0011621069 0.0007544939
0.0005189252 -0.00024998304 -0.0007525464 -0.00017472172 0.00069920614 0.00059529365 -0.0010581813 0.00016341977
0.00210471 0.0008702422 0.0011813899 0.0044305166 0.0014900793 -0.00011462547 0.0006546061 -0.0003765766
0.0031794466 -0.0027902385 -0.00094409473 0.004184255 -0.0008088279 0.0007661651 0.00020860837 -0.00061867706
0.0006929678 -7.7856006e-05 0.00070331566 0.00060126046 0.0006240044 0.0010299755 -0.002254856 0.00076851016
0.00054476736 0.00022064992 -0.0013597726 -0.00044508156 0.00071104255 0.0026400345 0.020233551 0.0012813475
0.0025353618 0.00069503934 0.0012685922 0.0031128414 -0.0016755797 0.00023489945 0.00055944663 -0.0020535004
0.0016275804 0.001699428 0.00014699926 0.002497362 -0.0023067594 0.0006815106 0.001651603 -0.0020625093
9.617652e-05 -0.00017743891 0.00010482739 -2.5391102e-05 7.766526e-05 0.0005023837 -0.003508272 0.00012302819
1.1313497e-05 -4.790073e-05 -0.0019729412 0.00031251938 9.584327e-05 0.0012603312 0.010589842 0.0016099691
0.0016045969 6.981575e-05 0.0013278464 0.0025069085 0.0020589065 -0.00035188376 5.9771406e-05 -0.0026692473
0.0009085796 0.004543335 -0.0006398925 0.005327322 -0.0032532024 0.00012121852 0.0020914623 -0.0029621096
0.00321045 -0.00076478306 0.0032510143 0.0020154882 0.003414825 0.005064293 -0.0028558522 0.003315888
0.002344291 0.00023069643 -0.0017657689 -0.000861604 0.0029827582 0.002728775 0.028535072 0.0013961827
0.0024897926 0.0033982852 0.0031002422 0.00782745 -0.003921861 0.0007096958 0.0031837719 -0.00056456006
0.0072186817 0.004421122 -0.0018059534 0.0030406245 -0.0019132327 0.0031864024 0.0016160967 -0.002024664
-0.00037700706 0.0005452834 -0.00036532513 -0.00038930535 -0.00039754505 -0.00043065 -0.0020542005 -0.00038051483
-0.0004219733 -0.00019103565 -0.0014490692 0.0006508601 -0.0003692343 0.001127218 0.016970798 0.0008157527
0.0040485053 -0.00044972467 0.0016393564 -6.241236e-05 -0.0002144223 -0.00056968146 -0.00038611743 -0.0018031448
-0.0004471449 0.0028313769 -0.0005265383 0.0016222412 -0.0020077166 -0.0003751869 0.0014171825 -0.0016708949
0.011137204 0.0013538359 0.0013952061 0.0068307547 0.009428576 0.008288373 -0.0033444192 0.0061203036
0.005132287 -0.005089504 -0.007939249 -0.001866741 0.013683004 -0.04488105 0.03591914 -0.0043588975
-0.034286257 0.005344303 -0.06258154 -0.013738654 -0.09921761 0.020285232 0.010638227 -0.0018166461
0.008050447 -0.0032308572 0.008818579 -0.12845865 -0.0006755471 0.007778374 -0.0028916334 0.00090078666
-0.0015732677 -0.0006517819 -0.0015943877 -0.001456418 -0.0016380481 -0.0020899454 0.0031141085 -0.0015561292
-0.0014499975 0.001147677 0.0021395986 0.0011846283 -0.0016317669 0.003948889 0.032831896 4.2268326e-05
0.0041980944 -0.001714415 0.0028602122 -0.002428343 -0.008410192 -0.0012714103 -0.0015940594 0.000973266
-0.0023273535 0.011607306 -0.0006603861 -0.0021126072 0.002080896 -0.0015769638 -0.00067074737 0.0017712585
0.00023410223 -6.6699184e-05 0.0002364283 0.00015283347 0.00023868501 0.0005142289 -0.0020643594 0.00023075868
0.00020961688 -0.00016390515 -0.0012015803 2.55475e-05 0.00021916836 0.0010491253 0.010109451 0.0009350389
0.00080946076 0.00022423857 6.5905064e-05 0.0017556924 0.0024265356 1.6607844e-05 0.00023627501 -0.0015946188
0.0007822137 0.0021945594 -0.0001576846 0.003136543 -0.0018810851 0.00025383747 0.0011833868 -0.0017422044
00000000: b287 343a 0039 1b37 d1f3 3b3a 35df d539
00000010: b4b6 3f3a c907 0a3b d651 98ba 3bc9 453a
00000020: 7b08 083a 2810 83b9 8946 45ba 8135 37b9
00000030: ee4a 373a 7b0d 1c3a acb2 8aba a95b 2b39
00000040: 2def 093b f720 643a ded8 9a3a de2d 913b
00000050: c44e c33a 1563 f0b8 df99 2b3a 416f c5b9
00000060: 435e 503b 6fdc 36bb 207d 77ba 131c 893b
00000070: 8607 54ba 78d8 483a e2bd 5a39 b72e 22ba
00000080: 48a8 353a a046 a3b8 b75e 383a e89d 1d3a
00000090: 3a94 233a 3e00 873a 35c6 13bb d875 493a
000000a0: b8ce 0e3a 435e 6739 663a b2ba d659 e9b9
000000b0: 4265 3a3a 6e04 2d3b d5c0 a53c e3f2 a73a
000000c0: 5028 263b 4d33 363a e446 a63a d000 4c3b
000000d0: 209f dbba 574f 7639 d4a7 123a 0594 06bb
000000e0: 8954 d53a 57bf de3a d023 1a39 c8aa 233b
000000f0: 002d 17bb 67a7 323a 9a7a d83a 2a2b 07bb
00000100: 60b2 c938 e50e 3ab9 c7d6 db38 fafe d4b7
00000110: 38e0 a238 66b2 033a 0aeb 65bb 2101 0139
00000120: 1acf 3d37 04e9 48b8 764c 01bb a4d9 a339
00000130: 77ff c838 b331 a53a 0481 2d3c 9905 d33a
00000140: 5651 d23a 0c6a 9238 220b ae3a f24a 243b
00000150: b8ee 063b 0a7d b8b9 0fb3 7a38 8aee 2ebb
00000160: bf2d 6e3a 42e0 943b 75be 27ba d190 ae3b
00000170: ae33 55bb b336 fe38 ea10 093b f41f 42bb
00000180: 6a66 523b b97b 48ba f80e 553b 4816 043b
00000190: 42cb 5f3b 5ef2 a53b 4029 3bbb 5f4f 593b
000001a0: ada2 193b 1ae7 7139 5f71 e7ba 44dd 61ba
000001b0: 617a 433b 3fd5 323b 62c2 e93c 1e00 b73a
000001c0: ca2b 233b c4b5 5e3b 6f2d 4b3b b43e 003c
000001d0: f482 80bb e10a 3a3a d4a6 503b fcfe 13ba
000001e0: b18a ec3b 0fdf 903b beb5 ecba 3745 473b
000001f0: 70c5 faba f6d2 503b 35d3 d33a 3ab0 04bb
00000200: 08a9 c5b9 59f1 0e3a 1c89 bfb9 ae1b ccb9
00000210: 986d d0b9 ddc8 e1b9 c49f 06bb d67f c7b9
00000220: 4c3c ddb9 be50 48b9 b2ee bdba 7b9e 2a3a
00000230: ca95 c1b9 29bf 933a 5806 8b3c 3dd8 553a
00000240: 53a9 843b 06c9 ebb9 acdf d63a 61e3 82b8
00000250: 8cd6 60b9 ad56 15ba ce6f cab9 8057 ecba
00000260: c66e eab9 9f8e 393b 6307 0aba 62a1 d43a
00000270: e593 03bb bcb4 c4b9 c1c0 b93a ee01 dbba
00000280: d278 363c 3273 b13a 59df b63a 86d4 df3b
00000290: 507a 1a3c f5cb 073c 0b2e 5bbb d48c c83b
000002a0: be2c a83b dbc5 a6bb a013 02bc 6fad f4ba
000002b0: ae2e 603c 31d5 37bd f31f 133d 15d5 8ebb
000002c0: bf6f 0cbd 431f af3b c02a 80bd 1718 61bc
000002d0: 9a32 cbbd 372d a63c f54b 2e3c 871c eeba
000002e0: 06e6 033c cabc 53bb cd7b 103c aa8a 03be
000002f0: 3317 31ba bbe1 fe3b 8f81 3dbb c522 6c3a
00000300: 1b36 ceba 58dc 2aba c6fa d0ba 47e5 beba
00000310: c6b3 d6ba 77f7 08bb 1216 4c3b 08f7 cbba
00000320: d80d beba a66d 963a 8238 0c3b 8845 9b3a
00000330: 03e1 d5ba af65 813b bd7a 063d 4549 3138
00000340: 2b90 893b 39b6 e0ba 6672 3b3b d624 1fbb
00000350: e7ca 09bc 73a5 a6ba c2ef d0ba c722 7f3a
00000360: 8386 18bb 922c 3e3c c31d 2dba ab73 0abb
00000370: a45f 083b 20b2 ceba 18d5 2fba 9329 e83a
00000380: 5779 7539 dae0 8bb8 bde9 7739 ec41 2039
00000390: 8547 7a39 51cd 063a 344a 07bb d0f7 7139
000003a0: 9acc 5b39 f4dd 2bb9 587e 9dba d74e d637
000003b0: 8fd0 6539 ce82 893a 1ca2 253c 661d 753a
000003c0: fe31 543a 9521 6b39 8336 8a38 431f e63a
000003d0: 8306 1f3b 1351 8b37 97c0 7739 8702 d1ba
000003e0: 790d 4d3a 99d2 0f3b 2358 25b9 768e 4d3b
000003f0: be8e f6ba 7d15 8539 df1b 9b3a ae5a e4ba

gat_layer_1.layer0_1.0.input_linear_layer2.bias f4 [32]
-0.007606836 -0.016453149 -0.016689934 -0.021144032 -0.01695987 0.12772405 -0.0152572505 -0.014963923
0.02244945 -0.021742443 0.012748347 -9.590311e-06 -0.0054486208 -0.13083203 -0.1346481 -0.006942481
-0.025888024 -0.019397825 0.010937399 0.087118626 0.052733764 -0.030087588 -0.009383736 -0.016197892
-0.021846205 -0.16473569 -0.12868255 0.1162763 -0.014686951 -0.016965238 -0.023566918 -0.013468366
00000000: c442 f9bb c1c8 86bc 54b9 88bc 4036 adbc
00000010: 6def 8abc 18ca 023e 8cf9 79bc 3e2b 75bc
00000020: e9e7 b73c 351d b2bc 71de 503c 12e6 20b7
00000030: 588a b2bb d5f8 05be 31e1 09be c07d e3bb
00000040: 1f13 d4bc 30e8 9ebc c732 333c 406b b23d
00000050: 5cff 573d 3f7a f6bc 3ebe 19bc 71b1 84bc
00000060: d0f6 b2bc 79b0 28be 5cc5 03be 4522 ee3d
00000070: 8aa1 70bc affa 8abc 690f c1bc 6caa 5cbc

gat_layer_1.layer0_1.0.a_1.weight f4 [1, 32]
-1.28331e-07 -8.223833e-06 -0.3360309 -0.29875237 -0.40456167 0.00026619044 -0.36846548 -0.087406844
9.906413e-07 -0.000511852 -0.23516484 0.0066005276 -0.28611487 -1.0097083e-08 -0.28741398 -1.0187138e-05
0.0039292946 -9.320051e-05 -0.22097512 -0.0007696723 -0.20545904 0.00016409434 0.0069786506 -1.1883522e-05
-0.00011048026 -1.4810815e-06 0.0060671493 3.1999836e-08 0.0009268392 -0.0012051669 0.00029018254 5.251623e-07
00000000: 5bcb 09b4 18f9 09b7 3e0c acbe 12f6 98be
00000010: b522 cfbe 7a8f 8b39 82a7 bcbe 5c02 b3bd
00000020: 2df6 8435 ce2d 06ba 0dcf 70be 3d49 d83b
00000030: a67d 92be 7177 2db2 ed27 93be 6de9 2ab7
00000040: 50c1 803b a574 c3b8 4d47 62be d5c3 49ba
00000050: db63 52be bd10 2c39 2aad e43b 575f 47b7
00000060: a3b1 e7b8 93c9 c6b5 f0ce c63b 3170 0933
00000070: 20f7 723a b1f6 9dba a423 9839 e1f8 0c35

gat_layer_1.layer0_1.0.a_2.weight f4 [1, 32]
-0.0023468782 7.3224305e-06 -0.0039417977 -0.0068280823 -0.0034075289 -0.09471886 0.0026171417 -0.004068009
-0.007899197 0.0012525446 -0.009338175 0.012415046 -0.0039518615 -0.04531253 0.18821126 -0.0012126352
-0.01764545 -0.00070479314 -0.0037020529 -0.17586613 -0.042639308 -0.0020136884 0.009350364 0.0029853506
-0.17559057 -0.1232012 0.0016798766 -0.04868457 0.0038570228 -0.0044762064 -0.003568436 0.00749538
00000000: 15ce 19bb 33b3 f536 322a 81bb 1bbe dfbb
00000010: d950 5fbb f6fb c1bd 5a84 2b3b ef4c 85bb
00000020: a26b 01bc 6c2c a43a 25ff 18bc 7a68 4b3c
00000030: 9e7e 81bb a299 39bd 74ba 403e 49f1 9eba
00000040: 318d 90bc dec1 38ba 249e 72bb 4016 34be
00000050: 8ea6 2ebd 16f8 03bb 4532 193c dfa5 433b
00000060: 04ce 33be e950 fcbd 4e2f dc3a 7969 47bd
00000070: 1bc6 7c3b 24ad 92bb 6cdc 69bb ce9b f53b

gat_layer_1.layer0_1.1.input_linear_layer1.weight f4 [32, 32]
-1.8760421e-06 2.1268495e-06 1.0565403e-06 1.4807381e-06 -1.0399035e-06 6.208935e-05 -0.00015908525 3.7728614e-06
3.9323595e-06 -1.777631e-05 -8.604122e-05 -1.4832002e-06 5.4268876e-06 -0.00022078723 -0.00036924423 5.8731384e-05
-0.00022309234 3.2958142e-06 -0.00018639643 -5.8508227e-05 -0.0002092627 -6.7905153e-06 -1.1480736e-06 -0.00011602086
3.8451406e-05 -0.00015372115 1.683129e-05 -0.00019230299 -0.00014612825 7.5919615e-06 8.151556e-05 -0.00013261016
0.00010355679 -0.00010822094 8.995647e-05 -4.5392735e-05 0.00012152156 -0.0006420771 0.00015343275 7.6346565e-05
2.7251888e-05 0.00030043162 0.0003005194 0.00024263361 3.5425754e-05 -0.003336465 0.0037818195 4.0980835e-06
-0.0032936314 8.256145e-05 -0.0022085023 -0.0010685793 -0.0030441242 -0.00016815032 0.00017349803 4.2642707e-05
0.00011258976 -0.0034888948 4.6409397e-05 -0.002983926 0.00012527476 9.71181e-05 3.6167872e-05 0.00010748137
8.2068855e-06 8.630161e-08 7.971999e-06 5.861815e-06 8.766636e-06 -1.6870226e-05 2.1733764e-05 7.402921e-06
5.4925476e-06 -4.8613347e-06 1.7562938e-05 -5.4141474e-06 6.399963e-06 -0.0003229482 -9.3009425e-05 -1.1549997e-05
-0.00033021127 8.536456e-06 -0.00021870129 -4.4469372e-05 -1.3399544e-05 1.026774e-05 8.616986e-06 2.0972251e-05
-2.6414516e-05 -0.0004140539 1.6210985e-05 2.1735501e-05 2.1700835e-05 6.00176e-06 -1.50377655e-05 1.9095696e-05
-0.007013409 0.0003792681 -0.0071343845 -0.007341169 -0.0075417287 -0.005420431 -0.0016940987 -0.006431613
-0.0070996555 -0.00033918832 -0.0009643752 0.006491845 -0.0071290964 0.081472464 -0.031775516 0.00066263514
0.08109231 -0.006539652 0.04056263 -0.0039540436 0.0124245165 -0.0075913225 -0.008099317 -0.0016523913
-0.0051424643 0.11532744 -0.009312715 -0.0019409732 -0.0018634077 -0.007128959 0.0007151079 -0.0016629532
-3.3138133e-07 2.8818485e-09 -2.8790288e-07 -1.551605e-07 -3.1309798e-07 6.134501e-07 3.9861916e-07 -2.3512601e-07
-1.7076842e-07 -9.0260656e-08 -5.6501233e-07 7.640487e-08 -1.9288511e-07 -5.672363e-06 1.6181257e-05 3.2204457e-07
-5.797919e-06 -2.3985325e-07 -6.2592744e-06 -2.1740666e-06 -1.00539955e-05 -1.6962751e-07 -3.070639e-07 -8.495206e-07
3.931591e-07 1.3386627e-06 1.414923e-07 -9.5045525e-06 -6.593456e-07 -1.9071291e-07 -2.632175e-07 -2.5197153e-08
0.00014250347 -0.00012638785 0.0001252032 -2.4559511e-05 0.00016455671 -0.0007552908 0.00023861486 0.0001005345
5.9816994e-05 0.00032161348 0.00033130025 0.00020976663 5.9017642e-05 -0.0037639816 0.004384532 -4.4914115e-05
-0.0037276018 0.00010611331 -0.0026872144 -0.0015300278 -0.0035642586 -8.582667e-05 0.0002262549 9.144361e-05
-3.275495e-05 -0.0039352854 0.00033495988 -0.003538795 0.00020515105 0.00013250031 -3.822398e-06 0.0001685174
-2.0100874e-06 -6.183566e-07 -1.0341637e-06 -1.2531596e-06 -2.0182038e-06 2.4637475e-05 -3.895399e-05 -1.9009428e-07
8.459534e-08 -2.9752728e-06 -2.7876798e-05 3.1292852e-06 4.296386e-07 -7.144391e-05 -0.00019549222 1.98696e-05
-7.6098615e-05 -6.527291e-07 -0.00010383276 -2.7402526e-05 -0.00015827133 -6.882744e-06 -1.959725e-06 -4.4054847e-05
2.6346586e-05 4.0124296e-06 5.1249503e-07 -0.00016071508 -4.305507e-05 1.4732526e-06 2.8462224e-05 -4.4802808e-05
-4.2641162e-07 -1.842032e-07 -2.0913808e-07 -9.035759e-08 -5.067488e-07 6.6748516e-06 -1.3915083e-05 -4.0263615e-08
2.0459522e-07 -1.3964898e-06 -7.5196504e-06 4.1153868e-07 1.3998088e-07 -8.463301e-05 -8.23663e-05 5.5371147e-06
-8.95732e-05 -3.4531422e-07 -0.00013081636 -5.2012885e-05 -0.00010491644 -8.904604e-07 -4.598827e-07 -1.2638089e-05
1.5544525e-06 -4.7225607e-05 7.5259354e-06 -0.00010610106 -9.9183135e-06 4.0272215e-07 7.5713247e-06 -6.452176e-06
00000000: 51cc fbb5 ffba 0e36 73ce 8d35 c6bd c635
00000010: d092 8bb5 f735 8238 1fd0 26b9 4431 7d36
00000020: b6f2 8336 561e 95b7 0771 b4b8 5f12 c7b5
00000030: 9c18 b636 1f83 67b9 1f97 c1b9 5856 7638
00000040: e5ed 69b9 a82d 5d36 6973 43b9 bb66 75b8
00000050: 876d 5bb9 15da e3b6 8217 9ab5 3a50 f3b8
00000060: e246 2138 3530 21b9 ec30 8d37 f1a4 49b9
00000070: 013a 19b9 74be fe36 55f3 aa38 450d 0bb9
00000080: a12c d938 adf4 e2b8 03a7 bc38 1464 3eb8
00000090: 64d9 fe38 1151 28ba cae2 2039 401c a038
000000a0: fc9a e437 4083 9d39 088f 9d39 776b 7e39
000000b0: 1d96 1438 98a8 5abb 67d8 773b 4582 8936
000000c0: f7d9 57bb d724 ad38 85bc 10bb 920f 8cba
000000d0: ee7f 47bb 8251 30b9 06ed 3539 42db 3238
000000e0: 2b1e ec38 f1a5 64bb b6a7 4238 f98d 43bb
000000f0: 305c 0339 e2ab cb38 f5b2 1738 9f67 e138
00000100: 4eb0 0937 d054 b933 7abf 0537 9cb0 c436
00000110: 6a14 1337 8984 8db7 e750 b637 9b66 f836
00000120: a04c b836 8c1e a3b6 1f54 9337 2cab b5b6
00000130: 43bf d636 6051 a9b9 0e0e c3b8 dcc6 41b7
00000140: 3520 adb9 cd37 0f37 2e53 65b9 a084 3ab8
00000150: 9ace 60b7 9c43 2c37 ac91 1037 91ed af37
00000160: be94 ddb7 6015 d9b9 d3fc 8737 a254 b637
00000170: 300a b637 ba62 c936 b64a 7cb7 b22f a037
00000180: bdd0 e5bb 81d8 c639 8ec7 e9bb 308e f0bb
00000190: 9b20 f7bb df9d b1bb 850c deba 48c0 d2bb
000001a0: 3aa4 e8bb 16d5 b1b9 20ce 7cba 8bb9 d43b
000001b0: 329b e9bb 09db a63d 0b27 02bd b1b4 2d3a
000001c0: ba13 a63d 944a d6bb 0025 263d ec90 81bb
000001d0: 3390 4b3c a1c0 f8bb ffb2 04bc 0d95 d8ba
000001e0: 1e82 a8bb cb30 ec3d 5c94 18bc 4168 feba
000001f0: 963d f4ba 0b9a e9bb 1476 3b3a 73f7 d9ba
00000200: b4e8 b1b4 040a 4631 1291 9ab4 329a 26b4
00000210: dc17 a8b4 f8ab 2435 cd01 d634 f276 7cb4
00000220: 775c 37b4 52d5 c1b3 5aab 17b5 0614 a433
00000230: db1b 4fb4 3a55 beb6 fcbc 8737 78e5 ac34
00000240: bf8b c2b6 2ec5 80b4 c206 d2b6 2ee6 11b6
00000250: 95ad 28b7 db22 36b4 8bda a4b4 9c0a 64b5
00000260: 6013 d334 1aac b335 1bed 1734 be75 1fb7
00000270: e2fd 30b5 c4c6 4cb4 5650 8db4 2071 d8b2
00000280: fc6c 1539 fb86 04b9 fa48 0339 2605 ceb7
00000290: db8c 2c39 b5fe 45ba b034 7a39 0cd6 d238
000002a0: 02e4 7a38 3b9e a839 5eb2 ad39 cdf4 5b39
000002b0: b689 7738 22ad 76bb 1fac 8f3b 2a62 3cb8
000002c0: c84a 74bb 2689 de38 fa1b 30bb 378b c8ba
000002d0: 5696 69bb d8fd b3b8 d63e 6d39 6ac5 bf38
000002e0: 5c62 09b8 91f3 80bb 8e9d af39 21eb 67bb
000002f0: d11d 5739 c8ef 0a39 2642 80b6 0cb4 3039
00000300: 0ae5 06b6 24fd 25b5 98cd 8ab5 3c32 a8b5
00000310: 7a70 07b6 93ac ce37 8762 23b8 b81c 4cb4
00000320: c8aa b533 ccaa 47b6 f8d8 e9b7 b600 5236
00000330: 14a9 e634 28d4 95b8 0bfd 4cb9 a4ad a637
00000340: 2297 9fb8 3437 2fb5 cac0 d9b8 7ade e5b7
00000350: a3f5 25b9 52f2 e6b6 d283 03b6 88c7 38b8
00000360: dd02 dd37 82a2 8636 6492 0935 a085 28b9
00000370: 0896 34b8 93bc c535 29c2 ee37 a6ea 3bb8
00000380: 91ed e4b4 64c9 45b4 708f 60b4 9c0a c2b3
00000390: 8307 08b5 8af8 df36 d474 69b7 50ee 2cb3
000003a0: b5ae 5b34 066f bbb5 4e51 fcb6 72f1 dc34
000003b0: a74d 1634 007d b1b8 12bc acb8 74cb b936
000003c0: 3fd9 bbb8 a063 b9b4 c02b 09b9 6928 5ab8
000003d0: 9606 dcb8 f907 6fb5 cce5 f6b4 2e08 54b7
000003e0: 95a2 d035 1c14 46b8 4b87 fc36 9382 deb8
000003f0: d566 26b7 b635 d834 2f0d fe36 c57f d8b6

gat_layer_1.layer0_1.1.input_linear_layer1.bias f4 [32]
-0.00068461476 0.0036493791 -0.00022515157 0.05685635 -2.1437781e-05 0.004370513 -0.00023186483 -0.00014587003
0.002109718 -0.0005150088 0.15958318 0.0007114042 -0.00079322635 0.12583381 0.0025813968 -0.006426225
0.08136272 -0.0014388649 -2.4762355e-06 0.06447223 0.11274142 0.07465944 -0.00040552896 0.005902525
0.19388485 0.13107814 -3.8033304e-05 -0.0002654717 -0.0006240704 -5.6229008e-05 0.00038206813 0.0019960045
00000000: b877 33ba 6c2a 6f3b aa16 6cb9 34e2 683d
00000010: 49d5 b3b7 8536 8f3b be20 73b9 b0f4 18b9
00000020: 3243 0a3b a801 07ba c669 233e 877d 3a3a
00000030: 85f0 4fba 94da 003e a72c 293b 1593 d2bb
00000040: 7fa1 a63d 4b98 bcba 672d 26b6 040a 843d
00000050: f9e4 e63d 0ce7 983d 2d9d d4b9 f869 c13b
00000060: c089 463e 5939 063e f385 1fb8 022f 8bb9
00000070: a898 23ba 70d7 6bb8 5150 c839 66cf 023b

gat_layer_1.layer0_1.1.input_linear_layer2.weight f4 [32, 32]
0.0005647879 5.458392e-05 0.0005828183 0.0004475761 0.00059369043 0.0012638165 -0.001638798 0.00063801435
0.00041148343 -0.00019184117 -0.000900394 -0.0003083613 0.00062727515 -0.0012638837 -0.009879765 0.00049568585
0.003399539 0.00066376256 0.0016486623 0.003537266 0.004310804 7.7427285e-05 0.00055677415 -0.0011344716
0.0018866536 -0.0029590928 -0.00035834595 0.0074044657 -0.0014231352 0.0005996817 0.0006763958 -0.001299343
-0.00048587582 3.4287328e-05 -0.00048428559 -0.0005438108 -0.000624723 -0.0003106662 -0.0022146613 -0.00036228859
-0.0007086848 0.00042985982 -0.0014448576 0.00078089844 -0.0004414946 0.0036438496 0.029617075 0.0014255604
0.0033069034 -0.00053312175 0.0025996822 0.0014141564 -0.003979726 -0.0008791614 -0.00070681935 -0.0022032254
0.00014516995 0.005579689 -0.000378814 0.0011337291 -0.0024120875 -0.000553014 0.002010447 -0.001997399
0.00053276663 -1.1942734e-05 0.00053002156 0.00029217487 0.0004892925 0.0011987005 -0.0036297005 0.0005925249
0.0003533709 3.2208198e-05 -0.002209179 4.6050896e-05 0.0005132444 0.0012509522 0.0010686179 0.0018718792
0.0020899747 0.0005074101 0.0012991191 0.0034243597 0.0031622525 -0.00025163582 0.00045212766 -0.002663153
0.0018553348 9.10168e-05 -0.00089223805 0.0050875484 -0.0034701058 0.0005566746 0.0024063608 -0.0030655342
0.0018140287 -0.00074555865 0.0018566148 0.001349077 0.0019103494 0.003289887 -0.0072534275 0.0019346736
0.0014686475 0.0003810958 -0.004130103 -0.00093617453 0.0018396267 0.00074848556 0.008639273 0.0033314358
0.0019434482 0.002017096 0.0018621508 0.006353909 0.005154481 0.0005209671 0.0018270044 -0.004644803
0.0044026272 0.00019882608 -0.0013295796 0.00917323 -0.006258247 0.0019088153 0.0041216444 -0.0058076424
0.0012232672 0.00011171141 0.0012376747 0.0011430269 0.0011780163 0.0013847752 -0.0017650481 0.001196813
0.0012271958 -5.3926276e-05 -0.0010696988 -0.0007544955 0.0011628043 -9.4539195e-05 -0.017753465 0.00074824283
-0.0042078616 0.0011030565 -0.0003949546 0.0021938789 -0.0011835191 0.00087563397 0.0011831578 -0.0013688784
0.0016712864 -0.0063066976 0.00094654266 0.002422631 -0.0017041947 0.0012485406 0.0011924477 -0.0014371664
0.006685111 0.0016880279 0.012949206 0.014126981 0.019379627 0.008763446 -0.0034938727 0.005740611
0.016379565 -0.006004965 -0.009965142 -0.010498071 0.013770715 -0.115849026 0.03424057 -0.0048592263
0.06564156 0.0052133137 -0.090346806 -0.018896218 -0.043651216 0.038685467 0.018209886 -0.0016496775
0.014093461 -0.053025182 0.06724815 -0.12749735 -0.00085614534 0.014224543 -0.0034047514 0.0015925949
0.00048483416 7.6956836e-05 0.00042985816 0.00086122134 0.0003822027 -0.001495566 0.0052905013 0.00035706226
0.000739658 0.0007163263 0.0037826842 -0.0010164189 0.00038644273 -0.0009683934 0.040739864 -0.0012263362
0.000102074475 0.00011481625 -0.00079666404 -0.0047349716 -0.01068597 0.0015831148 0.00047650756 0.0026323637
-0.0028405527 0.0077819955 0.0032904642 -0.0054592625 0.0039109723 0.00036745326 -0.0018396666 0.0037409253
-0.00076765363 -0.00013381659 -0.00076884177 -0.0009410526 -0.00078077364 -0.00021466635 -0.002308227 -0.0007409316
-0.0008581994 -0.00010183026 -0.0013153803 0.0011977353 -0.00079649285 0.0034067829 0.013169925 0.0010852412
0.0031463448 -0.0007752593 0.0019027212 0.001905926 0.0024415164 -0.001268221 -0.0007962409 -0.0016776955
0.00037793015 0.0041787126 -0.0017322997 0.0035452503 -0.0020920476 -0.0007367909 0.001350411 -0.0019465084
00000000: 460e 143a 0af1 6438 46c8 183a a6a8 ea39
00000010: e4a1 1b3a a5a6 a53a f0cc d6ba 6b40 273a
00000020: 5fbc d739 f928 49b9 6b08 6cba 8eab a1b9
00000030: b96f 243a e6a8 a5ba bdde 21bc eaf0 013a
00000040: cdca 5e3b 5a00 2e3a ed17 d83a 7ad1 673b
00000050: a541 8d3b 7560 a238 7bf4 113a 8db2 94ba
00000060: 9749 f73a 57ed 41bb 61e0 bbb9 29a1 f23b
00000070: 7e88 baba f533 1d3a 2750 313a b74e aaba
00000080: 26bd feb9 bdcf 0f38 b6e7 fdb9 868e 0eba
00000090: 73c4 23ba e9e0 a2b9 da23 11bb 8df1 bdb9
000000a0: 08c7 39ba cf5e e139 6061 bdba 35b5 4c3a
000000b0: 6778 e7b9 a7cd 6e3b 829f f23c dfd9 ba3a
000000c0: a2b8 583b 32c1 0bba 6e5f 2a3b 375b b93a
000000d0: 5d68 82bb 8677 66ba d849 39ba fd63 10bb
000000e0: c338 1839 d3d5 b63b 8e9b c6b9 a399 943a
000000f0: 1d14 1ebb 24f8 10ba b4c1 033b cbe6 02bb
00000100: 5da9 0b3a a75d 48b7 25f1 0a3a 0c2f 9939
00000110: dd43 003a b71d 9d3a 45e0 6dbb ac53 1b3a
00000120: a444 b939 4a17 0738 e0c7 10bb c626 4138
00000130: 408b 063a fef6 a33a de10 8c3a d859 f53a
00000140: f5f7 083b b703 053a 3447 aa3a 396b 603b
00000150: cb3d 4f3b fded 83b9 8c0b ed39 4b88 2ebb
00000160: b52e f33a 46e0 be38 15e5 69ba 73b5 a63b
00000170: b76a 63bb cded 113a 09b4 1d3b 21e7 48bb
00000180: b4c4 ed3a 9871 43ba a859 f33a 83d3 b03a
00000190: b064 fa3a 259b 573b 29ae edbb e094 fd3a
000001a0: a27f c03a d0cd c739 d155 87bb 9c69 75ba
000001b0: a11f f13a 0436 443a bd8b 0d3c 3854 5a3b
000001c0: 4dbb fe3a 4131 043b 6a13 f43a 7434 d03b
000001d0: ece6 a83b 8391 083a 1878 ef3a 6e33 98bb
000001e0: ea43 903b f87b 5039 4a45 aeba 514b 163c
000001f0: fb11 cdbb 3731 fa3a dc0e 873b 094e bebb
00000200: 0956 a03a 9b46 ea38 7939 a23a 9ed1 953a
00000210: ab67 9a3a 5881 b53a 3059 e7ba 61de 9c3a
00000220: dcd9 a03a e62e 62b8 2335 8cba 56c9 45ba
00000230: 3d69 983a 5843 c6b8 b76f 91bc ba25 443a
00000240: 1ae2 89bb 6f94 903a e911 cfb9 2ec7 0f3b
00000250: 5020 9bba cd8a 653a 3014 9b3a f06b b3ba
00000260: 110f db3a 6aa8 cebb 6721 783a 01c5 1e3b
00000270: 495f dfba 12a6 a33a e84b 9c3a 4d5f bcba
00000280: c70e db3b d140 dd3a e828 543c da74 673c
00000290: 06c2 9e3c 8e94 0f3c 75f9 64bb bc1b bc3b
000002a0: 702e 863c 4cc5 c4bb d644 23bc 1a00 2cbc
000002b0: 919e 613c 4142 edbd d73f 0c3d 253a 9fbb
000002c0: 156f 863d 72d4 aa3b bf07 b9bd 3ecc 9abc
000002d0: 9ecb 32bd a774 1e3d e62c 953c fe39 d8ba
000002e0: 43e8 663c ef30 59bd 66b9 893d aa8e 02be
000002f0: f16e 60ba 0f0e 693c 4022 5fbb 9ebe d03a
00000300: 5731 fe39 e363 a138 965e e139 96c3 613a
00000310: 6162 c839 de06 c4ba f15b ad3b 1634 bb39
00000320: 9ce5 413a d8c7 3b3a e9e6 773b 5c39 85ba
00000330: 779b ca39 c8db 7dba d8de 263d 04bd a0ba
00000340: d110 d638 81c9 f038 38d7 50ba d227 9bbb
00000350: 3514 2fbc 8580 cf3a c3d3 f939 bc83 2c3b
00000360: 9128 3abb 1c00 ff3b d4a4 573b 9de3 b2bb
00000370: 9d27 803b bea6 c039 f820 f1ba 502a 753b
00000380: 5d3c 49ba 1e51 0cb9 198c 49ba f9b0 76ba
00000390: d5ac 4cba 0f18 61b9 9f45 17bb 143b 42ba
000003a0: c9f8 60ba b48d d5b8 d768 acba 54fd 9c3a
000003b0: bbcb 50ba 5544 5f3b abc6 573c a73e 8e3a
000003c0: e832 4e3b c53a 4bba bb64 f93a 44d0 f93a
000003d0: d901 203b 6f3a a6ba d3ba 50ba 1fe6 dbba
000003e0: ed24 c639 95ed 883b 550e e3ba 6e57 683b
000003f0: bc1a 09bb 3325 41ba 4600 b13a fc21 ffba

gat_layer_1.layer0_1.1.input_linear_layer2.bias f4 [32]
-0.008604243 -0.020050276 -0.012360868 -0.024012206 0.0057559777 0.14155826 -0.017311987 -0.017339956
-0.029392613 0.0063171703 -0.020237079 -0.03134926 -0.013153188 0.024656521 -0.1599412 -0.013197312
-0.018210005 -0.012386229 -0.03182031 0.11494133 0.17266402 -0.03060199 -0.010614954 -0.021084145
0.12501709 0.10789198 0.07646216 0.02859709 -0.0149423005 -0.024523709 -0.026165642 -0.019569492
00000000: d0f8 0cbc 7a40 a4bc 3d85 4abc 3fb5 c4bc
00000010: a49c bc3b a6f4 103e ded1 8dbc 860c 8ebc
00000020: c7c8 f0bc 4400 cf3b 3bc8 a5bc 1568 00bd
00000030: 7880 57bc 79fc c93c a0c7 23be 8a39 58bc
00000040: 262d 95bc 9cef 4abc 0356 02bd 5c66 eb3d
00000050: d6ce 303e 06b1 fabc 58ea 2dbc a8b8 acbc
00000060: 7b04 003e 78f6 dc3d 3198 9c3d 7244 ea3c
00000070: 8dd0 74bc f2e5 c8bc 5459 d6bc 3350 a0bc

gat_layer_1.layer0_1.1.a_1.weight f4 [1, 32]
-0.00030868893 0.00368395 -1.2732363e-06 -0.12742119 -2.221745e-06 0.004357369 -0.000101589096 -3.3970347e-05
0.0025038342 -0.00037596712 -0.35946977 0.00032928825 -0.00027589695 -0.31717467 0.0026807154 -0.0059759174
-0.3620393 -0.0010354825 -2.9229438e-08 -0.12856814 -0.25696862 -0.19839747 -3.6581656e-05 0.0062881107
-0.4827929 -0.32305428 -4.174943e-06 -1.0847418e-05 -0.0005392039 -6.5375143e-06 0.0006329706 0.001948963
00000000: 87d7 a1b9 6d6e 713b 11e4 aab5 b37a 02be
00000010: 4a19 15b6 43c8 8e3b 3b0c d5b8 627b 0eb8
00000020: 5e17 243b 741d c5b9 6c0c b8be 52a4 ac39
00000030: 43a6 90b9 b864 a2be f1ae 2f3b a1d1 c3bb
00000040: 375d b9be 07b9 87ba 3714 fbb2 5ea7 03be
00000050: 6491 83be b528 4bbe 416f 19b8 7f0c ce3b
00000060: a230 f7be 5f67 a5be 7d16 8cb6 4efd 35b7
00000070: 5c59 0dba d25c dbb6 f0ed 253a 5974 ff3a

gat_layer_1.layer0_1.1.a_2.weight f4 [1, 32]
-0.0017176413 -0.00037610065 -0.0035074675 -0.0050700363 -0.003178881 -0.19295849 -0.00027231956 -0.0029132904
-0.011006218 0.0021683152 -0.008327435 0.009285648 -0.0036480702 -0.03844927 0.16348986 -0.0025784355
-0.021421814 -2.363513e-05 -0.001197827 -0.14511615 -0.060150657 -0.0016609684 -0.0005707016 0.007894808
-0.14621878 -0.22405854 -0.10980904 -0.366583 0.0068346905 -0.0055388184 -0.0029143323 0.0047781393
00000000: 7a22 e1ba 602f c5b9 8add 65bb 8c22 a6bb
00000010: c654 50bb e996 45be 1dc6 8eb9 e7ec 3ebb
00000020: 6d53 34bc 4b1a 0e3b cb6f 08bc d522 183c
00000030: 7614 6fbb fb7c 1dbd e369 273e f8fa 28bb
00000040: cd7c afbc 0e44 c6b7 6800 9dba 5499 14be
00000050: 8960 76bd dab4 d9ba 239b 15ba 3a59 013c
00000060: 60ba 15be 9a6f 65be 90e3 e0bd c4b0 bbbe
00000070: 8af5 df3b fa7e b5bb 62fe 3ebb f091 9c3b

out_layers.layers.0.weight f4 [32, 32]
-0.016951354 0.00042862358 -0.0043253573 0.0118659185 -0.035045728 -0.080505334 0.0032593368 -0.011156188
-0.040707607 -0.001916529 -0.025014635 0.0564211 -0.0060616164 0.17237453 -0.42637 -0.004645044
0.20255543 0.0019702518 0.12248906 -0.15098996 -0.06762904 -0.02568224 -0.027861875 -0.002647528
-0.14184162 0.14107877 -0.22809045 -0.007936464 -0.0020206643 -0.008281064 0.026781863 0.0059833415
0.0003784602 -0.0046522347 0.003366502 -0.0011435738 0.0051885303 -0.11781064 0.00892238 0.00157485
0.0045628804 0.004213865 0.000830843 -0.012537189 0.0032560306 -0.09707196 -0.25540382 0.0025278036
0.031538878 0.00655879 -0.054724436 -0.25320786 -0.4074723 -0.00791969 0.0028135409 0.0100129265
-0.08339009 -0.14157118 -0.04255176 -0.25115943 0.008163639 0.0068716127 -0.010730278 0.005772936
-0.0007970108 -0.0016395263 -0.0007803448 -0.0011446616 0.00022127005 -0.0015233535 0.0008116885 -0.0010485391
-0.000763659 -0.0008189099 -0.0006877765 0.00055168575 -0.0011520806 -0.0026278878 0.00797542 -0.00060120516
-0.0005589829 -0.0010037463 0.00055254454 -0.027931279 0.008391647 -0.00085981836 -0.000565743 -5.9267462e-05
-0.004963906 -0.0014212792 -0.0012990677 0.006248185 -0.00049936655 -0.0006669609 -0.0020548317 -0.00049750815
0.021938726 0.0023458193 0.017310001 0.020083545 0.021427272 -0.2568933 -0.007161304 0.012318152
0.024901053 -0.004866865 -0.008750586 -0.042999137 0.010075364 0.05571393 -0.06391441 -0.001429157
-0.008522771 0.01233503 -0.0029271543 -0.19932067 -0.03214104 0.032194845 0.013369981 -0.002261368
-0.21649933 0.039843623 -0.17709738 0.013897228 -0.0065601408 0.011942759 0.012781898 -0.0039676405
-0.00056033075 -0.0008429506 -0.00043789198 -0.00075105316 0.000632382 0.0011601046 0.00079729856 -0.001007159
-4.6617006e-05 -0.0014276493 -0.0014555312 -0.00034787026 -0.0008214575 -0.0021923503 0.0076704347 -0.00091290305
-8.657055e-05 -0.00042367246 -0.00042137466 -0.02532302 0.008243419 -0.00052791083 -0.00023774894 0.00020223053
-0.008361206 -0.0005487315 0.00016269472 0.006526682 -0.0002665432 -4.0158346e-05 -0.0022797226 -0.00029133318
0.0068904757 -0.0049465164 0.0030526575 0.0034193387 0.0024662032 -0.20278704 -0.00022727044 0.0061458927
-0.0028195533 0.013016781 2.2716495e-05 0.004483821 0.006111481 -0.00086928 0.07549238 0.017595148
-0.034424957 0.0009995765 -0.02900412 -0.12559837 -0.07623133 0.006519723 0.0031368684 -0.0017533553
-0.13333882 -0.054574657 -0.14410518 0.03881233 -0.0034876396 -0.003505501 0.009368141 -0.0010249254
0.024123713 0.0016562176 0.015179406 0.017872667 0.025372969 -0.27605408 -0.0086144265 0.007273358
0.028022595 -0.015914923 -0.010806766 -0.03765056 0.012188451 0.08010776 -0.0810209 -0.0066138655
0.041421436 0.022250442 -0.020976808 -0.023193598 -0.05968457 0.028253766 0.012151384 0.001775482
-0.22175314 0.06908754 -0.19540365 -0.07647662 -0.008995045 0.019953694 0.0029732739 -0.0063136877
-0.012739573 -0.008942939 0.003551246 0.0057660686 0.011711023 0.25284645 0.0048817093 0.0029173126
0.037941594 0.006097719 0.026952496 -0.0018246215 0.004842949 0.04700376 0.07549435 -0.011428221
-0.020380884 0.0154877715 -0.08109289 0.041567914 -0.11616897 0.0053863884 0.01424544 -0.014747846
-0.054404326 -0.082399085 0.17930567 -0.20456386 -0.002466746 0.01013446 -0.02643339 -0.004153543
00000000: 91dd 8abc e2b8 e039 babb 8dbb 4569 423c
00000010: 1c8c 0fbd fbdf a4bd 999a 553b 72c8 36bc
00000020: 05bd 26bd 0b34 fbba 7eeb ccbc d019 673d
00000030: 86a0 c6bb f382 303e 2b4d dabe 7435 98bb
00000040: b16a 4f3e 571f 013b 8bdb fa3d 1d9d 1abe
00000050: 1881 8abd 9063 d2bc 963e e4bc 2682 2dbb
00000060: ee3e 11be f476 103e 8b90 69be f107 02bc
00000070: 1f6d 04bb 4dad 07bc a365 db3c e80f c43b
00000080: 116c c639 c671 98bb 88a0 5c3b f8e3 95ba
00000090: 8c04 aa3b b446 f1bd 2d2f 123c 326b ce3a
000000a0: 3784 953b 7614 8a3b eecc 593a c868 4dbc
000000b0: 2163 553b aacd c6bd 4ac4 82be 82a9 253b
000000c0: e92e 013d 1eeb d63b bb26 60bd 76a4 81be
000000d0: 36a0 d0be 96c1 01bc 6263 383b 420d 243c
000000e0: 6cc8 aabd 09f8 10be c14a 2ebd f897 80be
000000f0: c9c0 053c 442b e13b 0cce 2fbc e62a bd3b
00000100: 7dee 50ba 60e5 d6ba 0e90 4cba 7808 96ba
00000110: ba04 6839 43ab c7ba 7ec7 543a 226f 89ba
00000120: 4a30 48ba 1dac 56ba e64b 34ba 019f 103a
00000130: 6901 97ba a438 2cbb 56ab 023c 329a 1dba
00000140: b588 12ba 2390 83ba a3d8 103a 23d0 e4bc
00000150: 1e7d 093c 6f65 61ba 5f4e 14ba f495 78b8
00000160: 43a8 a2bb 374a baba 7b45 aaba 93bd cc3b
00000170: ece7 02ba fdd6 2eba 5baa 06bb 356b 02ba
00000180: d8b8 b33c 51bc 193b b4cd 8d3c 3f86 a43c
00000190: 3f88 af3c 8587 83be 5fa9 eabb 13d2 493c
000001a0: 4bfd cb3c 397a 9fbb 9e5e 0fbc dd1f 30bd
000001b0: 2413 253c 4a34 643d 8fe5 82bd 8d52 bbba
000001c0: 18a3 0bbc de18 4a3c 80d5 3fbb b81a 4cbe
000001d0: 53a6 03bd bede 033d c40d 5b3c 7633 14bb
000001e0: 00b2 5dbe 1133 233d 0459 35be 33b1 633c
000001f0: 73f6 d6bb 90ab 433c 2a6b 513c fb02 82bb
00000200: 29e3 12ba 75f9 5cba de94 e5b9 53e2 44ba
00000210: 70c6 253a a70e 983a cd01 513a a602 84ba
00000220: a186 43b8 f61f bbba 86c7 beba 5b62 b6b9
00000230: 1457 57ba 89ad 0fbb 4558 fb3b e34f 6fba
00000240: 368d b5b8 5b20 deb9 f3eb dcb9 3972 cfbc
00000250: 680f 073c 7f63 0aba 3f4c 79b9 d80d 5439
00000260: 71fd 08bc bfd8 0fba 0899 2a39 c7dd d53b
00000270: d3be 8bb9 b26f 28b8 6667 15bb 14be 98b9
00000280: 80c9 e13b 6316 a2bb 180f 483b fc16 603b
00000290: 06a0 213b 68a7 4fbe 724f 6eb9 7c63 c93b
000002a0: 41c8 38bb 5644 553c 4d8f be37 04ed 923b
000002b0: d242 c83b 65e0 63ba c09b 9a3d b323 903c
000002c0: 2f01 0dbd 3904 833a 0c9a edbc dc9c 00be
000002d0: 2c1f 9cbd 67a3 d53b eb93 4d3b d7d0 e5ba
000002e0: f989 08be ad89 5fbd 4f90 13be aef9 1e3d
000002f0: e290 64bb 8cbc 65bb d57c 193c ca56 86ba
00000300: 189f c53c 7115 d93a 0bb3 783c b369 923c
00000310: f9da cf3c f656 8dbe 8623 0dbc 5955 ee3b
00000320: a48f e53c 0360 82bc dd0e 31bc 7937 1abd
00000330: 12b2 473c 8a0f a43d 49ee a5bd 20b9 d8bb
00000340: 86a9 293d 8f46 b63c 8ed7 abbc 8000 bebc
00000350: cf77 74bd 7174 e73c 9916 473c 4ab7 e83a
00000360: 4113 63be c57d 8d3d e517 48be c69f 9cbd
00000370: f45f 13bc ee75 a33c 42db 423b 0de3 cebb
00000380: a4b9 50bc 6885 12bc 05bc 683b 4af1 bc3b
00000390: 97df 3f3c 1775 813e bff6 9f3b 6230 3f3b
000003a0: a568 1b3d 60cf c73b 7bcb dc3c 2328 efba
000003b0: 9ab1 9e3b 0487 403d c89c 9a3d 6f3d 3bbc
000003c0: d0f5 a6bc 6cc0 7d3c 0714 a6bd 1e43 2a3d
000003d0: ffe9 edbd 4d80 b03b b565 693c f3a0 71bc
000003e0: 12d7 5ebd dac0 a8bd e89b 373e 3079 51be
000003f0: 21a9 21bb 020b 263c d68a d8bc 721a 88bb
