output/modelparams/dynamicLearning-WORKPLACE-SCUAU-DiffSAT/epoch29_model_state_dict.pth (torch, 267959 bytes, 158 tensors)

in_layer0.layers.0.weight f4 [32, 2]
-0.08258342 0.26462466 -0.067428656 -0.36319086 -0.4053072 0.10120442 -0.23045275 0.75019187
-0.16104124 0.122025765 -0.09948271 -0.4051525 -0.31656694 -0.01747537 -0.36487323 0.12010176
0.36653945 -0.050388075 -0.4056308 -0.11607809 0.1197982 0.5078093 -0.35928628 0.6923302
-0.15794893 0.23132756 0.3704186 -0.14953312 0.00045569518 0.0004538114 -0.34284836 0.84333265
-0.25952828 -0.09460404 0.00040551682 0.00040389432 -0.64314854 0.78139865 -0.0004244983 -0.0004218454
0.028509086 -0.46438298 0.09962836 -0.3652967 -0.43526405 0.084757835 -0.00045998336 -0.00045691052
-0.22168389 0.06735943 0.2461881 0.65120196 0.3274355 0.009849834 0.6052114 -0.5959261
0.06057384 -0.412081 -0.5436534 -0.062405724 0.00042536957 0.00041900622 -0.006321158 0.047931522
00000000: 7f21 a9bd e27c 873e 0918 8abd 27f4 b9be
00000010: 6d84 cfbe 4344 cf3d cefb 6bbe 930c 403f
00000020: ffe7 24be a5e8 f93d 97bd cbbd 2670 cfbe
00000030: 1015 a2be 8228 8fbc aad0 babe e9f7 f53d
00000040: 0fab bb3e ba63 4ebd d7ae cfbe 5aba edbd
00000050: c258 f53d caff 013f 5ff4 b7be 8d3c 313f
00000060: 5dbd 21be 22e1 6c3e 82a7 bd3e 361f 19be
00000070: 5fea ee39 89ed ed39 d289 afbe a6e4 573f
00000080: e4e0 84be c3bf c1bd 8c9b d439 c7c1 d339
00000090: 62a5 24bf be09 483f 338f deb9 222b ddb9
000000a0: e38b e93c 9bc3 edbe f409 cc3d 2b08 bbbe
000000b0: eeda debe 8495 ad3d ec29 f1b9 7e8d efb9
000000c0: 1a01 63be bef3 893d bc18 7c3e 2cb5 263f
000000d0: a0a5 a73e 3361 213c 22ef 1a3f 9d8e 18bf
000000e0: 461c 783d 48fc d2be df2c 0bbf 259d 7fbd
000000f0: 2304 df39 10ae db39 b721 cfbb d853 443d

in_layer0.layers.0.bias f4 [32]
0.08728579 0.06730976 -0.10376123 0.1680308 0.16578628 0.71028054 -0.2963458 -0.1969033
0.3104537 0.43144363 0.35244218 0.5299947 0.16059268 -0.37153524 -0.00020117205 -0.21763839
-0.34191042 -0.0001547159 0.5213995 0.00017705107 0.029577749 -0.100360304 -0.078018405 0.00020819624
0.23115976 -0.36900127 0.29908606 0.44482723 0.38897428 0.17297174 -0.00014093654 -0.10397479
00000000: e4c2 b23d b3d9 893d c580 d4bd 4410 2c3e
00000010: e1c3 293e f2d4 353f a3ba 97be 05a1 49be
00000020: caf3 9e3e 2ee6 dc3e 4d73 b43e bcad 073f
00000030: 6872 243e de39 bebe b6f1 52b9 99dc 5ebe
00000040: e20e afbe 3c3b 22b9 707a 053f c9a6 3939
00000050: 094d f23c b489 cdbd 1dc8 9fbd 414f 5a39
00000060: 25b5 6c3e bced bcbe cf21 993e 65c0 e33e
00000070: a327 c73e 811f 313e 5dc8 13b9 bcf0 d4bd

in_layer0.layers.2.weight f4 [32, 32]
6.825173e-05 0.0001271151 0.000925806 0.0005487593 -5.7436293e-05 -0.00203409 0.00091334985 0.0009327507
-0.002272241 -0.0002742291 -0.0007120079 0.00018245168 0.00012466994 3.0118794e-05 -0.00016839907 0.0004857066
0.00090252777 -0.00016391616 0.0010311427 0.00016216445 -0.0004091677 1.51833865e-05 0.0009174084 0.00016635285
-9.665782e-05 0.00043987937 -0.0020954385 -0.0021582737 -0.0017096212 0.00080017006 -0.00018398865 0.0005337792
0.020936849 -0.11514228 0.009286823 0.14599898 -0.024339933 0.003277233 0.013461722 -0.019831914
0.020313527 0.04335808 0.13063614 0.22246793 0.17826597 -0.02720277 -1.7783674e-05 0.07013565
-0.13085008 -2.1170947e-05 0.23964083 2.294562e-05 -0.1249113 -0.19829354 -0.075986184 1.9693663e-05
0.016940441 0.12552597 0.0445189 -0.18877289 0.037848737 -0.07104167 -6.6338052e-06 0.0025022381
0.007057269 -0.0035774077 0.03200105 -0.011087947 0.005750669 -0.10247928 0.032097496 0.031609405
-0.122799985 0.007131369 -0.0014781675 -0.030324562 0.019302733 -0.0058819656 -6.087542e-05 0.09459797
0.03268028 -6.733181e-05 0.117092706 6.449029e-05 -0.013746048 -0.0069475556 0.032558724 5.9847018e-05
0.009827913 0.02064612 -0.10796428 -0.25138205 -0.07577494 0.030241186 -6.287378e-05 0.006528778
-0.024379458 0.009014731 -0.0131524345 -0.11033558 -0.017271226 0.016563207 0.012048388 -0.0012072177
-0.0018507035 -0.02017993 -0.1187884 -0.1763697 -0.027662486 0.014410768 -0.00015609774 -0.06585304
0.022336856 -0.00015037166 -0.18791002 0.00014749277 0.013729735 0.013471109 -0.0039171646 0.00015272552
-0.017931199 -0.019648692 0.0469286 -0.02658943 0.018914025 -0.0034990895 -0.00017299695 0.0011209795
-0.010268831 0.0039373366 0.030280152 -0.039373197 -0.007456683 -0.10458691 0.03940893 0.03312315
-0.11741174 -0.009965669 -0.115607224 -0.09364916 -0.011636003 0.006224833 -0.00014377738 0.007906978
0.040510733 -0.00014064249 -0.065513946 0.00013956979 0.00036378874 0.0058650966 0.030338496 0.00014249518
-0.008083249 0.0024206215 -0.10919699 -0.18617846 -0.061574757 0.023213489 -0.0001557888 0.008817795
-0.04709442 0.03532685 -0.2596993 -0.26664346 -0.04622546 0.2702956 -0.08940211 -0.09698481
0.23918507 -0.04873103 0.071366906 -0.032937806 -0.07024422 0.053503726 0.0004152211 -0.32599002
-0.26222077 0.0003993335 -0.4061756 -0.00039829905 0.1367843 0.043267883 -0.18501644 -0.00041131518
-0.045830518 -0.14246486 0.077716164 0.36929774 0.22106738 -0.08934439 0.00044034596 -0.08290397
-9.629692e-05 0.00025254366 -0.0001051143 0.0007946113 -0.00019877519 -0.00048630475 0.00012736366 -4.2703115e-05
-0.0003379459 -0.00031938293 -1.5791906e-05 0.0012945622 -2.329664e-05 0.00017460514 -0.00012488711 -0.0005872595
0.0001730888 -0.00012180793 0.0014391618 0.00012047745 -4.0639025e-06 0.00017039568 -0.00012793753 0.00012342204
-0.00021860549 -0.00015715005 -0.0004539229 0.002523466 -7.918367e-05 -0.00024314268 -0.00013682093 2.6245011e-06
-0.0019727529 0.0014209723 -0.0108801 -0.0107031325 -0.0013920469 0.019484233 -0.010998991 -0.01099281
0.020105463 0.0011364726 0.012639513 0.008706898 -0.0025960729 0.0018203253 8.324639e-05 -0.01191752
-0.010945672 8.182276e-05 -0.011749166 -8.01258e-05 0.005923134 0.0018267407 -0.010906505 -8.170503e-05
-0.00067074713 -0.007593215 0.019272659 0.035677254 0.014229343 -0.010563342 9.1879716e-05 -0.0060034697
00000000: 5e22 8f38 334a 0539 cab1 723a 9dda 0f3a
00000010: c0e7 70b8 5e4e 05bb df6d 6f3a d783 743a
00000020: e1e9 14bb 68c6 8fb9 0ba6 3aba 8050 3f39
00000030: d5b9 0239 9ea7 fc37 4894 30b9 70a6 fe39
00000040: 9d97 6c3a e9e0 2bb9 6827 873a b00a 2a39
00000050: 8f85 d6b9 26bc 7e37 3c7e 703a 016f 2e39
00000060: c6b4 cab8 9c9f e639 a053 09bb d371 0dbb
00000070: 5e15 e0ba 81c2 513a 14ed 40b9 51ed 0b3a
00000080: c183 ab3c b7cf ebbd c227 183c c280 153e
00000090: 8a64 c7bc d9c6 563b 8e8e 5c3c 8a76 a2bc
000000a0: 8e68 a63c 3e98 313d 7bc5 053e a2ce 633e
000000b0: 5b8b 363e 58d8 debc 262e 95b7 48a3 8f3d
000000c0: 90fd 05be 4398 b1b7 6864 753e 587b c037
000000d0: 7fd1 ffbd 760d 4bbe a59e 9bbd d233 a537
000000e0: aec6 8a3c e189 003e 7359 363d ae4d 41be
000000f0: 4707 1b3d 4c7e 91bd f497 deb6 97fc 233b
00000100: aa40 e73b f172 6abb 8813 033d 38aa 35bc
00000110: 1c70 bc3b a8e0 d1bd aa78 033d dd78 013d
00000120: 8f7e fbbd 42ae e93b 12bf c1ba 376b f8bc
00000130: c420 9e3c 81bd c0bb 7c54 7fb8 95bc c13d
00000140: c2db 053d 7e34 8db8 4dce ef3d f63e 8738
00000150: 1b37 61bc 52a8 e3bb 4c5c 053d 3f04 7b38
00000160: 4105 213c 0d22 a93c 601c ddbd 26b5 80be
00000170: e42f 9bbd 5dbc f73c 1bdb 83b8 5cef d53b
00000180: 6eb7 c7bc 86b2 133c 4f7d 57bc 9ff7 e1bd
00000190: 637c 8dbc 90af 873c 9a66 453c 813b 9eba
000001a0: 4e93 f2ba 6150 a5bc 5547 f3bd 429a 34be
000001b0: 709c e2bc 241b 6c3c 2bae 23b9 f5dd 86bd
000001c0: c8fb b63c 16ad 1db9 7c6b 40be 4aa8 1a39
000001d0: aff2 603c edb5 5c3c 8f5b 80bb f224 2039
000001e0: 73e4 92bc 4bf6 a0bc 3438 403d 14d2 d9bc
000001f0: 96f1 9a3c fb50 65bb 8466 35b9 d5ed 923a
00000200: 993e 28bc c604 813b 150e f83c ca45 21bd
00000210: 3157 f4bb a931 d6bd 426b 213d 24ac 073d
00000220: 9175 f0bd 0c47 23bc 7bc3 ecbd 21cb bfbd
00000230: efa4 3ebc aff9 cb3b f2c2 16b9 458c 013c
00000240: 95ee 253d 6e79 13b9 2d2c 86bd 7b59 1239
00000250: e6ba be39 ff2f c03b 7088 f83c c26a 1539
00000260: 9b6f 04bc 4aa3 1e3b aca2 dfbd 91a5 3ebe
00000270: d035 7cbd 372a be3c 3d5b 23b9 8378 103c
00000280: 14e6 40bd e3b2 103d 4ff7 84be 7e85 88be
00000290: e856 3dbd 2f64 8a3e 7418 b7bd f99f c6bd
000002a0: eeec 743e 309a 47bd d028 923d cbe9 06bd
000002b0: 34dc 8fbd b926 5b3d 08b2 d939 2ae8 a6be
000002c0: cd41 86be a35d d139 40f6 cfbe cbd2 d0b9
000002d0: 2f11 0c3e aa39 313d f374 3dbe caa5 d7b9
000002e0: c8b8 3bbd 4fe2 11be a729 9f3d 9814 bd3e
000002f0: 7d5f 623e 31fa b6bd 3cde e639 8ec9 a9bd
00000300: 04f3 c9b8 d667 8439 cf70 dcb8 764d 503a
00000310: 4f6e 50b9 b8f6 feb9 ec8c 0539 1f1c 33b8
00000320: 552e b1b9 da72 a7b9 dc78 84b7 4dae a93a
00000330: 276d c3b7 3616 3739 21f4 02b9 51f2 19ba
00000340: 2c7f 3539 2273 ffb8 42a2 bc3a d7a8 fc38
00000350: a85c 88b6 3eac 3239 f826 06b9 da6a 0139
00000360: 7739 65b9 a5c8 24b9 80fc edb9 bc60 253b
00000370: 690f a6b8 1ef4 7eb9 9777 0fb9 9620 3036
00000380: 4d49 01bb eb3f ba3a 7242 32bc 315c 2fbc
00000390: 5875 b6ba 669d 9f3c 1d35 34bc 301b 34bc
000003a0: 36b4 a43c b1f5 943a f615 4f3c 61a7 0e3c
000003b0: e022 2abb fb97 ee3a 9194 ae38 b441 43bc
000003c0: 7a55 33bc 4398 ab38 937f 40bc 3609 a8b8
000003d0: d916 c23b 3f6f ef3a 33b1 32bc 0e59 abb8
000003e0: 14d5 2fba 81d0 f8bb b2e1 9d3c 5022 123d
000003f0: 3122 693c de11 2dbc 8caf c038 c1b8 c4bb

in_layer0.layers.2.bias f4 [32]
-0.0014914792 -0.025112262 -0.21401708 -0.016142115 -0.29388624 0.17965889 -0.0044341614 0.0015039642
-0.028809614 -0.14964077 -0.03004563 0.0038926357 0.26377478 0.0026584247 0.11696556 -0.05389025
-0.0030621325 -0.0016100736 0.02220505 -0.014286301 -0.0026634664 -0.0071606454 -0.05027724 -0.020218015
-0.00019145191 -0.12826245 0.2382588 -0.0033282747 0.04729742 -0.18220583 0.036390755 -0.16830894
00000000: bd7d c3ba 3bb8 cdbc 4b27 5bbe 783c 84bc
00000010: 4278 96be 80f8 373e 714c 91bb aa20 c53a
00000020: 2402 ecbc 6e3b 19be 4122 f6bc 971b 7f3b
00000030: 7d0d 873e f738 2e3b a48b ef3d 06bc 5cbd
00000040: 0fae 48bb 1b09 d3ba 5de7 b53c 1711 6abc
00000050: 8d8d 2ebb d9a3 eabb 82ef 4dbd 40a0 a5bc
00000060: 7bc0 48b9 3b57 03be 1dfa 733e 2f1f 5abb
00000070: f1ba 413d 2a94 3abe 790e 153d 2e59 2cbe

in_layer1.layers.0.weight f4 [32, 2]
-0.5943704 0.010420561 0.5571919 -0.6055631 -0.31541184 0.62103957 -0.11857998 0.29294342
-0.68023545 -0.22237158 -0.35909155 0.59613425 0.29347748 -0.5159586 0.11400467 -0.008127093
-0.29052883 -0.40381214 -0.23464534 0.55736023 -0.50689113 -0.50370276 -0.21815595 0.012301087
0.19248289 0.021218896 -0.1702187 -0.42875433 -0.12687802 -0.28464818 0.571292 -0.6883045
-0.4510344 -0.5752951 -0.12922853 0.5510295 0.6198068 -0.61557555 -0.030636728 0.4150477
0.31169087 0.5791939 -0.019613862 -0.47509992 0.46777266 -0.24247721 0.36613005 -0.17425692
0.30058688 0.6359902 0.6575071 -0.64351314 -0.4677372 -0.2923652 -0.45092273 0.678469
-0.062450826 -0.4690526 -0.31465504 -0.39058074 0.28849208 -0.6167747 -0.65930855 -0.6970384
00000000: a928 18bf 00bb 2a3c 21a4 0e3f 2f06 1bbf
00000010: a97d a1be 73fc 1e3f 10da f2bd aefc 953e
00000020: e923 2ebf 60b5 63be d9da b7be 419c 183f
00000030: ae42 963e dd15 04bf 487b e93d 8027 05bc
00000040: 32c0 94be 77c0 cebe de46 70be 29af 0e3f
00000050: 9ec3 01bf aaf2 00bf 4664 5fbe 808a 493c
00000060: 3c1a 453e 40d3 ad3c d04d 2ebe b085 dbbe
00000070: 50ec 01be 68bd 91be 3140 123f b934 30bf
00000080: fbed e6be 8a46 13bf 7c54 04be 4510 0d3f
00000090: a9ab 1e3f 5c96 1dbf e0f9 fabc 2281 d43e
000000a0: f295 9f3e 0d46 143f 40ad a0bc 4c40 f3be
000000b0: e67f ef3e f24b 78be 6675 bb3e 6870 32be
000000c0: 86e6 993e 41d0 223f 6352 283f 47bd 24bf
000000d0: 407b efbe e4b0 95be 58df e6be 25b0 2d3f
000000e0: 70cc 7fbd aa27 f0be 771a a1be 33fa c7be
000000f0: 3cb5 933e f2e4 1dbf 72c8 28bf 1c71 32bf

in_layer1.layers.0.bias f4 [32]
0.3044265 0.3496322 -0.43916923 0.17534733 0.52197534 0.102743566 -0.14961076 0.052242696
-0.0758214 0.35602766 -0.48013353 0.35857564 0.398542 -0.42841807 0.57739764 0.69450945
-0.27876177 -0.19805664 0.3523906 -0.5539619 0.27963102 0.16497135 0.44571036 -0.61419773
-0.58745354 0.3175822 0.25470746 -0.6581511 -0.3943248 -0.6469875 -0.5065875 -0.31904632
00000000: cadd 9b3e fe02 b33e cada e0be 408e 333e
00000010: 2da0 053f 386b d23d 9033 19be 70fc 553d
00000020: 4048 9bbd 4249 b63e 10d4 f5be 3a97 b73e
00000030: b20d cc3e 9d59 dbbe 55d0 133f 5fcb 313f
00000040: ddb9 8ebe 5ccf 4abe 8a6c b43e 72d0 0dbf
00000050: cc2b 8f3e 40ee 283e 2634 e43e 103c 1dbf
00000060: 5b63 16bf 229a a23e 0469 823e 977c 28bf
00000070: f1e4 c9be f9a0 25bf b8af 01bf 0a5a a3be

in_layer1.layers.2.weight f4 [32, 32]
0.14628951 -0.035187557 0.10153191 0.16788144 0.080562845 -0.15825233 0.08895804 0.06742874
0.13701351 -0.17437857 0.1087205 0.14469905 -0.1644668 0.018495485 0.1509095 -0.12857112
0.058003843 0.07811363 0.04633142 0.17576478 0.14474113 0.15166639 -0.022034645 0.14826484
-0.16474044 -0.09539389 -0.037809193 -0.05251272 0.16328768 0.08337943 0.11381112 0.12024517
-0.13205281 -0.020474449 0.025813743 0.045978293 0.09090434 -0.07034064 -0.053304255 0.14791636
-0.04744409 -0.1227964 0.11986162 0.119705305 -0.05543132 -0.035341203 -0.13043998 -0.1476251
0.06647679 -0.07551769 0.14073114 -0.14154743 -0.024434969 0.0038169175 0.090853885 0.1430708
0.11971398 0.07781641 -0.08113941 -0.12624466 -0.1581467 0.008768946 0.17145221 -0.033577397
-0.007442042 -0.12846255 0.05427216 0.112073496 -0.17428695 -0.124472395 0.13093986 0.041854456
-0.011021331 0.031600296 -0.026877463 -0.12356071 -0.16518542 0.11626743 -0.021025226 -0.06565261
-0.04562874 -0.09641808 -0.052358314 -0.15174766 0.1322897 0.07218543 -0.08915228 -0.060336225
0.079308644 -0.06546137 0.0466149 0.048673958 -0.11127973 0.044282824 0.010815933 0.15439393
-0.06396134 -0.04544373 0.15231092 -0.14435627 0.012771845 0.17032476 -0.079261005 0.16947268
0.15686114 0.16446237 -0.016868576 0.15991808 -0.077025026 -0.06051158 0.0668627 0.037343577
0.097452685 0.1679943 -0.11066028 0.09382011 0.059143215 0.09326173 0.08382262 -0.066126846
-0.13971652 0.14148937 -0.100804366 0.11301814 -0.16840518 -0.030582786 0.0018736422 0.03058654
0.014289215 0.055703446 -0.019683123 0.043293387 0.17493545 -0.11438372 -0.009651437 -0.06747974
0.1551091 0.1513279 -0.0048205703 -0.061276563 -0.109224334 0.12649073 -0.012173489 0.16648997
0.10080902 0.15473343 0.13981687 -0.11487697 0.051742926 -0.07330203 0.08869828 -0.015893951
0.015303537 -0.12226032 -0.15798986 0.06656933 0.041080326 0.015355319 0.12006576 -0.073817424
0.062752336 -0.09736181 0.036628112 -0.040357858 0.123801425 0.15458812 0.15353476 0.007952169
0.10424398 -0.17662437 -0.10369619 0.031594098 0.0009858757 -0.13878259 -0.07824341 -0.08256429
-0.17514364 0.016859323 0.12050761 0.071747184 -0.08399243 -0.16232789 -0.14261937 0.0032790601
0.12160705 -0.07158971 -0.09619215 -0.09430267 -0.015303329 -0.16787681 -0.15599562 0.17401733
-0.08430765 -0.03188409 -0.04729709 -0.15529943 -0.031164512 0.054114297 -0.071781516 -0.007534191
-0.0008456111 -0.17598206 0.12846653 0.1427954 0.12052731 -0.058053173 0.09237699 -0.16562605
-0.043732196 -0.035953596 -0.06242863 0.07424621 -0.08054969 -0.020489097 -0.051044866 -0.16600798
-0.029193014 -0.14981404 0.103079215 0.09448059 0.165603 -0.059362106 0.008989483 0.034628898
0.17646177 0.1620359 -0.09148892 -0.15041976 -0.15932676 -0.08512854 0.14863147 0.059370384
0.17056356 0.13103057 0.0025628507 -0.109561846 0.17262255 0.14180519 0.07653423 -0.09656665
0.13926102 0.016089499 0.11689074 0.0737807 0.09386991 -0.1551173 -0.09801935 0.10602562
-0.03682892 -0.15379214 0.1607606 -0.003822893 0.1426029 -0.13817164 0.060863122 -0.06658625
00000000: ebcc 153e d420 10bd f6ef cf3d 1de9 2b3e
00000010: 22fe a43d e60c 22be a22f b63d 1418 8a3d
00000020: 454d 0c3e 4c90 32be daa8 de3d fd2b 143e
00000030: fc69 28be d883 973c 0588 1a3e 26a8 03be
00000040: 7095 6d3d 0afa 9f3d 04c6 3d3d affb 333e
00000050: 0537 143e 6f4e 1b3e 0082 b4bc bdd2 173e
00000060: b8b1 28be df5d c3bd d0dd 1abd 9417 57bd
00000070: e334 273e d6c2 aa3d ce15 e93d 1a43 f63d
00000080: da38 07be 08ba a7bc 5877 d33c bc53 3c3d
00000090: 0e2c ba3d c10e 90bd 9055 5abd 6377 173e
000000a0: bc54 42bd ae7c fbbd 027a f53d 0e28 f53d
000000b0: f40b 63bd f0c1 10bd 0f92 05be 092b 17be
000000c0: fc24 883d 05a9 9abd d31b 103e cff1 10be
000000d0: d82b c8bc 4025 7a3b 9a11 ba3d 2781 123e
000000e0: 9a2c f53d 365e 9f3d 6b2c a6bd 4846 01be
000000f0: 35f1 21be a0ab 0f3c 2b91 2f3e 7488 09bd
00000100: 60dc f3bb b08b 03be 7c4c 5e3d ca86 e53d
00000110: 4778 32be 62eb febd 1915 063e 946f 2b3d
00000120: d092 34bc 506f 013d 202e dcbc 660d fdbd
00000130: 5e26 29be 9e1d ee3d 183d acbc e074 86bd
00000140: 34e5 3abd d876 c5bd ac75 56bd bd63 1bbe
00000150: f376 073e f4d5 933d 7895 b6bd 1e23 77bd
00000160: 926c a23d 9c10 86bd 44ef 3e3d 585e 473d
00000170: a1e6 e3bd e861 353d 5035 313c 7119 1e3e
00000180: 2afe 82bd 3423 3abd 65f7 1b3e 21d2 13be
00000190: 0041 513c 9d69 2e3e 9853 a2bd 3f8a 2d3e
000001a0: 35a0 203e d368 283e f82f 8abc 91c1 233e
000001b0: 4cbf 9dbd feda 77bd 50ef 883d 94f5 183d
000001c0: 4695 c73d b306 2c3e dba1 e2bd c224 c03d
000001d0: 2840 723d 0200 bf3d 32ab ab3d 836d 87bd
000001e0: d911 0fbe 97e2 103e 8572 cebd 0e76 e73d
000001f0: 6872 2cbe c088 fabc 0095 f53a a090 fa3c
00000200: 501d 6a3c 4c29 643d 803e a1bc 6854 313d
00000210: 4722 333e 0342 eabd 1021 1ebc d132 8abd
00000220: ebd4 1e3e b3f5 1a3e e0f5 9dbb 22fd 7abd
00000230: 02b1 dfbd c986 013e 5073 47bc 597c 2a3e
00000240: f674 ce3d 7172 1e3e 272c 0f3e 9e44 ebbd
00000250: 64f0 533d 601f 96bd 72a7 b53d 0834 82bc
00000260: b0bb 7a3c 9e63 fabd 18c8 21be 8055 883d
00000270: d843 283d e094 7b3c 0ae5 f53d 972d 97bd
00000280: 4c84 803d a165 c7bd 5c07 163d 484e 25bd
00000290: 9a8b fd3d 594c 1e3e 3738 1d3e d049 023c
000002a0: de7d d53d 05dd 34be ab5e d4bd d068 013d
000002b0: 8038 813a 061d 0ebe 153e a0bd 7717 a9bd
000002c0: db58 33be 901c 8a3c b2cc f63d 30f0 923d
000002d0: 3904 acbd 4839 26be d00a 12be 80e5 563b
000002e0: 1e0d f93d a09d 92bd 6400 c5bd c221 c1bd
000002f0: d0ba 7abc e6e7 2bbe 51bd 1fbe 9931 323e
00000300: 7da9 acbd e498 02bd 98ba 41bd d006 1fbe
00000310: b84c ffbc f4a6 5d3d 3002 93bd 60e1 f6bb
00000320: 00ac 5dba a434 34be bb8c 033e f538 123e
00000330: 06d7 f63d 2ac9 6dbd 2630 bd3d e099 29be
00000340: 8820 33bd 1444 13bd 2ab5 7fbd 660e 983d
00000350: 3cf7 a4bd c0d8 a7bc 6c14 51bd fffd 29be
00000360: 3026 efbc da68 19be 321b d33d 0a7f c13d
00000370: d593 293e ae25 73bd a048 133c 08d7 0d3d
00000380: 65b2 343e bdec 253e 8b5e bbbd a307 1abe
00000390: 8e26 23be df57 aebd d932 183e 5c2e 733d
000003a0: 37a8 2e3e e12c 063e 80f5 273b f661 e0bd
000003b0: f7c3 303e 6135 113e fabd 9c3d bcc4 c5bd
000003c0: 719a 0e3e 20ce 833c 6a64 ef3d 561a 973d
000003d0: de3e c03d 12d7 1ebe 5ebe c8bd f623 d93d
000003e0: ecd9 16bd b07b 1dbe 6d9e 243e 8089 7abb
000003f0: 7f06 123e de7c 0dbe 9c4b 793d 5f5e 88bd

in_layer1.layers.2.bias f4 [32]
0.050347 0.041807145 0.0039017498 0.101375565 -0.03864476 -0.10405867 0.06750184 0.047163248
0.06730749 -0.019634783 -0.023459047 -0.014050037 0.046612963 -0.13565113 -0.16476637 0.066149116
-0.096785896 -0.014870942 0.04900755 0.024794593 0.113961235 0.023172513 0.043765545 -0.015823439
0.026093975 0.06481972 0.12059961 -0.16749804 -0.073638655 -0.15862851 -0.070479855 0.10775946
00000000: a838 4e3d f83d 2b3d 80b4 7f3b fe9d cf3d
00000010: f849 1ebd b61c d5bd 683e 8a3d 402e 413d
00000020: 82d8 893d 20d9 a0bc 302d c0bc 2032 66bc
00000030: 3ced 3e3d 21e8 0abe 84b8 28be 3079 873d
00000040: af37 c6bd 40a5 73bc 24bc 483d 081e cb3c
00000050: 8264 e93d 48d4 bd3c 8043 333d 28a0 81bc
00000060: 08c3 d53c 34c0 843d eefc f63d 9b84 2bbe
00000070: ddcf 96bd 836f 22be be57 90bd feb0 dc3d

in_layer2.layers.0.weight f4 [32, 2]
8.919252e-06 0.00024811833 0.31374714 -0.24724254 8.7759334e-05 3.9046226e-05 -0.009293173 0.5522918
-0.545004 0.67021424 0.00012272967 6.953858e-05 -0.00010593468 0.00014382742 2.576995e-06 0.0002550859
-0.31903502 0.7740542 0.5645318 -0.14516482 -0.31691664 0.18663609 -0.1567483 0.487001
-3.4871425e-06 -7.802566e-05 0.0037997228 -0.014378619 -0.0004832427 0.0004443425 0.00010554194 -3.229033e-05
-0.21905601 0.59127486 -0.00036124865 -0.0015989983 0.00037048705 0.0013978017 -0.11144709 0.791979
-0.12764741 0.62444764 -1.7349568e-05 1.3791551e-05 0.48535353 -0.3068841 9.048231e-05 -0.00012996692
-0.00019769801 0.00029696472 -0.00039840784 0.0015221749 -6.030853e-05 -7.0384944e-05 -1.5580119e-05 4.197867e-05
-3.703886e-05 -7.152726e-05 0.5972134 -0.46109506 7.152563e-05 -3.255822e-07 0.00032055416 -0.00055983197
00000000: e5a3 1537 e115 8239 77a3 a03e 262d 7dbe
00000010: 6f0b b838 91c5 2338 6542 18bc ff62 0d3f
00000020: 6285 0bbf 2993 2b3f ffb0 0039 3ed5 9138
00000030: 4029 deb8 61d0 1639 70f0 2c36 0dbd 8539
00000040: 8f58 a3be 6b28 463f 2885 103f 16a6 14be
00000050: e642 a2be 881d 3f3e a082 20be 3258 f93e
00000060: a704 6ab6 b5a1 a3b8 c504 793b 4d94 6bbc
00000070: bd5b fdb9 a4f6 e839 6656 dd38 7a6f 07b8
00000080: 3850 60be ca5d 173f f965 bdb9 7b95 d1ba
00000090: ee3d c239 7136 b73a 5f3e e4bd 23bf 4a3f
000000a0: 01b6 02be cddb 1f3f ea89 91b7 4362 6737
000000b0: 4280 f83e ea1f 9dbe 52c1 bd38 bb47 08b9
000000c0: 284d 4fb9 eeb1 9b39 65e1 d0b9 b783 c73a
000000d0: caf3 7cb8 a19b 93b8 0db2 82b7 4112 3038
000000e0: 2c5a 1bb8 e800 96b8 fae2 183f a714 ecbe
000000f0: 0800 9638 adcb aeb4 0d10 a839 b0c1 12ba

in_layer2.layers.0.bias f4 [32]
0.00013690419 -0.0036454923 0.00012494372 -0.18637587 0.5458591 3.6304336e-05 -0.00019117423 8.654471e-05
0.1759357 -0.3357599 0.37749594 0.22900498 -4.0773168e-05 0.0010845294 -0.0001154144 0.000109806875
0.16531396 -0.0009492093 0.000919789 -0.33275113 -0.17161092 -0.00022215558 0.021829126 0.0002060434
-6.699816e-05 0.00040429892 -0.00012336225 2.2529814e-05 -9.754629e-06 0.288544 6.552765e-05 -2.5506462e-05
00000000: f08d 0f39 36e9 6ebb 5303 0339 51d9 3ebe
00000010: 6cbd 0b3f 7c45 1838 f175 48b9 567f b538
00000020: 7d28 343e b9e8 abbe 2647 c13e 4880 6a3e
00000030: db03 2bb8 c526 8e3a a20a f2b8 1e48 e638
00000040: 1048 293e 5cd4 78ba ff1d 713a 5b5e aabe
00000050: c6ba 2fbe 6ff2 68b9 ffd2 b23c 5b0d 5839
00000060: 5d81 8cb8 15f8 d339 cd5a 01b9 68fe bc37
00000070: d0a7 23b7 0abc 933e e46b 8938 b6f6 d5b7

in_layer2.layers.2.weight f4 [32, 32]
-3.9605936e-07 -7.960183e-05 -6.296828e-06 -0.00016868224 0.0001631689 -3.3289048e-06 3.2177043e-06 -5.3303716e-06
-2.4147614e-06 -0.000106419415 0.00018675027 -0.00018773683 3.0677425e-06 -0.00016847631 9.09357e-05 -2.9722507e-06
-6.362286e-05 -1.3370449e-05 2.760252e-05 2.753001e-05 3.2239503e-05 6.5666386e-06 -0.0001323794 -5.1765073e-06
6.518523e-06 4.4431385e-05 4.4261774e-06 -2.2735926e-06 1.1248886e-06 -5.8547237e-05 -5.745975e-07 1.0816682e-05
-2.7696111e-05 -0.00016194535 -5.304708e-05 8.055153e-05 0.0005603837 -9.278836e-06 2.327544e-06 -3.564293e-05
0.0003488033 -0.00022413065 0.00025202957 8.8790955e-05 1.8038383e-05 -0.00016295901 -0.00029104503 -8.406308e-05
0.00018831366 8.202371e-05 -8.7670465e-05 0.00028807262 0.00022161049 4.008202e-05 -0.00020653156 -1.0243413e-05
9.936366e-05 -4.3348835e-05 2.1993214e-05 -1.0498136e-05 7.157435e-06 -0.0003358959 -5.61139e-06 5.6540684e-05
6.124154e-06 4.3111057e-05 7.527645e-06 2.6672433e-05 0.00018234408 5.0989865e-06 -1.1918436e-05 -1.2160831e-06
0.00012551203 -3.2588352e-05 -4.7697602e-05 5.6732035e-05 -1.1376844e-06 -1.3328515e-05 -1.0128422e-05 4.3090477e-06
2.7922244e-05 -5.413487e-05 5.0107643e-05 3.7305697e-05 -3.106358e-05 -3.8903804e-06 -3.70183e-05 1.1142703e-05
-8.084458e-06 -1.5638225e-05 -6.443212e-06 -2.2455879e-07 -7.1954463e-07 0.0001402648 6.4398937e-06 -2.3513425e-05
-0.00016762073 -0.13403809 0.00010035018 0.20077716 0.40633443 -9.631598e-06 5.6101206e-05 -0.00013961543
0.25991955 -0.27693304 0.16981076 0.25490943 -3.1228916e-05 -0.0035804068 -0.00038988792 8.471602e-05
0.31207642 0.00097522384 -0.0008789495 0.26834404 0.2585101 5.879939e-05 -0.24520524 -4.9736038e-05
-0.00012900116 -0.00085023016 -5.085759e-05 -8.463226e-05 3.6237765e-05 -0.41632232 -6.410481e-05 0.00045427095
-3.4758723e-06 0.00014980303 -1.742857e-06 6.1067054e-05 0.00037460215 -1.09028e-06 2.2807237e-07 -4.0841704e-07
0.00018799787 0.00021394376 0.00015510056 8.392549e-06 7.611688e-07 -1.7971353e-05 1.8656012e-05 -3.9914553e-06
0.00015373237 2.8048527e-05 -3.415874e-05 0.0002499364 0.00025210847 8.5190266e-07 0.00021249158 -1.4255312e-07
4.348965e-06 -2.6226617e-06 1.0079176e-06 -3.0160813e-08 9.181733e-07 7.596435e-06 -3.2225063e-07 -2.638677e-06
2.3397322e-05 0.00020547619 5.1048202e-05 -0.00021873965 -0.00043978702 6.178212e-06 7.290947e-07 3.3709937e-05
-0.0003318865 0.0002351258 -0.0001898442 -0.00024685918 -1.6942025e-05 0.00018055721 0.00031055947 8.430733e-05
-0.0002025614 -2.6584366e-05 2.6495352e-05 -0.00022909425 -0.00016018345 -4.0527815e-05 0.00021392076 8.304922e-06
-0.00010223711 4.1856758e-05 -1.8308901e-05 1.0067644e-05 -5.3923377e-06 0.00043097872 2.8487561e-06 -6.9285976e-05
-8.01491e-05 -0.0419136 8.5675514e-05 0.07680013 0.21188755 8.463503e-06 5.8677622e-05 -9.940777e-05
0.19513854 -0.075753674 0.035440076 -0.0012976425 5.904081e-05 -0.0002901311 0.00015216121 0.00014873008
0.080201074 0.0004260555 -0.00034226896 0.117201746 0.050349347 2.7857533e-05 -0.100674905 -5.206264e-05
-6.152438e-05 -3.3615775e-05 -1.5110933e-05 -6.282525e-05 9.287671e-05 -0.090882 2.8997445e-05 0.00047020378
-5.5567143e-06 -2.3724973e-05 -6.953741e-06 -1.673575e-05 -0.00022925876 -4.527773e-06 1.0806422e-05 1.4668506e-06
-0.00013969785 9.610299e-05 3.464565e-05 -5.570943e-05 9.4424024e-07 1.2183218e-05 5.7696707e-06 -4.7079384e-06
-1.2499576e-05 4.434303e-05 -4.1071216e-05 -2.9213526e-05 4.4571327e-05 3.5398566e-06 0.00014332465 -1.0178558e-05
7.733697e-06 1.5424768e-05 5.7959355e-06 1.923787e-07 5.000788e-07 -0.0002993505 -5.884945e-06 2.4547942e-05
00000000: fca1 d4b4 e8ef a6b8 5749 d3b6 4be0 30b9
00000010: 5118 2b39 2666 5fb6 bdef 5736 8bdb b2b6
00000020: 490d 22b6 7d2d dfb8 65d2 4339 39db 44b9
00000030: 6adf 4d36 04a9 30b9 bbb4 be38 e176 47b6
00000040: 436d 85b8 a451 60b7 f68b e737 3ff0 e637
00000050: e738 0738 ff56 dc36 53cf 0ab9 dcb1 adb6
00000060: b0b9 da36 d65b 3a38 9384 9436 0694 18b6
00000070: e1fa 9635 9e90 75b8 0a3e 1ab5 4c79 3537
00000080: f254 e8b7 e0cf 29b9 de7e 5eb8 c6ed a838
00000090: b7e6 123a 4cac 1bb7 e732 1c36 4e7f 15b8
000000a0: 96df b639 9d04 6bb9 d622 8439 4835 ba38
000000b0: 2251 9737 fadf 2ab9 6797 98b9 064b b0b8
000000c0: 1076 4539 2504 ac38 b9db b7b8 7408 9739
000000d0: 1d60 6839 be1d 2838 6590 58b9 20db 2bb7
000000e0: 7561 d038 75d1 35b8 117e b837 2721 30b7
000000f0: e629 f036 2f1b b0b9 7949 bcb6 1926 6d38
00000100: 157e cd36 25d2 3438 fa95 fc36 9dbe df37
00000110: 9e33 3f39 f617 ab36 4bf5 47b7 4c38 a3b5
00000120: e19b 0339 7aaf 08b8 e90e 48b8 8ff3 6d38
00000130: 8ab2 98b5 899d 5fb7 3eed 29b7 7096 9036
00000140: 903a ea37 e00e 63b8 ac2a 5238 b078 1c38
00000150: 444a 02b8 1d8a 82b6 1944 1bb8 8cf1 3a37
00000160: 7ca2 07b7 d52e 83b7 c532 d8b6 401e 71b4
00000170: bb26 41b5 0c14 1339 4416 d836 b23e c5b7
00000180: 59c3 2fb9 4841 09be 1873 d238 8798 4d3e
00000190: 110b d03e 6697 21b7 364e 6b38 bb65 12b9
000001a0: 2d14 853e 2bca 8dbe dfe2 2d3e 7d83 823e
000001b0: cbfb 02b8 42a5 6abb df69 ccb9 91a9 b138
000001c0: 7bc8 9f3e 2aa6 7f3a 4d69 66ba 6464 893e
000001d0: 705b 843e 5d9f 7638 1517 7bbe aa9b 50b8
000001e0: 7c44 07b9 fbe1 5eba ec4f 55b8 997c b1b8
000001f0: 01fe 1738 3328 d5be 0270 86b8 372b ee39
00000200: 0843 69b6 7214 1d39 1cec e9b5 2011 8038
00000210: 4066 c439 bc55 92b5 0ee4 7434 6944 dbb4
00000220: 4b21 4539 1756 6039 7da2 2239 b9cd 0c37
00000230: 1f53 4c35 30c1 96b7 7b7f 9c37 57ee 85b6
00000240: 3833 2139 c149 eb37 ab45 0fb8 e509 8339
00000250: 6d2d 8439 4eae 6435 46d0 5e39 b410 19b4
00000260: 53ed 9136 fc00 30b6 c947 8735 2a8a 01b3
00000270: 6478 7635 e1e4 fe36 ca01 adb4 2014 31b6
00000280: 5e45 c437 1875 5739 971c 5638 7a5d 65b9
00000290: 3793 e6b9 704e cf36 02b7 4335 c563 0d38
000002a0: 0d01 aeb9 1a8c 7639 ea10 47b9 e16c 81b9
000002b0: b91e 8eb7 f553 3d39 96d2 a239 27ce b038
000002c0: a966 54b9 7e01 dfb7 5642 de37 0539 70b9
000002d0: ebf6 27b9 69fc 29b8 eb4f 6039 5e55 0b37
000002e0: 2168 d6b8 5a8f 2f38 1196 99b7 34e8 2837
000002f0: d4ef b4b6 fcf4 e139 422d 3f36 a04d 91b8
00000300: b815 a8b8 98ad 2bbd b1ac b338 6349 9d3d
00000310: 0df9 583e 78fe 0d37 9e1c 7638 2479 d0b8
00000320: 66d2 473e be24 9bbd 9d29 113d a815 aaba
00000330: 96a2 7738 bd1c 98b9 778d 1f39 6df4 1b39
00000340: 7640 a43d 3460 df39 9072 b3b9 7807 f03d
00000350: 1e3b 4e3d 99af e937 a52e cebd d65d 5ab8
00000360: a606 81b8 aafe 0cb8 f784 7db7 0dc1 83b8
00000370: cec6 c238 5820 babd 8a3f f337 af85 f639
00000380: d073 bab6 fe04 c7b7 2e54 e9b6 c063 8cb7
00000390: 2e65 70b9 46ed 97b6 3b4d 3537 9ae0 c435
000003a0: db7b 12b9 e68a c938 7c50 1138 8ca9 69b8
000003b0: b277 7d35 8666 4c37 1899 c136 e2f8 9db6
000003c0: 45b5 51b7 f7fc 3938 e243 2cb8 920f f5b7
000003d0: 19f2 3a38 468e 6d36 6b49 1639 93c4 2ab7
000003e0: fabf 0137 7064 8137 b57a c236 a890 4e34
000003f0: 273d 0635 25f2 9cb9 4b77 c5b6 4eec cd37

in_layer2.layers.2.bias f4 [32]
-0.00027447534 -0.00032196238 -0.00014974664 0.14098224 -0.00032688168 0.00013756943 -0.03980644 0.00022478531
2.9714623e-05 0.19470966 0.000118546646 0.13576621 0.00031433333 0.00012381597 -0.032392774 -0.00034219775
0.00014787704 -3.653579e-05 -7.366762e-05 -0.0032169991 -0.0003357971 -0.00024792476 3.5551016e-05 -0.044464156
-9.952397e-05 0.00021374317 -0.04853385 0.00011516587 -0.07807922 0.13970578 -0.0019776332 -0.00024289326
00000000: 75e7 8fb9 0fcd a8b9 4f05 1db9 a65d 103e
00000010: 5161 abb9 8340 1039 140c 23bd 59b4 6b39
00000020: ab43 f937 f861 473e 3f9c f838 4c06 0b3e
00000030: 1bcd a439 99d4 0139 49ae 04bd 0169 b3b9
00000040: 710f 1b39 013e 19b8 017e 9ab8 4ad4 52bb
00000050: ed0d b0b9 e6fb 81b9 9d1c 1538 0c20 36bd
00000060: 86b7 d0b8 3f20 6039 6ecb 46bd 3585 f138
00000070: 00e8 9fbd 080f 0f3e 2e9b 01bb 2ab1 7eb9

sat_layers.layer0_1.0.agg_weight f4 [3]
-0.18911509 -7.0948e-41 -0.8107096
00000000: 63a7 41be c6c5 0080 aa8a 4fbf

sat_layers.layer0_1.0.input_linear_layer1.weight f4 [32, 32]
3.821224e-05 3.69604e-05 5.5945607e-06 2.4956858e-05 1.3803241e-06 -3.8410966e-05 1.8207333e-05 -2.5655483e-05
-3.477724e-05 1.0242808e-05 5.0539555e-05 3.4180382e-05 1.6353342e-05 3.902683e-05 -3.737204e-05 2.9256169e-05
3.8626044e-05 3.8191018e-05 2.12484e-05 -3.522814e-05 3.534064e-05 -3.155424e-05 -3.036499e-05 5.6686764e-05
3.34063e-05 2.5011064e-05 -4.166768e-05 3.828025e-05 -1.8068204e-05 8.412945e-06 1.2527387e-05 8.632994e-06
6.2790273e-06 3.1952727e-06 5.7242374e-08 8.122689e-07 -4.9841094e-07 -4.1346516e-06 -4.2510214e-06 -9.5206474e-07
-2.2956551e-06 6.464483e-07 4.6908062e-06 2.711541e-06 1.45803015e-05 6.492554e-06 -3.7668237e-06 1.9215854e-06
6.0988527e-06 6.3125676e-06 6.704713e-07 -1.8147239e-06 6.9197795e-06 -1.8470199e-06 -1.5728866e-06 6.9117737e-06
6.009547e-06 7.2685066e-07 -6.798832e-06 6.214749e-06 -1.3439878e-06 4.5992073e-07 6.7882496e-07 4.847161e-07
4.3861484e-05 6.297132e-05 5.513984e-05 5.306596e-05 5.5121633e-05 -5.646439e-05 1.0475029e-05 -5.7698027e-05
-6.13222e-05 5.6307665e-05 6.279714e-05 5.7393932e-05 -6.173248e-05 4.3044365e-05 -5.9048954e-05 6.03039e-05
4.5552366e-05 4.3723667e-05 5.7118046e-05 -1.7209371e-05 3.0362073e-05 -6.0463986e-05 -6.103636e-05 5.6161705e-05
2.470866e-05 5.4235217e-05 -5.937532e-05 4.432136e-05 -5.8195994e-05 5.5627872e-05 5.6596604e-05 5.5736844e-05
-0.00026105958 7.022871e-05 0.0006043589 -0.0004788592 0.0005949841 -0.0011707611 -0.00010196417 0.00018052253
0.00028371083 0.000513155 -0.00032517407 -0.00035187812 -0.001032533 -0.00025889406 -0.0011665045 0.00025357545
-0.00026609167 -0.00026064258 6.443459e-05 0.0004114019 -0.0002144812 0.00026127446 0.0002142605 0.00070407963
-0.00019574503 -0.00048088402 -0.0011884855 -0.00026253282 -0.00035739478 0.00056985475 0.00042173872 0.0005528366
-2.513466e-05 -8.03374e-05 -0.00030230195 -7.143161e-05 -0.00030794146 -0.00012265725 -2.5154418e-06 0.00012953226
6.1423554e-05 -0.0002960214 -3.888605e-05 -5.100693e-05 3.6991703e-05 -2.3789959e-05 -0.00012167243 -0.00019058949
-2.6686035e-05 -2.5008778e-05 -0.00019049244 1.7104248e-05 -1.37974075e-05 7.9197605e-05 9.674772e-05 -0.00023352558
-1.0278972e-05 -7.709456e-05 -0.0001507998 -2.5581636e-05 0.0002649608 -0.00029914276 -0.0002893049 -0.00029933732
-2.5916192e-06 6.706589e-06 5.5083165e-05 -5.5640016e-06 5.1167357e-05 2.2402854e-05 1.0856074e-06 -7.514748e-06
4.96523e-06 6.0011975e-05 -4.767223e-06 -5.2726787e-06 2.485051e-05 -2.3009648e-06 2.2619997e-05 4.5662626e-05
-2.8750908e-06 -2.5626607e-06 3.064497e-05 1.972448e-06 -3.7092997e-07 3.0147335e-06 -4.8476187e-07 0.00010149866
3.2151013e-07 -5.398793e-06 2.6515065e-05 -2.676507e-06 -5.47642e-05 5.902058e-05 5.6224264e-05 5.9400652e-05
8.131953e-08 6.3036043e-07 1.5228911e-06 2.4128693e-07 1.6366644e-06 1.675994e-06 -3.1334018e-08 -1.0427206e-06
-1.9846593e-07 2.79338e-06 1.6179729e-07 2.0266188e-07 -4.1172884e-06 6.842651e-08 3.0456645e-06 2.910002e-06
9.472524e-08 7.9900396e-08 2.7642864e-06 -8.146684e-08 -3.2941198e-08 -2.8377977e-07 -5.296324e-07 1.0663671e-06
-6.0711955e-08 2.5945232e-07 2.6827962e-07 8.541072e-08 -4.1159037e-06 2.0927193e-06 3.3051065e-06 2.5122497e-06
-0.0036104687 0.13285452 -0.013117513 -0.030576328 -0.058263678 -0.13097672 -0.0035081762 0.004642819
-0.024221279 -0.013198921 -0.0015302323 -0.007139699 0.20167412 -0.0035355664 -0.20271952 0.14449884
-0.0035960977 -0.0035963834 0.01458397 -0.000995037 -0.0032990987 -0.029001616 -0.026531812 0.28434956
-0.003226301 -0.03287103 -0.058151584 -0.0036279755 -0.059659977 0.020009346 -0.01233852 0.034913413
00000000: 1546 2038 ed05 1b38 e9b8 bb36 725a d137
00000010: 9343 b935 761b 21b8 f3bb 9837 bb36 d7b7
00000020: c7dd 11b8 86d8 2b37 6ffa 5338 e85c 0f38
00000030: 892e 8937 bdb0 2338 ecbf 1cb8 256b f537
00000040: 6602 2238 4b2f 2038 973e b237 edc1 13b8
00000050: b93a 1438 1b59 04b8 52b8 feb7 f3c2 6d38
00000060: be1d 0c38 dace d137 55c4 2eb8 1b8f 2038
00000070: 2c91 97b7 5325 0d37 b82c 5237 6dd6 1037
00000080: 6fb0 d236 5e6e 5636 a8da 7533 b20a 5a35
00000090: 8aca 05b5 63bc 8ab6 ffa3 8eb6 6491 7fb5
000000a0: 0e0f 1ab6 9787 2d35 b865 9d36 ebf7 3536
000000b0: eb9d 7437 9dda d936 8ac9 7cb6 96f4 0036
000000c0: bfa4 cc36 8bd0 d336 70fa 3335 7091 f3b5
000000d0: 7430 e836 1fe7 f7b5 f91b d3b5 afeb e736
000000e0: 9ea5 c936 cc1c 4335 8621 e4b6 4a88 d036
000000f0: 1263 b4b5 06eb f634 7f38 3635 701d 0235
00000100: e9f7 3738 780f 8438 f445 6738 2493 5e38
00000110: 6732 6738 2dd4 6cb8 e8bd 2f37 c900 72b8
00000120: 1b9a 80b8 e52b 6c38 f5b1 8338 44ba 7038
00000130: 5f76 81b8 898a 3438 55ab 77b8 d2ee 7c38
00000140: 7b0f 3f38 ee63 3738 0992 6f38 d85c 90b7
00000150: 0eb2 fe37 b69a 7db8 a500 80b8 2c8f 6b38
00000160: 7145 cf37 9f7a 6338 c409 79b8 b3e5 3938
00000170: 7917 74b8 f951 6938 2462 6d38 fbc6 6938
00000180: d3de 88b9 c047 9338 d76d 1e3a 650f fbb9
00000190: b5f8 1b3a 3974 99ba 99d5 d5b8 a64a 3d39
000001a0: 06bf 9439 4085 063a 207c aab9 487c b8b9
000001b0: 0f56 87ba 2cbc 87b9 65e5 98ba 52f2 8439
000001c0: 3882 8bb9 dba6 88b9 0f21 8738 6eb1 d739
000001d0: 5ce6 60b9 aafb 8839 1dab 6039 fc91 383a
000001e0: e840 4db9 291f fcb9 f5c6 9bba 8fa4 89b9
000001f0: b760 bbb9 4e62 153a d01c dd39 3cec 103a
00000200: 45d8 d2b7 d07a a8b8 487e 9eb9 8ecd 95b8
00000210: 3473 a1b9 8e9d 00b9 f6ce 28b6 0dd3 0739
00000220: 85d0 8038 5233 9bb9 9419 23b8 46f0 55b8
00000230: 8a27 1b38 8c90 c7b7 632a ffb8 fad8 47b9
00000240: d3db dfb7 f1c9 d1b7 edbe 47b9 187b 8f37
00000250: 6a7b 67b7 e416 a638 09e5 ca38 8cde 74b9
00000260: d973 2cb7 d4ad a1b8 0320 1eb9 2598 d6b7
00000270: 70ea 8a39 43d6 9cb9 d9ad 97b9 60f0 9cb9
00000280: aeeb 2db6 2909 e136 1909 6738 69b2 bab6
00000290: 889c 5638 c3ed bb37 30b5 9135 3227 fcb6
000002a0: 009b a636 5eb5 7b38 22f6 9fb6 f7eb b0b6
000002b0: 1076 d037 466a 1ab6 13c0 bd37 df85 3f38
000002c0: aff1 40b6 2dfa 2bb6 c988 0038 665e 0436
000002d0: 3a24 c7b4 ba50 4a36 9520 02b5 aedb d438
000002e0: 049c ac34 4727 b5b6 ab6c de37 0a9e 33b6
000002f0: 9db2 65b8 dd8c 7738 58d2 6b38 f724 7938
00000300: e2a1 ae33 0a36 2935 2466 cc35 398a 8134
00000310: 5cab db35 b7f2 e035 1e94 06b3 9bf3 8bb5
00000320: e619 55b4 e775 3b36 80ba 2d34 469b 5934
00000330: 3d27 8ab6 dff1 9233 1e64 4c36 7449 4336
00000340: c06b cb33 b595 ab33 1482 3936 def2 aeb3
00000350: 3b7b 0db3 655a 98b4 102c 0eb5 1820 8f35
00000360: c060 82b3 db4a 8b34 1208 9034 0a6b b733
00000370: 581b 8ab6 a570 0c36 4ccd 5d36 1f98 2836
00000380: 9d9d 6cbb 040b 083e d6ea 56bc 357b fabc
00000390: e5a5 6ebd c31e 06be 6ee9 65bb ca22 983b
000003a0: b46b c6bc 4a40 58bc 1392 c8ba 23f4 e9bb
000003b0: a983 4e3e f6b4 67bb b595 4fbe 81f7 133e
000003c0: 82ac 6bbb 4db1 6bbb 9bf1 6e3c e76b 82ba
000003d0: b135 58bb cc94 edbc 3e59 d9bc 4496 913e
000003e0: 5970 53bb c6a3 06bd 5b30 6ebd 54c3 6dbb
000003f0: 055e 74bd a4ea a33c 8127 4abc 5e01 0f3d

sat_layers.layer0_1.0.input_linear_layer1.bias f4 [32]
-2.0460155e-05 4.000997e-06 -6.307247e-05 -0.0011383252 -9.82795e-05 4.4685894e-05 -1.4065799e-06 0.14650959
-3.8976028e-05 4.5822917e-06 5.231118e-06 0.000110717345 0.0028890066 -1.14242575e-05 -8.5495856e-05 -0.00039167973
-2.0445152e-05 -3.9761476e-06 0.00019886358 0.00050525187 0.27663824 0.2248307 0.0030445093 0.002230476
-1.9570527e-05 0.0022799312 -9.1603e-06 -6.8900545e-06 0.15067096 3.2327987e-06 0.20441481 -4.0217394e-05
00000000: d9a1 abb7 4d40 8636 c645 84b8 db33 95ba
00000010: 681b ceb8 1d6d 3b38 b8c9 bcb5 9c06 163e
00000020: 317a 23b8 96c1 9936 f686 af36 ec30 e838
00000030: 7d55 3d3b d0aa 3fb7 3d4c b3b8 5d5a cdb9
00000040: a181 abb7 d96a 85b6 0986 5039 e172 043a
00000050: 87a3 8d3e 053a 663e 6486 473b 2d2d 123b
00000060: 632b a4b7 e66a 153b 30af 19b7 1e31 e7b6
00000070: 7d49 1a3e 0ff3 5836 1e52 513e 19af 28b8

sat_layers.layer0_1.0.input_linear_layer2.weight f4 [32, 32]
-0.00024108669 0.0010965463 0.0012582078 0.0002680138 0.0012963002 -0.004044839 -0.00013050887 -0.00049069355
3.7796483e-05 0.0009512199 -0.00028164536 4.541539e-05 -0.0031890948 -0.00025466 -0.004562966 0.00077522313
-0.0002352899 -0.00024184509 0.0004991976 0.00033309785 -0.00026927367 -6.6853518e-06 -4.3679804e-05 0.003501057
-0.00026732744 0.00028449044 -0.004666043 -0.0002390903 -0.00038772766 0.0010575141 0.00083090714 0.0010418532
0.0013502237 -0.005138343 -0.002298064 0.00735613 0.0036201735 0.011723669 0.001091132 -0.0046132235
0.005351566 -0.0007847624 0.0007463484 0.0017812935 -0.0527776 0.0012997369 0.059032004 -0.014806762
0.0013644389 0.0013487348 -0.002428175 0.00021605611 0.0011543063 0.005751012 0.006811077 0.019406158
0.001100511 0.007704288 -0.021226961 0.001354279 0.009955052 -0.0016779308 0.0076930663 0.0050668824
-0.0025036407 -0.1967957 0.03400658 -0.036220014 0.10261649 -0.03529237 -0.0020102302 0.010073589
-0.029088778 0.0022179964 -0.00073581556 -0.003018635 -0.2399369 -0.0023640613 0.00615073 -0.10171562
-0.0025246202 -0.002500796 0.011797628 0.00054584455 -0.001959435 -0.0035672714 -0.037774958 -0.29877114
-0.0018302792 -0.014962205 -0.059356336 -0.0025104673 0.06370721 0.02570703 -0.0014532277 0.02821402
-0.00017223773 0.00059539167 0.0014341769 0.0005081146 0.0016244801 -0.005512974 -9.800162e-05 -0.0005754243
0.00031220724 0.000964399 -0.0002227469 0.0001300263 0.0005868946 -0.00019125422 -0.0018993231 0.00022004193
-0.00016318006 -0.0001732567 0.0005504243 0.00033459216 -0.00022585999 0.00027432202 0.00024285945 0.0013885672
-0.0002313965 0.00052509666 -0.0050340495 -0.00016920522 0.00014653646 0.0010990088 0.00079429586 0.0010936537
-0.005415586 -0.059075344 0.044509295 0.049893577 0.11974725 0.07698834 -0.0038101645 0.021991028
0.06322249 0.050553523 -0.0024460112 -0.007879284 -0.21827224 -0.0051284325 -0.14111605 -0.20423684
-0.00552504 -0.0054038875 0.011841686 0.0003639947 -0.004122231 0.13161235 0.013744074 -0.2263564
-0.0038126116 0.09117534 0.106405735 -0.0054461015 0.10275953 -0.010832721 -0.016630644 0.0043680295
-0.0014558868 -0.060657986 0.0017274468 -0.019682271 0.018487986 0.040598977 -0.0013159844 0.003695497
-0.02957926 -0.0036917608 -0.0007144471 -0.0019961244 -0.09262913 -0.0014184149 -0.008610111 0.12856439
-0.0014710872 -0.0014548362 0.00045932268 -0.0016518006 -0.0014787448 -0.033156633 -0.03609049 -0.062636204
-0.0014877255 -0.033352863 0.004184927 -0.0014632619 -0.008856646 -0.0021493684 -0.007428811 -0.0048824977
-0.00024096906 0.0010292627 0.0013879944 0.00041940217 0.0014290501 -0.003528629 -0.0001294263 -0.00048884575
0.00026310992 0.000916317 -0.00028384084 3.498848e-05 -0.0035614457 -0.00025433075 -0.004355634 0.0004438488
-0.0002354845 -0.0002416964 0.00050137984 0.00033449603 -0.00026799273 0.00023369784 0.00020890647 0.0034704644
-0.00026597045 0.00043113856 -0.004305925 -0.00023904421 9.6378324e-05 0.0010554747 0.00071143836 0.001044682
0.0011884336 0.067705795 -0.11076634 0.14174484 -0.112946026 0.44823644 0.0011922922 -0.00036684264
0.14887759 -0.04336818 0.00082133355 -0.0008075322 0.04318568 0.0011102218 0.42744043 0.015389571
0.0011422811 0.0011927345 -0.008789243 0.00120572 0.0012465516 0.14757363 0.18960808 -0.029417785
0.0012326993 0.079508685 0.5956485 0.0011798367 0.16076744 -0.04790607 -0.019138038 -0.040081557
00000000: 37cc 7cb9 fdb9 8f3a 73ea a43a 3484 8c39
00000010: 9ee8 a93a 928a 84bb 35d9 08b9 e3a1 00ba
00000020: aa87 1e38 495b 793a cda9 93b9 677c 3e38
00000030: 2200 51bb e383 85b9 ef84 95bb 5838 4b3a
00000040: 27b8 76b9 cc97 7db9 95dc 023a a3a3 ae39
00000050: 4d2d 8db9 bc52 e0b6 d534 37b8 fd71 653b
00000060: 1528 8cb9 a927 9539 9be5 98bb 50b4 7ab9
00000070: ed47 cbb9 499c 8a3a 3cd1 593a cb8e 883a
00000080: fdf9 b03a 8c5f a8bb 1e9b 16bb b10b f13b
00000090: 6f40 6d3b a214 403c 5104 8f3a 862a 97bb
000000a0: 305c af3b 83b8 4dba 98a6 433a 4b7a e93a
000000b0: 532d 58bd ef5b aa3a 8bcb 713d 1098 72bc
000000c0: f9d6 b23a 08c8 b03a 0422 1fbb 1f8d 6239
000000d0: 184c 973a fc72 bc3b 742f df3b aaf9 9e3c
000000e0: 063f 903a 4074 fc3b 2ae4 adbc 1082 b13a
000000f0: 841a 233c 04ee dbba 1e16 fc3b 1708 a63b
00000100: 1f14 24bb d084 49be 7c4a 0b3d 705b 14bd
00000110: 9828 d23d bb8e 10bd 11be 03bb b20b 253c
00000120: 974b eebc ce5b 113b bfe3 40ba 4bd4 45bb
00000130: 05b2 75be 5eee 1abb 108c c93b 4750 d0bd
00000140: 1974 25bb 65e4 23bb d74a 413c 0217 0f3a
00000150: dd69 00bb e2c8 69bb eab9 1abd 88f8 98be
00000160: fbe5 efba 0924 75bc a11f 73bd a786 24bb
00000170: ed78 823d 8d97 d23c 3b7a beba 1721 e73c
00000180: b79a 34b9 0f14 1c3a fefa bb3a fe32 053a
00000190: 82ec d43a 2ea6 b4bb 3886 cdb8 12d8 16ba
000001a0: bfaf a339 b9cf 7c3a 2a91 69b9 ab57 0839
000001b0: d4d9 193a 6a8b 48b9 b5f2 f8ba 0ebb 6639
000001c0: 501b 2bb9 3eac 35b9 594a 103a 336c af39
000001d0: d4d4 6cb9 e1d2 8f39 16a8 7e39 9500 b63a
000001e0: 06a3 72b9 a4a6 093a abf4 a4bb ae6c 31b9
000001f0: 95a7 1939 9e0c 903a 4b38 503a ee58 8f3a
00000200: 3a75 b1bb fdf8 71bd 614f 363d 355d 4c3d
00000210: 0c3e f53d 10ac 9d3d f4b3 79bb 8726 b43c
00000220: cb7a 813d 3611 4f3d 424d 20bb 1d18 01bc
00000230: c282 5fbe 690c a8bb ba80 10be 7623 51be
00000240: 650b b5bb 1813 b1bb a203 423c 8bd6 be39
00000250: c813 87bb 63c5 063e d32e 613c f9c9 67be
00000260: 02dd 79bb 23ba ba3d 40eb d93d 3675 b2bb
00000270: 9773 d23d ba7b 31bc fd3c 88bc b021 8f3b
00000280: 74d3 beba 8274 78bd 7f6b e23a b73c a1bc
00000290: 1e74 973c 1d4b 263d 1c7d acba 2730 723b
000002a0: 3450 f2bc 78f1 71bb bc49 3bba 69d1 02bb
000002b0: 57b4 bdbd 1bea b9ba 6c11 0dbc 62a6 033e
000002c0: 7fd1 c0ba 34b0 beba 3fd1 f039 3b81 d8ba
000002d0: 71d2 c1ba 40cf 07bd 9fd3 13bd 6947 80bd
000002e0: c9ff c2ba 039d 08bd b621 893b ecca bfba
000002f0: 771b 11bc 6bdc 0cbb 626d f3bb 5cfd 9fbb
00000300: a4ac 7cb9 53e8 863a 5ded b53a 35e3 db39
00000310: f74e bb3a 9240 67bb 9cb6 07b9 e225 00ba
00000320: 04f2 8939 fe34 703a 79d0 94b9 98c0 1238
00000330: 2567 69bb b257 85b9 b5b9 8ebb 61b4 e839
00000340: 64ec 76b9 e26f 7db9 086f 033a 4c5f af39
00000350: 6081 8cb9 c90c 7539 e70d 5b39 bb70 633b
00000360: f371 8bb9 700a e239 b818 8dbb f1a7 7ab9
00000370: b81e ca38 db57 8a3a d27f 3a3a b6ed 883a
00000380: 37c5 9b3a 56a9 8a3d 76d9 e2bd 8f25 113e
00000390: 3f50 e7bd 3f7f e53e b046 9c3a c954 c0b9
000003a0: 5e73 183e d5a2 31bd c34e 573a 92b0 53ba
000003b0: 78e3 303d dd84 913a 79d9 da3e 8a24 7c3c
000003c0: 98b8 953a 8755 9c3a c200 10bc 4009 9e3a
000003d0: 5563 a33a 8b1d 173e 9f28 423e 91fd f0bc
000003e0: 8692 a13a 73d5 a23d 6c7c 183f c0a4 9a3a
000003f0: 38a0 243e 2839 44bd 60c7 9cbc 8f2c 24bd

sat_layers.layer0_1.0.input_linear_layer2.bias f4 [32]
-0.008513162 0.078927726 0.07187341 -0.01102317 -0.21260364 0.014353592 -0.007737098 0.21688205
0.017656323 -0.05410129 -0.009058649 -0.006907915 -0.15144981 -0.008048282 0.25197503 -0.01471667
-0.008844303 -0.009253574 0.037461877 0.045810428 0.0089612175 -0.009578195 -0.008343277 0.034255024
0.0014835557 -0.009104823 -0.049823083 -0.0084561445 -0.012821872 -0.0682856 0.19381398 -0.0038253632
00000000: ca7a 0bbc dca4 a13d 5e32 933d 879a 34bc
00000010: c5b4 59be 542b 6b3c 7b87 fdbb 5416 5e3e
00000020: fea3 903c 5099 5dbd ba6a 14bc cb5b e2bb
00000030: a915 1bbe f1dc 03bc df02 813e 301e 71bc
00000040: b2e7 10bc 4d9c 17bc a071 193d b7a3 3b3d
00000050: 12d2 123c dded 1cbc 3db2 08bc ff4e 0c3d
00000060: de73 c23a 652c 15bc 4a13 4cbd a48b 0abc
00000070: d412 52bc 52d9 8bbd 2c77 463e f2b2 7abb
