output/modelparams/dynamicLearning-SCER-SCCompUAU-DiffSAT/epoch15_model_state_dict.pth (torch, 270519 bytes, 158 tensors)

in_layer0.layers.0.weight f4 [32, 4]
-0.0939699 0.54402316 -0.44535908 -2.13087e-40 0.16830273 -0.05453474 0.17009564 -7.6921e-41
-0.07441162 0.22279926 -0.16622435 2.88319e-40 -0.013200242 -0.0150129385 -0.01112347 1.76261e-40
0.19239622 0.5491995 -0.4010027 1.35056e-40 0.09708252 0.7435721 -0.4445187 1.06284e-40
-0.2594989 -0.2717162 0.65171015 5.29178e-40 -0.48641896 0.076586165 0.11444995 -2.92758e-40
-0.29121053 0.00844571 -0.07195403 5.38253e-40 -0.5341725 0.7042615 0.038935423 5.99988e-40
0.14170092 -0.58587235 -0.00421976 5.10995e-40 -0.5046001 -0.56972915 0.59173113 -2.93632e-40
-0.40128082 -0.4636938 0.5248388 -1.95007e-40 0.147162 -0.27650937 0.42452323 2.27421e-40
0.13944407 -0.7189749 -0.43349835 1.1481e-41 0.30929375 0.32965785 -0.5532364 5.12643e-40
0.4850859 -0.24590911 -0.054883145 -6.81121e-40 0.15334508 0.793689 -0.46561706 -4.79875e-40
-0.084126234 0.5770007 -0.095185354 -3.51835e-40 0.06818619 -0.5642353 0.15403742 -8.8691e-41
-0.58435345 0.7020196 0.2876297 1.58509e-40 0.22243844 -0.17421463 -0.17417985 -1.08246e-40
0.08360156 0.23227486 0.37323833 7.7744e-41 0.3008027 0.3761243 -0.28867617 -1.71938e-40
0.37905756 -0.1040175 -0.50082135 5.33352e-40 0.32600707 0.57405734 -0.5762849 -6.16093e-40
-0.58047354 0.29480088 -0.61291975 1.6384e-41 0.012290787 0.012125298 0.0123005025 -1.79237e-40
-0.7031549 0.5820541 0.4947831 2.05627e-40 -0.20316939 0.24686088 0.25905877 -1.68437e-40
0.43215096 -0.24198197 -0.38821638 3.90256e-40 -0.006449696 -0.0073332964 -0.005720034 -4.8169e-40
00000000: 4a73 c0bd 1a45 0b3f 1b06 e4be 0052 0280
00000010: 8d57 2c3e d25f 5fbd 8d2d 2e3e 6dd6 0080
00000020: 1f65 98bd 7d25 643e b736 2abe b723 0300
00000030: d445 58bc d4f8 75bc 373f 36bc 58eb 0100
00000040: 8403 453e 5798 0c3f 3a50 cdbe 7b78 0100
00000050: 33d3 c63d be5a 3e3f f497 e3be 4728 0100
00000060: 0add 84be 631e 8bbe 7ad6 263f 22c3 0500
00000070: e80b f9be 35d9 9c3d bc64 ea3d 1730 0380
00000080: 8c19 95be e05f 0a3c a25c 93bd 6edc 0500
00000090: 87bf 08bf 7b4a 343f c07a 1f3d 8688 0600
000000a0: 0c1a 113e bbfb 15bf ea45 8abb 7290 0500
000000b0: 792d 01bf c5d9 11bf b17b 173f 8732 0380
000000c0: ae74 cdbe 4669 edbe d65b 063f 9a1f 0280
000000d0: a3b1 163e a392 8dbe 1c5b d93e f579 0200
000000e0: 6dca 0e3e bd0e 38bf 7ff3 ddbe 0120 0000
000000f0: c05b 9e3e eac8 a83e e7a0 0dbf 0a95 0500
00000100: 2e5d f83e 99cf 7bbe 26cd 60bd b06a 0780
00000110: 7e06 1d3e 342f 4b3f 5c65 eebe b239 0580
00000120: 604a acbd 51b6 133f 8af0 c2bd c6d4 0380
00000130: 34a5 8b3d ba71 10bf fcbb 1d3e 3cf7 0080
00000140: 3098 15bf 8eb7 333f 3344 933e dcb9 0100
00000150: e7c6 633e 5265 32be 345c 32be bf2d 0180
00000160: 4b37 ab3d 76d9 6d3e 1819 bf3e b8d8 0000
00000170: d002 9a3e 5d93 c03e 5dcd 93be 4bdf 0180
00000180: d513 c23e 2107 d5bd d435 00bf c5ce 0500
00000190: 66ea a63e 6cf5 123f 6887 13bf 6bb5 0680
000001a0: ea99 14bf 24f0 963e 4fe8 1cbf ac2d 0000
000001b0: 4c5f 493c 30a9 463c 0c88 493c a4f3 0180
000001c0: f601 34bf 7f01 153f 3654 fd3e 343d 0200
000001d0: a30b 50be 19c9 7c3e 5aa3 843e 89d5 0180
000001e0: e442 dd3e 1fca 77be 4cc4 c6be e03f 0400
000001f0: f957 d3bb 264c f0bb 1f6f bbbb c13e 0580

in_layer0.layers.0.bias f4 [32]
-0.12206935 -0.16629958 -0.11208568 0.013469025 -0.21249801 0.0140515035 0.21981564 -0.10716959
0.095769435 -0.04631277 0.13755059 0.32493633 0.40546882 0.21161099 0.4088382 0.0414299
-0.26940858 -0.15815532 0.07165364 -0.060686342 -0.09005165 -0.22048481 -0.42741752 -0.30206192
-0.04374998 0.2160965 0.3271854 -0.0123354895 0.305094 -0.27316067 -0.0514685 0.007950468
00000000: 7fff f9bd 704a 2abe 2d8d e5bd 2fad 5c3c
00000010: 1499 59be 4738 663c 5a17 613e bb7b dbbd
00000020: c422 c43d 76b2 3dbd 10da 0c3e 0e5e a63e
00000030: 9c99 cf3e 8db0 583e 3e53 d13e 66b2 293d
00000040: ecef 89be 78f3 21be 25bf 923d 3e92 78bd
00000050: 006d b8bd c5c6 61be 78d6 dabe dca7 9abe
00000060: 2e33 33bd 6748 5d3e d884 a73e cb1a 4abc
00000070: 4835 9c3e b7db 8bbe a2d0 52bd ae42 023c

in_layer0.layers.2.weight f4 [32, 32]
-0.09810846 0.017055484 -0.04141837 -0.00034795346 -0.062529236 -0.13913853 0.028726242 0.000587593
-0.026121348 -0.13885489 0.10039458 0.057108715 0.12468003 0.08459682 -0.035818294 -0.0097239865
0.04083355 -0.119892545 -0.10372927 0.037011795 -0.10118772 0.013829666 0.019142006 -0.025551446
0.04532389 -0.031221133 -0.13849604 0.00019367377 -0.16384247 0.0035209677 0.1014307 -0.0014111486
0.045452684 -0.0075487257 0.020541627 0.002944405 0.04358986 0.07799739 -0.15148404 -0.015862169
-0.001238932 0.025951752 -0.019940814 -0.17884877 -0.16344756 -0.057819087 0.019255025 0.086052515
0.022947133 0.066283286 0.035851404 -0.01871594 -0.0076063527 0.014961123 -0.010014193 0.029719763
0.042196482 0.07032832 0.05140017 0.0008675232 -0.09523568 -0.0072428677 0.056514338 -0.0007473791
-0.2083214 0.049353283 -0.11267046 -0.0020491423 -0.15998507 -0.17947851 0.17140986 0.12355838
0.03325309 0.16256097 0.08119593 0.13611138 0.23305538 -0.034853134 -0.15331066 -0.16302939
-0.110965535 -0.08744086 -0.020624792 0.016165815 0.1402493 -0.21548945 0.097458 -0.22386365
-0.24421592 -0.19929825 -0.111846186 0.0013957733 0.28746775 0.002605427 -0.32883096 -0.003143271
-0.32409343 0.036009345 -0.14131461 0.0044281576 -0.27084208 -0.26352352 0.2778924 0.095683254
0.041023683 -0.07016121 0.03747473 0.3435228 0.31971726 0.14577071 -0.12760738 -0.34091732
-0.23119137 -0.28972992 -0.088572316 -0.023116333 0.1569844 -0.17181996 -0.00787042 -0.13044725
-0.25202647 -0.35629568 -0.26989415 -4.6668254e-05 0.17095259 0.09662483 -0.30109504 0.002207139
-0.10135663 -0.008716682 -0.1672023 -0.00065942557 0.033521116 0.07827018 -0.0024415443 -0.2612929
-0.016749403 -0.27743664 0.12333167 -0.19217892 0.0071361586 0.13791667 0.06116362 0.15139066
-0.0017782537 -0.02290016 0.009432857 0.023376811 -0.109030746 -0.041420065 -0.27009475 -0.021199131
0.14772254 0.09125406 -0.03909619 -8.321677e-05 -0.24253106 -0.15334411 0.16476628 -0.0013690034
0.2524289 -0.019496398 0.0149258375 0.0016094295 0.29492027 0.31949943 -0.07962859 0.010431465
0.04112519 0.16362435 -0.4118936 -0.43195194 -0.042448834 -0.05276773 -0.3226523 0.123375595
-0.09128457 0.3459273 0.25767377 -0.17799827 0.17330557 -0.16019194 0.0569251 0.03643719
-0.13799754 0.22379361 0.33843842 -0.00020617482 0.13186044 0.008615073 -0.2503757 0.0014005807
-0.07428252 0.023060754 0.029383969 -0.00022939581 -0.028763212 -0.05610673 -0.054934297 0.013654651
-0.06056563 -0.2119585 -0.11408153 0.2155733 0.12933117 0.15679508 0.10201406 -0.21608526
-0.1490336 -0.07035247 -0.060599845 -0.019220361 -0.16593452 -0.06125754 -0.12699378 -0.058016222
0.029077994 0.07192062 0.035031352 -0.0010704362 0.1685162 -0.04049203 -0.006969311 -0.003016249
-0.19333816 0.009325137 -0.0134864915 0.0040545557 -0.25955746 -0.30164275 0.14586805 -0.016324332
-0.034181558 -0.15669401 0.0059602777 0.32273978 0.23892395 0.041127384 -0.11840276 -0.19444644
0.029497035 -0.44889134 -0.07468188 0.22848392 0.052435562 -0.14992793 0.09890277 -0.03714178
-0.28417042 -0.15408355 -0.3793159 0.0011307274 0.20825233 0.0041236193 -0.25616696 0.0005083834
00000000: 17ed c8bd f1b7 8b3c 4fa6 29bd 866d b6b9
00000010: 540f 80bd 557a 0ebe 4c53 eb3c b308 1a3a
00000020: 70fc d5bc fa2f 0ebe ac9b cd3d d4ea 693d
00000030: 3e58 ff3d 1941 ad3d 34b6 12bd 5b51 1fbc
00000040: 1541 273d 398a f5bd 0370 d4bd ae99 173d
00000050: 823b cfbd d395 623c b2cf 9c3c 4451 d1bc
00000060: 8ba5 393d 76c3 ffbc e8d1 0dbe e814 4b39
00000070: 52c6 27be 09c0 663b e6ba cf3d 4af6 b8ba
00000080: 982c 3a3d 4d5b f7bb ea46 a83c ebf6 403b
00000090: 488b 323d 18bd 9f3d a21e 1bbe 61f1 81bc
000000a0: a963 a2ba c598 d43c eb5a a3bc 2224 37be
000000b0: cc5e 27be b5d3 6cbd b7bc 9d3c 4d3c b03d
000000c0: a0fb bb3c 88bf 873d ecd8 123d 2c52 99bc
000000d0: b63e f9bb 7f1f 753c 9212 24bc dc76 f33c
000000e0: 38d6 2c3d 4b08 903d fc88 523d 7f6a 633a
000000f0: ed0a c3bd 9455 edbb 947b 673d c3eb 43ba
00000100: 3552 55be ab26 4a3d c5bf e6bd e74a 06bb
00000110: 20d3 23be 37c9 37be 1186 2f3e 2d0c fd3d
00000120: 6434 083d 6276 263e 0d4a a63d c860 0b3e
00000130: 12a6 6e3e 29c2 0ebd 78fd 1cbe 2df1 26be
00000140: e641 e3bd 3214 b3bd 53f5 a8bc 2c6e 843c
00000150: 839d 0f3e 44a9 5cbe 0f98 c73d 833c 65be
00000160: bd13 7abe d714 4cbe 9d0f e5bd 61f2 b63a
00000170: f92e 933e d0bf 2a3b 885c a8be 56ff 4dbb
00000180: 93ef a5be 897e 133d c7b4 10be 141a 913b
00000190: d0ab 8abe 8eec 86be ea47 8e3e 95f5 c33d
000001a0: 7308 283d aeb0 8fbd 1a7f 193d 38e2 af3e
000001b0: fbb1 a33e eb44 153e 82ab 02be b78c aebe
000001c0: 6ebd 6cbe 7b57 94be 6765 b5bd 775e bdbc
000001d0: 85c0 203e 92f1 2fbe eff2 00bc f793 05be
000001e0: 9d09 81be 636c b6be 912f 8abe a8bd 43b8
000001f0: 320e 2f3e 3de3 c53d 2129 9abe a6a5 103b
00000200: 1194 cfbd 6ad0 0ebc 1437 2bbe 4ddd 2cba
00000210: 704d 093d 1e4c a03d 5102 20bb 2fc8 85be
00000220: 0b36 89bc 2d0c 8ebe 5195 fc3d 8dca 44be
00000230: 70d6 e93b 073a 0d3e b486 7a3d 2706 1b3e
00000240: 4b14 e9ba 1e99 bbbc 458c 1a3c ba80 bf3c
00000250: 834b dfbd 16a8 29bd dc49 8abe cda9 adbc
00000260: 9444 173e 69e3 ba3d 5423 20bd aa84 aeb8
00000270: 105a 78be 3d06 1dbe 7eb8 283e 2270 b3ba
00000280: 5c3e 813e e9b6 9fbc 808b 743c 7ef3 d23a
00000290: caff 963e 6e95 a33e 5014 a3bd bce8 2a3c
000002a0: e372 283d 248d 273e b8e3 d2be ce28 ddbe
000002b0: d4de 2dbd fa22 58bd af32 a5be 58ac fc3d
000002c0: 68f3 babd 621d b13e d1ed 833e 2e45 36be
000002d0: 0477 313e 5b09 24be 4b2a 693d 2a3f 153d
000002e0: 3a4f 0dbe 272a 653e cd47 ad3e a230 58b9
000002f0: 6c06 073e 3c26 0d3c 3e31 80be b193 b73a
00000300: 6f21 98bd e8e9 bc3c a6b6 f03c f889 70b9
00000310: d4a0 ebbc 2cd0 65bd c902 61bd c2b7 5f3c
00000320: ab13 78bd a60b 59be 94a3 e9bd 3fbf 5c3e
00000330: 646f 043e e48e 203e bfec d03d 7445 5dbe
00000340: 449c 18be f514 90bd 8b37 78bd 0574 9dbc
00000350: bdea 29be 30e9 7abd a80a 02be 6ba2 6dbd
00000360: f934 ee3c 1e4b 933d 097d 0f3d e14d 8cba
00000370: 838f 2c3e f9da 25bd d15e e4bb 43ac 45bb
00000380: 70fa 45be 76c8 183c 72f6 5cbc 14dc 843b
00000390: b7e4 84be eb70 9abe 6f5e 153e 9bba 85bc
000003a0: f601 0cbd 6574 20be 6f4e c33b 263e a53e
000003b0: 7ba8 743e 3075 283d 257d f2bd f81c 47be
000003c0: c4a3 f13c 16d5 e5be d0f2 98bd b0f7 693e
000003d0: acc6 563d b586 19be 898d ca3d fb21 18bd
000003e0: c97e 91be 14c8 1dbe b235 c2be ea34 943a
000003f0: 1940 553e 6d1f 873b 5128 83be 0845 053a

in_layer0.layers.2.bias f4 [32]
-0.0842573 -0.088753 -0.009401763 0.19210765 0.34159967 -0.108983494 -0.015491457 0.09605815
-0.5104799 0.06595698 -0.040412784 -0.25597882 0.027902186 -0.06335054 -0.1497152 -0.019774403
0.019923575 0.3802989 0.27464423 -0.13850391 -0.25697568 -0.19935553 -0.09750824 0.040645126
0.02278264 -0.076184206 -0.13499486 -0.04024248 0.024136454 -0.1267315 -0.011575458 -0.018379316
00000000: 178f acbd 22c4 b5bd da09 1abc deb7 443e
00000010: 27e6 ae3e bd32 dfbd e1cf 7dbc 23ba c43d
00000020: d0ae 02bf 7414 873d e087 25bd a80f 83be
00000030: 2093 e43c eebd 81bd f14e 19be eefd a1bc
00000040: c436 a33c 8ab6 c23e 2b9e 8c3e f8d3 0dbe
00000050: 5192 83be db23 4cbe 66b2 c7bd 817b 263d
00000060: a9a2 ba3c 7706 9cbd 183c 0abe 4cd5 24bd
00000070: d0b9 c53c e7c5 01be fda6 3dbc 3890 96bc

in_layer1.layers.0.weight f4 [32, 4]
0.21526206 0.24722731 -0.31053954 0.123989284 0.36909235 0.07265067 -0.105790794 0.03694117
-0.05361384 0.25174958 -0.33950567 0.25355124 0.28181177 -0.30293733 0.4082818 0.49109238
-0.19711435 -0.1400472 0.24917775 -0.39171022 0.19772899 0.11665237 0.31516486 -0.4343034
-0.4153924 0.22456455 0.18010539 -0.4653831 -0.27882975 -0.45748925 -0.35821146 -0.22559983
0.41376925 -0.09952545 0.2871756 0.47484046 0.22786611 -0.4476052 0.25161135 0.19071728
0.38753277 -0.4932171 0.307508 0.4092707 -0.46518236 0.05231315 0.42683655 -0.36365408
0.16405964 0.22093868 0.13104504 0.4971379 0.4093898 0.42897737 -0.06232339 0.4193563
-0.46595633 -0.26981467 -0.10694057 -0.1485284 0.46184736 0.23583263 0.3219065 0.3401047
-0.37350178 -0.057910502 0.07301229 0.13004625 0.25711632 -0.19895339 -0.1507672 0.41837066
-0.13419217 -0.34732068 0.3390199 0.33857775 -0.15678346 -0.09996003 -0.36894 -0.41754687
0.18802476 -0.21359628 0.39804775 -0.4003566 -0.06911254 0.010795891 0.25697356 0.40466535
0.33860224 0.22009802 -0.2294969 -0.35707384 -0.4473064 0.024802327 0.4849401 -0.09497124
-0.021049261 -0.363347 0.15350485 0.3169917 -0.49295795 -0.3520611 0.37035388 0.118382275
-0.03117305 0.08937913 -0.076020956 -0.34948248 -0.46721494 0.32885396 -0.05946833 -0.18569362
-0.12905759 -0.27271152 -0.14809167 -0.4292072 0.3741718 0.20417124 -0.25216073 -0.17065662
0.22431874 -0.18515271 0.13184685 0.13767076 -0.31474662 0.12525076 0.030592084 0.43669194
00000000: a86d 5c3e 2829 7d3e 0aff 9ebe 18ee fd3d
00000010: acf9 bc3e e0c9 943d d8a8 d8bd a04f 173d
00000020: 309a 5bbd 52e5 803e b0d3 adbe 78d1 813e
00000030: a249 903e 9a1a 9bbe 500a d13e 7670 fb3e
00000040: 58d8 49be 8868 0fbe 7428 7f3e 3e8e c8be
00000050: 7879 4a3e 70e7 ee3d 4a5d a13e 045d debe
00000060: 50ae d4be 40f4 653e 8c6d 383e b246 eebe
00000070: c6c2 8ebe 083c eabe 7e67 b7be a403 67be
00000080: 90d9 d33e 00d4 cbbd ae08 933e 4a1e f33e
00000090: bc55 693e 822c e5be 34d3 803e 644b 433e
000000a0: b26a c63e f486 fcbe b071 9d3e ee8b d13e
000000b0: 622c eebe 5046 563d 528a da3e de30 babe
000000c0: 40ff 273e c03d 623e ac30 063e dc88 fe3e
000000d0: 8a9b d13e eca2 db3e d046 7fbd deb5 d63e
000000e0: d491 eebe 2625 8abe a803 dbbd d417 18be
000000f0: 4277 ec3e 1c7e 713e eed0 a43e 3422 ae3e
00000100: a03b bfbe 9033 6dbd 7887 953d d82a 053e
00000110: c0a4 833e 70ba 4bbe b862 1abe ae34 d63e
00000120: ac69 09be 04d4 b1be 0494 ad3e 105a ad3e
00000130: d88b 20be d8b7 ccbd b4e5 bcbe b4c8 d5be
00000140: 9089 403e fcb8 5abe eacc cb3e 8afb ccbe
00000150: e08a 8dbd 40e1 303c 0a92 833e 4c30 cf3e
00000160: 465d ad3e 6061 613e 3c01 6bbe 62d2 b6be
00000170: 5805 e5be 402e cb3c 124a f83e 4880 c2bd
00000180: 806f acbc 9e08 babe 6030 1d3e bc4c a23e
00000190: fc64 fcbe 5a41 b4be 069f bd3e 6872 f23d
000001a0: a05e ffbc 680c b73d e0b0 9bbd 5eef b2be
000001b0: cc36 efbe 8c5f a83e 1095 73bd 7826 3ebe
000001c0: ac27 04be d8a0 8bbe 58a5 17be 0cc1 dbbe
000001d0: 7293 bf3e 4412 513e 361b 81be 9cc0 2ebe
000001e0: d0b3 653e ac98 3dbe dc02 073e 90f9 0c3e
000001f0: 7826 a1be bc41 003e 409c fa3c 1696 df3e

in_layer1.layers.0.bias f4 [32]
-0.18090999 -0.12853426 0.43080032 -0.40830117 0.03612423 0.48175114 -0.22418398 0.4793411
0.44367033 0.46516985 -0.04771155 0.45231664 -0.21785969 -0.17115259 0.1891163 0.1056236
0.2756378 0.47515965 -0.31299454 0.26536334 0.16728228 0.26378405 0.23708618 -0.18703496
-0.39517802 0.40019238 -0.2851178 0.31966358 -0.47632176 -0.08650118 0.005299449 0.08651179
00000000: 7840 39be 7c9e 03be dc91 dc3e da0c d1be
00000010: 00f7 133d 16a8 f63e 7c90 65be 326c f53e
00000020: c228 e33e be2a ee3e 306d 43bd 0c96 e73e
00000030: 9c16 5fbe a042 2fbe b4a7 413e 3051 d83d
00000040: 6620 8d3e 2048 f33e d240 a0be b4dd 873e
00000050: 0c4c 2b3e b40e 873e b8c6 723e 1886 3fbe
00000060: c654 cabe 04e6 cc3e f6fa 91be f2aa a33e
00000070: 72e0 f3be 8827 b1bd 00a7 ad3b 182d b13d

in_layer1.layers.2.weight f4 [32, 32]
0.014289215 0.055703446 -0.019683123 0.043293387 0.17493545 -0.11438372 -0.009651437 -0.06747974
0.1551091 0.1513279 -0.0048205703 -0.061276563 -0.109224334 0.12649073 -0.012173489 0.16648997
0.10080902 0.15473343 0.13981687 -0.11487697 0.051742926 -0.07330203 0.08869828 -0.015893951
0.015303537 -0.12226032 -0.15798986 0.06656933 0.041080326 0.015355319 0.12006576 -0.073817424
0.062752336 -0.09736181 0.036628112 -0.040357858 0.123801425 0.15458812 0.15353476 0.007952169
0.10424398 -0.17662437 -0.10369619 0.031594098 0.0009858757 -0.13878259 -0.07824341 -0.08256429
-0.17514364 0.016859323 0.12050761 0.071747184 -0.08399243 -0.16232789 -0.14261937 0.0032790601
0.12160705 -0.07158971 -0.09619215 -0.09430267 -0.015303329 -0.16787681 -0.15599562 0.17401733
-0.08430765 -0.03188409 -0.04729709 -0.15529943 -0.031164512 0.054114297 -0.071781516 -0.007534191
-0.0008456111 -0.17598206 0.12846653 0.1427954 0.12052731 -0.058053173 0.09237699 -0.16562605
-0.043732196 -0.035953596 -0.06242863 0.07424621 -0.08054969 -0.020489097 -0.051044866 -0.16600798
-0.029193014 -0.14981404 0.103079215 0.09448059 0.165603 -0.059362106 0.008989483 0.034628898
0.17646177 0.1620359 -0.09148892 -0.15041976 -0.15932676 -0.08512854 0.14863147 0.059370384
0.17056356 0.13103057 0.0025628507 -0.109561846 0.17262255 0.14180519 0.07653423 -0.09656665
0.13926102 0.016089499 0.11689074 0.0737807 0.09386991 -0.1551173 -0.09801935 0.10602562
-0.03682892 -0.15379214 0.1607606 -0.003822893 0.1426029 -0.13817164 0.060863122 -0.06658625
-0.074390344 -0.03687027 -0.065433174 0.09686659 -0.03358741 0.13403521 0.04033746 -0.027314693
-0.10210611 -0.16186965 -0.0515697 -0.1637008 -0.03275153 0.0028892905 -0.011392161 -0.0868357
0.12269427 0.09955706 -0.043553725 -0.069845505 0.11113776 0.15380003 -0.16186355 -0.03819424
-0.016405255 -0.06400393 0.15091588 -0.02611193 0.14987986 0.0008739084 -0.019175187 -0.103114136
-0.05877938 0.056962684 0.07819496 -0.0062897354 0.16844042 -0.12235296 0.06777856 0.15921848
-0.030738354 0.14034463 0.0029140562 -0.13237831 -0.09698259 0.06579903 -0.076499924 0.042516753
0.1739934 0.06004758 -0.016544491 0.044186205 -0.10184879 -0.14853716 -0.13288297 -0.14833376
0.036278024 0.034433126 -0.075124435 -0.17291422 0.09576078 -0.10030474 -0.029512465 -0.14822406
-0.09973002 0.07374416 -0.1647076 -0.10080508 0.13253482 -0.0906597 -0.07356667 -0.049634263
0.07556482 -0.115960136 0.017724589 0.07219608 -0.012832791 0.031964526 -0.13485366 0.079920635
0.06606665 -0.02217348 -0.1461714 0.07070635 0.115354136 -0.030919641 0.08332153 0.06552389
-0.070704944 -0.012271896 0.17597033 0.00083456933 -0.14073431 -0.012892023 0.08794512 -0.05770409
-0.09257504 0.1456248 0.09351693 -0.030033112 0.009031326 -0.018696383 0.041041464 0.006282553
-0.10697376 0.03275217 0.004623547 0.011429235 -0.06736746 0.04529418 -0.14294977 0.052842647
0.09579413 -0.019454837 -0.13732016 -0.0006426126 0.00025093555 -0.15277126 -0.1250333 0.1635076
0.13219692 0.09797017 0.1224636 0.06805247 0.099487916 0.11708303 -0.041296393 -0.022472218
00000000: 501d 6a3c 4c29 643d 803e a1bc 6854 313d
00000010: 4722 333e 0342 eabd 1021 1ebc d132 8abd
00000020: ebd4 1e3e b3f5 1a3e e0f5 9dbb 22fd 7abd
00000030: 02b1 dfbd c986 013e 5073 47bc 597c 2a3e
00000040: f674 ce3d 7172 1e3e 272c 0f3e 9e44 ebbd
00000050: 64f0 533d 601f 96bd 72a7 b53d 0834 82bc
00000060: b0bb 7a3c 9e63 fabd 18c8 21be 8055 883d
00000070: d843 283d e094 7b3c 0ae5 f53d 972d 97bd
00000080: 4c84 803d a165 c7bd 5c07 163d 484e 25bd
00000090: 9a8b fd3d 594c 1e3e 3738 1d3e d049 023c
000000a0: de7d d53d 05dd 34be ab5e d4bd d068 013d
000000b0: 8038 813a 061d 0ebe 153e a0bd 7717 a9bd
000000c0: db58 33be 901c 8a3c b2cc f63d 30f0 923d
000000d0: 3904 acbd 4839 26be d00a 12be 80e5 563b
000000e0: 1e0d f93d a09d 92bd 6400 c5bd c221 c1bd
000000f0: d0ba 7abc e6e7 2bbe 51bd 1fbe 9931 323e
00000100: 7da9 acbd e498 02bd 98ba 41bd d006 1fbe
00000110: b84c ffbc f4a6 5d3d 3002 93bd 60e1 f6bb
00000120: 00ac 5dba a434 34be bb8c 033e f538 123e
00000130: 06d7 f63d 2ac9 6dbd 2630 bd3d e099 29be
00000140: 8820 33bd 1444 13bd 2ab5 7fbd 660e 983d
00000150: 3cf7 a4bd c0d8 a7bc 6c14 51bd fffd 29be
00000160: 3026 efbc da68 19be 321b d33d 0a7f c13d
00000170: d593 293e ae25 73bd a048 133c 08d7 0d3d
00000180: 65b2 343e bdec 253e 8b5e bbbd a307 1abe
00000190: 8e26 23be df57 aebd d932 183e 5c2e 733d
000001a0: 37a8 2e3e e12c 063e 80f5 273b f661 e0bd
000001b0: f7c3 303e 6135 113e fabd 9c3d bcc4 c5bd
000001c0: 719a 0e3e 20ce 833c 6a64 ef3d 561a 973d
000001d0: de3e c03d 12d7 1ebe 5ebe c8bd f623 d93d
000001e0: ecd9 16bd b07b 1dbe 6d9e 243e 8089 7abb
000001f0: 7f06 123e de7c 0dbe 9c4b 793d 5f5e 88bd
00000200: f759 98bd 4805 17bd d401 86bd fe61 c63d
00000210: f492 09bd 8740 093e e438 253d 10c3 dfbc
00000220: 021d d1bd 28c1 25be c03a 53bd 2fa1 27be
00000230: 7826 06bd 405a 3d3b 30a6 3abc ead6 b1bd
00000240: 2247 fb3d 92e4 cb3d 6465 32bd 290b 8fbd
00000250: 329c e33d c17d 1d3e 8fbf 25be 9071 1cbd
00000260: 5064 86bc 7e14 83bd b189 1a3e b0e8 d5bc
00000270: 1b7a 193e 0017 653a 4815 9dbc 812d d3bd
00000280: a6c2 70bd b451 693d ae24 a03d 201a cebb
00000290: a57b 2c3e 3094 fabd 7ccf 8a3d 2b0a 233e
000002a0: 00cf fbbc 81b6 0f3e c0f9 3e3b 2e8e 07be
000002b0: cf9e c6bd a4c1 863d feab 9cbd 0c26 2e3d
000002c0: 532b 323e 74f4 753d 5088 87bc 98fc 343d
000002d0: 1996 d0bd 201a 18be 7912 08be cee4 17be
000002e0: 4498 143d c009 0d3d d7da 99bd 6d10 31be
000002f0: 3a1e c43d 926c cdbd 20c4 f1bc 0cc8 17be
00000300: 413f ccbd 2e07 973d 1ca9 28be e572 cebd
00000310: 35b7 073e cbab b9bd 1faa 96bd 4c4d 4bbd
00000320: bac1 9a3d 827c edbd 2833 913c 8adb 933d
00000330: a040 52bc 3ced 023d 1417 0abe 6ead a33d
00000340: f44d 873d 28a5 b5bc f5ad 15be 7ece 903d
00000350: ca3e ec3d 304b fdbc 7aa4 aa3d 6431 863d
00000360: c1cd 90bd 1010 49bc 9131 343e 00c7 5a3a
00000370: a81c 10be 1039 53bc 921c b43d 205b 6cbd
00000380: fc97 bdbd ab1e 153e ce85 bf3d 0008 f6bc
00000390: 20f8 133c 2829 99bc 181b 283d e0dd cd3b
000003a0: 0f15 dbbd 2427 063d 2081 973b b041 3b3c
000003b0: f3f7 89bd 6486 393d 6d61 12be 8871 583d
000003c0: b62f c43d c05f 9fbc a89d 0cbe 0075 28ba
000003d0: 0090 8339 1270 1cbe bb08 00be 896e 273e
000003e0: a15e 073e 96a4 c83d 32ce fa3d 185f 8b3d
000003f0: 52c0 cb3d 3ac9 ef3d 6826 29bd a817 b8bc

in_layer1.layers.2.bias f4 [32]
0.17082156 0.0007380992 -0.10631747 0.10172556 -0.03682241 0.012109742 -0.09208892 -0.14972892
-0.11740141 -0.01941061 -0.12797707 0.17423268 0.0019132793 -0.06767574 0.06986572 -0.15672469
-0.09041989 0.06639752 -0.15020056 0.08810602 0.014858991 -0.14739768 -0.17543888 0.055870384
0.08355673 -0.03533879 -0.15631574 -0.10188461 0.018788427 0.0064313114 0.04525076 0.03125769
00000000: d9eb 2e3e 007d 413a f9bc d9bd 7e55 d03d
00000010: 18d3 16bd f067 463c 1e99 bcbd 8a52 19be
00000020: 2770 f0bd 0003 9fbc 6c0c 03be 0d6a 323e
00000030: 00c7 fa3a 9499 8abd c215 8f3d 707c 20be
00000040: 102e b9bd 6cfb 873d 2dce 19be ee70 b43d
00000050: 2073 733c 6bef 16be 40a6 33be 58d8 643d
00000060: ca1f ab3d 68bf 10bd 3c11 20be e1a8 d0bd
00000070: 30ea 993c c0bd d23b dc58 393d 1008 003d

in_layer2.layers.0.weight f4 [32, 4]
-0.1419178 0.020497266 0.4349122 -2.16994e-40 0.48627096 -0.14488408 -0.15260525 1.33579e-40
1.3008228e-05 -0.0020662155 0.0017502414 -1.85466e-40 -0.3344499 0.7326123 -0.57128817 4.8e-41
-0.14252436 -0.13430436 0.09574193 -5.06303e-40 -0.23229496 -0.5483407 0.53293884 2.0532e-41
-0.30508524 -0.1367798 0.39490002 3.48654e-40 -0.08107705 -0.12990761 0.2517259 -2.37917e-40
-0.000199898 0.0026999086 -0.0018799077 -6.20271e-40 -0.2964218 0.62583816 -0.045105062 4.7374e-41
-0.4050009 -0.485546 0.5101267 -3.61199e-40 0.6420463 -0.270258 -0.41624686 -1.02034e-40
0.00053563 -0.000553484 -0.0002146755 5.22391e-40 -0.38913438 -0.7264254 0.44438404 4.09193e-40
-0.26136193 0.24124728 -0.39311028 -1.45211e-40 0.0018081411 0.47739512 -0.57420975 1.08327e-40
0.07100391 0.48125938 -0.36212674 -3.95467e-40 0.03127727 0.23348095 -0.33775797 4.40889e-40
-0.22948301 -0.3328316 0.20724459 -2.09518e-40 -0.3041256 0.47931683 -0.2818105 -1.21577e-40
0.31712377 -0.09156278 -0.10031612 -5.53383e-40 -0.056452274 -0.15543935 -0.014654806 1.42837e-40
-0.16720471 0.3472414 -0.3807363 -1.7228e-40 0.0031301172 -0.47433206 0.3097523 1.3014e-41
0.00021871418 -0.00074397883 0.0016119449 -3.3044e-41 -0.00081424357 0.0024832105 -0.0026488218 -5.6577e-41
-0.29152784 0.117350936 0.0034078183 -3.62558e-40 -0.11132085 -0.20154938 0.074754134 4.01409e-40
-0.2961978 -0.30847237 0.38345838 -3.02546e-40 -0.109171696 0.021580929 0.022846758 2.52705e-40
-0.37566313 -0.34792182 0.6021722 4.34928e-40 -0.18673529 0.11439962 -0.13678333 5.88925e-40
00000000: e652 11be e2e9 a73c d0ac de3e e45c 0280
00000010: 82f8 f83e 7e5c 14be 8d44 1cbe 5d74 0100
00000020: ea3d 5a37 5869 07bb 5b68 e53a 0105 0280
00000030: 043d abbe 7b8c 3b3f f13f 12bf ce85 0000
00000040: e8f1 11be 1587 09be 5814 c43d 5e83 0580
00000050: bbde 6dbe 0e60 0cbf ae6e 083f 3c39 0000
00000060: 2234 9cbe 0110 0cbe 5630 ca3e e8cb 0300
00000070: b90b a6bd 8006 05be 38e2 803e 3797 0280
00000080: b69b 51b9 f3f0 303b 3c67 f6ba 10c1 0680
00000090: 99c4 97be ee36 203f 16c0 38bd 0f84 0000
000000a0: 475c cfbe 7c99 f8be aa97 023f e0ee 0380
000000b0: 255d 243f 425f 8abe 4f1e d5be 6e1c 0180
000000c0: 8569 0c3a af17 11ba 841a 61b9 37b0 0500
000000d0: 9f3c c7be 04f7 39bf 4e86 e33e aa74 0400
000000e0: 3bd1 85be 8709 773e c045 c9be ca94 0180
000000f0: 26ff ec3a 226d f43e 69ff 12bf f92d 0100
00000100: 7f6a 913d a167 f63e ad68 b9be 674e 0480
00000110: 981c 003d a115 6f3e 9dee acbe 05cd 0400
00000120: 98fd 6abe e768 aabe ed37 543e 0d48 0280
00000130: 5ab6 9bbe 0469 f53e 7749 90be e852 0180
00000140: 0c5e a23e 4485 bbbd 8a72 cdbd 9b06 0680
00000150: 803a 67bd 7e2b 1fbe b61a 70bc 2c8e 0100
00000160: b637 2bbe a0c9 b13e deef c2be 3fe0 0180
00000170: a722 4d3b a7db f2be da97 9e3e 4724 0000
00000180: a456 6539 9307 43ba e547 d33a 1d5c 0080
00000190: f672 55ba 5cbd 223b db97 2dbb b79d 0080
000001a0: 2343 95be b055 f03d b455 5f3b aaf2 0380
000001b0: 30fc e3bd f662 4ebe b218 993d f75e 0400
000001c0: 3da7 97be 17f0 9dbe a854 c43e 604b 0380
000001d0: 6995 dfbd 7dca b03c 2029 bb3c 70c0 0200
000001e0: eb56 c0be cf22 b2be f527 1a3f 67bc 0400
000001f0: 8937 3fbe 594a ea3d ee10 0cbe af69 0600

in_layer2.layers.0.bias f4 [32]
-0.33656067 -0.1642117 0.00016283902 0.00040234096 -0.011837278 0.14699732 -0.17650087 -0.070434764
-7.7527635e-05 -0.15999295 0.19179897 0.06464902 -0.00031121526 0.43171346 0.1744335 -0.0915068
-0.37868837 0.0632562 0.29381633 -0.03756448 -0.123374924 0.122233525 -0.07061387 -0.05251769
0.00013411036 -7.3840725e-05 0.26320964 -0.0061817346 0.0037326147 0.07406885 0.23444693 0.006394698
00000000: ae51 acbe 1d27 28be c4bf 2a39 4af1 d239
00000010: 24f1 41bc 7786 163e a5bc 34be 1a40 90bd
00000020: 5596 a2b8 31d5 23be f366 443e b566 843d
00000030: 9b2a a3b9 8c09 dd3e b29e 323e eb67 bbbd
00000040: 71e3 c1be 778c 813d 186f 963e 36dd 19bd
00000050: feab fcbd 9255 fa3d 019e 90bd ca1c 57bd
00000060: fa9f 0c39 f0da 9ab8 6ac3 863e 2690 cabb
00000070: e29e 743b 69b1 973d db12 703e 9d8a d13b

in_layer2.layers.2.weight f4 [32, 32]
-0.04063298 0.021260645 -0.00020459943 -0.012268933 -0.012748124 -0.15333737 -0.046790022 -0.032692958
-0.0011305681 -0.0034201955 -0.12884393 0.048208248 6.5446904e-05 -0.1555657 0.0007888627 -0.038451593
-0.011113855 -0.0017559901 -0.054490756 -0.00154905 0.008683881 -0.0055131214 -0.0055393763 -0.07510283
0.00034583607 -0.0013734502 0.0006848674 -0.016752725 -0.069311835 0.00167812 -0.15961857 0.0058514234
0.0040060375 0.022732941 0.0009107982 -0.2917137 -0.012303776 0.15971604 0.024279894 -0.03733649
-6.334729e-06 -0.15505542 0.13783497 0.0968517 0.00034563808 0.26614583 -0.06204645 -0.13955009
-0.09985515 -0.086540654 0.051028118 -0.1609733 0.047206916 -0.0059865597 -0.055281788 0.06474526
4.9854072e-05 -0.0015798325 -0.02597089 0.0126237245 0.1478601 -0.008866528 0.18648659 -0.039925378
-0.0709533 -0.02317001 0.0020911123 0.47225127 -0.16553418 -0.098394625 -0.029042367 -0.10332726
-0.002102572 0.33013818 -0.12767696 -0.035689887 -0.0006273973 -0.060919438 0.16365649 0.12030931
0.15100308 0.10923629 -0.2249997 0.24459352 0.014946436 -0.092351176 0.15172268 -0.010603942
0.0011372485 -0.0021613683 0.032727763 0.070918374 -0.1842352 -0.003878253 -0.3190377 -0.006697535
0.0050315275 0.04403913 -0.00030489356 -0.26798013 0.01155695 0.0012345512 0.012122401 0.0032627787
0.004344299 -0.14441587 0.010057977 0.07683706 0.00025724422 -0.018286113 -0.06938866 -0.16861649
-0.112768136 -0.072253734 0.0020635072 -0.11330178 0.023266742 0.0059367474 -0.08122703 -0.041197732
-0.0007247022 0.0030586363 -0.025863385 0.017019015 -0.00013615543 -0.003680039 -0.025864908 -0.016986845
-0.04324511 -0.0014407843 0.001021956 -0.011887788 -0.022513397 0.11476667 -0.065166585 -0.07233565
-0.0016986321 0.0037247976 0.08551559 -0.19081472 0.00032652423 0.19387875 -0.060054824 -0.09062628
-0.08345925 -0.12950353 0.1897906 -0.014297396 0.0025267655 -0.06511616 -0.025429754 -0.054225802
0.00025958457 -0.0015312359 0.010053055 -0.010306442 0.05777362 -0.00512834 0.1454322 -0.055436257
-0.007915337 0.03915356 0.001480296 0.27412075 -0.009760614 0.09368848 -0.06107999 -0.014370955
-0.0034325554 -0.12666398 0.056891683 -0.025528913 -0.00091249833 0.035442982 0.05407828 0.13775279
0.033221252 -0.06423706 -0.027619813 0.042870775 0.021624206 0.027934063 -0.009311972 0.074924074
0.0022116262 -0.0031203425 -0.03587227 0.064125635 -0.063601315 -0.010067511 -0.025357123 -0.0050174794
-0.049061175 0.041716248 0.0008068972 -0.036470965 -0.017503766 -0.17301188 -0.058291934 -0.037422847
-0.0013343645 -0.020091603 -0.1521175 0.09418129 0.0003280053 -0.1803966 -0.012117046 -0.058337305
-0.031456072 -0.010733727 -0.062382996 -0.017349897 0.018941505 -0.005082875 -0.019824358 -0.08446201
0.0007432145 -0.0013538795 -0.005214302 -0.021998843 -0.08424028 0.00031946204 -0.1782851 0.0018857376
-0.09133538 0.20446254 0.0014831886 -0.42946923 -0.059720144 -0.24329102 -0.12237015 -0.05487085
0.0043881815 -0.2303545 -0.24459536 0.307841 0.0010095701 -0.2909917 -0.17514507 -0.23106357
-0.17481795 -0.04909729 -0.09276287 -0.22352485 0.1270124 -0.008023282 -0.19193679 -0.12227778
-0.0005000181 0.0049569705 -0.078321785 -0.06921059 -0.15571217 -0.030922132 -0.23401876 -0.07684166
00000000: c56e 26bd ce2a ae3c be89 56b9 a203 49bc
00000010: 82dd 50bc 7904 1dbe e5a6 3fbd 0de9 05bd
00000020: 922f 94ba 5c25 60bb aaef 03be 0376 453d
00000030: 8a40 8938 9d4c 1fbe aecb 4e3a 6b7f 1dbd
00000040: e316 36bc 4029 e6ba b331 5fbd 7e09 cbba
00000050: d646 0e3c 6aa7 b4bb a883 b5bb 83cf 99bd
00000060: 5551 b539 5705 b4ba ac88 333a 033d 89bc
00000070: 5df3 8dbd 5df4 db3a 0d73 23be 4cbd bf3b
00000080: 1445 833b 6f3a ba3c a2c2 6e3a 805b 95be
00000090: c795 49bc 9a8c 233e a1e6 c63c 26ee 18bd
000000a0: e88e d4b6 d9c6 1ebe 9c24 0d3e 2f5a c63d
000000b0: c236 b539 4444 883e 6b24 7ebd 38e6 0ebe
000000c0: db80 ccbd 3a3c b1bd dc02 513d 2fd6 24be
000000d0: 0a5c 413d e72a c4bb 286f 62bd 2a99 843d
000000e0: 671a 5138 6212 cfba e7c0 d4bc bdd3 4e3c
000000f0: a368 173e ea44 11bc 57f6 3e3e cb88 23bd
00000100: f74f 91bd 08cf bdbc 0b0b 093b ebca f13e
00000110: cb81 29be 1f83 c9bd 42ea edbc 3e9d d3bd
00000120: 4ecb 09bb df07 a93e c0bd 02be 8f2f 12bd
00000130: ec77 24ba a986 79bd 9195 273e ba64 f63d
00000140: 8da0 1a3e 47b7 df3d 5266 66be b976 7a3e
00000150: e5e1 743c 9d22 bdbd 315d 1b3e 28bc 2dbc
00000160: ba0f 953a bea5 0dbb 8c0d 063d a73d 913d
00000170: 27a8 3cbe 4a2a 7ebb e958 a3be ff76 dbbb
00000180: 83df a43b 6062 343d 1fda 9fb9 b134 89be
00000190: 5d59 3d3c aad0 a13a 099d 463c 58d4 553b
000001a0: 9f5a 8e3b c1e1 13be 37ca 243c c05c 9d3d
000001b0: bcde 8639 c2cc 95bc a41b 8ebd cda9 2cbe
000001c0: fbf2 e6bd c4f9 93bd e83b 073b c30a e8bd
000001d0: e599 be3c 0c89 c23b 5b5a a6bd f4be 28bd
000001e0: f1f9 3dba 6773 483b 73df d3bc 766b 8b3c
000001f0: f2c4 0eb9 cf2c 71bb a5e2 d3bc ff27 8bbc
00000200: c921 31bd b3d8 bcba 27f3 853a ffc4 42bc
00000210: 046e b8bc ca0a eb3d 0f76 85bd b724 94bd
00000220: a3a4 deba bc1b 743b cc22 af3d ef64 43be
00000230: 5731 ab39 2788 463e 0cfc 75bd 459a b9bd
00000240: afec aabd 939c 04be 7858 423e a03f 6abc
00000250: 1798 253b 9f5b 85bd 0f52 d0bc e01b 5ebd
00000260: da18 8839 c0b3 c8ba 92b5 243c 5adc 28bc
00000270: 08a4 6c3d a20b a8bb 2eec 143e 2111 63bd
00000280: 54af 01bc 7c5f 203d 7e06 c23a 8e59 8c3e
00000290: fbea 1fbc bfdf bf3d 032f 7abd 2774 6bbc
000002a0: b9f4 60bb 34b4 01be 4107 693d 0322 d1bc
000002b0: ba34 6fba a92c 113d 3081 5d3d 110f 0d3e
000002c0: 0213 083d b88e 83bd f242 e2bc 4499 2f3d
000002d0: 3f25 b13c fad5 e43c 3e91 18bc cb71 993d
000002e0: eef0 103b a97e 4cbb cdee 12bd 4d54 833d
000002f0: 6841 82bd 34f2 24bc beb9 cfbc ab69 a4bb
00000300: 5ff4 48bd a8de 2a3d f485 533a 9462 15bd
00000310: 0f64 8fbc 072a 31be 86c3 6ebd b348 19bd
00000320: d8e5 aeba 2597 a4bc b1c4 1bbe 1fe2 c03d
00000330: 20f8 ab39 e3b9 38be 9386 46bc 19f3 6ebd
00000340: 15d8 00bd 84dc 2fbc 5085 7fbd 5f21 8ebc
00000350: 372b 9b3c 3f8e a6bb b166 a2bc 6bfa acbd
00000360: 48d4 423a a874 b1ba bcdc aabb eb36 b4bc
00000370: 2b86 acbd 787d a739 5f90 36be db2a f73a
00000380: 0b0e bbbd a15e 513e 8d67 c23a 64e3 dbbe
00000390: 1c9d 74bd 4821 79be 349d fabd 42c0 60bd
000003a0: bcca 8f3b 0de2 6bbe 3577 7abe 569d 9d3e
000003b0: 8d53 843a ddfc 94be 3b59 33be ee9b 6cbe
000003c0: 7a03 33be 3d1a 49bd 76fa bdbd b3e3 64be
000003d0: 8a0f 023e 1574 03bc 148b 44be c66c fabd
000003e0: a613 03ba 156e a23b 2c67 a0bd 48be 8dbd
000003f0: 0373 1fbe 6950 fdbc 9da2 6fbe 295f 9dbd

in_layer2.layers.2.bias f4 [32]
-0.054096516 0.13528764 0.15446427 -0.017375115 0.026381155 -0.02829746 -0.012730585 0.05560451
-0.0572323 -0.027950892 -0.0035390574 0.0023071691 -0.003496183 -0.084370874 -0.06965811 -0.035373896
-0.00067880517 0.027579937 -0.053540237 0.00093163917 0.0017006687 -0.0034747655 0.0023871928 -0.088539645
-0.05042038 -0.08494013 -0.054587007 0.0028292977 -0.06456883 -0.07273369 0.21722364 -0.02272003
00000000: 4f94 5dbd d888 0a3e e22b 1e3e 4256 8ebc
00000010: 4b1d d83c 13d0 e7bc f293 50bc 8ec1 633d
00000020: 6b6c 6abd 45f9 e4bc 88ef 67bb e033 173b
00000030: 3820 65bb a3ca acbd e9a8 8ebd 38e4 10bd
00000040: d8f1 31ba 52ef e13c 024d 5bbd 3f39 743a
00000050: f9e8 de3a e4b8 63bb 7372 1c3b 4654 b5bd
00000060: 9a85 4ebd 17f5 adbd a096 5fbd bd6b 393b
00000070: aa3c 84bd 67f5 94bd e06f 5e3e 5b1f babc

sat_layers.layer0_1.0.agg_weight f4 [3]
-0.38093826 7.1746e-41 0.76839274
00000000: 570a c3be 00c8 0000 63b5 443f

sat_layers.layer0_1.0.input_linear_layer1.weight f4 [32, 32]
-0.01052861 -0.0075469683 0.058915958 0.081277385 0.011960165 0.083777964 0.0006314416 0.0503726
-0.00841266 0.0016511297 -0.009289518 0.011821612 -0.0111090345 -0.011137939 0.031726763 0.029492738
0.00023140534 -0.046752628 0.003359009 -0.019155378 0.0031716065 0.02356382 0.015473872 0.00029966608
-0.032253496 0.03044749 0.011220633 0.15683086 0.0014712113 -0.029735643 0.10526093 4.735526e-05
-0.0053161206 0.0041139857 0.0055169854 0.004649366 -0.0059711183 0.005370527 -0.0056532207 0.0045980546
0.0058772527 0.005485038 0.004879616 0.005811232 -0.0035644034 -0.0011517069 0.0057707517 0.005251521
-0.0004216362 -0.0062123006 -0.0060149026 -0.0050306115 0.0057723643 0.0057849074 0.0043826546 -0.0002845995
-0.0052580503 0.005049277 0.0057852757 0.0050792927 0.0014084037 -0.005337129 0.0050908267 -0.00030890244
-0.059651505 -0.0402635 0.2279537 0.35519147 -0.102865525 0.31498837 0.009019629 0.22398503
-0.05706744 0.029114356 -0.04066156 -0.05459255 -0.10138195 -0.04706379 0.12106916 0.17710137
0.00040469156 -0.14337713 0.14078698 -0.119371876 -0.006367967 0.052526493 0.08566074 0.00076094695
-0.13063344 0.13194577 0.11787637 0.4598412 0.007913056 -0.14627266 0.44723752 -0.0009183681
2.5516478e-05 -5.422885e-06 -0.0001539777 3.37626e-05 -0.0001249138 -0.0003734174 4.3636097e-05 -0.00013330816
-0.00033445685 -4.8032307e-05 -1.9112305e-05 -0.00026327776 4.8184855e-05 2.575437e-06 -0.00025608108 -0.00012068114
-3.064762e-07 -0.000411269 0.00038597887 3.9186816e-05 -0.0003099974 -0.00023862405 -0.000100663994 -2.9243216e-07
0.0002105745 -0.00017592557 -0.00029791068 -0.00045348392 2.0219659e-06 0.00015344065 -7.970342e-05 1.7979491e-07
-0.0013426306 0.0011825304 0.0017544908 0.0012409973 -0.0020202757 0.0017836335 -0.0021896716 0.0011934286
0.0020834857 0.0019705514 0.0013218976 0.0020050942 -0.00076352427 0.00085841934 0.0019714162 0.0017785727
0.00030759413 -0.0021064621 -0.0022111428 -0.0012878147 0.0019932592 0.001974343 0.0011027908 0.00030647675
-0.0015457902 0.0014002648 0.0020341445 0.0015865084 0.00048457432 -0.0015868081 0.0014576053 -1.8696217e-05
0.00015653661 -4.355718e-05 0.00087858894 0.001426506 -0.0004955809 0.00035409577 0.00013719953 0.001196985
0.00043112552 -6.6726425e-05 2.1902155e-05 0.00057826703 -0.0003401154 0.000117909665 0.00060874526 6.842475e-05
2.6686828e-05 -0.0006333096 -0.00027725496 -6.3975895e-05 0.00052134605 0.0006292888 0.00077534164 2.8580751e-05
-0.00061101146 0.00091120764 0.00034934687 0.00040327775 4.483401e-05 -0.00043193452 0.001163496 1.6288068e-05
-0.031438235 -0.023869025 0.121383935 0.21620588 -0.023495803 0.19788961 0.0046901507 0.14159755
-0.07448864 0.008196429 -0.02639195 -0.011399505 -0.039870515 -0.030062146 0.104327716 0.093568526
0.00010081478 -0.1550135 0.07079726 -0.06417002 0.049162902 0.036369964 0.043791164 0.00031916384
-0.07866587 0.082272306 0.053117517 0.35029975 0.005004723 -0.104042225 0.26321527 -0.0006552491
-0.0061358567 0.005315663 0.005546645 0.004988586 -0.0058012134 0.005679992 -0.006432829 0.0049933186
0.0059596426 0.006009101 0.0058775744 0.005838272 -0.0043754606 -0.0020879668 0.005796088 0.005702413
-0.001165595 -0.0058834744 -0.0060408455 -0.005747622 0.005841207 0.005796087 0.004958689 -0.0009889775
-0.005532025 0.00532499 0.005966041 0.0055068526 0.0014544174 -0.0056075566 0.0052277027 -0.0010699182
00000000: 3180 2cbc 8f4c f7bb dc51 713d c274 a63d
00000010: 91f4 433c c893 ab3d 5487 253a 8053 4e3d
00000020: 41d5 09bc b86a d83a 1033 18bc 6faf 413c
00000030: ab02 36bc e77b 36bc ecf3 013d c19a f13c
00000040: 66a5 7239 af7f 3fbd d222 5c3b bdeb 9cbc
00000050: bada 4f3b ea08 c13c 2086 7d3c 801c 9d39
00000060: 3e1c 04bd 046d f93c bfd6 373c 4598 203e
00000070: a9d5 c03a 2a98 f3bc 0b93 d73d 539f 4638
00000080: da32 aebb 9dce 863b d4c7 b43b b559 983b
00000090: 5fa9 c3bb 3ffb af3b a73e b9bb 47ab 963b
000000a0: f895 c03b d5bb b33b 30e5 9f3b 266c be3b
000000b0: c498 69bb dff4 96ba 9318 bd3b f314 ac3b
000000c0: 0e0f ddb9 8e90 cbbb a918 c5bb d4d7 a4bb
000000d0: 1a26 bd3b 528f bd3b 5f9c 8f3b 4c36 95b9
000000e0: b94b acbb 6874 a53b 6992 bd3b 3270 a63b
000000f0: 309a b83a 15e3 aebb f3d0 a63b 2ff4 a1b9
00000100: 2355 74bd 57eb 24bd b26c 693e a8db b53e
00000110: 29ab d2bd 2846 a13e 11c7 133c 555c 653e
00000120: 8cbf 69bd 3b81 ee3c bc8c 26bd 709c 5fbd
00000130: 57a1 cfbd f6c5 40bd 1cf3 f73d 105a 353e
00000140: c82c d439 74d1 12be 762a 103e 3e79 f4bd
00000150: 61aa d0bb 0526 573d e66e af3d 497a 473a
00000160: c6c4 05be cb1c 073e 2b69 f13d 4e70 eb3e
00000170: c3a5 013c 80c8 15be 51fc e43e a4be 70ba
00000180: 380c d637 3af6 b5b6 1375 21b9 519c 0d38
00000190: 4bfb 02b9 3cc7 c3b9 e705 3738 a3c8 0bb9
000001a0: 0a5a afb9 4c76 49b8 5d53 a0b7 8b08 8ab9
000001b0: 181a 4a38 acd5 2c36 9f42 86b9 3216 fdb8
000001c0: c589 a4b4 979f d7b9 355d ca39 865c 2438
000001d0: 2687 a2b9 2837 7ab9 921b d3b8 92ff 9cb4
000001e0: a9cd 5c39 a978 38b9 e530 9cb9 95c1 edb9
000001f0: 1cb1 0736 e9e4 2039 7326 a7b8 a60d 4134
00000200: 35fb afba 23ff 9a3a f1f6 e53a f6a8 a23a
00000210: 9a66 04bb cfc8 e93a 9880 0fbb d26c 9c3a
00000220: 178b 083b 5e24 013b 8643 ad3a e667 033b
00000230: 3f27 48ba 8c07 613a e032 013b ff1e e93a
00000240: 9644 a139 920c 0abb d2e8 10bb e4cb a8ba
00000250: 57a1 023b fb63 013b 858b 903a 9dae a039
00000260: 1d9c caba 1789 b73a 484f 053b 63f2 cf3a
00000270: 770e fe39 72fc cfba 1e0d bf3a d2d5 9cb7
00000280: fa23 2439 2ab1 36b8 1b51 663a 99f9 ba3a
00000290: dfe9 01ba eea5 b939 38dd 0f39 27e4 9c3a
000002a0: b008 e239 7aef 8bb8 85ba b737 d896 173a
000002b0: 8451 b2b9 4546 f738 3494 1f3a 427f 8f38
000002c0: 87dd df37 b004 26ba 885c 91b9 cc2a 86b8
000002d0: f1aa 083a dbf6 243a 4c40 4b3a b2c0 ef37
000002e0: 492c 20ba 1cde 6e3a 8b28 b739 066f d339
000002f0: 270c 3c38 4575 e2b9 7380 983a 5ca2 8837
00000300: 61c5 00bd f988 c3bc 2498 f83d 1365 5d3e
00000310: 457a c0bc 93a3 4a3e d6af 993b f3fe 103e
00000320: 808d 98bd 514a 063c ee33 d8bc fdc4 3abc
00000330: 444f 23bd e444 f6bc c5a9 d53d dba0 bf3d
00000340: 866c d338 dcbb 1ebe 27fe 903d 926b 83bd
00000350: 0a5f 493d acf8 143d 5d5e 333d 7255 a739
00000360: 921b a1bd 627e a83d c191 593d 7d5a b33e
00000370: a9fe a33b 1714 d5bd 27c4 863e 06c5 2bba
00000380: 4c0f c9bb 032f ae3b a1c0 b53b 4b77 a33b
00000390: 1b18 bebb 3a1f ba3b 7bca d2bb fe9e a33b
000003a0: 1b49 c33b fee7 c43b ab98 c03b fa4e bf3b
000003b0: 0660 8fbb 45d6 08bb 1ced bd3b 4fdb ba3b
000003c0: e1c6 98ba 29ca c0bb 49f2 c5bb 8c56 bcbb
000003d0: 9967 bf3b 1aed bd3b 807c a23b 94a0 81ba
000003e0: fd45 b5bb 417d ae3b c77e c33b d472 b43b
000003f0: 26a2 be3a 98bf b7bb 264d ab3b 7f3c 8cba

sat_layers.layer0_1.0.input_linear_layer1.bias f4 [32]
0.12445049 -0.0060127513 0.107926436 -0.00017660116 -0.0024149697 -0.0008164694 0.17872733 -0.0061910064
0.20574448 -1.3298491e-05 -0.0064653805 -0.003059864 -0.00044019223 -0.004899428 0.12963411 0.24383843
0.09166857 -0.0071242787 -7.17488e-05 0.21433195 -0.0067709438 0.13233258 -0.00013630395 0.12650977
-0.0028727097 -0.004697292 -0.0001560908 -0.00015813294 0.20696118 -0.00588864 0.22105172 0.21701969
00000000: e6df fe3d 9d06 c5bb 8908 dd3d 032e 39b9
00000010: 7844 1ebb 5508 56ba 4c04 373e eddd cabb
00000020: aeae 523e 951c 5fb7 8bdb d3bb 0088 48bb
00000030: 9ac9 e6b9 628b a0bb cebe 043e c8b0 793e
00000040: bbbc bb3d c872 e9bb d877 96b8 d679 5b3e
00000050: cbde ddbb 3182 073e d0ec 0eb9 c78b 013e
00000060: 1244 3cbb beeb 99bb 4eac 23b9 7dd0 25b9
00000070: a2ed 533e 7ef5 c0bb 625b 623e 693a 5e3e

sat_layers.layer0_1.0.input_linear_layer2.weight f4 [32, 32]
-0.0074935807 -0.0017865994 -0.01816566 -0.052692104 -0.04869407 -0.015728993 -0.012139692 -0.022706691
0.024652915 0.0008723451 -0.009033605 -0.008228611 -0.002976647 -0.010881489 -0.0063371547 -0.0034584324
0.00090461463 -0.051385902 0.004561919 0.0012591468 0.0100928405 -0.0036785165 -0.0136475405 0.00095052697
-0.013753435 -0.012768729 -0.00059797824 -0.067385145 0.0057755993 -0.00011488735 -0.024088647 0.00052107335
-0.0038424204 0.0006196303 -0.00033367344 0.0020523695 -0.004659246 0.0065146275 -0.001321768 0.0022673816
0.0045056096 0.003500155 -0.0036542327 -0.0024257037 0.00016725103 -0.004372682 -0.003241693 0.006461839
0.000622462 -0.0013528279 -0.0060081542 -0.0002604547 -0.0016524068 -0.0038070963 -0.00060381956 0.00067436614
0.00052362547 0.00032773486 0.0012252852 0.0048192535 0.002254481 -5.156462e-05 1.149168e-05 0.0003021096
-0.038793035 -0.04485208 0.040925283 -0.12510158 -0.07335585 0.013741624 -0.0023642224 -0.0016962399
0.06946897 -0.009768488 -0.025935346 0.0328379 -0.052252445 -0.03290249 0.05782133 -0.00634575
0.0044066566 0.024724346 -0.032858882 -0.0052707037 0.06323998 0.030004585 0.01683497 0.0045977416
-0.06932911 0.020200988 0.01692942 -0.01872002 0.01669356 -0.012535353 0.06530345 0.0034204943
-0.011774271 -0.0073212124 0.019661855 -0.003841422 -0.10538543 -0.006667445 0.0015478234 0.00433033
0.030204056 0.0011157071 -0.010173552 -0.0005414806 -0.010742718 -0.010626357 0.012324963 0.0104404325
0.0022524311 0.02970195 0.0012374242 -0.008049467 0.004009007 0.011575444 0.007445011 0.0023685389
-0.015560855 0.013701274 0.007690954 0.022746876 0.005256812 -0.0139212245 0.012950129 0.002018861
0.034586657 -0.2911204 0.16823412 0.38247505 0.0102453 -0.31317407 0.21531056 0.36333483
-0.31040236 -0.34524304 0.04616205 0.0849867 -0.31614125 0.033026107 0.013909546 -0.3437808
0.003371881 -0.11386448 0.1966256 -0.03673869 -0.0016557216 0.1908902 0.17136027 0.0034331633
-0.17733616 0.2770083 -0.17896745 -0.3602275 0.002396729 -0.16609128 0.35699326 0.0032135868
-0.0041452893 -0.005012989 0.00019496499 0.022436252 0.0537381 0.060689773 -0.0027844084 0.0055005266
0.022444075 0.0010702484 -0.002586272 0.0017062001 -0.008402439 -0.0028453264 -0.0012089564 0.03340945
0.00077803095 -0.12167585 -0.045942448 -0.004044901 0.020560594 0.0044473405 -0.0006708463 0.00091555645
-0.010775488 0.004912408 0.011387501 -0.03728501 0.002865905 -0.0087334905 0.003478797 0.0005151114
-0.0028851791 -0.0013237366 -4.101959e-05 -0.0058691474 0.017677112 -0.008454469 0.0010372506 0.005913063
0.0032721455 0.000672398 -0.0020544224 -0.0023239895 -0.0027868478 -0.00312028 -0.0038265907 0.00010496126
0.001041584 -0.01205283 -0.01778436 0.00151856 -0.0024372 -0.0047401055 0.00253527 0.0011065096
-0.00010709179 0.0018388872 -0.00085561693 0.011824416 0.0033154723 0.0014246034 0.0029633185 0.00065974094
0.058874857 0.14386496 -0.008177328 -0.22661072 -0.061576538 -0.021268152 0.04201306 -0.08417543
0.068048246 0.124323145 -0.012216538 0.08794871 0.042340644 0.024231786 0.08443755 0.2370391
-0.00053673977 0.19074592 0.020571304 0.0116787115 0.04923389 0.0007800683 0.0942258 -0.00054749043
0.05199264 0.14143425 0.05106485 -0.15490386 0.006884388 0.022307962 0.040399738 -0.0011515683
00000000: b68c f5bb 542c eaba 26d0 94bc add3 57bd
00000010: 6f73 47bd 17da 80bc 8fe5 46bc 6203 babc
00000020: e9f4 c93c 17ae 643a b001 14bc 4cd1 06bc
00000030: da13 43bb 4648 32bc e8a7 cfbb dea6 62bb
00000040: a923 6d3a 067a 52bd 267c 953b f509 a53a
00000050: 715c 253c 4413 71bb ef99 5fbc c92c 793a
00000060: 1656 61bc ee33 51bc a4c1 1cba 3901 8abd
00000070: 3d41 bd3b adef f0b8 8e55 c5bc a498 083a
00000080: 1ed1 7bbb af6e 223a e4f0 aeb9 0c81 063b
00000090: 97ac 98bb a878 d53b 2d3f adba 5a98 143b
000000a0: cba3 933b db62 653b da7b 6fbb 8ef8 1ebb
000000b0: 1b60 2f39 b748 8fbb 9572 54bb d6bd d33b
000000c0: b82c 233a 5f51 b1ba 0de0 c4bb a38d 88b9
000000d0: 9295 d8ba 7a80 79bb a549 1eba f2c7 303a
000000e0: e943 093a d4d3 ab39 c099 a03a d4ea 9d3b
000000f0: eabf 133b 1747 58b8 64cc 4037 7764 9e39
00000100: 72e5 1ebd d1b6 37bd 45a1 273d a11a 00be
00000110: 983b 96bd 8c24 613c 12f1 1abb 5e54 deba
00000120: bf45 8e3d 020c 20bc 5d76 d4bc 0981 063d
00000130: a906 56bd c3c4 06bd 0fd6 6c3d 02f0 cfbb
00000140: b765 903b b68a ca3c 0997 06bd deb5 acbb
00000150: f683 813d 2dcc f53c 7ee9 893c a7a8 963b
00000160: 6cfc 8dbd 8b7c a53c 91af 8a3c ba5a 99bc
00000170: efc0 883c 1561 4dbc d1bd 853d 5f2a 603b
00000180: dfe8 40bc c8e6 efbb e611 a13c 5ec0 7bbb
00000190: 51d4 d7bd 957a dabb 56e0 ca3a 71e5 8d3b
000001a0: 7f6e f73c eb3c 923a f8ae 26bc 26f2 0dba
000001b0: 3a02 30bc 2c1a 2ebc a4ee 493c 590e 2b3c
000001c0: 869d 133b 8151 f33c 1131 a23a e9e1 03bc
000001d0: fd5d 833b eea6 3d3c 47f5 f33b 7d39 1b3b
000001e0: f5f2 7ebc 4f7b 603c 6604 fc3b a857 ba3c
000001f0: 5641 ac3b d915 64bc c72c 543c de4e 043b
00000200: bdaa 0d3d bc0d 95be 9145 2c3e c5d3 c33e
00000210: e7db 273c 5a58 a0be 5f7a 5c3e 0607 ba3e
00000220: 0fed 9ebe b2c3 b0be 6b14 3d3d 820d ae3d
00000230: 44dd a1be 6246 073d dde4 633c 0904 b0be
00000240: c7fa 5c3b c831 e9bd 3958 493e 4f7b 16bd
00000250: cc04 d9ba b878 433e 1179 2f3e ecfe 603b
00000260: 9c97 35be 08d4 8d3e 3e43 37be bd6f b8be
00000270: 7112 1d3b d513 2abe d2c7 b63e 0a9b 523b
00000280: 35d5 87bb 0044 a4bb 846f 4c39 3bcc b73c
00000290: 7b1c 5c3d d795 783d 9f7a 36bb c33d b43b
000002a0: a3dc b73c 9447 8c3a 727e 29bb 93a2 df3a
000002b0: 62aa 09bc a878 3abb d875 9eba 59d8 083d
000002c0: c6f4 4b3a 3031 f9bd 262e 3cbd 178b 84bb
000002d0: b16e a83c ffba 913b bcdb 2fba f401 703a
000002e0: ac8b 30bc 44f8 a03b a492 3a3c 2bb8 18bd
000002f0: e8d1 3b3b ea16 0fbc 87fc 633b 8a08 073a
00000300: 4615 3dbb 3b81 adba 730c 2cb8 fa51 c0bb
00000310: 97cf 903c 9d84 0abc 5bf4 873a 5ec2 c13b
00000320: 7e71 563b de43 303a 7da3 06bb 134e 18bb
00000330: 8ca3 36bb 9d7d 4cbb 8ac7 7abb a61e dc38
00000340: c285 883a 3c79 45bc 82b0 91bc 6b0a c73a
00000350: 6eb9 1fbb e352 9bbb c626 263b 4d08 913a
00000360: 7896 e0b8 d106 f13a 7b4b 60ba 32bb 413c
00000370: 6548 593b c2b9 ba3a 3c34 423b 77f2 2c3a
00000380: c326 713d 5651 133e 33fa 05bc a40c 68be
00000390: ae37 7cbd 8c3a aebc e315 2c3d 2b64 acbd
000003a0: e15c 8b3d 229d fe3d e027 48bc 741e b43d
000003b0: 626d 2d3d bd81 c63c 98ed ac3d 61ba 723e
000003c0: ffb3 0cba e652 433e 2785 a83c 1158 3f3c
000003d0: 7aa9 493d 7f7d 4c3a 75f9 c03d 7685 0fba
000003e0: 3cf6 543d 24d4 103e 6029 513d 1e9f 1ebe
000003f0: 6f96 e13b 30bf b63c 327a 253d 38f0 96ba

sat_layers.layer0_1.0.input_linear_layer2.bias f4 [32]
-0.015656559 -0.030470097 0.016401812 -0.056027733 0.059866633 -0.06667263 -0.031609755 0.06865111
-0.08547421 0.015882472 0.15177782 -0.11307371 -0.023411682 -0.039647885 -0.060620666 -0.082184695
-0.020901859 0.068075836 0.022529151 -0.042719964 0.12715653 0.039054625 -0.07501493 -0.021712445
0.04962295 -0.038742438 0.18999153 -0.15563358 -0.13226563 -0.014377465 -0.038085878 -0.02390424
00000000: 2f42 80bc 6d9c f9bc 185d 863c 567d 65bd
00000010: b736 753d a98b 88bd 3b79 01bd f498 8c3d
00000020: 1a0d afbd f51b 823c a56b 1b3e 3093 e7bd
00000030: dbc9 bfbc d265 22bd 604d 78bd 7350 a8bd
00000040: 603a abbc 586b 8b3d 0e8f b83c 21fb 2ebd
00000050: 5235 023e bef7 1f3d 6da1 99bd 4cde b1bc
00000060: 6f41 4b3d 64b0 1ebd 248d 423e 695e 1fbe
00000070: a470 07be 758f 6bbc f0ff 1bbd d3d2 c3bc
