output/modelparams/dynamicLearning-HIGHSCHOOL-SCUAU-SAT/epoch5_model_state_dict.pth (torch, 260877 bytes, 148 tensors)

in_layer0.layers.0.weight f4 [32, 2]
0	0xbe015e44	-0.12633616
1	0x3eb4912a	0.35267
2	0xbe4350cd	-0.19073792
3	0xbec9cff9	-0.39416483
4	0xbdf1529d	-0.11783335
5	0x3e9edeed	0.31029454
6	0xbe303f5a	-0.17211667
7	0x3f1ef610	0.6209421
8	0xbec23075	-0.37927595
9	0x3ea5e38f	0.32400176
10	0xbeb44cb4	-0.3521477
11	0xbd463070	-0.048386037
12	0xbf2aa66e	-0.666602
13	0xbd3b35da	-0.045705654
14	0xbe416085	-0.18884476
15	0x3e15db29	0.14634384
16	0x3e5e31b5	0.21698649
17	0x3bb5a341	0.005543143
18	0xbf018040	-0.5058632
19	0xbe307ca0	-0.1723504
20	0x3e20bd36	0.15697178
21	0x3e37d235	0.17951281
22	0xbefe641a	-0.49685746
23	0x3f1210c3	0.57056826
24	0xbc91b86e	-0.017788138
25	0xbc92bcfa	-0.017912377
26	0x3f2341a6	0.63772047
27	0xbe8c4dec	-0.274032
28	0xbef39ae2	-0.47579104
29	0xbd1bbbd8	-0.03802094
30	0xbef0f177	-0.47059223
31	0x3f40d73d	0.7532843
32	0xbe8bdb5b	-0.27315792
33	0xbdd48008	-0.103759825
34	0xbee6a048	-0.4504416
35	0xbf368517	-0.7129683
36	0xbf1b1700	-0.6058197
37	0x3f4617c5	0.7738002
38	0x3ec5aa27	0.38606378
39	0x3e6850e5	0.22687109
40	0x3e008d58	0.12553918
41	0xbf0ed63b	-0.5579564
42	0x3df54313	0.11975684
43	0xbeef2763	-0.46709737
44	0xbf10c2b8	-0.5654712
45	0x3dcd40b1	0.100221045
46	0x3e9b7fae	0.3037085
47	0x3ee0d09e	0.43909162
48	0xbeb03187	-0.34412786
49	0x3dfd67ad	0.1237329
50	0x3eb8459a	0.35990602
51	0x3f3689b2	0.71303856
52	0x3e91f694	0.28508437
53	0xbe18b99b	-0.14914553
54	0x3f0f520e	0.5598458
55	0xbf279b61	-0.65471464
56	0x3e424ff6	0.18975815
57	0xbf410e78	-0.754127
58	0xbeecdcc6	-0.46262187
59	0xbe4d8189	-0.20068945
60	0x3eca2086	0.39477938
61	0x3e10b096	0.14129862
62	0xbb890a76	-0.0041821552
63	0x3c836260	0.01603812

in_layer0.layers.0.bias f4 [32]
0	0x3df19b64	0.117972165
1	0x3e408330	0.18800044
2	0x3ddbeb78	0.107382715
3	0x3e18ada2	0.14909986
4	0x3ebdd520	0.37076664
5	0x3eb1d63a	0.34733754
6	0xbf1b04b1	-0.60554034
7	0xbdf58934	-0.1198906
8	0x3e2abc9e	0.16673514
9	0x3f000a11	0.5001536
10	0x3ecdf56d	0.40226308
11	0x3eef837b	0.4678
12	0x3c954ead	0.018225992
13	0xbf0ea0e9	-0.5571428
14	0x3dc36f2f	0.09542691
15	0xbe902357	-0.28151962
16	0xbedc36c8	-0.43010545
17	0x3ee74cb5	0.4517571
18	0x3f08a7cc	0.5338104
19	0xbec31a27	-0.3810589
20	0x3e01e916	0.12686571
21	0xbdee92b6	-0.11649077
22	0xbdf46b6c	-0.119345516
23	0xbe9ca609	-0.30595425
24	0x3eaa48f6	0.3325879
25	0xbebcf655	-0.36906686
26	0x3e6f021f	0.23340653
27	0x3ed13956	0.40864056
28	0x3f026060	0.50928307
29	0x3e6e603e	0.23278901
30	0xbf02afee	-0.510497
31	0xbc6f8cd9	-0.014620983

in_layer0.layers.2.weight f4 [32, 32]
0	0x3e49a87c	0.19693178
1	0xbc0478d8	-0.008085452
2	0x3d880b51	0.066427834
3	0x3d4252e1	0.04744232
4	0x3e88ece7	0.26743242
5	0x3e3b7542	0.18306449
6	0xbe07e203	-0.1326981
7	0xbd7a4835	-0.06110402
8	0xbd9cd093	-0.0765697
9	0x3dd477ad	0.10374389
10	0xbd04f5e6	-0.03246107
11	0x3bb5ae36	0.005544449
12	0x3c2fe549	0.010735818
13	0xbe4f4f3b	-0.20245068
14	0xbd544c0e	-0.051830344
15	0x3ea03bd2	0.3129564
16	0xbe139d86	-0.14415559
17	0x3b9ca651	0.0047805686
18	0x3e94b6d9	0.29045752
19	0xbe134cef	-0.14384817
20	0xbe7583be	-0.23976037
21	0xbe2db532	-0.16963652
22	0xbc71b5e8	-0.0147528425
23	0x3d06a713	0.03287418
24	0x3e55c23b	0.20874874
25	0x3df1c4e9	0.11805136
26	0xbda3826a	-0.07983859
27	0xbdd60d94	-0.104518086
28	0xbe9ae712	-0.30254418
29	0xbd9b3f9b	-0.07580491
30	0xbdc8af9a	-0.09799118
31	0xbd89e063	-0.067322515
32	0x3ce8510d	0.02835896
33	0xbdffa7da	-0.12483187
34	0x3e3d3347	0.18476592
35	0x3e2362dd	0.15955682
36	0xbcdc47ba	-0.02688967
37	0x3d38d941	0.045129064
38	0x3d853bbf	0.06505536
39	0xbc82c121	-0.015961232
40	0x3b2f0f02	0.0026711826
41	0x3d97f05a	0.0741889
42	0x3d95dce6	0.07317524
43	0x3e5a80ad	0.21338148
44	0x3cc81954	0.02442614
45	0xbe1efc70	-0.15525985
46	0x3da4022d	0.080082275
47	0x3e84b29f	0.25917527
48	0xbe1037d3	-0.14083795
49	0xbe3d8512	-0.18507794
50	0x3e8b76ba	0.2723902
51	0xbcf21234	-0.029549696
52	0xbeb4e0dc	-0.35327804
53	0xbe91712a	-0.2840665
54	0xbc5afeff	-0.01336646
55	0xbdadc268	-0.08484346
56	0x3df12964	0.11775473
57	0x3e364923	0.17801337
58	0xbcc7e8ab	-0.024402937
59	0xbf06d28b	-0.52665013
60	0xbe97ed79	-0.29673365
61	0x3c5cdabc	0.013479885
62	0xbd868072	-0.06567468
63	0xbc35ceda	-0.011096681
64	0xba155fcd	-0.00056981744
65	0x3ba396de	0.00499235
66	0xbad0ad12	-0.001592072
67	0xbb989d26	-0.0046574054
68	0xb95d04f2	-0.00021078045
69	0xbb05ca66	-0.0020414828
70	0xbb9cd64f	-0.0047862898
71	0xba897d3c	-0.0010489593
72	0xbca34173	-0.01992867
73	0xbb3f5b35	-0.002919865
74	0x3da07972	0.07835664
75	0xbc000220	-0.007813007
76	0x3ab9921d	0.0014157925
77	0x3ac6d06b	0.0015168315
78	0xbbc0bc96	-0.005881856
79	0x399e073f	0.00030141507
80	0xbbc86386	-0.0061153797
81	0x3c094c49	0.008380004
82	0x3ca73a6b	0.020413598
83	0x3aaf21c1	0.00133615
84	0x3bfbf6ab	0.007689317
85	0x3bc18a60	0.005906388
86	0x3ace6e06	0.0015749342
87	0xbc01bee8	-0.007919051
88	0xbad7d9d8	-0.0016468121
89	0xbb377304	-0.0027992139
90	0x3c035bd5	0.0080175
91	0x3cb9051d	0.022585446
92	0xbcbfbb38	-0.023404703
93	0xba25d181	-0.0006325469
94	0x39e900bd	0.00044441773
95	0xb9e3f61f	-0.00043480188
96	0xbd3f4327	-0.0466949
97	0x3c7a0a09	0.015261182
98	0x3d7b6757	0.06137785
99	0x3cab3d12	0.020903144
100	0xbd2b5f14	-0.04183872
101	0x3cfd0d48	0.030890122
102	0x3b887d63	0.004165338
103	0x3d79f8ea	0.0610284
104	0xbdccb767	-0.09995919
105	0x3db00fe7	0.08596783
106	0xbe253410	-0.16133142
107	0xbd2e33c0	-0.04252982
108	0xbb36b231	-0.0027877206
109	0xbdacfd73	-0.08446779
110	0x3d827007	0.06369024
111	0x3e6ec1f6	0.23316178
112	0x3d88dd87	0.06682878
113	0xbd2c9272	-0.04213185
114	0x3e0d546c	0.13801736
115	0xbb849ba9	-0.0040468764
116	0xbe096333	-0.13416748
117	0xbdd0c8a1	-0.10194517
118	0x3d9e7e79	0.077389665
119	0x3c4a1daa	0.012336174
120	0x3d808c75	0.0627679
121	0x3d18c8d0	0.037300885
122	0xbdff144c	-0.12455043
123	0xbeb692ef	-0.35658976
124	0xbe70e9fd	-0.2352676
125	0x3d4e0eb1	0.05030698
126	0x3cfa85cf	0.030581383
127	0x3c76b73d	0.015058336
128	0xbcb45cc3	-0.022016888
129	0x3b82526a	0.0039771097
130	0xbc8bc8e5	-0.017063567
131	0xbd38aa2c	-0.045084164
132	0xbd283fce	-0.041076474
133	0xbc1b8cc5	-0.009494011
134	0x3d50eae6	0.051005267
135	0x3d0d09c8	0.034433156
136	0xbdb7d59a	-0.08976288
137	0xbc3a25f8	-0.0113615915
138	0xbe154df6	-0.14580521
139	0xbd95ebea	-0.07320388
140	0x38e57ecf	0.00010943191
141	0xbaba947a	-0.0014234923
142	0x3d173883	0.03691913
143	0x3cbbcdf6	0.022925358
144	0x3d82881d	0.06373618
145	0x3b30c756	0.0026974282
146	0xbdbd0937	-0.09230273
147	0x3a1f83a0	0.00060849823
148	0xbd077687	-0.03307202
149	0x3c0368fe	0.008020638
150	0x3d515521	0.051106576
151	0xb9ce0259	-0.0003929313
152	0xbca08462	-0.019594375
153	0xbc4072fc	-0.011746164
154	0xbe038eaa	-0.12847391
155	0xbe4c7df3	-0.19969921
156	0xbdff5f1e	-0.12469314
157	0x3cd83d55	0.026396433
158	0x3cd08c6f	0.025457589
159	0x3b9aead7	0.004727702
160	0xbd26a196	-0.040681444
161	0xbb02b270	-0.0019942783
162	0xbcb32418	-0.021867797
163	0xbdcbe9aa	-0.09956677
164	0xbd968556	-0.073496506
165	0xbc6c078e	-0.014406098
166	0x3d989758	0.074507415
167	0x3d9387f0	0.072036624
168	0x3c8e6825	0.017383644
169	0xbc25fe50	-0.010131434
170	0xbda84566	-0.08216362
171	0xbe2a3d0d	-0.16624852
172	0xbbf1a729	-0.0073746634
173	0x3d341a21	0.04397023
174	0xbd0286e1	-0.03186691
175	0xbda423ed	-0.08014665
176	0xbd4f2b32	-0.050578304
177	0xbca64b95	-0.020299712
178	0xbe845ac3	-0.25850496
179	0x3b836aa5	0.0040105158
180	0x3db76b81	0.089560516
181	0xbcda43e9	-0.02664371
182	0x3c257e25	0.010100876
183	0x3c722b3e	0.014780818
184	0xbcae97ce	-0.02131262
185	0xbc2a9df6	-0.010413637
186	0xbdfd0c71	-0.12355889
187	0x3df4ecac	0.11959204
188	0x3ca430d1	0.020042809
189	0x3d5a0315	0.053225596
190	0x3ae0ba0c	0.001714529
191	0x3cde0da9	0.027106123
192	0x3adf2010	0.0017023105
193	0x3bf6193f	0.007510334
194	0xb8bbbbad	-8.951812e-05
195	0x3c1f97a6	0.009740746
196	0x3beef3e7	0.007292259
197	0xba989689	-0.0011641543
198	0xbbb7c174	-0.005607778
199	0xbb95c3c7	-0.0045704576
200	0x3d01a5ae	0.031652145
201	0xbb129016	-0.0022363714
202	0x3d1f67d8	0.038917392
203	0x3b83e308	0.004024867
204	0x3a9661b2	0.0011473207
205	0xbb26f3d7	-0.002547493
206	0xbb87986e	-0.004138044
207	0x3bf5551c	0.0074869525
208	0xbb2a9574	-0.0026029022
209	0x3c19d844	0.009389941
210	0x3cca1fbf	0.02467334
211	0xb67fdf38	-3.8127891e-06
212	0x3b9dba46	0.0048134653
213	0x3c022074	0.007942308
214	0xbc459de6	-0.012061572
215	0xbc03daef	-0.008047803
216	0xb73ca20e	-1.12434045e-05
217	0xbb105bfd	-0.0022027486
218	0x3cb0536f	0.02152416
219	0x3d7547aa	0.059882797
220	0xbd2b5a86	-0.041834377
221	0xba9c8c6b	-0.0011943703
222	0x3938acdc	0.00017612003
223	0x3a825e67	0.0009946347
224	0xbd1456f0	-0.036215723
225	0x3cb1d0c8	0.021706
226	0xbcf6b510	-0.030115634
227	0xbd8a2837	-0.067459516
228	0xbd80722e	-0.06271778
229	0xbca518ab	-0.020153364
230	0x3e118d50	0.14214063
231	0x3dc0a7d3	0.0940701
232	0xbd8702e5	-0.06592349
233	0xbcba4a1a	-0.022740413
234	0xbe87777e	-0.26458353
235	0xbdea1a50	-0.114308
236	0xb7259670	-9.869793e-06
237	0x3c2bf5cf	0.010495617
238	0x3d3140f0	0.04327482
239	0x3dee61ef	0.11639773
240	0x3e3c8e23	0.18413596
241	0x3c31b156	0.010845503
242	0xbdb78f22	-0.08962847
243	0x3bf896fe	0.007586359
244	0xbda7b211	-0.0818826
245	0x3c902023	0.017593449
246	0x3e36fb0d	0.17869206
247	0xbbf94006	-0.007606509
248	0xbd0a6144	-0.033784166
249	0xbcbce543	-0.02305854
250	0xbd8290f4	-0.06375304
251	0xbd7f9fc4	-0.062408224
252	0xbe5c56d8	-0.21517503
253	0x3d95c0b9	0.073121496
254	0x3d476b96	0.048686586
255	0x3d8a742c	0.06760439

in_layer0.layers.2.bias f4 [32]
0	0x3cb9de6b	0.022689065
1	0xbe1142dd	-0.14185663
2	0xbd32b97c	-0.043633923
3	0xbdc71adb	-0.09721919
4	0xbeb5999d	-0.3546876
5	0xbd8b6f90	-0.06808388
6	0xbd83ed82	-0.064417854
7	0xbe9ef31f	-0.31044862
8	0x3e2c52a6	0.16828403
9	0xbe3a688c	-0.18203944
10	0xbd572c27	-0.05253234
11	0x3e7132a8	0.2355448
12	0x3de8442c	0.11341128
13	0x3e04a400	0.12953186
14	0xbd50189d	-0.050804723
15	0xbd8affe3	-0.06787088
16	0x3daac782	0.08338834
17	0xbd849521	-0.064737566
18	0x3e5fa2dd	0.21839471
19	0xbebd4f36	-0.36974496
20	0xbdab26aa	-0.08356984
21	0x3d2e90d0	0.042618573
22	0xbe39d82d	-0.18148871
23	0xbd208397	-0.039187994
24	0x3d391de4	0.04519452
25	0xbdcce39c	-0.100043505
26	0x3e116e77	0.14202295
27	0xbeb52001	-0.3537598
28	0x3e503ffb	0.20336907
29	0xbde65824	-0.1124728
30	0x3d5ab5bc	0.05339597
31	0xbe6871b9	-0.22699632

in_layer1.layers.0.weight f4 [32, 2]
0	0xbf1828a9	-0.5943704
1	0x3c2abb00	0.010420561
2	0x3f0ea421	0.5571919
3	0xbf1b062f	-0.6055631
4	0xbea17da9	-0.31541184
5	0x3f1efc73	0.62103957
6	0xbdf2da10	-0.11857998
7	0x3e95fcae	0.29294342
8	0xbf2e23e9	-0.68023545
9	0xbe63b560	-0.22237158
10	0xbeb7dad9	-0.35909155
11	0x3f189c41	0.59613425
12	0x3e9642ae	0.29347748
13	0xbf0415dd	-0.5159586
14	0x3de97b48	0.11400467
15	0xbc052780	-0.008127093
16	0xbe94c032	-0.29052883
17	0xbecec077	-0.40381214
18	0xbe7046de	-0.23464534
19	0x3f0eaf29	0.55736023
20	0xbf01c39e	-0.50689113
21	0xbf00f2aa	-0.50370276
22	0xbe5f6446	-0.21815595
23	0x3c498a80	0.012301087
24	0x3e451a3c	0.19248289
25	0x3cadd340	0.021218896
26	0xbe2e4dd0	-0.1702187
27	0xbedb85b0	-0.42875433
28	0xbe01ec50	-0.12687802
29	0xbe91bd68	-0.28464818
30	0x3f124031	0.571292
31	0xbf3034b9	-0.6883045
32	0xbee6edfb	-0.4510344
33	0xbf13468a	-0.5752951
34	0xbe04547c	-0.12922853
35	0x3f0d1045	0.5510295
36	0x3f1eaba9	0.6198068
37	0xbf1d965c	-0.61557555
38	0xbcfaf9e0	-0.030636728
39	0x3ed48122	0.4150477
40	0x3e9f95f2	0.31169087
41	0x3f14460d	0.5791939
42	0xbca0ad40	-0.019613862
43	0xbef3404c	-0.47509992
44	0x3eef7fe6	0.46777266
45	0xbe784bf2	-0.24247721
46	0x3ebb7566	0.36613005
47	0xbe327068	-0.17425692
48	0x3e99e686	0.30058688
49	0x3f22d041	0.6359902
50	0x3f285263	0.6575071
51	0xbf24bd47	-0.64351314
52	0xbeef7b40	-0.4677372
53	0xbe95b0e4	-0.2923652
54	0xbee6df58	-0.45092273
55	0x3f2db025	0.678469
56	0xbd7fcc70	-0.062450826
57	0xbef027aa	-0.4690526
58	0xbea11a77	-0.31465504
59	0xbec7fa33	-0.39058074
60	0x3e93b53c	0.28849208
61	0xbf1de4f2	-0.6167747
62	0xbf28c872	-0.65930855
63	0xbf32711c	-0.6970384

in_layer1.layers.0.bias f4 [32]
0	0x3e9bddca	0.3044265
1	0x3eb302fe	0.3496322
2	0xbee0daca	-0.43916923
3	0x3e338e40	0.17534733
4	0x3f05a02d	0.52197534
5	0x3dd26b38	0.102743566
6	0xbe193390	-0.14961076
7	0x3d55fc70	0.052242696
8	0xbd9b4840	-0.0758214
9	0x3eb64942	0.35602766
10	0xbef5d410	-0.48013353
11	0x3eb7973a	0.35857564
12	0x3ecc0db2	0.398542
13	0xbedb599d	-0.42841807
14	0x3f13d055	0.57739764
15	0x3f31cb5f	0.69450945
16	0xbe8eb9dd	-0.27876177
17	0xbe4acf5c	-0.19805664
18	0x3eb46c8a	0.3523906
19	0xbf0dd072	-0.5539619
20	0x3e8f2bcc	0.27963102
21	0x3e28ee40	0.16497135
22	0x3ee43426	0.44571036
23	0xbf1d3c10	-0.61419773
24	0xbf16635b	-0.58745354
25	0x3ea29a22	0.3175822
26	0x3e826904	0.25470746
27	0xbf287c97	-0.6581511
28	0xbec9e4f1	-0.3943248
29	0xbf25a0f9	-0.6469875
30	0xbf01afb8	-0.5065875
31	0xbea35a0a	-0.31904632

in_layer1.layers.2.weight f4 [32, 32]
0	0x3e15cceb	0.14628951
1	0xbd1020d4	-0.035187557
2	0x3dcfeff6	0.10153191
3	0x3e2be91d	0.16788144
4	0x3da4fe22	0.080562845
5	0xbe220ce6	-0.15825233
6	0x3db62fa2	0.08895804
7	0x3d8a1814	0.06742874
8	0x3e0c4d45	0.13701351
9	0xbe32904c	-0.17437857
10	0x3ddea8da	0.1087205
11	0x3e142bfd	0.14469905
12	0xbe2869fc	-0.1644668
13	0x3c9783d8	0.018495485
14	0x3e1a8805	0.1509095
15	0xbe03a826	-0.12857112
16	0x3d6d9570	0.058003843
17	0x3d9ffa0a	0.07811363
18	0x3d3dc604	0.04633142
19	0x3e33fbaf	0.17576478
20	0x3e143705	0.14474113
21	0x3e1b4e6f	0.15166639
22	0xbcb48200	-0.022034645
23	0x3e17d2bd	0.14826484
24	0xbe28b1b8	-0.16474044
25	0xbdc35ddf	-0.09539389
26	0xbd1addd0	-0.037809193
27	0xbd571794	-0.05251272
28	0x3e2734e3	0.16328768
29	0x3daac2d6	0.08337943
30	0x3de915ce	0.11381112
31	0x3df6431a	0.12024517
32	0xbe0738da	-0.13205281
33	0xbca7ba08	-0.020474449
34	0x3cd37758	0.025813743
35	0x3d3c53bc	0.045978293
36	0x3dba2c0e	0.09090434
37	0xbd900ec1	-0.07034064
38	0xbd5a5590	-0.053304255
39	0x3e177763	0.14791636
40	0xbd4254bc	-0.04744409
41	0xbdfb7cae	-0.1227964
42	0x3df57a02	0.11986162
43	0x3df5280e	0.119705305
44	0xbd630bf4	-0.05543132
45	0xbd10c1f0	-0.035341203
46	0xbe05920f	-0.13043998
47	0xbe172b09	-0.1476251
48	0x3d8824fc	0.06647679
49	0xbd9aa905	-0.07551769
50	0x3e101bd3	0.14073114
51	0xbe10f1cf	-0.14154743
52	0xbcc82bd8	-0.024434969
53	0x3b7a2540	0.0038169175
54	0x3dba119a	0.090853885
55	0x3e128127	0.1430708
56	0x3df52c9a	0.11971398
57	0x3d9f5e36	0.07781641
58	0xbda62c6b	-0.08113941
59	0xbe014648	-0.12624466
60	0xbe21f135	-0.1581467
61	0x3c0faba0	0.008768946
62	0x3e2f912b	0.17145221
63	0xbd098874	-0.033577397
64	0xbbf3dc60	-0.007442042
65	0xbe038bb0	-0.12846255
66	0x3d5e4c7c	0.05427216
67	0x3de586ca	0.112073496
68	0xbe327847	-0.17428695
69	0xbdfeeb62	-0.124472395
70	0x3e061519	0.13093986
71	0x3d2b6f94	0.041854456
72	0xbc3492d0	-0.011021331
73	0x3d016f50	0.031600296
74	0xbcdc2e20	-0.026877463
75	0xbdfd0d66	-0.12356071
76	0xbe29265e	-0.16518542
77	0x3dee1d9e	0.11626743
78	0xbcac3d18	-0.021025226
79	0xbd8674e0	-0.06565261
80	0xbd3ae534	-0.04562874
81	0xbdc576d8	-0.09641808
82	0xbd5675ac	-0.052358314
83	0xbe1b63bd	-0.15174766
84	0x3e0776f3	0.1322897
85	0x3d93d5f4	0.07218543
86	0xbdb69578	-0.08915228
87	0xbd77231e	-0.060336225
88	0x3da26c92	0.079308644
89	0xbd86109c	-0.06546137
90	0x3d3eef44	0.0466149
91	0x3d475e58	0.048673958
92	0xbde3e6a1	-0.11127973
93	0x3d3561e8	0.044282824
94	0x3c313550	0.010815933
95	0x3e1e1971	0.15439393
96	0xbd82fe2a	-0.06396134
97	0xbd3a2334	-0.04544373
98	0x3e1bf765	0.15231092
99	0xbe13d221	-0.14435627
100	0x3c514100	0.012771845
101	0x3e2e699d	0.17032476
102	0xbda25398	-0.079261005
103	0x3e2d8a3f	0.16947268
104	0x3e20a035	0.15686114
105	0x3e2868d3	0.16446237
106	0xbc8a2ff8	-0.016868576
107	0x3e23c191	0.15991808
108	0xbd9dbf4c	-0.077025026
109	0xbd77dafe	-0.06051158
110	0x3d88ef50	0.0668627
111	0x3d18f594	0.037343577
112	0x3dc79546	0.097452685
113	0x3e2c06b3	0.1679943
114	0xbde2a1db	-0.11066028
115	0x3dc024c2	0.09382011
116	0x3d724028	0.059143215
117	0x3dbf0002	0.09326173
118	0x3dabab32	0.08382262
119	0xbd876d83	-0.066126846
120	0xbe0f11d9	-0.13971652
121	0x3e10e297	0.14148937
122	0xbdce7285	-0.100804366
123	0x3de7760e	0.11301814
124	0xbe2c7268	-0.16840518
125	0xbcfa88c0	-0.030582786
126	0x3af59500	0.0018736422
127	0x3cfa90a0	0.03058654
128	0x3c6a1d50	0.014289215
129	0x3d64294c	0.055703446
130	0xbca13e80	-0.019683123
131	0x3d315468	0.043293387
132	0x3e332247	0.17493545
133	0xbdea4203	-0.11438372
134	0xbc1e2110	-0.009651437
135	0xbd8a32d1	-0.06747974
136	0x3e1ed4eb	0.1551091
137	0x3e1af5b3	0.1513279
138	0xbb9df5e0	-0.0048205703
139	0xbd7afd22	-0.061276563
140	0xbddfb102	-0.109224334
141	0x3e0186c9	0.12649073
142	0xbc477350	-0.012173489
143	0x3e2a7c59	0.16648997
144	0x3dce74f6	0.10080902
145	0x3e1e7271	0.15473343
146	0x3e0f2c27	0.13981687
147	0xbdeb449e	-0.11487697
148	0x3d53f064	0.051742926
149	0xbd961f60	-0.07330203
150	0x3db5a772	0.08869828
151	0xbc823408	-0.015893951
152	0x3c7abbb0	0.015303537
153	0xbdfa639e	-0.12226032
154	0xbe21c818	-0.15798986
155	0x3d885580	0.06656933
156	0x3d2843d8	0.041080326
157	0x3c7b94e0	0.015355319
158	0x3df5e50a	0.12006576
159	0xbd972d97	-0.073817424
160	0x3d80844c	0.062752336
161	0xbdc765a1	-0.09736181
162	0x3d16075c	0.036628112
163	0xbd254e48	-0.040357858
164	0x3dfd8b9a	0.123801425
165	0x3e1e4c59	0.15458812
166	0x3e1d3837	0.15353476
167	0x3c0249d0	0.007952169
168	0x3dd57dde	0.10424398
169	0xbe34dd05	-0.17662437
170	0xbdd45eab	-0.10369619
171	0x3d0168d0	0.031594098
172	0x3a813880	0.0009858757
173	0xbe0e1d06	-0.13878259
174	0xbda03e15	-0.07824341
175	0xbda91777	-0.08256429
176	0xbe3358db	-0.17514364
177	0x3c8a1c90	0.016859323
178	0x3df6ccb2	0.12050761
179	0x3d92f030	0.071747184
180	0xbdac0439	-0.08399243
181	0xbe263948	-0.16232789
182	0xbe120ad0	-0.14261937
183	0x3b56e580	0.0032790601
184	0x3df90d1e	0.12160705
185	0xbd929da0	-0.07158971
186	0xbdc50064	-0.09619215
187	0xbdc121c2	-0.09430267
188	0xbc7abad0	-0.015303329
189	0xbe2be7e6	-0.16787681
190	0xbe1fbd51	-0.15599562
191	0x3e323199	0.17401733
192	0xbdaca97d	-0.08430765
193	0xbd0298e4	-0.03188409
194	0xbd41ba98	-0.04729709
195	0xbe1f06d0	-0.15529943
196	0xbcff4cb8	-0.031164512
197	0x3d5da6f4	0.054114297
198	0xbd930230	-0.071781516
199	0xbbf6e160	-0.007534191
200	0xba5dac00	-0.0008456111
201	0xbe3434a4	-0.17598206
202	0x3e038cbb	0.12846653
203	0x3e1238f5	0.1427954
204	0x3df6d706	0.12052731
205	0xbd6dc92a	-0.058053173
206	0x3dbd3026	0.09237699
207	0xbe2999e0	-0.16562605
208	0xbd332088	-0.043732196
209	0xbd134414	-0.035953596
210	0xbd7fb52a	-0.06242863
211	0x3d980e66	0.07424621
212	0xbda4f73c	-0.08054969
213	0xbca7d8c0	-0.020489097
214	0xbd51146c	-0.051044866
215	0xbe29fdff	-0.16600798
216	0xbcef2630	-0.029193014
217	0xbe1968da	-0.14981404
218	0x3dd31b32	0.103079215
219	0x3dc17f0a	0.09448059
220	0x3e2993d5	0.165603
221	0xbd7325ae	-0.059362106
222	0x3c1348a0	0.008989483
223	0x3d0dd708	0.034628898
224	0x3e34b265	0.17646177
225	0x3e25ecbd	0.1620359
226	0xbdbb5e8b	-0.09148892
227	0xbe1a07a3	-0.15041976
228	0xbe23268e	-0.15932676
229	0xbdae57df	-0.08512854
230	0x3e1832d9	0.14863147
231	0x3d732e5c	0.059370384
232	0x3e2ea837	0.17056356
233	0x3e062ce1	0.13103057
234	0x3b27f580	0.0025628507
235	0xbde061f6	-0.109561846
236	0x3e30c3f7	0.17262255
237	0x3e113561	0.14180519
238	0x3d9cbdfa	0.07653423
239	0xbdc5c4bc	-0.09656665
240	0x3e0e9a71	0.13926102
241	0x3c83ce20	0.016089499
242	0x3def646a	0.11689074
243	0x3d971a56	0.0737807
244	0x3dc03ede	0.09386991
245	0xbe1ed712	-0.1551173
246	0xbdc8be5e	-0.09801935
247	0x3dd923f6	0.10602562
248	0xbd16d9ec	-0.03682892
249	0xbe1d7bb0	-0.15379214
250	0x3e249e6d	0.1607606
251	0xbb7a8980	-0.003822893
252	0x3e12067f	0.1426029
253	0xbe0d7cde	-0.13817164
254	0x3d794b9c	0.060863122
255	0xbd885e5f	-0.06658625

in_layer1.layers.2.bias f4 [32]
0	0x3d4e38a8	0.050347
1	0x3d2b3df8	0.041807145
2	0x3b7fb480	0.0039017498
3	0x3dcf9dfe	0.101375565
4	0xbd1e49f8	-0.03864476
5	0xbdd51cb6	-0.10405867
6	0x3d8a3e68	0.06750184
7	0x3d412e40	0.047163248
8	0x3d89d882	0.06730749
9	0xbca0d920	-0.019634783
10	0xbcc02d30	-0.023459047
11	0xbc663220	-0.014050037
12	0x3d3eed3c	0.046612963
13	0xbe0ae821	-0.13565113
14	0xbe28b884	-0.16476637
15	0x3d877930	0.066149116
16	0xbdc637af	-0.096785896
17	0xbc73a540	-0.014870942
18	0x3d48bc24	0.04900755
19	0x3ccb1e08	0.024794593
20	0x3de96482	0.113961235
21	0x3cbdd448	0.023172513
22	0x3d334380	0.043765545
23	0xbc81a028	-0.015823439
24	0x3cd5c308	0.026093975
25	0x3d84c034	0.06481972
26	0x3df6fcee	0.12059961
27	0xbe2b849b	-0.16749804
28	0xbd96cfdd	-0.073638655
29	0xbe226f83	-0.15862851
30	0xbd9057be	-0.070479855
31	0x3ddcb0fe	0.10775946

in_layer2.layers.0.weight f4 [32, 2]
0	0xb76c9f67	-1.410381e-05
1	0xb917f6d7	-0.00014492437
2	0x3bac3a54	0.0052559767
3	0xbc074074	-0.008255113
4	0x38ccfff2	9.7751516e-05
5	0x3a7e68ec	0.00097049656
6	0x38bffb79	9.15443e-05
7	0xb957570a	-0.00020536422
8	0xb6914116	-4.3289137e-06
9	0x368171a7	3.8577305e-06
10	0x39cff766	0.00039666443
11	0xba96a17d	-0.0011492219
12	0x3a9e6a8b	0.0012086196
13	0xba82f9d1	-0.0009992664
14	0x36da0326	6.497273e-06
15	0x35f10400	1.7957063e-06
16	0xb465122c	-2.1333898e-07
17	0xb62b5923	-2.553287e-06
18	0xb7a0bf0d	-1.9162451e-05
19	0x38863812	6.400062e-05
20	0x38e3d1f9	0.00010863314
21	0x3b29ef81	0.002593011
22	0xbbc9eb54	-0.0061620865
23	0x3c0136c5	0.007886593
24	0xbb5f7f43	-0.0034102954
25	0x3bd70afb	0.0065625883
26	0x394a70ae	0.00019306198
27	0xbb2306a5	-0.0024875787
28	0xb9bc4a30	-0.00035913428
29	0x3b6b74ff	0.003592789
30	0xba153848	-0.00056922855
31	0x3b252afd	0.0025202625
32	0xbcf1520f	-0.029458074
33	0x3d2543e3	0.040347945
34	0xb62302b8	-2.4290475e-06
35	0xb5b248d8	-1.3283234e-06
36	0x3753e0a6	1.2628885e-05
37	0xb738dfcf	-1.1019364e-05
38	0x370bfb70	8.343588e-06
39	0x3905a078	0.00012743648
40	0xb8c4b598	-9.379833e-05
41	0x395d3907	0.00021097447
42	0x37d72ec9	2.5651783e-05
43	0xb785521a	-1.5893067e-05
44	0xb842cbbe	-4.6442954e-05
45	0x391982ab	0.00014639895
46	0x371a840a	9.209858e-06
47	0xb70d9578	-8.439056e-06
48	0x3aff98c7	0.0019500487
49	0xbb11777e	-0.0022196467
50	0xb8278465	-3.9939205e-05
51	0x37d62d5c	2.553191e-05
52	0x378fd15d	1.714442e-05
53	0xb895407e	-7.116886e-05
54	0x38663e45	5.4894266e-05
55	0xb9093429	-0.0001308477
56	0x3745a083	1.1779487e-05
57	0xb75a9603	-1.302874e-05
58	0x3e52b540	0.20576954
59	0xbd6f91fb	-0.058488827
60	0x38b77376	8.747626e-05
61	0xb943c2a9	-0.00018669166
62	0x38f881c0	0.00011849729
63	0xb9a7f24b	-0.00032033244

in_layer2.layers.0.bias f4 [32]
0	0xb83bdbe9	-4.478908e-05
1	0xbc42e524	-0.011895452
2	0x397d49d6	0.00024155466
3	0xb993545d	-0.0002810088
4	0x37433499	1.1635152e-05
5	0xbaa3e8d9	-0.0012505307
6	0x398bc4f2	0.00026658882
7	0xb7f70b63	-2.9449997e-05
8	0xb524500f	-6.121126e-07
9	0x38989eb0	7.277483e-05
10	0x3a01679a	0.00049363973
11	0x3c568d1b	0.013095166
12	0x3bd18d83	0.0063950433
13	0xba06fd54	-0.0005149443
14	0x3a53de7e	0.0008082165
15	0x39980600	0.0002899617
16	0x3ccea490	0.025224954
17	0x36cafe3a	6.049665e-06
18	0xb7cbe81a	-2.4307566e-05
19	0x37cb6e71	2.4250914e-05
20	0x396f6678	0.00022830989
21	0xb85981cf	-5.1857725e-05
22	0x39158f81	0.00014263207
23	0xb78cd1c0	-1.6786973e-05
24	0xbaf5aa45	-0.0018742761
25	0x38bcd922	9.004983e-05
26	0xb8aa6c21	-8.126372e-05
27	0xb92df623	-0.00016590259
28	0xb7cd4794	-2.4471236e-05
29	0x3c07ded1	0.00829287
30	0xb9987df1	-0.00029085533
31	0xb9cc318f	-0.00038946836

in_layer2.layers.2.weight f4 [32, 32]
0	0x38125bc4	3.4894576e-05
1	0x3b3505ca	0.0027621859
2	0xb97b2f87	-0.0002395493
3	0x38836a4f	6.266368e-05
4	0xb5f381a4	-1.8142641e-06
5	0x399ded2b	0.00030122077
6	0xbaeada51	-0.0017917847
7	0x368e0d40	4.2334723e-06
8	0x3515a7aa	5.575081e-07
9	0xb783c9ae	-1.5710331e-05
10	0xba1fa709	-0.0006090259
11	0xbb524365	-0.0032083627
12	0xbae771f5	-0.0017657863
13	0x3a1a1ed2	0.00058792264
14	0xba89aa91	-0.0010503103
15	0xba696af5	-0.00089041825
16	0xbbe38272	-0.0069430405
17	0xb3b338c5	-8.3456634e-08
18	0x36168704	2.2430331e-06
19	0xb7c2713d	-2.3179333e-05
20	0xb84369d8	-4.6590198e-05
21	0x3693253e	4.385277e-06
22	0xb80d011a	-3.3618046e-05
23	0x35bd7386	1.4115219e-06
24	0x3a122fe7	0.0005576596
25	0xb71593e4	-8.9155255e-06
26	0x3798c539	1.8211651e-05
27	0x3818e4d9	3.6452755e-05
28	0x362a396e	2.5365403e-06
29	0x3bfed5ae	0.0077769374
30	0x3842f8a3	4.6484765e-05
31	0x38bec34c	9.096283e-05
32	0x38ae30c6	8.306051e-05
33	0x3c064dd0	0.008197263
34	0xb9f24cdf	-0.0004621511
35	0x394ff495	0.00019832172
36	0xb69bd252	-4.6438445e-06
37	0x3a4f3a70	0.0007905131
38	0x3a9f0e29	0.0012134957
39	0x36c43ab6	5.84809e-06
40	0x35a81320	1.2522542e-06
41	0xb84629e7	-4.7245903e-05
42	0xba9a70b1	-0.0011782852
43	0xbc02914f	-0.007969215
44	0xbb9502e3	-0.0045474633
45	0x3add6785	0.0016891813
46	0xbb300694	-0.002685939
47	0xbaf1b850	-0.001844177
48	0xbc5b191f	-0.013372689
49	0xb4f2dd3f	-4.523699e-07
50	0x37496b2b	1.2005486e-05
51	0xb8807667	-6.12557e-05
52	0xb97cbe47	-0.00024103477
53	0x37b73101	2.183812e-05
54	0xb8d2030a	-0.000100141464
55	0x370ddd72	8.455814e-06
56	0x3b5dfa73	0.0033871203
57	0xb825a4f9	-3.949271e-05
58	0x387e029f	6.056076e-05
59	0x38f843be	0.000118381795
60	0x375f6333	1.3314932e-05
61	0x3c8b066a	0.016970832
62	0x395d6c5c	0.0002111657
63	0x398f5f6e	0.00027346186
64	0x37279fa8	9.9911485e-06
65	0x3b1c7972	0.0023876098
66	0xb8b30ace	-8.537398e-05
67	0xb7f13900	-2.8755981e-05
68	0x36228ec1	2.4222975e-06
69	0xb8f0040a	-0.00011444844
70	0x3a3e0837	0.0007249149
71	0x36fe79b2	7.583957e-06
72	0x34aae5ab	3.1832073e-07
73	0x36c72353	5.9347744e-06
74	0xb94ab7df	-0.00019332719
75	0xba542897	-0.00080932066
76	0xba80ea62	-0.0009835477
77	0xb9cca2cf	-0.00039031214
78	0x3a4b78c9	0.0007761834
79	0x3aa23b2e	0.0012377256
80	0xbb0872b6	-0.0020820326
81	0x34ed18e3	4.4162798e-07
82	0xb70b1a3f	-8.2911565e-06
83	0xb7888b62	-1.6277369e-05
84	0x3850e323	4.9802602e-05
85	0xb7699661	-1.3922895e-05
86	0x380e9dd4	3.4002427e-05
87	0xb6e565ae	-6.836569e-06
88	0x3ad68b87	0.0016368487
89	0x37a446e1	1.9583329e-05
90	0xb687626d	-4.034772e-06
91	0xb7aab0a4	-2.0347834e-05
92	0xb6f030cd	-7.1582385e-06
93	0x3e024fc2	0.12725738
94	0xb7b859e0	-2.197636e-05
95	0xb8937722	-7.0316964e-05
96	0x3825c140	3.9519044e-05
97	0x3b33635e	0.002737246
98	0xb98c101c	-0.00026714883
99	0x3877a044	5.9038648e-05
100	0xb5fbf540	-1.8772334e-06
101	0x399c679b	0.0002983183
102	0xbb2dbd63	-0.0026510588
103	0x36b69e33	5.4424395e-06
104	0x3521c2bb	6.0260544e-07
105	0xb778a53d	-1.4820424e-05
106	0xba309993	-0.00067367515
107	0xbb589d72	-0.003305283
108	0xbae90c64	-0.0017780182
109	0x3a21067c	0.0006142629
110	0xba9e7918	-0.0012090532
111	0xba95d9aa	-0.0011432667
112	0xbbee2fbd	-0.0072688744
113	0x33ae95b4	8.129737e-08
114	0x35f95e5d	1.8579409e-06
115	0xb7dad3bd	-2.6086223e-05
116	0xb8418456	-4.6138033e-05
117	0x3679feff	3.7252319e-06
118	0xb8009203	-3.0653562e-05
119	0x35984f7a	1.1348013e-06
120	0x3a12a804	0.0005594494
121	0xb7079d17	-8.083202e-06
122	0x378f3252	1.707036e-05
123	0x380f6c9a	3.4195e-05
124	0x36149b9e	2.21443e-06
125	0x3c048126	0.008087432
126	0x383964bb	4.420125e-05
127	0x38b3566d	8.551483e-05
128	0xb5a6c6a4	-1.2425776e-06
129	0x3a4cba32	0.00078097277
130	0x36b8a54e	5.5028713e-06
131	0xb7bc3674	-2.2436703e-05
132	0x3579b600	9.3024573e-07
133	0xb90023f6	-0.00012220428
134	0x3849a400	4.807487e-05
135	0x351fc21b	5.9514576e-07
136	0xb28c0cce	-1.6303968e-08
137	0x36bfcfbf	5.7164284e-06
138	0x37560555	1.2756635e-05
139	0xb89ff94d	-7.628147e-05
140	0x3aa5b906	0.0012643642
141	0xba295688	-0.00064597325
142	0x3a70c57c	0.0009184701
143	0x3a667d4d	0.0008792475
144	0xbc7a488f	-0.015276088
145	0x34bc48be	3.5070656e-07
146	0xb61abdce	-2.305827e-06
147	0x35a60e5a	1.2372141e-06
148	0x3817a8c9	3.61584e-05
149	0xb67e640f	-3.7907191e-06
150	0x3782767b	1.555238e-05
151	0xb5f786a2	-1.8442117e-06
152	0xb949abd6	-0.00019232868
153	0x36cfd4ed	6.1938686e-06
154	0xb6b749f4	-5.4624343e-06
155	0xb76d49e8	-1.4143508e-05
156	0xb613edd1	-2.2043134e-06
157	0x3c885bba	0.016645301
158	0xb7bf746f	-2.2823193e-05
159	0xb83cffd2	-4.5060944e-05
160	0x3899ea1a	7.339213e-05
161	0x3b223772	0.0024752286
162	0xb9eff9b9	-0.0004577169
163	0x38b98fad	8.848249e-05
164	0xb6426780	-2.8968498e-06
165	0x39d19b70	0.00039979396
166	0xbb05297a	-0.0020318911
167	0x37194524	9.135609e-06
168	0x358d178f	1.0512175e-06
169	0xb7c681a8	-2.3663815e-05
170	0xba85be60	-0.0010203831
171	0xbb60c63a	-0.003429784
172	0xbb128555	-0.0022357304
173	0x3a0acece	0.00052950985
174	0xba84104f	-0.0010075661
175	0xba63b893	-0.00086868665
176	0xbbddefb0	-0.0067729577
177	0x346657d7	2.1452375e-07
178	0x36278ae3	2.4965782e-06
179	0xb847ee53	-4.7667254e-05
180	0xb8b4b365	-8.616484e-05
181	0x36a439a3	4.8942907e-06
182	0xb83c5d84	-4.4909786e-05
183	0x35cca241	1.5246407e-06
184	0x3a999262	0.0011716599
185	0xb748c156	-1.19659435e-05
186	0x37f17085	2.8781835e-05
187	0x3857aa89	5.1418818e-05
188	0x36687159	3.463667e-06
189	0x3bfa830e	0.0076450175
190	0x38aa8c06	8.132313e-05
191	0x3903164b	0.00012501438
192	0x36b83016	5.4892253e-06
193	0xb95dfd58	-0.0002117058
194	0xb83ea1d8	-4.545026e-05
195	0xb7e1d6f6	-2.692219e-05
196	0x3569d75a	8.711264e-07
197	0xb92e4fca	-0.00016623657
198	0x3904de90	0.00012671412
199	0x34dfc9cc	4.1683813e-07
200	0x342b1cde	1.5936118e-07
201	0x35d121e2	1.5581575e-06
202	0xb902334a	-0.00012416873
203	0x3a5fab68	0.00085323164
204	0x3a955a76	0.0011394757
205	0xb957ddb3	-0.00020586587
206	0x39feaf19	0.00048577113
207	0x3a523d1f	0.0008019972
208	0x3bd1e9cf	0.006406046
209	0x35b21140	1.3267054e-06
210	0xb6ba0a02	-5.544397e-06
211	0xb6d76c96	-6.4201404e-06
212	0x38865390	6.405183e-05
213	0xb7148188	-8.851646e-06
214	0x37a7561b	1.9948047e-05
215	0xb69ad393	-4.614188e-06
216	0x39fb69d5	0.00047953302
217	0x375a4512	1.3009894e-05
218	0xb620ecf8	-2.3979792e-06
219	0xb791eea3	-1.739647e-05
220	0xb69f00d7	-4.738667e-06
221	0x3da870cb	0.082246386
222	0xb7d18ae7	-2.4979423e-05
223	0xb8720f8f	-5.7711786e-05
224	0x36acda91	5.151444e-06
225	0x3b102baf	0.0021998694
226	0xb81b070d	-3.6961446e-05
227	0x37e88f74	2.7723356e-05
228	0xb52a1c75	-6.3371346e-07
229	0x39446ed2	0.000187333
230	0xb9b6e524	-0.00034884468
231	0x362eba35	2.6036407e-06
232	0x33b8548b	8.583546e-08
233	0xb610a24b	-2.155214e-06
234	0xb82e1d90	-4.1512365e-05
235	0xbb2af5dd	-0.0026086487
236	0xbb0fe3aa	-0.0021955767
237	0x385e131a	5.2946714e-05
238	0xb998d631	-0.00029151284
239	0xb9f4d970	-0.0004670131
240	0xbc9f74c6	-0.019464862
241	0xb54fe00f	-7.743956e-07
242	0x35cf35a1	1.543831e-06
243	0xb6201cc3	-2.38586e-06
244	0xb883f729	-6.292604e-05
245	0x362ff2a8	2.6218277e-06
246	0xb72852cb	-1.0032857e-05
247	0x3593b966	1.1006312e-06
248	0x3a6632c3	0.0008781368
249	0xb6b09f4d	-5.263754e-06
250	0x36a738aa	4.9835844e-06
251	0x37834626	1.5649082e-05
252	0x35d3eb4a	1.5789203e-06
253	0xbd39dadc	-0.045374736
254	0x37fbd332	3.0019877e-05
255	0x383027ca	4.1998726e-05

in_layer2.layers.2.bias f4 [32]
0	0x3bd0be98	0.006370377
1	0x3c7a9bf1	0.015295968
2	0xbd2c2e81	-0.042036537
3	0x3bc3a82c	0.0059709754
4	0xbb5b5c5c	-0.0033471799
5	0x3bb221d8	0.0054361634
6	0xbcc40ba4	-0.023931332
7	0x3c847537	0.016169174
8	0xb807c81c	-3.2372875e-05
9	0x3bd3960b	0.0064570955
10	0xbb619780	-0.0034422576
11	0xbb7587c2	-0.0037464951
12	0x3bebaeb4	0.007192457
13	0xbc21f208	-0.009884365
14	0x3be7d4c5	0.0070749247
15	0xbc10050c	-0.008790266
16	0x3a424524	0.00074108155
17	0x389f5ea2	7.5993376e-05
18	0x3bb9527b	0.0056555844
19	0x3c087e07	0.0083308285
20	0x3c8c1de6	0.0171041
21	0x3bc32ef1	0.0059565236
22	0xbbfbc47a	-0.007683334
23	0xbb8aa762	-0.0042313794
24	0x3b1bf2ba	0.00237958
25	0x3b9974e4	0.004683124
26	0x3c5bf7c1	0.013425768
27	0x3a1c3375	0.00059585954
28	0x3b6f2696	0.0036491505
29	0x3b4ea047	0.0031528638
30	0xbb7ca1bd	-0.0038548552
31	0x3c2c3f5e	0.010513155

sat_layers.layer0_1.0.agg_weight f4 [3]
0	0xbe0ecc86	-0.13945207
1	0xbf0c5623	-0.54818934
2	0xbf87bfaf	-1.0605372

sat_layers.layer0_1.0.input_linear_layer1.weight f4 [32, 32]
0	0xbbef077b	-0.007294593
1	0xbbeb8ac2	-0.007188172
2	0x377e83a9	1.5170234e-05
3	0xbb22b655	-0.0024827917
4	0xb8a986bd	-8.083645e-05
5	0x384594fb	4.710721e-05
6	0x37d33adc	2.5180569e-05
7	0xb7fffa48	-3.0514915e-05
8	0xba42acb4	-0.00074262475
9	0xbb5f0957	-0.0034032667
10	0x374262fd	1.1586349e-05
11	0xbc4e398e	-0.012586964
12	0xba8c8cc3	-0.0010723103
13	0xb8840070	-6.294332e-05
14	0x374e610e	1.2301154e-05
15	0xb92d05d9	-0.00016500744
16	0xbbaeb39e	-0.0053314706
17	0xb74648f2	-1.1818704e-05
18	0xba016426	-0.0004935883
19	0xb88a5cf8	-6.5976696e-05
20	0xb8cb32ba	-9.689243e-05
21	0x3840f505	4.600456e-05
22	0xbb3be4b4	-0.0028670253
23	0x37e842ed	2.768772e-05
24	0x39006862	0.00012245917
25	0xb8ef1e84	-0.00011402092
26	0xba71f166	-0.00092293916
27	0xb89188fd	-6.939655e-05
28	0xbab39f69	-0.0013704124
29	0x39395b0b	0.00017676891
30	0x3686aca1	4.013608e-06
31	0xbb04c11e	-0.0020256708
32	0xbd6a8469	-0.057255182
33	0xbbaf5514	-0.0053507183
34	0x3a0b9e04	0.00053259754
35	0x3d08ea86	0.033426784
36	0x3ca2f2a3	0.019891089
37	0x3b9011cc	0.004396653
38	0x3a3f71e4	0.0007303043
39	0xbca4e7e8	-0.020130113
40	0xbcfd4a65	-0.030919263
41	0x3c8dacc7	0.0172943
42	0x3a5fc680	0.00085363537
43	0xbd5492aa	-0.051897682
44	0xbc78389b	-0.015150215
45	0xbbcd0851	-0.006257095
46	0x3ab3a82c	0.0013706735
47	0xba9c5f47	-0.001193025
48	0xbc839a8f	-0.01606491
49	0x3a5751af	0.0008213771
50	0x3d3dd707	0.046347644
51	0x3cd5f8e5	0.026119659
52	0x3b441442	0.00299193
53	0x39eeadff	0.00045524535
54	0xbc33b8bf	-0.01096934
55	0x3907df3a	0.00012957762
56	0x3988e5f2	0.00026111264
57	0xba76c880	-0.0009414032
58	0x3d62df86	0.05538895
59	0x3cc28235	0.023743728
60	0x3b2133e8	0.002459759
61	0x3b21013d	0.0024567388
62	0x3a51a69d	0.00079975446
63	0x3ca3fb19	0.020017194
64	0x3bef089c	0.0072947275
65	0x3d8344c8	0.06409603
66	0xbaa383b9	-0.001247517
67	0x3d80d779	0.06291098
68	0x3d951f23	0.072813295
69	0x3c091375	0.008366455
70	0xbaca1704	-0.0015418236
71	0x3db4345c	0.08799049
72	0x3c196c2e	0.009364171
73	0x3ab5924c	0.0013852804
74	0xb8c87dbd	-9.560164e-05
75	0xbde17c7a	-0.1101007
76	0xbc8f3d8f	-0.017485408
77	0xbc18f12b	-0.009334843
78	0x39eece33	0.00045548528
79	0x39848cfa	0.00025282038
80	0xbcbbf491	-0.022943767
81	0x3aeff54b	0.0018307356
82	0xbdac06a6	-0.083997056
83	0x3c8167de	0.015796598
84	0x3b8e9672	0.0043514306
85	0xbacf8a95	-0.0015834147
86	0x3d815a93	0.06316104
87	0xbad92e10	-0.0016569514
88	0xbbab0fe9	-0.0052204025
89	0x3a384fa3	0.000703091
90	0x3c8a947c	0.016916506
91	0x3dd4684f	0.10371458
92	0x3d3fcc37	0.046825614
93	0x3b57a3ed	0.0032904104
94	0x3a4c7abd	0.0007800272
95	0x3da194af	0.07889687
96	0x3da364d2	0.07978214
97	0xbd884ab7	-0.06654876
98	0xbc3bd79e	-0.011464981
99	0xbe4d3653	-0.20040254
100	0xbc94a4f2	-0.018145058
101	0xbd9c0440	-0.07617998
102	0xba804332	-0.0009785651
103	0xbe6d5f82	-0.23180965
104	0x3d11350d	0.035450984
105	0xbe67deb5	-0.2264355
106	0xbbd31a25	-0.0064423257
107	0x3e8c66af	0.2742209
108	0x3deaa332	0.11456908
109	0x3d88d566	0.066813275
110	0x3c3325d6	0.010934314
111	0xbcf2e7ad	-0.029651487
112	0x3dbf73b0	0.093482375
113	0xbd570617	-0.052496042
114	0xbde21ac0	-0.110402584
115	0xbda7c844	-0.081924945
116	0xbc6c6d7e	-0.014430402
117	0x3caccb39	0.021092998
118	0xbe8703c4	-0.2637006
119	0xbba5e96f	-0.005063228
120	0x3df1813f	0.1179223
121	0xbd5f8488	-0.05456975
122	0x3df13344	0.11777356
123	0xbdeb87f1	-0.11500538
124	0xbe1b4345	-0.1516238
125	0x3caca6f3	0.021075701
126	0xbd009d5d	-0.031400073
127	0xbe4a515a	-0.19757596
128	0xbd792204	-0.060823455
129	0xbd22cc4c	-0.039745614
130	0x3aa16466	0.0012313246
131	0xbc3bf65a	-0.011472309
132	0x3d592b01	0.053019527
133	0x3a9357de	0.0011241396
134	0x3ace484d	0.00157381
135	0xbbe644ee	-0.00702726
136	0x3d841715	0.06449715
137	0x3bf32cbe	0.007421105
138	0x3a9a6552	0.0011779463
139	0xbd748b1c	-0.059702978
140	0xbc1b91ef	-0.0094952425
141	0xbb17a87f	-0.0023141203
142	0x3aaa16fe	0.0012976823
143	0xbaa4bb6b	-0.0012568062
144	0xbc4575ff	-0.012052058
145	0xb932c899	-0.00017050131
146	0xbc8d0ad9	-0.017217087
147	0x3d60b1f3	0.054857206
148	0x3a683b4a	0.00088589324
149	0x3ac671d0	0.001514012
150	0x3d927edb	0.07153102
151	0x3a867c4c	0.0010260432
152	0x3913acb0	0.00014083344
153	0xba8749a8	-0.0010321634
154	0x3d3e34d7	0.04643711
155	0x3baf4245	0.005348476
156	0x3d9ae731	0.075636275
157	0x3aa7ddd7	0.0012807202
158	0x3a554508	0.00081355916
159	0x3cc734ba	0.024317134
160	0xbcb25bca	-0.021772284
161	0x3d97654e	0.07392369
162	0x3bcf5ff5	0.0063285776
163	0xbc58ed45	-0.013240163
164	0xbe3adfea	-0.18249479
165	0xbc971892	-0.018444333
166	0x3be1844c	0.006882226
167	0xbe48546f	-0.19563459
168	0x3dbf22c4	0.09332803
169	0xbe391380	-0.18073845
170	0xbac0a076	-0.0014696259
171	0x3da79c9d	0.081841685
172	0x3caccae1	0.021092834
173	0x3d2eb7fd	0.042655934
174	0x3bf2b70d	0.0074070753
175	0xbb0f0a6d	-0.0021826283
176	0x3e407fae	0.18798706
177	0xbc4d92de	-0.012547223
178	0xbd370acb	-0.044688027
179	0xbe531333	-0.20612793
180	0xbcd8533c	-0.026406877
181	0x3b6b6a68	0.0035921577
182	0xbe6da152	-0.2320607
183	0x3a9aef41	0.0011820571
184	0xbba16b96	-0.0049261553
185	0xbc52f53e	-0.012875853
186	0xbe0943f4	-0.13404828
187	0xbd7a9f9e	-0.06118738
188	0x3e081b3c	0.13291639
189	0xbdafadb4	-0.08578053
190	0x3c812e7a	0.015769232
191	0xbe48ff54	-0.1962865
192	0xbd3f2b4e	-0.046672158
193	0x3de795f8	0.11307901
194	0xbab55ff4	-0.00138378
195	0x3ca3dd73	0.020003056
196	0x3e379916	0.17929491
197	0x3c0db284	0.0086485185
198	0xbaede72d	-0.0018150561
199	0x3c06da2c	0.008230727
200	0x3dd558f1	0.10417355
201	0x3d6d177c	0.057883725
202	0xb94eb9d2	-0.00019714914
203	0xbcffeecd	-0.031241799
204	0xbc9759a1	-0.018475356
205	0xbc1d5926	-0.009603774
206	0xb9db9ff1	-0.000418901
207	0x3a02fa5a	0.0004996412
208	0xbcd321c2	-0.025772933
209	0x3b00bfd1	0.0019645581
210	0x3d5109bd	0.051034678
211	0x3e05a702	0.1305199
212	0x3b8bee55	0.0042703548
213	0xbae8494e	-0.0017722042
214	0x3e11ca31	0.14237286
215	0xbaf289ab	-0.0018504163
216	0x376dbd60	1.4170393e-05
217	0x3a839d62	0.001004141
218	0xbd8d14df	-0.068887465
219	0x3da91190	0.08255303
220	0x3d8f4596	0.06995694
221	0x3b8a0584	0.0042120833
222	0x3abd52e1	0.0014444256
223	0x3d8b3654	0.06797472
224	0x3d7b263b	0.061315756
225	0xbd9d63d6	-0.07685058
226	0xbb190e1f	-0.0023354364
227	0xbe044582	-0.1291714
228	0x3c426b6f	0.0118664345
229	0x3a9b52e6	0.0011850267
230	0xbb3f9c0d	-0.00292373
231	0x3d13f875	0.03612562
232	0x3c605cd5	0.013694008
233	0xbce3838c	-0.027772687
234	0xbad56395	-0.0016280288
235	0x3bc06eca	0.005872582
236	0x3bce4949	0.0062953574
237	0xb9c68c3d	-0.0003786999
238	0xba9abd78	-0.0011805734
239	0x3b0bb95f	0.0021320207
240	0x3ca45c6b	0.0200636
241	0x3ae1ff2c	0.0017242185
242	0xbe39a21d	-0.18128248
243	0xbe16d477	-0.14729486
244	0x3b0606e3	0.0020450882
245	0xbb699699	-0.0035642742
246	0xbde4db6d	-0.11174665
247	0xbb343abd	-0.002750083
248	0x3bead746	0.007166776
249	0x3aee96ce	0.0018202902
250	0x3d41cf8c	0.047317073
251	0x3ca45abe	0.0200628
252	0xbe13d4b5	-0.1443661
253	0x3a6ac7b6	0.0008956151
254	0xba97188a	-0.0011527699
255	0x3d43d735	0.04781266

sat_layers.layer0_1.0.input_linear_layer1.bias f4 [32]
0	0xbb8e08c8	-0.004334543
1	0xbe64ad69	-0.22331776
2	0xbe8451c2	-0.25843626
3	0x3df42c28	0.11922485
4	0xbdcd6a46	-0.10030036
5	0x3e7f9729	0.24960007
6	0xbe509bc4	-0.2037192
7	0x3d5f2a46	0.054483674
8	0x3e6639e6	0.22483024
9	0xbe9798d1	-0.29608777
10	0xbaa75c62	-0.0012768621
11	0xbe0168e9	-0.12637676
12	0x3e565117	0.20929371
13	0xbb9b51f2	-0.0047399933
14	0x3e4cec11	0.20011927
15	0x3e468bdf	0.19389294
16	0xbe69a4dd	-0.22816797
17	0xbc11b785	-0.008893852
18	0x3e94fafa	0.2909773
19	0x3e0705b8	0.13185775
20	0x3e80b1ff	0.251358
21	0x3e1863c0	0.14881802
22	0x3ea195f8	0.3155973
23	0x3e63fcf9	0.2226447
24	0xbb1d2a83	-0.0023981638
25	0xbb9b9dd9	-0.0047490415
26	0x3d18c865	0.037300486
27	0x3e5e50d4	0.21710521
28	0x3e8e2ac9	0.27767017
29	0xbc63fb46	-0.013914889
30	0x3e680726	0.22658977
31	0x3eb18d39	0.34678057

sat_layers.layer0_1.0.input_linear_layer2.weight f4 [32, 32]
0	0xbc05f321	-0.008175642
1	0xbd9210f2	-0.07132138
2	0xbb8821e0	-0.004154429
3	0x3c782fd9	0.0151481265
4	0x3be2b716	0.006918798
5	0xbce441b3	-0.02786336
6	0xbaf34ea4	-0.0018562865
7	0x3d0a67dc	0.033790454
8	0xbd41894a	-0.04725007
9	0xbcca2a3e	-0.024678346
10	0xbb1560d1	-0.0022793303
11	0x3d928286	0.071538016
12	0x3cff818b	0.0311897
13	0x3d10998b	0.03530268
14	0xbb973290	-0.004614182
15	0x3aef510c	0.0018258407
16	0xbdf57ddb	-0.11986896
17	0xbcacb17a	-0.021080721
18	0xbd98cd71	-0.0746106
19	0xbc4bb484	-0.012433175
20	0xbd16f50b	-0.036854785
21	0xbb066a71	-0.0020510221
22	0x3c6e5c18	0.014548324
23	0xbb6a1d0e	-0.0035722884
24	0x3c06e942	0.008234324
25	0xba97cbab	-0.0011581084
26	0xbd501f14	-0.05081089
27	0xbb31897d	-0.0027090006
28	0xbd64b826	-0.05583968
29	0xbcb38739	-0.021915065
30	0xba100a3a	-0.0005494688
31	0x3c90b423	0.01766402
32	0x3b1f9035	0.0024347429
33	0x3e26a242	0.16272834
34	0x3c3ed492	0.01164736
35	0x3cf087bb	0.029361596
36	0x3dabec43	0.08394673
37	0xbdb27fda	-0.08715792
38	0x3b45c41f	0.0030176712
39	0x3d55279b	0.052039724
40	0xbe0b6be1	-0.13615371
41	0x3b7a1037	0.0038156637
42	0x3b1f8fd7	0.002434721
43	0xbd6cf803	-0.05785371
44	0xbdc339d3	-0.095325135
45	0xbd05d2ed	-0.032671858
46	0xbbcd9bb6	-0.0062746657
47	0xba89b4c9	-0.0010506149
48	0xbdcfecf3	-0.10152616
49	0xbc588744	-0.013215844
50	0x3d66a902	0.056313522
51	0x3cf17077	0.029472573
52	0xbdf44549	-0.119272776
53	0x3c7c0b0b	0.015383492
54	0x3de46b12	0.111532345
55	0x3be8a12a	0.0070992904
56	0xbcdf0efd	-0.027228827
57	0xba6f329e	-0.0009124669
58	0xbde397f0	-0.11112964
59	0x3d0456a2	0.032309182
60	0x3c1dea22	0.009638341
61	0xbdb6bc79	-0.08922667
62	0x3c1cebb3	0.009577679
63	0x3d34de1c	0.044157133
64	0x3982eb10	0.00024970667
65	0xbc58d33f	-0.013233959
66	0xbab2edbf	-0.0013651176
67	0x3c5f3f1c	0.013625886
68	0x3cefdc5d	0.029279882
69	0xbc89c7f6	-0.016818982
70	0x3b30c722	0.002697416
71	0x3cb1160b	0.021616956
72	0xbdc096f7	-0.09403794
73	0x3b04d2bc	0.002026721
74	0xbb20063e	-0.0024417783
75	0x3cf518a3	0.029918974
76	0xbca21bcd	-0.019788647
77	0x3c1599ef	0.009130939
78	0xbb4ba667	-0.0031074525
79	0x3a7ffce3	0.0009765161
80	0xbd476d0e	-0.048687987
81	0xbc5d6690	-0.013513222
82	0xbd4ebd38	-0.05047342
83	0x3ce00538	0.027346238
84	0xbc770b40	-0.015078366
85	0x3b5193f8	0.0031979065
86	0x3c2a7397	0.010403535
87	0xbb182ba0	-0.0023219362
88	0x3b8f9aa3	0.004382448
89	0xba0fe742	-0.0005489477
90	0xbdbac472	-0.091195
91	0x3ccf011a	0.02526908
92	0xbd22c64a	-0.039739884
93	0xbc155c01	-0.009116174
94	0x3ad00998	0.0015872
95	0x3c7239e7	0.014784313
96	0x3e939a9b	0.28828892
97	0x3e9bc81c	0.3042611
98	0x3c050119	0.0081179375
99	0x3d94d0b1	0.07266367
100	0x3b73445d	0.0037119605
101	0xbe641b49	-0.22276033
102	0x3c38a043	0.011268678
103	0xbdc0f54c	-0.09421787
104	0xbde16b23	-0.11006763
105	0x3db6de5e	0.08929132
106	0x3bc0418e	0.0058671897
107	0x3e910f0f	0.283318
108	0x3e8b4089	0.27197674
109	0x3d99fbd4	0.075187355
110	0xbb9a025c	-0.0046999883
111	0x3c94b7a9	0.018153982
112	0x3e36ef37	0.1786469
113	0xbdf4ed5c	-0.11959335
114	0xbd3ceb6b	-0.04612295
115	0xbbde4076	-0.0067825867
116	0xbe6a3114	-0.22870284
117	0x3ca03782	0.019557718
118	0x3e0ef46a	0.13960424
119	0xb9ac720b	-0.00032891365
120	0x3d9a6ba2	0.075400606
121	0x3ca46133	0.02006588
122	0xbdeb672b	-0.11494287
123	0xbe6bd4ec	-0.23030442
124	0x3d5623f0	0.052280366
125	0xbd0a6c06	-0.033794425
126	0x3a8c14ae	0.0010687315
127	0x3c7222e6	0.014778828
128	0x3e0065be	0.12538812
129	0x3dcf8b45	0.101339854
130	0x3c3feb01	0.011713744
131	0x3d7f294e	0.06229525
132	0x3d59ff6b	0.0532221
133	0x3d9a771a	0.07542248
134	0x3c4fc797	0.012681863
135	0xbcaa2e03	-0.020773893
136	0x3e05c773	0.13064365
137	0x3e0b3eb0	0.13598132
138	0x3ba8aef3	0.0051478087
139	0x3d6b1924	0.057397023
140	0xbcdcbe87	-0.02694632
141	0xbdbce11d	-0.092226245
142	0xbac56ea9	-0.0015062887
143	0xbb9732fd	-0.0046142326
144	0xbdc9779e	-0.09837268
145	0x3d984e42	0.074368015
146	0x3d1fe9af	0.039041217
147	0x3d718bde	0.05897128
148	0x3d6eebe9	0.05833045
149	0x3ca62d62	0.020285312
150	0xbd64260d	-0.05570035
151	0x3c553ec8	0.0130154565
152	0xbcc44a6d	-0.02396127
153	0xbbc29bb3	-0.005938971
154	0x3dfd794a	0.1237665
155	0x3c64c7c9	0.013963648
156	0x3d6c2b5c	0.05765854
157	0x3d08bb39	0.033381674
158	0x3b345a10	0.0027519502
159	0x3bf0696b	0.0073367856
160	0x3d5cbb1b	0.053889375
161	0x3a423201	0.0007407964
162	0xbb136447	-0.002249019
163	0x3d301956	0.042992912
164	0x3d2fef43	0.042952787
165	0xbc9f936d	-0.019479478
166	0x3a162df0	0.0005728891
167	0x3d1d1554	0.03835042
168	0xbda9e4e1	-0.08295608
169	0x3cbfec6f	0.02342817
170	0xbb337b85	-0.0027386856
171	0xbd632383	-0.05545379
172	0xbc25f000	-0.010128021
173	0x3c5b3d26	0.013381278
174	0xbb1026a3	-0.0021995686
175	0xb9fb2cb9	-0.00047907772
176	0x3d022f75	0.03178354
177	0xbc8a8ccb	-0.016912838
178	0xbdbd6c05	-0.09249119
179	0x3d37640e	0.044773154
180	0xbc92342b	-0.017847141
181	0x3ad22c60	0.0016034953
182	0x3ce3033e	0.027711507
183	0xbb593958	-0.0033145752
184	0x3b6e5754	0.003636797
185	0x3906e1d4	0.00012863363
186	0xbe138d1a	-0.14409295
187	0x3cc5edeb	0.0241613
188	0xbd367265	-0.04454269
189	0xbc511bdc	-0.01276299
190	0xbaa72656	-0.0012752514
191	0x3d1f5d28	0.0389072
192	0xbbc7df04	-0.0060995836
193	0x3c904799	0.017612265
194	0xb9d393a2	-0.0004035505
195	0x3b96a3aa	0.004597147
196	0x3cbadf4c	0.022811554
197	0xbca6ce28	-0.020361975
198	0x3b0d0a3b	0.002152099
199	0x3cca111a	0.024666358
200	0xbd5bd7ca	-0.05367259
201	0xbbb4bc07	-0.0055155787
202	0xbac05dbf	-0.0014676376
203	0xbd18a827	-0.037269738
204	0xbc557fc7	-0.013030953
205	0x3c4f0390	0.012635127
206	0xbb08d203	-0.002087713
207	0x3a99e865	0.0011742233
208	0xbbca1f17	-0.006168257
209	0xbc86e001	-0.016464235
210	0xbd35c4eb	-0.04437725
211	0x3c477b64	0.012175415
212	0xbc975afc	-0.018476002
213	0x3b1d6bea	0.002402062
214	0x3c36b871	0.011152373
215	0xb89baa92	-7.422747e-05
216	0x3b8d2a92	0.0043080533
217	0xb9df19f5	-0.00042553214
218	0xbe00b3e3	-0.12568621
219	0x3cb5b5f7	0.022181494
220	0xbe0e4b34	-0.13895875
221	0xbc26d525	-0.010182654
222	0x3b60004b	0.0034179862
223	0x3cb84b7f	0.022496937
224	0x3d741405	0.059589405
225	0x3e0c536c	0.13703698
226	0x3bcb1121	0.0061971103
227	0x3d68ea7d	0.05686425
228	0x3cf0c65d	0.029391462
229	0x3d4b6883	0.049660217
230	0x3c0a26cd	0.008432102
231	0x3d8dbdb6	0.0692095
232	0xbd964a10	-0.07338345
233	0x3de8ce0f	0.113674276
234	0x3be154e9	0.006876577
235	0xbd23419c	-0.03985749
236	0x3d5137bc	0.051078543
237	0x3c99fb73	0.018796658
238	0xbb8eaed8	-0.004354339
239	0xbc1be198	-0.009514235
240	0x3dfbb320	0.12290025
241	0x3d8ff562	0.07029225
242	0x3d4a6f26	0.049422406
243	0x3d08ff0d	0.03344636
244	0x3d3429a7	0.043985035
245	0x3bf1e439	0.0073819426
246	0x3e31a15d	0.17346711
247	0x3ac42387	0.0014964201
248	0x3db739cb	0.0894657
249	0x3b28ea57	0.0025774443
250	0x3e41507a	0.18878356
251	0xbcb1de92	-0.021712575
252	0xbcaf0961	-0.021366777
253	0xbcf788f7	-0.030216677
254	0x3b97b1f6	0.004629369
255	0x3e13915e	0.14410922

sat_layers.layer0_1.0.input_linear_layer2.bias f4 [32]
0	0x3adf94fe	0.0017057953
1	0x3d80a915	0.0628225
2	0xbc85cc2c	-0.016332708
3	0x3e43813f	0.19092272
4	0xbe1e5541	-0.1546221
5	0xbce03f83	-0.027374035
6	0x3cfcd554	0.030863442
7	0xbcd1a8e6	-0.025593232
8	0x3dc5e2c2	0.09662391
9	0xbe43d8d4	-0.19125682
10	0xbd56e8a8	-0.052467972
11	0xbd1f8bf1	-0.038951818
12	0xbe26201a	-0.16223183
13	0xbda89c41	-0.08232928
14	0x3da4e45c	0.080513686
15	0xbe188eb4	-0.14898187
16	0xbaf150c6	-0.0018410913
17	0xbdb17cc8	-0.08666378
18	0xbde053d6	-0.109534904
19	0xbd68eb43	-0.056864988
20	0xbd2382ed	-0.039919782
21	0xbd89e338	-0.06732792
22	0xbd9a4adb	-0.07533809
23	0xbdb41345	-0.08792738
24	0xbdd094d4	-0.10184637
25	0xbd99eb77	-0.075156145
26	0xbd289eca	-0.041167058
27	0xbe06004f	-0.13086055
28	0x3d31e7f0	0.043434083
29	0x3dad7a3a	0.084705785
30	0xbdc52b0f	-0.096273534
31	0xbc0c327a	-0.008556956
