output/modelparams/dynamicLearning-HIGHSCHOOL-SCUAU-SAT/epoch27_model_state_dict.pth (torch, 261097 bytes, 148 tensors)

in_layer0.layers.0.weight f4 [32, 2]
00000000: 14a8 46b9 c0c9 043a 791d 9dbe 7038 7dbe
00000010: 3ce2 fdbd 02bf 9b3e ee58 41be e5ef 383f
00000020: b9c1 8bbe 9d8e 7f3e b6b1 6cbe 4986 09be
00000030: d245 6fbe 9c70 03bd 10cf f5bd 4438 a73d
00000040: 7f30 723e 60be c63e b7d8 c9be 0fd8 36be
00000050: 8f2b 693e bcc4 f83e 842a c6be 1b40 2a3f
00000060: c171 02be 31bb 0e3e 4fb7 ff3e d85c 0ebe
00000070: 1bbf c3be d1c3 84bb 6598 99be b847 103f
00000080: 0ffe 6ebe b478 aebd 1a6d 0ab8 3bb5 8fb9
00000090: d935 26bf c0f9 523f 84fe 993e e086 7d3e
000000a0: f239 553e 52c5 09bf 0bb2 1a3e 60b0 c8be
000000b0: e390 d6be 98ab e9bc c1e6 843e 6282 f13e
000000c0: 0a0b a5be 3dd2 f43d f6a1 973e ac80 083f
000000d0: 34bb 903e 2279 a9bd 236b 003f d728 f4be
000000e0: 5c34 bdbc ed05 18bf e3cc 32bb 5f56 1abb
000000f0: 77ca 943e 4fe8 5fba e67a 8cbe 4889 72bc
-0.00018945365 0.00050654635 -0.30686548 -0.2472856 -0.123966664 0.30419165 -0.1888158 0.7224105
-0.27296236 0.24956746 -0.23114666 -0.13430132 -0.23366478 -0.032089815 -0.12002385 0.08165029
0.23651312 0.3881712 -0.39423153 -0.17855857 0.22770523 0.48587596 -0.38704312 0.6650407
-0.12738706 0.13938595 0.4994454 -0.13902605 -0.3823174 -0.0040516634 -0.2999908 0.56359434
-0.23339103 -0.08519116 -3.3003373e-05 -0.00027410113 -0.64925915 0.8241234 0.30076993 0.24758482
0.20822886 -0.5381671 0.1510698 -0.39197063 -0.41907415 -0.028524205 0.259573 0.47169787
-0.32234985 0.11954162 0.29615754 0.5332134 0.28267825 -0.082750574 0.5016348 -0.47687408
-0.023096256 -0.5938404 -0.0027282767 -0.0023550016 0.29060718 -0.00085413916 -0.27437514 -0.014803238

in_layer0.layers.0.bias f4 [32]
00000000: 19b4 0839 cefe 38be 60de ed3d 4165 323e
00000010: 9265 8c3e fff7 723e 2cbe c0be 4ead f5bd
00000020: 2026 813e bcb1 cd3e d26d 103f 75fc ef3e
00000030: 5663 ff3d 2471 ddbe 24b0 e03d 299a a8be
00000040: 1db1 cabe 64a8 8e39 f78d 0e3f 6157 e3be
00000050: e060 3a3e 455d a0bd b8a8 0dbe a662 8cbe
00000060: 7ab0 9c3e 98b4 a0be 89fe 6f3e e5ae bb3e
00000070: 7f4b 973e 324b 333b f69c 17bf c4ba abbe
0.00013037062 -0.1806595 0.1161468 0.17421438 0.27421242 0.23727416 -0.3764509 -0.11995946
0.252244 0.40174663 0.5641757 0.46872297 0.12470119 -0.43250382 0.10971096 -0.32930115
-0.39588252 0.0002720981 0.5568537 -0.44402602 0.18201017 -0.0783029 -0.13833892 -0.27419013
0.3060339 -0.31387782 0.23436941 0.3665687 0.29549786 0.0027358052 -0.5922388 -0.33540928

in_layer0.layers.2.weight f4 [32, 32]
00000000: f632 49b9 dd4a 2b3d 51f5 a23c a2d1 373d
00000010: b24f 4a3d 1cd4 103b 2f4c e73c 07fd 993c
00000020: 6d4b edbd 8c6b b53b 54d9 1ebe 3427 8aba
00000030: 0c05 013c bd76 3dbc e7b8 ca3c a22b 7d3d
00000040: fcbd 043d 8a43 80b8 f872 4f3e 4697 d43b
00000050: 1933 bcbd 6179 24bc dd08 393d 2c79 7c3b
00000060: eb3c fd3c 2b35 a33b c326 06be 9a94 6bbe
00000070: 705b 7bbd 7af1 98b9 264f 933c 1ff2 143d
00000080: 74dd 10ba 9c07 17be 04a8 533e f3ea 723e
00000090: aa01 c83c 96e9 463d e536 293c d7c8 78bc
000000a0: afdd c33d 6614 a53d 5274 0b3e a78c 8f3e
000000b0: c853 3a3e 1355 3abe b454 f43d fb7d 493e
000000c0: 66ab 2ebe 5e7f 9f39 1569 bb3e 09e2 6fbd
000000d0: b9c3 93be 3c77 9bbe f0d4 11be 702e fbbc
000000e0: fd34 1a3e 642c 153e 0e53 2d3d ba8c 9ebe
000000f0: 3f94 92bd 5e47 07b9 e0ed a8bd 334d b8bd
00000100: 63ad e8b7 c0bc 33b9 370d b6b9 655d 14ba
00000110: 62b0 16b9 2979 3cb9 07e5 80b9 b125 f6b9
00000120: 6d61 b1bb 7c60 b5b9 eae1 fc3c 8b31 6bba
00000130: bcb3 d2b9 5b28 ab3a f8c5 82ba 7e60 fcba
00000140: 85de 9db9 35e2 96b8 1c03 0d3b 4e6d a839
00000150: 06cf 663b 0f0f a73a 66c6 28ba 45b0 09ba
00000160: 683f bbb9 684c 0eba 3f47 f93a 5216 d13b
00000170: 6588 ef3a e494 9536 04eb a639 bf8e 99b9
00000180: df30 54b8 95f6 473d cbe7 cabb 8df5 abbc
00000190: 7115 29bc 81e7 fcba fc59 583d d7e4 eb3c
000001a0: 9e66 f2bd 6cd4 89bb 4ab6 6ebe 3ffa 53bd
000001b0: 7318 62bb ef9d f1bb 9359 043d 6b03 483d
000001c0: 1d07 5b3d 10ce 21b7 6af3 f9bc 7b6a a43c
000001d0: e88f 94bd 0426 11bc f27d 483d 2385 1cba
000001e0: 21eb 99bb b97c 31ba bea1 dabd dc40 60be
000001f0: 5f67 48bd 91cf 26b7 1401 1c3d f63e 563d
00000200: bf57 4a37 b284 3e3d 0fa3 96bb bf61 7ebc
00000210: 5fb5 02bc 25ad b3ba 3289 4f3d 50bb da3c
00000220: 476a e1bd 62a2 55bb abc7 4fbe 97ad 21bd
00000230: d31a 22bb b21d e7bb 7236 e83c bc74 333d
00000240: 6eb4 503d 22fb 5ab8 04be b5bc 8eb6 9a3c
00000250: da09 89bd 2607 06bc 4482 3e3d ba8e f8b6
00000260: 97eb 52bb 04e1 78b7 7bf1 d2bd 3302 43be
00000270: 471f 33bd c4db 6c38 02d5 133d 874b 4c3d
00000280: b02f 3539 43a3 213c afa9 54bc 66e9 8cbd
00000290: 4938 c0bc c931 07bb 8892 173c 8037 72bb
000002a0: ce57 42bc a5a6 1bbb b7dc 8bbd 38db d9bd
000002b0: c98a 78bb 5f1a 083c c770 57bc 4159 14bd
000002c0: a234 a1bb e834 11b8 5df9 20be ae3e 203a
000002d0: b64e 2f3d afa3 e93b 35df 8dbb c6df 11bb
000002e0: d6c4 65bc abbe 1abb c922 c8bc ab10 eb3d
000002f0: 1365 a93c aecf 9b39 3ce4 b03b 2ded 063c
00000300: 7530 0ab8 cf7d 86ba 2ec0 503a 19be 8c3b
00000310: c7fc c33a 7a95 c237 b306 a1ba 6189 44ba
00000320: 26b8 033c e2f5 1d39 3e70 8c3c 7214 ab3b
00000330: 7f89 4f39 b125 483a 4528 8bba d7b3 e5ba
00000340: 0988 97ba f45d 93b8 6400 0e3c 02ae 91b8
00000350: 3e08 803b 4694 4f3a c913 d5ba a867 03b9
00000360: df8e 4f3a c68d b0b8 1020 cb3b 4fdc ed3c
00000370: 5076 b93a f8c1 1d36 d65c 10ba ae7a a2ba
00000380: 4e98 9d37 ace8 363d 26bc 9fbb 762f 95bc
00000390: 6e55 0abc 908c 27ba 3aaa 483d 9530 cf3c
000003a0: 661a dcbd f132 27bb eec5 53be 4fc8 26bd
000003b0: 0dce 0fbb 08cf a4bb 58b5 d73c 5e86 253d
000003c0: 8110 493d fa2c a7b8 5ac8 e6bc 896a 8e3c
000003d0: 64c6 81bd 098b c5bb ae55 373d 8397 12b9
000003e0: 0106 77bb 1a46 7eb9 c491 cdbd d7bb 40be
000003f0: d605 26bd f1c1 af38 9dbd 0c3d 45ac 443d
-0.00019187838 0.041819442 0.019892367 0.044877656 0.04939241 0.0022099083 0.02823457 0.01879741
-0.11586652 0.005536502 -0.15512592 -0.0010540248 0.007874738 -0.011563954 0.024746371 0.06180919
0.032407746 -6.116096e-05 0.20258701 0.0064877598 -0.091894336 -0.010038705 0.04517447 0.0038524373
0.030912837 0.0049807034 -0.13100724 -0.23005906 -0.0613665 -0.00029171613 0.017982077 0.036363717
-0.0005526163 -0.14748996 0.20669562 0.23722439 0.024414856 0.04856261 0.010328029 -0.015184603
0.09563767 0.08060531 0.13618591 0.28036997 0.18196023 -0.18196516 0.11930218 0.19676964
-0.17057571 0.0003042174 0.3660361 -0.058565173 -0.28860262 -0.30364406 -0.14241385 -0.030661792
0.15059276 0.14567715 0.042315535 -0.3096674 -0.07157182 -0.0001290119 -0.08248496 -0.089990996
-2.7737295e-05 -0.00017141085 -0.0003472359 -0.0005659669 -0.00014370822 -0.00017974213 -0.000245847 -0.0004694886
-0.0054132254 -0.00034594897 0.030869443 -0.0008971921 -0.00040188234 0.0013058292 -0.0009977212 -0.0019254831
-0.00030111164 -7.194692e-05 0.0021516746 0.00032124895 0.003521861 0.0012745577 -0.0006438255 -0.00052524015
-0.0003571466 -0.00054282555 0.0019018425 0.0063808346 0.0018274902 4.457879e-06 0.00031837088 -0.00029288788
-5.0590254e-05 0.048819143 -0.0061921827 -0.020991111 -0.010320053 -0.0019295068 0.05282019 0.028795643
-0.11835979 -0.004206231 -0.23311725 -0.051752325 -0.0034499436 -0.0073735635 0.032311987 0.048831385
0.05347358 -9.6443255e-06 -0.030511577 0.020070305 -0.072540104 -0.008859161 0.048948236 -0.00059707667
-0.004697219 -0.0006770599 -0.10675381 -0.21899742 -0.048926707 -9.942699e-06 0.038086966 0.052306138
1.2060568e-05 0.046513267 -0.004597075 -0.015526234 -0.007977813 -0.0013708217 0.05066795 0.026700646
-0.11006599 -0.0032598008 -0.20291011 -0.03947219 -0.0024735227 -0.0070531005 0.028346274 0.0438125
0.05095332 -5.2209136e-05 -0.022185333 0.018885877 -0.06691332 -0.008180415 0.04651095 -7.4075915e-06
-0.003218388 -1.4834342e-05 -0.10299965 -0.19043808 -0.043731 5.6471457e-05 0.036091812 0.049876716
0.0001727927 0.009865585 -0.012979909 -0.06880455 -0.023464339 -0.002062904 0.009251244 -0.003695935
-0.011861755 -0.002375045 -0.068292074 -0.10637516 -0.003792452 0.008307069 -0.013149447 -0.03621793
-0.0049196044 -3.4619967e-05 -0.15720125 0.00061128556 0.042799674 0.0071301083 -0.004329587 -0.0022258624
-0.01402398 -0.0023612182 -0.02443065 0.114777885 0.020678079 0.00029718637 0.0053983014 0.008235258
-3.2946893e-05 -0.0010260883 0.00079632073 0.0042951223 0.0014952653 2.3196208e-05 -0.0012285322 -0.00074972777
0.00803951 0.00015064285 0.017143365 0.005220943 0.0001979228 0.0007635011 -0.001061686 -0.001752491
-0.0011560927 -7.027006e-05 0.008667085 -6.94655e-05 0.0039072325 0.0007918518 -0.0016256507 -0.00012531749
0.0007917713 -8.418741e-05 0.0061988905 0.029035715 0.001414964 2.3507728e-06 -0.00055069977 -0.001239618
1.878678e-05 0.044655487 -0.004874724 -0.018211108 -0.00844322 -0.000639149 0.048990466 0.02529172
-0.107472226 -0.0025512541 -0.20680973 -0.040718373 -0.0021942884 -0.005029563 0.026331589 0.040411346
0.049088005 -7.971558e-05 -0.028171707 0.017384784 -0.06336668 -0.006028537 0.044759445 -0.00013980088
-0.0037692788 -0.00024249443 -0.10037568 -0.18821655 -0.04053291 8.380775e-05 0.034360517 0.04801585

in_layer0.layers.2.bias f4 [32]
00000000: c74b 2ebe fefe 9ebd 690d d3bc c524 91be
00000010: 02c4 a6be 1988 2fbd dddc 23bd 6795 a2be
00000020: c415 0a3d d8cd a1be c0aa a2be bce2 073e
00000030: ad8f 123e dbfa 1e3e 4f1f 28bd 6722 97bc
00000040: b377 d33c 5296 32bd 3f03 9a3e c138 0cbe
00000050: 7974 07bd cf4f e03b a826 97be 5aad 13bc
00000060: 8979 863c 68a7 9ebe 68c9 2f3e 55a7 a3be
00000070: c50f 973c ad51 0fbd 883e 9ebe cf04 9bbe
-0.17021094 -0.0776348 -0.02576323 -0.28348365 -0.32571417 -0.042854402 -0.040005554 -0.3175461
0.033712164 -0.3160236 -0.31770897 0.13270086 0.1431262 0.15525381 -0.041045483 -0.018449022
0.025813913 -0.043600388 0.30080602 -0.13693525 -0.03307006 0.0068454514 -0.2952168 -0.009013498
0.016415374 -0.30987096 0.17166674 -0.31963602 0.018440137 -0.03499 -0.30907083 -0.30277106

in_layer1.layers.0.weight f4 [32, 2]
00000000: a928 18bf 00bb 2a3c 21a4 0e3f 2f06 1bbf
00000010: a97d a1be 73fc 1e3f 10da f2bd aefc 953e
00000020: e923 2ebf 60b5 63be d9da b7be 419c 183f
00000030: ae42 963e dd15 04bf 487b e93d 8027 05bc
00000040: 32c0 94be 77c0 cebe de46 70be 29af 0e3f
00000050: 9ec3 01bf aaf2 00bf 4664 5fbe 808a 493c
00000060: 3c1a 453e 40d3 ad3c d04d 2ebe b085 dbbe
00000070: 50ec 01be 68bd 91be 3140 123f b934 30bf
00000080: fbed e6be 8a46 13bf 7c54 04be 4510 0d3f
00000090: a9ab 1e3f 5c96 1dbf e0f9 fabc 2281 d43e
000000a0: f295 9f3e 0d46 143f 40ad a0bc 4c40 f3be
000000b0: e67f ef3e f24b 78be 6675 bb3e 6870 32be
000000c0: 86e6 993e 41d0 223f 6352 283f 47bd 24bf
000000d0: 407b efbe e4b0 95be 58df e6be 25b0 2d3f
000000e0: 70cc 7fbd aa27 f0be 771a a1be 33fa c7be
000000f0: 3cb5 933e f2e4 1dbf 72c8 28bf 1c71 32bf
-0.5943704 0.010420561 0.5571919 -0.6055631 -0.31541184 0.62103957 -0.11857998 0.29294342
-0.68023545 -0.22237158 -0.35909155 0.59613425 0.29347748 -0.5159586 0.11400467 -0.008127093
-0.29052883 -0.40381214 -0.23464534 0.55736023 -0.50689113 -0.50370276 -0.21815595 0.012301087
0.19248289 0.021218896 -0.1702187 -0.42875433 -0.12687802 -0.28464818 0.571292 -0.6883045
-0.4510344 -0.5752951 -0.12922853 0.5510295 0.6198068 -0.61557555 -0.030636728 0.4150477
0.31169087 0.5791939 -0.019613862 -0.47509992 0.46777266 -0.24247721 0.36613005 -0.17425692
0.30058688 0.6359902 0.6575071 -0.64351314 -0.4677372 -0.2923652 -0.45092273 0.678469
-0.062450826 -0.4690526 -0.31465504 -0.39058074 0.28849208 -0.6167747 -0.65930855 -0.6970384

in_layer1.layers.0.bias f4 [32]
00000000: cadd 9b3e fe02 b33e cada e0be 408e 333e
00000010: 2da0 053f 386b d23d 9033 19be 70fc 553d
00000020: 4048 9bbd 4249 b63e 10d4 f5be 3a97 b73e
00000030: b20d cc3e 9d59 dbbe 55d0 133f 5fcb 313f
00000040: ddb9 8ebe 5ccf 4abe 8a6c b43e 72d0 0dbf
00000050: cc2b 8f3e 40ee 283e 2634 e43e 103c 1dbf
00000060: 5b63 16bf 229a a23e 0469 823e 977c 28bf
00000070: f1e4 c9be f9a0 25bf b8af 01bf 0a5a a3be
0.3044265 0.3496322 -0.43916923 0.17534733 0.52197534 0.102743566 -0.14961076 0.052242696
-0.0758214 0.35602766 -0.48013353 0.35857564 0.398542 -0.42841807 0.57739764 0.69450945
-0.27876177 -0.19805664 0.3523906 -0.5539619 0.27963102 0.16497135 0.44571036 -0.61419773
-0.58745354 0.3175822 0.25470746 -0.6581511 -0.3943248 -0.6469875 -0.5065875 -0.31904632

in_layer1.layers.2.weight f4 [32, 32]
00000000: ebcc 153e d420 10bd f6ef cf3d 1de9 2b3e
00000010: 22fe a43d e60c 22be a22f b63d 1418 8a3d
00000020: 454d 0c3e 4c90 32be daa8 de3d fd2b 143e
00000030: fc69 28be d883 973c 0588 1a3e 26a8 03be
00000040: 7095 6d3d 0afa 9f3d 04c6 3d3d affb 333e
00000050: 0537 143e 6f4e 1b3e 0082 b4bc bdd2 173e
00000060: b8b1 28be df5d c3bd d0dd 1abd 9417 57bd
00000070: e334 273e d6c2 aa3d ce15 e93d 1a43 f63d
00000080: da38 07be 08ba a7bc 5877 d33c bc53 3c3d
00000090: 0e2c ba3d c10e 90bd 9055 5abd 6377 173e
000000a0: bc54 42bd ae7c fbbd 027a f53d 0e28 f53d
000000b0: f40b 63bd f0c1 10bd 0f92 05be 092b 17be
000000c0: fc24 883d 05a9 9abd d31b 103e cff1 10be
000000d0: d82b c8bc 4025 7a3b 9a11 ba3d 2781 123e
000000e0: 9a2c f53d 365e 9f3d 6b2c a6bd 4846 01be
000000f0: 35f1 21be a0ab 0f3c 2b91 2f3e 7488 09bd
00000100: 60dc f3bb b08b 03be 7c4c 5e3d ca86 e53d
00000110: 4778 32be 62eb febd 1915 063e 946f 2b3d
00000120: d092 34bc 506f 013d 202e dcbc 660d fdbd
00000130: 5e26 29be 9e1d ee3d 183d acbc e074 86bd
00000140: 34e5 3abd d876 c5bd ac75 56bd bd63 1bbe
00000150: f376 073e f4d5 933d 7895 b6bd 1e23 77bd
00000160: 926c a23d 9c10 86bd 44ef 3e3d 585e 473d
00000170: a1e6 e3bd e861 353d 5035 313c 7119 1e3e
00000180: 2afe 82bd 3423 3abd 65f7 1b3e 21d2 13be
00000190: 0041 513c 9d69 2e3e 9853 a2bd 3f8a 2d3e
000001a0: 35a0 203e d368 283e f82f 8abc 91c1 233e
000001b0: 4cbf 9dbd feda 77bd 50ef 883d 94f5 183d
000001c0: 4695 c73d b306 2c3e dba1 e2bd c224 c03d
000001d0: 2840 723d 0200 bf3d 32ab ab3d 836d 87bd
000001e0: d911 0fbe 97e2 103e 8572 cebd 0e76 e73d
000001f0: 6872 2cbe c088 fabc 0095 f53a a090 fa3c
00000200: 501d 6a3c 4c29 643d 803e a1bc 6854 313d
00000210: 4722 333e 0342 eabd 1021 1ebc d132 8abd
00000220: ebd4 1e3e b3f5 1a3e e0f5 9dbb 22fd 7abd
00000230: 02b1 dfbd c986 013e 5073 47bc 597c 2a3e
00000240: f674 ce3d 7172 1e3e 272c 0f3e 9e44 ebbd
00000250: 64f0 533d 601f 96bd 72a7 b53d 0834 82bc
00000260: b0bb 7a3c 9e63 fabd 18c8 21be 8055 883d
00000270: d843 283d e094 7b3c 0ae5 f53d 972d 97bd
00000280: 4c84 803d a165 c7bd 5c07 163d 484e 25bd
00000290: 9a8b fd3d 594c 1e3e 3738 1d3e d049 023c
000002a0: de7d d53d 05dd 34be ab5e d4bd d068 013d
000002b0: 8038 813a 061d 0ebe 153e a0bd 7717 a9bd
000002c0: db58 33be 901c 8a3c b2cc f63d 30f0 923d
000002d0: 3904 acbd 4839 26be d00a 12be 80e5 563b
000002e0: 1e0d f93d a09d 92bd 6400 c5bd c221 c1bd
000002f0: d0ba 7abc e6e7 2bbe 51bd 1fbe 9931 323e
00000300: 7da9 acbd e498 02bd 98ba 41bd d006 1fbe
00000310: b84c ffbc f4a6 5d3d 3002 93bd 60e1 f6bb
00000320: 00ac 5dba a434 34be bb8c 033e f538 123e
00000330: 06d7 f63d 2ac9 6dbd 2630 bd3d e099 29be
00000340: 8820 33bd 1444 13bd 2ab5 7fbd 660e 983d
00000350: 3cf7 a4bd c0d8 a7bc 6c14 51bd fffd 29be
00000360: 3026 efbc da68 19be 321b d33d 0a7f c13d
00000370: d593 293e ae25 73bd a048 133c 08d7 0d3d
00000380: 65b2 343e bdec 253e 8b5e bbbd a307 1abe
00000390: 8e26 23be df57 aebd d932 183e 5c2e 733d
000003a0: 37a8 2e3e e12c 063e 80f5 273b f661 e0bd
000003b0: f7c3 303e 6135 113e fabd 9c3d bcc4 c5bd
000003c0: 719a 0e3e 20ce 833c 6a64 ef3d 561a 973d
000003d0: de3e c03d 12d7 1ebe 5ebe c8bd f623 d93d
000003e0: ecd9 16bd b07b 1dbe 6d9e 243e 8089 7abb
000003f0: 7f06 123e de7c 0dbe 9c4b 793d 5f5e 88bd
0.14628951 -0.035187557 0.10153191 0.16788144 0.080562845 -0.15825233 0.08895804 0.06742874
0.13701351 -0.17437857 0.1087205 0.14469905 -0.1644668 0.018495485 0.1509095 -0.12857112
0.058003843 0.07811363 0.04633142 0.17576478 0.14474113 0.15166639 -0.022034645 0.14826484
-0.16474044 -0.09539389 -0.037809193 -0.05251272 0.16328768 0.08337943 0.11381112 0.12024517
-0.13205281 -0.020474449 0.025813743 0.045978293 0.09090434 -0.07034064 -0.053304255 0.14791636
-0.04744409 -0.1227964 0.11986162 0.119705305 -0.05543132 -0.035341203 -0.13043998 -0.1476251
0.06647679 -0.07551769 0.14073114 -0.14154743 -0.024434969 0.0038169175 0.090853885 0.1430708
0.11971398 0.07781641 -0.08113941 -0.12624466 -0.1581467 0.008768946 0.17145221 -0.033577397
-0.007442042 -0.12846255 0.05427216 0.112073496 -0.17428695 -0.124472395 0.13093986 0.041854456
-0.011021331 0.031600296 -0.026877463 -0.12356071 -0.16518542 0.11626743 -0.021025226 -0.06565261
-0.04562874 -0.09641808 -0.052358314 -0.15174766 0.1322897 0.07218543 -0.08915228 -0.060336225
0.079308644 -0.06546137 0.0466149 0.048673958 -0.11127973 0.044282824 0.010815933 0.15439393
-0.06396134 -0.04544373 0.15231092 -0.14435627 0.012771845 0.17032476 -0.079261005 0.16947268
0.15686114 0.16446237 -0.016868576 0.15991808 -0.077025026 -0.06051158 0.0668627 0.037343577
0.097452685 0.1679943 -0.11066028 0.09382011 0.059143215 0.09326173 0.08382262 -0.066126846
-0.13971652 0.14148937 -0.100804366 0.11301814 -0.16840518 -0.030582786 0.0018736422 0.03058654
0.014289215 0.055703446 -0.019683123 0.043293387 0.17493545 -0.11438372 -0.009651437 -0.06747974
0.1551091 0.1513279 -0.0048205703 -0.061276563 -0.109224334 0.12649073 -0.012173489 0.16648997
0.10080902 0.15473343 0.13981687 -0.11487697 0.051742926 -0.07330203 0.08869828 -0.015893951
0.015303537 -0.12226032 -0.15798986 0.06656933 0.041080326 0.015355319 0.12006576 -0.073817424
0.062752336 -0.09736181 0.036628112 -0.040357858 0.123801425 0.15458812 0.15353476 0.007952169
0.10424398 -0.17662437 -0.10369619 0.031594098 0.0009858757 -0.13878259 -0.07824341 -0.08256429
-0.17514364 0.016859323 0.12050761 0.071747184 -0.08399243 -0.16232789 -0.14261937 0.0032790601
0.12160705 -0.07158971 -0.09619215 -0.09430267 -0.015303329 -0.16787681 -0.15599562 0.17401733
-0.08430765 -0.03188409 -0.04729709 -0.15529943 -0.031164512 0.054114297 -0.071781516 -0.007534191
-0.0008456111 -0.17598206 0.12846653 0.1427954 0.12052731 -0.058053173 0.09237699 -0.16562605
-0.043732196 -0.035953596 -0.06242863 0.07424621 -0.08054969 -0.020489097 -0.051044866 -0.16600798
-0.029193014 -0.14981404 0.103079215 0.09448059 0.165603 -0.059362106 0.008989483 0.034628898
0.17646177 0.1620359 -0.09148892 -0.15041976 -0.15932676 -0.08512854 0.14863147 0.059370384
0.17056356 0.13103057 0.0025628507 -0.109561846 0.17262255 0.14180519 0.07653423 -0.09656665
0.13926102 0.016089499 0.11689074 0.0737807 0.09386991 -0.1551173 -0.09801935 0.10602562
-0.03682892 -0.15379214 0.1607606 -0.003822893 0.1426029 -0.13817164 0.060863122 -0.06658625

in_layer1.layers.2.bias f4 [32]
00000000: a838 4e3d f83d 2b3d 80b4 7f3b fe9d cf3d
00000010: f849 1ebd b61c d5bd 683e 8a3d 402e 413d
00000020: 82d8 893d 20d9 a0bc 302d c0bc 2032 66bc
00000030: 3ced 3e3d 21e8 0abe 84b8 28be 3079 873d
00000040: af37 c6bd 40a5 73bc 24bc 483d 081e cb3c
00000050: 8264 e93d 48d4 bd3c 8043 333d 28a0 81bc
00000060: 08c3 d53c 34c0 843d eefc f63d 9b84 2bbe
00000070: ddcf 96bd 836f 22be be57 90bd feb0 dc3d
0.050347 0.041807145 0.0039017498 0.101375565 -0.03864476 -0.10405867 0.06750184 0.047163248
0.06730749 -0.019634783 -0.023459047 -0.014050037 0.046612963 -0.13565113 -0.16476637 0.066149116
-0.096785896 -0.014870942 0.04900755 0.024794593 0.113961235 0.023172513 0.043765545 -0.015823439
0.026093975 0.06481972 0.12059961 -0.16749804 -0.073638655 -0.15862851 -0.070479855 0.10775946

in_layer2.layers.0.weight f4 [32, 2]
00000000: ce24 36ba 033e 7139 0c36 dc3e 212b bbbe
00000010: 0622 bc36 c22c c238 b15c 91bc 40de 113f
00000020: 0e2f 2abf a627 343f 3fbc 25b9 45be c0b8
00000030: 81fc 9b3d cf0c bbbd a3b4 91b8 be47 8138
00000040: 71e1 bdbe f207 413f ba06 0b3f 888e 38be
00000050: 4bb5 f4be 7262 773e 7a10 01be 46e3 fd3e
00000060: 9ee5 29b9 c62c c1b8 8d62 493d e7a5 07be
00000070: ba1c b5b8 9765 8938 9838 05b9 a52e 99b8
00000080: c4c1 5dbe 0fa4 3b3f 863c 9d37 3779 21b8
00000090: 4b1f 8cb8 7200 97b8 2f6f 58be 062f 353f
000000a0: fc87 e0bd b9fc 383f 57f8 363d b75e 0cbe
000000b0: 8598 963e e698 8abe 0f76 f737 7170 4db8
000000c0: 3d11 8ab8 48b1 abb8 4d5c 9337 83a4 ba38
000000d0: 5168 1439 bf50 bb38 3cfc ffb8 a742 99b8
000000e0: d091 0bb9 a729 b2b8 7fdf 0f3f 8102 04bf
000000f0: 7203 2abe 2011 7c3e 7b9d 16b9 9ef4 d3b8
-0.00069482333 0.00023006652 0.43009984 -0.36556342 5.6067975e-06 9.258978e-05 -0.017744394 0.5697975
-0.6647805 0.70373 -0.00015805753 -9.190714e-05 0.07616521 -0.091333024 -6.947785e-05 6.1645624e-05
-0.3708606 0.7540275 0.5430714 -0.18023121 -0.47794566 0.24158648 -0.12603942 0.49587458
-0.00016202635 -9.211297e-05 0.04916625 -0.1324688 -8.636103e-05 6.551592e-05 -0.00012704951 -7.304297e-05
-0.21655947 0.7329721 1.8744042e-05 -3.849828e-05 -6.681549e-05 -7.200324e-05 -0.21136163 0.7077488
-0.10963437 0.72260624 0.04467043 -0.13708006 0.29413238 -0.27069777 2.949967e-05 -4.8980528e-05
-6.583564e-05 -8.1869366e-05 1.7566746e-05 8.899814e-05 0.00014153241 8.931895e-05 -0.0001220633 -7.3080235e-05
-0.00013310392 -8.49546e-05 0.562004 -0.5156632 -0.16602877 0.24615908 -0.00014363781 -0.000101068275

in_layer2.layers.0.bias f4 [32]
00000000: a667 8ab9 9200 0abc 5300 2838 3fab 7cbe
00000010: 932d 1d3f 0b67 ecb8 00eb 43bd e8ed 39b7
00000020: 337a 173e 624f cfbe 7713 163f bf78 893e
00000030: adfa dfb8 e8b5 d93c db15 5fb7 da9e a7b8
00000040: 2bfa 863e 8ffb 9337 76ad 28b9 3aab c6be
00000050: f786 67be 866e 143d 311c 23bd b631 5936
00000060: baaa 6db8 7e1e 1a38 854a d138 cd5b a2b8
00000070: 3020 c3b8 a2d0 903e 397e c4bc ff41 e6b8
-0.00026398635 -0.008422988 4.0054623e-05 -0.246747 0.61397666 -0.0001127255 -0.047831535 -1.1082251e-05
0.14792709 -0.40490252 0.5862345 0.26849934 -0.000106801606 0.026575997 -1.3296924e-05 -7.992769e-05
0.26362738 1.7640907e-05 -0.00016086348 -0.3880251 -0.22610079 0.036238216 -0.039821807 3.2364455e-06
-5.6664205e-05 3.674486e-05 9.979777e-05 -7.741861e-05 -9.30432e-05 0.28284174 -0.023985969 -0.000109795474

in_layer2.layers.2.weight f4 [32, 32]
00000000: 4830 80b9 e3ca f1bb b84f 1338 76d6 9ebb
00000010: 2367 acbb 92b8 d3b8 c80e 333a a940 b9b7
00000020: d550 d3bb f763 57bb 89a2 15bb 9484 4ebb
00000030: fd76 d5b8 ac29 5b3a 37f8 f6b7 406b b7b8
00000040: 7483 21bc 4daa fb36 2fca 54b8 105d 40bb
00000050: 2fbe dfbb 27e0 603a 834d 60bb aa23 9836
00000060: 8f03 7db8 6294 1d38 517c d038 a10a b3b8
00000070: 5e63 cab8 10a3 c8bc 7cd0 a2ba 3838 a1b8
00000080: 0210 7839 c3ad 4d3a 39fe 90b6 731b bbb9
00000090: 32f2 04ba 6657 fab5 844c 73b8 1ca0 f6b6
000000a0: 7ae7 fbb9 7d2c 203a 2b27 47b9 e65b a3b9
000000b0: 11d1 63b6 8aa6 9db8 28d1 0ab7 887a b9b6
000000c0: 1065 e3b9 be1b 0c36 9ed9 2937 f085 8fb9
000000d0: 3b15 d5b9 8026 a5b8 8ed1 1c39 7bc8 9636
000000e0: 967d 84b5 22b4 64b6 f82e d336 6ed5 b2b6
000000f0: d651 d7b6 81a3 b5ba 54f6 90b8 4088 0536
00000100: 89cc a739 a144 9fbc 9af8 5cb6 5c14 7eba
00000110: 318b 9cbd 5cd2 a138 4c74 d339 344f aa37
00000120: a41d 2dbd 6be3 94bc eb40 f1bb a4c9 233b
00000130: c095 9b38 63ae 183a 84f9 cb37 9a1d 4138
00000140: 29b3 0ebc d8c8 15b7 6bbd 0a39 b603 a0bc
00000150: d139 4ebc 45d2 1f3a e409 efbb 5ca7 2bb7
00000160: 7161 bd37 65d0 c6b6 ac32 81b8 e16a 3738
00000170: 3b15 6638 454d 253c de73 1eba 2b4a a938
00000180: b928 acb9 23c0 ed3c 0286 bd37 30d8 a73b
00000190: 5157 463d 0bf0 55b9 b55b 28bb 5bcb 60b8
000001a0: 116f da3b cfaf 8cba c9a5 b93b b5c2 a93c
000001b0: 3f3d 4cb9 761b 4bbb 3d44 8bb8 cbfd 0db9
000001c0: cbfc 183d 8d3d a437 1626 92b9 27f4 263c
000001d0: c426 343c c202 4fbb 1893 0c3c 3668 bf37
000001e0: e680 9db8 9940 fc37 9da5 3239 3f47 08b9
000001f0: 7d42 23b9 0e5c 86bd 2e09 763a 29c6 55b9
00000200: 846c 55b8 8e57 d93a 858e 43b7 15ef 82b9
00000210: 6a3b 5d3a f725 ef36 ed7b 7739 8296 f3b6
00000220: a095 9339 7d45 ea3a 307c 6938 7115 14ba
00000230: f547 f836 2aee 5239 e895 00b7 7215 0037
00000240: 70fc 4aba f1c0 8636 e6d3 a0b6 b7a2 a439
00000250: 55e7 31b9 acbe 4239 6895 833a 9f4b bf36
00000260: 6f24 2737 9e81 39b7 da6c 0cb7 a0e2 0237
00000270: 01f5 0c37 3790 16bb e7f5 40b9 5275 2437
00000280: 3315 7db8 52c8 bbba 326d 34b7 375f 043a
00000290: 2828 773a 5049 ea37 af22 6339 065f 9236
000002a0: d478 663a 4b00 8cba 81d2 e138 645d af39
000002b0: 5eb1 e837 8868 4839 624e d036 b292 cc37
000002c0: 1f86 043a bae7 a234 971c 51b6 4bcf a739
000002d0: 54e2 2b3a 2c71 4139 24f8 f6b6 00a6 8031
000002e0: b161 9537 5b85 42b7 8862 e4b7 166f c837
000002f0: 0c45 dd37 8a8e 523b 11a8 dbb8 f6d5 cf37
00000300: e4ce b937 432a 1dba 7ca4 a5b7 60fb bab9
00000310: 1618 083a 99b0 8b38 7d7f cd39 7b3a b937
00000320: 336d 7339 b6cc 00ba 4a57 3838 089d 1dba
00000330: c12a 8e38 2934 eb39 6eb4 eb37 6244 7f38
00000340: 487e 11ba b70f d2b6 5525 1737 0ff5 2f39
00000350: 1c4a 1bb9 9b32 f139 50f1 1b39 6697 f9b6
00000360: 43f7 2738 cfe0 bbb7 615f 87b8 05cd 7838
00000370: 14ab 8338 7293 153b a029 0bb9 fe4a 6938
00000380: 5287 f638 123e 4b3b f15f 09b8 a076 00bb
00000390: 5c19 08ba b885 d838 f048 723a f7c9 1c38
000003a0: 8e5d b3ba d97c 783b 54ab 06ba c505 12bb
000003b0: 0661 df38 f884 8e3a 5543 4838 7c68 d038
000003c0: 8c19 2bbb 6d0f 26b7 b12b ca37 b107 0aba
000003d0: 8cb8 faba 4a53 923a d07f fa3a 4e81 5ab7
000003e0: 2b62 8a38 a313 1cb8 bc0d d8b8 4a3f cb38
000003f0: 5756 d338 e789 b3bb aad9 18ba 92d0 bd38
-0.00024450035 -0.0073789223 3.5121775e-05 -0.004847343 -0.0052613183 -0.00010095643 0.00068305107 -2.2083828e-05
-0.006448845 -0.003286598 -0.0022832474 -0.0031512128 -0.00010178795 0.00083603966 -2.944107e-05 -8.746097e-05
-0.009858001 7.5002085e-06 -5.0733037e-05 -0.0029352345 -0.0068280916 0.0008578323 -0.0034225888 4.534105e-06
-6.0323215e-05 3.756991e-05 9.9413686e-05 -8.537365e-05 -9.650619e-05 -0.024491817 -0.0012421752 -7.68755e-05
0.00023657086 0.0007846022 -4.32113e-06 -0.0003568787 -0.00050714903 -1.8651888e-06 -5.8006975e-05 -7.3500105e-06
-0.00048046914 0.0006110145 -0.0001899271 -0.00031158252 -3.3947329e-06 -7.517364e-05 -8.274139e-06 -5.527694e-06
-0.0004337211 2.0877774e-06 1.0123853e-05 -0.00027374877 -0.00040642344 -7.874984e-05 0.00014955385 4.4936874e-06
-9.871317e-07 -3.4079499e-06 6.293758e-06 -5.32966e-06 -6.4170263e-06 -0.0013857932 -6.912337e-05 1.9897852e-06
0.00032005113 -0.019441905 -3.292726e-06 -0.0009692365 -0.07643736 7.716261e-05 0.00040331704 2.0302461e-05
-0.042264596 -0.018174848 -0.007362475 0.0024992013 7.418869e-05 0.00058243255 2.4315676e-05 4.6042354e-05
-0.008709707 -8.927855e-06 0.00013231269 -0.01953302 -0.012587027 0.0006096701 -0.00729488 -1.0231361e-05
2.257593e-05 -5.92512e-06 -6.160638e-05 4.373014e-05 5.4856046e-05 0.010089223 -0.0006044487 8.072363e-05
-0.00032836737 0.029022282 2.2592958e-05 0.005122207 0.048423115 -0.00020402686 -0.0025689427 -5.359515e-05
0.006666072 -0.0010733547 0.005665515 0.020722726 -0.00019477772 -0.003099171 -6.640747e-05 -0.00013541353
0.037350457 1.9578985e-05 -0.00027875666 0.010190046 0.010995571 -0.0031587337 0.008579992 2.2817501e-05
-7.5103526e-05 3.0070822e-05 0.00017037099 -0.00012996512 -0.0001556966 -0.06560527 0.0009385523 -0.00020387083
-5.088422e-05 0.001658188 -1.1656089e-05 -0.00024973662 0.00084393343 7.1271747e-06 0.00023601922 -7.2594858e-06
0.00028149504 0.0017873492 5.5667188e-05 -0.0005648947 7.399353e-06 0.00020115884 -7.664297e-06 7.634388e-06
-0.00077433046 4.0159725e-06 -4.79304e-06 0.0003140175 -0.00016966213 0.00018572313 0.0010039033 5.701047e-06
9.9624585e-06 -1.1057038e-05 -8.369994e-06 7.801369e-06 8.401695e-06 -0.0022974142 -0.00018402153 9.8024775e-06
-6.0339644e-05 -0.0014326668 -1.075426e-05 0.00050495885 0.0009428286 2.7929113e-05 0.00021661328 4.3622013e-06
0.00087918085 -0.001068124 0.000107680455 0.00033448183 2.7739148e-05 0.00019112427 6.208008e-06 2.4387005e-05
0.0005055386 3.0343455e-07 -3.1160068e-06 0.00032007167 0.0006556858 0.00018448074 -7.3602587e-06 3.7441623e-09
1.7807675e-05 -1.159435e-05 -2.72256e-05 2.3893586e-05 2.6377405e-05 0.0032128417 -0.000104740386 2.4775956e-05
2.215006e-05 -0.0005995372 -1.9746127e-05 -0.00035663974 0.00051915774 6.6609304e-05 0.00039195633 2.208095e-05
0.00023214966 -0.0004913317 4.3950313e-05 -0.0006012474 6.779051e-05 0.00044861555 2.8098202e-05 6.0860424e-05
-0.00055501284 -6.260317e-06 9.008993e-06 0.00016780592 -0.0001480956 0.00046004806 0.00014871848 -7.4384034e-06
4.0046183e-05 -2.2396822e-05 -6.455067e-05 5.9318747e-05 6.2784326e-05 0.002282348 -0.0001327158 5.562137e-05
0.000117553995 0.0031012339 -3.2752698e-05 -0.0019601956 -0.0005191767 0.0001032459 0.0009242436 3.7381393e-05
-0.0013684498 0.0037916212 -0.0005137224 -0.002228127 0.00010651541 0.0010873368 4.7746424e-05 9.9376746e-05
-0.0026107756 -9.897963e-06 2.4100622e-05 -0.00052654283 -0.0019128486 0.0011163738 0.0019111577 -1.3023919e-05
6.598638e-05 -3.7211586e-05 -0.00010302241 9.691583e-05 0.00010077346 -0.0054790857 -0.00058307743 9.0510715e-05

in_layer2.layers.2.bias f4 [32]
00000000: 2b71 393d 37ff 183a a8bb 083c 682c 403d
00000010: ad10 0a3b 99fc 80ba 6d89 78ba c6f7 583b
00000020: f038 4ab9 bdca c53a 12e2 14ba 8a44 95ba
00000030: 5479 943d bcd6 05ba 0e44 6f3b 46bb c3bd
00000040: 44c3 9a3d f952 d13d d07c 4c3a 2920 973c
00000050: 73fe 033d 0ab9 873a 90ad ee3d 9a74 dc3b
00000060: c26f 09bb ef25 cab9 5f94 5239 21b4 a2b9
00000070: a431 8339 39f0 ceb9 6006 4e3b 9337 3d3a
0.04527394 0.000583637 0.008345522 0.04691735 0.0021067068 -0.0009840905 -0.0009480927 0.003310667
-0.00019285432 0.0015090328 -0.0005679439 -0.0011388224 0.07249704 -0.0005105545 0.003650907 -0.09557204
0.07556775 0.10220904 0.0007800581 0.018447952 0.032225084 0.0010354829 0.11654198 0.006727767
-0.0020971154 -0.00038556705 0.00020082433 -0.00031033254 0.00025023252 -0.00039470362 0.0031436905 0.0007218059

sat_layers.layer0_1.0.agg_weight f4 [3]
00000000: 86cc 0ebe 2356 0cbf afbf 87bf
-0.13945207 -0.54818934 -1.0605372

sat_layers.layer0_1.0.input_linear_layer1.weight f4 [32, 32]
00000000: 03d2 a039 f2e7 7b39 da43 5bb7 282a a439
00000010: 4327 a439 b937 54b9 2802 5db7 b725 a439
00000020: eef5 4bb9 bb22 a439 3b26 a439 33e2 8239
00000030: e00d 17b6 ec49 1539 7000 c2b5 fdf5 0239
00000040: ec02 d238 8664 54b9 d5f6 b5b9 af3b 55b8
00000050: e45c 34b7 0350 2cb7 f6bf a339 c463 e4b7
00000060: 46dc a836 4e05 a439 833d b0b9 5c26 a439
00000070: 3881 93b7 db01 a7b6 8e10 a439 aed9 a339
00000080: 4367 a4bc 4813 99bc 9df7 1639 7603 c73b
00000090: f1d5 8b3a 221a 1539 338d 1a39 4970 64bb
000000a0: c436 2eb6 8b4e c53b 2ec1 3ebb 1b07 44bc
000000b0: c908 7bbb ede6 b0ba b1c4 423a a741 16bb
000000c0: 5756 87ba b9c2 c038 dc96 5e3d b86e 0e37
000000d0: e5bd c038 88ad 1139 3bf4 28bc 3786 9138
000000e0: 55ee 49b8 f9d1 18bc 4e62 a03d 8c51 1b3b
000000f0: f386 f338 8ea7 0a39 c241 8d3b 954e b9bb
00000100: 05e1 473d 20e4 32bd 2dea 5439 bf87 833d
00000110: 3fca 873d c659 b83a 98ba 5439 f4a3 eb3d
00000120: 8034 323a 3fc7 213d 346e 543d 0c5d 79bd
00000130: 45a1 abbc 67cd 04bc 8fa6 bd3b d446 70bc
00000140: ad87 92bb f3f1 6d3a 8b2a aebd 9967 b039
00000150: 3fa0 3039 ebf7 3f39 1912 163d e2d6 e738
00000160: a7ae 76b6 b3df 8b3d 7923 2f3d 4cf9 b33d
00000170: 3c10 2039 7e7c 8139 823f d23d 1938 223d
00000180: 4da6 eabb c25f cc3d ba5a d9ba d8a6 6dbe
00000190: 0765 69bd c12d 3ebc ab26 7fba c1e9 a0be
000001a0: 73b3 99bb 1938 9fbe 7d63 7abe 52f0 5d3e
000001b0: e80e 193e aab6 e63d 3915 3bbd fad7 233d
000001c0: f46b d43c 5c09 3dbc 67cd cebd 5166 343a
000001d0: b5fb 8fbb d5f6 5a3a a1af 71be a55d b1ba
000001e0: e6c0 6a3b beaf 5dbe e3ae bb3d 97b8 0ebe
000001f0: ee62 3cbb 9396 06ba 782c 49be c9ae 24be
00000200: 72c5 9837 807a 1e38 7e42 e5b6 1586 9c37
00000210: c786 9c37 a052 f4b8 ea8e f8b6 6285 9c37
00000220: 52bf 02b9 3e77 9c37 367e 9c37 12ce f537
00000230: 2a5d f838 255e 0439 7a22 2736 731b 2139
00000240: 0acd 2039 6110 fbb8 3d5d f6b7 72cb beb7
00000250: a205 7cb6 8bba c4b6 f513 9c37 4c90 95b6
00000260: 92d3 4e36 144a 9c37 f249 00b8 0279 9c37
00000270: 7e79 beb6 4baf abb6 1a57 9c37 dc0a 9c37
00000280: 0642 d0bd 9d78 623e c9c7 fcb9 e3ce 39bd
00000290: 03f4 4bbe 200b f1bb 7055 e0b9 bc7f 8abe
000002a0: 956d 01bb fca9 83be 5b84 51be a380 423d
000002b0: 7a86 4c3d 0e28 9b3d b1c8 34bd 3149 b33d
000002c0: 2200 993d 56a8 aebb de3f 29bd 4bdb 11bc
000002d0: dee0 94bb f43c 0cba 6e2f 49be c628 14ba
000002e0: 5db5 24ba 614b d2bd eb39 25be 9cb0 a3bd
000002f0: bdac 1c3a 378b 9fba e3a0 b6bd 3d7d 1bbe
00000300: 658b 4cb9 62a9 d4bc 164f 5939 3ec0 0a3d
00000310: 8837 0e3e 85ec c43a 6ab7 5839 124a 453d
00000320: 4c79 3f3a 501b b03d 5c9d e83d 0d64 a9bc
00000330: 0cab babc 42ce 0ebc bf36 cc3b 5e45 61bc
00000340: a3a4 9abb 93b9 7d3a 285b 483d efb9 bf39
00000350: 2877 3639 5082 4239 230f b93d 9c2c ef38
00000360: c556 b135 6a39 8f3d 9432 11bd a2c4 953d
00000370: fcaa 2239 ae7e 8539 0e86 073e bba0 013d
00000380: a398 d73c 8b85 093d 3b89 dfb8 cfdb cfbd
00000390: 02b8 0abc b101 78b9 f0fe e3b8 b292 65bc
000003a0: 2802 80b9 8575 4cbd a299 66bd d1ac 173c
000003b0: b2a3 8a3c e7b2 923b 3026 35b9 6df8 763c
000003c0: a6ac 373b f31d 87b9 d510 3fbe db0a 85b8
000003d0: 565d 74b8 54cc cbb8 a059 80bd 91c1 7db8
000003e0: 2714 1c38 51de 14bd b94f d33b d49f 70b9
000003f0: 18dc bab8 d8ff 8cb8 de6b 75bd 7090 363d
0.0003067405 0.00024023632 -1.3069215e-05 0.00031311926 0.0003130977 -0.00020238654 -1.31731285e-05 0.00031308617
-0.00019451205 0.00031306394 0.00031309001 0.00024964064 -2.250883e-06 0.00014237285 -1.4454254e-06 0.00012489404
0.000100141246 -0.00020255343 -0.00034706914 -5.0838742e-05 -1.0750464e-05 -1.0270628e-05 0.00031232805 -2.7226175e-05
5.0324334e-06 0.0003128447 -0.00033615166 0.00031309098 -1.7583938e-05 -4.977204e-06 0.00031292852 0.00031251967
-0.02006877 -0.018685952 0.00014397358 0.0060734106 0.0010668618 0.00014219483 0.00014739185 -0.0034856966
-2.5959898e-06 0.006021326 -0.0029106843 -0.011964585 -0.0038304797 -0.0013496556 0.0007429822 -0.0022927315
-0.0010325414 9.191543e-05 0.05434309 8.489638e-06 9.190644e-05 0.00013892923 -0.010312135 6.939138e-05
-4.81441e-05 -0.009327405 0.0783125 0.0023699729 0.00011612279 0.00013223125 0.0043108175 -0.0056551197
0.04879858 -0.04367459 0.00020305133 0.06422376 0.06630372 0.001406484 0.00020287407 0.11505881
0.0006797984 0.039496657 0.05186291 -0.060879752 -0.020950923 -0.008105612 0.0057876776 -0.014665324
-0.00447174 0.0009076886 -0.08504208 0.00033646522 0.00016844364 0.00018307536 0.036638353 0.000110549634
-3.6758518e-06 0.068297766 0.04275844 0.08787784 0.00015264837 0.0002469755 0.102660194 0.03960428
-0.007160938 0.09979202 -0.0016582825 -0.23208177 -0.056981113 -0.011607588 -0.000973324 -0.3142834
-0.0046905815 -0.31097487 -0.24452014 0.21673706 0.14947093 0.11265309 -0.045674536 0.040000893
0.025930382 -0.011537876 -0.10097771 0.00068817014 -0.0043940195 0.0008352821 -0.23602153 -0.0013531937
0.0035820543 -0.21649072 0.09164216 -0.13937603 -0.002874549 -0.00051341316 -0.1964587 -0.160823
1.8211755e-05 3.7784223e-05 -6.8324725e-06 1.8659086e-05 1.865941e-05 -0.00011650217 -7.4076133e-06 1.865876e-05
-0.00012469038 1.8652176e-05 1.865542e-05 2.9302235e-05 0.00011842915 0.00012623573 2.4905007e-06 0.00015364382
0.00015335172 -0.000119716635 -2.9368903e-05 -2.2744502e-05 -3.7554205e-06 -5.8629716e-06 1.8605942e-05 -4.4573444e-06
3.0819542e-06 1.8631144e-05 -3.0586445e-05 1.8652998e-05 -5.676585e-06 -5.116604e-06 1.8637209e-05 1.8601706e-05
-0.10168843 0.22116323 -0.00048214037 -0.04536332 -0.19917302 -0.0073560625 -0.00042788265 -0.2705058
-0.0019749154 -0.25715625 -0.20460646 0.04748596 0.049932934 0.07575999 -0.044136707 0.087541945
0.074707285 -0.005330126 -0.041320674 -0.008902381 -0.004543408 -0.0005349659 -0.19646999 -0.00056518277
-0.0006283129 -0.10268284 -0.16135375 -0.0799267 0.0005976668 -0.0012172227 -0.089174055 -0.15184493
-0.00019506885 -0.025959674 0.00020724194 0.033874743 0.13888371 0.0015024102 0.00020667692 0.048166342
0.00073041464 0.085989594 0.11358139 -0.02067759 -0.02278664 -0.008716168 0.006232112 -0.013749449
-0.0047193333 0.0009678837 0.04891506 0.0003656889 0.00017401262 0.00018549827 0.0903609 0.00011404717
1.3212781e-06 0.06993373 -0.035448626 0.07312895 0.0001551322 0.0002546212 0.13234732 0.031647425
0.0263179 0.033574622 -0.0001065903 -0.10149347 -0.008466722 -0.00023651753 -0.00010871689 -0.014012026
-0.0002441567 -0.049916763 -0.05629886 0.009257511 0.01692376 0.004476893 -0.00017275731 0.015073878
0.002802649 -0.0002577152 -0.18658765 -6.343956e-05 -5.826106e-05 -9.7178534e-05 -0.062670946 -6.0500173e-05
3.7212067e-05 -0.03634483 0.0064487127 -0.00022947724 -8.910167e-05 -6.723375e-05 -0.059917323 0.04457134

sat_layers.layer0_1.0.input_linear_layer1.bias f4 [32]
00000000: 05c6 c2b9 5bd1 34be 2a2b 88be a685 1a3e
00000010: 6331 4ab8 a75f 8b3e 850e 5bbe 98f7 a03d
00000020: d905 6e3e 42f8 97be 85a8 a437 aefa e137
00000030: a4cb aa37 8f06 83b8 40b5 623e 360a 553e
00000040: 4490 61be 33a7 b5b8 5c88 a03e 1260 243e
00000050: b33c 8c3e 2c8b 1e3e 7964 ac3e 98b5 773e
00000060: 8497 48b8 5807 e6b7 3c5f 223e 6495 713e
00000070: 606e 9a3e e398 c4b7 03a3 803e 0779 ba3e
-0.000371501 -0.17657988 -0.26595432 0.15090045 -4.8206548e-05 0.27221414 -0.21392258 0.07859725
0.23244418 -0.29681593 1.9628797e-05 2.6938822e-05 2.0360407e-05 -6.2477884e-05 0.22139454 0.20804676
-0.22027689 -8.661896e-05 0.31354034 0.16052273 0.2739006 0.15482777 0.33670405 0.24190366
-4.7824826e-05 -2.7421556e-05 0.15856642 0.23592144 0.30162334 -2.3436214e-05 0.25124368 0.36420462

sat_layers.layer0_1.0.input_linear_layer2.weight f4 [32, 32]
00000000: ae4e edbc 4669 cfbd 4db9 18bb 19f5 c4bb
00000010: 5369 b2bc e995 fcbc 1091 19bb 28af 8e3c
00000020: dc3d 2cbd a724 b2bb 939c 833d 6467 823d
00000030: d36b 223d b62c 563d 861b 983a 8f2b 003c
00000040: cf8c 06be da3e 94bc c1f0 cabd bf0b 913b
00000050: 917c 16bb 8c8c 17bb 3fe7 313a d216 f4ba
00000060: 2ab0 0dbb ed1a dfbc a884 4fb7 6023 15bd
00000070: d618 18bb a085 21bb 7e20 1a3c 2d28 1c3d
00000080: 3ed3 e1ba 4e6d a73d a68b 48ba c12b 8d3b
00000090: a58a d23c 0fab 4bbc 185c 46ba 2a60 a53c
000000a0: 83be 36bc 39d8 8a3b 803d aa3c 22ce 8a3c
000000b0: d0ea 94bd 57f9 a3b9 6d13 4239 2980 fbbc
000000c0: 0ce9 06bd 5082 1cbc 5169 183d 8eb2 413a
000000d0: 6694 34ba 37c2 41ba 6569 173d 54a1 0fba
000000e0: 6ea3 16ba 0f05 87bb 4a12 c9bd 1053 2e3c
000000f0: 11d2 43ba 7e3a 2eba f4c7 143d 82e9 e53c
00000100: 3854 22bb 77d4 39bb 2512 a0b9 e2ba 1b3a
00000110: 6165 253a 292d 91ba 8174 95b9 6f43 163a
00000120: f412 81ba 66a9 0e3a 5608 1e3a 9777 85bb
00000130: e0f1 bfbb 3983 333a 57fe c639 ed13 b03a
00000140: 4c40 57ba 95d7 83ba 0011 c6bc 5b86 573a
00000150: 8fc8 71b9 f9f3 9bb9 a5e4 3e39 fe2f 3fb9
00000160: aa9b 21b9 6f67 f039 d83e 00bd 9c17 163a
00000170: d174 97b9 60ca 54b9 1b5b 183a 08cc c939
00000180: b972 313e d796 a73e 4491 ad3c 925b d93d
00000190: fc35 2b3d 7d5b 25be f18c ae3c 8c16 16bd
000001a0: 4a05 37be a480 96bd 5340 b33d 7e92 6d3e
000001b0: aa32 b63e ce12 293e 7a1b 26bc 5d3f 8d3e
000001c0: e264 4a3e e284 98bd 9885 9bbc ba39 05bd
000001d0: 6b26 cf3c f905 af3c 6d3c db3d 5143 9a3c
000001e0: fd6b ae3c 6434 233d a1e2 11be 1456 36be
000001f0: b1ef ae3c ebb5 b23c 5f20 5cbd 69c8 c0bb
00000200: 93c1 0a3e 46d5 f83d 9ac3 a33b 3cc5 643d
00000210: f137 2a3d d7a9 823d d23e a73b 7bd6 1dbd
00000220: 1eb5 c83d 3895 1e3e 2eff 8f3d 7fcc 8d3d
00000230: 49f8 143d 2199 7abd 6e18 6e3c c7c1 dfbb
00000240: 2b2d 1bbd bcfa 773d d55e 553d 4045 263c
00000250: f398 a83b a976 a93b e384 90bd 4a6f 8c3b
00000260: 9459 a23b d5c6 cd3c c7e1 073e 8629 4d3a
00000270: b467 a13b 8d11 a13b 476c 42bc 1a68 b43b
00000280: 27a3 13bb c07d 1a3b cfc6 9ab9 414c cb39
00000290: 474f ce39 b64d c1ba 8969 8eb9 38e3 cb39
000002a0: eaf0 b8ba ecfc b539 3691 ce39 f305 bbba
000002b0: f479 573b d2fc 323b 3516 d139 1e57 c63b
000002c0: 707b f63a 7a2e baba f70a dcbc aa47 5f3a
000002d0: 5df8 6ab9 6bfd 97b9 3809 4f39 0a0e 40b9
000002e0: 42b3 2cb9 f998 a539 58a9 c5bc a74b be39
000002f0: a259 93b9 cba8 46b9 5540 ce39 4225 7939
00000300: 2a39 1cbb 8a83 03bb ec16 8cb9 0e03 b23a
00000310: f0d6 c23a 22d6 a9ba 7fe3 79b9 00af c33a
00000320: d72f 9cba 90ab b63a 2ff8 c63a 2139 b0bb
00000330: 3107 20bc 9a9e 353a 651f ec39 b705 65b9
00000340: fce4 5fba c995 9dba 6a60 b2bc aa95 743a
00000350: 1889 34b9 cbd5 88b9 18c9 853a 59a8 14b9
00000360: ca1e d8b8 58ad b53a d72e 38bd a341 be3a
00000370: 6a63 83b9 d067 29b9 865e c33a 94f1 b13a
00000380: b127 8a3d 0ff1 d83d e4ff 443b 9c8f d33c
00000390: 7c49 053d e82d e93c 7dd9 3f3b abf8 723d
000003a0: 7b6a f4bb 102d 4e3d 55b0 b73c 9911 d0b8
000003b0: 2184 9a3b 19e8 ddbb 2067 8db9 4642 7a3d
000003c0: fa7f d43d 3aa7 0f3d 304f 253a f5fd 59bb
000003d0: 4cf1 3a3b 60ea 3d3b 4849 b53d bf83 1a3b
000003e0: 021a 2d3b cdb0 a53d e39d 2b3e 110d ef3b
000003f0: d2cb 423b 9fc3 2f3b 1ba0 633d ad80 893d
-0.028968181 -0.10127501 -0.0023303807 -0.006010663 -0.021778738 -0.030833201 -0.0023432411 0.017417505
-0.04205118 -0.005436498 0.064263485 0.063673764 0.03965361 0.052288733 0.0011604882 0.007822885
-0.13139652 -0.018096376 -0.099092014 0.004426449 -0.002296243 -0.0023124544 0.00067864725 -0.0018622524
-0.0021619895 -0.027234519 -1.2369048e-05 -0.03641069 -0.0023208163 -0.0024646297 0.009407161 0.038124252
-0.0017229093 0.08175145 -0.0007650204 0.0043081944 0.025700876 -0.01243092 -0.00075668236 0.020187456
-0.01115382 0.0042372015 0.020781279 0.016943995 -0.072713494 -0.00031275555 0.00018508518 -0.03070076
-0.032937095 -0.009552553 0.037209813 0.00073889724 -0.0006888568 -0.0007391306 0.036965746 -0.0005479057
-0.0005746399 -0.004120476 -0.098179415 0.010639921 -0.0007469962 -0.0006646289 0.036323503 0.028065447
-0.0024769437 -0.0028355399 -0.00030531097 0.00059406285 0.0006309357 -0.0011076081 -0.00028506297 0.0005732094
-0.0009847567 0.00054421125 0.0006028464 -0.004073094 -0.005857691 0.0006847862 0.00037955 0.0013433673
-0.000821118 -0.0010058755 -0.024178028 0.00082216196 -0.00023058265 -0.00029745678 0.00018204989 -0.00018233058
-0.00015412146 0.0004585343 -0.031309932 0.0005725564 -0.00028888 -0.00020293286 0.00058119156 0.00038489723
0.1732892 0.3273227 0.021187432 0.10613169 0.04179953 -0.16148181 0.02130744 -0.036642596
-0.17873111 -0.07348755 0.08752503 0.23200414 0.3558553 0.1651108 -0.010138387 0.27587405
0.19765046 -0.074472204 -0.0189846 -0.032525755 0.025286874 0.021365153 0.10704885 0.018830927
0.021291727 0.039844885 -0.14246608 -0.17806274 0.021354528 0.02181526 -0.05374181 -0.0058832658
0.13550405 0.12150054 0.0049976828 0.05585216 0.041557256 0.06380051 0.0051039243 -0.038534623
0.0980017 0.1548661 0.070310935 0.0692377 0.036369596 -0.06118119 0.014532192 -0.00682852
-0.037884872 0.060541853 0.052092392 0.010148346 0.005145186 0.005171616 -0.07056596 0.0042857276
0.004954526 0.025119225 0.13269721 0.0007826317 0.0049256925 0.0049154223 -0.011866636 0.005505574
-0.0022527666 0.0023573488 -0.00029521293 0.0003877599 0.00039350448 -0.0014747891 -0.0002716298 0.00038888468
-0.0014109884 0.00034711452 0.00039399572 -0.0014268741 0.0032879086 0.0027311337 0.00039880132 0.0060528656
0.0018805098 -0.0014204525 -0.026860697 0.00085174537 -0.00022408502 -0.00028989775 0.00019744493 -0.00018315777
-0.00016469977 0.00031585226 -0.024128601 0.0003629599 -0.00028104807 -0.00018945632 0.00039339313 0.0002376037
-0.0023837783 -0.0020067417 -0.0002671996 0.0013581233 0.0014865082 -0.0012957493 -0.0002383124 0.0014929473
-0.0011916113 0.0013936628 0.0015180166 -0.005377904 -0.00976734 0.00069282355 0.00045036818 -0.00021841271
-0.0008540896 -0.0012022789 -0.02177449 0.0009330163 -0.00017217209 -0.0002609923 0.0010207025 -0.00014177094
-0.000103054175 0.0013860865 -0.044966545 0.0014515411 -0.00025060336 -0.00016155769 0.001490549 0.0013576024
0.06745852 0.10592853 0.003005975 0.025825314 0.032540783 0.028464273 0.002927392 0.05931918
-0.0074589825 0.050335944 0.022422949 -9.921491e-05 0.004715458 -0.006772053 -0.0002697045 0.06109836
0.10375972 0.03507159 0.00063060503 -0.0033262942 0.0028525172 0.002897881 0.08851868 0.0023577062
0.0026413207 0.08090363 0.16759448 0.007295259 0.0029723537 0.002681948 0.05557261 0.06713996

sat_layers.layer0_1.0.input_linear_layer2.bias f4 [32]
00000000: 3fc8 7b3d dea7 823d 916b ce37 5520 163e
00000010: 9f1a 17be 2bef 00bd 8317 3c3c 2d9d 35bd
00000020: ecf8 dcba 7541 1fbe 88e3 203d 4987 dfbc
00000030: c94b 35be 85f5 b5bc eba9 403e 0f50 09bd
00000040: ab2a 593c 6d04 b3bc 6662 7ebd bbc0 f5bc
00000050: fe9c a03d c2c6 bebc 431a d6bc dbfe c6bc
00000060: ffa7 f3bc d279 dcbd 95d8 1ebd 195b 33be
00000070: 18af 3e3b 57aa ab3b 0b43 bdbd aa8f b4bc
0.061470266 0.063796744 2.4607203e-05 0.14660771 -0.14756249 -0.03147809 0.011480215 -0.044339348
-0.0016858852 -0.15552314 0.03927949 -0.027286189 -0.17704691 -0.0222118 0.18814819 -0.033523615
0.013254802 -0.021852696 -0.06210556 -0.029999128 0.07842444 -0.023288134 -0.02613557 -0.024291446
-0.029743193 -0.10765423 -0.038780767 -0.1751522 0.0029096063 0.005238812 -0.09241303 -0.02204116

sat_layers.layer0_1.0.input_linear_layer3.weight f4 [32, 32]
00000000: 69e3 183e e333 253e 22c6 b03d 5ed0 b33d
00000010: 7f8b afbd fefe 933d d1de f4bd d676 9c3d
00000020: e489 00be 007a 7dba 3b33 033e a667 f03d
00000030: ef0e 203e c8ff 763d 1089 8c3d 582c 423d
00000040: d12e 043e 12fb bd3d 38a7 553d 7ea4 7cbd
00000050: ad36 afbd 8404 33bd 66c7 ac3d 9612 c5bd
00000060: d0d2 453d cf5f 1e3e 0d47 193e 6546 05be
00000070: 0063 4e3d 26ba ec3d 7b6c 24be 8e62 e73d
00000080: 3695 e1bd c4e2 02be 3577 99bd da2c 88bd
00000090: 8fae 95bd 1076 503d 1041 8c3d 82b4 8c3d
000000a0: 46f6 f93d ac10 e5bd 18e2 2bbe 0438 11be
000000b0: 4efc c6bd 8999 a5bd aa15 9f3d 26ff 02be
000000c0: c059 04be 1ae2 c13d a15c e6bd 44cf 073d
000000d0: 7c06 0abe 3a23 8a3d 163a e23d a643 18be
000000e0: 244c 763d 83ce bdbd 82c3 e53d 59cf 223e
000000f0: 55b6 18be 826b 873d 2680 f43d d593 243e
00000100: 57b7 083e a867 0e3d 6052 293c 2430 153d
00000110: 25d7 d7bd 28de 0dbd c0aa 32bb e917 e5bd
00000120: 706b 00bc 9060 c0bc 127d 7dbd a864 5ebd
00000130: 2b48 34be b782 2c3e 2a73 b23d f5de 023e
00000140: 2917 1abe 1238 31be 259e 063e d04c febc
00000150: a0bc e13c 5a8a b53d b014 393c 20d8 bfbb
00000160: 761f d73d f79c 103e 58c8 49bd 088c 1abe
00000170: ec84 c6bd 695c 013e 50d9 7b3c 15ff 1a3e
00000180: fe4a 7dbd 1685 2bbe d0db 603d 4647 9abd
00000190: aa72 d8bd c2b5 e13d 406a 493c c050 77bc
000001a0: 0b4a 303e 43b1 1d3e e9e0 13be 4367 26be
000001b0: 4207 b3bd 118c 0cbe 914f bebd 4e40 f43d
000001c0: 40e6 f0bd c705 263e 58ea 613d a098 fb3b
000001d0: d8b4 f73c 08d5 183d c8f9 683d d738 13be
000001e0: c07d 49bb 7e2b f03d f5d7 333e 3038 19bc
000001f0: 6a50 01be be62 a63d 8f9f 25be ed58 213e
00000200: ca83 de3d 3a11 a33d d8cf c53c a196 033e
00000210: b63f 92bd 43fc 16be 5e21 c8bd 41b4 063e
00000220: 07f1 b4bd ce56 10be 9499 1e3d 34e4 e0bd
00000230: 8030 f5bb c6ca e5bd e0fc 183d 8069 ecbc
00000240: 6812 bf3c 1a59 a73d 6d1d e9bd 2cdf 76bd
00000250: 486a f1bd a3bd 163e 8ba0 81bd d457 883d
00000260: d01b 273d 1d97 32be 3e82 00be 7c16 3abd
00000270: 68c5 0abe 9af8 bf3d be93 e33d 0006 aab9
00000280: 6852 b13c f8cf 3e3d 68d3 703d 140d 0cbd
00000290: a274 8ebd 9adb dfbd c0a8 e63b 0524 0f3e
000002a0: f801 b4bc 13c2 1b3e d445 7d3d 0b48 babd
000002b0: b89f 8c3d 1404 913d cf20 a1bd 90d5 fdbc
000002c0: 2865 96bc 449a 7f3d bd3f 0d3e 183f 1fbd
000002d0: 326c eb3d 9a35 c33d 86d9 1cbe 7155 043e
000002e0: e09d eabb 77b8 0b3e 9100 0d3e fc49 2fbe
000002f0: 2dc1 16be 00d8 a4bc b4ac 683d 5879 e6bc
00000300: 2545 2ebe 92ee c43d f605 cfbd 665b a43d
00000310: 3eb8 ff3d 1a39 74bd 4209 da3d a892 c03c
00000320: a250 63bd c0e2 3b3c 0c31 823d 1652 b93d
00000330: 17bf cfbd 8d4d 073e f93a abbd 4fef 1bbe
00000340: cf81 9cbd b042 20be f8bd 4a3d 20fb 423c
00000350: 500a 0dbc 4506 f5bd 36da be3d c829 ed3c
00000360: d0b9 35bd 6049 003d f05f 7f3d cd82 d9bd
00000370: 8c8c 50bd 9e68 a4bd 3937 203e 540a 333d
00000380: f19c 08be caae ff3d 90f2 e5bc 7058 473c
00000390: 205f bb3c d021 a9bc 975e 2b3e 06d3 9c3d
000003a0: 00e5 1b3d 659f 83bd 2ca7 263d 54cd 03be
000003b0: a057 7abd e291 b73d e428 32be 20bb 91bb
000003c0: 396f 85bd a2f6 b83d 1e25 e2bd c8a7 fa3c
000003d0: 20bf 50bd 4ddd 173e 0816 d8bc 9e30 04be
000003e0: c0f3 60bd f238 ff3d 769c 8a3d b807 1b3d
000003f0: 46c1 e13d a6ce 8b3d 58ac b9bc dfbf bfbd
0.149305 0.16133074 0.08631541 0.08779977 -0.08571529 0.0722637 -0.11956561 0.07639854
-0.12552601 -0.00096693635 0.12812512 0.11738519 0.15630697 0.060302526 0.0686208 0.04740557
0.12908484 0.092764035 0.052161425 -0.06168031 -0.085553505 -0.04370548 0.0843647 -0.096226856
0.04829675 0.15466236 0.1496851 -0.13015135 0.050387383 0.115589425 -0.16057007 0.11298095
-0.11014788 -0.12781817 -0.0749344 -0.0664918 -0.07308685 0.050893843 0.06848347 0.06870367
0.12205176 -0.111848205 -0.16785467 -0.14181525 -0.09716092 -0.08085925 0.07767804 -0.12792644
-0.12924862 0.094669536 -0.11248136 0.03315665 -0.13479036 0.06745 0.11046235 -0.14869556
0.060131207 -0.092679046 0.11218931 0.1589941 -0.14913304 0.06612302 0.11938505 0.16072018
0.13351189 0.034766823 0.010334581 0.036422864 -0.105390824 -0.034635693 -0.002726242 -0.11186201
-0.007838115 -0.023483545 -0.061886854 -0.054295212 -0.17605655 0.16846739 0.08713372 0.12780364
-0.15047897 -0.17306545 0.13146265 -0.031042486 0.027555764 0.08864279 0.011296436 -0.0058546215
0.105040476 0.14122377 -0.04926333 -0.1509248 -0.096933216 0.12632908 0.015371636 0.15136369
-0.061839096 -0.16749987 0.05489713 -0.075331256 -0.105687454 0.11020996 0.012293398 -0.015094936
0.17215745 0.15399651 -0.14441265 -0.16250329 -0.08741619 -0.13725306 -0.0929252 0.11926328
-0.11762667 0.16213141 0.05515513 0.0076781064 0.0302376 0.037312537 0.056878835 -0.14377151
-0.003074512 0.117270455 0.1756285 -0.009351775 -0.12628332 0.08124302 -0.16174148 0.15756579
0.108649805 0.0796227 0.02414696 0.12850429 -0.07141058 -0.14744668 -0.09771989 0.13154699
-0.08835035 -0.14095613 0.038720682 -0.10981026 -0.0074825883 -0.112203166 0.037350535 -0.0288589
0.023324206 0.08171292 -0.11382566 -0.060271427 -0.1178785 0.14720778 -0.06329449 0.06657377
0.04079801 -0.17440458 -0.12549683 -0.0454316 -0.13551867 0.09373589 0.11112164 -0.00032429397
0.02164574 0.046585053 0.058795363 -0.03419216 -0.0695584 -0.109305575 0.0070391595 0.13978584
-0.021973595 0.15210752 0.06183417 -0.09095772 0.068664014 0.07080856 -0.07867586 -0.030985624
-0.018358782 0.06240298 0.13793845 -0.03887853 0.11495246 0.09531708 -0.15317354 0.12923218
-0.0071599334 0.13644587 0.13769747 -0.17118067 -0.14722128 -0.020122528 0.056805328 -0.028134033
-0.17018564 0.09615816 -0.10108559 0.08025245 0.12486313 -0.05962477 0.10646297 0.023507431
-0.05549682 0.011467636 0.06357011 0.0904886 -0.10143869 0.13213177 -0.083608575 -0.15228008
-0.076419465 -0.1565044 0.049497575 0.011900693 -0.008608416 -0.119640864 0.09318964 0.028950587
-0.044366658 0.031319976 0.062347353 -0.106206514 -0.050915286 -0.08027767 0.15646066 0.04371102
-0.13341118 0.1248451 -0.028069764 0.012167081 0.022872508 -0.020646006 0.16735302 0.07657437
0.03806019 -0.064268865 0.04068677 -0.12871295 -0.061118722 0.08963372 -0.17398411 -0.004447356
-0.06515355 0.090314165 -0.11042236 0.030597582 -0.05096352 0.14830513 -0.026377693 -0.12909171
-0.054919958 0.12462033 0.06768124 0.037849158 0.11023192 0.068265244 -0.022665188 -0.093627684
