output/modelparams/dynamicLearning-CONFERENCE-SCCompUAU-GAT/epoch23_model_state_dict.pth (torch, 126331 bytes, 66 tensors)

in_layer.layers.0.weight f4 [32, 3]
000000 c8 5c b9 bd 19 73 15 3f 3c 29 2c bf 95 a8 ac be
       -0.090509 0.5837875 -0.6725042 -0.33722368
000010 e6 26 6c be 3e 6b b0 3e 37 ca a9 bd 3c 4a 3b 3f
       -0.23061714 0.3445682 -0.082905225 0.7316015
000020 43 04 53 be 69 d4 7b 3e 62 83 91 be 53 f4 f0 bc
       -0.20607094 0.24592747 -0.2842055 -0.029413378
000030 d4 71 01 bf 2b 54 07 bf 87 80 b0 3a 37 a6 a6 be
       -0.5056431 -0.52862805 0.0013466039 -0.32548687
000040 eb 64 6f 3e c1 41 f9 3e 58 bd 90 be e6 fb 96 be
       0.23378341 0.4868298 -0.28269458 -0.29489058
000050 1a 2b 01 3f d4 df d8 3e fe 12 dd be 01 e7 1a 3f
       0.5045639 0.42358267 -0.43178552 0.60508734
000060 eb 37 9d bc 8d 13 05 bd bf 1b 27 3f 4d f6 9a be
       -0.019191703 -0.03248935 0.6527671 -0.30266038
000070 73 6e cb be ba 33 32 3e 5c 68 8f be 9e 13 47 3f
       -0.39732704 0.17402545 -0.28009307 0.7776431
000080 52 a6 9f be 80 d9 05 bb 55 bd 42 be c2 36 0f be
       -0.3118158 -0.002042383 -0.19017537 -0.13985732
000090 0a 98 c1 be f1 6d 39 3f 9b 05 25 bd 9e 46 54 3e
       -0.3781131 0.7243338 -0.04028855 0.20730063
0000a0 78 84 31 3c 5e 3a ee be 64 d4 1b 3e 6b 9b c6 be
       0.010834806 -0.46528906 0.1521774 -0.3879045
0000b0 f8 86 39 bd 06 36 00 bf 58 61 d1 3e 84 3f 01 3f
       -0.04529473 -0.50082433 0.4089458 0.5048754
0000c0 ec 85 d1 bc 56 81 57 be 18 53 05 3f b4 4d dc 3e
       -0.025576554 -0.21045431 0.52079916 0.43028033
0000d0 4b bc 9e be e5 4f e6 bd da 37 ba 3e bd 89 35 bf
       -0.3100303 -0.112457074 0.36370736 -0.70913297
0000e0 c5 ec 9b 3e a3 fc a9 bd 10 3b 82 3d a3 34 20 3e
       0.30454078 -0.0830014 0.063589215 0.1564508
0000f0 2e 67 2d 3e 03 fa 02 3f 0c 1c d7 be 08 c6 52 3d
       0.16933891 0.5116274 -0.42013586 0.05145839
000100 09 ba fb 3e d2 d3 ab be 97 d4 d2 bd 23 ed 84 be
       0.4916537 -0.33560044 -0.102944545 -0.2596217
000110 03 3a 18 3f d5 cb 1a 3f 50 d2 2e bf d4 ec 19 be
       0.5946352 0.60467273 -0.6828966 -0.15031749
000120 4a 34 eb bd 1e fe bc 3e 59 37 05 3f 37 ff fb 3e
       -0.11484583 0.36912626 0.5203758 0.4921815
000130 a5 44 0e 3d a2 ca 06 bf d8 58 f6 3d 6a 7a 67 be
       0.034733433 -0.52652943 0.12028664 -0.22605291
000140 8b aa 17 be 37 58 d0 3e d9 71 25 3f 03 66 3a bf
       -0.1481115 0.40692303 0.6462684 -0.7281191
000150 01 15 5d 3b 8d 19 ca 39 27 f7 76 39 14 4b 7e 3d
       0.0033734443 0.0003854748 0.0002355246 0.06208332
000160 ba 3a 88 3e ba a0 9c bc 2d 38 6e 3d 21 02 ce bd
       0.26607305 -0.01911961 0.058159042 -0.10059
000170 73 de 53 3f 64 10 87 3e 4e ba 3f be d3 d6 64 be
       0.82761306 0.26379693 -0.18723413 -0.22347574

in_layer.layers.0.bias f4 [32]
000000 1a 11 a3 3e 31 ca 46 3e 94 45 88 be 7d ce 48 be
       0.31848985 0.19413067 -0.26615584 -0.19610019
000010 ab aa 04 3f 7b 21 91 3e c8 6a 89 bc 93 23 e3 bd
       0.5182292 0.28345856 -0.01677455 -0.110907696
000020 25 d4 a2 be cd 2d 0a 3e 71 a1 43 be bf 41 70 3c
       -0.31802478 0.13494034 -0.19104554 0.014664113
000030 60 c1 3c 3d 74 c6 59 bb f2 f7 ed bd 03 16 b8 3e
       0.046082854 -0.003322986 -0.116195574 0.35954294
000040 ed 16 3e be a2 ea 64 3e 25 86 be 3e 88 4c 9e bd
       -0.18563433 0.2235513 0.3721172 -0.07729441
000050 8c 61 b1 bd 19 43 ac 3b c0 95 d6 3d b3 89 2b 3e
       -0.08661184 0.005257022 0.10477781 0.16751747
000060 40 4b 4f 3d 37 8d 09 3d 06 4d ed bd 56 c1 95 3e
       0.050608873 0.03358194 -0.11586957 0.29249066
000070 f0 69 83 ba 24 83 15 be 17 10 bb bd 58 a1 41 be
       -0.0010026079 -0.14600807 -0.09133928 -0.18909204

in_layer.layers.2.weight f4 [32, 32]
000000 0b 87 ba bd 86 5f 34 bd 67 e7 84 bb 31 2a ea 3c
       -0.09107789 -0.04403641 -0.0040559056 0.028584572
000010 8f 24 1c bd 37 b4 e6 bd f2 27 91 3c 77 02 32 bd
       -0.038120802 -0.11264842 0.017719243 -0.043459382
000020 59 2a 47 3c 54 6e a4 3a 47 1d aa 3b 08 86 25 3c
       0.012156093 0.0012545087 0.0051914784 0.010102756
000030 29 1f 05 bd e2 97 07 3d a3 1b b1 3c ce d0 25 be
       -0.03250042 0.03310383 0.021619624 -0.16192934
000040 df f8 1c bc 12 3a ba bd 17 e6 c1 3c 4d 8b f5 3c
       -0.00958082 -0.09093107 0.023669286 0.02997365
000050 fa 01 a3 bc 51 e4 de bc 7f e3 5d bd 98 cd c4 bd
       -0.019898403 -0.02720848 -0.054172035 -0.096095264
000060 20 ed bb bd 12 ce 38 3d a5 8c c1 3c 32 8b 2d be
       -0.091760874 0.0451184 0.023626635 -0.1694763
000070 b1 9b b8 3a 77 97 00 3b 27 03 6b bd 7e 1b 29 3d
       0.0014084486 0.001962153 -0.057376053 0.041285984
000080 c9 1a 1b 3c 06 a5 6d bb 00 9d 8d 3b 67 cb 2f bb
       0.009466835 -0.0036261692 0.0043216944 -0.0026824118
000090 fd 9e 3f bb 0c 30 ba 3a a3 7b 00 bc e5 95 b8 ba
       -0.0029239052 0.0014204993 -0.007841977 -0.0014082758
0000a0 80 b9 09 bc 23 6e 78 bb f9 48 50 3c d0 f1 0d bb
       -0.008406043 -0.0037907443 0.012712711 -0.0021659024
0000b0 35 ad 62 3c ef b9 ee 3a ce 2c 53 bb 36 91 0d 3c
       0.013835241 0.0018213372 -0.003222275 0.008640578
0000c0 68 81 95 bb ff 49 29 bd 5b b7 4c 3d ac ca c7 b9
       -0.0045625456 -0.041330334 0.04997955 -0.0003810724
0000d0 01 ba ad 3b 08 d0 ca 3b 68 f3 9e bb 93 52 c1 3c
       0.0053017144 0.00618935 -0.0048507936 0.023598945
0000e0 cb 7f 0e 3b f1 8d d8 3b 7d ad 0e bb 9c 29 b0 bc
       0.002174365 0.0066087176 -0.0021770888 -0.021504216
0000f0 36 8e 56 39 17 22 31 3b 38 3f a7 bb ed a3 c7 ba
       0.00020461608 0.0027028376 -0.005103972 -0.0015231349
000100 31 f4 c3 be 5e a3 68 3e b2 ac 15 be 91 df d2 bd
       -0.3827224 0.2271857 -0.1461666 -0.10296548
000110 8b 04 fb 3c 17 a7 f9 3d 3a 00 0b 3e 74 a6 c3 3c
       0.030641815 0.12190073 0.13574305 0.023883082
000120 39 e7 43 3e 4d bf 49 3e af 7b 25 be f8 7a 7c bd
       0.19131173 0.19701882 -0.16160463 -0.06164071
000130 9e b2 49 3c cc 7e 22 be 4a 8a b4 bd c9 08 6c 3e
       0.012310652 -0.15868682 -0.08815439 0.23050226
000140 f3 65 66 3e a5 21 1a be df 96 3d bd d0 b4 45 3d
       0.22499828 -0.15051897 -0.04628646 0.04826814
000150 f8 70 78 be 30 01 58 be 30 84 ed 3d ec 20 62 be
       -0.24261844 -0.21094203 0.115974784 -0.22082871
000160 65 23 6b bd 30 cb be be aa f0 9e 3c 02 54 f5 be
       -0.0574068 -0.37264395 0.019401867 -0.47915655
000170 53 27 f5 ba 66 6d be 3d d4 11 4a 3e 62 29 ad bd
       -0.0018703736 0.0929821 0.19733363 -0.08455159
000180 5c a6 d1 bc a7 fa 8f ba 2a 90 4d bd 6c a8 33 bb
       -0.025592022 -0.0010984734 -0.050186314 -0.002741362
000190 27 11 41 bb 18 8f 8e 3c 79 e5 c3 bc 25 02 ba 3d
       -0.0029459686 0.017402217 -0.023913132 0.0908244
0001a0 f3 5d 96 bc 95 83 03 3c 69 51 1a 3d 98 02 59 bb
       -0.018355345 0.008026977 0.037675295 -0.0033113118
0001b0 6e 28 21 3d 15 fc 19 bc ba a3 c6 bb 3b 53 40 3d
       0.039345197 -0.00939848 -0.006061998 0.046954375
0001c0 2a 4c ec bb 0e 57 08 3e 53 1b 14 bc a9 b8 10 bc
       -0.007211228 0.13314459 -0.009039718 -0.008833089
0001d0 b8 48 c1 3c 70 8d 06 3b 4d a9 2d 39 d8 61 77 bd
       0.023594245 0.002053108 0.00016561635 -0.060396045
0001e0 9c ae 0a 3c ab b6 ea 3c d4 f2 91 3a bb 51 78 3d
       0.008464482 0.028651556 0.001113499 0.06062482
0001f0 72 f8 8d 3b e1 81 b1 bb c2 68 d9 bb c2 3d 91 3b
       0.0043325955 -0.005417094 -0.0066348026 0.004432411
000200 b3 6a 5f bc e2 9e b3 3b a2 e9 5f bb 13 f5 df 3a
       -0.013636279 0.005481587 -0.0034166356 0.0017086588
000210 ac 0f 63 3b 54 83 e7 3b a5 b4 cc 3b 0b b9 55 3c
       0.0034646792 0.007065216 0.0062471204 0.013044606
000220 2f 1c 87 3b c1 41 8a 3b 55 76 a4 bb 4e 31 f4 3a
       0.004123233 0.0042192643 -0.005018989 0.0018630417
000230 f5 4e e4 b9 ca b8 62 bb 3b b6 17 3b 6d ff 3a 3b
       -0.00043546376 -0.0034595006 0.002314939 0.0028533593
000240 29 16 64 3b 99 15 93 3c 71 76 c9 bc 74 60 a4 39
       0.0034803248 0.017954635 -0.02459261 0.0003135238
000250 94 00 9a bb e3 fa a2 bb 5c 55 e6 3b 13 54 71 3c
       -0.004699776 -0.0049737557 0.0070292186 0.0147295175
000260 51 13 47 3b d6 5d d8 bc 2e 4a 8e 3a af 0a 4f 3d
       0.0030376504 -0.026411932 0.0010855848 0.050547298
000270 59 8f 1e bb 66 6b 25 3a 62 c9 05 3c b3 41 c8 b9
       -0.0024194329 0.0006310254 0.008165689 -0.00038195922
000280 f8 1d 5e 3e 77 25 98 bd 99 dc 92 3d 63 f4 3b bd
       0.2169112 -0.07429021 0.07170982 -0.045887362
000290 82 1f 2f bc c0 2d fe 3b 3b 3f 26 be a9 21 90 be
       -0.010688664 0.0077569187 -0.16235058 -0.2815068
0002a0 94 8f 74 ba b3 d7 1a be 5a a9 7c 3e 25 f0 2b bd
       -0.0009329256 -0.15121345 0.24673977 -0.041977067
0002b0 c2 c2 19 3e 47 9c e4 3c cb 85 19 be 01 62 de 3d
       0.150157 0.02790655 -0.14992444 0.108585365
0002c0 06 b1 a7 bd 04 9d 1a be e6 b6 eb bd 35 6f ec 3c
       -0.081880614 -0.15098959 -0.115094945 0.028861621
0002d0 bc 50 58 3e ec a8 38 3e a8 0e 53 be 40 49 21 be
       0.21124548 0.18033189 -0.2061106 -0.15750599
0002e0 85 40 a2 3d 6b 4d 61 bd 61 a4 99 bc e7 68 61 3e
       0.079224624 -0.055005472 -0.01875514 0.22012673
0002f0 c7 c8 c4 ba c1 71 d4 3c 8a b7 ce bd 3f a5 c0 bd
       -0.001501345 0.025933148 -0.10093601 -0.09406518
000300 1c 45 e6 bc 48 07 bf bd 3d ea 90 be 65 69 56 bb
       -0.028109126 -0.09327561 -0.2830371 -0.0032716629
000310 cd 65 c7 bc 22 fb 18 bd 2c cf e0 bb b3 7a 10 3e
       -0.024340535 -0.037348874 -0.0068606343 0.14109306
000320 c2 c3 82 bc c0 d3 00 be 02 96 a7 be f7 90 7d bc
       -0.015962485 -0.12580776 -0.32731634 -0.015476457
000330 d6 3b 3f be 3b 01 1f 3e bb 33 6e bb 96 bd af be
       -0.1867517 0.15527813 -0.0036346752 -0.3432433
000340 88 1b bf 3c 6d b6 74 3e b8 e5 86 3e 6d bb 39 3d
       0.023328558 0.23897715 0.26347136 0.04534476
000350 5d 0b a0 bb db 4f 17 bd 8d 29 1a bb d8 8a 70 3e
       -0.004884167 -0.03694139 -0.0023523301 0.23490465
000360 36 1a 02 be 94 95 77 3e 70 22 c6 bb 48 3a 21 3e
       -0.12705311 0.24178153 -0.0060465857 0.15744889
000370 cc 46 5e 39 7f 2c 01 bd 44 bd b3 bd c6 c2 c7 3d
       0.00021197944 -0.031536575 -0.08776334 0.09753947
000380 d9 3a d7 bd 43 5a 21 bd fc 6e 76 bd 35 48 97 3c
       -0.10509271 -0.03939272 -0.060164437 0.018467048
000390 18 a7 09 bd f9 9b bd bd 63 09 e0 bd cb 5e 84 3d
       -0.03360662 -0.09258265 -0.109392904 0.06463393
0003a0 2a d3 c6 bd b3 33 b7 bd ef ce 47 be c3 c3 04 3b
       -0.09708245 -0.08945408 -0.19512533 0.0020258285
0003b0 a0 18 16 be cd 99 f5 3d 8b 10 1e 3d fc 35 ab be
       -0.14657831 0.11992226 0.038589995 -0.33439624
0003c0 d6 15 bb bd c2 5e 55 bc 19 a5 80 bd f2 81 7b 3d
       -0.09135024 -0.01302308 -0.0628149 0.061403222
0003d0 e0 d5 2b bd 88 93 95 bd 3d ae ab bd 08 1f 23 bc
       -0.041952014 -0.0730353 -0.08382843 -0.009956129
0003e0 d9 f4 09 bd 00 96 28 3e 67 8b 41 3c 2a 24 05 3e
       -0.03368077 0.1646347 0.011813021 0.13002077
0003f0 d4 03 95 bb 5c 63 92 bc 1f 7b 18 bd fb d0 0f 3d
       -0.0045475755 -0.017869644 -0.037226792 0.03511141

in_layer.layers.2.bias f4 [32]
000000 84 49 7a be d3 32 63 bc 20 42 a7 3d 90 10 ae bd
       -0.24442106 -0.013867098 0.08166909 -0.08499253
000010 cf ad da bc be 7f 2a 3e 41 0d aa 3c 5e 24 23 3d
       -0.026694207 0.16650292 0.020758273 0.039829604
000020 59 03 4b bd aa 86 34 bc a9 ca 25 bd 22 67 16 3e
       -0.04956374 -0.011018435 -0.040476475 0.1468778
000030 71 5b 66 3c cf bf db bd 07 45 bb bd cb 81 27 bd
       0.014059887 -0.10729944 -0.09144025 -0.040895265
000040 ea ba 49 bd 7f 7d 11 bd ff ba b5 bc 9c e6 b6 3d
       -0.04925052 -0.035520073 -0.022183893 0.08930704
000050 f1 5f e6 bc 2e 06 07 3c 8b 95 ac bd a4 25 8a 3d
       -0.02812192 0.008241219 -0.084269606 0.06745461
000060 93 c4 87 3c a8 c4 44 3d 2e e0 03 bd 5c 2b a3 bd
       0.016573226 0.04803911 -0.032196216 -0.079672545
000070 6b d4 b9 bb 20 ca 24 be 24 c0 c2 3d 46 c9 27 bd
       -0.005671074 -0.1609273 0.09509304 -0.040963434

gat_layer_1.layer0_1.0.input_linear_layer1.weight f4 [32, 32]
000000 49 d3 3a b9 d4 9c 31 b8 31 c9 fb 3a 00 c0 dd b9
       -0.00017817052 -4.2346146e-05 0.001920974 -0.00042295456
000010 e6 be 9f b9 72 bd 93 3a bb 5d 2b ba ac e7 4e ba
       -0.00030469074 0.0011271669 -0.0006537099 -0.0007892798
000020 e0 bc 6d 39 09 96 a1 b9 01 a6 41 39 b4 9a 4f 3b
       0.00022672443 -0.00030820098 0.00018467756 0.0031677904
000030 83 6f 6f 39 90 26 ca 3a 8c 88 c9 b9 d2 51 cb 39
       0.00022834358 0.001542287 -0.00038439443 0.00038780138
000040 18 9b 9e b9 9d fe 28 39 38 ce 79 39 68 64 94 b8
       -0.00030251662 0.0001611658 0.00023823313 -7.075892e-05
000050 31 fc 81 39 95 5a 7b 3b 9a 76 99 3a 09 fd 1b 3b
       0.00024792695 0.0038353552 0.001170832 0.0023801944
000060 af 01 30 3b 9d be dc 3a d0 ab 3b 3a 57 3c 1b ba
       0.0026856472 0.0016841475 0.0007159086 -0.0005921772
000070 a9 42 b7 38 02 7e be 39 cd 4b 09 ba 81 e4 d1 39
       8.7385364e-05 0.00036333507 -0.00052374305 0.00040033835
000080 75 c7 8d b8 f9 b4 0e 37 33 1b 90 b9 46 83 0e 36
       -6.760556e-05 8.5059955e-06 -0.00027486085 2.123606e-06
000090 b4 a7 36 b7 bf d0 35 3a 17 78 14 b9 00 3e 91 b6
       -1.0887092e-05 0.00069357076 -0.00014159117 -4.3285545e-06
0000a0 54 c2 c0 b7 dd 01 fb b7 18 82 7e b8 18 52 2b ba
       -2.2978675e-05 -2.99224e-05 -6.067948e-05 -0.0006535365
0000b0 c4 14 b5 b7 e8 96 1b 3a 6e 26 a4 38 f4 6e d6 37
       -2.1586551e-05 0.00059352675 7.8272875e-05 2.5562455e-05
0000c0 10 2c ad b8 98 5e 96 b7 f4 68 55 37 a1 ca 4b 39
       -8.25749e-05 -1.7925442e-05 1.2720226e-05 0.00019435074
0000d0 84 aa a0 b7 d7 04 e7 b9 2e 77 47 b9 3e fb 6d 3a
       -1.9152889e-05 -0.0004406336 -0.00019022517 0.00090782705
0000e0 6b 35 f5 b9 9f f7 27 3a 3f 48 15 39 d8 00 7c 36
       -0.0004676984 0.0006407443 0.00014236661 3.7551417e-06
0000f0 5c ed e1 b6 e9 fe 2d 39 93 14 d0 37 5a a8 67 38
       -6.733155e-06 0.00016593527 2.4805113e-05 5.523148e-05
000100 be d6 a5 3b ec 0f e0 b9 51 74 5d 3c e0 5b 0d 3a
       0.0050609997 -0.00042736472 0.0135165015 0.00053924136
000110 96 8d 2d ba dd c7 d1 3b 8b b6 ad 3c 5b ba 6d bc
       -0.0006620524 0.0064019994 0.021205207 -0.014509763
000120 dc 9b 47 b9 61 44 0b ba 38 81 5a bb 1c 29 76 3c
       -0.00019036181 -0.00053126185 -0.003334118 0.01502445
000130 bf f6 47 3a 9e e4 5b 3c 5e 29 c4 bb dd 95 1d 39
       0.00076280156 0.013421206 -0.0059863767 0.00015028515
000140 fb 84 2b 3b 75 42 b1 38 ce 6a 05 b9 de 0f 69 3b
       0.0026171792 8.452396e-05 -0.00012723656 0.0035562436
000150 67 98 95 b9 64 f8 f0 3c d1 4e 16 3c cc 36 a0 3c
       -0.00028533043 0.029415317 0.009174065 0.01955738
000160 9e b2 71 3c 3a 35 4b 3c 34 f7 fc 3b 30 8b 42 3a
       0.014752058 0.012402827 0.0077198986 0.0007421253
000170 c4 3a 8e b9 a4 5c 0c 3c 5e 07 99 3a b5 59 0c 39
       -0.00027128134 0.008567009 0.0011675169 0.00013384859
000180 c5 56 99 ba 8d fb ab 38 cb db 73 bb fe 87 1b b9
       -0.0011698833 8.2007704e-05 -0.0037209864 -0.00014832613
000190 a5 59 06 39 f2 b1 43 bb 5a a2 1f bb 48 ab 62 3b
       0.00012812631 -0.0029860702 -0.0024358244 0.0034586955
0001a0 c8 7d a7 37 96 94 05 39 ea 2f 99 3a 11 45 8a bb
       1.9966523e-05 0.00012739221 0.0011687253 -0.004219659
0001b0 80 71 0c b9 fc 7e 7f bb 51 07 00 3b 96 ba a0 38
       -0.00013393722 -0.00389856 0.001953561 7.664149e-05
0001c0 bb e9 91 ba 9c cb 11 b9 6d fa 50 38 7a 0f d9 ba
       -0.0011132279 -0.00013904128 4.982429e-05 -0.0016560399
0001d0 32 4b 66 38 58 15 e2 bb c7 d7 38 bb 81 f3 b2 bb
       5.4906304e-05 -0.006899517 -0.0028204785 -0.005461157
0001e0 2a 36 88 bb 93 20 81 bb fd d9 2a bb d7 10 84 b9
       -0.0041568475 -0.0039406507 -0.0026069873 -0.0002518955
0001f0 5a a6 e5 38 36 ef 0d bb 9f bd de b9 6e f5 05 39
       0.00010950556 -0.0021657473 -0.00042484418 0.00012775298
000200 39 7d a0 bd 4e 6d 91 b9 b8 a8 d5 bc 09 63 0e 3b
       -0.07836384 -0.00027737994 -0.026081428 0.002172651
000210 eb 06 63 bb d3 05 11 3d 34 4d 37 3e 4f be cd bc
       -0.0034641575 0.035405945 0.17900544 -0.02511516
000220 f5 c1 77 38 03 d2 67 b8 42 8d 69 bc e0 b6 67 3c
       5.9070026e-05 -5.527028e-05 -0.01425487 0.014142722
000230 14 6b 88 3b 90 a7 01 3d e4 56 1c bd 36 b4 50 bb
       0.0041631553 0.03165394 -0.038168803 -0.0031845695
000240 49 9c f8 3b 92 e6 0c bb 7e 45 5a ba 1d d5 a9 3b
       0.00758699 -0.0021499735 -0.0008326395 0.005182876
000250 6e d0 4c 3a e0 bb af 3d 2a a6 7a bd 3a f0 8a bc
       0.0007813041 0.08580756 -0.061193623 -0.016960252
000260 ed 24 3f 3d 62 1c 08 3d 0e 74 b8 bb 08 78 3c 3b
       0.046666075 0.033230193 -0.005629069 0.0028758068
000270 fb a3 00 3b 17 85 6a bc 34 a9 92 3b 12 e2 e2 3a
       0.001962899 -0.014313958 0.004475737 0.0017309806
000280 99 cc 5b bd 89 f8 9c ba 06 84 fa 3d 74 a1 d7 39
       -0.053661916 -0.0011975925 0.12232213 0.00041128288
000290 fd e0 1d bb 3f f1 8d 3d 81 ee dd bb 94 df 43 bd
       -0.0024090402 0.0693078 -0.0067728166 -0.047820643
0002a0 96 3c 74 ba 17 b6 01 bb 1d a4 15 bc f9 8f 4b 3e
       -0.00093168893 -0.0019792372 -0.009133366 0.1987914
0002b0 2f 82 28 3b 2e a8 bd 3d 71 ff 33 bd c4 03 f2 bb
       0.002571236 0.09260593 -0.04394478 -0.007385703
0002c0 03 08 84 3c d0 bf 1a 39 22 0a d3 b9 71 f0 b2 3c
       0.016117102 0.0001475804 -0.00040252606 0.021843167
0002d0 a1 01 94 ba 7c ce 9f 3e 2d b3 8d 3d 46 e5 0a 3e
       -0.0011291989 0.31212223 0.06918941 0.13564023
0002e0 1f a4 21 3e 56 04 0c 3e 5f 32 8d 3d f2 a9 19 b9
       0.15785263 0.13673529 0.06894373 -0.00014654527
0002f0 50 bb 1d b9 e0 a5 ee 3c ef d2 a5 3b 9b 81 69 3a
       -0.00015042466 0.02913183 0.0050605456 0.00089075573
000300 c8 d0 a9 bd fc 64 2e b9 27 d9 3d bd a9 e0 1f 3b
       -0.08291775 -0.00016631553 -0.04634967 0.0024395382
000310 d6 8b 68 bb fd 7e 26 3d b5 80 a6 3d 33 96 88 bd
       -0.003548374 0.04064845 0.08130018 -0.06669273
000320 97 f9 4f 39 2c f3 16 3a 02 5f 92 bc bf e3 ac 3c
       0.00019834038 0.00057582813 -0.017867569 0.021104692
000330 05 d4 96 3b 2a 1e 0e 3d 82 2f 25 bd 73 ef 7a bb
       0.0046029114 0.034696735 -0.04032851 -0.0038289696
000340 43 fc 19 3c fa 4c 38 bb 4b a3 6f ba bd 83 48 3b
       0.009398523 -0.0028122053 -0.0009141459 0.00305961
000350 ab f6 9f 3a f1 bb 11 3d 5b ca 06 bc ea d2 99 bc
       0.001220425 0.035579626 -0.008226956 -0.01877733
000360 cb ae 40 3d cb aa b4 3c e7 d7 a1 bd 9b 67 5c 3b
       0.047041696 0.022054097 -0.07902508 0.003363109
000370 a0 86 27 3b 67 9d 10 bd bd cd 9e 3b 35 83 e4 3a
       0.002556242 -0.03530636 0.0048463033 0.0017434122
000380 57 b8 9e bd c6 2a 0b b9 c8 00 27 bd 48 ff 27 3b
       -0.07750004 -0.00013272007 -0.04077223 0.0025634337
000390 94 4f 68 bb 0c 2c 36 3d 8a 2b 61 3e 54 5f 04 bd
       -0.0035447823 0.0444756 0.21989265 -0.032317474
0003a0 a7 d4 83 39 d9 e7 6c 3a 34 41 a6 bc fe 4a 21 3d
       0.00025144705 0.00090372335 -0.020294763 0.03937816
0003b0 68 35 9d 3b 1b 41 38 bd c1 8c 58 bd f1 86 88 bb
       0.0047976263 -0.044983964 -0.05286861 -0.004166477
0003c0 93 05 10 3b 2e c4 4d bb fa 2f 7c ba cb 01 96 3b
       0.0021975979 -0.003139745 -0.0009620186 0.0045778505
0003d0 d3 10 bb 3a d9 92 97 3b 45 b9 d7 bd 76 26 c9 bb
       0.0014271982 0.00462566 -0.10533384 -0.006138618
0003e0 d9 64 8c 3d 06 52 0c 3d b3 dc 54 bd f7 ce 6b 3b
       0.06855173 0.03425791 -0.051968288 0.0035981515
0003f0 8e a0 39 3b 58 f4 d9 bd 0c 8d 9e 3b 09 b1 e1 3a
       0.0028324458 -0.10642308 0.0048385914 0.0017218898

gat_layer_1.layer0_1.0.input_linear_layer1.bias f4 [32]
000000 d5 b6 0c 3a fc dc 53 38 bb 19 9c 3d 7b 7a 7d bd
       0.000536782 5.0512128e-05 0.07622095 -0.061884385
000010 66 11 aa 3e 8e 18 48 3e db 34 b4 3e 87 49 ac 3e
       0.332164 0.19540617 0.35196576 0.33649847
000020 5c de 97 b7 6a c0 4f b8 90 e0 38 3e 04 0e b9 39
       -1.8104147e-05 -4.9531845e-05 0.18054414 0.00035296392
000030 a8 13 87 39 f9 e6 e7 b8 fd e8 9b b8 67 c6 85 b9
       0.00025763852 -0.000110579604 -7.4343734e-05 -0.00025515558
000040 66 88 11 36 62 ee d2 bd cd a3 f0 b9 89 86 09 3e
       2.1686078e-06 -0.10299374 -0.00045898408 0.13430227
000050 d4 ee c8 3e a8 45 b1 b8 d8 e1 aa b9 9f b1 93 3c
       0.3924471 -8.452992e-05 -0.00032593193 0.018029032
000060 7e dd c7 b9 5e 5e 9f 3e 56 a3 13 be 7e fd 09 ba
       -0.00038121262 0.31126684 -0.14417776 -0.00052639085
000070 05 b7 06 b8 15 88 6e 3e cc 79 cf b7 a6 ee 94 3e
       -3.211854e-05 0.23294099 -2.4733039e-05 0.29088324

gat_layer_1.layer0_1.0.input_linear_layer2.weight f4 [32, 32]
000000 27 9c f7 bd fd f6 15 3c 67 3d c3 bd 40 e5 cd 3b
       -0.120903306 0.009153125 -0.09533196 0.0062834322
000010 4e b9 11 3a e0 41 60 3e 90 7d 1a 3e c7 95 75 3e
       0.00055589236 0.2190013 0.15086961 0.23982917
000020 9c 1f dc 3a 7d 2d 8c 3b ec 72 65 3e b7 79 3d 3e
       0.0016794088 0.0042778836 0.2240712 0.18503462
000030 88 f1 b0 bb c4 40 9a 3e be 50 33 3e 9c b3 f6 3d
       -0.0053998865 0.30127537 0.1751127 0.120459765
000040 93 f6 84 3d 58 53 29 b8 7a 50 4c 3b 25 72 32 3e
       0.06492343 -4.037036e-05 0.0031175897 0.17426355
000050 0b ba 47 3c 03 24 a9 bd b6 06 c8 3d 7e ab 57 3e
       0.012190352 -0.08258822 0.09766905 0.21061513
000060 f4 8d d6 3d 22 fe 6e bb f0 45 f2 3d b9 07 ac 3b
       0.10476294 -0.0036467393 0.11829746 0.005249944
000070 2f 3e 21 3c 54 e3 de bc bc 6c 43 3d de fa 37 3a
       0.009841486 -0.027208008 0.04771112 0.0007018278
000080 ee 45 48 3b 26 44 14 ba b5 79 18 ba ca ad cb b9
       0.003055926 -0.0005655907 -0.00058164756 -0.0003884866
000090 38 51 08 b9 e8 0f 86 3b c2 b6 61 3c 2f 2e 37 3c
       -0.00013000227 0.0040912516 0.013776483 0.011180445
0000a0 4c 5c 09 ba 9b aa 1e 3a 5e 41 bf 3b 7c ce 1e 38
       -0.00052398886 0.0006052644 0.00583665 3.786244e-05
0000b0 0b bb b8 b8 9b dc 39 bb e7 ff c8 3a 96 31 9b ba
       -8.808643e-05 -0.002836025 0.0015335054 -0.0011840339
0000c0 65 4c ac 39 bc 7a 2a b9 68 4a b3 38 4e 71 b8 3a
       0.00032863315 -0.00016258185 8.5492444e-05 0.0014071853
0000d0 5b 4d 31 ba 58 7d 3d bb 9a 3e 1d bb 00 94 0c 3c
       -0.0006763541 -0.0028913822 -0.0023993612 0.008580208
0000e0 07 ce 82 3a 52 ed aa 3b 2b 51 56 bc ac bb 31 ba
       0.0009979614 0.005216279 -0.013080875 -0.00067799794
0000f0 55 eb 99 ba e3 bb 73 bc d7 a7 5b 3a 0c 32 cf 39
       -0.0011743108 -0.014876339 0.0008379197 0.00039519405
000100 55 06 94 bd be 0e 94 39 62 42 85 3d eb a6 cd ba
       -0.0722777 0.00028239744 0.06506802 -0.0015690004
000110 d9 79 23 bb 6d fa 87 ba b9 a4 ad 3c 3b 7a eb 3d
       -0.0024944453 -0.0010374315 0.02119671 0.11497923
000120 c0 de 0e 3a b9 d6 00 bb 7b 8b 80 bd 65 ae d2 bd
       0.00054500625 -0.0019659235 -0.06276604 -0.10287169
000130 52 14 93 3b 25 47 01 be 88 92 bb 3b ba d5 1f bd
       0.0044885064 -0.12624796 0.005724255 -0.039022185
000140 7a a6 6a bd 61 47 b0 ba e3 6b cd 3a 97 d5 0a bd
       -0.05728767 -0.0013449007 0.0015672412 -0.0338951
000150 bb c7 1d 3b 0f dd 58 3d ff 34 9a bb f3 c4 02 bd
       0.0024075347 0.052945193 -0.0047060247 -0.031926107
000160 29 e8 62 bd 0d 90 1b bd 95 f2 b3 bc 64 ba 7b bc
       -0.055397186 -0.037979174 -0.021966258 -0.015364263
000170 89 f8 ba 3b ea bf cb bd 61 40 00 bc 65 96 8e 3b
       0.005705897 -0.09948714 -0.007827849 0.0043514245
000180 16 d8 4f bd a9 8c 52 37 e6 a7 bd 3d 4d 45 e6 b9
       -0.050743185 1.2549725e-05 0.0926054 -0.00043920652
000190 04 85 c2 bb 13 63 43 3d 05 71 6d 3d 18 7a 8f 3d
       -0.005936267 0.047701906 0.057969112 0.070057094
0001a0 2d 15 80 3a 3d 42 ca bb 35 ee d4 3b a8 68 c5 3d
       0.0009771936 -0.006172447 0.006498123 0.09639102
0001b0 29 e8 b6 3b 7e 7c a8 bd ba 1b c1 3b 59 6f e9 bc
       0.005581875 -0.0822687 0.005893198 -0.028495478
0001c0 d2 7e 9f 3c ea 6a 75 3b 10 e8 0c 3b 9b 67 10 3d
       0.019469652 0.003744776 0.0021500625 0.035255056
0001d0 bc e7 c1 39 f6 17 76 3e 11 f2 51 3d af e0 62 3c
       0.00036984484 0.24032578 0.051256243 0.013847514
0001e0 9d c4 c2 3d 2f 7a 18 3d b4 5f 62 3d 22 e9 1f bb
       0.09510157 0.0372259 0.05526705 -0.0024400433
0001f0 f6 c3 f2 39 f5 a7 e6 3c fc 26 95 bb 8b bd b9 3b
       0.0004630384 0.02815626 -0.0045517664 0.0056683472
000200 e0 07 18 3b 82 29 e6 3a 25 2e b7 ba 5b ea ef 37
       0.0023198053 0.0017559978 -0.0013975544 2.860015e-05
000210 6f ad af 3a a2 35 ae b9 53 67 d2 3c be 3f 09 3c
       0.0013403128 -0.00033227826 0.025684034 0.008377014
000220 98 76 94 3a b7 85 eb 3a 87 70 bf 3a b3 32 35 3b
       0.0011326848 0.0017968927 0.0014605679 0.0027648627
000230 b6 ba 8b ba 43 c9 84 3b 22 59 39 3b 1a 3d b9 38
       -0.0010660503 0.0040523126 0.0028281887 8.8328685e-05
000240 e3 c4 cf b9 62 3f 32 bb 13 0c e9 3a 0e c6 2d 3b
       -0.0003962881 -0.0027198424 0.0017780088 0.0026515755
000250 bc 80 08 3b c9 00 a7 3b 9b 2a 7d bb ba 56 f8 3b
       0.0020828685 0.005096529 -0.0038630131 0.007578698
000260 27 d7 5f 3a 73 7b a1 3b 53 d0 d5 bb 93 fa 10 b9
       0.0008538835 0.0049280464 -0.0065250783 -0.00013826256
000270 e1 ff 12 3b 8e d0 e5 bb 1d 83 a6 b9 53 37 96 ba
       0.0022430348 -0.007013387 -0.00031759674 -0.001146058
000280 98 73 05 3e 9f 96 ba 3b e1 56 de bc cf da a8 bb
       0.13032377 0.005694225 -0.027141036 -0.005153037
000290 b5 f9 28 3c 25 08 86 bc 6f c4 31 be 46 d5 bd bd
       0.010313441 -0.016361305 -0.1736009 -0.09269194
0002a0 02 3b d4 3a d2 68 d4 3b a1 bd db bc 72 5f 0e 3e
       0.0016191902 0.006482222 -0.02682382 0.13903597
0002b0 8a 63 0b bc 30 63 9a bc c9 bd 15 ba 41 97 5b bc
       -0.008507619 -0.018846124 -0.0005712179 -0.013402761
0002c0 f8 c4 5a 3b eb b9 7e bb b1 a8 30 bb 8d e5 ff 3c
       0.0033381563 -0.003886814 -0.0026956017 0.031237388
0002d0 1b 02 c3 3b c5 8b 96 bd 56 4d 78 bd de 4e 3c 3d
       0.0059511787 -0.07350878 -0.06062063 0.04597365
0002e0 dc d5 de 3d 0f c2 46 3c 05 ea 61 bd ba 5e de ba
       0.10880634 0.012131228 -0.05515482 -0.0016965487
0002f0 94 7e 86 3b bc 20 31 3b f9 e2 ce ba d7 09 f9 bb
       0.0041044448 0.0027027568 -0.0015784196 -0.00760005
000300 3d ac 72 3d b9 d4 03 bb f4 45 98 bd a8 ef 21 3c
       0.05924629 -0.0020115806 -0.074352175 0.009883799
000310 5e 31 60 bb 9b 70 ff bd c0 ca 1c be da e4 a2 bd
       -0.0034209113 -0.1247265 -0.15311718 -0.07953806
000320 7a 0a 0b bb 3d c2 c7 ba 7f e8 69 bd 83 0e 50 be
       -0.0021215961 -0.0015240383 -0.05710649 -0.20318036
000330 a1 9d e4 3a b1 a0 8b 3c 7a 19 e1 bc 1d 0a 8f 3c
       0.0017441997 0.017044397 -0.027477968 0.017460877
000340 d8 f4 a8 bc 3d 15 b5 3b 09 36 93 3a f5 21 9d bc
       -0.020624563 0.0055262134 0.0011231314 -0.019181231
000350 4d 56 43 bb 9c f7 6f be a0 cb 0b bc 4a 8e 6b be
       -0.0029806078 -0.23434299 -0.008532435 -0.23003498
000360 96 e7 3b be 13 a3 cf bd 92 26 15 3d 17 d9 79 3c
       -0.18350062 -0.10138526 0.036413737 0.015249512
000370 f3 cb 98 bb 41 30 17 bd a8 20 59 3a 2f 14 39 3b
       -0.0046629845 -0.036911253 0.0008282759 0.002824079
000380 22 f2 7d 3d eb 04 f8 3a cd b0 9e bd 3a 35 b9 b9
       0.061998494 0.0018922364 -0.07748566 -0.00035325607
000390 db 8d bd 3b 27 db 3e bc af 2d 42 bd 46 98 bc bd
       0.0057847328 -0.01164893 -0.04740685 -0.09208731
0003a0 4c a6 08 ba 19 2e 88 3b a9 47 c4 bc aa 84 f3 bd
       -0.00052127684 0.004155886 -0.023959951 -0.11890538
0003b0 9c f6 64 bb f8 0c e7 bd fb f7 0d bd 94 e9 9e bb
       -0.003493703 -0.112817705 -0.03466032 -0.004849622
0003c0 d6 d8 9d bb 25 6c 55 bb d7 5c 1b b9 c3 63 20 bd
       -0.0048171086 -0.003256568 -0.00014816537 -0.03915764
0003d0 96 7f 89 3a ac e3 6d be d7 af 9d 3c bc dd b4 bd
       0.0010490294 -0.23231381 0.019248886 -0.08831355
0003e0 3a 4d e2 bd ad 64 8e bd da b0 95 bd 38 9f 68 3a
       -0.11049886 -0.06952796 -0.073091224 0.0008873823
0003f0 e4 1f 6b 3a d3 dd 03 3d 8b 30 7d ba f2 f2 7c bb
       0.00089692906 0.03219397 -0.00096584175 -0.0038596955

gat_layer_1.layer0_1.0.input_linear_layer2.bias f4 [32]
000000 09 75 83 3e 61 7d 98 bc 88 2f 3a be e4 fc 36 3c
       0.25675228 -0.018614473 -0.18182194 0.011168692
000010 a8 15 cb bc 9b 12 c5 bd 61 5e 1a be c9 81 ae bd
       -0.0247906 -0.09622689 -0.15075065 -0.08520848
000020 d6 f1 89 bc f3 3b 1f bd bc 1f b1 bd 93 d6 62 be
       -0.01683895 -0.03887553 -0.08648631 -0.22152166
000030 7d a0 93 bd 44 ed 2d bc 05 7c 26 be 1a 6d 79 bd
       -0.07208345 -0.010615651 -0.16258247 -0.060895063
000040 83 e3 4f ba b2 29 7f bc 22 0f dc bc 85 e9 80 3e
       -0.0007930325 -0.015573906 -0.026862685 0.2517816
000050 d9 eb 05 bd 7f e8 b0 bd 05 7e c8 3d ae 7c 81 bd
       -0.032695625 -0.08638095 0.09789661 -0.06322609
000060 72 cb e3 3d 4b 34 fa 3c 1e be 83 3a 43 f1 29 bd
       0.111227885 0.030542513 0.0010051166 -0.04148985
000070 33 a5 16 bd 92 f4 25 3d d2 be c4 3d 48 83 ad bc
       -0.03677864 0.040516444 0.096067086 -0.021180764

gat_layer_1.layer0_1.0.a_1.weight f4 [1, 32]
000000 95 a7 64 ba 20 f4 a9 39 9c d5 e9 bc a1 6a 3d 3d
       -0.00087224814 0.0003241608 -0.02854424 0.046244267
000010 09 70 67 be 83 cd f0 be 05 03 87 be 84 3b 90 be
       -0.22601332 -0.47031793 -0.2636949 -0.28170407
000020 0b e5 99 b5 9c 5c 77 37 23 96 f8 be 83 62 d2 b9
       -1.1466049e-06 1.474391e-05 -0.48552045 -0.00040127718
000030 95 54 bd b8 0e e6 2c b6 03 fb 3f 34 f4 ab fd b9
       -9.027977e-05 -2.5763907e-06 1.7879579e-07 -0.00048384035
000040 76 2d 99 b3 d2 87 9a 3d 30 1b 20 ba 75 bc be be
       -7.132887e-08 0.07545437 -0.0006107567 -0.37253156
000050 15 39 a1 be 42 20 f8 37 7e ed 16 39 0d 17 8f bc
       -0.31488863 2.9578925e-05 0.00014393587 -0.017467046
000060 72 0c 1e ba c5 1b 2f bf a7 05 ea 3d e3 69 b8 36
       -0.0006029076 -0.6840175 0.11426859 5.495954e-06
000070 34 53 aa b6 c1 2d 14 be fe 62 7e 35 fb 30 6c be
       -5.076081e-06 -0.14470579 9.4766426e-07 -0.2306556

gat_layer_1.layer0_1.0.a_2.weight f4 [1, 32]
000000 c2 d4 84 be 35 e0 58 39 29 c9 00 3e f0 61 80 be
       -0.2594357 0.00020682889 0.12576737 -0.2507472
000010 9f 2d 02 3b 88 da ac bb 2f 10 80 3e b8 d9 85 3e
       0.0019863618 -0.0052750744 0.25012347 0.2614267
000020 e4 0c 10 3b 68 4a 39 ba eb a9 09 39 c6 c3 7e 3e
       0.002198034 -0.00070682773 0.00013128638 0.24879369
000030 2a 48 ed b8 ba 99 8e be fb 7c bc 3d 24 19 8f 3d
       -0.00011314482 -0.2785166 0.09203526 0.06987217
000040 0d 8d c3 bc 59 c5 9f b8 3b 9d 2d 3a 24 f0 c1 be
       -0.02387097 -7.61847e-05 0.00066228554 -0.37878525
000050 33 af 9e b9 c1 2f a4 bb 74 d1 34 be 35 f1 ac bc
       -0.00030266642 -0.0050105755 -0.17658025 -0.02111111
000060 e2 f1 40 be 92 1e f8 bd ba 34 08 bd 4c 46 e2 3d
       -0.18842271 -0.12115206 -0.03325341 0.11048564
000070 b1 28 e1 3a 44 c0 67 be 6a 3a a3 bd 23 de e6 39
       0.0017178265 -0.22631937 -0.07970126 0.00044034523

gat_layer_1.layer0_1.1.input_linear_layer1.weight f4 [32, 32]
000000 20 62 78 b8 b7 24 04 b3 ad cc 92 b7 fe 15 14 b6
       -5.9219194e-05 -3.0767037e-08 -1.7499866e-05 -2.206652e-06
000010 10 93 b3 b5 05 a0 09 b6 44 45 6c b8 23 38 79 38
       -1.337934e-06 -2.0507734e-06 -5.6331293e-05 5.9418508e-05
000020 93 d6 18 36 2f 46 15 b6 b2 d3 55 38 41 94 e5 b7
       2.2774664e-06 -2.2243582e-06 5.0980314e-05 -2.7367963e-05
000030 b7 ff a2 35 11 33 01 b9 a2 a3 5e 38 0f f8 12 b7
       1.2144363e-06 -0.00012321422 5.308132e-05 -8.760034e-06
000040 f5 84 1a b7 dd 56 41 36 d7 4d 47 36 c8 69 61 b7
       -9.210072e-06 2.8809802e-06 2.969862e-06 -1.3435674e-05
000050 a6 fb ca 35 a9 e4 eb 37 2b cc 06 b8 a2 b5 29 b9
       1.5123412e-06 2.8120661e-05 -3.2138236e-05 -0.0001618476
000060 ef f9 ba b7 2f 99 0c b9 d4 b2 a8 b8 01 51 73 b6
       -2.2289312e-05 -0.00013408506 -8.0441736e-05 -3.6256972e-06
000070 e5 d0 87 36 8b d2 9f b8 08 ef 4f b6 c2 e0 bb 36
       4.047632e-06 -7.6209275e-05 -3.0984538e-06 5.5991995e-06
000080 60 7f 50 b7 cc 83 7f b5 27 02 97 37 35 00 79 b7
       -1.2427423e-05 -9.518669e-07 1.8001605e-05 -1.4841605e-05
000090 5e 7e 90 b7 65 eb 63 b8 c6 39 fa b7 a5 6f 28 38
       -1.7224982e-05 -5.4340246e-05 -2.9829225e-05 4.01583e-05
0000a0 f2 0b 39 37 33 2e 5e b7 8c a1 ea 38 55 ea b0 37
       1.10296405e-05 -1.3242988e-05 0.0001118808 2.1089954e-05
0000b0 c2 5f 87 37 83 6b 4d b9 e9 f7 ce 38 ba 98 82 b8
       1.6137845e-05 -0.00019590375 9.869022e-05 -6.2273306e-05
0000c0 17 2d b4 b8 36 c9 0f 37 55 87 19 37 df 03 06 b9
       -8.5914675e-05 8.570312e-06 9.15102e-06 -0.00012780678
0000d0 18 1e e2 36 23 04 5b 38 cd 54 d3 36 a4 5b 9c b9
       6.7388282e-06 5.221752e-05 6.298162e-06 -0.00029822916
0000e0 96 ad 8e 37 47 8b 6c b9 6a f1 a3 b8 dd 5d 0c b8
       1.7008551e-05 -0.00022558599 -7.8174126e-05 -3.3466018e-05
0000f0 2f 40 e0 36 38 3d 95 b8 3b b8 af b7 89 65 b5 37
       6.683192e-06 -7.1162765e-05 -2.0947415e-05 2.1624162e-05
000100 77 5b f8 b8 af d3 4d b4 ac 04 d0 b8 7d 7e 41 b6
       -0.00011842598 -1.9169123e-07 -9.919083e-05 -2.8832867e-06
000110 43 cf 17 b6 b9 0e 0d b7 5e 24 d8 b8 65 6e 6b 38
       -2.2621396e-06 -8.407683e-06 -0.000103064565 5.613118e-05
000120 8a 22 1f 36 55 82 59 b6 d5 8b e0 38 b8 4a 03 b9
       2.371295e-06 -3.2411383e-06 0.00010707198 -0.00012520968
000130 d2 1f 00 36 ab 1c 81 b8 8e 4c d6 38 71 b7 99 b7
       1.9092008e-06 -6.156539e-05 0.000102185746 -1.8324443e-05
000140 c3 7e bd b7 3e 5b c0 35 37 e4 46 36 cd d3 1a b8
       -2.2589584e-05 1.433167e-06 2.9637138e-06 -3.6913716e-05
000150 f3 8a db 35 05 2a bd b8 9c 0a d0 b8 af 14 08 b8
       1.6357211e-06 -9.020049e-05 -9.920189e-05 -3.244419e-05
000160 7f 8e f7 b8 08 f5 b9 b8 20 f8 ce b8 2a 3b b1 b6
       -0.0001180442 -8.867128e-05 -9.869062e-05 -5.2818987e-06
000170 79 40 7f 36 f7 eb b7 b8 b7 4e 65 b6 da 17 f5 36
       3.803549e-06 -8.770072e-05 -3.4169477e-06 7.3043457e-06
000180 58 6e e4 b7 49 29 91 b4 2b bc 10 b8 97 bc 8d b6
       -2.72311e-05 -2.7038394e-07 -3.450752e-05 -4.224082e-06
000190 95 6e b3 b6 58 e2 f0 b6 d6 56 a0 b8 b1 ad 85 38
       -5.347489e-06 -7.1789073e-06 -7.645569e-05 6.374287e-05
0001a0 c4 d1 da 36 c9 66 e5 b6 b5 05 8f 38 1a db 80 b8
       6.521326e-06 -6.8366976e-06 6.8198344e-05 -6.1443265e-05
0001b0 0a 5f ca 36 59 cf 2f b9 61 25 9b 38 73 8a 54 b7
       6.031133e-06 -0.00016766544 7.397938e-05 -1.266842e-05
0001c0 4f a4 7d b7 6f dc 30 36 ae 42 ac 36 cc 7e ae b7
       -1.5118231e-05 2.6354353e-06 5.133762e-06 -2.080146e-05
0001d0 8d fe c8 36 eb a7 62 b8 72 92 f2 b7 ed 64 78 b9
       5.990098e-06 -5.4038985e-05 -2.8916842e-05 -0.00023688721
0001e0 53 7c 5c b8 2c c8 49 b9 ad 8b bb b8 8c ab bf b6
       -5.2567873e-05 -0.00019243424 -8.9428715e-05 -5.7122143e-06
0001f0 6a 7a fb 36 e4 12 93 b8 f7 8d b9 b6 8e 37 9d 37
       7.494634e-06 -7.013025e-05 -5.5299565e-06 1.8741728e-05
000200 31 78 7c 39 a0 fe 0c 37 14 42 bd 39 86 85 81 38
       0.00024077368 8.403935e-06 0.0003609812 6.17607e-05
000210 b7 64 78 38 b8 5d 9c 3a 4f d2 a9 b9 d8 ca a6 b9
       5.9221606e-05 0.0011929786 -0.00032390884 -0.00031813118
000220 0c 3c a7 39 26 0a f6 b7 89 18 99 b9 f4 3a 02 3a
       0.0003189746 -2.9330211e-05 -0.00029200714 0.0004967891
000230 70 da e3 37 93 7c cd 39 39 4b b3 b9 86 1e 81 39
       2.7162227e-05 0.00039193462 -0.00034197586 0.0002462754
000240 f5 48 9c 39 b1 bf 88 b8 2f d5 97 39 87 2f e1 39
       0.00029808996 -6.520691e-05 0.00028959799 0.00042950755
000250 9d bf 69 39 cf 66 07 3a ec 56 a6 39 dd 5e fa 39
       0.00022291993 0.0005165161 0.0003172675 0.00047754394
000260 21 6a e0 39 1a 19 d9 39 81 10 a6 39 cc 33 91 39
       0.00042803682 0.00041408167 0.00031674284 0.00027695147
000270 9f fa 47 39 db 8c 9a 39 95 cc 1a 39 fb b3 d3 37
       0.00019071483 0.00029478114 0.00014762797 2.523697e-05
000280 12 0a 85 bd 80 cf d3 b9 73 bb c3 3d 56 7e b1 3b
       -0.064960614 -0.00040399656 0.095572375 0.0054166717
000290 3f af 2a bb 3a e1 ba 3c ee 45 13 bc 55 23 c0 bd
       -0.0026044396 0.022812475 -0.0089888405 -0.09381739
0002a0 6c 78 21 ba da 98 be ba 25 af aa bb 0b 2f dd 3d
       -0.0006159607 -0.0014541403 -0.005208867 0.10799988
0002b0 ee 6a 13 3b e2 a0 31 3d 82 e7 63 bd e2 64 b1 3b
       0.0022494155 0.04336632 -0.055640705 0.0054136375
0002c0 ec 72 ad 3b 7e 73 87 3a 74 84 0c bb fa 34 e3 3b
       0.005293241 0.0010334102 -0.0021441253 0.0069338055
0002d0 d7 ad 8b b8 d0 e7 3b 3e c6 97 b5 bc e4 3e 22 3e
       -6.660417e-05 0.18350148 -0.022167098 0.15844303
0002e0 59 f6 b8 3d 91 70 c4 3d 7b b9 99 3d c1 84 0a 3c
       0.09031362 0.09591783 0.07506081 0.008454503
0002f0 8f 89 9c b9 33 31 c8 3c 30 54 2c 3b 45 d2 18 3b
       -0.00029857128 0.024437523 0.0026295297 0.002331869
000300 04 09 db 38 a8 52 77 37 9b 1b f8 39 61 68 19 b9
       0.00010444413 1.4741592e-05 0.00047322814 -0.00014630101
000310 a7 f5 f7 b7 53 5c 24 b9 e9 b9 b4 b9 c7 61 5e b9
       -2.9559085e-05 -0.00015674652 -0.0003447079 -0.00021207995
000320 8a 9f cf 38 4d 5f 81 b8 7a 6b e5 36 9a 20 5e 3a
       9.900246e-05 -6.1689505e-05 6.8372437e-06 0.0008473486
000330 e3 ad 03 39 13 f7 24 38 a1 e1 4a b9 d4 82 e4 38
       0.00012557911 3.9330753e-05 -0.00019348275 0.00010896256
000340 ba 06 48 38 09 f9 23 b8 c1 b0 14 39 f2 9f a9 b7
       4.768998e-05 -3.909416e-05 0.00014180226 -2.022085e-05
000350 2f 59 6b 38 9d 3c 71 3a 26 5a b2 39 c0 56 4a b6
       5.6111425e-05 0.00092024525 0.00034017971 -3.015084e-06
000360 1c 22 29 3a 63 68 20 38 97 92 0e 39 86 9f 76 37
       0.0006451921 3.824419e-05 0.00013596784 1.4699885e-05
000370 59 4e 84 38 8d ed d8 38 c4 bf db b8 9a cf 4e 38
       6.308844e-05 0.0001034393 -0.00010478453 4.930757e-05
000380 55 b0 32 bc 04 0b 2a ba 48 72 0c 3e 64 de b5 3b
       -0.010906299 -0.0006486627 0.1371547 0.0055501927
000390 0b 15 29 bb 9b 3c b3 3c f1 42 10 3c f2 dc 7a bd
       -0.0025799896 0.021879485 0.008805023 -0.061245866
0003a0 89 98 3d ba 0e a9 cc ba 2c de 0a bc 9b a5 d2 3d
       -0.00072325073 -0.0015614347 -0.008475821 0.10285493
0003b0 5d 44 17 3b 55 44 8d 3d 6b 1f 5e bd dd bf d1 3b
       0.002308152 0.06897799 -0.05422918 0.0064010457
0003c0 ae cd e0 3b 83 0c 96 3a 26 e6 0d bb 39 81 03 3c
       0.0068604564 0.001144782 -0.0021652072 0.008026415
0003d0 5e e4 9a b9 17 77 85 3e c9 0d 89 bc 27 f3 02 3e
       -0.00029543316 0.2606742 -0.016730206 0.12788068
0003e0 54 68 bb 3d c5 ee ab 3d 83 f6 ab 3d ec e3 10 3c
       0.091507584 0.08395151 0.08396628 0.008843403
0003f0 2a 3f 05 ba c0 9d 21 3d 68 3c 3f 3b 6d 95 1b 3b
       -0.00050829595 0.039457083 0.0029180292 0.0023740188

gat_layer_1.layer0_1.1.input_linear_layer1.bias f4 [32]
000000 e8 28 e2 b8 f5 96 37 b9 17 4a 0a b9 fd 49 1e b9
       -0.00010784139 -0.00017508476 -0.00013188306 -0.00015095617
000010 53 6d 7a b9 4a 7b 0a 3e b3 ca fa b9 5b 9a 18 3e
       -0.00023882584 0.13523594 -0.00047834739 0.14902632
000020 aa 30 db b9 3e 71 fa 3d d8 dd b2 3d b9 80 8f 3c
       -0.00041807193 0.122286305 0.087337196 0.017517434
000030 46 e9 9b 38 c6 69 a5 b8 44 43 fd b6 d6 c5 88 ba
       7.4344265e-05 -7.887515e-05 -7.5478183e-06 -0.0010434936
000040 de eb 35 b8 55 18 5e 3e 84 72 bc b9 c2 f2 37 3e
       -4.337343e-05 0.2168897 -0.00035943475 0.17963699
000050 87 e0 55 b9 13 ba 46 b9 1f 02 1f 35 0c 38 47 3d
       -0.00020396906 -0.0001895207 5.92352e-07 0.048637435
000060 45 73 de b8 d2 7e 86 b8 a9 32 bf 38 50 89 b5 b6
       -0.000106072555 -6.41324e-05 9.117026e-05 -5.4102056e-06
000070 ab ef 7e ba d8 52 6b 3e b5 75 82 3e c7 f5 46 b8
       -0.00097250444 0.22980821 0.25480428 -4.7435777e-05

gat_layer_1.layer0_1.1.input_linear_layer2.weight f4 [32, 32]
000000 87 8c 32 3a 57 f7 06 ba 80 a8 a9 bd 99 fd 1a 3b
       0.00068111013 -0.0005148551 -0.08284092 0.002364969
000010 a8 b4 1e bb 2f 3d 37 be eb 8f 86 bc 7f 68 fd bd
       -0.0024216566 -0.17894433 -0.016426047 -0.12373447
000020 3e 9f 46 bb d6 c3 4f bb 0c 91 fd bd a2 24 66 bd
       -0.0030307318 -0.003170242 -0.12381181 -0.05618728
000030 6d 80 bc 3b 7e ed 43 3e 6a 14 ed bc 38 69 9d bd
       0.0057526142 0.19133565 -0.028940398 -0.076860845
000040 f7 f5 34 ba 79 4d a2 39 71 08 53 3b 0c 56 8a bd
       -0.00069031067 0.0003095677 0.0032201076 -0.067546934
000050 d6 cb 97 bb cf f5 26 3d 8e c3 bb 3d cd 80 5c 3e
       -0.0046324534 0.040761765 0.091681585 0.21533509
000060 a1 8b b2 bd ec 95 18 bc bf 79 5f 3d e1 38 d3 bb
       -0.08718038 -0.009313088 0.054559465 -0.0064459895
000070 5b ac a1 bb f9 56 b8 3b db 39 61 bd 92 3d 4a ba
       -0.0049338765 0.0056256023 -0.054986816 -0.0007714863
000080 10 0c ca 3c 81 74 57 39 1c 5b 27 3c b8 ae 93 b9
       0.024663955 0.00020547399 0.010214593 -0.000281682
000090 87 a0 da b8 e7 92 98 3d 65 18 a6 3d 37 56 7c 3d
       -0.000104249506 0.074498944 0.08110122 0.06160566
0000a0 08 b1 85 3a 1a 9b 58 3b 1c c8 12 3b 95 dc 7e 3d
       0.0010199854 0.0033051432 0.0022397107 0.062222082
0000b0 8e 99 f1 ba 50 49 62 3c 15 e8 9a 3c 14 ab dd bb
       -0.0018432604 0.013811424 0.018909493 -0.006764779
0000c0 f3 6a 0d 3c b6 82 3f bb 35 db e6 3a 1d e8 47 3d
       0.008631456 -0.0029222197 0.0017612936 0.048805345
0000d0 3f 7b 33 3a 19 13 0f bd 28 f7 58 bc 77 db 9e 3c
       0.0006846673 -0.034930322 -0.01324252 0.019391758
0000e0 74 b9 7d 3d 3c d6 18 bd 52 5d b5 bc 1f 59 73 b8
       0.06194444 -0.037313685 -0.022139225 -5.8018715e-05
0000f0 43 b8 2b ba 4f d5 9f bc 9e 77 4a 3b a0 f4 8e ba
       -0.00065505895 -0.019510893 0.0030894051 -0.0010906644
000100 ba 83 10 be a7 62 86 3a 12 17 52 3e 68 8d 39 bc
       -0.1411275 0.0010252789 0.20516613 -0.011325218
000110 86 35 40 bc ea be 99 bd c0 86 80 3d 67 d9 3d be
       -0.011731511 -0.07507117 0.062757015 -0.18539964
000120 bf c2 3b 3b c1 9e 0f bc b9 df f9 3d d2 ce a0 3e
       0.0028650013 -0.008765877 0.12200875 0.3140779
000130 b8 0a cb 3b fa 5b 11 bd a8 7b fd bd b7 ff 1c 3d
       0.006196346 -0.035488106 -0.12377101 0.038329806
000140 5f 23 a6 3c eb e1 b0 3b 8e 72 59 b8 71 70 56 bd
       0.020280538 0.0053980253 -5.184352e-05 -0.052353326
000150 48 fb 29 3a e2 d8 a2 3e d0 3b 42 3e 46 f0 4e be
       0.0006484282 0.31806093 0.18968129 -0.20208845
000160 c9 50 9e 3e 81 5c 27 3d 1f d2 3f 3d b2 b6 31 bd
       0.3092101 0.040859703 0.046831246 -0.043387122
000170 b7 99 b1 3a 59 70 10 3e de dd e2 bc 64 55 6e 3b
       0.0013549839 0.14105357 -0.027693685 0.0036366815
000180 af 23 a2 3d 93 7f 26 3b 60 68 32 bd 5f d0 0b bb
       0.07916962 0.002540563 -0.04355657 -0.0021333916
000190 41 9f 23 bc 57 ba cd 3d b9 7c c9 3d 8a dd 7d 3d
       -0.0099867 0.10045307 0.09838242 0.061978854
0001a0 c6 4f e3 3a 62 69 32 bc d0 e9 a3 bc 0b 17 bc 3d
       0.00173425 -0.010889383 -0.020008951 0.091840826
0001b0 67 e7 37 3c 14 5a 4b bd 89 37 af 3c e3 49 7d bd
       0.011224604 -0.049646452 0.021388786 -0.061838042
0001c0 58 41 f3 bc 2b 27 01 3c 57 39 c6 3b a0 16 30 3e
       -0.029694244 0.0078828735 0.006049316 0.17196131
0001d0 d6 a6 7b 39 51 ba 39 3d 04 c7 41 bd 6b ae 46 be
       0.00023999377 0.0453437 -0.047308937 -0.19402473
0001e0 bb 46 5f bd 17 22 8c bd 24 37 5c bd 79 20 26 bc
       -0.054510813 -0.068424396 -0.053763524 -0.010139578
0001f0 4c 7a 99 38 f4 9a 0f 3e 56 e3 35 bc b0 b9 34 3c
       7.318388e-05 0.14023954 -0.011101564 0.0110305995
000200 01 d1 33 3c 31 af af 3b 30 97 c6 bb 62 1e cf ba
       0.010975123 0.0053614606 -0.0060605034 -0.0015801901
000210 05 2f 83 3b a6 26 10 bb 11 1c 9c 3b 94 86 d5 3c
       0.004003408 -0.0021995693 0.004764088 0.026065148
000220 82 a7 47 3b 94 21 7c 3b cd df cf bb e0 dd 82 bc
       0.0030464833 0.0038472163 -0.006343818 -0.015974939
000230 dd 1d 5e bb 7d c1 f2 3b 0e 8f b3 3b 39 14 60 3b
       -0.0033892312 0.0074083195 0.0054797 0.003419174
000240 7c e9 dd 3b f0 e5 6c bb 13 8c f5 3a 4f a3 67 3c
       0.0067722183 -0.0036147796 0.0018733762 0.014138057
000250 3a 42 9c 3b 20 be f5 3c cc 38 f3 bc bc e9 9c bc
       0.004768637 0.029997885 -0.029690169 -0.019154422
000260 04 ed 2b bc 04 eb fc 3c a8 9b 13 bc 2b 6b ba ba
       -0.010493521 0.030873783 -0.009009279 -0.0014222612
000270 38 a3 ad 3b c2 0f 46 bc 56 47 84 ba a7 dc 67 bb
       0.005298998 -0.012088718 -0.001009206 -0.0035379322
000280 12 20 55 3e 6c 32 67 3b 9b 13 81 3d 3e e9 6d bc
       0.20813015 0.0035277857 0.063025676 -0.014520941
000290 60 0d 0f 3c 6b d3 2d be 1b 0a 8c be 1b 61 67 be
       0.008731216 -0.16975181 -0.2735146 -0.22595637
0002a0 bb 6f 14 3a e5 25 37 bc 7a 9d 02 be 2f c2 99 3d
       0.0005662401 -0.011178468 -0.12755385 0.07507741
0002b0 2e ef fb 3b 5d c5 72 3c 98 0e 46 be f5 b1 f7 3c
       0.0076884245 0.014817563 -0.19341505 0.030236224
0002c0 67 ba 4c 3d 04 73 d7 3a 15 3d b4 ba a6 b4 83 bd
       0.049982455 0.0016437476 -0.0013751114 -0.0643094
0002d0 c4 66 aa bb fe 61 1c be 1b 89 b8 3d 9f 0e 05 be
       -0.005200239 -0.15271756 0.09010526 -0.12993859
0002e0 05 05 81 3b f8 db 27 3c 4e 4f 09 3e e5 f5 0a bb
       0.003937366 0.010245316 0.13409159 -0.0021203693
0002f0 05 23 41 b9 73 e3 ea 3d f1 db 3f 3c a6 0f 03 bb
       -0.0001841896 0.11469164 0.011710153 -0.001999834
000300 33 1e f4 3d 78 46 2a 3b f6 69 67 bd 03 3c 65 3c
       0.119198225 0.0025981944 -0.056497537 0.013991359
000310 05 89 23 bc f6 2c ea bd 16 b9 88 be 7d 1d 47 be
       -0.0099813985 -0.11434357 -0.2670371 -0.19444843
000320 c2 a4 11 bb 0b e2 94 3a 61 71 17 bd 9b c1 cc bd
       -0.0022223447 0.001135887 -0.03697336 -0.09997865
000330 9e 59 91 3b 63 db 26 bd 1a 13 58 bd 0d ba 7a 3d
       0.004435732 -0.040736567 -0.05275259 0.061212588
000340 71 e2 14 bd e8 f6 ea 3b a0 57 51 3b 6e 7c 1f 3d
       -0.036348764 0.007170547 0.0031943098 0.038937025
000350 c5 30 11 3b 91 d8 b1 bd 07 a1 44 3d c8 2e 19 be
       0.0022154313 -0.08683885 0.04800513 -0.14959252
000360 5f 69 01 be df 28 83 be 69 0c 49 bd bd 7d 28 3d
       -0.12637852 -0.2561712 -0.0490841 0.04113554
000370 52 3d 43 bb f0 89 74 3c 50 73 a2 3c 07 30 09 3b
       -0.0029791188 0.014925465 0.019830376 0.0020933168
000380 e6 e2 ef 3d b8 34 8d ba 0a f5 e0 bc 35 cc 64 bb
       0.11713199 -0.0010773158 -0.027460594 -0.0034911756
000390 97 d5 8d 3c 18 d0 08 be 2b cc 16 bc 0d 50 58 bd
       0.017313762 -0.13360631 -0.009203951 -0.052810717
0003a0 17 0f 25 bb 5e ad 8f 3c 3c e5 f1 bd f8 c0 28 be
       -0.0025185996 0.017538723 -0.11811301 -0.16479862
0003b0 b4 a7 1c bc 0a 8c 2f be f1 f0 30 be 29 50 3b bd
       -0.009561468 -0.17143264 -0.17279412 -0.045730744
0003c0 10 9f 0c 3d cc ec 65 bc 45 09 0d bc f6 52 14 3d
       0.03433138 -0.014033508 -0.008608167 0.03621193
0003d0 fd 5f 1b 3b 74 34 db bd 97 74 c3 bb f3 ae d3 bd
       0.0023708337 -0.10703364 -0.0059648263 -0.10336103
0003e0 b1 f6 48 3d ec 08 b6 bd 55 6d 6b 3c 0b e5 63 3a
       0.04906339 -0.088884205 0.0143693285 0.0008693493
0003f0 db a1 d0 3b 2a 57 d0 bc cf c7 1e 3c b2 91 54 bc
       0.006366951 -0.025432188 0.009691193 -0.01297419

gat_layer_1.layer0_1.1.input_linear_layer2.bias f4 [32]
000000 68 95 c3 3d 92 a7 77 bd 30 28 f6 3d 51 47 df bd
       0.09549981 -0.060462542 0.12019384 -0.109022744
000010 fe 37 3f bc 6b f6 65 3c 10 82 70 be a1 a9 ab bd
       -0.011671064 0.014035801 -0.23487115 -0.083819635
000020 20 e1 02 bd e3 b4 c2 bd 1c 5b b0 bd 3d 4f 80 3c
       -0.031952977 -0.09507158 -0.08611128 0.015662784
000030 1c a5 9d 3c a9 1e 02 3d 1d f7 1d 3a 3f 2f b2 bd
       0.01924377 0.03176752 0.00060258975 -0.08700418
000040 0d c5 ed bd 16 87 28 3c d4 3f d4 bc d8 92 e5 bd
       -0.1160985 0.010286113 -0.025909342 -0.11209649
000050 b3 19 9c bd 6d 0a c0 bc 59 7e dc 3d ab 21 0b be
       -0.07622089 -0.023442471 0.107662864 -0.13587062
000060 57 67 bf bd a8 e8 c7 bc a5 d8 50 bd 65 5e ab 3c
       -0.093458824 -0.024402931 -0.05098786 0.020919034
000070 1c fd 9d bc 30 63 01 3e 61 9a 14 be f1 cf 14 3d
       -0.019285731 0.12635493 -0.14512016 0.03633112

gat_layer_1.layer0_1.1.a_1.weight f4 [1, 32]
000000 13 47 16 b6 06 54 8d b7 71 0f 85 b6 8b c1 33 b6
       -2.2393112e-06 -1.6847636e-05 -3.9655065e-06 -2.6785735e-06
000010 9a 17 b0 b9 87 13 0b be 79 61 ca b9 25 d7 09 be
       -0.0003358692 -0.13581668 -0.00038601065 -0.13460977
000020 03 62 3c b9 a8 7a b4 be 55 ba 0e bf 6d 41 c5 be
       -0.0001796559 -0.3524983 -0.5575307 -0.38526478
000030 10 9a d7 b3 79 93 15 36 41 f9 af 37 28 82 4d ba
       -1.00397415e-07 2.228857e-06 2.0977694e-05 -0.0007839524
000040 f5 68 25 b5 57 2e 16 bf c1 b3 01 ba c4 b0 10 be
       -6.162002e-07 -0.5866446 -0.0004947745 -0.1412993
000050 5c ab 25 39 21 a0 44 b6 be 19 af 36 5f bc 95 bd
       0.00015799463 -2.9299483e-06 5.218403e-06 -0.073113196
000060 48 04 bd 36 bd 80 7d b5 39 1d 33 b9 a6 54 2e b7
       5.6331373e-06 -9.4437183e-07 -0.00017081657 -1.0390917e-05
000070 45 e4 6f ba 95 3a 20 bf d5 79 f2 be 4a 02 9f 35
       -0.0009151141 -0.6258939 -0.47358575 1.1847089e-06

gat_layer_1.layer0_1.1.a_2.weight f4 [1, 32]
000000 03 da 8f 3c b3 82 a2 3a be f2 1c be 4f c3 96 bd
       0.01756001 0.001239857 -0.15326974 -0.07361471
000010 04 45 a4 37 90 de 36 bb 83 c1 b7 3d 4c 04 0d 3e
       1.9582461e-05 -0.0027903654 0.08972456 0.1377117
000020 62 85 04 3b 39 08 da ba 70 a8 2c bc 8d 6d 8d bc
       0.0020221104 -0.0016634531 -0.0105382055 -0.017264152
000030 0b 3b 80 ba af 17 cd bd 46 6e 57 3c 96 1a 3b be
       -0.0009783221 -0.10014283 0.01314885 -0.1827186
000040 57 e3 c8 bb 10 4a 0b ba 47 71 49 ba 32 46 f4 3d
       -0.0061306166 -0.00053134654 -0.0007684421 0.11927451
000050 0c fb 04 39 fa 2b c5 bc f9 7c 04 be 9f 63 89 bd
       0.00012682023 -0.024068821 -0.12938298 -0.06708454
000060 8c cd e0 bd 2d 57 f6 bb 9c 46 43 bd 9f 26 0e bd
       -0.10976705 -0.0075177164 -0.04767476 -0.0347048
000070 d4 bf 94 3a 4c aa cd bd e2 fc e8 3c 8a 79 e6 3a
       0.0011348673 -0.10042247 0.028440896 0.0017583829
