output/modelparams/dynamicLearning-CONFERENCE-SCUAU-DualSAT/epoch26_model_state_dict.pth (torch, 340117 bytes, 192 tensors)

in_layer0.layers.0.weight f4 [32, 2]
-7.397241e-05 -0.00016005055 -4.621613e-05 -0.00013305244 -0.18955003 0.27548727 -0.20078038 0.7196068
-0.26519653 0.2992121 0.000102804996 0.00017832288 -4.968769e-05 -0.00014220412 -0.18444149 0.31381595
-0.030075045 0.12799276 -0.5184804 0.081289336 -0.20611909 0.6694299 -0.3614615 0.5460201
-3.751991e-05 -6.4055064e-05 0.5461204 -0.071435526 -0.22174658 0.10609343 -0.22325951 0.7718308
-6.385542e-05 2.8388666e-05 -0.07340418 -0.14653227 -0.54758495 0.86637783 -0.00011222804 -0.000107220345
0.09008827 -0.3813239 0.12773749 -0.19885156 -6.6010565e-05 -0.00015072826 -8.484237e-05 -0.00015735166
-0.37652683 0.24029548 0.07986134 0.3471916 -4.3544464e-05 -0.00012283391 0.36937428 -0.44215482
0.10984698 -0.5337268 5.662173e-05 8.320159e-05 4.193666e-05 8.980918e-05 0.009010372 0.09261616
00000000: a321 9bb8 3ed3 27b9 31d8 41b8 fe83 0bb9
00000010: 6719 42be ab0c 8d3e 5f99 4dbe 2738 383f
00000020: d7c7 87be 5432 993e 0399 d738 2ffc 3a39
00000030: c067 50b8 a11c 15b9 3bde 3cbe 7cac a03e
00000040: f15f f6bc 8910 033e 22bb 04bf 067b a63d
00000050: e210 53be c25f 2b3f 7b11 b9be f9c7 0b3f
00000060: b25e 1db8 4d55 86b8 8cce 0b3f ca4c 92bd
00000070: 8911 63be 8347 d93d 249e 64be b496 453f
00000080: 1eea 85b8 3224 ee37 ee54 96bd 8e0c 16be
00000090: 872e 0cbf f0ca 5d3f f85b ebb8 7cdb e0b8
000000a0: 3380 b83d e33c c3be 9ecd 023e be9f 4bbe
000000b0: 276f 8ab8 cf0c 1eb9 67ed b1b8 c4fe 24b9
000000c0: 20c8 c0be 0510 763e 588e a33d 19c3 b13e
000000d0: 83a3 36b8 facc 00b9 a01e bd3e 1e62 e2be
000000e0: 74f7 e03d 52a2 08bf 1f7d 6d38 837c ae38
000000f0: 25e5 2f38 f057 bc38 3da0 133c 8bad bd3d

in_layer0.layers.0.bias f4 [32]
-0.00010711479 -0.000104984516 0.09394583 0.15404955 0.25551614 0.000119218734 -8.5266445e-05 0.009726473
0.01647847 0.49922785 0.35334554 0.42742303 -9.585271e-05 -0.42639056 0.16007444 -0.14901714
-6.948708e-05 0.08840508 0.5666498 -6.074081e-05 0.10311583 -0.070368916 -0.00011454049 -8.820881e-05
0.29447836 -0.15443741 -8.387612e-05 0.22563438 0.35407886 8.365021e-05 9.2901486e-05 -0.016210737
00000000: d1a2 e0b8 222b dcb8 ac66 c03d 2abf 1d3e
00000010: 03d3 823e 1205 fa38 13d1 b2b8 c95b 1f3c
00000020: dbfd 863c cb9a ff3e b5e9 b43e 31d7 da3e
00000030: 8804 c9b8 dd4f dabe 8eea 233e f397 18be
00000040: 98b9 91b8 b90d b53d f60f 113f f3c3 7eb8
00000050: 642e d33d 941d 90bd 7535 f0b8 bffc b8b8
00000060: dec5 963e d724 1ebe a6e6 afb8 b30c 673e
00000070: d349 b53e 5d6d af38 1bd4 c238 61cc 84bc

in_layer0.layers.2.weight f4 [32, 32]
6.3038795e-05 1.5479796e-05 -0.007169949 0.0025496522 -0.0017082045 -8.000624e-05 -2.146062e-05 -0.0071506375
-0.0048498143 -0.0012551423 -0.012445267 -0.00036582665 -2.9518684e-05 0.0120727075 -0.008492473 0.026339998
-1.428145e-05 0.004651317 0.026527097 0.00013188533 0.010099097 0.008957922 3.7026206e-05 -1.3038089e-06
0.00081623637 -0.005951016 -1.7931163e-05 0.071990915 -0.06363096 2.4708845e-05 2.9553306e-05 -0.0035639077
-2.9327563e-05 1.8102362e-05 -0.0018038227 0.0022115347 0.00060109573 5.5171913e-05 5.0232164e-05 -0.00490307
-0.0010049801 0.0005439192 0.009651862 0.00490551 4.4657114e-05 0.004082505 -0.0015934103 -0.008339634
3.322895e-05 0.0009480513 0.009190249 -0.00012011549 0.008925012 0.0018301783 -1.8836463e-05 1.2332872e-05
-0.0006438958 -0.0018516396 5.3813532e-05 -0.008918324 0.06978768 -3.7661102e-05 -4.872668e-05 -0.0009431926
0.00019366461 0.00025077845 -0.03416296 -0.013477551 0.0015683924 -0.00023130844 0.0002841732 -0.014031341
-0.007953149 0.006269493 0.15473048 0.022780107 0.0003594968 0.035951123 -0.0345355 0.06576633
0.00037315776 0.004791863 0.19913329 -2.1070742e-05 0.038327146 0.021451982 0.00037443353 0.00041448014
0.0063572517 -0.021409133 0.00027925387 -0.018406555 -0.07289692 -0.00037534512 -0.0003234523 -0.0043884683
-6.566007e-05 -0.00014438995 -0.018840527 0.004641049 -0.006514028 5.8215363e-05 -0.00019411735 -0.007478215
-0.0048904098 -0.001357202 -0.028474966 -0.0059064873 -0.00021306955 0.03404643 -0.016517557 0.07882511
-0.00018839774 0.0063260184 0.04732177 0.00012791116 0.03386643 0.01682511 -0.00017818446 -0.00020514897
-0.009230056 -0.013333457 -0.00019026837 -0.08733567 0.015032931 0.00021242043 0.00020567114 -0.0033920074
4.3333956e-05 2.6601536e-05 0.0647398 0.18257718 0.089157656 -5.41588e-05 -1.9823001e-05 0.07345082
0.010171755 0.1407395 0.18164589 0.12948419 -4.90057e-05 -0.049833573 0.034852754 0.19890344
2.6741585e-05 -0.00040421815 0.25205177 0.00029145024 -0.06474979 -0.02175018 -0.00011412949 -0.00014255918
0.11266973 0.024327854 6.4749493e-06 -0.23350649 -0.13968605 6.614891e-05 2.094928e-05 0.0017417988
2.8647619e-05 3.3182507e-05 3.6957532e-05 0.0017636785 0.0006028469 -3.1262338e-05 3.636862e-05 -0.00014587394
-0.00035811536 0.00064872653 0.0038575605 0.0028485828 3.501e-05 0.00028376904 -6.32481e-05 -0.00068889564
2.9850022e-05 0.000121465804 0.0050976835 1.2480627e-05 0.0010801452 0.000104597886 3.4682773e-05 3.6065736e-05
0.00033113477 -9.973533e-05 3.5718498e-05 0.030254908 0.0031284683 -3.504334e-05 -3.6114492e-05 -0.00035091562
1.4777815e-05 3.2224232e-06 0.00025714346 0.00071908714 0.00069155573 -2.3591401e-05 -7.5784446e-06 2.6493617e-05
0.00026288108 0.0006511511 0.0014994504 0.0012971928 -4.7242447e-06 1.104506e-05 0.00024882314 1.1614215e-05
1.9712768e-06 0.00010484156 0.0014699411 5.122251e-05 0.0002927754 -0.00012240346 7.268104e-06 3.8135038e-06
0.00043170142 0.000106933454 -6.7964247e-06 0.00545677 0.001443047 2.7005945e-06 6.1162623e-06 -4.8411814e-05
2.1447213e-05 5.2672767e-06 1.8937993e-05 0.00043129822 0.00040712373 -3.2519427e-05 -9.117771e-06 -0.00012484193
7.5585695e-06 0.00038605568 0.0010058524 0.0008301175 -7.2355897e-06 0.00015111269 1.8367715e-05 -0.00014656772
-1.7524433e-06 0.00017303103 0.0010875777 6.395863e-05 0.0003282247 6.134143e-05 1.1727353e-05 6.0090324e-06
0.00014714472 -6.659409e-05 -8.530152e-06 0.004660618 0.0011921376 4.4633803e-06 8.57453e-06 -0.00017172887
00000000: b233 8438 9cda 8137 e4f1 eabb 1118 273b
00000010: d5e5 dfba 06c9 a7b8 5506 b4b7 e54f eabb
00000020: 31eb 9ebb 9683 a4ba 3ce7 4bbc 6ccc bfb9
00000030: e49e f7b7 9bcc 453c 0324 0bbc fbc6 d73c
00000040: 5c9a 6fb7 136a 983b 5b4f d93c b34a 0a39
00000050: af76 253c 40c4 123c 964c 1b38 88fe aeb5
00000060: b2f8 553a be00 c3bb e16a 96b7 f96f 933d
00000070: f350 82bd d745 cf37 3ee9 f737 7390 69bb
00000080: 7604 f6b7 87da 9737 3f6e ecba 65ef 103b
00000090: da92 1d3a 6468 6738 60b0 5238 efa9 a0bb
000000a0: 89b9 83ba cd95 0e3a d822 1e3c 67be a03b
000000b0: 364e 3b38 89c6 853b fad9 d0ba f6a2 08bc
000000c0: 505f 0b38 a586 783a b392 163c 83e6 fbb8
000000d0: 373a 123c 98e2 ef3a ff02 9eb7 48e9 4e37
000000e0: 1ecb 28ba b7b2 f2ba d7b5 6138 291e 12bc
000000f0: d8ec 8e3d 4df6 1db8 e05f 4cb8 9540 77ba
00000100: 7312 4b39 ea7a 8339 76ee 0bbd f2d0 5cbc
00000110: 8492 cd3a 638b 72b9 15fd 9439 b6e3 65bc
00000120: ed4d 02bc 5270 cd3b ab71 1e3e 599d ba3c
00000130: d87a bc39 7c41 133d 1975 0dbd 7fb0 863d
00000140: 63a4 c339 0f05 9d3b 99e9 4b3e 13c1 b0b7
00000150: edfc 1c3d 11bc af3c 9e4f c439 954e d939
00000160: 7e50 d03b 3562 afbc d268 9239 58c9 96bc
00000170: fb4a 95bd f8c9 c4b9 0895 a9b9 24cd 8fbb
00000180: fbb2 89b8 6267 17b9 7357 9abc f113 983b
00000190: a173 d5bb 452c 7438 fb8b 4bb9 d00b f5bb
000001a0: bb3f a0bb 24e4 b1ba 5544 e9bc 358b c1bb
000001b0: 6c6b 5fb9 4574 0b3d d44f 87bc 0f6f a13d
000001c0: a28c 45b9 7d4a cf3b 79d4 413d e41f 0639
000001d0: 87b7 0a3d d0d4 893c 07d7 3ab9 421d 57b9
000001e0: a939 17bc 9274 5abc c782 47b9 0bdd b2bd
000001f0: af4c 763c 2dbd 5e39 6da9 5739 714c 5ebb
00000200: 7bc1 3538 5d26 df37 4d96 843d 83f5 3a3e
00000210: 4a98 b63d 9228 63b8 9249 a6b7 626d 963d
00000220: 6fa7 263c 041e 103e 6101 3a3e 8197 043e
00000230: 788b 4db8 4a1e 4cbd c3c1 0e3d 58ad 4b3e
00000240: 1e53 e037 3eed d3b9 ee0c 813e cacd 9839
00000250: 8a9b 84bd 6f2d b2bc ce58 efb8 f07b 15b9
00000260: 63bf e63d 354b c73c 6443 d936 531c 6fbe
00000270: dc09 0fbe 6db9 8a38 3cbc af37 124d e43a
00000280: 4b50 f037 722d 0b38 d902 1b38 3b2b e73a
00000290: 5f08 1e3a ae1f 03b8 828a 1838 bdf5 18b9
000002a0: 6ec1 bbb9 4d0f 2a3a 20cf 7c3b 4aaf 3a3b
000002b0: b4d7 1238 d6c6 9439 11a4 84b8 0197 34ba
000002c0: 6f66 fa37 75bb fe38 780a a73b e363 5137
000002d0: a993 8d3a 905b db38 5878 1138 4a45 1738
000002e0: 289c ad39 ff28 d1b8 72d0 1538 24d9 f73c
000002f0: fd06 4d3b 80fb 12b8 a479 17b8 19fb b7b9
00000300: 3bee 7737 cf40 5836 36d1 8639 1f81 3c3a
00000310: 8549 353a 26e6 c5b7 584a feb6 9c3e de37
00000320: 4dd3 8939 03b2 2a3a 3589 c43a 9106 aa3a
00000330: f484 9eb6 2c4e 3937 7a74 8239 acda 4237
00000340: 474a 0436 62de db38 0aab c03a c0d7 5638
00000350: a67f 9939 6e59 00b9 8ae0 f336 7feb 7f36
00000360: fc55 e239 7641 e038 d80c e4b6 b4ce b23b
00000370: 9f24 bd3a dc3b 3536 4b3a cd36 ca0d 4bb8
00000380: 8ae9 b337 90bd b036 08dd 9e37 de1f e239
00000390: 3973 d539 7865 08b8 87f8 18b7 00e8 02b9
000003a0: 9e9f fd36 8467 ca39 ced6 833a 3e9c 593a
000003b0: 3ec9 f2b6 0174 1e39 5e14 9a37 f9af 19b9
000003c0: 7e35 ebb5 aa6f 3539 0d8d 8e3a 8721 8638
000003d0: 9315 ac39 6ea4 8038 99c0 4437 32a1 c936
000003e0: dc4a 1a39 6ea8 8bb8 b91c 0fb7 19b8 983b
000003f0: 8041 9c3a 25c4 9536 53db 0f37 1e12 34b9

in_layer0.layers.2.bias f4 [32]
-0.0111086555 -0.022785498 -0.046101287 0.03417526 -0.20021553 -0.01566826 -0.0026312931 -0.002194771
-0.022759626 -0.010439518 -0.0035261475 0.08679616 0.024199752 0.16168517 -0.01703549 -0.0022861997
-0.0058383215 -0.00262169 0.0055929744 -0.2990645 -0.004643627 0.0025431954 -0.0009432021 -0.027725836
-0.0031964465 -0.038662042 -0.02022465 -0.0013863129 0.0007124685 -0.028999507 0.0053497376 -0.021953855
00000000: 1401 36bc a7a8 babc b4d4 3cbd 5cfb 0b3d
00000010: 4d05 4dbe b95a 80bc c671 2cbb 26d6 0fbb
00000020: 6572 babc 830a 2bbc f016 67bb 2fc2 b13d
00000030: 8f3e c63c cc90 253e 038e 8bbc 11d4 15bb
00000040: 644f bfbb a9d0 2bbb 4545 b73b fb1e 99be
00000050: 9129 98bb bdab 263b 3941 77ba 4b21 e3bc
00000060: 797b 51bb 175c 1ebd 2aae a5bc f1b4 b5ba
00000070: f4c4 3a3a 6090 edbc da4c af3b 92d8 b3bc

in_layer1.layers.0.weight f4 [32, 2]
-6.400742e-05 -1.51233e-05 0.41079074 -0.73399705 -0.24162124 0.5965167 -0.008022247 0.005498001
-2.8471253e-05 4.7285175e-05 -0.32005814 0.6920167 0.30945095 -0.58825845 -7.209061e-05 7.264271e-05
6.956069e-05 -0.00010069397 -0.247638 0.6468697 -0.13331379 -0.085340396 -0.25271907 0.08723465
-4.9782055e-05 5.812269e-05 4.1966498e-05 -5.425972e-05 -0.00011867742 8.9470166e-05 0.3773099 -0.7963577
-7.1816154e-05 9.073739e-05 -0.14450957 0.6237293 0.50455034 -0.7361139 7.892096e-05 -6.0141756e-05
0.0060471147 0.3934779 0.024022924 -0.40817016 7.536111e-05 -8.887692e-05 0.32315692 -0.253717
0.14434649 0.5395368 0.45519888 -0.6674063 1.5348753e-05 -6.0888808e-05 0.00018403286 0.00016006827
0.102555424 -0.23325297 -0.1426242 -0.10613576 -4.042224e-05 4.851043e-05 -3.9724084e-05 5.1060833e-05
00000000: b93b 86b8 14ba 7db7 2a53 d23e 3be7 3bbf
00000010: 8f6b 77be 52b5 183f be6f 03bc 9328 b43b
00000020: 8dd5 eeb7 1254 4638 a9de a3be 0228 313f
00000030: 5b70 9e3e 1b98 16bf 5a2f 97b8 c257 9838
00000040: 1ce1 9138 aa2b d3b8 d194 7dbe 4199 253f
00000050: 6983 08be f2c6 aebd 6564 81be 15a8 b23d
00000060: 13cd 50b8 c3c8 7338 2f05 3038 ee94 63b8
00000070: 74e2 f8b8 eea1 bb38 c32e c13e 19de 4bbf
00000080: 019c 96b8 444a be38 51fa 13be b9ac 1f3f
00000090: 362a 013f f671 3cbf 5e82 a538 b840 7cb8
000000a0: e026 c63b ef75 c93e b9cb c43c aefb d0be
000000b0: 300b 9e38 6f63 bab8 d374 a53e 32e7 81be
000000c0: 91cf 133e 151f 0a3f d40f e93e 24db 2abf
000000d0: 32c1 8037 dc62 7fb8 f2f8 4039 00d8 2739
000000e0: 9408 d23d ded9 6ebe 140c 12be b55d d9bd
000000f0: 0d8b 29b8 ad77 4b38 699d 26b8 272a 5638

in_layer1.layers.0.bias f4 [32]
-4.2690375e-05 0.17057014 -0.3099318 0.0042856666 4.9055875e-06 0.17488138 -0.13883445 -3.279156e-06
-7.933391e-06 0.37103257 -0.1069083 0.31854966 4.416012e-06 -2.9774133e-06 -1.6667265e-05 0.41769174
6.486291e-06 -0.14079683 0.20368542 1.306803e-05 0.03533532 0.1196889 -2.0869509e-06 -0.4855969
-0.5454814 0.12378244 -1.3587056e-05 -0.00035808858 -0.12766631 -0.19279867 3.7912508e-07 3.9165598e-06
00000000: 710e 33b8 f0a9 2e3e 62af 9ebe c76e 8c3b
00000010: ad9a a436 1b14 333e 9e2a 0ebe 790f 5cb6
00000020: a819 05b7 fbf7 bd3e bdf2 dabd f118 a33e
00000030: 412d 9436 92cf 47b6 aed0 8bb7 b1db d53e
00000040: d1a4 d936 0b2d 10be e992 503e c33e 5b37
00000050: c5bb 103d 741f f53d 8b0d 0cb6 28a0 f8be
00000060: aba4 0bbf a681 fd3d f6f3 63b7 d6bd bbb9
00000070: f5ba 02be 046d 45be 8e8a cb34 fe6a 8336

in_layer1.layers.2.weight f4 [32, 32]
-1.6503594e-05 0.045426764 -0.004787704 0.0004731615 0.000126312 -0.19820975 0.09038275 -4.7715976e-06
0.00015081216 -0.28160107 0.037193175 -0.017092029 8.0436585e-05 -0.00012112613 -0.00027534668 -0.03827841
0.0001688707 -0.08303662 0.077904195 2.5702842e-05 -0.075514264 0.03498149 0.00023111475 0.055708412
-0.022679819 0.010497447 -0.00024843388 4.189926e-05 0.027063493 0.043942597 4.8663795e-05 7.202494e-05
-1.3465845e-05 -0.00056528405 -0.00035326657 -0.00010880231 -6.474035e-06 -0.00023403579 0.00021636114 -1.8344132e-05
1.5615073e-05 -0.0004864872 1.2631281e-05 -0.00019900987 -1.0966337e-05 6.9970806e-06 -1.7335422e-05 -0.008751739
-1.4698713e-05 -0.000291469 0.007044607 2.0309351e-05 -0.00018270509 0.00014038497 1.029392e-05 4.8321202e-05
-0.00024309938 0.0019228751 6.686041e-07 4.428423e-06 2.1066106e-05 4.6097874e-05 -7.4280665e-06 -6.9189546e-06
7.269553e-05 -0.0013998197 0.00027644009 0.0004384523 2.6629872e-05 -0.00063957705 -0.00031276845 7.5150085e-05
-5.5898945e-05 -0.0009859711 0.0006759559 -4.075506e-05 4.96451e-05 -3.956131e-05 9.8006414e-05 -0.00052639825
7.001153e-05 -0.00030482927 0.00047831066 -8.4602274e-05 -0.0009256545 3.807497e-05 -5.952661e-05 0.0002096925
7.974619e-05 -0.00023765904 1.1868021e-06 -1.4175956e-05 0.00042919486 0.00068552134 4.1568383e-05 3.906336e-05
-3.6734355e-07 -0.23354526 0.112060025 -0.0063425964 3.7708807e-05 0.36235628 -0.27875558 -1.401548e-05
-1.0474325e-05 0.32434514 -0.055721447 0.16528796 3.128684e-05 -4.6489993e-05 4.877404e-08 -0.101312384
6.8545723e-06 0.32045725 -0.19836327 -1.5403391e-05 0.121002086 -0.08478425 2.9836056e-05 -0.23219246
-0.049164113 -0.118551776 3.1006402e-05 -0.00026286783 -0.17750186 -0.068149544 7.164481e-05 4.5743855e-05
2.1074218e-05 -0.0013249052 0.000362854 0.00015996363 1.0283026e-05 0.0008562953 -0.0006025656 2.9404588e-05
-2.2237518e-05 0.001581172 -0.00012911843 0.00030799117 1.7908133e-05 -1.1588456e-05 2.6035063e-05 0.005114817
2.1396405e-05 0.00057376944 0.0035239444 -3.2775224e-05 0.0005457197 -0.00027600647 -1.6654234e-05 -0.00026231373
0.0003177044 -0.0062495233 4.8201986e-07 -8.446505e-06 -0.00023360347 -0.00019791203 1.2829377e-05 1.1707208e-05
-1.7964251e-06 -0.0021342286 0.00037406333 1.50662145e-05 9.097666e-07 0.00055723084 -0.00029684737 1.9348968e-06
-2.183653e-07 0.0009710391 -0.0001295349 0.0002102186 1.3128512e-06 -2.2459773e-07 -2.8926632e-07 -0.0032809062
2.531338e-07 0.00042918528 0.0072882622 -1.2578128e-06 0.0004550174 -0.00017285829 -2.3339476e-06 -0.00013705634
0.0002388186 -0.0019027432 -1.2196226e-06 -1.0714652e-06 -0.00013617687 -0.00016523189 2.3737383e-07 1.5509349e-07
0.00014726182 -0.2839067 0.051803775 0.0033937565 -9.9319295e-05 0.018749528 -0.10382877 -2.8162567e-05
1.28820675e-05 -0.10998014 0.049104623 0.018047925 -2.3156499e-05 6.138939e-05 3.3149612e-05 -0.41936606
-6.129112e-05 0.029152025 -0.36160326 3.430642e-05 -0.13505958 -0.013816631 -2.9771863e-05 -0.011715435
0.021062305 -0.34573552 -0.000112657035 -3.0759467e-05 0.002755919 0.057818808 3.3835952e-06 -2.1548089e-05
0.00011821499 -0.11120609 0.024313739 0.0009519195 -2.5627554e-05 0.08703516 -0.07771474 -4.446185e-05
0.00011803411 0.23778811 0.013143794 -0.04110439 -1.1488454e-05 7.196092e-06 -0.00013262116 -0.19007397
5.7165078e-05 0.12628043 -0.10928488 2.8842634e-05 0.08721548 -0.13371122 0.00012134729 -0.045500357
-0.00030200055 -0.2008744 -8.152897e-05 2.0890111e-05 0.060546804 -0.06964088 -2.8671211e-05 -1.8629333e-05
00000000: 3371 8ab7 6a11 3a3d 2ce2 9cbb a912 f839
00000010: 9f72 0439 7ff7 4abe 971a b93d b61b a0b6
00000020: 5523 1e39 042e 90be df57 183d 9504 8cbc
00000030: 10b0 a838 1905 feb8 685c 90b9 d2c9 1cbd
00000040: e212 3139 1a0f aabd 3c8c 9f3d 6f9c d737
00000050: 39a7 9abd c048 0f3d 6557 7239 812e 643d
00000060: 07cb b9bc 7cfd 2b3c 3b40 82b9 fdbc 2f38
00000070: 42b4 dd3c 27fd 333d 5a1c 4c38 180c 9738
00000080: 5deb 61b7 922f 14ba a336 b9b9 cc2c e4b8
00000090: 8a3b d9b6 8167 75b9 00df 6239 b9e1 99b7
000000a0: 1dfd 8237 350f ffb9 f0ea 5337 4ead 50b9
000000b0: 0ffc 37b7 77c8 ea36 896b 91b7 7463 0fbc
000000c0: 7e9a 76b7 4fd0 98b9 72d6 e63b 005e aa37
000000d0: 8694 3fb9 4e34 1339 0db4 2c37 7fac 4a38
000000e0: 7ee8 7eb9 fb08 fc3a 207a 3335 dd97 9436
000000f0: 1eb7 b037 3759 4138 9b3e f9b6 5e29 e8b6
00000100: 1e74 9838 287a b7ba 29ef 9039 12e0 e539
00000110: 3763 df37 4aa9 27ba 12fb a3b9 e599 9d38
00000120: 0975 6ab8 b33b 81ba a232 313a 6af0 2ab8
00000130: 053a 5038 a2ee 25b8 cb88 cd38 fdfd 09ba
00000140: 27d3 9238 7ed1 9fb9 c5c5 fa39 806c b1b8
00000150: 9fa7 72ba b0b2 1f38 36ac 79b8 e7e0 5b39
00000160: 693d a738 1d34 79b9 364a 9f35 44d5 6db7
00000170: 8f05 e139 8fb4 333a b659 2e38 f7d7 2338
00000180: 5037 c5b4 7d26 6fbe ba7f e53d 8ed5 cfbb
00000190: 8629 1e38 c386 b93e 0db9 8ebe 0724 6bb7
000001a0: e2ba 2fb7 9110 a63e 2c3c 64bd 3f41 293e
000001b0: fd39 0338 40fe 42b8 a07b 5133 de7c cfbd
000001c0: 5400 e636 f912 a43e be1f 4bbe 8836 81b7
000001d0: f1cf f73d 5da3 adbd 7148 fa37 dcc3 6dbe
000001e0: 4f60 49bd 46cb f2bd df0c 0238 86d1 89b9
000001f0: 0cc3 35be fd91 8bbd 0440 9638 17dd 3f38
00000200: 8ac8 b037 71a8 adba 713d be39 e9bb 2739
00000210: 4385 2c37 0179 603a 7ef5 1dba dfa9 f637
00000220: b58a bab7 543f cf3a f763 07b9 e079 a139
00000230: 6c39 9637 0a6c 42b7 df65 da37 329a a73b
00000240: 6e7c b337 0469 163a faf1 663b 2178 09b8
00000250: a10e 0f3a f6b4 90b9 b2b4 8bb7 2787 89b9
00000260: 9091 a639 cdc8 ccbb 2764 0135 76b5 0db7
00000270: 74f3 74b9 9b86 4fb9 c13d 5737 136a 4437
00000280: b21c f1b5 6ade 0bbb ee1d c439 e6c4 7c37
00000290: af36 7435 2113 123a 2ea2 9bb9 46d9 0136
000002a0: cc77 6ab4 558d 7e3a c3d3 07b9 206e 5c39
000002b0: 3935 b035 f428 71b4 764c 9bb4 7904 57bb
000002c0: 72e6 8734 4604 e139 60d2 ee3b 1ed2 a8b5
000002d0: 678f ee39 4b41 35b9 eaa0 1cb6 c8b6 0fb9
000002e0: 616b 7a39 7865 f9ba eab1 a3b5 44cf 8fb5
000002f0: b3ca 0eb9 1942 2db9 d2e0 7e34 c687 2634
00000300: 4b6a 1a39 385c 91be 3230 543d c969 5e3b
00000310: a449 d0b8 9c98 993c 2ea4 d4bd a73e ecb7
00000320: 0f20 5837 453d e1bd ee21 493d 3ed9 933c
00000330: 3440 c2b7 2ebe 8038 200a 0b38 26b7 d6be
00000340: 6b89 80b8 3ad0 ee3c 1024 b9be 3de4 0f38
00000350: 0f4d 0abe 275f 62bc 97be f9b7 19f2 3fbc
00000360: db8a ac3c 3f04 b1be 4942 ecb8 ba03 01b8
00000370: a69c 343b 6ad3 6c3d b911 6336 2bc2 b4b7
00000380: 31ea f738 05c0 e3bd 9b2d c73c 3c8a 793a
00000390: c1fa d6b7 7d3f b23d e828 9fbd 8c7c 3ab8
000003a0: 1589 f738 ba7e 733e 1159 573c 145d 28bd
000003b0: 89be 40b7 f675 f136 3910 0bb9 c0a2 42be
000003c0: 89c4 6f38 a84f 013e c0d0 dfbd 16f3 f137
000003d0: 089e b23d 98eb 08be d57b fe38 955e 3abd
000003e0: d455 9eb9 05b2 4dbe 88fa aab8 2c3d af37
000003f0: edff 773d e19f 8ebd f582 f0b7 3046 9cb7

in_layer1.layers.2.bias f4 [32]
-0.121003956 0.0004942027 -0.0008571292 0.17727661 -0.002075501 -0.00068144244 -0.45054504 0.055756472
0.00078056625 -0.000451725 -0.00027104377 0.00021120274 -0.06760257 -0.004669494 -0.22167338 0.00074351474
-0.17921185 -0.0060246936 -0.00032034225 -0.00037965592 0.24097453 0.00015067462 0.048283353 -0.0008398623
-0.0002913381 0.00028117342 0.0016987452 -0.003471802 0.0014676164 -0.002210895 -0.0016572649 0.18213864
00000000: ecd0 f7bd 628d 013a f8b0 60ba 0088 353e
00000010: 2105 08bb d4a2 32ba d7ad e6be e660 643d
00000020: ea9e 4c3a 81d5 ecb9 e11a 8eb9 4e76 5d39
00000030: 3773 8abd 8e02 99bb 59fe 62be 6ee8 423a
00000040: 5083 37be cb6a c5bb 9cf3 a7b9 8e0c c7b9
00000050: 07c2 763e 69fe 1d39 c4c4 453d 342a 5cba
00000060: bdbe 98b9 756a 9339 6ea8 de3a 2c87 63bb
00000070: 095d c03a aae4 10bb 9538 d9ba 8d82 3a3e

in_layer2.layers.0.weight f4 [32, 2]
2.2888712e-06 4.4100576e-05 0.49497992 -0.39185104 0.00030501984 0.00015540676 0.024196645 0.59354144
-0.5815687 0.62916875 -7.913094e-06 -4.662988e-05 0.1344041 -0.14927696 -0.00023461501 -0.00015480172
-0.31206498 0.72558886 0.6357367 -0.1994002 0.00019119759 -4.328862e-05 -0.09720372 0.50211746
0.0005563251 0.00051663 0.09917225 -0.228928 -0.0012407296 -0.0011814432 -0.00091812614 -0.00095574034
-0.18773825 0.6152487 -0.00011974687 9.039269e-05 0.11689583 -0.21018864 -0.06808757 0.80964416
-0.09522328 0.6743403 0.08375694 -0.20131847 0.5646453 -0.41405237 -3.8243193e-06 2.8055204e-06
0.0005380407 0.00022419894 0.00012642962 -7.611826e-05 -0.0018605136 -0.0020011847 -8.321788e-05 4.4838795e-05
-0.000106844 6.396401e-05 0.6201804 -0.5706523 -0.00237294 -0.0024554008 0.00019348695 -0.00014420282
00000000: 829a 1936 a2f8 3838 026e fd3e b3a0 c8be
00000010: 12eb 9f39 aff4 2239 0b38 c63c 55f2 173f
00000020: b0e1 14bf 3411 213f 7bc2 04b7 7494 43b8
00000030: 3aa1 093e 0fdc 18be fd02 76b9 4552 22b9
00000040: fbc6 9fbe 31c0 393f a4bf 223f 912f 4cbe
00000050: 367c 4839 cd90 35b8 be12 c7bd c58a 003f
00000060: 58d6 113a 746e 073a d21a cb3d 1a6c 6abe
00000070: fa9f a2ba a8da 9aba 67ae 70ba a68a 7aba
00000080: 753e 40be f080 1d3f 9c20 fbb8 3591 bd38
00000090: 1567 ef3d b13b 57be 7f71 8bbd d744 4f3f
000000a0: 6c04 c3bd 91a1 2c3f c288 ab3d 6e26 4ebe
000000b0: 988c 103f acfe d3be a752 80b6 7946 3c36
000000c0: 4d0b 0d3a f216 6b39 3192 0439 aea1 9fb8
000000d0: 7adc f3ba 4f26 03bb 4285 aeb8 4a11 3c38
000000e0: 7011 e0b8 6b24 8638 25c4 1e3f 4516 12bf
000000f0: 5483 1bbb caea 20bb c2e2 4a39 2635 17b9

in_layer2.layers.0.bias f4 [32]
-5.7750392e-05 0.008095218 0.00014965911 -0.25610617 0.6378841 3.865987e-05 -0.07832413 -9.651011e-05
0.15550299 -0.43970686 3.7080365e-05 0.3141004 0.0005062037 0.08126437 -0.0011995445 -0.00091763795
0.21168114 9.576765e-06 0.04632754 -0.4830433 -0.26488894 0.08578454 0.0074610803 8.865398e-06
0.00033486797 -3.0566243e-05 -0.0018463588 3.457075e-05 3.100705e-05 0.29870152 -0.002410439 1.6350423e-07
00000000: 0339 72b8 cea1 043c d0ed 1c39 5920 83be
00000010: 5f4c 233f b826 2238 6768 a0bd 7965 cab8
00000020: 2d3c 1f3e 4221 e1be bd86 1b38 c5d1 a03e
00000030: c1b2 043a ef6d a63d 093a 9dba a48d 70ba
00000040: f1c2 583e e4ab 2037 f2c1 3d3d 7451 f7be
00000050: 869f 87be ceaf af3d 147c f43b 98bc 1437
00000060: 3891 af39 4134 00b8 8501 f2ba 0f00 1138
00000070: 910d 0238 68ef 983e 75f8 1dbb b38f 2f34

in_layer2.layers.2.weight f4 [32, 32]
-0.00019472466 -0.28782597 -0.00036612005 0.25153586 0.27089977 0.00015680869 -0.11976877 0.00043651534
0.16985269 -0.2673436 -0.00015430154 0.3203518 -0.0005999887 -0.14039531 0.0012476685 0.0010077892
0.12880884 5.7412344e-05 -0.14588168 0.33526552 0.23804806 -0.124564 -0.37123248 9.491969e-06
-0.00046525412 -0.00019509967 0.0021724938 0.00019770212 0.0001895491 -0.39502567 0.002520176 -8.8865796e-05
-3.5248425e-07 0.0018457343 -6.588919e-05 -0.0007061508 0.0015095132 -1.0811441e-06 0.00027301375 4.951551e-05
0.0006275307 0.0014215998 -3.320659e-05 -0.0012249395 -0.00013512907 0.000367305 0.00028146882 0.00021972375
-0.0005365515 -5.057512e-06 0.00035162107 0.00042818428 0.00010956053 0.00026653777 0.0027839553 6.783078e-07
-0.00012299133 -1.706064e-05 0.00034718102 8.056206e-06 1.2628703e-05 -0.0012412678 0.00044799873 2.0165178e-05
2.856458e-06 -0.0015709287 5.3333548e-05 0.0007365654 -0.0006146454 -1.1318996e-06 -0.0003912566 -4.140889e-05
6.394944e-05 -0.0015509523 2.5468378e-05 0.000721731 0.00011523082 -0.0005043227 -0.00025452883 -0.0001947031
0.00063798245 1.2497913e-05 -0.0004904597 0.00017163539 0.0003670528 -0.0003877766 -0.0014552426 -4.0097567e-07
0.000105187435 1.2586542e-05 -0.00032211244 -5.034167e-06 -8.684394e-06 0.0018067909 -0.0004186191 -3.098095e-05
9.139343e-05 -0.17945345 1.0543754e-05 0.11048356 0.20631891 -6.3626176e-05 -0.046755567 -5.5345725e-05
0.072544985 -0.210691 0.00017093237 0.17755437 -0.00030614418 -0.040135697 0.00094970793 0.000655428
0.1992894 -3.149027e-05 -0.05516248 0.08194033 0.12054846 -0.043822613 -0.22993883 -1.6682206e-05
-0.00016941711 6.7565525e-05 0.0014858068 -7.333918e-05 -6.561312e-05 -0.34505147 0.002113977 8.793341e-05
2.7282172e-06 -0.0005596315 4.9279268e-05 0.00070230267 -0.00101269 -6.9888614e-07 -0.00022286376 -3.8749495e-05
-0.0002738999 -0.00028499478 2.2891807e-05 0.00095346465 0.00010862814 -0.0003043494 -0.0002457173 -0.00018627061
0.0005830408 1.3204427e-05 -0.00028509062 -0.00016109792 8.529716e-05 -0.00021484155 -0.0005571917 -4.6735522e-07
9.924921e-05 1.1038816e-05 -0.00031847932 -3.9987463e-06 -7.3522747e-06 -0.0008907436 -0.00041342466 -3.400845e-05
-3.9765172e-07 -0.006961127 6.763717e-05 0.0005818017 -0.0017312989 1.918435e-06 -0.00030430022 -5.068088e-05
-0.00079426484 -0.0052007176 3.3857068e-05 0.000775396 0.00013837258 -0.0004189198 -0.000285066 -0.00022363279
0.00037562093 4.2819192e-06 -0.00041162103 -0.0005439234 -0.00020804301 -0.00030426815 -0.0057371072 -7.748968e-07
0.00012549176 1.77868e-05 -0.00034798495 -8.504424e-06 -1.325432e-05 0.009031865 -0.0004513258 -1.9394727e-05
0.00013470437 -0.25668848 0.0001759543 0.21585701 0.3513381 -0.00011764 -0.04666681 -0.00020342777
0.33315727 -0.23214802 0.0002867443 0.015272661 -0.00012595265 -0.07197598 0.0008638188 0.00047604987
0.15375786 -0.000101112404 -0.079110205 0.19587566 0.04055305 -0.049707912 -0.30290642 1.080533e-05
-4.8889575e-05 0.00019252884 0.0013084823 -0.00020765633 -0.00017752514 -0.30206695 0.0019805147 0.00012342843
2.7128228e-06 -0.00017159204 5.183499e-05 0.0006915821 -0.000882948 -8.3383964e-07 -0.00025636514 -4.04116e-05
-0.0001754175 0.00066138397 2.4480818e-05 0.0007693719 0.000112823865 -0.00034094774 -0.00025150663 -0.00019169363
0.0005541598 1.26125115e-05 -0.00031993957 -6.0260343e-05 0.00016712563 -0.00024776222 0.0014400084 -4.4507019e-07
0.000103006474 1.1959479e-05 -0.0003220003 -4.6020295e-06 -8.140096e-06 -0.0034629356 -0.00041806593 -3.22866e-05
00000000: 012f 4cb9 ed5d 93be cdf3 bfb9 4fc9 803e
00000010: 60b3 8a3e 036d 2439 5449 f5bd 19dc e439
00000020: dded 2d3e 43e1 88be 01cc 21b9 2705 a43e
00000030: 8f48 1dba cac3 0fbe cf88 a33a cb17 843a
00000040: 77e6 033e 09ce 7038 0262 15be eca7 ab3e
00000050: dfc2 733e 691b ffbd 2f12 bebe b23f 1f37
00000060: 5aed f3b9 ab93 4cb9 6660 0e3b 424e 4f39
00000070: b3c1 4639 ce40 cabe 8a29 253b 765d bab8
00000080: 113d bdb4 91ec f13a fd2d 8ab8 fa1c 39ba
00000090: dcda c53a d41b 91b5 4923 8f39 e0ae 4f38
000000a0: df80 243a f954 ba3a 4e47 0bb8 268e a0ba
000000b0: 6fb1 0db9 d892 c039 1b92 9339 a565 6639
000000c0: 5da7 0cba b3b3 a9b6 c859 b839 ec7d e039
000000d0: ddc3 e538 18be 8b39 0573 363b f514 3635
000000e0: 3cf7 00b9 721d 8fb7 d905 b639 2429 0737
000000f0: dedf 5337 09b2 a2ba 5fe1 ea39 6428 a937
00000100: 93b1 3f36 9fe7 cdba 76b2 5f38 1116 413a
00000110: 2820 21ba c6eb 97b5 9221 cdb9 75ae 2db8
00000120: 981c 8638 5349 cbba eda4 d537 8c32 3d3a
00000130: 13a8 f138 8634 04ba 4872 85b9 3729 4cb9
00000140: 473e 273a 21ae 5137 3192 00ba 06f9 3339
00000150: fe70 c039 7f4e cbb9 d7bd beba ad45 d7b4
00000160: 1398 dc38 c92a 5337 33e1 a8b9 2aeb a8b6
00000170: 30b3 11b7 d8d1 ec3a 1b7a dbb9 8bf1 01b8
00000180: 79aa bf38 a5c2 37be 14e5 3037 3445 e23d
00000190: 4445 533e 0b6f 85b8 c482 3fbd 0523 68b8
000001a0: 7792 943d 62bf 57be 4f3c 3339 d0d0 353e
000001b0: fa81 a0b9 5465 24bd d2f5 783a 07d1 2b3a
000001c0: 8512 4c3e 6c14 04b8 0df2 61bd 55d0 a73d
000001d0: 1ce2 f63d 577f 33bd 1675 6bbe c4f0 8bb7
000001e0: 8fa5 31b9 f7b1 8d38 67bf c23a accd 99b8
000001f0: c799 89b8 96aa b0be a68a 0a3b e468 b838
00000200: 6a16 3736 3cb4 12ba 36b1 4e38 bc1a 383a
00000210: 3dbc 84ba 179b 3bb5 89b0 69b9 f486 22b8
00000220: 399a 8fb9 5a6b 95b9 c807 c037 eef1 793a
00000230: 4acf e338 1691 9fb9 9ed3 80b9 a351 43b9
00000240: 35d7 183a 9588 5d37 3778 95b9 65ec 28b9
00000250: 90e1 b238 1747 61b9 8110 12ba d0e8 fab4
00000260: 0424 d038 5b33 3937 92f9 a6b9 f82c 86b6
00000270: 8fb3 f6b6 cb80 69ba ebc0 d8b9 4ca4 0eb8
00000280: d67c d5b4 2a1a e4bb 6ed8 8d38 0d84 183a
00000290: c0ec e2ba 76be 0036 7c8a 9fb9 2e92 54b8
000002a0: 3636 50ba c86a aabb c001 0e38 f243 4b3a
000002b0: 1b18 1139 77a2 dbb9 e974 95b9 f87e 6ab9
000002c0: fdee c439 68ad 8f36 d7ce d7b9 1596 0eba
000002d0: 1f26 5ab9 2e86 9fb9 58fe bbbb 8102 50b5
000002e0: 7096 0339 dd34 9537 c071 b6b9 39ae 0eb7
000002f0: df5e 5eb7 63fa 133c ec9f ecb9 dcb1 a2b7
00000300: 6e3f 0d39 ac6c 83be 5f80 3839 9f09 5d3e
00000310: 96e2 b33e 7eb5 f6b8 b225 3fbd 3a4f 55b9
00000320: 9793 aa3e 36b8 6dbe 2b56 9639 2f3a 7a3c
00000330: 2812 04b9 2568 93bd e671 623a 5596 f939
00000340: b372 1d3e 4f0c d4b8 8804 a2bd a193 483e
00000350: f41a 263d 869a 4bbd 8d16 9bbe 8a48 3537
00000360: c80e 4db8 91e1 4939 6181 ab3a 52be 59b9
00000370: 0b26 3ab9 85a8 9abe 86cb 013b 916c 0139
00000380: f10d 3636 63ed 33b9 6669 5938 4a4b 353a
00000390: a375 67ba 06d5 5fb5 bf68 86b9 a07f 29b8
000003a0: 47f0 37b9 ba60 2d3a 285c cd37 adaf 493a
000003b0: da9b ec38 3bc1 b2b9 a6dc 83b9 5e01 49b9
000003c0: 0945 113a 539a 5337 90bd a7b9 0dc0 7cb8
000003d0: 723e 2f39 15e6 81b9 aabe bc3a fbf1 eeb4
000003e0: 2e05 d838 92a5 4837 26d2 a8b9 226b 9ab6
000003f0: 7291 08b7 6bf2 62bb dc2f dbb9 796b 07b8

in_layer2.layers.2.bias f4 [32]
0.25763452 -0.0038567893 0.0014313697 0.1370844 0.0024243223 0.004423371 0.04275478 0.002672526
0.0025808485 0.16951546 -0.0030188814 0.13139701 0.0047484203 -0.05414918 -0.0020346676 -0.043744434
-0.003231684 -0.0006335257 0.0029063325 -0.0029235084 0.053496744 0.0030927446 0.0024843025 0.0017389259
0.0018275605 -0.0101064155 0.0006001603 0.0016510488 0.0020707673 0.0022026445 -0.0035902741 0.0020310914
00000000: ace8 833e 30c2 7cbb cc9c bb3a da5f 0c3e
00000010: 61e1 1e3b edf1 903b a31f 2f3d 8c25 2f3b
00000020: 7423 293b 7695 2d3e 6dd8 45bb f08c 063e
00000030: a398 9b3b 88cb 5dbd 0f58 05bb 5d2d 33bd
00000040: a9ca 53bb 3113 26ba 2b78 3e3b 5598 3fbb
00000050: 671f 5b3d a5af 4a3b aecf 223b acec e33a
00000060: c18a ef3a 6195 25bc 1354 1d3a 0168 d83a
00000070: b6b5 073b 3e5a 103b ce4a 6bbb 0f1c 053b

sat_layers.layer0_1.0.agg_weight f4 [3]
-0.13945207 -0.54818934 -1.0605372
00000000: 86cc 0ebe 2356 0cbf afbf 87bf

sat_layers.layer0_1.0.input_linear_layer1.weight f4 [32, 32]
-1.8923474e-06 3.849927e-06 0.00028902068 1.255996e-06 -3.200396e-05 2.5901152e-06 -1.0774645e-06 -9.205594e-07
-9.000196e-06 6.874268e-08 4.946558e-07 0.00028700635 0.00015211043 0.0002773712 5.1656266e-06 5.031392e-07
-2.414982e-05 3.2965193e-08 -8.089802e-07 -7.327989e-05 -3.7734475e-07 -4.7896276e-07 -2.592746e-07 0.0002963489
-3.655781e-06 -6.368264e-06 5.336197e-06 -1.0874389e-06 5.239332e-06 9.960459e-07 8.6359194e-07 8.303445e-06
-3.824533e-07 2.1022595e-07 1.9382173e-06 -3.0454482e-06 1.3768404e-05 -6.822248e-08 4.4507107e-08 -1.7285561e-07
2.1849337e-06 1.5412266e-07 -8.785272e-08 3.323152e-06 1.6302589e-05 1.3819267e-05 -1.3208881e-07 2.8546317e-08
2.8173283e-05 -2.258946e-07 -5.8764294e-07 1.4751307e-05 -2.4120257e-07 -2.776329e-07 -2.4049427e-07 6.270507e-07
7.9707274e-07 3.1100726e-07 6.5200265e-06 -1.4273846e-08 -1.2363594e-07 3.8746515e-07 9.705397e-09 3.1837794e-07
-0.0011612028 0.00045422465 0.0032606234 -0.0010381918 0.010281582 9.974749e-05 -0.00019053901 -0.00031338178
-0.0013166224 -1.8563665e-05 0.00017095015 0.0036588954 0.0075727124 0.0075393585 0.00049851346 0.00022365939
0.0054335436 -4.71665e-05 0.00036101657 0.00023707213 -0.00028467487 -0.00045994626 -0.00038633135 0.0015548064
0.00036097626 -0.00070044404 -0.0005395529 -0.00013554201 0.00025044708 3.299511e-05 0.0004942872 0.00042849063
-2.2491063e-06 -3.8650313e-07 3.7842037e-05 -2.1474658e-05 0.00021044747 -8.3114617e-07 3.3016187e-07 1.252993e-06
1.946598e-05 5.932978e-07 2.7791953e-07 5.8746147e-05 0.0002177706 0.00017557529 -8.6213356e-07 -5.057578e-07
0.00039004718 5.7412137e-09 -5.9905926e-07 0.00022968295 3.758641e-07 1.2203521e-06 4.9673514e-07 1.7385652e-05
1.1152218e-05 2.338028e-06 4.527824e-05 7.809062e-07 -1.2972854e-06 1.4785994e-06 3.1321844e-07 6.806193e-07
5.5716083e-07 4.1823466e-07 9.6896365e-05 1.7993858e-06 -1.0240246e-05 5.7044514e-07 -3.1246785e-07 -4.825747e-07
-1.6582585e-06 3.7145718e-08 -5.3407626e-07 6.963584e-05 6.1755068e-06 8.565542e-06 1.957429e-06 4.340807e-07
-2.8466045e-05 2.3478556e-07 5.9502315e-07 -2.111998e-05 -5.22427e-07 -5.002755e-07 -4.9050715e-07 0.00012480955
6.7368626e-07 -2.5805314e-06 -2.0860145e-06 -3.3401568e-07 1.1015217e-06 5.791347e-08 -1.4941743e-07 7.37178e-07
0.017044978 0.00015328222 -0.016170353 0.019592904 -0.11027141 0.0009216412 0.0014699353 0.0015687487
0.008999304 -0.00075547775 -0.0057044243 -0.10196165 -0.049560227 0.034579784 -0.0021078899 -0.0011519216
0.03840965 0.00025561624 -0.00084878923 -0.14546026 0.001173686 0.0014981057 0.0012148629 -0.06210786
-0.007187422 0.0041013197 0.0030662818 0.0013709223 0.0013522067 0.0024915044 -0.0021298693 -6.948372e-05
-0.001518312 0.0004555974 0.005247436 -0.0014657408 0.049073435 7.634152e-05 -0.00023161343 -0.00033250774
-0.0015618058 -1.130207e-06 0.0003379126 0.0071345796 0.0065056 0.0057961494 0.0005389885 0.00024028467
0.0036210772 -4.9961433e-05 0.00037270156 0.034969937 -0.0003078466 -0.000496242 -0.00039754302 0.002061357
0.0005412915 -0.00079122675 -0.000660067 -0.00016123914 0.00022393806 -1.4751337e-05 0.00055635656 0.00043131408
-5.0749245e-06 2.9378425e-05 0.00068911014 1.4436484e-05 0.000105950814 2.4674844e-05 -6.736333e-06 -8.718828e-06
-5.55455e-05 -2.2130089e-06 -5.6919407e-06 0.00061363867 0.00034191596 0.00045060503 4.2177897e-05 7.832902e-06
0.00014063333 1.4058219e-06 2.0534153e-06 5.5868302e-05 -5.3517133e-06 -8.273738e-06 -4.4667067e-06 0.00065069203
-2.0092542e-05 -5.4430253e-05 1.6443095e-05 -7.2518164e-06 3.766441e-05 6.859589e-06 6.159882e-06 5.1529893e-05
00000000: 90fc fdb5 9f2e 8136 b387 9739 b293 a835
00000010: fe3b 06b8 d7d1 2d36 669d 90b5 5c1c 77b5
00000020: 8cff 16b7 b09f 9333 7dc8 0435 5779 9639
00000030: d57f 1f39 226c 9139 6554 ad36 760f 0735
00000040: 5895 cab7 9d95 0d33 b228 59b5 d7ad 99b8
00000050: de95 cab4 1292 00b5 6e32 8bb4 475f 9b39
00000060: d755 75b6 f9ae d5b6 950d b336 1ef4 91b5
00000070: 85cd af36 e0af 8535 96d1 6735 064f 0b37
00000080: fb53 cdb4 78ba 6134 5212 0236 6760 4cb6
00000090: d8fe 6637 b481 92b3 1528 3f33 309a 39b4
000000a0: e0a0 1236 ea7c 2534 8ba9 bcb3 5103 5f36
000000b0: 8bc1 8837 4dd9 6737 4cd4 0db4 0436 f532
000000c0: aa55 ec37 6f8d 72b4 84be 1db5 627c 7737
000000d0: a17e 81b4 930d 95b4 481d 81b4 9952 2835
000000e0: 6cf6 5535 83f8 a634 9ac6 da36 0a39 75b2
000000f0: cac0 04b4 ce04 d034 cabc 2632 88ed aa34
00000100: 8033 98ba 0025 ee39 2fb0 553b f013 88ba
00000110: 1574 283c 872f d138 6dcb 47b9 644d a4b9
00000120: 8492 acba 2bb9 9bb7 1541 3339 14ca 6f3b
00000130: 8424 f83b b90c f73b acae 023a 1c86 6a39
00000140: de0b b23b a5d4 45b8 d346 bd39 9196 7839
00000150: 6a40 95b9 f124 f1b9 848c cab9 a5ca cb3a
00000160: 6a41 bd39 019e 37ba c870 0dba 4820 0eb9
00000170: 704e 8339 3b64 0a38 0d93 013a 0aa7 e039
00000180: 5aef 16b6 9680 cfb4 94b8 1e38 7a24 b4b7
00000190: 90ab 5c39 ee1b 5fb5 1a41 b134 832c a835
000001a0: e04a a337 1d43 1f35 f834 9534 3266 7638
000001b0: 5a59 6439 a21a 3839 5e6d 67b5 69c3 07b5
000001c0: 3f7f cc39 4044 c531 0acf 20b5 0cd7 7039
000001d0: 5eca c934 fbca a335 6157 0535 67d7 9137
000001e0: 691a 3b37 04e7 1c36 24e9 3d38 779f 5135
000001f0: 631e aeb5 4a74 c635 6a28 a834 cdb3 3635
00000200: cd8f 1535 bc89 e034 d734 cb38 6d82 f135
00000210: 86cd 2bb7 b120 1935 41c1 a7b4 488a 01b5
00000220: 5491 deb5 268a 1f33 715d 0fb5 7509 9238
00000230: 3337 cf36 b9b4 0f37 605c 0336 990b e934
00000240: 5eca eeb7 5d19 7c34 aeb9 1f35 d02a b1b7
00000250: e93c 0cb5 ac4a 06b5 65ab 03b5 4fdf 0239
00000260: 5ed7 3435 312d 2db6 75fd 0bb6 c452 b3b4
00000270: ffd7 9335 89bc 7833 8d6f 20b4 7de2 4535
00000280: e9a1 8b3c 62ba 2039 b077 84bc 4c81 a03c
00000290: fad5 e1bd 4b9a 713a d8aa c03a 799e cd3a
000002a0: d171 133c 410b 46ba 2eec babb 45d1 d0bd
000002b0: aaff 4abd 88a3 0d3d 8624 0abb 13fc 96ba
000002c0: 7053 1d3d 3b04 8639 4881 5eba 89f3 14be
000002d0: 5ed6 993a 165c c43a 093c 9f3a d064 7ebd
000002e0: 7784 ebbb 5d64 863b acf3 483b 85b0 b33a
000002f0: 873c b13a 8248 233b 4795 0bbb cab7 91b8
00000300: 1902 c7ba 3fdd ee39 aff2 ab3b 1a1e c0ba
00000310: 3a01 493d 8b19 a038 42dd 72b9 6f54 aeb9
00000320: 82b5 ccba 9eb1 97b5 dd29 b139 31c9 e93b
00000330: ee2c d53b a0ed bd3b e84a 0d3a edf4 7b39
00000340: 984f 6d3b ae8d 51b8 2867 c339 a33c 0f3d
00000350: 7966 a1b9 3d16 02ba 526d d0b9 d517 073b
00000360: 75e5 0d3a 546a 4fba 5908 2dba 4d12 29b9
00000370: ead0 6a39 837c 77b7 75d8 113a ff21 e239
00000380: 4549 aab6 b071 f637 66a5 343a 3a34 7237
00000390: e931 de38 d3fc ce37 a908 e2b6 1547 12b7
000003a0: 87f9 68b8 3483 14b6 66fd beb6 98dc 203a
000003b0: 2f43 b339 2f3f ec39 2ce8 3038 0f6a 0337
000003c0: f976 1339 acaf bc35 68cd 0936 2254 6a38
000003d0: de92 b3b6 6fcf 0ab7 b8e0 95b6 3493 2a3a
000003e0: 688c a8b7 0a4c 64b8 47ef 8937 a154 f3b6
000003f0: daf9 1d38 6c2b e636 fcb0 ce36 cd21 5838

sat_layers.layer0_1.0.input_linear_layer1.bias f4 [32]
4.1854815e-05 6.0488806e-06 -0.14222762 0.00011380623 3.7937511e-06 0.17462453 -0.10914183 0.0002347364
0.13067743 -0.16226856 -0.0003593206 5.1459924e-06 1.8599154e-05 -3.2613912e-05 0.13109179 -5.541588e-06
-2.4400797e-05 -0.00012937702 0.21999605 -3.989816e-05 0.19911131 1.3421346e-06 0.23715746 -8.982532e-05
-7.22812e-05 3.0226623e-05 -3.189971e-05 -2.4737417e-05 0.21237224 -4.319603e-05 -0.00013871156 0.27889383
00000000: 448d 2f38 7df7 ca36 1ea4 11be 41ab ee38
00000010: 2698 7e36 c6d0 323e c085 dfbd 9323 7639
00000020: 4ed0 053e bb29 26be 3263 bcb9 bdab ac36
00000030: 6105 9c37 ecca 08b8 ed3c 063e e1f1 b9b6
00000040: 50b0 ccb7 61a9 07b9 a546 613e 5358 27b8
00000050: d6e3 4b3e 6523 b435 68d9 723e 9a60 bcb8
00000060: ac95 97b8 2e8f fd37 0ecc 05b8 3383 cfb7
00000070: 1c78 593e 622d 35b8 1a73 11b9 2ccb 8e3e

sat_layers.layer0_1.0.input_linear_layer2.weight f4 [32, 32]
-0.018364813 0.010592773 0.16167977 -0.023485256 0.02063381 0.008389952 -0.0011464413 -0.0005821877
-0.029526105 -9.65779e-05 0.0008138305 0.14442934 0.23777995 0.26424775 0.009353267 0.00022792583
0.101502135 8.655192e-05 -4.148604e-05 0.03304926 0.0002247551 -0.00041044055 -0.00048761332 0.0535659
-0.00417364 -0.015846442 -0.05679843 -0.00086809805 0.00820266 0.0030229804 0.0022640603 0.011025051
-0.00015010992 0.00010680324 0.0002619814 -8.5022846e-05 0.0006582602 6.98172e-05 -4.5547185e-05 -6.166895e-05
0.00013740468 3.0031879e-05 7.872926e-06 0.00076336734 0.00020564199 -0.0024059077 7.940478e-05 4.9065515e-05
2.1434247e-05 3.065936e-05 7.922562e-05 0.0018259084 -6.1696504e-05 -7.090836e-05 -6.377892e-05 -9.528754e-05
0.00012284424 -3.113822e-05 7.377538e-05 -4.254241e-05 4.847106e-05 9.0902344e-05 6.647342e-06 0.000117909716
-0.00013182088 0.00012205064 0.00013783535 0.000114472794 0.0011355857 5.8121044e-05 0.00013879738 0.00017783907
7.1438524e-05 -0.000112893744 0.00018141266 0.00070089876 -0.0038974218 0.0053197816 0.00013070862 -0.00017277863
-0.0047535156 -0.00016125944 -0.00020061141 0.0035718696 0.00020894202 0.0001997671 0.00015530856 -0.00016107636
0.00021309663 4.3143686e-05 -1.6212076e-05 0.000118978984 9.984025e-06 0.0001384428 0.00013817538 0.00023299706
-0.021785177 0.0047790958 0.1016366 -0.026457965 0.16753614 0.0036936947 0.0006847623 0.00042036604
-0.049777497 -0.0008115724 0.002831965 0.14571354 0.31381735 0.1944043 0.008070826 -0.00072625745
0.2572213 -0.00028687168 -0.0006681464 0.2230666 5.5674944e-05 0.00040920448 0.00040389213 0.088040195
0.00082685816 -0.016680913 -0.05883076 0.00026887163 0.0050873924 -0.0039931755 0.0025809268 0.0043134624
0.0005006462 -0.000104355866 0.00547281 0.0025642628 -0.057697307 -0.0010299637 -0.0010526555 -0.00051687914
0.0011507255 0.0016386632 -0.0007039956 -0.025227759 -0.05237047 -0.115142286 -0.0024856522 0.0007556364
-0.07446921 0.001583303 0.00033582083 -0.021367524 -0.00054466876 -0.00059048523 -0.0005188569 -0.02425863
-0.0016446072 0.0033342715 0.0030204249 -0.0009022046 -0.0021701683 0.001634125 -0.0014794418 0.00028850723
-0.00037576517 -6.6877437e-06 0.000813748 0.0004337292 5.1037656e-05 -3.2003176e-05 -3.7448262e-05 -5.6146662e-05
-0.0005916666 -0.00013269746 -0.0001023749 0.0010738455 -0.0025172152 -0.0028031184 -9.80952e-05 6.165956e-05
0.006294449 -0.00011180606 0.00012058251 0.00093433633 -8.419575e-05 -2.8705746e-05 -7.1907874e-05 0.00061655836
-0.00034136116 -9.7542186e-05 -0.000314116 -3.1787687e-05 -3.2322143e-05 3.3245007e-05 -7.215094e-05 0.00034126695
1.7300279e-05 8.90606e-07 -0.00026660197 -0.00010010863 -0.0023627754 -3.9115544e-06 -2.3490215e-05 -4.7048874e-05
9.378867e-05 -3.484805e-05 -7.276156e-05 -8.6645e-05 -0.0089356275 0.002330256 -1.2908213e-05 4.5132416e-05
0.0056406558 -1.3856332e-05 6.8832356e-05 -0.0027198638 -4.762127e-05 -4.7676167e-05 -4.111626e-05 -0.00017389732
1.0062198e-05 -6.7653506e-05 0.00022309099 -2.8712648e-05 4.046857e-06 -9.0517153e-07 -2.0161622e-05 2.8058657e-05
-0.0001430572 0.00010683547 -2.7962005e-05 -7.536997e-05 -0.0009023836 5.7786503e-05 -4.915359e-05 -3.979115e-05
8.154408e-05 3.8737286e-05 -1.0261135e-06 -0.00029245653 -0.0045209434 -0.011590114 5.0035742e-05 3.5284622e-05
0.013161218 4.3459146e-05 4.817164e-05 -0.0012339553 -5.0502626e-05 -4.382301e-05 -3.330285e-05 0.00011478352
1.1301636e-05 -0.000108771776 0.0001912695 -3.649668e-05 4.8884125e-05 0.00012412351 1.1212027e-05 0.00015821689
00000000: ce71 96bc 4f8d 2d3c 628f 253e 2764 c0bc
00000010: 3c08 a93c 0276 093c 3044 96ba f59d 18ba
00000020: bbe0 f1bc de89 cab8 3e57 553a 49e5 133e
00000030: 967c 733e 7b4b 873e 723e 193c 60ff 6e39
00000040: 5ae0 cf3d 3583 b538 4c01 2eb8 a95e 073d
00000050: 3dac 6b39 6630 d7b9 5aa6 ffb9 eb67 5b3d
00000060: 08c3 88bb 66d0 81bc 78a5 68bd 1391 63ba
00000070: 7364 063c 321d 463b a160 143b 6aa2 343c
00000080: d366 1db9 8efb df38 8c5a 8939 4b4e b2b8
00000090: 188f 2c3a d36a 9238 eb09 3fb8 4454 81b8
000000a0: 4a14 1039 f8ec fb37 f615 0437 b71c 483a
000000b0: 9aa1 5739 6fac 1dbb 1e86 a638 b2cb 4d38
000000c0: b2cd b337 3d98 0038 ee25 a638 5253 ef3a
000000d0: 0f63 81b8 a3b4 94b8 0cc1 85b8 1cd5 c7b8
000000e0: c0cf 0039 699a 02b8 dbb7 9a38 916f 32b8
000000f0: 684d 4b38 d3a2 be38 3c0c df36 4c46 f738
00000100: 6639 0ab9 70f5 ff38 e587 1039 1d11 f038
00000110: efd7 943a ffc6 7338 238a 1139 507a 3a39
00000120: 44d1 9538 5ec1 ecb8 9739 3e39 85bc 373a
00000130: e36b 7fbb 9051 ae3b d40e 0939 e92b 35b9
00000140: 61c3 9bbb c017 29b9 375b 52b9 0716 6a3b
00000150: 7217 5b39 9378 5139 53da 2239 9be6 28b9
00000160: b172 5f39 2ef5 3438 2bff 87b7 5b84 f938
00000170: 1081 2737 f52a 1139 2ce3 1039 ac50 7439
00000180: d476 b2bc f699 9c3b da26 d03d 60be d8bc
00000190: 988e 2b3e ea11 723b 9f81 333a 9364 dc39
000001a0: 7de3 4bbd b4bf 54ba 7d98 393b ee35 153e
000001b0: abac a03e ec11 473e 7f3b 043c 5062 3eba
000001c0: 83b2 833e 4467 96b9 8c26 2fba 926b 643e
000001d0: 8484 6938 7f8a d639 7cc1 d339 6b4e b43d
000001e0: 83c1 583a 69a6 88bc 86f8 70bd 57f7 8c39
000001f0: 24b4 a63b 2fd9 82bb c424 293b f257 8d3b
00000200: cc3d 033a a1d9 dab8 4255 b33b 310d 283b
00000210: 0354 6cbd d9ff 86ba 42f9 89ba 2c7f 07ba
00000220: f1d3 963a 6ac8 d63a 588c 38ba 72aa cebc
00000230: 6b82 56bd b8cf ebbd 53e6 22bb e715 463a
00000240: 5083 98bd d586 cf3a 1c11 b039 f20a afbc
00000250: 1ac8 0eba cbca 1aba e603 08ba 09ba c6bc
00000260: dc8f d7ba cb83 5a3b 52f2 453b ed81 6cba
00000270: 6239 0ebb 2330 d63a d4e9 c1ba c942 9739
00000280: 5902 c5b9 4867 e0b6 b451 553a 2666 e339
00000290: 4411 5638 263b 06b8 c411 1db8 057f 6bb8
000002a0: 131a 1bba b424 0bb9 1bb2 d6b8 47c0 8c3a
000002b0: ddf7 24bb 86b4 37bb 76b8 cdb8 394f 8138
000002c0: aa41 ce3b 6c79 eab8 3ee1 fc38 40ee 743a
000002d0: 4092 b0b8 1fcd f0b7 3fcd 96b8 88a0 213a
000002e0: b8f8 b2b9 908f ccb8 f0af a4b9 c553 05b8
000002f0: a391 07b8 8e70 0b38 be4f 97b8 13ec b239
00000300: 1120 9137 fa11 6f35 b6c6 8bb9 69f1 d1b8
00000310: cbd8 1abb ff3f 83b6 da0c c5b7 5856 45b8
00000320: 69b0 c438 cf29 12b8 9197 98b8 2eb5 b5b8
00000330: bd66 12bc 35b7 183b 5a90 58b7 904c 3d38
00000340: 40d5 b83b 7e78 68b7 175a 9038 be3f 32bb
00000350: f3bc 47b8 e5f7 47b8 3f74 2cb8 3558 36b9
00000360: d0d0 2837 33e1 8db8 88ed 6939 f1db f0b7
00000370: 3dca 8736 eafa 72b5 c120 a9b7 825f eb37
00000380: a001 16b9 db0c e038 f38f eab7 f20f 9eb8
00000390: f08d 6cba c95f 7238 442a 4eb8 6ce5 26b8
000003a0: a502 ab38 d879 2238 feb8 89b5 da54 99b9
000003b0: 6c24 94bb 76e4 3dbc 78dd 5138 93fe 1338
000003c0: 26a2 573c e747 3638 e80b 4a38 abbc a1ba
000003d0: c8d2 53b8 99ce 37b8 aaae 0bb8 efb7 f038
000003e0: 289c 3d37 671c e4b8 848f 4839 0314 19b8
000003f0: ee08 4d38 2727 0239 4a1b 3c37 06e7 2539

sat_layers.layer0_1.0.input_linear_layer2.bias f4 [32]
0.05045517 -0.0018100914 -0.0011313605 0.12178816 -0.044499725 -0.0022267306 -0.0008817988 -0.00087985187
-0.0025435162 -0.0048403544 0.044726044 -0.060964834 -0.17801291 -0.01803015 0.026023386 -0.0010740889
-0.0039478033 -0.06227483 -0.012531087 -0.042946443 0.0003176276 -0.0011462567 -0.0015785153 -0.002599489
0.016901497 -0.0003756697 -0.0008606565 -0.0013819168 0.0001489314 0.0011849445 0.010660485 -0.00024390442
00000000: 15aa 4e3d 9740 edba 294a 94ba 126c f93d
00000010: 5845 36bd 57ee 11bb 8428 67ba dca5 66ba
00000020: 1fb1 26bb d69b 9ebb a832 373d 43b6 79bd
00000030: 0449 36be f7b3 93bc ff2e d53c 71c8 8cba
00000040: 935c 81bb e413 7fbd 304f 4dbc 9ce8 2fbd
00000050: 4187 a639 fe3d 96ba 2fe6 ceba 305c 2abb
00000060: 0275 8a3c 89f5 c4b9 ae9d 61ba 6f21 b5ba
00000070: 782a 1c39 2450 9b3a 51a9 2e3c 98c0 7fb9
