output/modelparams/dynamicLearning-CONFERENCE-SCUAU-SAT/epoch27_model_state_dict.pth (torch, 261097 bytes, 148 tensors)

in_layer0.layers.0.weight f4 [32, 2]
00000000: 380c 04be 21e4 ab3e 0463 b1be bfed 5fbe
00000010: 4ae5 d7bd 1354 6d3e 8f53 0abe 1e79 133f
00000020: dff8 9bbe 0cf6 bc3e ec3f 98be 0fa6 dcbd
00000030: c3a8 0bbf 2c77 82bd ad37 35be 380c bb3d
00000040: b253 0137 1bb3 d138 aca6 f7be 763d a9bd
00000050: 4083 61bd bd9c 853e 82d1 afbe 16a7 0f3f
00000060: dd08 55b8 aff9 f8b9 5185 293f d3be c1bd
00000070: d10b 93be ee76 4abd 91b9 e7be 5dd5 413f
00000080: 548b 94be f8bf 88bd 8fff fdb8 a422 18b7
00000090: 04a9 1dbf 516d 4d3f eabb 893e babb a33d
000000a0: dbc5 65bb c102 ccbe 1c3e db3d f312 96be
000000b0: 94de efbe d45c 1a3d f686 e23d 5fde 1c3e
000000c0: ad9e 92be 828a c43d c908 993e cd28 223f
000000d0: 250a 8e3e 1594 e3bd 4e8e 123f 1908 14bf
000000e0: 9ce5 673e ae8f 35bf b708 06bf 3f23 e7bd
000000f0: 1049 c13e 5b03 2b3d e9db 66be b17a b9bc
-0.12895286 0.33572486 -0.34645855 -0.21868037 -0.1054178 0.23176603 -0.13508438 0.57606685
-0.3046331 0.3690647 -0.2973627 -0.10773861 -0.54554385 -0.063703865 -0.1769702 0.0913319
7.708486e-06 9.9992576e-05 -0.48369348 -0.08263676 -0.05505681 0.26096144 -0.3433953 0.5611433
-5.0791412e-05 -0.00047488275 0.6621905 -0.09460225 -0.28719953 -0.049429826 -0.45258763 0.7571619
-0.2901255 -0.0667724 -0.000121115816 -9.067971e-06 -0.6158602 0.8024493 0.2690118 0.079947904
-0.0035060558 -0.3984585 0.10705206 -0.29311332 -0.468495 0.037686184 0.11060898 0.15319203
-0.28636685 0.09596731 0.29889515 0.6334351 0.27742115 -0.11112229 0.5724839 -0.57824856
0.22646183 -0.7092236 -0.5235705 -0.112860195 0.37751055 0.041751247 -0.22544827 -0.022641512

in_layer0.layers.0.bias f4 [32]
00000000: 88cb 043e 6abb 85bd 9c96 db3d 4771 063e
00000010: 2812 b83e 8456 fd3e d276 e5be 88e6 ebbd
00000020: f32f 80b9 af35 fb3e 4169 643d 6845 d43e
00000030: 723e 0db8 76ff 03bf f963 123e dfb7 5abe
00000040: b635 b4be 437f 02b9 9973 083f f1cc 89be
00000050: 9d11 763b 6867 dabd 0d08 3bbe 8e47 e2bd
00000060: f72c 943e c8a9 9abe 16e3 663e 3b30 d63e
00000070: 7629 0b3f 28c2 1b3e 7db2 c1be 683d b0be
0.12968266 -0.06529887 0.10722086 0.1312915 0.35951352 0.4948007 -0.44817215 -0.1151858
-0.00024449787 0.49064395 0.05576444 0.41459203 -3.3675176e-05 -0.5156168 0.14295949 -0.21359204
-0.35197228 -0.00012445175 0.5330139 -0.2691417 0.003754712 -0.106642544 -0.1826479 -0.11048804
0.28940555 -0.30207658 0.22547564 0.41833672 0.5436014 0.15210783 -0.37831488 -0.3442185

in_layer0.layers.2.weight f4 [32, 32]
00000000: e66f 693e e5c3 72bd 6626 273d 1885 f23d
00000010: b84b a73e e894 313e bfd3 20be 7418 0abd
00000020: 11aa 8b39 352c 253e a27a cd3c 2bf5 cf3d
00000030: f4ac 29ba 0020 6cbe a205 36bc e799 8f3e
00000040: bca3 2fbe e838 8839 ec14 b93e 416f a4bd
00000050: 1cc9 28be 65c6 22be 76a6 1cbd 87c3 1bbb
00000060: 5fe0 4b3e 8748 103e 0b0e d3bd f030 38bd
00000070: 6613 8ebe ccf3 dfbc e8a9 9abd 3c88 09be
00000080: 62f0 793c b303 b53c 7c99 033d c2c2 b33d
00000090: 72b2 80bc b06b 49bc dc3b 133d 7f97 c63c
000000a0: 886a ec37 e58d f93c 6543 a83c f365 0a3e
000000b0: f412 e7b9 533f 4fbd 4a51 963c e033 073e
000000c0: bb96 b53c f233 0238 e118 513e d75c d6bb
000000d0: 3ba9 13bd a7d2 0dbd c0e0 1e3d e198 823a
000000e0: 78c0 023d 1377 263d 0c84 c4bd 1ebf a0be
000000f0: c0db 5bbe d1fa 0e3d 8748 34bc e476 bf3c
00000100: af96 d3bb 5f4d d3bb 7ee5 a3bb 3e44 90bc
00000110: 7842 06bc 7b6a c43b b8ba 05bc d96b cab9
00000120: 7b69 f7b7 d26f c2bb c8a8 6bbb cd0a 96bc
00000130: 05a0 de39 4a82 9536 dbf2 a53a 89c6 e13b
00000140: 948e 0cbc 699a 1cb8 b24d 4d3c 1650 383b
00000150: 97a5 8b3b f042 8b3b 0446 80bb c867 4eba
00000160: 3265 b4bb faba 9dbb 0379 f03b e164 d13b
00000170: d7d6 afbc 9f34 2a3a 3f48 733b b996 fabb
00000180: ed5e 133d 2480 0f3d 05bb 353d b24f a83d
00000190: 6ec1 153d 74dd b5bb 142c ee3c 3ce0 2c3d
000001a0: b593 73b9 9a08 8b3d 313d 3f3c 5eba 403d
000001b0: 0a56 f438 7e6c 96bd 4385 0d3d c3ed 423e
000001c0: 2554 293d 7d8d 7eb9 08a0 423e 4d50 80bc
000001d0: 2fc4 0bbd bfdb 0dbd 1302 683d 90d5 893b
000001e0: 3727 4d3d fe42 303d 7e09 07be 5035 bcbe
000001f0: bb25 88be b541 673d 85aa 9ebc e149 043d
00000200: f8f1 66bc 45aa 123d 1cd6 05bc e924 ebbc
00000210: 238b 18bd c849 0ebd fd05 2d3d 524a cc3c
00000220: a4b6 0eb9 92f7 3cbc b4eb efbb dd51 80bd
00000230: 096c 12b9 3752 2ebc 4ae4 373c da2f b13c
00000240: 5ec3 373d b164 0eb9 8a14 99bd 0a94 223b
00000250: 7e46 9c3b 66a1 9c3b 85a9 293d f06e 1dba
00000260: 5cbb 25bc 1d8b f8bb 1302 b8bd 032a 5bbe
00000270: c4af 1abe 5548 ed3c c45d 873b 95ed 363d
00000280: 0ba6 babc 043a c13c 4b60 26bc 53bf 64bd
00000290: 137a 68bd dd1a 2fbc 1a07 043d c504 423c
000002a0: 086a bb38 8972 85bc f802 19bc 7027 d1bd
000002b0: c50d 2b39 312a a13c a290 d5bb 6346 80bd
000002c0: 6b82 f6bb 449c b638 9d81 49be 19e5 8f39
000002d0: 1f0c 823b 7e1f 813b d016 b93b dd59 363a
000002e0: 14a8 60bc 16e1 24bc b24b 88bd 12c8 d33d
000002f0: 3577 c83c 39a4 4b3c 247e 193b 195e c03c
00000300: c918 d23a c152 02b9 7fbb 983a c60b 423b
00000310: 4aac 1c3b d6d9 05b9 8add a7b9 33c7 b0b8
00000320: 063d d137 b2e9 ae3a b312 963a baba 8e3b
00000330: e439 03b9 222c 23ba 45cd 9d39 5e19 ca3a
00000340: 03a9 c9b9 cd6c c937 7e09 1f3c 63ff 31ba
00000350: de27 57ba 2342 5bba 1c3f dcb9 a118 293a
00000360: 02f0 a83a 1db6 983a fef0 5a3b 3eed c63c
00000370: 7c44 c4bb 1b20 9ab8 f106 58ba 716e aeb9
00000380: 40f1 51bc 1fe0 1d3d ec52 f8bb 221c d2bc
00000390: 62fb 0fbd efdd 15bd c38a 393d 894e ed3c
000003a0: a363 d0b8 1ba6 2fbc 8468 e4bb 24dd 71bd
000003b0: a401 feb8 d8e1 68bc 6646 6b3c 0f65 e63c
000003c0: 4f3d 433d f89b cfb8 73bc 87bd 2423 273b
000003d0: 3bbe 9c3b f81e 9d3b f8e3 3a3d 7c0a 20ba
000003e0: 2da5 19bc 7403 e5bb 0cee c5bd fd2c 63be
000003f0: 1cbb 24be 42a6 093d c01a 8a3b efcd 413d
0.22796592 -0.05926885 0.040808104 0.11841792 0.32674956 0.1734196 -0.15705775 -0.033714727
0.00026638855 0.16130145 0.02508289 0.10154184 -0.00064726104 -0.23059082 -0.011109741 0.28047106
-0.17152303 0.0002598234 0.36148775 -0.080290325 -0.16482967 -0.15895994 -0.038244687 -0.0023767666
0.1990981 0.14090167 -0.10305413 -0.044968545 -0.27749175 -0.027337931 -0.07551938 -0.13430876
0.015255066 0.02209649 0.032128796 0.087773815 -0.01571009 -0.012293741 0.03594576 0.02424216
2.8183e-05 0.030463168 0.020539949 0.13515453 -0.00044073875 -0.0505975 0.018349309 0.13203382
0.0221666 3.1042793e-05 0.20419647 -0.006541829 -0.036050063 -0.03462472 0.038788557 0.0009963774
0.031921834 0.0406409 -0.095954984 -0.3139581 -0.21470547 0.034907166 -0.01100362 0.023372121
-0.006457172 -0.0064484323 -0.005001723 -0.017610665 -0.008194558 0.005994139 -0.008162193 -0.00038608795
-2.9493813e-05 -0.00593374 -0.0035958756 -0.018315697 0.00042462363 4.4557137e-06 0.0012660878 0.0068901223
-0.008578915 -3.7337104e-05 0.012530731 0.0028123907 0.004261683 0.004249923 -0.0039145965 -0.0007873741
-0.0055052275 -0.004813549 0.0073386445 0.0063901995 -0.021464748 0.00064928265 0.003712192 -0.007647362
0.0359792 0.035034314 0.04436781 0.08218326 0.036561422 -0.005550081 0.029073752 0.042206034
-0.00023229311 0.0678875 0.011672304 0.047052734 0.00011650853 -0.07344912 0.034550916 0.19036011
0.041340012 -0.00024276036 0.1900636 -0.01566329 -0.034122642 -0.034633394 0.056642603 0.004206367
0.050086226 0.04303264 -0.13187215 -0.36759424 -0.26591286 0.056459147 -0.01936842 0.03229702
-0.014095776 0.035806913 -0.008168723 -0.028704124 -0.037242066 -0.034738332 0.04224204 0.024937782
-0.00013610214 -0.011533635 -0.007321799 -0.06265614 -0.00013963891 -0.010639719 0.011223862 0.021629263
0.04486405 -0.00013579686 -0.07474621 0.0024807476 0.0047691455 0.0047799824 0.041421432 -0.00060056057
-0.010115471 -0.007584943 -0.089847706 -0.21402745 -0.15106112 0.028965155 0.004131051 0.04466017
-0.022784254 0.023587234 -0.010154794 -0.055846523 -0.056757044 -0.010687557 0.032233335 0.011841957
8.936605e-05 -0.016289966 -0.009339087 -0.102126 0.0001631296 0.019673439 -0.0065174857 -0.06263425
-0.0075228713 8.707543e-05 -0.1967835 0.00027445777 0.00396873 0.0039405217 0.0056484714 0.00069561397
-0.013711948 -0.01006343 -0.06655063 0.10340895 0.024470905 0.01242929 0.0023421133 0.02348237
0.0016029115 -0.00012428594 0.0011652558 0.0029609068 0.0023906403 -0.00012765019 -0.00032017782 -8.429438e-05
2.4943158e-05 0.0013344793 0.0011449665 0.0043557556 -0.000125147 -0.0006224533 0.0003009831 0.0015418937
-0.0003846363 2.4011732e-05 0.009706853 -0.000679007 -0.000820754 -0.0008364042 -0.0004200869 0.00064505084
0.0012888911 0.0011650954 0.0033407803 0.024283048 -0.0059896093 -7.349272e-05 -0.00082407804 -0.00033270151
-0.012813866 0.038543817 -0.0075782444 -0.02564818 -0.035151847 -0.036588605 0.04529835 0.028968113
-9.936772e-05 -0.010720755 -0.006970467 -0.059048787 -0.000121119694 -0.014214002 0.014360046 0.02812436
0.04766589 -9.8995806e-05 -0.06627741 0.0025503123 0.0047834194 0.0047949515 0.045627564 -0.0006105078
-0.00937776 -0.006988937 -0.096645445 -0.2218513 -0.16087002 0.03360582 0.0042146146 0.047315534

in_layer0.layers.2.bias f4 [32]
00000000: 4ca5 063e 5aa0 4ebe 9599 aa3b 5007 14be
00000010: 8e0d b0be d374 95bd 5ffb 96bc c76c b0be
00000020: b109 7e3e 4fe2 58be 7d02 9fbc e19a 863e
00000030: eb06 d93c 49d2 a23c 0dea 57bc f3fb 94bc
00000040: f5ba f03d e566 91bd 0e2e 423c fa0c 85be
00000050: f9b7 99bd cd31 a53c 1a97 61be ffc6 aabb
00000060: 448b a2ba f4d4 01bd 5c2d cebc 534f b2bd
00000070: 4aa8 753e eb2d 90bd 77a4 073c 1ff8 83be
0.13148993 -0.20178357 0.0052062967 -0.14455914 -0.3438534 -0.07297673 -0.01843041 -0.3445799
0.24808384 -0.2118008 -0.019410366 0.26290038 0.026492557 0.019875662 -0.013178361 -0.018186545
0.11754409 -0.07099704 0.011851801 -0.25986463 -0.07505793 0.020165348 -0.22030297 -0.0052117105
-0.0012401124 -0.03169723 -0.025168113 -0.08706536 0.23989978 -0.07040008 0.008278958 -0.2577524

in_layer1.layers.0.weight f4 [32, 2]
00000000: a928 18bf 00bb 2a3c 21a4 0e3f 2f06 1bbf
00000010: a97d a1be 73fc 1e3f 10da f2bd aefc 953e
00000020: e923 2ebf 60b5 63be d9da b7be 419c 183f
00000030: ae42 963e dd15 04bf 487b e93d 8027 05bc
00000040: 32c0 94be 77c0 cebe de46 70be 29af 0e3f
00000050: 9ec3 01bf aaf2 00bf 4664 5fbe 808a 493c
00000060: 3c1a 453e 40d3 ad3c d04d 2ebe b085 dbbe
00000070: 50ec 01be 68bd 91be 3140 123f b934 30bf
00000080: fbed e6be 8a46 13bf 7c54 04be 4510 0d3f
00000090: a9ab 1e3f 5c96 1dbf e0f9 fabc 2281 d43e
000000a0: f295 9f3e 0d46 143f 40ad a0bc 4c40 f3be
000000b0: e67f ef3e f24b 78be 6675 bb3e 6870 32be
000000c0: 86e6 993e 41d0 223f 6352 283f 47bd 24bf
000000d0: 407b efbe e4b0 95be 58df e6be 25b0 2d3f
000000e0: 70cc 7fbd aa27 f0be 771a a1be 33fa c7be
000000f0: 3cb5 933e f2e4 1dbf 72c8 28bf 1c71 32bf
-0.5943704 0.010420561 0.5571919 -0.6055631 -0.31541184 0.62103957 -0.11857998 0.29294342
-0.68023545 -0.22237158 -0.35909155 0.59613425 0.29347748 -0.5159586 0.11400467 -0.008127093
-0.29052883 -0.40381214 -0.23464534 0.55736023 -0.50689113 -0.50370276 -0.21815595 0.012301087
0.19248289 0.021218896 -0.1702187 -0.42875433 -0.12687802 -0.28464818 0.571292 -0.6883045
-0.4510344 -0.5752951 -0.12922853 0.5510295 0.6198068 -0.61557555 -0.030636728 0.4150477
0.31169087 0.5791939 -0.019613862 -0.47509992 0.46777266 -0.24247721 0.36613005 -0.17425692
0.30058688 0.6359902 0.6575071 -0.64351314 -0.4677372 -0.2923652 -0.45092273 0.678469
-0.062450826 -0.4690526 -0.31465504 -0.39058074 0.28849208 -0.6167747 -0.65930855 -0.6970384

in_layer1.layers.0.bias f4 [32]
00000000: cadd 9b3e fe02 b33e cada e0be 408e 333e
00000010: 2da0 053f 386b d23d 9033 19be 70fc 553d
00000020: 4048 9bbd 4249 b63e 10d4 f5be 3a97 b73e
00000030: b20d cc3e 9d59 dbbe 55d0 133f 5fcb 313f
00000040: ddb9 8ebe 5ccf 4abe 8a6c b43e 72d0 0dbf
00000050: cc2b 8f3e 40ee 283e 2634 e43e 103c 1dbf
00000060: 5b63 16bf 229a a23e 0469 823e 977c 28bf
00000070: f1e4 c9be f9a0 25bf b8af 01bf 0a5a a3be
0.3044265 0.3496322 -0.43916923 0.17534733 0.52197534 0.102743566 -0.14961076 0.052242696
-0.0758214 0.35602766 -0.48013353 0.35857564 0.398542 -0.42841807 0.57739764 0.69450945
-0.27876177 -0.19805664 0.3523906 -0.5539619 0.27963102 0.16497135 0.44571036 -0.61419773
-0.58745354 0.3175822 0.25470746 -0.6581511 -0.3943248 -0.6469875 -0.5065875 -0.31904632

in_layer1.layers.2.weight f4 [32, 32]
00000000: ebcc 153e d420 10bd f6ef cf3d 1de9 2b3e
00000010: 22fe a43d e60c 22be a22f b63d 1418 8a3d
00000020: 454d 0c3e 4c90 32be daa8 de3d fd2b 143e
00000030: fc69 28be d883 973c 0588 1a3e 26a8 03be
00000040: 7095 6d3d 0afa 9f3d 04c6 3d3d affb 333e
00000050: 0537 143e 6f4e 1b3e 0082 b4bc bdd2 173e
00000060: b8b1 28be df5d c3bd d0dd 1abd 9417 57bd
00000070: e334 273e d6c2 aa3d ce15 e93d 1a43 f63d
00000080: da38 07be 08ba a7bc 5877 d33c bc53 3c3d
00000090: 0e2c ba3d c10e 90bd 9055 5abd 6377 173e
000000a0: bc54 42bd ae7c fbbd 027a f53d 0e28 f53d
000000b0: f40b 63bd f0c1 10bd 0f92 05be 092b 17be
000000c0: fc24 883d 05a9 9abd d31b 103e cff1 10be
000000d0: d82b c8bc 4025 7a3b 9a11 ba3d 2781 123e
000000e0: 9a2c f53d 365e 9f3d 6b2c a6bd 4846 01be
000000f0: 35f1 21be a0ab 0f3c 2b91 2f3e 7488 09bd
00000100: 60dc f3bb b08b 03be 7c4c 5e3d ca86 e53d
00000110: 4778 32be 62eb febd 1915 063e 946f 2b3d
00000120: d092 34bc 506f 013d 202e dcbc 660d fdbd
00000130: 5e26 29be 9e1d ee3d 183d acbc e074 86bd
00000140: 34e5 3abd d876 c5bd ac75 56bd bd63 1bbe
00000150: f376 073e f4d5 933d 7895 b6bd 1e23 77bd
00000160: 926c a23d 9c10 86bd 44ef 3e3d 585e 473d
00000170: a1e6 e3bd e861 353d 5035 313c 7119 1e3e
00000180: 2afe 82bd 3423 3abd 65f7 1b3e 21d2 13be
00000190: 0041 513c 9d69 2e3e 9853 a2bd 3f8a 2d3e
000001a0: 35a0 203e d368 283e f82f 8abc 91c1 233e
000001b0: 4cbf 9dbd feda 77bd 50ef 883d 94f5 183d
000001c0: 4695 c73d b306 2c3e dba1 e2bd c224 c03d
000001d0: 2840 723d 0200 bf3d 32ab ab3d 836d 87bd
000001e0: d911 0fbe 97e2 103e 8572 cebd 0e76 e73d
000001f0: 6872 2cbe c088 fabc 0095 f53a a090 fa3c
00000200: 501d 6a3c 4c29 643d 803e a1bc 6854 313d
00000210: 4722 333e 0342 eabd 1021 1ebc d132 8abd
00000220: ebd4 1e3e b3f5 1a3e e0f5 9dbb 22fd 7abd
00000230: 02b1 dfbd c986 013e 5073 47bc 597c 2a3e
00000240: f674 ce3d 7172 1e3e 272c 0f3e 9e44 ebbd
00000250: 64f0 533d 601f 96bd 72a7 b53d 0834 82bc
00000260: b0bb 7a3c 9e63 fabd 18c8 21be 8055 883d
00000270: d843 283d e094 7b3c 0ae5 f53d 972d 97bd
00000280: 4c84 803d a165 c7bd 5c07 163d 484e 25bd
00000290: 9a8b fd3d 594c 1e3e 3738 1d3e d049 023c
000002a0: de7d d53d 05dd 34be ab5e d4bd d068 013d
000002b0: 8038 813a 061d 0ebe 153e a0bd 7717 a9bd
000002c0: db58 33be 901c 8a3c b2cc f63d 30f0 923d
000002d0: 3904 acbd 4839 26be d00a 12be 80e5 563b
000002e0: 1e0d f93d a09d 92bd 6400 c5bd c221 c1bd
000002f0: d0ba 7abc e6e7 2bbe 51bd 1fbe 9931 323e
00000300: 7da9 acbd e498 02bd 98ba 41bd d006 1fbe
00000310: b84c ffbc f4a6 5d3d 3002 93bd 60e1 f6bb
00000320: 00ac 5dba a434 34be bb8c 033e f538 123e
00000330: 06d7 f63d 2ac9 6dbd 2630 bd3d e099 29be
00000340: 8820 33bd 1444 13bd 2ab5 7fbd 660e 983d
00000350: 3cf7 a4bd c0d8 a7bc 6c14 51bd fffd 29be
00000360: 3026 efbc da68 19be 321b d33d 0a7f c13d
00000370: d593 293e ae25 73bd a048 133c 08d7 0d3d
00000380: 65b2 343e bdec 253e 8b5e bbbd a307 1abe
00000390: 8e26 23be df57 aebd d932 183e 5c2e 733d
000003a0: 37a8 2e3e e12c 063e 80f5 273b f661 e0bd
000003b0: f7c3 303e 6135 113e fabd 9c3d bcc4 c5bd
000003c0: 719a 0e3e 20ce 833c 6a64 ef3d 561a 973d
000003d0: de3e c03d 12d7 1ebe 5ebe c8bd f623 d93d
000003e0: ecd9 16bd b07b 1dbe 6d9e 243e 8089 7abb
000003f0: 7f06 123e de7c 0dbe 9c4b 793d 5f5e 88bd
0.14628951 -0.035187557 0.10153191 0.16788144 0.080562845 -0.15825233 0.08895804 0.06742874
0.13701351 -0.17437857 0.1087205 0.14469905 -0.1644668 0.018495485 0.1509095 -0.12857112
0.058003843 0.07811363 0.04633142 0.17576478 0.14474113 0.15166639 -0.022034645 0.14826484
-0.16474044 -0.09539389 -0.037809193 -0.05251272 0.16328768 0.08337943 0.11381112 0.12024517
-0.13205281 -0.020474449 0.025813743 0.045978293 0.09090434 -0.07034064 -0.053304255 0.14791636
-0.04744409 -0.1227964 0.11986162 0.119705305 -0.05543132 -0.035341203 -0.13043998 -0.1476251
0.06647679 -0.07551769 0.14073114 -0.14154743 -0.024434969 0.0038169175 0.090853885 0.1430708
0.11971398 0.07781641 -0.08113941 -0.12624466 -0.1581467 0.008768946 0.17145221 -0.033577397
-0.007442042 -0.12846255 0.05427216 0.112073496 -0.17428695 -0.124472395 0.13093986 0.041854456
-0.011021331 0.031600296 -0.026877463 -0.12356071 -0.16518542 0.11626743 -0.021025226 -0.06565261
-0.04562874 -0.09641808 -0.052358314 -0.15174766 0.1322897 0.07218543 -0.08915228 -0.060336225
0.079308644 -0.06546137 0.0466149 0.048673958 -0.11127973 0.044282824 0.010815933 0.15439393
-0.06396134 -0.04544373 0.15231092 -0.14435627 0.012771845 0.17032476 -0.079261005 0.16947268
0.15686114 0.16446237 -0.016868576 0.15991808 -0.077025026 -0.06051158 0.0668627 0.037343577
0.097452685 0.1679943 -0.11066028 0.09382011 0.059143215 0.09326173 0.08382262 -0.066126846
-0.13971652 0.14148937 -0.100804366 0.11301814 -0.16840518 -0.030582786 0.0018736422 0.03058654
0.014289215 0.055703446 -0.019683123 0.043293387 0.17493545 -0.11438372 -0.009651437 -0.06747974
0.1551091 0.1513279 -0.0048205703 -0.061276563 -0.109224334 0.12649073 -0.012173489 0.16648997
0.10080902 0.15473343 0.13981687 -0.11487697 0.051742926 -0.07330203 0.08869828 -0.015893951
0.015303537 -0.12226032 -0.15798986 0.06656933 0.041080326 0.015355319 0.12006576 -0.073817424
0.062752336 -0.09736181 0.036628112 -0.040357858 0.123801425 0.15458812 0.15353476 0.007952169
0.10424398 -0.17662437 -0.10369619 0.031594098 0.0009858757 -0.13878259 -0.07824341 -0.08256429
-0.17514364 0.016859323 0.12050761 0.071747184 -0.08399243 -0.16232789 -0.14261937 0.0032790601
0.12160705 -0.07158971 -0.09619215 -0.09430267 -0.015303329 -0.16787681 -0.15599562 0.17401733
-0.08430765 -0.03188409 -0.04729709 -0.15529943 -0.031164512 0.054114297 -0.071781516 -0.007534191
-0.0008456111 -0.17598206 0.12846653 0.1427954 0.12052731 -0.058053173 0.09237699 -0.16562605
-0.043732196 -0.035953596 -0.06242863 0.07424621 -0.08054969 -0.020489097 -0.051044866 -0.16600798
-0.029193014 -0.14981404 0.103079215 0.09448059 0.165603 -0.059362106 0.008989483 0.034628898
0.17646177 0.1620359 -0.09148892 -0.15041976 -0.15932676 -0.08512854 0.14863147 0.059370384
0.17056356 0.13103057 0.0025628507 -0.109561846 0.17262255 0.14180519 0.07653423 -0.09656665
0.13926102 0.016089499 0.11689074 0.0737807 0.09386991 -0.1551173 -0.09801935 0.10602562
-0.03682892 -0.15379214 0.1607606 -0.003822893 0.1426029 -0.13817164 0.060863122 -0.06658625

in_layer1.layers.2.bias f4 [32]
00000000: a838 4e3d f83d 2b3d 80b4 7f3b fe9d cf3d
00000010: f849 1ebd b61c d5bd 683e 8a3d 402e 413d
00000020: 82d8 893d 20d9 a0bc 302d c0bc 2032 66bc
00000030: 3ced 3e3d 21e8 0abe 84b8 28be 3079 873d
00000040: af37 c6bd 40a5 73bc 24bc 483d 081e cb3c
00000050: 8264 e93d 48d4 bd3c 8043 333d 28a0 81bc
00000060: 08c3 d53c 34c0 843d eefc f63d 9b84 2bbe
00000070: ddcf 96bd 836f 22be be57 90bd feb0 dc3d
0.050347 0.041807145 0.0039017498 0.101375565 -0.03864476 -0.10405867 0.06750184 0.047163248
0.06730749 -0.019634783 -0.023459047 -0.014050037 0.046612963 -0.13565113 -0.16476637 0.066149116
-0.096785896 -0.014870942 0.04900755 0.024794593 0.113961235 0.023172513 0.043765545 -0.015823439
0.026093975 0.06481972 0.12059961 -0.16749804 -0.073638655 -0.15862851 -0.070479855 0.10775946

in_layer2.layers.0.weight f4 [32, 2]
00000000: adbe 44af ccca 10ae 9849 f3b7 e174 83b8
00000010: a27c ee8f 24e7 0f0f b4ae d2b0 49a7 29b1
00000020: 2fd6 61b1 74ca 1f31 4b7b 48b4 99bd 7ab4
00000030: 227b 5626 dfe0 8926 3dba b02d 6f9a a6ae
00000040: 1578 e42d 63d2 9a2f 9c2b 902b 31ce 952a
00000050: bef2 1114 360a 6614 144e aaaa 862e 9a2d
00000060: b684 43b1 b004 f231 63b1 9899 f6f9 a498
00000070: f4bf 8fb3 7c57 8eb3 234e c4ac d6d8 65ad
00000080: 3cba dc38 4035 2937 4eaf 1eaf 538c ccae
00000090: 1214 ddad 8436 e0ad 967a 0316 0e61 4815
000000a0: bd63 ba99 1662 c198 c0c1 9cb5 2e76 e0b2
000000b0: fd0a 432c a27c 452b 3a13 5227 9911 01a8
000000c0: bc8b 79a8 48f1 0329 193a 0a00 5d08 0900
000000d0: cb99 9739 b97e e437 02f7 c737 70e4 0c36
000000e0: a8b6 929a a861 231a fc75 2e16 a939 6e15
000000f0: 5868 3a93 5d0a 9592 50c1 a5b0 9bca 65b1
-1.7893838e-10 -3.292193e-11 -2.9002127e-05 -6.268337e-05 -2.3516619e-29 7.0949604e-30 -1.5329165e-09 -2.4687827e-09
-3.2863559e-09 2.3252626e-09 -1.8671305e-07 -2.335204e-07 7.441304e-16 9.567236e-16 2.009159e-11 -7.576239e-11
2.5973926e-11 2.8161926e-10 1.0243919e-12 2.661079e-13 7.368502e-27 1.1614046e-26 -3.0252244e-13 1.7528434e-11
-2.8451672e-09 7.04366e-09 -1.5788078e-23 -4.2645402e-24 -6.6938725e-08 -6.6283036e-08 -5.57933e-12 -1.306529e-11
0.00010525106 1.0085583e-05 -1.4432297e-10 -9.3017725e-11 -2.5133704e-11 -2.5490061e-11 1.0620777e-25 4.046624e-26
-1.9272233e-23 -4.9988372e-24 -1.1679294e-06 -2.6130774e-08 2.7717266e-12 7.016142e-13 2.9153777e-15 -7.164754e-15
-1.3852577e-14 2.929712e-14 9.39196e-40 8.2952e-40 0.0002891555 2.7238728e-05 2.383767e-05 2.0994594e-06
-6.067928e-23 3.3786496e-23 1.4092837e-25 4.8109203e-26 -2.3527946e-27 -9.405777e-28 -1.2060273e-09 -3.3439054e-09

in_layer2.layers.0.bias f4 [32]
00000000: 6080 7a2c d38f b8b9 9427 968d 90de 25b2
00000010: 2929 c131 459c f2b3 f6a7 7b26 8221 00af
00000020: 78ed 0130 47e1 802b ee1a e213 af1c 242d
00000030: eadb 1a32 4029 c399 be71 2fb4 3905 45ad
00000040: a90b d236 d010 18af 2192 a3ad 70c8 0716
00000050: 7d84 d899 e520 4534 d696 372b 112f 4426
00000060: a964 1228 a36f 4080 1d3c b437 c191 1f35
00000070: 040a 531a dc72 a595 db24 c192 64b4 d2b1
3.55984e-12 -0.00035202372 -9.253992e-31 -9.654869e-09 5.6217186e-09 -1.12974284e-07 8.731075e-16 -1.1653437e-10
4.726739e-10 9.157474e-13 5.7076975e-27 9.32869e-12 9.0139824e-09 -2.0179188e-23 -1.6339524e-07 -1.1199313e-11
6.259845e-06 -1.3830292e-10 -1.8595849e-11 1.096846e-25 -2.2387388e-23 1.8359022e-07 6.5223987e-13 6.8064947e-16
8.126455e-15 -5.91752e-39 2.1485665e-05 5.9444216e-07 4.3641868e-23 -6.6824185e-26 -1.2189098e-27 -6.1323124e-09

in_layer2.layers.2.weight f4 [32, 32]
00000000: 17c0 2eae 515b 0cb9 21a7 668e 185e 3b30
00000010: 4834 4130 8b0c 61b3 857b 9425 e064 09aa
00000020: 6815 922e 5b2f 172a b576 1413 14ee a3ab
00000030: f38a f2b0 1a29 2698 4768 5d32 b02a 1cab
00000040: 9aa3 6b36 6248 caad bf6b 8eab 5230 3814
00000050: 9417 a116 fc8a 07b2 e834 442b 3c58 aca5
00000060: be2f 7fa7 64ee 2000 c41d 1b37 aea4 4035
00000070: ec6b 7d99 ebc3 7915 f348 cc91 b248 e92f
00000080: 6f9d 012e 58d1 cb36 5d03 018e 9c27 58b0
00000090: ea05 00b0 b9b9 1033 20e0 16a5 b078 f1ab
000000a0: df82 64ae a267 aba9 185c 9e92 3644 9a2b
000000b0: 033a 5230 5a7c 9a97 9f18 7fb2 4261 972b
000000c0: 09ce 4bb6 f6e8 8d2d 04f9 1c2c 7b40 0f94
000000d0: 97ac 1498 071d 6332 ee82 f1aa 885b 4625
000000e0: 0b5f 8426 8e41 5180 20c7 0ab7 e721 2ab5
000000f0: bc42 0499 04fc 3195 fc38 8a11 4165 06b0
00000100: 805e e32c 0fc4 1d39 300d c98f b6c7 2631
00000110: 2677 652f ce4b 32b4 fea2 c924 f872 24ad
00000120: b7fb 742e f199 8e2a 3682 d213 0ef2 65ac
00000130: 46af abb0 5066 8c15 6483 4132 c006 12ac
00000140: f74d cb36 0242 aaae 71a6 47ac e0f9 2814
00000150: 80b9 3f96 5e9a 1fb2 f8e8 9029 08f5 1b26
00000160: 61cb 79a8 6f46 2600 e047 7637 7c79 8835
00000170: 1539 b59a e0e6 1716 9edd 8392 40fd 942d
00000180: 3ce8 edac 00e7 9bb4 d62e 818f 4af0 b630
00000190: 7a39 7530 aab9 a0b3 b228 4124 1d06 a0ad
000001a0: d6f7 bd2e 9958 bf2a 84f6 c113 3032 3aa9
000001b0: 20da 1fb1 7c7d 5a96 8d0f af32 5032 9cab
000001c0: 8a1b a736 522d 62ae 8d9b b5ac 08bb 5f92
000001d0: 487d fc96 e006 0230 64d8 322a 9e58 1826
000001e0: 9639 c0a7 1726 2400 7c28 5937 0ed7 6635
000001f0: 520e 589a 277d 5a15 0005 d891 2906 6230
00000200: 9cbf 15af 2ad2 0939 e92d b18f 42dc 1131
00000210: 3c9f b4af 742b 19b4 0873 4e26 b026 86ad
00000220: c51c ad2e f068 832b 1b65 6913 32f8 7d2c
00000230: 396b e4b1 5e4c 9399 f4ba 17b3 58d0 fbab
00000240: 3645 3135 8bc6 efad ccee 522c a018 2415
00000250: 0c7b 8697 98f7 59b4 41e9 422c 9d15 23a8
00000260: d5a8 44a8 db22 9500 0653 8235 fce0 5b35
00000270: 8822 b39a e6b1 f615 798f 8692 2eb6 88b1
00000280: 848b a62f d2a7 0db9 d20a dc0f 040e fcb0
00000290: ec62 e8b0 adf8 8b33 ced1 a0a6 5556 202e
000002a0: 6ea9 3eaf 9ca2 06ab 6fbf 1692 eca3 c9ad
000002b0: 0092 5731 9f98 9e19 2e78 aa34 9315 082c
000002c0: f6db 0cb7 7902 f02e f847 382d cb2d c393
000002d0: 1c25 a319 7897 1833 7cd2 97ac d331 54a6
000002e0: 4ec2 3f28 e46d 8000 373e a6b7 77ef 0db6
000002f0: 6cf4 cf1a 8188 2095 4366 1412 f62e 1c32
00000300: f860 422f c45f 6238 9e40 b40f f875 32b0
00000310: 50d7 19af 5f0a 1634 076a 09a6 5fb5 81ab
00000320: d668 76ad 140f 32aa a41f fe92 04f5 15ac
00000330: a7ef 7031 196f 4b18 c0af 0e33 1850 7dac
00000340: 469b 2a36 43c1 4d2d faee 9dac b99e f594
00000350: 0002 5517 1534 6632 e91c 1bac 7ce9 a526
00000360: 9005 5227 862b 1400 ac6d 3f37 416f 2634
00000370: cdfc 781a ba99 c095 8161 4f12 ab73 1c30
00000380: 4003 dcab 6284 6d38 522c 1d0f ebab 3a30
00000390: cc73 9e2e 5e67 8eb3 44e7 a025 2e0b e32b
000003a0: e663 ab2d 0e29 10a9 f4ba 8413 a372 ccab
000003b0: 8dfa bc30 c1b4 da98 26fa a632 23b1 0aac
000003c0: 2a2e 1e36 f70e b3ac 556e e8ac 23be 2294
000003d0: 509f fb96 8474 37b2 b9a4 fb2a d325 5726
000003e0: c010 de24 e672 7800 c3d8 0837 eebc d334
000003f0: 6063 131a 9dc7 9114 d21a a990 81c4 1230
-3.973363e-11 -0.00013385458 -2.8430158e-30 6.816392e-10 7.0287287e-10 -5.2398303e-08 2.5757608e-16 -1.2203042e-13
6.643114e-11 1.3427924e-13 1.8738753e-27 -1.1647927e-12 -1.7647309e-09 -2.1475748e-24 1.2887603e-08 -5.5481574e-13
3.5112957e-06 -2.2996886e-11 -1.0119612e-12 9.2991555e-27 2.6025833e-25 -7.889636e-09 6.970661e-13 -2.9897034e-16
-3.541424e-15 3.024254e-39 9.24565e-06 7.1765214e-07 -1.3101588e-23 5.0439702e-26 -3.2230483e-28 4.2434106e-10
2.9471033e-11 6.0742423e-06 -1.5902097e-30 -7.863663e-10 -4.6574533e-10 3.3696526e-08 -1.3086363e-16 -1.7157577e-12
-5.1957435e-11 -7.611903e-14 -9.993905e-28 1.096129e-12 7.6479995e-10 -9.983407e-25 -1.4848552e-08 1.075619e-12
-3.0369285e-06 1.61333e-11 2.2307165e-12 -7.2323715e-27 -1.9215687e-24 1.3219739e-08 -4.290105e-13 1.7204774e-16
9.185101e-16 -7.462192e-39 -8.271803e-06 -6.337927e-07 -6.837717e-24 -3.594367e-26 2.180768e-28 -4.8892806e-10
6.4622196e-12 0.00015045724 -1.982521e-29 2.4269702e-09 2.0869759e-10 -1.660512e-07 8.7445974e-17 -9.347849e-12
5.5702745e-11 2.5331085e-13 5.313985e-27 -3.2677225e-12 -1.2491703e-09 5.670697e-26 1.1263953e-08 -2.0751595e-12
6.0589477e-06 -7.74243e-11 -2.8371994e-12 8.5311116e-27 -1.548739e-25 -9.290117e-09 6.435298e-14 5.4108507e-16
-1.38663774e-14 3.515016e-39 1.4679477e-05 1.0168146e-06 -7.4952066e-23 1.2270534e-25 -8.321895e-28 1.6938118e-11
-6.7617283e-12 -2.9039074e-07 -1.2738423e-29 1.3310537e-09 8.921216e-10 -7.484353e-08 4.1884674e-17 -1.8192609e-11
8.6387494e-11 3.3989893e-13 4.8963133e-27 -4.1343827e-14 -2.3261535e-09 -1.7649496e-25 2.0379753e-08 -1.1098431e-12
4.980194e-06 -5.1426703e-11 -5.161599e-12 -7.0596927e-28 -4.079186e-25 4.7303494e-10 1.5884651e-13 5.285569e-16
-5.335314e-15 3.319742e-39 1.2943634e-05 8.599462e-07 -4.467932e-23 4.4123477e-26 -3.4081873e-28 8.2227075e-10
-1.3619544e-10 0.0001314363 -1.7471231e-29 2.122548e-09 -3.2854952e-10 -1.4265044e-07 7.1626504e-16 -1.5251217e-11
7.87224e-11 9.337236e-13 2.9458583e-27 3.6091239e-12 -6.647863e-09 -1.5230288e-23 -3.532746e-08 -1.789245e-12
6.6038353e-07 -2.7259325e-11 2.9975354e-12 3.3138962e-26 -8.690608e-25 -2.0299774e-07 2.769854e-12 -9.053004e-15
-1.0916795e-14 1.3695993e-38 9.709918e-07 8.1911253e-07 -7.408845e-23 9.963928e-26 -8.491958e-28 -3.9788324e-09
3.0294356e-10 -0.00013509326 2.1697843e-29 -1.8339397e-09 -1.6908337e-09 6.517926e-08 -1.1159098e-15 3.6456466e-11
-1.7340593e-10 -4.783203e-13 -4.7567614e-28 -2.292385e-11 3.136961e-09 1.639846e-23 3.175241e-07 1.9338739e-12
-8.395864e-06 1.0914376e-10 1.0475169e-11 -4.9270076e-27 1.6868793e-23 3.5528018e-08 -4.3150466e-12 -7.36198e-16
1.0644763e-14 1.1794365e-38 -1.9817713e-05 -2.1150024e-06 8.600808e-23 -3.2419425e-26 4.6826613e-28 9.091073e-09
1.7678647e-10 5.3971788e-05 1.777426e-29 -6.4923666e-10 -1.3991763e-10 1.3973612e-07 -4.7675117e-16 -9.216342e-13
-1.4006759e-11 -1.5814807e-13 -1.6037454e-27 -2.1310185e-12 3.5060823e-09 2.6293225e-24 3.3221795e-08 -3.5997923e-12
2.5422355e-06 1.1695814e-11 -4.48874e-12 -2.4801283e-26 6.8826536e-25 1.3399604e-08 -2.2042873e-12 1.1512461e-15
2.914637e-15 1.852323e-39 1.1410022e-05 1.5500429e-07 5.148941e-23 -7.779072e-26 6.5437866e-28 5.6916843e-10
-1.5632842e-12 5.6628494e-05 7.7492334e-30 6.7910716e-10 7.205578e-11 -6.631193e-08 2.7912287e-16 1.6132423e-12
1.9484813e-11 -3.2010032e-14 3.3505835e-27 -1.452689e-12 1.3750011e-09 -5.6534194e-24 1.9438698e-08 -1.970931e-12
2.3570706e-06 -5.0891474e-12 -6.606086e-12 -8.216408e-27 -4.0651777e-25 -1.06784945e-08 4.4700856e-13 7.464437e-16
9.630553e-17 1.1061477e-38 8.1567005e-06 3.9439277e-07 3.0479162e-23 1.4719992e-26 -6.670007e-29 5.339374e-10

in_layer2.layers.2.bias f4 [32]
00000000: b93c eb38 ef17 dcb8 ea63 cf39 ed90 6b39
00000010: 00b9 8439 901f c4b9 241d 9a38 8713 d638
00000020: 88a4 f839 b6bb 5739 b3eb de38 c7a1 67b9
00000030: c635 9db9 6586 ad39 48a9 edb8 63cb cfb8
00000040: 6156 a6b8 99d2 74b9 2f57 1d39 7c50 1938
00000050: 479e 4838 799b c2b9 fde0 2db9 82a1 d639
00000060: ce1a 5e37 e4c0 d43a 4623 bf39 8737 d1b9
00000070: 134a d0b8 bc24 f937 8f2c 3cb9 e437 a639
0.00011216984 -0.000104948755 0.00039556558 0.00022465335 0.00025314838 -0.0003740755 7.34872e-05 0.000102079524
0.0004742483 0.00020573926 0.00010629687 -0.00022090143 -0.00029985438 0.00033097263 -0.00011332572 -9.908413e-05
-7.931586e-05 -0.00023348107 0.00015005165 3.6553e-05 4.7831123e-05 -0.000371184 -0.0001658238 0.00040937593
1.3238472e-05 0.0016231802 0.0003645664 -0.00039904958 -9.93201e-05 2.9700219e-05 -0.00017945677 0.0003170363

sat_layers.layer0_1.0.agg_weight f4 [3]
00000000: 86cc 0ebe 2356 0cbf afbf 87bf
-0.13945207 -0.54818934 -1.0605372

sat_layers.layer0_1.0.input_linear_layer1.weight f4 [32, 32]
00000000: 9f38 2539 dae0 51b8 d218 90b5 65b6 62b8
00000010: e1da c1b7 196b 79b7 8008 5234 98e9 c2b7
00000020: 66c7 81b8 0c84 38b8 8f42 4934 7a04 d238
00000030: b075 1d35 224e 7d34 94c7 5834 8057 c5b5
00000040: cb6c a338 4020 79b7 a4e7 69b7 eb2f 1bb8
00000050: d235 66b7 1cc8 bf34 f764 22b8 0eb3 7a34
00000060: 2c24 6234 b807 46b5 bb18 23b7 dbc3 6bb7
00000070: 4813 f636 7629 e434 2075 7634 b5d8 0ab8
00000080: b03c 0fbb 1c5f 89bb be33 a638 cc1f 743a
00000090: 4874 bfba 397b 733a f607 d5b8 0561 d6bb
000000a0: 3341 d1bb d2ed bfba c9c5 c9b8 f537 51bb
000000b0: 2959 bbb9 116d eab8 fb37 dcb8 f69c 74b8
000000c0: a6e1 7ebb 2666 693a 58a6 503a 7733 3c3b
000000d0: 6c48 503a 6bcf 3cb9 1c68 00bc 63c9 fbb8
000000e0: eef4 e0b8 81ff 0e39 80cc 8f3a ede2 6f3a
000000f0: 9b7b 873c 7dc6 0e39 5ef7 0db9 ac45 eeba
00000100: 50b9 babb 90e9 803d 64bb a5b9 aa6b 373d
00000110: 425a 533d 4314 fe3a 15a9 9cb9 bd4a ae3d
00000120: a5fb 963c 787a 423c 2c53 98b9 fd6a 1ebc
00000130: 6c7e 22ba 1993 a7b9 4fac 9db9 0a7e 31ba
00000140: 2c47 0fbc 4fce db3a 0b6c af3a 0978 bc3c
00000150: 8e86 b63a 4ad8 b7b9 ddfa 483d cce2 a4b9
00000160: f9cd a1b9 acba 7cb9 6b93 a23b 6459 ff3a
00000170: 9ca1 373d 24eb 163a d288 aab9 32b9 5d3d
00000180: c6a6 b53d 4a01 f9bd a40c 3c3a 9769 4ebe
00000190: faa9 0cbd 7687 4cbc 02d6 d63a 8f67 8dbe
000001a0: d766 ee3c 8938 75be 9fc7 cc3a 0d74 213e
000001b0: 621a 1d3a 500b eb3a 106d d93a b989 23b9
000001c0: 7a4c c13d 9910 1abc 7fb7 04bc c01b e4bd
000001d0: c5bb fabb 064f ee3a 3a79 8abe 5381 d03a
000001e0: 2855 eb3a da89 dc39 5fbb 2a3d 0709 41bc
000001f0: 0834 17be 589a 03bc 52c1 d03a 908d 4bbe
00000200: 1197 10ba a0db 5dba 9930 83b9 b5b8 5eba
00000210: 8edd 58ba 853b c4b9 beaa 4cb8 1afe 58ba
00000220: eb62 683a 5dd1 5cba f6b0 4eb8 fa41 51ba
00000230: 32ee 3fb7 d7f8 49b8 e645 4ab8 dc53 a7b9
00000240: a155 53ba 3e22 b8b9 7b97 aab9 6881 5bba
00000250: f7d3 bbb9 b416 03b8 38cd 5bba ce01 41b8
00000260: 1da8 4ab8 a9b6 10b9 460a a439 2483 96b9
00000270: 1fd6 633a e468 a1b8 292d 35b8 5ca7 5aba
00000280: 6afb 6a3d b82d 353c 6b9e 073b 0acf e7bc
00000290: 22d3 3dbe 26fe 31bc 4b5f da3a e054 78be
000002a0: 27ea b03d 3416 49be 4105 d13a 05e4 fd3c
000002b0: 3994 b739 3c51 e63a 19d9 d83a 91bb 413b
000002c0: 8a35 2b3e 1a87 05bc 6cf5 cbbb 0d07 6abe
000002d0: c5ef 07bc b927 e33a 079b 76be a571 d93a
000002e0: da48 de3a 4c9a c53a d755 e3bd 248d 39bc
000002f0: 1efe 073e ca79 0abc 405b d63a 6ed2 49be
00000300: 57c5 ccbb 72cc d03d 9f81 b6b9 575e ba3c
00000310: 253e fc3d dd58 063b b462 a5b9 aa2e 0f3d
00000320: 2a42 df3d 006e 513d b000 a1b9 fff3 21bb
00000330: 6d47 27ba edd2 b0b9 c753 a6b9 3124 41ba
00000340: 0f28 24bc 1a41 e73a 9e55 b73a b9e7 d83d
00000350: 864e bf3a d8be bfb9 6fbd d53d b374 adb9
00000360: 4fbf aab9 b381 8fb9 b59c 953a 4f3e 073b
00000370: a66c 823d de79 263a 7cac b2b9 2604 573d
00000380: ab66 1c3d 9e3e eabd e20d 113a 2d1c 1ebe
00000390: 77a7 33bc 3258 71bb b608 073a 4334 7cbc
000003a0: 1771 7e3b 3686 40bd a50d 043a 845b 123b
000003b0: e3c7 513a 842b 103a 082a 073a 5429 a33a
000003c0: 7dd3 913d 15a1 48bb 7f12 19bb d8db 47be
000003d0: 3d81 23bb b965 123a 0d43 13be 6f52 0b3a
000003e0: c3ed 0a3a 45a7 0c3a c095 b3bb 449b 71bb
000003f0: 692f 21be 0346 ccba 3246 0b3a c40c 003d
0.00015756719 -5.0038892e-05 -1.073606e-06 -5.4052467e-05 -2.3109316e-05 -1.4866492e-05 1.9560866e-07 -2.3235378e-05
-6.18834e-05 -4.3991997e-05 1.8743798e-07 0.00010014414 5.8658316e-07 2.3590886e-07 2.0189174e-07 -1.470311e-06
7.79271e-05 -1.4849065e-05 -1.3941815e-05 -3.6999507e-05 -1.3721599e-05 3.572212e-07 -3.871784e-05 2.3348204e-07
2.106105e-07 -7.377198e-07 -9.721315e-06 -1.4052693e-05 7.333616e-06 4.2498476e-07 2.2953145e-07 -3.3103588e-05
-0.002185624 -0.004192246 7.9251346e-05 0.00093125994 -0.0014606798 0.0009288076 -0.00010158114 -0.0065423273
-0.006385946 -0.001464302 -9.621267e-05 -0.0031924222 -0.0003573385 -0.00011178305 -0.00010500845 -5.8320315e-05
-0.0038891821 0.0008903466 0.00079593575 0.00287172 0.0007945362 -0.00018006346 -0.007837322 -0.00012006124
-0.00010726774 0.00013637358 0.001097098 0.0009150941 0.016538432 0.00013616118 -0.0001353896 -0.0018178723
-0.0056983605 0.062945485 -0.0003161087 0.04478041 0.05159975 0.00193847 -0.00029880615 0.08510349
0.01843054 0.011870019 -0.00029053667 -0.009669063 -0.0006198648 -0.00031962318 -0.00030073753 -0.00067707954
-0.008744996 0.0016769859 0.001338364 0.023006456 0.0013925598 -0.00035065628 0.049067367 -0.00031449494
-0.00030861775 -0.00024102133 0.0049614212 0.0019481597 0.044831857 0.00057570846 -0.00032526866 0.054131694
0.088697 -0.12158449 0.00071735145 -0.20157467 -0.03434179 -0.012483468 0.0016390684 -0.2761807
0.029101772 -0.23947348 0.0015623457 0.15766926 0.0005993006 0.0017932449 0.0016588289 -0.00015596197
0.09438415 -0.009403371 -0.0081003895 -0.111381054 -0.0076517784 0.001818151 -0.27045614 0.0015907682
0.0017954456 0.00042064377 0.041682597 -0.011781937 -0.14765942 -0.008032404 0.0015926755 -0.1987822
-0.0005515675 -0.00084632076 -0.00025022475 -0.00084961514 -0.00082727603 -0.0003742838 -4.8796406e-05 -0.000827761
0.00088648376 -0.00084235315 -4.9279035e-05 -0.00079825486 -1.1439946e-05 -4.8153885e-05 -4.822565e-05 -0.00031915202
-0.0008061771 -0.00035120727 -0.00032537789 -0.000837347 -0.00035825346 -3.1253978e-05 -0.0008384767 -4.6016467e-05
-4.831712e-05 -0.00013800956 0.00031288172 -0.00028707937 0.00086912693 -7.696616e-05 -4.319582e-05 -0.00083409785
0.057368673 0.0110582635 0.002069379 -0.028296966 -0.18537572 -0.010863816 0.001666048 -0.24251127
0.08638411 -0.19637376 0.0015947 0.030992517 0.00035014914 0.0017571817 0.0016544192 0.0029561261
0.16719642 -0.0081498865 -0.006224325 -0.22854252 -0.008296912 0.0017330564 -0.24082576 0.0016589655
0.0016958967 0.0015075891 -0.11100357 -0.011325154 0.13280532 -0.008451888 0.0016354099 -0.19709179
-0.0062491107 0.10195245 -0.0003481032 0.022750063 0.12316541 0.0020499744 -0.00031544792 0.03495661
0.10901292 0.051130295 -0.00030708825 -0.0024712083 -0.00063811877 -0.00033726488 -0.00031724406 -0.00073677587
-0.010019316 0.0017643303 0.0013987308 0.105910726 0.0014595545 -0.0003657255 0.10436522 -0.0003308408
-0.00032567463 -0.0002737172 0.00114145 0.0020636504 0.06368379 0.0006350557 -0.00034079317 0.05249419
0.03818385 -0.114377245 0.000553338 -0.15440436 -0.01096522 -0.003682625 0.00051511393 -0.01539332
0.003882473 -0.047002994 0.00050374336 0.002233238 0.0008002503 0.00054996484 0.00051561045 0.001244823
0.07120416 -0.003061359 -0.0023356972 -0.19517457 -0.0024948858 0.0005584616 -0.14381047 0.0005314713
0.00052997115 0.0005365501 -0.005480498 -0.0036866227 -0.15740742 -0.001558483 0.0005312889 0.031262174

sat_layers.layer0_1.0.input_linear_layer1.bias f4 [32]
00000000: 1e99 1bb8 9c98 21be 791b 7ebe 01ff 0b3e
00000010: f629 583a 0170 873e 0094 50be cd27 ae3d
00000020: da35 633e 88b2 8cbe b507 2bb9 b3d4 e43a
00000030: 346c 11b6 bb9f cab8 f272 593e 4d81 3d3e
00000040: 898c 10ba 82e2 24b9 94a7 9d3e 572a 003e
00000050: 2e64 883e 6a2c bf3b 5af2 a63e 897d 633e
00000060: e5a4 86b8 350e 74b9 e391 7ab8 81fb 563e
00000070: 6851 973e 7fdb 7539 153d 533e 418c b63e
-3.709748e-05 -0.15780872 -0.24815167 0.13671495 0.0008245999 0.2645264 -0.20368958 0.08503685
0.22188511 -0.2747996 -0.00016310702 0.0017458409 -2.1669666e-06 -9.661863e-05 0.21235254 0.18506356
-0.00055141054 -0.0001572464 0.30791914 0.12516151 0.2663893 0.005834152 0.32606775 0.22215857
-6.420332e-05 -0.00023274946 -5.9740512e-05 0.20994379 0.29554296 0.0002344679 0.2062877 0.3565388

sat_layers.layer0_1.0.input_linear_layer2.weight f4 [32, 32]
00000000: 21cb d3bc 873b adbd 2730 8abb 84b4 dbba
00000010: dfa0 aebb 3bae a9bd 18ca 0ebb 5967 843d
00000020: ee6e dbbd 727f d2bc f6f0 09bb a81b a43d
00000030: 0f70 b2bb 6f16 06bb db24 0cbb efec a6bb
00000040: 376c 00be 8684 62bd c652 a6bd 344e 5cbd
00000050: 832b b7bd 90a2 05bb 6662 0e3d 51f3 06bb
00000060: 7498 09bb 0b18 72bb f78f acbd 16ce babd
00000070: 32e7 fbbd 2ea0 bbbb 7624 08bb cfec a03d
00000080: b8e4 c7bc ffad d23d e343 d9bb 8ee1 6abc
00000090: 5c9b 753d 6413 5bbd 0d5a f1ba dede 253d
000000a0: 7f37 ecbd 2dc4 5b3b 0a81 e2ba 72ba 04bc
000000b0: d129 95bb 4753 dfba 4e87 e9ba e9ea c9bb
000000c0: 62e0 a7bd ceea b7bb a8e4 f3bc c262 ae3c
000000d0: 578b dcbd afa4 a9ba 6760 973d 6da3 d5ba
000000e0: bed9 e8ba 388f bbbb d7b0 b1bd a316 77bd
000000f0: 349f 083d 9dbf aabb 04a6 d6ba b677 39bc
00000100: c8b2 4ebb 79a6 2abb 13f0 b3b9 2823 16bb
00000110: 5245 133c db18 19bb 1755 8eb9 ee60 c63b
00000120: df4a c8bd 7dbe 0dbb 138b 8cb9 ad34 f23c
00000130: 8490 ebb9 fd01 85b9 ff60 8db9 4ada 03ba
00000140: b46f dfbc 6b07 deba f628 2dbb 1a6a 213b
00000150: 2e1c 38bb 7075 34b9 96f6 103a e1b2 84b9
00000160: 423c 8db9 61ea 21b9 e615 58bb 2977 2abb
00000170: cf0a 73bc 4a39 cfb9 d1ff 9db9 0312 e23a
00000180: e661 9d3e 6434 5e3e 2de8 9b3c 2de2 d93d
00000190: 96e8 873c 5eba 11be 1d34 b33b 4d77 72bd
000001a0: de13 06be 55e7 073e e3ca ad3b 08c9 863e
000001b0: adbe f53c 0bf4 ae3b 58d2 ae3b 87e6 173d
000001c0: 29ee 463e f80c 9dbd 923f c9bd f5b0 9b3d
000001d0: 752b 0bbe dd84 bc3b e8d0 2b3e b009 ac3b
000001e0: 2e0e af3b bb54 993c 0ced d0bd b787 05be
000001f0: ff87 863d b736 e83c ae9c a13b c44e 993c
00000200: 38d1 cb3d b033 5e3d 49f6 32bb 0352 b03c
00000210: 9574 f33c a1a8 373c 8c7e 7bba 2a31 d4bb
00000220: 274f f93d 681d 6d3d f3bf 70ba 6c8d 853d
00000230: be81 d3ba 5631 6fba be9b 76ba e101 0abb
00000240: 9b2c a7bd 1458 443c e6d7 31bc 50bf 173d
00000250: ae03 efbb c38a 2dba 94d7 d3bc bfac 66ba
00000260: 526c 77ba 1c36 12bb 6216 d63a bb0d 6d3b
00000270: 45ff 103d dfd2 dcba 7e6a 6eba 65e5 c7bc
00000280: b30f 2b3c e42a 923a 99c5 85b9 7697 843a
00000290: d255 bd3b 7c1a 1fbb 18a2 7db9 aad5 b53b
000002a0: 222e 71bd 7c00 863a 743d 7bb9 b7cb db3b
000002b0: 5002 beb9 9fc2 70b9 abef 7cb9 fbfe dbb9
000002c0: 1b1f 263c d566 04bb 7023 34bb 1ff5 3f3b
000002d0: 9d14 38bb 1e76 21b9 1065 183b 8c2a 6eb9
000002e0: 0c62 7db9 6c50 6fb8 541e 53bb 1b59 2bbb
000002f0: 5c6b d4bc 0eef 8eb9 a004 90b9 c017 203b
00000300: 9645 5c3a b8ab a83a a6f8 92b9 568f 9b3a
00000310: b138 093c 3d06 17bb 5870 60b9 538f 063c
00000320: bd0b 5cbd 8b9c ce3a 5efe 5db9 14d4 bd3b
00000330: ff4a bdb9 210b 4fb9 e4ec 5eb9 54e4 e6b9
00000340: 2a13 c13b 15d6 eeba 5655 2abb 0b7e 903b
00000350: de40 31bb 7a68 05b9 6826 653b 5ecf 4eb9
00000360: 48d9 5db9 74b4 a2b8 68e4 51bb 0a42 24bb
00000370: 4d2d 6cbd f023 8fb9 117d 7fb9 75c8 8c3b
00000380: 15c2 a03d 2730 383e fe25 6d3b 8833 303d
00000390: 3315 4ebb 6134 6e3d 5fc4 a83b 403a 623d
000003a0: 0d37 a3bd d8c9 f33d 6a98 a43b 93ce 843b
000003b0: 9429 643c c90e 9e3b 2878 a33b 6b09 b13b
000003c0: 881c 173e f0b3 3f3d 3730 4a3d 1681 003d
000003d0: 26ca 2e3d 1253 a93b 551f 173e 216a 9d3b
000003e0: 06f3 a13b ca1a 7b3b 05d3 1c3e 94b2 d73c
000003f0: 491d debc 476e 823c 522f 973b 3fe0 c43d
-0.025853695 -0.084586196 -0.004217166 -0.0016762172 -0.005329236 -0.08285185 -0.0021787938 0.064650245
-0.107145175 -0.025695536 -0.0021048165 0.080130875 -0.0054454873 -0.0020460149 -0.0021384272 -0.0050941627
-0.1254128 -0.055302165 -0.081212565 -0.053785518 -0.08943846 -0.0020391084 0.03476181 -0.0020591805
-0.002099541 -0.00369406 -0.084258966 -0.09121339 -0.122999564 -0.005725882 -0.0020773686 0.07857668
-0.024401054 0.10287093 -0.006630407 -0.014336003 0.059962615 -0.05348529 -0.0018413678 0.040495746
-0.115340225 0.0033533678 -0.0017280888 -0.008101093 -0.004552104 -0.0017038368 -0.0017816813 -0.0061620367
-0.081970945 -0.0056127077 -0.029772118 0.021287326 -0.107687645 -0.0012942756 0.07391434 -0.0016299315
-0.0017765088 -0.00572386 -0.08676308 -0.060324322 0.033354953 -0.0052108304 -0.0016376381 -0.011320045
-0.0031539667 -0.0026039167 -0.0003432041 -0.0022909138 0.008988695 -0.0023360762 -0.00027147747 0.0060540354
-0.097799055 -0.0021628432 -0.000268065 0.029566133 -0.00044930365 -0.00025369218 -0.00026965883 -0.0005029781
-0.027274944 -0.0016939467 -0.002642212 0.0024629892 -0.0028092968 -0.00017209887 0.0005529908 -0.00025310277
-0.0002693851 -0.0001544147 -0.0032972037 -0.0026010966 -0.01483412 -0.000395248 -0.00030135972 0.00172478
0.30738753 0.21699673 0.019031608 0.10638843 0.016590398 -0.1423125 0.005468859 -0.059195805
-0.13093516 0.1327184 0.005303727 0.2632525 0.029998148 0.005339151 0.0053351335 0.037085082
0.19426788 -0.07668489 -0.09826578 0.07602111 -0.13590796 0.005753143 0.1677891 0.0052501783
0.0053422665 0.01871716 -0.10201463 -0.13040052 0.06568908 0.028346403 0.0049320078 0.018714316
0.09952015 0.05424851 -0.0027307442 0.021523481 0.029718677 0.011209638 -0.0009593747 -0.0064755874
0.121733 0.057889372 -0.0009183876 0.06521115 -0.0016136689 -0.0009124478 -0.00094073627 -0.0021058249
-0.08162805 0.01198389 -0.010854697 0.037047684 -0.00729414 -0.00066201034 -0.025859632 -0.0008799545
-0.0009438443 -0.0022310084 0.0016333575 0.0036171514 0.035399694 -0.0016847512 -0.0009094848 -0.024401376
0.010440755 0.0011151698 -0.00025514959 0.001011594 0.005778053 -0.002427726 -0.00024188345 0.0055491524
-0.058881886 0.0010223533 -0.00023960118 0.0067076343 -0.00036241347 -0.00022960686 -0.00024121876 -0.0004196091
0.010139252 -0.0020202894 -0.0027486943 0.002929039 -0.0028088458 -0.00015398159 0.0023253597 -0.00022713299
-0.00024164486 -5.705694e-05 -0.0032214122 -0.002614564 -0.0259301 -0.0002726246 -0.00027469266 0.0024428219
0.0008402703 0.0012868559 -0.00028032548 0.0011868279 0.008375333 -0.002304449 -0.00021404156 0.008212882
-0.053722132 0.0015763206 -0.00021170962 0.005793104 -0.00036104766 -0.00019745204 -0.00021259818 -0.00044039136
0.005892177 -0.001822176 -0.0025990806 0.0044095567 -0.002704672 -0.00012722789 0.003496552 -0.00019722941
-0.00021157146 -7.758374e-05 -0.003202701 -0.0025063776 -0.05766039 -0.0002730186 -0.00024365286 0.0042963573
0.07849518 0.17987119 0.0036185975 0.043017894 -0.0031445741 0.05815542 0.0051503624 0.055231333
-0.079694845 0.11903733 0.005023052 0.004052946 0.013925929 0.00482354 0.004988689 0.005402734
0.14756978 0.04680246 0.049362388 0.031373106 0.042673253 0.0051673735 0.14758046 0.0048039113
0.0049423007 0.0038315528 0.15314873 0.02633027 -0.027113574 0.015921725 0.0046137953 0.09613084

sat_layers.layer0_1.0.input_linear_layer2.bias f4 [32]
00000000: adbf 013d ec4f 973d 1e4c 42bc 19f2 363e
00000010: f91e 09be 8fb8 41bd 8a66 babc 5f1a e03c
00000020: c58d 783d 6df7 15be e416 9ebc e1f7 69bd
00000030: 1eda 18be 260f 61bd 1a47 a1bc 3f76 c6bd
00000040: 59a6 8abc b3bc 82bd 16ea 8fbd dc9d 00bc
00000050: 849c 51bd 876f 53bd 538a 6bbd f1ad 43bd
00000060: 0826 87bd e9b3 67bd 4ba8 1e3d bd43 a1bd
00000070: 981c 4b3d d396 d03c e410 30bd bb04 17bc
0.031676937 0.07388291 -0.011858968 0.1786579 -0.13390721 -0.04729515 -0.022753973 0.027356325
0.060682077 -0.14645167 -0.019298024 -0.05712116 -0.14926955 -0.054946087 -0.019687224 -0.096905224
-0.016925024 -0.06383648 -0.0702707 -0.007850137 -0.051174656 -0.051620033 -0.057504963 -0.047773305
-0.06599051 -0.05656806 0.038734715 -0.07874248 0.049587816 0.025462544 -0.04298486 -0.009217436
