output/modelparams/dynamicLearning-HOSPITAL-SCUAU-SAT/epoch2_model_state_dict.pth (torch, 260877 bytes, 148 tensors)

in_layer0.layers.0.weight f4 [32, 2]
00000000: fcd8 b2bd 809d 843e 461e 87be 39a0 d9be
00000010: 2112 24be 09cd 7b3e 31e8 b1bd ba7b 1c3f
00000020: f7f6 41be 2625 a13e 582f acbe 4172 4fbd
00000030: 26e2 24bf 8c1f 6cbd 8016 63be 5a2e 1d3e
00000040: b15f 9d3e 776d 993e 7f08 12bf a1ce 1bbe
00000050: 0cf4 593e 01ba da3e daa1 8ebe 2571 233f
00000060: dbe8 0abe d8a0 013e aee3 2f3f 9611 c3be
00000070: 0d3f d8be ac1f 89bd 459d cfbe 8b98 3c3f
00000080: 688f bebe 931f 02be 49ea eabe cec9 33bf
00000090: 751f 09bf b889 3f3f a11c 833e 138c 5a3e
000000a0: 6ebb f13d 270e 02bf 0c82 3f3e 2976 05bf
000000b0: e8bd 04bf a15b 56bc e8e6 a43e 5311 f03e
000000c0: 8c74 aebe eaef 943d e9b6 ac3e 0a35 383f
000000d0: 802f 8d3e df41 77bc f74e 053f 1865 0fbf
000000e0: 1858 1d3e 5b8e 33bf a9a3 fabe 3a6a 60be
000000f0: c533 8a3e ae4b d23d d140 61be 6ea1 b43d
-0.08732793 0.25901413 -0.26390284 -0.42505053 -0.1602254 0.24589933 -0.08686865 0.6112629
-0.18941866 0.31473655 -0.3362987 -0.05064607 -0.64407575 -0.057647273 -0.22176552 0.15349713
0.3073707 0.29966328 -0.57044214 -0.15215541 0.21284503 0.42720035 -0.27857858 0.6384452
-0.1356539 0.12659013 0.68706787 -0.38099355 -0.42235604 -0.06695494 -0.40549675 0.7367026
-0.37218785 -0.12707357 -0.4588187 -0.70229805 -0.53563625 0.7481952 0.2560778 0.21342497
0.118033275 -0.50802845 0.18701953 -0.52133423 -0.51852274 -0.0130833695 0.32207417 0.46888217
-0.34073293 0.072723225 0.337333 0.7195593 0.27575302 -0.0150913885 0.52073616 -0.5601363
0.15365636 -0.7013909 -0.48952988 -0.21915522 0.26992622 0.10268341 -0.21997382 0.08819853

in_layer0.layers.0.bias f4 [32]
00000000: 4264 583e 6bfb 1e3d e785 bf3d 41ec 223e
00000010: 29ac d33e 1a1c 103f 7850 14bf 1ffd 12be
00000020: 4c4d 813e 31af 0a3f e054 063f 8e4e 0e3f
00000030: 5e4f 053e c6f7 04bf 63b9 e13d 9a9e 9cbe
00000040: 97ee 08bf e041 103f 84fa 0f3f 1423 28bf
00000050: 8b38 103e 6813 61bd 72f0 8bbc c8d1 a7be
00000060: a734 a13e 574d cdbe 730b 643e bdfd bf3e
00000070: 50c9 f63e 2297 733e 9d67 2cbf 6c19 85be
0.21131995 0.03881399 0.09351712 0.15910436 0.41342285 0.5629288 -0.57935286 -0.1435437
0.25254285 0.5417357 0.5247326 0.55588615 0.13018557 -0.5194057 0.11021688 -0.30589753
-0.5348906 0.5635052 0.5624163 -0.65678525 0.1408407 -0.054950148 -0.017082427 -0.32777238
0.31485483 -0.40098068 0.22269993 0.37498274 0.48200464 0.23788121 -0.673456 -0.25995958

in_layer0.layers.2.weight f4 [32, 32]
00000000: 5a51 523e dedb f3bc 9247 343d 7cb2 9a3d
00000010: 6905 943e e0dd 523e 6ef5 1cbe dcf8 f3bc
00000020: ce27 a1bd 3d5e 213e 7406 87bc b097 ea3c
00000030: 9f7f 103e e7d7 54be 56d1 d6bc de4a 8d3e
00000040: d3c3 30be 8d7a 003d e09b a03e 4071 38be
00000050: e83e 57be eb24 56be 59c7 2abc af06 953d
00000060: 8d5a 723e b008 2e3e e97f cdbd 323e 46bc
00000070: e442 82be b550 4abd 7abc debd 7514 d0bd
00000080: c4f8 03bb dde8 0cbe 69fb 063e 9a85 033e
00000090: 2a7c 72bd 15d6 df3c aff3 b23d 5685 24bc
000000a0: 458a f13c 3810 773d a34a 963d b660 3e3e
000000b0: 1b06 5b3e 7ad1 b4bd 041a da3d a91d 4a3e
000000c0: f02e 21be 65b3 00be 6c71 6f3e 8939 5ebc
000000d0: 9818 85be 97f2 85be 1763 07be 4db8 f6bd
000000e0: 1a4a 993d 7838 283e ad3c 6a3d da68 91be
000000f0: 5491 ebbc 5565 5abd 4cac 4ebd ba0c 3dbd
00000100: 6f22 d8bb 6057 e7bc b487 3bbd 49b1 b2bd
00000110: d2fa c3bb bdfb 8f3c 23d5 34bd 5763 85bb
00000120: 0495 a1bd 0a99 08bc 310c 1d3e 300e 49bd
00000130: 0cc7 433c 292f 0d3d 46b9 8bbd 0242 5f3c
00000140: de10 f0bc 6bc0 b13b 39df af3d 0254 88bd
00000150: c6bc 153d bfd6 fd3b dd85 b23c 370c f33a
00000160: 8f4f e53b 2324 313a df5e 823c 0dc6 013d
00000170: 476f 4dbd 60e5 8f3a a0e9 ec3c 7f18 b73c
00000180: 02a9 cdbd 8864 683d 9e89 9c3b 5539 80bd
00000190: 8865 f0bd b8cd 38bd 588c 1e3d 7681 813d
000001a0: 2421 e1bd 3292 153c 534c 64be 3818 14be
000001b0: a5f8 bfba 4165 febc b34d 373d a26f 0c3e
000001c0: f684 c13d cb37 febc 3767 ccba dd82 6a3d
000001d0: a4a4 89bd 8f85 27bd d0fa 913d 9e7a 493b
000001e0: fbba 84bb 656a 6e3b 251d f9bc a092 84be
000001f0: 6509 10be deee a43d 9373 a83d bb3d 9e3d
00000200: 25fe 9abd aa0e 093d 0a48 71bd f7e0 133c
00000210: 67b4 e6bb 2105 bf3c 2ebf b4bc a445 be3d
00000220: dcaa 3e3d 157b 213d 4823 fc3d 13bc 7abd
00000230: 833d 2f3d 616e 46bd c058 8ebd 0be3 033d
00000240: b545 d03c 0109 b93d 3275 5fbc f0b1 d3bc
00000250: ab6f 9e3d 628c 84bd 005c ae3d 62d9 9f3c
00000260: 8d92 0d3d cafe 98bc 6c03 5dbd 461d 2e3d
00000270: a670 1a3e 5c46 71bd 9955 d1bd 3f5a 87bd
00000280: a903 08be 6268 493d c835 65bd 2ff3 02be
00000290: a0e6 dbbd ff17 023d 14ab 813d 8a18 913d
000002a0: 5f49 173d b041 6dbd 6960 8bbd aa10 cebc
000002b0: 6b30 df3b dcb6 6f3d 4309 3ebd 5924 adbd
000002c0: 9d84 9ebd 4226 863c 614c 19be 4e63 88bd
000002d0: 2696 ca3d ec4e a0bb 0c23 23bc 125b c83b
000002e0: c697 cbbc fc4c 79bd c671 dbbd 3998 093e
000002f0: 712b 003d 9ad9 663d 0259 83bc b9fc 193d
00000300: f9dd 4ebc cda5 96bb ae05 e7bb 8925 223d
00000310: ddf5 153d 9247 103b 862b 8ebc 5ff9 1cbd
00000320: a30d bc3d b502 39bc 85d3 833d 4f44 00bd
00000330: dd7e ab3a be84 d83b 82b5 dbbc 627a c83c
00000340: 572b 3f3c cb1f 31bc 19c7 0d3d c391 c03c
00000350: 863d 983c ec28 9db8 9ede 77bd 42b9 e4b9
00000360: cabd 313c 6ca4 93bb 59f3 2b3d 78e2 a03d
00000370: 251e a7bd e52a 91ba 22e6 c03c 8f42 be3b
00000380: 9b2e 54bb 6492 223d a81b afbd beae 82bc
00000390: 3846 293d e094 c73d 6510 de3d a0b6 283d
000003a0: b500 353d 41ff 9abd 15f6 38be 44ad 2fbe
000003b0: 5be5 813d 938a d83d 89f9 8abd fec8 883d
000003c0: 7737 0d3e fb4f e53d d896 ca3d 0b02 f73d
000003d0: 266b 0dbd 9c46 3ebc 3be4 113e 068b d13c
000003e0: 71b0 5cbd 4528 663d f022 853d 9710 9d3d
000003f0: b195 eebd ad55 263d f457 46bc 24a7 103e
0.20538846 -0.029767927 0.044013567 0.075535744 0.28910378 0.20592451 -0.15327999 -0.029781751
-0.0786892 0.15758605 -0.01648257 0.028636783 0.14111184 -0.20785485 -0.026222866 0.27596182
-0.17262201 0.031366874 0.31368923 -0.18011951 -0.2102009 -0.2091252 -0.010423505 0.072766654
0.23667355 0.16995502 -0.100341626 -0.012099789 -0.25441658 -0.049393374 -0.10875793 -0.10160152
-0.002013729 -0.13760705 0.13181843 0.12843934 -0.059200443 0.027323762 0.08737885 -0.010041555
0.029484877 0.0603182 0.073384546 0.1859158 0.21389048 -0.08829017 0.10649493 0.19737877
-0.15740561 -0.12568434 0.23383111 -0.013563522 -0.25995326 -0.26161644 -0.13221394 -0.12046871
0.07484837 0.16427791 0.05718677 -0.28400308 -0.028755821 -0.053319294 -0.050457284 -0.046154715
-0.0065959017 -0.028239906 -0.045783713 -0.08725221 -0.005980828 0.017576093 -0.044148576 -0.00407068
-0.078897506 -0.008337269 0.15336682 -0.049085796 0.011949312 0.034468804 -0.068224475 0.013626577
-0.029304918 0.0054245493 0.08587498 -0.06656648 0.03655698 0.007746547 0.021792347 0.0018543069
0.0069980095 0.0006757399 0.015914379 0.031683017 -0.05015495 0.0010978393 0.028919995 0.022350548
-0.10042001 0.0567365 0.0047771474 -0.06260935 -0.117381155 -0.045118064 0.03870806 0.06323521
-0.10992649 0.009129094 -0.2229474 -0.14462364 -0.0014646245 -0.031054141 0.044751834 0.1371446
0.094491884 -0.031032464 -0.0015594725 0.057253707 -0.06720856 -0.040898856 0.07127917 0.0030743252
-0.00405061 0.0036379334 -0.030409405 -0.25893116 -0.14066084 0.08053373 0.08225169 0.07726618
-0.075680055 0.03346125 -0.058906592 0.009025804 -0.0070405486 0.023317875 -0.022063818 0.09290627
0.046549663 0.03942402 0.12311417 -0.061214518 0.04278327 -0.04844511 -0.069505215 0.032198947
0.025423864 0.090349205 -0.013638781 -0.025841683 0.07736143 -0.064720884 0.08513641 0.019512836
0.03456359 -0.01867618 -0.05395834 0.042508386 0.15082034 -0.05890499 -0.102214046 -0.0660901
-0.13282646 0.049171813 -0.055959493 -0.1278808 -0.107373476 0.031761166 0.06331459 0.070847586
0.036935207 -0.057923973 -0.06805498 -0.02515443 0.006811192 0.058523998 -0.04639555 -0.084541984
-0.07740138 0.016375665 -0.14970542 -0.06659566 0.0989192 -0.0048922207 -0.009957086 0.006114372
-0.024852645 -0.060864434 -0.1071506 0.13436975 0.03129143 0.056359865 -0.016033653 0.03759453
-0.012626165 -0.0045974017 -0.0070502376 0.039586578 0.036611427 0.0022015315 -0.017354738 -0.038323756
0.091822885 -0.011292149 0.064368285 -0.031315144 0.0013084073 0.006607621 -0.026819948 0.02447242
0.011668048 -0.010810803 0.034613702 0.023507005 0.018584024 -7.493966e-05 -0.06051504 -0.00043625577
0.010848472 -0.0045056846 0.04198012 0.078556955 -0.081600465 -0.0011075406 0.023547236 0.0058062742
-0.0032376412 0.03969039 -0.08550197 -0.015952464 0.04132673 0.097451925 0.10842971 0.04118979
0.044190127 -0.07568217 -0.18062623 -0.1715594 0.06342574 0.10573306 -0.06785876 0.06678961
0.1379069 0.11196896 0.098920524 0.120609365 -0.034526013 -0.011613514 0.1424722 0.025578987
-0.053879205 0.056190748 0.065008044 0.0766918 -0.11649645 0.04060905 -0.012105931 0.14126259

in_layer0.layers.2.bias f4 [32]
00000000: c9a0 743d 6ec6 12be 7f8b 81bd 4434 0bbe
00000010: 815c 13be 6a7d 33bd 649a cabd 3d59 30be
00000020: 7c13 f43d 3f82 32be f36b 36be 6e8b 253e
00000030: 2a00 b93d 9cfe ee3d 703f 62bd 372d b9bd
00000040: 8488 5d3d 3092 91bb b8af 7b3e 0072 9ebe
00000050: 393b e3bc 718d 573d bafe 1fbe 6c43 6bbd
00000060: 41ef 6b3d 2655 07be 9fab b13d 2559 89be
00000070: 3751 f53d dae5 ecbd 16f6 b73d 6e53 ccbd
0.05972365 -0.14333507 -0.06325435 -0.13594157 -0.14390756 -0.043820776 -0.09892729 -0.17221542
0.11917779 -0.17432497 -0.17814617 0.1616647 0.090332344 0.11669657 -0.05523628 -0.09041827
0.05408527 -0.0044424757 0.2457875 -0.3094635 -0.0277382 0.052625123 -0.15624514 -0.057437345
0.057601217 -0.13216075 0.08675312 -0.26825824 0.11978381 -0.11567278 0.08982484 -0.099768505

in_layer1.layers.0.weight f4 [32, 2]
00000000: a928 18bf 00bb 2a3c 21a4 0e3f 2f06 1bbf
00000010: a97d a1be 73fc 1e3f 10da f2bd aefc 953e
00000020: e923 2ebf 60b5 63be d9da b7be 419c 183f
00000030: ae42 963e dd15 04bf 487b e93d 8027 05bc
00000040: 32c0 94be 77c0 cebe de46 70be 29af 0e3f
00000050: 9ec3 01bf aaf2 00bf 4664 5fbe 808a 493c
00000060: 3c1a 453e 40d3 ad3c d04d 2ebe b085 dbbe
00000070: 50ec 01be 68bd 91be 3140 123f b934 30bf
00000080: fbed e6be 8a46 13bf 7c54 04be 4510 0d3f
00000090: a9ab 1e3f 5c96 1dbf e0f9 fabc 2281 d43e
000000a0: f295 9f3e 0d46 143f 40ad a0bc 4c40 f3be
000000b0: e67f ef3e f24b 78be 6675 bb3e 6870 32be
000000c0: 86e6 993e 41d0 223f 6352 283f 47bd 24bf
000000d0: 407b efbe e4b0 95be 58df e6be 25b0 2d3f
000000e0: 70cc 7fbd aa27 f0be 771a a1be 33fa c7be
000000f0: 3cb5 933e f2e4 1dbf 72c8 28bf 1c71 32bf
-0.5943704 0.010420561 0.5571919 -0.6055631 -0.31541184 0.62103957 -0.11857998 0.29294342
-0.68023545 -0.22237158 -0.35909155 0.59613425 0.29347748 -0.5159586 0.11400467 -0.008127093
-0.29052883 -0.40381214 -0.23464534 0.55736023 -0.50689113 -0.50370276 -0.21815595 0.012301087
0.19248289 0.021218896 -0.1702187 -0.42875433 -0.12687802 -0.28464818 0.571292 -0.6883045
-0.4510344 -0.5752951 -0.12922853 0.5510295 0.6198068 -0.61557555 -0.030636728 0.4150477
0.31169087 0.5791939 -0.019613862 -0.47509992 0.46777266 -0.24247721 0.36613005 -0.17425692
0.30058688 0.6359902 0.6575071 -0.64351314 -0.4677372 -0.2923652 -0.45092273 0.678469
-0.062450826 -0.4690526 -0.31465504 -0.39058074 0.28849208 -0.6167747 -0.65930855 -0.6970384

in_layer1.layers.0.bias f4 [32]
00000000: cadd 9b3e fe02 b33e cada e0be 408e 333e
00000010: 2da0 053f 386b d23d 9033 19be 70fc 553d
00000020: 4048 9bbd 4249 b63e 10d4 f5be 3a97 b73e
00000030: b20d cc3e 9d59 dbbe 55d0 133f 5fcb 313f
00000040: ddb9 8ebe 5ccf 4abe 8a6c b43e 72d0 0dbf
00000050: cc2b 8f3e 40ee 283e 2634 e43e 103c 1dbf
00000060: 5b63 16bf 229a a23e 0469 823e 977c 28bf
00000070: f1e4 c9be f9a0 25bf b8af 01bf 0a5a a3be
0.3044265 0.3496322 -0.43916923 0.17534733 0.52197534 0.102743566 -0.14961076 0.052242696
-0.0758214 0.35602766 -0.48013353 0.35857564 0.398542 -0.42841807 0.57739764 0.69450945
-0.27876177 -0.19805664 0.3523906 -0.5539619 0.27963102 0.16497135 0.44571036 -0.61419773
-0.58745354 0.3175822 0.25470746 -0.6581511 -0.3943248 -0.6469875 -0.5065875 -0.31904632

in_layer1.layers.2.weight f4 [32, 32]
00000000: ebcc 153e d420 10bd f6ef cf3d 1de9 2b3e
00000010: 22fe a43d e60c 22be a22f b63d 1418 8a3d
00000020: 454d 0c3e 4c90 32be daa8 de3d fd2b 143e
00000030: fc69 28be d883 973c 0588 1a3e 26a8 03be
00000040: 7095 6d3d 0afa 9f3d 04c6 3d3d affb 333e
00000050: 0537 143e 6f4e 1b3e 0082 b4bc bdd2 173e
00000060: b8b1 28be df5d c3bd d0dd 1abd 9417 57bd
00000070: e334 273e d6c2 aa3d ce15 e93d 1a43 f63d
00000080: da38 07be 08ba a7bc 5877 d33c bc53 3c3d
00000090: 0e2c ba3d c10e 90bd 9055 5abd 6377 173e
000000a0: bc54 42bd ae7c fbbd 027a f53d 0e28 f53d
000000b0: f40b 63bd f0c1 10bd 0f92 05be 092b 17be
000000c0: fc24 883d 05a9 9abd d31b 103e cff1 10be
000000d0: d82b c8bc 4025 7a3b 9a11 ba3d 2781 123e
000000e0: 9a2c f53d 365e 9f3d 6b2c a6bd 4846 01be
000000f0: 35f1 21be a0ab 0f3c 2b91 2f3e 7488 09bd
00000100: 60dc f3bb b08b 03be 7c4c 5e3d ca86 e53d
00000110: 4778 32be 62eb febd 1915 063e 946f 2b3d
00000120: d092 34bc 506f 013d 202e dcbc 660d fdbd
00000130: 5e26 29be 9e1d ee3d 183d acbc e074 86bd
00000140: 34e5 3abd d876 c5bd ac75 56bd bd63 1bbe
00000150: f376 073e f4d5 933d 7895 b6bd 1e23 77bd
00000160: 926c a23d 9c10 86bd 44ef 3e3d 585e 473d
00000170: a1e6 e3bd e861 353d 5035 313c 7119 1e3e
00000180: 2afe 82bd 3423 3abd 65f7 1b3e 21d2 13be
00000190: 0041 513c 9d69 2e3e 9853 a2bd 3f8a 2d3e
000001a0: 35a0 203e d368 283e f82f 8abc 91c1 233e
000001b0: 4cbf 9dbd feda 77bd 50ef 883d 94f5 183d
000001c0: 4695 c73d b306 2c3e dba1 e2bd c224 c03d
000001d0: 2840 723d 0200 bf3d 32ab ab3d 836d 87bd
000001e0: d911 0fbe 97e2 103e 8572 cebd 0e76 e73d
000001f0: 6872 2cbe c088 fabc 0095 f53a a090 fa3c
00000200: 501d 6a3c 4c29 643d 803e a1bc 6854 313d
00000210: 4722 333e 0342 eabd 1021 1ebc d132 8abd
00000220: ebd4 1e3e b3f5 1a3e e0f5 9dbb 22fd 7abd
00000230: 02b1 dfbd c986 013e 5073 47bc 597c 2a3e
00000240: f674 ce3d 7172 1e3e 272c 0f3e 9e44 ebbd
00000250: 64f0 533d 601f 96bd 72a7 b53d 0834 82bc
00000260: b0bb 7a3c 9e63 fabd 18c8 21be 8055 883d
00000270: d843 283d e094 7b3c 0ae5 f53d 972d 97bd
00000280: 4c84 803d a165 c7bd 5c07 163d 484e 25bd
00000290: 9a8b fd3d 594c 1e3e 3738 1d3e d049 023c
000002a0: de7d d53d 05dd 34be ab5e d4bd d068 013d
000002b0: 8038 813a 061d 0ebe 153e a0bd 7717 a9bd
000002c0: db58 33be 901c 8a3c b2cc f63d 30f0 923d
000002d0: 3904 acbd 4839 26be d00a 12be 80e5 563b
000002e0: 1e0d f93d a09d 92bd 6400 c5bd c221 c1bd
000002f0: d0ba 7abc e6e7 2bbe 51bd 1fbe 9931 323e
00000300: 7da9 acbd e498 02bd 98ba 41bd d006 1fbe
00000310: b84c ffbc f4a6 5d3d 3002 93bd 60e1 f6bb
00000320: 00ac 5dba a434 34be bb8c 033e f538 123e
00000330: 06d7 f63d 2ac9 6dbd 2630 bd3d e099 29be
00000340: 8820 33bd 1444 13bd 2ab5 7fbd 660e 983d
00000350: 3cf7 a4bd c0d8 a7bc 6c14 51bd fffd 29be
00000360: 3026 efbc da68 19be 321b d33d 0a7f c13d
00000370: d593 293e ae25 73bd a048 133c 08d7 0d3d
00000380: 65b2 343e bdec 253e 8b5e bbbd a307 1abe
00000390: 8e26 23be df57 aebd d932 183e 5c2e 733d
000003a0: 37a8 2e3e e12c 063e 80f5 273b f661 e0bd
000003b0: f7c3 303e 6135 113e fabd 9c3d bcc4 c5bd
000003c0: 719a 0e3e 20ce 833c 6a64 ef3d 561a 973d
000003d0: de3e c03d 12d7 1ebe 5ebe c8bd f623 d93d
000003e0: ecd9 16bd b07b 1dbe 6d9e 243e 8089 7abb
000003f0: 7f06 123e de7c 0dbe 9c4b 793d 5f5e 88bd
0.14628951 -0.035187557 0.10153191 0.16788144 0.080562845 -0.15825233 0.08895804 0.06742874
0.13701351 -0.17437857 0.1087205 0.14469905 -0.1644668 0.018495485 0.1509095 -0.12857112
0.058003843 0.07811363 0.04633142 0.17576478 0.14474113 0.15166639 -0.022034645 0.14826484
-0.16474044 -0.09539389 -0.037809193 -0.05251272 0.16328768 0.08337943 0.11381112 0.12024517
-0.13205281 -0.020474449 0.025813743 0.045978293 0.09090434 -0.07034064 -0.053304255 0.14791636
-0.04744409 -0.1227964 0.11986162 0.119705305 -0.05543132 -0.035341203 -0.13043998 -0.1476251
0.06647679 -0.07551769 0.14073114 -0.14154743 -0.024434969 0.0038169175 0.090853885 0.1430708
0.11971398 0.07781641 -0.08113941 -0.12624466 -0.1581467 0.008768946 0.17145221 -0.033577397
-0.007442042 -0.12846255 0.05427216 0.112073496 -0.17428695 -0.124472395 0.13093986 0.041854456
-0.011021331 0.031600296 -0.026877463 -0.12356071 -0.16518542 0.11626743 -0.021025226 -0.06565261
-0.04562874 -0.09641808 -0.052358314 -0.15174766 0.1322897 0.07218543 -0.08915228 -0.060336225
0.079308644 -0.06546137 0.0466149 0.048673958 -0.11127973 0.044282824 0.010815933 0.15439393
-0.06396134 -0.04544373 0.15231092 -0.14435627 0.012771845 0.17032476 -0.079261005 0.16947268
0.15686114 0.16446237 -0.016868576 0.15991808 -0.077025026 -0.06051158 0.0668627 0.037343577
0.097452685 0.1679943 -0.11066028 0.09382011 0.059143215 0.09326173 0.08382262 -0.066126846
-0.13971652 0.14148937 -0.100804366 0.11301814 -0.16840518 -0.030582786 0.0018736422 0.03058654
0.014289215 0.055703446 -0.019683123 0.043293387 0.17493545 -0.11438372 -0.009651437 -0.06747974
0.1551091 0.1513279 -0.0048205703 -0.061276563 -0.109224334 0.12649073 -0.012173489 0.16648997
0.10080902 0.15473343 0.13981687 -0.11487697 0.051742926 -0.07330203 0.08869828 -0.015893951
0.015303537 -0.12226032 -0.15798986 0.06656933 0.041080326 0.015355319 0.12006576 -0.073817424
0.062752336 -0.09736181 0.036628112 -0.040357858 0.123801425 0.15458812 0.15353476 0.007952169
0.10424398 -0.17662437 -0.10369619 0.031594098 0.0009858757 -0.13878259 -0.07824341 -0.08256429
-0.17514364 0.016859323 0.12050761 0.071747184 -0.08399243 -0.16232789 -0.14261937 0.0032790601
0.12160705 -0.07158971 -0.09619215 -0.09430267 -0.015303329 -0.16787681 -0.15599562 0.17401733
-0.08430765 -0.03188409 -0.04729709 -0.15529943 -0.031164512 0.054114297 -0.071781516 -0.007534191
-0.0008456111 -0.17598206 0.12846653 0.1427954 0.12052731 -0.058053173 0.09237699 -0.16562605
-0.043732196 -0.035953596 -0.06242863 0.07424621 -0.08054969 -0.020489097 -0.051044866 -0.16600798
-0.029193014 -0.14981404 0.103079215 0.09448059 0.165603 -0.059362106 0.008989483 0.034628898
0.17646177 0.1620359 -0.09148892 -0.15041976 -0.15932676 -0.08512854 0.14863147 0.059370384
0.17056356 0.13103057 0.0025628507 -0.109561846 0.17262255 0.14180519 0.07653423 -0.09656665
0.13926102 0.016089499 0.11689074 0.0737807 0.09386991 -0.1551173 -0.09801935 0.10602562
-0.03682892 -0.15379214 0.1607606 -0.003822893 0.1426029 -0.13817164 0.060863122 -0.06658625

in_layer1.layers.2.bias f4 [32]
00000000: a838 4e3d f83d 2b3d 80b4 7f3b fe9d cf3d
00000010: f849 1ebd b61c d5bd 683e 8a3d 402e 413d
00000020: 82d8 893d 20d9 a0bc 302d c0bc 2032 66bc
00000030: 3ced 3e3d 21e8 0abe 84b8 28be 3079 873d
00000040: af37 c6bd 40a5 73bc 24bc 483d 081e cb3c
00000050: 8264 e93d 48d4 bd3c 8043 333d 28a0 81bc
00000060: 08c3 d53c 34c0 843d eefc f63d 9b84 2bbe
00000070: ddcf 96bd 836f 22be be57 90bd feb0 dc3d
0.050347 0.041807145 0.0039017498 0.101375565 -0.03864476 -0.10405867 0.06750184 0.047163248
0.06730749 -0.019634783 -0.023459047 -0.014050037 0.046612963 -0.13565113 -0.16476637 0.066149116
-0.096785896 -0.014870942 0.04900755 0.024794593 0.113961235 0.023172513 0.043765545 -0.015823439
0.026093975 0.06481972 0.12059961 -0.16749804 -0.073638655 -0.15862851 -0.070479855 0.10775946

in_layer2.layers.0.weight f4 [32, 2]
00000000: 7a63 a9be e2c6 cebe cc91 de3e 493a dbbe
00000010: 88a0 9f3e 9581 9f3d 9c69 803c 990d 0e3f
00000020: 63c1 59bf 6777 063f 59a0 3d3e 6649 86be
00000030: 8bb6 3d3e e6ad 20be cb16 74be 887c 223d
00000040: db8d e1be 848c 243f e90e 0a3f 5be9 b0bd
00000050: df92 2bbf 1803 d33d e332 30bd 2f5d f03e
00000060: 83e7 0cbe f361 8a3d b359 023e e863 c7be
00000070: de67 99bd ef90 f9bd b46b 46bd 6326 063e
00000080: 3e69 26be f7dd 263f cf09 393d d83f 0fbe
00000090: 2da3 f73c ae6d a2bd e571 acbe 5623 2c3f
000000a0: 45b3 9ebd 05c2 273f 6f73 273d 66b6 5cbe
000000b0: 6490 e83e 893e c7be 13ee 0c3d f46c a13d
000000c0: bc92 383e 8edc dbbd e874 a4bc ab4d a5bc
000000d0: 3f29 8d3e 3b10 563d 610c c43d 9b76 c03d
000000e0: 5ca1 80bd 3096 55bd 89fc 0c3f b1fc 10bf
000000f0: 47d9 bfbe ee17 8e3e f27c 8cbd 2787 2abc
-0.33083707 -0.4038611 0.4347061 -0.42817906 0.31177163 0.07788388 0.015675358 0.554895
-0.8506071 0.52525944 0.18518199 -0.26227874 0.18526666 -0.15691337 -0.2383682 0.039669544
-0.4405354 0.6427691 0.53929 -0.08638259 -0.6702098 0.103033245 -0.04301728 0.46946093
-0.1376019 0.067569636 0.1272953 -0.3894341 -0.07490514 -0.12185847 -0.048442557 0.13100581
-0.16251084 0.6518244 0.04517537 -0.13989198 0.030229175 -0.07931076 -0.33680645 0.6724142
-0.07749037 0.65530425 0.04088157 -0.21553954 0.4542266 -0.38914898 0.034406733 0.07882109
0.18024725 -0.10735427 -0.020075276 -0.020178637 0.2757053 0.052261572 0.095726736 0.09397622
-0.06280777 -0.052145183 0.5507284 -0.56635576 -0.37470457 0.27752632 -0.06859769 -0.010408199

in_layer2.layers.0.bias f4 [32]
00000000: b638 2e3d bfe4 49bd fba3 04bf 2c71 b5be
00000010: 0a4d 093f a95c c3bd 49a4 67be 59a6 473e
00000020: 4627 803d 4b3b 14bf 358a 163f 5306 ad3e
00000030: ff41 af3e 6e0e 243e f889 fcbb 7b3c 2abe
00000040: 92fd 803e 0a6f 2d3d 896d 963d 3c4c 1fbf
00000050: dd24 a9be 00f6 283e 21e5 84bd 18f9 34be
00000060: 6df7 70be f99c 6c3d a6c5 8bbe 17e7 96be
00000070: b655 3a3e 9a98 a23e de29 ecbd eb92 99bd
0.042534553 -0.049290415 -0.51812714 -0.35437906 0.5363318 -0.09539158 -0.22621264 0.1949705
0.06257491 -0.57902974 0.5880464 0.33793887 0.3423004 0.1602113 -0.007706877 -0.16624634
0.2519346 0.042342223 0.07345111 -0.622257 -0.33035937 0.16500092 -0.06489015 -0.17673147
-0.23531885 0.05776689 -0.2729923 -0.29473183 0.18196759 0.3175705 -0.11531423 -0.074987255

in_layer2.layers.2.weight f4 [32, 32]
00000000: b40f a73d 5e12 3dbe 10a6 a6bd 0bc1 003e
00000010: 80ee 573c df23 a2bd 4713 ddbd e80d 4bbd
00000020: 1d80 5ebd b5ed 0cbe efcb b7bd 88b9 493e
00000030: 107d 273c fed8 12be 7c42 ec3c 8b34 10bd
00000040: 6fc4 2abd 78b7 063d 1dfb 19bd 4b57 c23d
00000050: 6a09 643d 919d debd a430 93be 5637 56ba
00000060: bfb6 6a3c 196b 34bb 4d1c f0bd 8357 5dbc
00000070: 6753 d73b e4a8 4abe a116 06bc 224a 683c
00000080: 406a 873c dd85 4a3d 4d58 793d fe63 ac3d
00000090: 2f58 523e edab d6bc 19b3 4ebc c17e 9c3c
000000a0: 8e82 d83d e99d c03c 6039 9d3d e471 c4bd
000000b0: 1878 85bd 11fd 883d 997e 333c bc8d 5f3c
000000c0: 13a0 99bd 2ed6 c83b 967b d038 ab1b 063e
000000d0: a43f 183b 4ce2 71bc 2ee0 a93d bf84 e33a
000000e0: b79c 8ebc bf42 123a 439e 893d 6498 7f3a
000000f0: 8933 00bb 6f09 2cbd 4ef1 853d b35b 9a3a
00000100: 5538 623d c494 28bc 72be 683c fd8a 1a3c
00000110: 2711 7fbe 9033 6fbb 7ea3 2dbd d8ef 98bd
00000120: bd3d 67be fd93 7bbd 46e7 2ebc 276f 8ebd
00000130: e518 023e 7f28 d4bd df9d 59bd 4fb2 ca3c
00000140: dc1b cfbd fb76 25bd 107a 20bd 39aa 03be
00000150: 73d8 f3bd 5616 b1bd c949 e03c b7ee 283c
00000160: 17ba b6bd 495d dcba b9b7 14be 641e 00ba
00000170: c21a f53b 8803 073e 5a75 d9bd 75b1 65bc
00000180: 276d 823d 244c 453e abc0 bdbd fdec 0a3d
00000190: eddd 1d3e fcb8 173e c722 ca3c 1fa3 983d
000001a0: 4dec 23bc b729 67bd e955 203e 2efe a03d
000001b0: 2668 00be a9f1 f83d 5ceb 373d fb44 a43c
000001c0: 8e45 b73d 8a07 6d3d 1fbb 93bb 2c10 9c3d
000001d0: 8272 123d f20c 203a cd6a 993d 7e24 0bbc
000001e0: 5b4b ae3d 82ea 7fb8 c46a 17be ef73 e2bb
000001f0: 7ed9 fbba 4da2 d1bd 6111 223e f0be f83b
00000200: 4744 a8ba 2f33 3b3d ec57 9f3d 1eb1 bebd
00000210: cab9 21be 887b 0e3d 040c ce3c ad0f a8bd
00000220: a215 49be 3a5d 823d b5d9 79bd a492 e3bd
00000230: 303b 8dbd 7459 c0bd 377b 51bd fcf6 1dbd
00000240: f16e 27be 71e2 31bd 0902 643b 6478 65bd
00000250: f281 f7bd d0ab b4ba 3d4a 833c 69b8 253c
00000260: 1a73 0fbd 431c 05ba 1423 153e 939b 2db9
00000270: c791 6e3b 1833 423b d728 ffbc a9ca 0ebd
00000280: a08e 3ebc 704e 00be 2ebc 6e3d 939a 5cbd
00000290: 15f7 fdbd e2d5 b1bb 4c41 53bd 9378 573c
000002a0: ccfc 9bbd 461a d5bd 3067 04bc 862c 46bd
000002b0: b134 323d cf4c 243d 5208 e33c b436 0f3c
000002c0: f10c 34be 62dd 13bc 7d8d f03b b6e1 a8bd
000002d0: 97d1 e2bd 3daa 733c 263c 76bd 6b6f 7e3c
000002e0: 9830 aabc 1485 c03a 56c1 c23d 2538 8cba
000002f0: c04a a93b e3a4 b03d f4db a63c a7c6 a63c
00000300: cd25 38bc d80f 883c d690 8fbd 37e0 c83d
00000310: 0045 533e 5dcc 983d d607 7b3c 7836 073d
00000320: c4b2 353e 2cb6 b0bc dc6f 9d3d 7ca2 e1bd
00000330: 5a1b 11ba 94b3 2d3d 4b5a 5d3c 5d2a efba
00000340: 4ec5 773b 7d0e 18bb 9d59 0cbc d560 c63d
00000350: 7e20 a3bd 1f6f 643c 4745 78bd 6894 16ba
00000360: e7ed 143d ad38 8e38 426b 973d 5102 643a
00000370: 7cb0 a539 27eb c73d 5b4b d43d 113d cb3c
00000380: 224d bbbc 8fa8 2ebe cea9 a63d 6fe7 02be
00000390: 4137 b0bc 0270 d4bc 7c26 3fbd 922d 1dbd
000003a0: ed2b e4bd bf34 c7bc 4e46 70bd 52ce 1e3e
000003b0: 385e 6ebd f7ec 553d aea9 003c 3cbd 2cbd
000003c0: d1ef 78bc 0a9f 583b cb61 fc3c 6b3a 09bd
000003d0: b764 823d af68 943d cdd4 b6bc 50ec efbb
000003e0: 45e3 0a3d 47c2 08b9 f5ac 993d 803e 453c
000003f0: 0116 9a3c 1e51 50be ad8a 53bc af8c 87bb
0.08157292 -0.18464038 -0.08137143 0.1257364 0.013179421 -0.07916998 -0.107946925 -0.04957381
-0.054321397 -0.13762553 -0.08974444 0.19699681 0.010222688 -0.14340588 0.028840296 -0.03520636
-0.04169124 0.032889813 -0.037592996 0.09489306 0.05567304 -0.10869897 -0.28748047 -0.0008171698
0.014325797 -0.0027529655 -0.11724148 -0.013509634 0.0065712216 -0.19790989 -0.008184106 0.014177831
0.016530156 0.04944407 0.060875226 0.084175095 0.20541452 -0.026205027 -0.012615942 0.01910341
0.10571776 0.023512797 0.07676959 -0.095920354 -0.06517047 0.066888936 0.010955476 0.013644632
-0.07501235 0.006129048 9.9412326e-05 0.13096492 0.0023231292 -0.014763426 0.08294712 0.0017358287
-0.017408712 0.0005579404 0.06719639 0.0009750186 -0.0019561967 -0.042001184 0.06540166 0.0011776596
0.055229504 -0.010289375 0.014205562 0.009432551 -0.24908887 -0.003649924 -0.042392246 -0.074676216
-0.22582145 -0.06142043 -0.010675257 -0.069547944 0.12704809 -0.103592865 -0.053129073 0.024743227
-0.10112736 -0.04039667 -0.039178908 -0.12857904 -0.11906519 -0.08646838 0.027378934 0.01031082
-0.089222126 -0.0016812469 -0.1452321 -0.0004887341 0.0074799964 0.13184941 -0.10618086 -0.01401936
0.063684754 0.19267327 -0.09265264 0.033917416 0.15416689 0.1481666 0.024674786 0.07452988
-0.010005069 -0.056436267 0.15657772 0.07860981 -0.1253973 0.12155468 0.04490219 0.020052424
0.089488134 0.057868518 -0.0045083906 0.07620272 0.035753734 0.00061054446 0.07491074 -0.008492587
0.08510467 -6.101514e-05 -0.14786822 -0.006910793 -0.0019214598 -0.102360345 0.15826942 0.007591121
-0.0012837731 0.04570311 0.07780442 -0.09311126 -0.15793529 0.034785777 0.025152214 -0.08206115
-0.19637159 0.06365438 -0.060998637 -0.11111954 -0.06896055 -0.09392062 -0.051142897 -0.03856562
-0.16350915 -0.043428842 0.0034791252 -0.056023017 -0.12085332 -0.0013784114 0.01602661 0.010114768
-0.03502188 -0.00050777587 0.14564162 -0.00016556522 0.0036402808 0.0029632505 -0.031147404 -0.03486124
-0.011630684 -0.12529922 0.05828493 -0.05385835 -0.12400643 -0.005427108 -0.051575944 0.013151306
-0.076165766 -0.10405402 -0.008081242 -0.048382305 0.04350728 0.040112313 0.027713928 0.00874107
-0.17583062 -0.00902495 0.0073410855 -0.08246176 -0.11075132 0.014872131 -0.060115956 0.015529494
-0.020775124 0.0014688098 0.09509532 -0.0010697885 0.0051663816 0.086252 0.020368554 0.020358397
-0.011239481 0.016609117 -0.07010047 0.098083906 0.2063179 0.07460854 0.015321692 0.03301093
0.17743975 -0.021571241 0.07687351 -0.110173196 -0.0005535387 0.042407587 0.013510297 -0.0018246878
0.0037806812 -0.0023201995 -0.008566287 0.09686438 -0.07965182 0.013942509 -0.060612943 -0.000574416
0.036359694 6.781644e-05 0.07393505 0.0008697855 0.00031602744 0.097616486 0.103659354 0.024809392
-0.022863928 -0.17056488 0.081378564 -0.12783597 -0.021510722 -0.025932316 -0.04666756 -0.038373537
-0.11141191 -0.024317143 -0.058660798 0.15508392 -0.058195323 0.05222794 0.007852955 -0.042172655
-0.015193895 0.003305378 0.03080835 -0.033502977 0.06366866 0.07246529 -0.022318268 -0.007321872
0.033908147 -0.00013042345 0.07503692 0.012038827 0.01880932 -0.20343444 -0.012911481 -0.004136644

in_layer2.layers.2.bias f4 [32]
00000000: 5e1f 2e3e afab 5ebd 1729 5cbd 6536 283d
00000010: d26c 6f3d b31a d6bb f0be 99bd ded3 253e
00000020: 21b2 e5bc 1780 303e 3bd8 95bc 3adf af3b
00000030: 120c 693d 2283 55be e746 91bd c548 1ebe
00000040: 1559 fa3d f9f7 073e d551 d339 6683 b3bd
00000050: cc61 8bbc 36c3 aa3d 690d cf3d aa86 f0bb
00000060: 1487 ecbd fa53 593d 0a72 16bd bfd4 f7bd
00000070: 7d0e 5fbd 47bc 2b3d 3acb 143d 676f c73d
0.17004153 -0.05436295 -0.053750124 0.0410675 0.05845339 -0.0065339445 -0.075071216 0.16194102
-0.02803904 0.17236362 -0.018291583 0.005367187 0.056896277 -0.20850804 -0.07093602 -0.15457447
0.12224022 0.13278188 0.00040306026 -0.08765297 -0.017014407 0.08338015 0.1010998 -0.007340272
-0.115492016 0.053058602 -0.03672985 -0.12101125 -0.054457176 0.041927602 0.036326624 0.09738045

sat_layers.layer0_1.0.agg_weight f4 [3]
00000000: 86cc 0ebe 2356 0cbf afbf 87bf
-0.13945207 -0.54818934 -1.0605372

sat_layers.layer0_1.0.input_linear_layer1.weight f4 [32, 32]
00000000: dc39 1abb e267 9fba 91d7 0338 1c80 fa39
00000010: 9534 38ba a031 0eb9 ddfd 60ba 0193 4cba
00000020: 5dd8 93b9 563e ca38 25a9 32ba 7726 1ebb
00000030: 97cd d439 7cfe a439 4807 263a caa5 d6ba
00000040: 26f8 7539 c48a 86ba 480a 0638 702f fa39
00000050: de74 433a e433 eb39 cb3c 9539 6ae4 67ba
00000060: 652b 04ba 413c 15b8 8048 4838 4993 f639
00000070: de38 d8b8 4e77 61ba fea6 4d39 9bf9 22b9
00000080: 724e ebbb bb50 c2bc bb4e aa39 b8d7 ec3c
00000090: 0a47 aebc c5aa e7ba c3ae 18bb edc2 44bc
000000a0: 5814 96bb f6fe caba 1086 20bc 57f2 66bc
000000b0: 0d85 273a b793 b13a 07a1 e93c 5f44 32bb
000000c0: e7a7 00bc 593a feba 2cb4 4a3c f570 d53c
000000d0: dc2a e63c 5f63 313b 6ae4 8839 a8b3 b2bb
000000e0: ddea a139 49cf 9d3a d180 323d 2c01 db3c
000000f0: b9b1 973c 7e02 1bbb 833c 143b 8e0f 2dbb
00000100: 5fcc 89bc 5cba d43b 3096 3d3a a19e 593d
00000110: 9a97 d1bc ab39 64bb cf8f 55bb 949c 523d
00000120: 83a3 c73b 542b 43bc d4a6 563c 9b79 1fbd
00000130: bdd2 50bb f7cf be3a 5d19 b33c 702f f1ba
00000140: 8fae c7bd e982 f3ba 4b2d e9bd 4b34 e63c
00000150: c84f d2bb d4bd 2e3b bc49 173d 81c6 adbb
00000160: 2f1c 06bb 59b5 033c ddd1 bf3b f9ab b83d
00000170: 1ab0 d03c 6a8f d3ba 94f0 473b 1fdc e3bb
00000180: a257 013e 6962 a6bc 3b8a 49bd d9b8 2ebe
00000190: 2e04 943d 7903 07bd d5a2 19bb 1131 5cbe
000001a0: e7ba 1e3d 7ba6 47be 79ef 1dbe bbff 4d3e
000001b0: 1032 c43d 0cb9 a33c 56f4 b23c 9889 1bbd
000001c0: e0e7 163e 855e bfbc d9e6 78bd 4db3 abbd
000001d0: 3c7a 20bd e759 043d b0c9 58be 5f21 9dbb
000001e0: 9330 dc3d 2a6f edbd ae80 0c3e 1429 ccbd
000001f0: 91e1 f8bd 3eea a23c edb3 2abd 6794 58bd
00000200: fd0d 19bc 4a12 25bd 01fa a339 54da 093c
00000210: 1afd a3bc d220 ffba e86b 13bb 31e4 44bb
00000220: 0433 283d 76b2 053b 9691 023c fb64 95bc
00000230: e4b0 1239 ac30 a23a 3824 f23b 705d 28bb
00000240: 5253 25bd cc68 f6ba 1b5c 64bd 33a2 7b3d
00000250: e322 273d 2904 2c3b 6555 5c3d 8e91 adbb
00000260: 9fe4 1c39 79dc 6f3a 9d45 e13c d453 bd3c
00000270: 1ef6 223d 2661 0bbb 169a 043b 415d 6cbb
00000280: d52d c63d a86c fa3d 2e42 2d3c a1b9 143b
00000290: d0e9 51bd cfcb 41bb aa09 203c 6c42 3cbe
000002a0: ed0b c53d e6f3 0dbe f35e 09be 7561 bb3d
000002b0: dd87 2d3d cd22 123c 7c5d 563c 5eab 9eba
000002c0: b4ac 9e3e 8d3f d3ba e9b3 9e3b 2620 57be
000002d0: c550 bcbd 6903 6fbc 3499 39be 2fce 0b3c
000002e0: 4af5 65bb c188 f5bc 506c d4bd f368 68bd
000002f0: fdac 133e b582 8dbc 5295 333c 0470 50bd
00000300: 93a0 d4bc 9837 2b3d 3790 7e3a efe7 893c
00000310: b51e cabb 9c9b 79bb 5b41 5ebb b36c a23b
00000320: 34ac ad3d 483d db3c c778 753d 50fe fbbc
00000330: 7b1d 9cbb a59b d33a d3b8 d2bc 1377 9cba
00000340: a705 e5bd dbee fcba 3603 d53b df48 fa3d
00000350: eedb c0bc d48e 2b3b 063b c93d 6f09 a7bb
00000360: c1c5 ad39 d0d2 2b3c 418b 82bd a2a1 983d
00000370: a9c3 2f3d 32db c5ba 5a70 b13b 0cc9 17bc
00000380: 6520 2cb7 2c7a 37b9 f2ec 0638 a930 b7b9
00000390: 6b13 18b8 0de2 7bb6 2bfc 11b7 c636 a7b9
000003a0: d1c9 943a 0ab3 a5b9 9d4d a0b9 647d 12b8
000003b0: 1b42 0c38 b5b1 9eb6 9a20 0639 2a84 aeb8
000003c0: 91cd df39 ebc0 91b8 dc0a 183b ce5a abb9
000003d0: 94a9 0b38 7811 a238 3121 a8b9 b3eb 84b8
000003e0: 384c 4b36 62b2 1a38 41c5 b13a 97e8 afb9
000003f0: 3b9c 073a 0a7d 9bb7 8e45 3a38 ed8c b937
-0.0023533022 -0.0012161697 3.1433596e-05 0.00047779165 -0.00070268783 -0.00013560662 -0.00085827505 -0.0007803888
-0.00028199228 9.6437216e-05 -0.00068153656 -0.0024131814 0.00040588967 0.00031470123 0.00063334825 -0.0016376313
0.00023457463 -0.0010264744 3.1957665e-05 0.0004771906 0.0007456074 0.00044861354 0.0002846479 -0.0008845987
-0.00050418667 -3.5580484e-05 4.7751237e-05 0.00047030512 -0.00010310275 -0.00086008466 0.00019612533 -0.00015542509
-0.0071809823 -0.023720136 0.00032483586 0.028911456 -0.021274108 -0.0017674795 -0.0023297525 -0.012009365
-0.004580062 -0.0015487361 -0.009797588 -0.014095864 0.00063903705 0.0013548051 0.028519167 -0.0027201397
-0.007852531 -0.0019396051 0.012372058 0.026054839 0.028096609 0.0027067286 0.00026110123 -0.0054535456
0.000308833 0.0012039925 0.04357988 0.026733957 0.018517362 -0.0023652609 0.0022619076 -0.0026406976
-0.016821085 0.0064919423 0.00072321575 0.053129796 -0.025584985 -0.0034824412 -0.0032586937 0.051418856
0.00609249 -0.011912186 0.013101298 -0.03893433 -0.003186389 0.0014557828 0.02186268 -0.0018400978
-0.09750091 -0.0018578443 -0.11385592 0.028101107 -0.006418202 0.002666344 0.036935553 -0.0053032045
-0.0020463576 0.008038842 0.005853875 0.09017176 0.025474597 -0.0016140763 0.0030508386 -0.0069537307
0.12631086 -0.020310597 -0.049204092 -0.17062701 0.0722736 -0.032962296 -0.0023443003 -0.21503092
0.038752463 -0.19497101 -0.15423383 0.20117085 0.09579861 0.019985698 0.021845024 -0.037973017
0.14736891 -0.0233605 -0.06076703 -0.08383808 -0.03917907 0.0323123 -0.21170688 -0.004795238
0.10751452 -0.115934685 0.13720962 -0.099687725 -0.121523984 0.019887086 -0.041675497 -0.052875903
-0.009341714 -0.040300645 0.0003127605 0.00841387 -0.02001815 -0.0019464737 -0.0022494737 -0.003004324
0.041064277 0.002040056 0.007969281 -0.018236628 0.00013989542 0.0012374124 0.0073895715 -0.0025690459
-0.040362664 -0.0018799542 -0.0557519 0.061433982 0.040804755 0.0026247597 0.053792376 -0.0052968925
0.00014962487 0.00091499795 0.027499015 0.023111261 0.039785497 -0.0021267622 0.0020233444 -0.0036066326
0.096767105 0.12227756 0.0105748605 0.0022693651 -0.05124837 -0.0029570942 0.009767929 -0.18384713
0.09621415 -0.13862571 -0.13415127 0.09149448 0.042365897 0.00891943 0.013083812 -0.0012105515
0.30991137 -0.0016116962 0.0048432243 -0.21008357 -0.09195093 -0.014588215 -0.18124849 0.008533045
-0.003508883 -0.029972436 -0.103722215 -0.056740712 0.14421459 -0.01727424 0.010960894 -0.050888076
-0.025955474 0.041801065 0.0009710821 0.016834227 -0.0061682113 -0.0038087135 -0.0033913467 0.0049568056
0.08480111 0.02676262 0.059929635 -0.030760914 -0.0047642565 0.0016144408 -0.025722897 -0.0011937342
-0.11182719 -0.0019297259 0.006500627 0.1222093 -0.02354237 0.0026177661 0.09825711 -0.00509756
0.0003314447 0.010487273 -0.06374217 0.07452704 0.042911205 -0.0015095233 0.0054150047 -0.009264242
-1.0259541e-05 -0.00017497753 3.2168762e-05 -0.00034940735 -3.625771e-05 -3.7533493e-06 -8.701386e-06 -0.00031893532
0.001135165 -0.00031604647 -0.00030575405 -3.492589e-05 3.3440167e-05 -4.7294548e-06 0.00012791381 -8.321584e-05
0.00042687033 -6.9500726e-05 0.0023199832 -0.00032683316 3.3298114e-05 7.728016e-05 -0.00032068187 -6.338153e-05
3.0293722e-06 3.6882593e-05 0.0013562815 -0.00033551894 0.00051731215 -1.8535666e-05 4.4410634e-05 2.2119342e-05

sat_layers.layer0_1.0.input_linear_layer1.bias f4 [32]
00000000: af06 6fbb 9298 52be 8bc7 71be 3ca9 ba3d
00000010: a419 dabd aecc 6b3e de2f 3abe 8aae 55bb
00000020: dee3 683e d30b 8ebe 1e4d 473e d057 e4bd
00000030: a9f0 6c3e de08 1c3e e2eb 383e 7cd6 463e
00000040: 05e6 58be 7236 daba af73 893e 8577 e13d
00000050: 20f0 733e 0569 023e 7ed9 973e e71c 603e
00000060: 887c 483e 5cd3 16bb b121 6f3e f81f 5b3e
00000070: 0776 813e 1ff8 a5bb 553f 673e 69fd a63e
-0.003647249 -0.20566013 -0.23611276 0.0911431 -0.10649422 0.23027298 -0.18182322 -0.0032605254
0.22743174 -0.27743396 0.19463012 -0.111495614 0.2313868 0.15237758 0.18058732 0.19417757
-0.21181495 -0.0016648306 0.26846072 0.11009125 0.23822069 0.12735374 0.2965812 0.21886025
0.19578755 -0.0023014164 0.23352696 0.21398914 0.2528536 -0.0050649787 0.22582753 0.32615212

sat_layers.layer0_1.0.input_linear_layer2.weight f4 [32, 32]
00000000: 893b 00bd 81da d2bd 0a25 cd3a ede3 90bc
00000010: 1085 ccbc 497a e93c f51d a93b 7f33 ef3c
00000020: cfc4 f0bc c1b5 cebc b928 db3d fdcf b03d
00000030: 8f27 903d 9004 84b8 7eb4 42bd de35 863c
00000040: 9575 16be a121 a73c 953b 1ebe 0e12 cbbd
00000050: a48c d7bd 4470 2a3c 9e9d 193b a057 e4ba
00000060: d991 903b 840b 7cbc 7614 89bd acae 89bd
00000070: d666 3ebd 8a53 3fbc 8baa db3b a8ed ddbb
00000080: 7142 68bd 609c 1e3e 07ce c6bc 066f 9fbc
00000090: fc98 5f3d 7e0a ac3c b2cd 9c3c e0ec 3a3d
000000a0: 7042 ebbd ddc7 d73c ad65 f33c faca 5dbd
000000b0: f4da b3bd 6306 4ebd f945 20bd 7ec0 a5bb
000000c0: d4c9 c0bd da8e e63c ce9e d53d 2425 3f39
000000d0: 1b39 1dbe 557e e0bc 610d e83d 2794 683d
000000e0: 4a34 24bd 3390 06bd 875f c7bd 4170 f13b
000000f0: dfef e13c 698f b2bc 1c8d 273d 91aa d23b
00000100: 9883 a13c e576 53bd 6b18 8dbb 0b4b 853c
00000110: 0cb3 123d 7cab 0cbc b826 e5ba d5ac d3bc
00000120: 3c15 cdbd d802 873c b824 943c a5a3 fa3d
00000130: 283e a4bd e0bd 25bb b48d ac3c 50af 5b3c
00000140: a845 e6bd e418 473c 7164 94bc b533 8e3d
00000150: 1c95 19bd d880 cbbb 937e d03b af6c 8ebb
00000160: 502f 9b39 3de8 f8ba 4045 adbd b1e5 f23c
00000170: bb30 233d da16 053b 6981 dfbb 15d1 cd3b
00000180: 76b5 713e 1d81 563e ccdd 513d e98d a43d
00000190: 5a1b c3ba 8108 58be 1430 17bb d6a5 67bd
000001a0: f74f 3abe 3756 053c c4db 6a3d 8619 363e
000001b0: c5ee 6c3e 6c32 0a3d 37c0 63bc 433f 03bc
000001c0: 2645 083e 7d9f 4a3d e882 b4bc 2250 c03c
000001d0: bbfe 59be 1354 4f3d 3d7d a73d c895 553d
000001e0: 71e7 1d3d 77dd a13d 40ee 31be 67d8 49be
000001f0: 9fa1 88bd cdb1 ff3c 9b09 01bd bfb5 ddbc
00000200: ee6d e63d 5a26 7b3d de18 83bb e0b1 c23c
00000210: e982 e63c 3275 0a3c beb1 27bc 42e3 55bd
00000220: 5176 103e fbde 043e 7be0 073d a8ae 043d
00000230: 0d59 9dbb d314 9cbc 0af0 c03b 2894 063c
00000240: 81ea a8bd d219 8bbb 438e 9c3b 92f6 013d
00000250: c1c2 dcbc 084b 20bc 43cf cdbd 779a 933c
00000260: 2230 4cbc f86e 923b 3cc6 e03d e8d9 d2bc
00000270: ca54 5f3d 7a32 12bc 7bcf 8cbc c1e7 98bc
00000280: 0bdf 7f3d fbdb 98bd fb08 92bb d27d ab3d
00000290: ca82 bc3c e0a5 38bc f252 5bba 1c31 cf3c
000002a0: cdce ddbb 5735 73bc bfb8 c0bb 9555 afbd
000002b0: 3590 63bd cafa 57ba 3069 0abd 652f 113c
000002c0: 5989 283d eedd c93b 50a3 14bd 4f2e 7e3d
000002d0: 886a 0fbd 946b 05bc 6cff e03c 8036 943b
000002e0: 77bb 1abc 0b9b 67bc b201 a8bd 48d5 1ebd
000002f0: 6416 353d 9061 aebc 2637 e2b9 3abc 883a
00000300: caaf c4bd 5784 f43d 1492 93ba a90f 17bd
00000310: 84bd 633c ff6a ef3c ba0d 1b3b b688 273d
00000320: 49c6 f8bc ab85 1d3c 04be 383d c578 71bd
00000330: 6b59 ecbd 816f 3d3c f5a3 95bd 20b6 353c
00000340: c23f c33c 7113 343c 0476 85bc 99b7 d4bc
00000350: 81f5 bd3c 74ad a3bb 8a34 073d d6e7 23bd
00000360: a56c f0bb 4290 893c c395 0ebe 4129 0d3d
00000370: a001 2bbe d033 c2bc 725d e8ba 325b 863c
00000380: 7c8c 273a a7af 9f3d fe08 6c3c 30ed 4ebc
00000390: 7ea4 bf3c 38ae 1bbd e015 54bb 66e8 ab3d
000003a0: 6d04 b5bd a7ca 923d ccdd 09bd 34ee 8ebd
000003b0: 59b9 fdbb a7a9 54bc c06b 8fbd b2b2 2b3c
000003c0: 4b1e c43d 8060 9e3c 1dfa 4abc e3fd 0f3d
000003d0: cd26 96bc abb8 ca3c 8994 273e d4ac 393d
000003e0: 1571 6d3b ef69 fa3d 58ff 083e 827d 76bd
000003f0: 312e 38bd 7770 80bd 77fd a13b b921 153d
-0.031306777 -0.102955826 0.0015651297 -0.017686808 -0.024965793 0.028500693 0.005161042 0.02919936
-0.02939072 -0.025233151 0.107011266 0.086334206 0.07038795 -6.2951e-05 -0.047535412 0.016383108
-0.14693291 0.020401778 -0.15452416 -0.09915553 -0.10524872 0.010402743 0.0023439894 -0.0017421134
0.0044119176 -0.015383605 -0.06693356 -0.06722769 -0.04648479 -0.011677632 0.00670368 -0.0067727156
-0.05670399 0.1548934 -0.024268163 -0.01946212 0.054589257 0.021001097 0.019141052 0.045636058
-0.11487281 0.02634042 0.029711569 -0.05414865 -0.08781996 -0.05029906 -0.03912923 -0.0050583472
-0.09413496 0.028144289 0.1043068 0.00018229015 -0.15353815 -0.02740399 0.11330677 0.056781914
-0.04008893 -0.032852363 -0.09735017 0.007368118 0.0275802 -0.021796899 0.040906057 0.0064290245
0.01971607 -0.05162706 -0.0043058894 0.016271135 0.035815284 -0.008585807 -0.0017482853 -0.025839249
-0.10013816 0.016480848 0.018083915 0.12238244 -0.08019668 -0.0025290176 0.021063663 0.013408497
-0.112437546 0.0121519305 -0.0181143 0.06943456 -0.037495717 -0.0062104277 0.006362745 -0.004346452
0.00029599154 -0.0018990111 -0.08460474 0.029650541 0.039841395 0.002030781 -0.006820847 0.006281028
0.23604378 0.2094769 0.051236913 0.0803488 -0.0014885471 -0.21096994 -0.0023069428 -0.056554638
-0.18194567 0.008138231 0.05733849 0.17783174 0.23137958 0.033739492 -0.013900808 -0.008010688
0.13307628 0.049468506 -0.022035077 0.02347571 -0.21288578 0.05061729 0.08178184 0.052144796
0.038550798 0.07903569 -0.17376041 -0.19711457 -0.06671452 0.031212712 -0.0315033 -0.027064202
0.11251436 0.06131587 -0.004000767 0.023766458 0.028138595 0.008450793 -0.010235248 -0.052218683
0.14107634 0.12975685 0.033173066 0.032393128 -0.0048018754 -0.019052899 0.00588799 0.008214034
-0.08247853 -0.0042450214 0.004777701 0.03172929 -0.026948335 -0.009783514 -0.10049298 0.01801799
-0.012462648 0.004468795 0.1097531 -0.025738671 0.05452422 -0.008923167 -0.017188778 -0.018665196
0.06246857 -0.07463833 -0.004456637 0.08373608 0.023011584 -0.011270016 -0.0008366547 0.025291972
-0.0067690373 -0.01484426 -0.0058813985 -0.08561245 -0.05555745 -0.00082389696 -0.03379172 0.008861397
0.04114661 0.0061604893 -0.03628856 0.062055882 -0.035013705 -0.008143324 0.027465545 0.0045230985
-0.009444109 -0.014136086 -0.08203448 -0.03877762 0.044210806 -0.021286756 -0.00043147168 0.0010432072
-0.096038416 0.11939304 -0.0011258745 -0.03688017 0.0139001645 0.029225824 0.0023659305 0.040901862
-0.030367987 0.009614388 0.045103088 -0.058953065 -0.115404926 0.011562229 -0.07306663 0.011090785
0.023834113 0.010990963 -0.016291626 -0.025966452 0.023188354 -0.0049950425 0.03300909 -0.040016018
-0.00733717 0.01679242 -0.13924317 0.03446317 -0.16699839 -0.023706347 -0.0017728044 0.016400907
0.0006391478 0.07797175 0.014406441 -0.012629792 0.023393866 -0.038007945 -0.0032361671 0.08393936
-0.08838735 0.07167559 -0.033658788 -0.069790274 -0.0077430424 -0.012979901 -0.070029736 0.010479616
0.095760904 0.019333124 -0.012388733 0.035154235 -0.018329049 0.02474626 0.16365255 0.045330837
0.0036230732 0.122272365 0.13378656 -0.060178287 -0.044965927 -0.06271451 0.0049435454 0.036409114

sat_layers.layer0_1.0.input_linear_layer2.bias f4 [32]
00000000: 08d6 4c3d 54d3 cf3d b94d 9c3d 0c2e 223e
00000010: 7588 cebd 1f70 0d3d 151d 763d f769 0bbb
00000020: 22d6 0a3e 9b8f 0ebe 2910 443d 1e62 b13c
00000030: 5fe5 2ebe 7433 a9bd 2445 213e a578 aebd
00000040: 1c39 d0bc 7768 67bd 8efd ebbd 96a9 603a
00000050: 6060 893d 970b 7ebc 63da 35bd 7fec 02bc
00000060: 7827 9abd 2614 aebd b1ef 2abd 1e04 5cbe
00000070: c96f e13d 3947 e43b 9ade 00bd db17 28bd
0.050008804 0.101477295 0.07632012 0.15837878 -0.10084621 0.034530755 0.06008633 -0.0021272877
0.13558248 -0.13921969 0.047866974 0.021653231 -0.17079686 -0.08261767 0.15749031 -0.08519105
-0.025417857 -0.05649611 -0.11522971 0.0008570192 0.06707835 -0.015505693 -0.044397723 -0.007990955
-0.07527059 -0.08499937 -0.041732494 -0.21485946 0.110076495 0.006966498 -0.03146229 -0.041038375

sat_layers.layer0_1.0.input_linear_layer3.weight f4 [32, 32]
00000000: 69e3 183e e333 253e 22c6 b03d 5ed0 b33d
00000010: 7f8b afbd fefe 933d d1de f4bd d676 9c3d
00000020: e489 00be 007a 7dba 3b33 033e a667 f03d
00000030: ef0e 203e c8ff 763d 1089 8c3d 582c 423d
00000040: d12e 043e 12fb bd3d 38a7 553d 7ea4 7cbd
00000050: ad36 afbd 8404 33bd 66c7 ac3d 9612 c5bd
00000060: d0d2 453d cf5f 1e3e 0d47 193e 6546 05be
00000070: 0063 4e3d 26ba ec3d 7b6c 24be 8e62 e73d
00000080: 3695 e1bd c4e2 02be 3577 99bd da2c 88bd
00000090: 8fae 95bd 1076 503d 1041 8c3d 82b4 8c3d
000000a0: 46f6 f93d ac10 e5bd 18e2 2bbe 0438 11be
000000b0: 4efc c6bd 8999 a5bd aa15 9f3d 26ff 02be
000000c0: c059 04be 1ae2 c13d a15c e6bd 44cf 073d
000000d0: 7c06 0abe 3a23 8a3d 163a e23d a643 18be
000000e0: 244c 763d 83ce bdbd 82c3 e53d 59cf 223e
000000f0: 55b6 18be 826b 873d 2680 f43d d593 243e
00000100: 57b7 083e a867 0e3d 6052 293c 2430 153d
00000110: 25d7 d7bd 28de 0dbd c0aa 32bb e917 e5bd
00000120: 706b 00bc 9060 c0bc 127d 7dbd a864 5ebd
00000130: 2b48 34be b782 2c3e 2a73 b23d f5de 023e
00000140: 2917 1abe 1238 31be 259e 063e d04c febc
00000150: a0bc e13c 5a8a b53d b014 393c 20d8 bfbb
00000160: 761f d73d f79c 103e 58c8 49bd 088c 1abe
00000170: ec84 c6bd 695c 013e 50d9 7b3c 15ff 1a3e
00000180: fe4a 7dbd 1685 2bbe d0db 603d 4647 9abd
00000190: aa72 d8bd c2b5 e13d 406a 493c c050 77bc
000001a0: 0b4a 303e 43b1 1d3e e9e0 13be 4367 26be
000001b0: 4207 b3bd 118c 0cbe 914f bebd 4e40 f43d
000001c0: 40e6 f0bd c705 263e 58ea 613d a098 fb3b
000001d0: d8b4 f73c 08d5 183d c8f9 683d d738 13be
000001e0: c07d 49bb 7e2b f03d f5d7 333e 3038 19bc
000001f0: 6a50 01be be62 a63d 8f9f 25be ed58 213e
00000200: ca83 de3d 3a11 a33d d8cf c53c a196 033e
00000210: b63f 92bd 43fc 16be 5e21 c8bd 41b4 063e
00000220: 07f1 b4bd ce56 10be 9499 1e3d 34e4 e0bd
00000230: 8030 f5bb c6ca e5bd e0fc 183d 8069 ecbc
00000240: 6812 bf3c 1a59 a73d 6d1d e9bd 2cdf 76bd
00000250: 486a f1bd a3bd 163e 8ba0 81bd d457 883d
00000260: d01b 273d 1d97 32be 3e82 00be 7c16 3abd
00000270: 68c5 0abe 9af8 bf3d be93 e33d 0006 aab9
00000280: 6852 b13c f8cf 3e3d 68d3 703d 140d 0cbd
00000290: a274 8ebd 9adb dfbd c0a8 e63b 0524 0f3e
000002a0: f801 b4bc 13c2 1b3e d445 7d3d 0b48 babd
000002b0: b89f 8c3d 1404 913d cf20 a1bd 90d5 fdbc
000002c0: 2865 96bc 449a 7f3d bd3f 0d3e 183f 1fbd
000002d0: 326c eb3d 9a35 c33d 86d9 1cbe 7155 043e
000002e0: e09d eabb 77b8 0b3e 9100 0d3e fc49 2fbe
000002f0: 2dc1 16be 00d8 a4bc b4ac 683d 5879 e6bc
00000300: 2545 2ebe 92ee c43d f605 cfbd 665b a43d
00000310: 3eb8 ff3d 1a39 74bd 4209 da3d a892 c03c
00000320: a250 63bd c0e2 3b3c 0c31 823d 1652 b93d
00000330: 17bf cfbd 8d4d 073e f93a abbd 4fef 1bbe
00000340: cf81 9cbd b042 20be f8bd 4a3d 20fb 423c
00000350: 500a 0dbc 4506 f5bd 36da be3d c829 ed3c
00000360: d0b9 35bd 6049 003d f05f 7f3d cd82 d9bd
00000370: 8c8c 50bd 9e68 a4bd 3937 203e 540a 333d
00000380: f19c 08be caae ff3d 90f2 e5bc 7058 473c
00000390: 205f bb3c d021 a9bc 975e 2b3e 06d3 9c3d
000003a0: 00e5 1b3d 659f 83bd 2ca7 263d 54cd 03be
000003b0: a057 7abd e291 b73d e428 32be 20bb 91bb
000003c0: 396f 85bd a2f6 b83d 1e25 e2bd c8a7 fa3c
000003d0: 20bf 50bd 4ddd 173e 0816 d8bc 9e30 04be
000003e0: c0f3 60bd f238 ff3d 769c 8a3d b807 1b3d
000003f0: 46c1 e13d a6ce 8b3d 58ac b9bc dfbf bfbd
0.149305 0.16133074 0.08631541 0.08779977 -0.08571529 0.0722637 -0.11956561 0.07639854
-0.12552601 -0.00096693635 0.12812512 0.11738519 0.15630697 0.060302526 0.0686208 0.04740557
0.12908484 0.092764035 0.052161425 -0.06168031 -0.085553505 -0.04370548 0.0843647 -0.096226856
0.04829675 0.15466236 0.1496851 -0.13015135 0.050387383 0.115589425 -0.16057007 0.11298095
-0.11014788 -0.12781817 -0.0749344 -0.0664918 -0.07308685 0.050893843 0.06848347 0.06870367
0.12205176 -0.111848205 -0.16785467 -0.14181525 -0.09716092 -0.08085925 0.07767804 -0.12792644
-0.12924862 0.094669536 -0.11248136 0.03315665 -0.13479036 0.06745 0.11046235 -0.14869556
0.060131207 -0.092679046 0.11218931 0.1589941 -0.14913304 0.06612302 0.11938505 0.16072018
0.13351189 0.034766823 0.010334581 0.036422864 -0.105390824 -0.034635693 -0.002726242 -0.11186201
-0.007838115 -0.023483545 -0.061886854 -0.054295212 -0.17605655 0.16846739 0.08713372 0.12780364
-0.15047897 -0.17306545 0.13146265 -0.031042486 0.027555764 0.08864279 0.011296436 -0.0058546215
0.105040476 0.14122377 -0.04926333 -0.1509248 -0.096933216 0.12632908 0.015371636 0.15136369
-0.061839096 -0.16749987 0.05489713 -0.075331256 -0.105687454 0.11020996 0.012293398 -0.015094936
0.17215745 0.15399651 -0.14441265 -0.16250329 -0.08741619 -0.13725306 -0.0929252 0.11926328
-0.11762667 0.16213141 0.05515513 0.0076781064 0.0302376 0.037312537 0.056878835 -0.14377151
-0.003074512 0.117270455 0.1756285 -0.009351775 -0.12628332 0.08124302 -0.16174148 0.15756579
0.108649805 0.0796227 0.02414696 0.12850429 -0.07141058 -0.14744668 -0.09771989 0.13154699
-0.08835035 -0.14095613 0.038720682 -0.10981026 -0.0074825883 -0.112203166 0.037350535 -0.0288589
0.023324206 0.08171292 -0.11382566 -0.060271427 -0.1178785 0.14720778 -0.06329449 0.06657377
0.04079801 -0.17440458 -0.12549683 -0.0454316 -0.13551867 0.09373589 0.11112164 -0.00032429397
0.02164574 0.046585053 0.058795363 -0.03419216 -0.0695584 -0.109305575 0.0070391595 0.13978584
-0.021973595 0.15210752 0.06183417 -0.09095772 0.068664014 0.07080856 -0.07867586 -0.030985624
-0.018358782 0.06240298 0.13793845 -0.03887853 0.11495246 0.09531708 -0.15317354 0.12923218
-0.0071599334 0.13644587 0.13769747 -0.17118067 -0.14722128 -0.020122528 0.056805328 -0.028134033
-0.17018564 0.09615816 -0.10108559 0.08025245 0.12486313 -0.05962477 0.10646297 0.023507431
-0.05549682 0.011467636 0.06357011 0.0904886 -0.10143869 0.13213177 -0.083608575 -0.15228008
-0.076419465 -0.1565044 0.049497575 0.011900693 -0.008608416 -0.119640864 0.09318964 0.028950587
-0.044366658 0.031319976 0.062347353 -0.106206514 -0.050915286 -0.08027767 0.15646066 0.04371102
-0.13341118 0.1248451 -0.028069764 0.012167081 0.022872508 -0.020646006 0.16735302 0.07657437
0.03806019 -0.064268865 0.04068677 -0.12871295 -0.061118722 0.08963372 -0.17398411 -0.004447356
-0.06515355 0.090314165 -0.11042236 0.030597582 -0.05096352 0.14830513 -0.026377693 -0.12909171
-0.054919958 0.12462033 0.06768124 0.037849158 0.11023192 0.068265244 -0.022665188 -0.093627684

sat_layers.layer0_1.0.input_linear_layer3.bias f4 [32]
00000000: b280 acbd 06a0 f63d 1803 7b3d d2d4 ebbd
00000010: 39b8 073e 6fe8 b8bd 75e2 2b3e 267a 10be
00000020: baa7 bb3d 50a7 24bc a4af 1cbe 0254 bb3d
00000030: 37df 84bd 409b 493b 700f 5dbd 3cdc 21bd
00000040: 2051 39bd 6288 a23d 20ed 69bc 3a5c f73d
00000050: 0e3e 923d 00e2 88ba 0425 913d 5493 73bd
00000060: 1a7e 0bbe 0979 eebd 68eb f7bd e320 12be
00000070: 58b5 e73c 40da 80bc 4dc5 22be 92db bb3d
-0.08422984 0.12042241 0.061282247 -0.11515202 0.13253869 -0.09028708 0.16785605 -0.14109096
0.09162851 -0.010049656 -0.15301377 0.091468826 -0.06487887 0.0030762702 -0.0539698 -0.039516672
-0.045243382 0.07936169 -0.014277726 0.12078138 0.07140742 -0.001044333 0.07087138 -0.059466675
-0.13622323 -0.116441794 -0.12105447 -0.14270358 0.028284714 -0.01572907 -0.15895577 0.09172739
