output/modelparams/dynamicLearning-SCER-SCUAU-DiffSAT/epoch7_model_state_dict.pth (torch, 267721 bytes, 158 tensors)

in_layer0.layers.0.weight f4 [32, 2]
000000 76 d9 89 3b 0f ca 82 be aa f8 ec bd 71 ce eb bd
       0.0042068316 -0.25544783 -0.115708664 -0.11513985
000010 e0 e8 9f be cc f6 6a 3e 74 13 89 be fd 12 29 3f
       -0.31232357 0.22945708 -0.26772654 0.660446
000020 8a c5 75 be 8a 90 37 3e 79 81 bc bd 8c 77 2a bf
       -0.24001136 0.17926231 -0.092043824 -0.66588664
000030 71 22 09 bf c7 5c 11 be b4 c7 9a be 33 fd 37 3e
       -0.5356818 -0.14195548 -0.30230486 0.17967682
000040 2c 36 4c 3e 59 a7 95 3e bd f8 5b be cf 37 5b be
       0.1994254 0.2922924 -0.21481605 -0.21408008
000050 99 4b ad 3e 3f ce 0c 3f c4 20 e1 be 30 bd 0f 3f
       0.3384674 0.55002207 -0.4397031 0.5614805
000060 91 e2 a9 be a0 81 5b 3e ce 96 13 3f 1f a2 cf be
       -0.3318067 0.21436167 0.57651985 -0.40553376
000070 9e 47 fb be 07 87 e6 bb 13 91 9d be 11 18 22 3f
       -0.49078077 -0.0070351395 -0.30774745 0.6331797
000080 7c a2 89 be 98 00 07 be 4f eb c8 be 52 ad 4a bf
       -0.26881778 -0.1318382 -0.39242026 -0.79170716
000090 49 40 2d bf ce 1f 4b 3f 7c 1e 85 3d 65 92 1c 3f
       -0.67676216 0.79345405 0.06499955 0.6116088
0000a0 70 de 27 3e 22 88 01 bf b1 47 c7 3d 45 1b de be
       0.16393447 -0.5059835 0.09730471 -0.4338018
0000b0 e8 7d 04 bf 93 c2 93 3d b3 39 39 3d 5d f0 38 3d
       -0.5175462 0.072148465 0.045221042 0.045151103
0000c0 ce d1 14 bf fe 56 07 3e ef 83 44 3e eb f7 4b 3f
       -0.58132637 0.13216779 0.19190954 0.7967517
0000d0 3c 36 cc 3e 36 57 87 be 87 ec 23 3f f3 d7 19 bf
       0.39885128 -0.26433724 0.6403279 -0.6009514
0000e0 6a b1 97 3e ec 25 3d bf c9 c3 1c bf d8 37 c8 bd
       0.29627544 -0.7388599 -0.61236244 -0.09776276
0000f0 16 42 d5 3e 74 ac f7 3d 9d dd 7b be 8e a0 81 3e
       0.41651982 0.1209344 -0.24596258 0.25317806

in_layer0.layers.0.bias f4 [32]
000000 88 18 8c 3e 03 05 ed 3d 37 b2 2d bc ae 43 37 3d
       0.27362466 0.115732215 -0.010601572 0.04474228
000010 6e 05 7a 3e c7 fe 39 3f 16 8b 18 bf fa 2e 44 be
       0.24416134 0.72654384 -0.5958723 -0.19158545
000020 27 05 9e 3d 98 c2 5b 3e b6 ff 30 3f 55 13 d5 3e
       0.077158265 0.2146095 0.69140184 0.41616312
000030 08 00 ae 3d c0 b6 0b bf 30 78 5b 39 1a c9 c9 be
       0.084961 -0.5457573 0.00020930241 -0.3941124
000040 36 40 97 be 24 8d 13 3f 51 d0 f9 3e 5f 6c 22 bf
       -0.29541177 0.5763724 0.48791745 -0.6344661
000050 fb 2c 3e 3e 91 88 c9 bd b9 15 a8 bd c9 2f 39 bd
       0.18571846 -0.09840501 -0.08207268 -0.045211587
000060 21 d8 60 3e 88 69 02 bf e5 8c a1 3e 53 33 f7 3e
       0.21957447 -0.5094228 0.31552806 0.48281345
000070 be 64 1a 3f a5 88 be 3d cb 3c d7 be a3 a3 89 be
       0.6030997 0.093034066 -0.4203857 -0.26882657

in_layer0.layers.2.weight f4 [32, 32]
000000 e5 bb de bc c2 a0 2c b8 41 fb 41 ba 5c c1 5b bd
       -0.027189204 -4.1157713e-05 -0.00073998055 -0.0536512
000010 67 25 0a bd 1b ec 91 bd 3f 2d 15 3d 0e da c5 3c
       -0.033727076 -0.07125112 0.036420103 0.024151828
000020 89 a4 5d bd 1f dd 10 ba 1a 97 7a be e8 4b eb bd
       -0.05411199 -0.00055261137 -0.24471703 -0.11489087
000030 61 1e 2a bc 4d 5e 83 3c 68 0a c1 3c ed b6 86 3b
       -0.010383219 0.016036177 0.023564532 0.004111162
000040 dc 4c 1a 3d ed 42 2e bb 21 46 b3 bd dd 9d d5 3c
       0.037670955 -0.0026590184 -0.087536104 0.026076252
000050 9a 81 80 bc aa a5 99 3c 5e 8e d1 3c f1 76 a5 37
       -0.015686799 0.018755753 0.025580581 1.972492e-05
000060 19 2a 27 bc 1f a5 e8 bb 0f 81 b6 bd ae db ee bd
       -0.010202908 -0.007099762 -0.08911335 -0.11662994
000070 43 35 f1 bd 43 2b c2 3c 0c 34 65 3c 8f 57 cb 3c
       -0.11777737 0.02370227 0.01398946 0.024822025
000080 c3 13 05 bd 2e 41 94 b9 1b 7b e3 3c 57 5d 34 3d
       -0.03248955 -0.00028277322 0.027768662 0.04403433
000090 6d 27 22 bd f7 2b b1 bd e1 39 10 3d 91 0e 06 3d
       -0.03958838 -0.08650964 0.035211448 0.032728735
0000a0 1e b7 ef bc e3 de a1 ba 31 c8 41 bd 78 4c 9f 3d
       -0.029262122 -0.0012349751 -0.047310058 0.07778257
0000b0 c7 7a 52 3d 2b 21 91 bb a3 83 03 3d 44 a0 2d 3d
       0.05138662 -0.0044290028 0.03210796 0.04238917
0000c0 5b 3e 82 3c f6 d3 c8 bc 65 0b f1 3d 2f 78 05 3d
       0.015898874 -0.024515133 0.117697515 0.03258532
0000d0 ac 05 57 bd f8 1f ab bc c1 71 0f 3d ec 8b 81 39
       -0.052495643 -0.020889267 0.035020594 0.00024709047
0000e0 68 21 e7 3c 9c a8 2b 3d 1e b0 cf bd 12 42 41 be
       0.028214172 0.041908845 -0.101410136 -0.1887286
0000f0 57 e6 0d be d3 01 02 3d bf 86 21 bb 1f b5 02 3d
       -0.13857399 0.03174002 -0.0024646965 0.03191101
000100 2a 82 24 3c 25 01 87 ba 9c d1 eb bd a7 de f9 bd
       0.010040799 -0.0010300024 -0.11514589 -0.12200671
000110 c8 c2 21 bd 0b 8a e2 3c 4f e3 8e bd 64 75 87 bc
       -0.0394924 0.027653715 -0.069769494 -0.016535468
000120 7a d9 09 be 1d ee ae bb 6d e1 28 3e 99 8e 48 bd
       -0.13461867 -0.005338444 0.16492243 -0.048964117
000130 d5 10 08 3e 24 3b 47 bb 07 c7 c2 bc 92 1c 03 3e
       0.13287671 -0.003040024 -0.023776544 0.12803867
000140 a8 7f 1f bc 6c b0 7b bd 7b 3f 31 3e 7f 71 96 bc
       -0.009735025 -0.061447546 0.17309372 -0.018364666
000150 96 98 65 bd 21 d2 81 bd 1a 92 08 bc 0e 03 c1 b9
       -0.05605372 -0.06338907 -0.008335615 -0.00036814105
000160 9e 69 ac 3d 74 aa 50 3d a4 bc fc 3b ae 19 c5 bd
       0.084185824 0.050943807 0.0077129174 -0.09624039
000170 c5 67 17 be 32 d5 4b bc 0a 31 ef 3d f0 a1 ad bc
       -0.14785679 -0.012440966 0.11679275 -0.021195382
000180 ef 4e df bc be 66 18 b8 bf 49 bc ba 4f ae 6b bd
       -0.027259318 -3.633531e-05 -0.001436524 -0.05753928
000190 56 b8 03 bd e1 d4 90 bd 85 36 11 3d f7 59 c1 3c
       -0.03215822 -0.070718534 0.035452385 0.023602469
0001a0 3f 7c 49 bd fb b2 a4 38 ed 75 72 be fc 35 ce bd
       -0.049190756 7.853467e-05 -0.23677798 -0.100688905
0001b0 37 7c 51 bc 6b 92 91 3c f9 f0 bc 3c 96 14 6a 3b
       -0.012785963 0.017770013 0.023064123 0.0035717837
0001c0 d2 c6 1d 3d da c7 5d bb 57 b2 f8 bd 55 4b cf 3c
       0.038519688 -0.0033841045 -0.121433906 0.025304476
0001d0 77 44 8b bc d9 4d 94 3c 85 95 cc 3c 6f dc 91 37
       -0.01700042 0.018103527 0.02497364 1.7387994e-05
0001e0 4d 56 55 bc ec 8c 12 bc e4 54 9a bd 9b 34 2a be
       -0.013021064 -0.008944731 -0.07535723 -0.1662163
0001f0 48 cc d8 bd 52 1c bf 3c 7e 0b 5a 3c 26 56 c6 3c
       -0.105858386 0.023328934 0.013308404 0.024211
000200 da 7b 92 bd 13 38 92 ba d2 ec 11 be 81 19 30 be
       -0.07152529 -0.0011155627 -0.14250496 -0.17197229
000210 84 62 89 bd 4c 65 45 3d 20 ab b3 bc 1b de fd 3a
       -0.067082435 0.048192307 -0.021932185 0.0019368561
000220 f8 98 c5 3a 6e 94 56 3c 34 3d ea 3d 91 f7 58 be
       0.0015075495 0.013096912 0.11437455 -0.21188189
000230 59 0d b4 bd 87 99 22 3d b5 53 b5 bd f9 00 c6 bd
       -0.08791608 0.039697196 -0.088538565 -0.09668154
000240 80 ba 9a ba 2d 72 c8 3d 4a c4 9b be 26 b7 4e bd
       -0.0011804849 0.09787402 -0.30423194 -0.050467633
000250 66 f5 12 3e 78 58 0a 3d 27 25 d7 3b 0b cc f5 b9
       0.14351425 0.033775777 0.006565708 -0.00046882065
000260 62 cd f6 bd 63 16 ef bd 54 12 5a 3c d7 aa 10 3e
       -0.120508924 -0.11674192 0.013310034 0.1412767
000270 9f dc 73 3e 2d 20 9f bd 47 77 cd 3c 93 9f c0 bd
       0.23814629 -0.07769809 0.02508129 -0.09405436
000280 46 09 04 3c cb 11 b1 b8 92 e3 21 bd 00 a7 f3 bd
       0.008058852 -8.443332e-05 -0.03952367 -0.11897087
000290 73 da 6e bd 5e c3 45 3d 8d 88 73 3c 16 0a 29 bc
       -0.0583138 0.04828202 0.014864099 -0.010317346
0002a0 f5 07 99 bc 07 d7 97 ba 28 34 e0 bd 9e 6e 29 be
       -0.018680552 -0.0011584469 -0.10947448 -0.16546103
0002b0 b4 79 41 bd fc c8 0f 3d eb a2 98 bc 24 17 4d bd
       -0.047235206 0.035103783 -0.018632373 -0.050070897
0002c0 01 9d 0c 3b 53 70 ee 3c 30 68 5f be ab 21 ad bc
       0.0021455886 0.029106295 -0.21817088 -0.021134218
0002d0 03 bb 60 3d 37 b3 03 3d 37 d8 88 bc ba 76 14 39
       0.05486585 0.032153334 -0.016704662 0.00014158609
0002e0 6e 6d 68 bd ea 0d 4d bd 59 98 21 bd b9 8c c3 3d
       -0.056744985 -0.050062098 -0.03945193 0.09548325
0002f0 51 f4 05 3d 3d 10 4c bc eb 2c be 3c 87 a2 57 bc
       0.0327037 -0.012455043 0.023214778 -0.013161308
000300 48 d3 88 bd 0e 40 4a ba 68 63 22 bc 02 cb b0 3d
       -0.06680924 -0.00077152334 -0.009911396 0.08632471
000310 79 b0 94 3c e5 3f 6c bd 01 9d 09 3d 81 b8 30 bd
       0.018150555 -0.057678122 0.033596996 -0.043144707
000320 03 f9 d2 3c e8 79 de 39 06 d6 24 bc 80 73 36 bd
       0.025753504 0.00042433967 -0.010060793 -0.044543743
000330 c0 dd 7a 3b 00 c7 9b bd f3 81 e6 bc 57 79 bb 3d
       0.0038279146 -0.076063156 -0.028138136 0.09154003
000340 9d ea a5 3d 7d b2 42 be ef 19 6b 3d c5 73 c0 3d
       0.081013896 -0.190134 0.05739778 0.09397081
000350 a0 7c 49 bd 7a ae c7 bc 16 3a b5 bd 6d 4e 3b ba
       -0.049191117 -0.02437519 -0.0884897 -0.000714517
000360 1d e3 ed 3d b5 cd 42 3c 37 4e c9 bb ab fa eb 3c
       0.11615584 0.011889865 -0.006143357 0.028806051
000370 89 89 32 be 0d 97 3a 3d a0 8f 46 3d fa fc 28 3d
       -0.17435278 0.04555421 0.048476815 0.041256882
000380 0b 33 f4 bc 8c 62 ea b9 d8 3f 05 3d e2 ec 81 3d
       -0.029809495 -0.0004470538 0.03253159 0.0634401
000390 07 f2 d8 3c 0d 63 a8 bd 0e ba 89 3c 9b d9 f3 3c
       0.026482595 -0.082220174 0.01681235 0.029766848
0003a0 a2 00 3b bc 5b 99 82 b9 e0 ad fb bd 61 ff 73 3c
       -0.011413725 -0.0002490979 -0.122890234 0.01489243
0003b0 d6 39 0e 3d 8e b1 66 bc f0 45 f1 3c 09 73 3c 3d
       0.034723125 -0.014080418 0.029452294 0.046008144
0003c0 7a d9 b2 3c 2e f5 cb bc 8e 28 1b 3e 9c d8 f5 3c
       0.021832217 -0.024897184 0.15152189 0.030010514
0003d0 a6 61 48 bd 63 74 25 bc 36 ca 04 3d 15 a8 8e b8
       -0.04892125 -0.01009855 0.032419406 -6.8023954e-05
0003e0 d7 62 28 3d 5f 5e 1b 3d b5 71 c7 bd 3f e1 39 be
       0.041109886 0.037931796 -0.09738485 -0.18152331
0003f0 e3 1d 10 be 38 de f1 3c 05 b3 e4 bb 9d 45 f0 3c
       -0.14073901 0.029524907 -0.0069793486 0.02933007

in_layer0.layers.2.bias f4 [32]
000000 63 9a 61 be 6d e4 5c be 5e 89 ee bd 68 cb 4e be
       -0.2203155 -0.21571513 -0.116472945 -0.20194781
000010 56 e0 c1 bd 2d 9a ae bd d3 47 24 be f4 c0 18 be
       -0.09466617 -0.085255004 -0.16043024 -0.14917356
000020 9d 03 ca 3d 6d bd 7a be 4f d5 b2 bc 43 e2 be 3c
       0.098639704 -0.24486323 -0.02183023 0.02330125
000030 ab a6 64 3d 62 83 5b 3d 85 78 ba 3c 8b 7e 17 bd
       0.05582301 0.053592093 0.022762546 -0.036985915
000040 f6 4e 1d 3d 3a b7 fe bc e5 62 63 3d 53 af 27 bd
       0.03840538 -0.031093229 0.055514235 -0.040938687
000050 34 18 b6 bc 38 f4 c3 3d 77 a3 58 bd aa eb 3b bd
       -0.022228338 0.095680654 -0.052890267 -0.045879044
000060 7a 95 b2 3d a7 38 9e bd fc ae 84 3e 43 c6 75 be
       0.08719917 -0.07725649 0.25914752 -0.24001412
000070 42 d8 01 3e a9 ce c8 bc 47 06 30 3d 54 51 3b be
       0.12680152 -0.024512606 0.042974737 -0.18292743

in_layer1.layers.0.weight f4 [32, 2]
000000 a9 28 18 bf 00 bb 2a 3c 21 a4 0e 3f 2f 06 1b bf
       -0.5943704 0.010420561 0.5571919 -0.6055631
000010 a9 7d a1 be 73 fc 1e 3f 10 da f2 bd ae fc 95 3e
       -0.31541184 0.62103957 -0.11857998 0.29294342
000020 e9 23 2e bf 60 b5 63 be d9 da b7 be 41 9c 18 3f
       -0.68023545 -0.22237158 -0.35909155 0.59613425
000030 ae 42 96 3e dd 15 04 bf 48 7b e9 3d 80 27 05 bc
       0.29347748 -0.5159586 0.11400467 -0.008127093
000040 32 c0 94 be 77 c0 ce be de 46 70 be 29 af 0e 3f
       -0.29052883 -0.40381214 -0.23464534 0.55736023
000050 9e c3 01 bf aa f2 00 bf 46 64 5f be 80 8a 49 3c
       -0.50689113 -0.50370276 -0.21815595 0.012301087
000060 3c 1a 45 3e 40 d3 ad 3c d0 4d 2e be b0 85 db be
       0.19248289 0.021218896 -0.1702187 -0.42875433
000070 50 ec 01 be 68 bd 91 be 31 40 12 3f b9 34 30 bf
       -0.12687802 -0.28464818 0.571292 -0.6883045
000080 fb ed e6 be 8a 46 13 bf 7c 54 04 be 45 10 0d 3f
       -0.4510344 -0.5752951 -0.12922853 0.5510295
000090 a9 ab 1e 3f 5c 96 1d bf e0 f9 fa bc 22 81 d4 3e
       0.6198068 -0.61557555 -0.030636728 0.4150477
0000a0 f2 95 9f 3e 0d 46 14 3f 40 ad a0 bc 4c 40 f3 be
       0.31169087 0.5791939 -0.019613862 -0.47509992
0000b0 e6 7f ef 3e f2 4b 78 be 66 75 bb 3e 68 70 32 be
       0.46777266 -0.24247721 0.36613005 -0.17425692
0000c0 86 e6 99 3e 41 d0 22 3f 63 52 28 3f 47 bd 24 bf
       0.30058688 0.6359902 0.6575071 -0.64351314
0000d0 40 7b ef be e4 b0 95 be 58 df e6 be 25 b0 2d 3f
       -0.4677372 -0.2923652 -0.45092273 0.678469
0000e0 70 cc 7f bd aa 27 f0 be 77 1a a1 be 33 fa c7 be
       -0.062450826 -0.4690526 -0.31465504 -0.39058074
0000f0 3c b5 93 3e f2 e4 1d bf 72 c8 28 bf 1c 71 32 bf
       0.28849208 -0.6167747 -0.65930855 -0.6970384

in_layer1.layers.0.bias f4 [32]
000000 ca dd 9b 3e fe 02 b3 3e ca da e0 be 40 8e 33 3e
       0.3044265 0.3496322 -0.43916923 0.17534733
000010 2d a0 05 3f 38 6b d2 3d 90 33 19 be 70 fc 55 3d
       0.52197534 0.102743566 -0.14961076 0.052242696
000020 40 48 9b bd 42 49 b6 3e 10 d4 f5 be 3a 97 b7 3e
       -0.0758214 0.35602766 -0.48013353 0.35857564
000030 b2 0d cc 3e 9d 59 db be 55 d0 13 3f 5f cb 31 3f
       0.398542 -0.42841807 0.57739764 0.69450945
000040 dd b9 8e be 5c cf 4a be 8a 6c b4 3e 72 d0 0d bf
       -0.27876177 -0.19805664 0.3523906 -0.5539619
000050 cc 2b 8f 3e 40 ee 28 3e 26 34 e4 3e 10 3c 1d bf
       0.27963102 0.16497135 0.44571036 -0.61419773
000060 5b 63 16 bf 22 9a a2 3e 04 69 82 3e 97 7c 28 bf
       -0.58745354 0.3175822 0.25470746 -0.6581511
000070 f1 e4 c9 be f9 a0 25 bf b8 af 01 bf 0a 5a a3 be
       -0.3943248 -0.6469875 -0.5065875 -0.31904632

in_layer1.layers.2.weight f4 [32, 32]
000000 eb cc 15 3e d4 20 10 bd f6 ef cf 3d 1d e9 2b 3e
       0.14628951 -0.035187557 0.10153191 0.16788144
000010 22 fe a4 3d e6 0c 22 be a2 2f b6 3d 14 18 8a 3d
       0.080562845 -0.15825233 0.08895804 0.06742874
000020 45 4d 0c 3e 4c 90 32 be da a8 de 3d fd 2b 14 3e
       0.13701351 -0.17437857 0.1087205 0.14469905
000030 fc 69 28 be d8 83 97 3c 05 88 1a 3e 26 a8 03 be
       -0.1644668 0.018495485 0.1509095 -0.12857112
000040 70 95 6d 3d 0a fa 9f 3d 04 c6 3d 3d af fb 33 3e
       0.058003843 0.07811363 0.04633142 0.17576478
000050 05 37 14 3e 6f 4e 1b 3e 00 82 b4 bc bd d2 17 3e
       0.14474113 0.15166639 -0.022034645 0.14826484
000060 b8 b1 28 be df 5d c3 bd d0 dd 1a bd 94 17 57 bd
       -0.16474044 -0.09539389 -0.037809193 -0.05251272
000070 e3 34 27 3e d6 c2 aa 3d ce 15 e9 3d 1a 43 f6 3d
       0.16328768 0.08337943 0.11381112 0.12024517
000080 da 38 07 be 08 ba a7 bc 58 77 d3 3c bc 53 3c 3d
       -0.13205281 -0.020474449 0.025813743 0.045978293
000090 0e 2c ba 3d c1 0e 90 bd 90 55 5a bd 63 77 17 3e
       0.09090434 -0.07034064 -0.053304255 0.14791636
0000a0 bc 54 42 bd ae 7c fb bd 02 7a f5 3d 0e 28 f5 3d
       -0.04744409 -0.1227964 0.11986162 0.119705305
0000b0 f4 0b 63 bd f0 c1 10 bd 0f 92 05 be 09 2b 17 be
       -0.05543132 -0.035341203 -0.13043998 -0.1476251
0000c0 fc 24 88 3d 05 a9 9a bd d3 1b 10 3e cf f1 10 be
       0.06647679 -0.07551769 0.14073114 -0.14154743
0000d0 d8 2b c8 bc 40 25 7a 3b 9a 11 ba 3d 27 81 12 3e
       -0.024434969 0.0038169175 0.090853885 0.1430708
0000e0 9a 2c f5 3d 36 5e 9f 3d 6b 2c a6 bd 48 46 01 be
       0.11971398 0.07781641 -0.08113941 -0.12624466
0000f0 35 f1 21 be a0 ab 0f 3c 2b 91 2f 3e 74 88 09 bd
       -0.1581467 0.008768946 0.17145221 -0.033577397
000100 60 dc f3 bb b0 8b 03 be 7c 4c 5e 3d ca 86 e5 3d
       -0.007442042 -0.12846255 0.05427216 0.112073496
000110 47 78 32 be 62 eb fe bd 19 15 06 3e 94 6f 2b 3d
       -0.17428695 -0.124472395 0.13093986 0.041854456
000120 d0 92 34 bc 50 6f 01 3d 20 2e dc bc 66 0d fd bd
       -0.011021331 0.031600296 -0.026877463 -0.12356071
000130 5e 26 29 be 9e 1d ee 3d 18 3d ac bc e0 74 86 bd
       -0.16518542 0.11626743 -0.021025226 -0.06565261
000140 34 e5 3a bd d8 76 c5 bd ac 75 56 bd bd 63 1b be
       -0.04562874 -0.09641808 -0.052358314 -0.15174766
000150 f3 76 07 3e f4 d5 93 3d 78 95 b6 bd 1e 23 77 bd
       0.1322897 0.07218543 -0.08915228 -0.060336225
000160 92 6c a2 3d 9c 10 86 bd 44 ef 3e 3d 58 5e 47 3d
       0.079308644 -0.06546137 0.0466149 0.048673958
000170 a1 e6 e3 bd e8 61 35 3d 50 35 31 3c 71 19 1e 3e
       -0.11127973 0.044282824 0.010815933 0.15439393
000180 2a fe 82 bd 34 23 3a bd 65 f7 1b 3e 21 d2 13 be
       -0.06396134 -0.04544373 0.15231092 -0.14435627
000190 00 41 51 3c 9d 69 2e 3e 98 53 a2 bd 3f 8a 2d 3e
       0.012771845 0.17032476 -0.079261005 0.16947268
0001a0 35 a0 20 3e d3 68 28 3e f8 2f 8a bc 91 c1 23 3e
       0.15686114 0.16446237 -0.016868576 0.15991808
0001b0 4c bf 9d bd fe da 77 bd 50 ef 88 3d 94 f5 18 3d
       -0.077025026 -0.06051158 0.0668627 0.037343577
0001c0 46 95 c7 3d b3 06 2c 3e db a1 e2 bd c2 24 c0 3d
       0.097452685 0.1679943 -0.11066028 0.09382011
0001d0 28 40 72 3d 02 00 bf 3d 32 ab ab 3d 83 6d 87 bd
       0.059143215 0.09326173 0.08382262 -0.066126846
0001e0 d9 11 0f be 97 e2 10 3e 85 72 ce bd 0e 76 e7 3d
       -0.13971652 0.14148937 -0.100804366 0.11301814
0001f0 68 72 2c be c0 88 fa bc 00 95 f5 3a a0 90 fa 3c
       -0.16840518 -0.030582786 0.0018736422 0.03058654
000200 50 1d 6a 3c 4c 29 64 3d 80 3e a1 bc 68 54 31 3d
       0.014289215 0.055703446 -0.019683123 0.043293387
000210 47 22 33 3e 03 42 ea bd 10 21 1e bc d1 32 8a bd
       0.17493545 -0.11438372 -0.009651437 -0.06747974
000220 eb d4 1e 3e b3 f5 1a 3e e0 f5 9d bb 22 fd 7a bd
       0.1551091 0.1513279 -0.0048205703 -0.061276563
000230 02 b1 df bd c9 86 01 3e 50 73 47 bc 59 7c 2a 3e
       -0.109224334 0.12649073 -0.012173489 0.16648997
000240 f6 74 ce 3d 71 72 1e 3e 27 2c 0f 3e 9e 44 eb bd
       0.10080902 0.15473343 0.13981687 -0.11487697
000250 64 f0 53 3d 60 1f 96 bd 72 a7 b5 3d 08 34 82 bc
       0.051742926 -0.07330203 0.08869828 -0.015893951
000260 b0 bb 7a 3c 9e 63 fa bd 18 c8 21 be 80 55 88 3d
       0.015303537 -0.12226032 -0.15798986 0.06656933
000270 d8 43 28 3d e0 94 7b 3c 0a e5 f5 3d 97 2d 97 bd
       0.041080326 0.015355319 0.12006576 -0.073817424
000280 4c 84 80 3d a1 65 c7 bd 5c 07 16 3d 48 4e 25 bd
       0.062752336 -0.09736181 0.036628112 -0.040357858
000290 9a 8b fd 3d 59 4c 1e 3e 37 38 1d 3e d0 49 02 3c
       0.123801425 0.15458812 0.15353476 0.007952169
0002a0 de 7d d5 3d 05 dd 34 be ab 5e d4 bd d0 68 01 3d
       0.10424398 -0.17662437 -0.10369619 0.031594098
0002b0 80 38 81 3a 06 1d 0e be 15 3e a0 bd 77 17 a9 bd
       0.0009858757 -0.13878259 -0.07824341 -0.08256429
0002c0 db 58 33 be 90 1c 8a 3c b2 cc f6 3d 30 f0 92 3d
       -0.17514364 0.016859323 0.12050761 0.071747184
0002d0 39 04 ac bd 48 39 26 be d0 0a 12 be 80 e5 56 3b
       -0.08399243 -0.16232789 -0.14261937 0.0032790601
0002e0 1e 0d f9 3d a0 9d 92 bd 64 00 c5 bd c2 21 c1 bd
       0.12160705 -0.07158971 -0.09619215 -0.09430267
0002f0 d0 ba 7a bc e6 e7 2b be 51 bd 1f be 99 31 32 3e
       -0.015303329 -0.16787681 -0.15599562 0.17401733
000300 7d a9 ac bd e4 98 02 bd 98 ba 41 bd d0 06 1f be
       -0.08430765 -0.03188409 -0.04729709 -0.15529943
000310 b8 4c ff bc f4 a6 5d 3d 30 02 93 bd 60 e1 f6 bb
       -0.031164512 0.054114297 -0.071781516 -0.007534191
000320 00 ac 5d ba a4 34 34 be bb 8c 03 3e f5 38 12 3e
       -0.0008456111 -0.17598206 0.12846653 0.1427954
000330 06 d7 f6 3d 2a c9 6d bd 26 30 bd 3d e0 99 29 be
       0.12052731 -0.058053173 0.09237699 -0.16562605
000340 88 20 33 bd 14 44 13 bd 2a b5 7f bd 66 0e 98 3d
       -0.043732196 -0.035953596 -0.06242863 0.07424621
000350 3c f7 a4 bd c0 d8 a7 bc 6c 14 51 bd ff fd 29 be
       -0.08054969 -0.020489097 -0.051044866 -0.16600798
000360 30 26 ef bc da 68 19 be 32 1b d3 3d 0a 7f c1 3d
       -0.029193014 -0.14981404 0.103079215 0.09448059
000370 d5 93 29 3e ae 25 73 bd a0 48 13 3c 08 d7 0d 3d
       0.165603 -0.059362106 0.008989483 0.034628898
000380 65 b2 34 3e bd ec 25 3e 8b 5e bb bd a3 07 1a be
       0.17646177 0.1620359 -0.09148892 -0.15041976
000390 8e 26 23 be df 57 ae bd d9 32 18 3e 5c 2e 73 3d
       -0.15932676 -0.08512854 0.14863147 0.059370384
0003a0 37 a8 2e 3e e1 2c 06 3e 80 f5 27 3b f6 61 e0 bd
       0.17056356 0.13103057 0.0025628507 -0.109561846
0003b0 f7 c3 30 3e 61 35 11 3e fa bd 9c 3d bc c4 c5 bd
       0.17262255 0.14180519 0.07653423 -0.09656665
0003c0 71 9a 0e 3e 20 ce 83 3c 6a 64 ef 3d 56 1a 97 3d
       0.13926102 0.016089499 0.11689074 0.0737807
0003d0 de 3e c0 3d 12 d7 1e be 5e be c8 bd f6 23 d9 3d
       0.09386991 -0.1551173 -0.09801935 0.10602562
0003e0 ec d9 16 bd b0 7b 1d be 6d 9e 24 3e 80 89 7a bb
       -0.03682892 -0.15379214 0.1607606 -0.003822893
0003f0 7f 06 12 3e de 7c 0d be 9c 4b 79 3d 5f 5e 88 bd
       0.1426029 -0.13817164 0.060863122 -0.06658625

in_layer1.layers.2.bias f4 [32]
000000 a8 38 4e 3d f8 3d 2b 3d 80 b4 7f 3b fe 9d cf 3d
       0.050347 0.041807145 0.0039017498 0.101375565
000010 f8 49 1e bd b6 1c d5 bd 68 3e 8a 3d 40 2e 41 3d
       -0.03864476 -0.10405867 0.06750184 0.047163248
000020 82 d8 89 3d 20 d9 a0 bc 30 2d c0 bc 20 32 66 bc
       0.06730749 -0.019634783 -0.023459047 -0.014050037
000030 3c ed 3e 3d 21 e8 0a be 84 b8 28 be 30 79 87 3d
       0.046612963 -0.13565113 -0.16476637 0.066149116
000040 af 37 c6 bd 40 a5 73 bc 24 bc 48 3d 08 1e cb 3c
       -0.096785896 -0.014870942 0.04900755 0.024794593
000050 82 64 e9 3d 48 d4 bd 3c 80 43 33 3d 28 a0 81 bc
       0.113961235 0.023172513 0.043765545 -0.015823439
000060 08 c3 d5 3c 34 c0 84 3d ee fc f6 3d 9b 84 2b be
       0.026093975 0.06481972 0.12059961 -0.16749804
000070 dd cf 96 bd 83 6f 22 be be 57 90 bd fe b0 dc 3d
       -0.073638655 -0.15862851 -0.070479855 0.10775946

in_layer2.layers.0.weight f4 [32, 2]
000000 25 9a 08 bb bb e8 ba 3a 2d 98 db 3d c9 75 7e bd
       -0.002084383 0.0014260033 0.107223846 -0.062124047
000010 d3 62 02 39 c5 cf 06 b9 70 0b d6 37 b5 91 ce b8
       0.00012434581 -0.00012856636 2.5516114e-05 -9.8499855e-05
000020 69 af 02 bf dd 4f e8 3e 3e a7 a5 3a 14 04 6f ba
       -0.51048905 0.4537343 0.0012638343 -0.0009117734
000030 15 2f f7 39 f6 ed d4 b9 32 33 04 3a 65 8f 60 ba
       0.0004714659 -0.00040613086 0.0005043029 -0.00085662893
000040 56 f0 73 be 2d 81 a7 3e 41 a1 54 39 5f 7c 5b b9
       -0.2382215 0.3271574 0.00020277967 -0.000209318
000050 a1 77 9a ba 77 68 20 3a c4 8e 83 b9 eb 34 78 39
       -0.001178492 0.0006119082 -0.00025092636 0.00023670837
000060 21 13 e7 3a 83 6b a6 ba 89 cb dd 38 4d ee 41 b8
       0.0017629602 -0.0012696836 0.000105760126 -4.623672e-05
000070 7a 1b 9f 3a 7d 4f 3e ba ef ef 28 ba 6c 08 f7 39
       0.0012138926 -0.00072597695 -0.00064444443 0.00047117786
000080 fa ea c3 b9 22 cd cf 39 dd 67 6a 3a 6e ec 11 ba
       -0.0003736837 0.00039634953 0.00089418684 -0.0005566542
000090 4c b6 d5 b8 93 67 0e 39 12 a0 36 be 8d ec d9 3e
       -0.00010190587 0.0001358076 -0.178345 0.42563286
0000a0 85 b5 b9 ba 10 e6 a4 3a c3 4a cf 3a 5b 71 ac ba
       -0.0014168477 0.0012580771 0.0015815127 -0.0013156341
0000b0 21 fc 09 bb 99 26 c0 3a 1e 46 1e 3a f7 6c bb b9
       -0.0021054822 0.001465994 0.000603767 -0.00035748605
0000c0 59 30 f4 38 7d 65 9b b8 31 fe ee 3a fc f8 b2 ba
       0.00011643832 -7.4098796e-05 0.0018233714 -0.0013654525
0000d0 10 f0 0c bb 37 26 dd 3a 81 6d 11 bb 3e c0 33 3b
       -0.0021505393 0.0016872351 -0.0022190514 0.0027427818
0000e0 c0 65 ef b9 f8 f0 05 3a 61 45 b3 3c 50 a1 6d bc
       -0.00045661442 0.00051094545 0.021883668 -0.014503792
0000f0 be ff 58 3a f6 d9 0e ba 4c 0e cc 3a 09 60 7c ba
       0.00082778546 -0.0005449349 0.0015568226 -0.00096273475

in_layer2.layers.0.bias f4 [32]
000000 20 fa c4 38 c2 ac 65 bd c7 8d 94 37 e9 63 03 39
       9.392598e-05 -0.056072958 1.7708995e-05 0.00012530353
000010 e1 c4 9e 3e 86 6e 51 39 ce 10 38 38 a9 76 9b 39
       0.31009582 0.00019972966 4.388467e-05 0.00029652313
000020 ba c9 c9 bb a1 f3 80 b6 42 80 86 39 11 74 d3 b8
       -0.006158081 -3.8430594e-06 0.0002565403 -0.00010082883
000030 10 c8 c8 b8 c2 27 31 b8 e6 96 e9 b8 d6 71 31 39
       -9.574008e-05 -4.2237116e-05 -0.00011138413 0.00016922443
000040 c2 04 42 b9 79 4e 24 b9 55 7e be b8 a9 7c 5a be
       -0.00018503054 -0.00015669492 -9.083437e-05 -0.21336617
000050 c9 f5 b6 38 76 e4 5e 38 a4 52 83 37 3f c4 b2 b8
       8.724217e-05 5.3141695e-05 1.56549e-05 -8.524255e-05
000060 95 7f 3c b7 b7 a1 95 37 64 d0 fd 38 ab d1 02 3a
       -1.1235378e-05 1.7837488e-05 0.00012102796 0.00049903494
000070 d2 c4 86 b9 dc 28 76 bc bc 7d 25 b9 e2 4b 54 b8
       -0.00025705114 -0.01502439 -0.00015782466 -5.061541e-05

in_layer2.layers.2.weight f4 [32, 32]
000000 4f 1d 59 b7 10 54 75 ba 5d 15 d5 35 1e 19 42 b6
       -1.2941032e-05 -0.00093585346 1.5875954e-06 -2.8922873e-06
000010 9b 40 a4 39 15 fe 97 37 a0 f8 d9 36 d9 14 27 b7
       0.00031328652 1.8118919e-05 6.4960477e-06 -9.95883e-06
000020 ab 90 ac b8 1e 55 1d b5 92 8f d8 b7 08 b5 26 37
       -8.2285456e-05 -5.861092e-07 -2.5816062e-05 9.936521e-06
000030 98 c9 2a 37 e8 23 a0 35 08 2a ba 37 ee 86 80 37
       1.0179727e-05 1.1931379e-06 2.21925e-05 1.532162e-05
000040 88 dd ef b6 a1 54 8d 37 d9 ba 37 37 48 08 ab 37
       -7.1485447e-06 1.6847918e-05 1.0951154e-05 2.0388645e-05
000050 78 ca 24 38 16 22 15 b7 5c 3c 93 b7 b3 dd ba 36
       3.928921e-05 -8.889028e-06 -1.7551873e-05 5.569041e-06
000060 98 9b a6 35 3c bb 0a 35 9a d1 91 b6 19 69 6c 39
       1.2413248e-06 5.168147e-07 -4.3457376e-06 0.00022545866
000070 90 1b b9 b8 54 62 df 39 9e 42 8f 37 52 0b 24 37
       -8.826621e-05 0.00042607135 1.707795e-05 9.7777975e-06
000080 60 bd 2f b7 f2 98 b4 3b fb f4 1f 36 9a 0b de b4
       -1.0474905e-05 0.0055113966 2.3835444e-06 -4.1359164e-07
000090 09 c1 c6 3b d6 1b 9f 36 c6 74 70 b5 2f de 73 b6
       0.006065492 4.74181e-06 -8.9576895e-07 -3.633915e-06
0000a0 e9 39 23 bb eb f7 1f b6 92 ee b2 b6 44 5b b9 b5
       -0.0024906343 -2.3837154e-06 -5.3325866e-06 -1.3810136e-06
0000b0 30 96 08 37 1e 67 a1 35 d6 c0 63 36 a8 6d c7 33
       8.1412e-06 1.2025446e-06 3.3937881e-06 9.286606e-08
0000c0 e8 2e e0 b6 91 6a 0f 36 cd a1 ad b5 de 5b 19 bb
       -6.681181e-06 2.137069e-06 -1.2936595e-06 -0.0023400704
0000d0 d2 e9 43 b5 4c dc e2 36 6c 63 27 b7 2b de 99 36
       -7.2983414e-07 6.760971e-06 -9.977124e-06 4.585619e-06
0000e0 9a b6 ad 35 bd 5f 09 37 90 5d 63 b7 a0 92 28 34
       1.2942648e-06 8.188127e-06 -1.3552039e-05 1.5699561e-07
0000f0 f3 91 82 b6 bb 96 56 3a 03 6d 1e 36 0d 95 94 36
       -3.8912926e-06 0.0008185913 2.3607288e-06 4.4280955e-06
000100 92 98 2e 38 5b 90 3c b9 33 63 58 b6 60 86 ed b6
       4.1626925e-05 -0.00017982854 -3.224425e-06 -7.0787937e-06
000110 ec 04 93 b9 a3 2a de b7 b4 e1 41 b7 b4 22 70 b7
       -0.00028041692 -2.6484317e-05 -1.1556247e-05 -1.4313195e-05
000120 9f 98 4f 3a 87 61 f7 b6 da ab a9 37 d5 4d 26 37
       0.00079191657 -7.3725273e-06 2.0226395e-05 9.912493e-06
000130 db e2 16 b8 3e ac c0 b6 f9 94 b3 b7 4f 5c 4e 37
       -3.5974062e-05 -5.7420975e-06 -2.1407834e-05 1.2300049e-05
000140 db ac 20 37 6a b9 71 b7 7f 55 ed 36 f0 92 4d 3a
       9.576989e-06 -1.44078895e-05 7.0731035e-06 0.0007842025
000150 a6 91 06 38 90 d4 14 b8 0d eb 2d 38 ea 8e 32 b7
       3.2083735e-05 -3.5483914e-05 4.1465322e-05 -1.06429015e-05
000160 a1 c6 2a b7 1d e3 24 b8 33 30 32 38 27 9c 3c 38
       -1.01790365e-05 -3.9312163e-05 4.2483396e-05 4.496812e-05
000170 cf b8 28 37 47 4b 36 38 1c 80 70 b7 8d 5f 02 b8
       1.0056609e-05 4.346229e-05 -1.43349425e-05 -3.1083404e-05
000180 7b 22 a8 b8 3a ef f6 39 df aa 1a 37 59 3d 0b 37
       -8.017287e-05 0.00047099014 9.218899e-06 8.299329e-06
000190 46 ad 43 b9 c9 e6 81 38 1f 8f fb 37 20 f2 19 38
       -0.00018661199 6.1941864e-05 2.9988178e-05 3.670354e-05
0001a0 01 60 6a 38 83 24 9a 37 2e 49 0e b8 0e ac d2 b7
       5.5879358e-05 1.8375233e-05 -3.3923592e-05 -2.511407e-05
0001b0 8f ac 78 38 2b 67 51 36 6a fe 45 38 a9 5d 07 b8
       5.9288515e-05 3.1203479e-06 4.72054e-05 -3.2273736e-05
0001c0 22 3b 25 b8 3d 05 1f 38 c6 1d 8f b7 db ec db b7
       -3.9394137e-05 3.7913433e-05 -1.7060793e-05 -2.6217129e-05
0001d0 ec cd 8d b8 1e 66 8b 38 b6 35 a3 b8 75 af e3 37
       -6.76176e-05 6.647057e-05 -7.78245e-05 2.7142212e-05
0001e0 f2 27 2b 36 81 76 9e 38 c8 9b 92 b8 e9 b4 45 b9
       2.5504237e-06 7.5561e-05 -6.990839e-05 -0.00018854778
0001f0 95 11 35 38 d8 ed c6 b9 cb 15 19 38 6c 3e 92 38
       4.3170137e-05 -0.0003794271 3.649834e-05 6.9734495e-05
000200 c8 44 0b b8 28 da 4d 39 98 ef 93 36 f6 23 01 b6
       -3.320424e-05 0.00019631593 4.408834e-06 -1.924343e-06
000210 44 d8 68 3a 66 69 11 38 e8 24 68 37 ba 8d 43 b7
       0.0008882324 3.4668854e-05 1.38368705e-05 -1.1655904e-05
000220 6c 0d cd b8 0f 59 50 36 6f 2f 2b b8 72 f5 f5 36
       -9.777662e-05 3.1046254e-06 -4.0813753e-05 7.3301426e-06
000230 4f 8c d8 37 b1 1b 20 36 91 4e 20 38 f1 02 1b 37
       2.5814543e-05 2.3857976e-06 3.8220143e-05 9.239405e-06
000240 00 78 91 af 3d c3 fb 37 8b 94 26 37 5d 41 05 38
       -2.6460611e-10 3.0012447e-05 9.928956e-06 3.1770545e-05
000250 da 92 ec 37 77 cf 93 36 e0 ba 20 b8 28 2e 45 37
       2.8201775e-05 4.4050935e-06 -3.8321014e-05 1.1752862e-05
000260 01 0b 17 36 09 51 93 37 9b 1f b6 b7 5f d3 62 39
       2.2507159e-06 1.75615e-05 -2.1710808e-05 0.00021631781
000270 8c b3 ae b8 2e bb 09 3a 9d 25 fa 37 f3 f7 e6 37
       -8.33041e-05 0.0005254027 2.9819837e-05 2.7533597e-05
000280 27 30 2b b7 13 85 84 3a 60 09 55 36 42 43 d3 b2
       -1.0203606e-05 0.001011046 3.174493e-06 -2.4594218e-08
000290 b4 5a 65 3a e8 2a e5 38 79 72 a8 37 08 e3 b7 35
       0.00087491726 0.00010927563 2.0080466e-05 1.3700637e-06
0002a0 c3 d9 c4 b9 e4 5d bf 37 04 e8 40 b7 ef 17 b6 35
       -0.00037546278 2.2812696e-05 -1.1498112e-05 1.3567022e-06
0002b0 24 da 14 37 36 d0 ae 35 e3 33 d9 36 c7 63 58 36
       8.872277e-06 1.3024608e-06 6.4731444e-06 3.2244586e-06
0002c0 3c 99 4c 36 d3 0e 07 37 82 37 ee 34 d1 c1 a6 b9
       3.0487563e-06 8.050079e-06 4.4371342e-07 -0.00031806392
0002d0 22 a4 d5 b6 3b 33 87 b7 1b 3c 9b b6 4e b6 5d ba
       -6.3670022e-06 -1.611711e-05 -4.626357e-06 -0.00084576465
0002e0 91 56 91 35 14 e5 99 b8 9c 4a 4c b7 c2 a9 c4 36
       1.0828536e-06 -7.338278e-05 -1.2176719e-05 5.8610176e-06
0002f0 d7 be 9a b5 14 85 5e b8 d4 6c 1e 37 fd 8e 8a b9
       -1.1529436e-06 -5.3052863e-05 9.442872e-06 -0.00026427946
000300 25 da a7 b7 44 10 da 39 f5 f2 2f 36 cd bb 51 35
       -2.0009533e-05 0.0004159232 2.6218452e-06 7.8131853e-07
000310 ab 79 26 3a b3 cf 91 39 3a cf 1f 38 01 23 ac 36
       0.00063505274 0.00027811303 3.810155e-05 5.1300744e-06
000320 36 79 d4 b9 88 c4 6f 38 86 4e 30 b7 2b a0 0f b6
       -0.000405261 5.7165074e-05 -1.05087e-05 -2.140189e-06
000330 d0 96 8e 37 c5 96 88 35 64 2b 4e 37 42 3d 84 b6
       1.6997947e-05 1.0176669e-06 1.22886595e-05 -3.941038e-06
000340 17 8c 69 b6 a2 5d 2f 37 9a 92 9f b5 68 0c ca b9
       -3.4801249e-06 1.0452613e-05 -1.188909e-06 -0.00038537686
000350 85 97 4b b7 d5 d8 8f b7 e9 93 9f b7 78 fc b9 ba
       -1.2135021e-05 -1.7147899e-05 -1.9023153e-05 -0.0014189621
000360 80 f0 a0 35 53 93 c2 b8 79 8c a8 b7 58 5e 63 b7
       1.1990924e-06 -9.278082e-05 -2.0092573e-05 -1.35522205e-05
000370 d7 cd 63 b6 e7 68 a0 b9 95 22 26 37 dc 46 d8 b9
       -3.394545e-06 -0.00030595736 9.902423e-06 -0.00041251525
000380 40 9b 8d 38 c3 3c d8 bb 61 01 7a 36 3d 25 8d 35
       6.7523215e-05 -0.0065990402 3.7253706e-06 1.0516156e-06
000390 33 f9 e2 bb 52 33 84 b7 98 9b 67 37 f6 0f be b7
       -0.0069266795 -1.5759524e-05 1.38049e-05 -2.2657197e-05
0003a0 33 14 3f 3b 79 20 06 37 8e ae 24 b6 00 61 32 37
       0.0029156327 7.994583e-06 -2.4539509e-06 1.0632211e-05
0003b0 40 4c 8a b8 17 18 a1 35 31 14 87 b7 a7 92 8a 37
       -6.5945555e-05 1.2002446e-06 -1.6102656e-05 1.6519172e-05
0003c0 2e 48 07 38 f2 00 06 36 63 74 cd 36 a2 26 3c 3b
       3.225373e-05 1.9968106e-06 6.1230253e-06 0.002870955
0003d0 d4 c9 43 38 2f 42 82 b8 bb cc 9f 38 33 f4 0a b7
       4.667959e-05 -6.211211e-05 7.619845e-05 -8.282298e-06
0003e0 17 bc db b5 27 d6 8a b8 0b 58 b7 38 c6 71 88 38
       -1.6371513e-06 -6.620242e-05 8.742519e-05 6.506177e-05
0003f0 eb 6b c3 37 68 36 87 ba 3a 33 34 36 ea 4a b9 b7
       2.3296065e-05 -0.0010315897 2.6851908e-06 -2.2088603e-05

in_layer2.layers.2.bias f4 [32]
000000 37 09 9f b8 74 33 93 ba 70 e5 26 b9 9d 01 c8 38
       -7.583427e-05 -0.0011230544 -0.00015916466 9.537044e-05
000010 2b 9a 4a b9 82 ab 6c b9 b1 42 95 b8 b3 3b a6 3a
       -0.00019321653 -0.00022570606 -7.117296e-05 0.0012682587
000020 19 46 41 39 24 f7 7b b8 3d 60 8a b9 32 02 7f b8
       0.00018432028 -6.007323e-05 -0.00026393114 -6.0798782e-05
000030 d2 41 fc 39 7b 61 cd 3a bc 73 e7 39 b8 a4 f0 ba
       0.00048114226 0.001566931 0.00044145982 -0.0018359637
000040 69 c9 06 3b dc d5 1b b8 2b b2 eb 38 a4 0f f6 b8
       0.0020566827 -3.7154052e-05 0.000112388596 -0.000117331074
000050 14 32 9b 39 57 87 a3 ba 26 ec de b8 80 98 64 b9
       0.00029601215 -0.0012476248 -0.00010629771 -0.00021800585
000060 54 e1 7c b9 4e e6 3f b8 d4 40 33 bd ab 3c f3 ba
       -0.00024116534 -4.5752437e-05 -0.043762997 -0.0018557509
000070 d4 28 49 39 af 44 b2 3a 63 82 ad 38 32 87 79 38
       0.00019184063 0.0013600792 8.273569e-05 5.9492137e-05

sat_layers.layer0_1.0.agg_weight f4 [3]
000000 a7 ce 5d be c6 c5 00 80 49 60 b6 be
       -0.21660863 -7.0948e-41 -0.35620335

sat_layers.layer0_1.0.input_linear_layer1.weight f4 [32, 32]
000000 61 4b d7 39 2a ba 9c 37 38 44 26 ba 46 3a cb 39
       0.00041064157 1.8683339e-05 -0.0006342563 0.00038762594
000010 11 77 91 b9 b4 94 d3 38 d2 51 42 b9 22 7c 19 38
       -0.00027745267 0.00010088962 -0.00018531762 3.659365e-05
000020 31 63 c1 b9 00 40 d8 39 3b 41 3b 38 a8 d0 80 38
       -0.00036885732 0.00041246414 4.4645025e-05 6.142381e-05
000030 63 bc a9 ba 40 f3 2b b8 67 8d 8a b9 ce 0f 9c b7
       -0.001294982 -4.099612e-05 -0.00026426764 -1.8604009e-05
000040 4d 18 4f ba f4 cc 30 38 5d 0b 44 ba 7a f9 91 b9
       -0.00079000444 4.2152547e-05 -0.00074785 -0.0002784243
000050 87 e9 88 38 83 38 49 b9 81 70 0c ba 4b 3d d4 b9
       6.528483e-05 -0.00019189906 -0.00053573406 -0.00040481458
000060 e6 37 2e ba cc 26 24 ba d7 1e f0 b9 ba fc d3 39
       -0.0006645903 -0.00062618847 -0.00045799345 0.00040433352
000070 2f 65 ad ba 32 74 91 b9 79 14 e5 b6 80 04 eb b6
       -0.0013229008 -0.00027743127 -6.827115e-06 -7.0040696e-06
000080 61 32 62 39 51 63 c1 b8 3f 87 c7 b8 1d 97 63 39
       0.00021571807 -9.221456e-05 -9.514251e-05 0.00021704701
000090 de cb 19 3a e2 37 6a b9 44 aa 1c b8 20 b4 ad b8
       0.00058668654 -0.00022336797 -3.735187e-05 -8.282834e-05
0000a0 0b 04 aa 39 5f e6 64 39 21 da ee 37 fb e0 51 b9
       0.0003242794 0.00021829594 2.8473385e-05 -0.00020015605
0000b0 7e 88 b8 ba c2 fc eb 37 62 23 a3 39 87 ab 93 38
       -0.0014078764 2.8131883e-05 0.00031116145 7.041456e-05
0000c0 cf 34 f8 b9 43 bc ad 38 e1 73 43 ba 0f 65 e9 39
       -0.00047341592 8.284349e-05 -0.0007455927 0.00044516518
0000d0 bf e2 c8 38 87 87 00 39 f5 c3 f9 39 a4 bc 85 38
       9.578978e-05 0.00012257519 0.0004763898 6.377071e-05
0000e0 65 4e ae 39 d9 6f 82 39 f9 8c 0d 3b 8c 2c 62 39
       0.00033246275 0.00024878865 0.0021598919 0.00021569635
0000f0 72 61 e7 b9 0d 46 88 39 74 8b 38 35 f1 87 c0 b8
       -0.00044132356 0.00025992133 6.874827e-07 -9.1805945e-05
000100 20 52 09 ba 46 10 32 ba b9 81 14 ba 53 ec 0c ba
       -0.0005238373 -0.0006792586 -0.0005665082 -0.0005375791
000110 c1 1a 23 3b d3 38 93 37 cf 0e 1e ba 9b 96 31 ba
       0.0024887773 1.7550226e-05 -0.00060294283 -0.0006774456
000120 b3 c8 77 3b 12 cc 07 ba 1f ac 91 37 e7 48 d1 39
       0.0037808835 -0.000518025 1.7365497e-05 0.00039917903
000130 37 02 ad ba 9d bb af b7 f3 41 d0 3b db 55 8b 37
       -0.0013199513 -2.094899e-05 0.006355518 1.661007e-05
000140 3a cf 5a ba 77 96 87 36 30 43 82 ba 53 8d 36 3c
       -0.0008346919 4.04083e-06 -0.0009938236 0.011142093
000150 56 91 13 37 10 72 de 39 e0 62 59 3a df 88 0f 3a
       8.795721e-06 0.00042428123 0.00082926266 0.00054754125
000160 4d b5 d0 3a d1 05 af 3a 99 4a 07 3b be c7 0b ba
       0.0015923172 0.0013353174 0.002064383 -0.0005332193
000170 ea b8 60 ba de f8 04 3c a4 c7 bd b7 99 97 2f ba
       -0.0008572476 0.008115975 -2.262352e-05 -0.000669831
000180 9e 79 bc 3a 89 31 ac 3a 4d 01 e3 3a ab ab ac 3a
       0.0014379506 0.0013137321 0.0017319113 0.001317372
000190 d3 2c 14 bb 59 a4 84 bb a0 f6 c6 3a a2 bb a9 3a
       -0.0022609725 -0.004047912 0.0015179701 0.0012949596
0001a0 3c 37 b9 bb c5 c6 bf 3a 39 ac 60 39 ba b7 3e bb
       -0.0056523364 0.0014631381 0.00021426463 -0.0029101209
0001b0 96 c7 71 3a 59 76 a3 38 a6 80 01 bc 6a 1b c4 38
       0.0009223161 7.79449e-05 -0.007904207 9.3511146e-05
0001c0 a4 5b f9 3a 6d d7 8b 39 63 b7 8f 3a 31 dc 93 bc
       0.0019024503 0.0002667265 0.0010964688 -0.018049331
0001d0 a6 8c 00 39 d2 5c ee ba 10 ca 1b bb 5b 45 2d 3b
       0.00012259427 -0.0018185622 -0.0023771562 0.0026439044
0001e0 ed 89 2c bb a7 ca 57 bb 67 6e ad 3c f2 70 b6 3a
       -0.0026327327 -0.0032927187 0.021170808 0.0013919158
0001f0 42 c0 a0 3a 93 80 c5 bb 83 da de 39 36 0c ae 3a
       0.0012264329 -0.00602729 0.00042505944 0.0013278786
000200 bc 1d be 38 29 02 f4 b9 ed ab 61 ba c2 2d d1 38
       9.0654445e-05 -0.00046540916 -0.0008608688 9.97442e-05
000210 64 cd b5 39 bc 0d 57 39 dd ff a6 b9 5d 62 ef b9
       0.00034676038 0.00020509114 -0.0003185262 -0.0004565892
000220 14 9b 40 b8 bb 9c b3 38 32 ed ae 36 05 65 a7 3a
       -4.5920795e-05 8.5645785e-05 5.2132173e-06 0.0012771195
000230 26 8d 37 bb e4 80 f4 b5 fe 4e 6d 38 30 1c 80 36
       -0.0028007715 -1.8216929e-06 5.657877e-05 3.8179787e-06
000240 1f 11 84 bb 38 5d 0e 36 e4 67 c9 ba 2f 11 83 39
       -0.0040303613 2.121391e-06 -0.0015366045 0.0002499907
000250 bc 3f a8 36 6b d9 3e 39 82 58 93 3a e1 60 b6 3a
       5.01421e-06 0.00018200807 0.0011241587 0.001391437
000260 73 bc c2 39 2c a9 5d 3a 18 46 b9 ba cb d2 d2 38
       0.0003714297 0.00084556895 -0.001413527 0.000100528436
000270 69 d0 1e bb 06 04 59 3a 8a e4 de 36 b6 b3 d1 b9
       -0.002423311 0.00082784926 6.642721e-06 -0.00039997482
000280 09 9e 21 be 9a a2 e8 3d f3 e5 3b 3e 8e 98 f9 3c
       -0.15782942 0.11359139 0.18349437 0.030468252
000290 98 c3 4f be 55 6d 79 bd f4 f7 bc bd 07 89 ef bd
       -0.20289457 -0.060895283 -0.09226981 -0.11696058
0002a0 5c d0 42 bd b2 9c 1a be c3 db 7f bd 24 80 fb bd
       -0.04756199 -0.15098837 -0.06246544 -0.122803
0002b0 eb 1e 1f 3e bb 35 28 bd 44 fb 11 be c1 c7 14 bd
       0.15539138 -0.041066866 -0.14256006 -0.036323313
0002c0 3e be c3 3e 0a 0d 8f bd 69 31 c4 3d 85 fd c7 be
       0.3823108 -0.06984909 0.09579737 -0.39060608
0002d0 ff 30 93 bd 0d 72 98 bd 34 3c 18 be e2 4c 9d be
       -0.0718708 -0.074436285 -0.14866716 -0.3072272
0002e0 0e b8 0c be 22 86 3b be 1f 31 3d be 3c c4 a2 bc
       -0.13742086 -0.18312886 -0.1847577 -0.019868962
0002f0 6e 08 a8 3e f7 f8 c7 be c0 64 8f bd ad 28 b0 bd
       0.3281893 -0.39057133 -0.070016384 -0.08601508
000300 34 88 33 bb 18 ad 34 bb af ef d2 ba db c6 35 bb
       -0.0027394416 -0.0027568992 -0.001609316 -0.0027736935
000310 56 23 34 3c 5c 29 a4 39 a7 f6 13 bb 35 07 36 bb
       0.010994753 0.00031311333 -0.0022577436 -0.0027775292
000320 ea 96 8d 3c a7 cb 32 bb 13 98 78 38 65 18 b8 3a
       0.017283875 -0.002728203 5.9269438e-05 0.0014045356
000330 40 a9 3d bb af 68 d5 b7 c1 f0 1d 3c 08 a6 81 38
       -0.0028939992 -2.5440326e-05 0.00963992 6.182125e-05
000340 43 ae c8 ba 8f 07 7f 37 52 00 39 bb 68 ae 36 3d
       -0.0015310723 1.5200944e-05 -0.002822895 0.04459992
000350 d7 40 02 38 ad 71 69 3b f2 fc 33 3b 2c e5 c5 3a
       3.1054802e-05 0.0035620735 0.0027464 0.0015098206
000360 1b e1 12 3c 89 c1 e3 3b f3 15 00 bd e8 b6 34 bb
       0.008964802 0.0069505614 -0.031270932 -0.002757484
000370 0e 6b ea ba f5 2a cb 3c 56 e7 d2 37 41 44 35 bb
       -0.0017884688 0.024800757 2.5141675e-05 -0.002765909
000380 80 05 52 bd c8 6e 1c bd 90 72 24 3d ff a6 c3 bd
       -0.051274776 -0.038191587 0.040148318 -0.09553336
000390 8f c1 37 bd cf 20 01 bd 68 f8 83 bd a5 c2 bf 3a
       -0.044862326 -0.03152543 -0.06443864 0.0014630152
0003a0 81 c2 4d bd fb ac 5b bd fb ba 87 bc 57 1b f6 bc
       -0.05023432 -0.053631764 -0.016568651 -0.030042334
0003b0 9f fd 24 3e 4e 37 86 bc 86 0a 5c be 95 3a ae bb
       0.16112374 -0.016383793 -0.2148839 -0.005317042
0003c0 d5 d2 28 3e 5e bf a1 bc be 95 89 3a af e3 a8 be
       0.16486676 -0.019744571 0.0010496897 -0.3298621
0003d0 f0 bd a7 bc 76 63 74 bd 57 03 2c bd 0d 2f e1 bd
       -0.020476311 -0.059665166 -0.041995373 -0.10995302
0003e0 9c cc 96 3c 8b fc e2 bd 7c d5 55 3d 0e a8 a8 bc
       0.018408112 -0.11083325 0.052205548 -0.020587947
0003f0 cb 38 d0 3d e8 22 0f be 6d 55 ad bc 3f 90 d9 3c
       0.101670824 -0.1397816 -0.021158898 0.02655804

sat_layers.layer0_1.0.input_linear_layer1.bias f4 [32]
000000 63 cd a9 b9 ba a1 03 bc 9f fa ed bc 52 cf 13 bc
       -0.00032387217 -0.008034164 -0.02905017 -0.009021597
000010 ab 68 15 ba 80 ba 3c 3e 71 e9 ba bc 6c 2d 9d 3d
       -0.00056994957 0.18430519 -0.022816392 0.07674679
000020 d6 d2 07 3b bb 93 a0 bc ce d6 7d b9 ce b3 00 bc
       0.0020725033 -0.019601693 -0.00024207981 -0.007855369
000030 6b 7e b1 3c 63 32 f9 ba 9b a1 01 3e 5d e4 35 3e
       0.021666726 -0.0019012209 0.12659304 0.17762895
000040 d8 89 02 bc 1a 9d b7 ba fc b6 58 3e 51 d0 b1 3d
       -0.007967435 -0.0014008612 0.21163553 0.08682311
000050 e6 fe 46 3e d1 b9 e4 3d 3e 60 6b 3e 4f be 62 3d
       0.19433174 0.11168254 0.22985932 0.055357274
000060 4b b9 c6 bb fd 40 00 bc 3c 6a ce 3c 1a 1b 2b 3e
       -0.006064569 -0.007827994 0.02519714 0.16709557
000070 38 d3 3a 3e 8f 0e ca bb aa 5f a4 3d 52 6b 83 3e
       0.18244636 -0.0061662863 0.08026059 0.25667816

sat_layers.layer0_1.0.input_linear_layer2.weight f4 [32, 32]
000000 47 cf e8 3d 77 23 94 bd 9e fe 51 bd 24 ce cb 3d
       0.1136766 -0.07233327 -0.051268212 0.099514276
000010 ad f4 d4 3d c1 fa 11 3e ce b5 66 bd ef 64 46 39
       0.10398231 0.14255811 -0.056325726 0.00018920352
000020 a0 c5 65 3d ad 51 c5 3d cb 7c 85 bc b2 bd f3 3d
       0.056096673 0.09634719 -0.016294857 0.11901416
000030 b9 ae 3a be 7e 25 a5 bb 66 2c 96 bd 38 ef 4a bc
       -0.18230714 -0.00503987 -0.07332687 -0.012386136
000040 52 d1 c5 be b0 9c 63 bc 06 37 76 be 6f e8 3f be
       -0.3863626 -0.013892338 -0.24044427 -0.1874101
000050 7a fb 69 bc 84 6e 09 3d a6 12 b1 3d bf b1 6b bd
       -0.014281148 0.03355266 0.08646135 -0.05754256
000060 f9 c5 ac 3d f0 49 60 3d 0e e0 62 bd 3c 1a 56 3d
       0.08436198 0.054758012 -0.055389456 0.052271113
000070 0d af 84 be 58 aa 51 bd 49 31 5e bc c0 b1 fb 3b
       -0.25914803 -0.051187843 -0.013561555 0.0076811016
000080 1d 32 32 bd d4 8a f1 3b b5 00 2f bd 28 de 49 bc
       -0.043504823 0.007371286 -0.042725284 -0.012321033
000090 10 6a 88 bc eb c4 e2 3c 03 b2 a1 3c aa 69 39 3c
       -0.016652137 0.027681788 0.019738203 0.011316696
0000a0 19 e6 02 bd 97 0c e4 bb 8a 51 cc 37 1e 79 f9 bc
       -0.03195772 -0.0069595086 2.4356665e-05 -0.030453261
0000b0 bc a0 05 be c0 92 79 bb 39 fd 96 3b 18 95 d2 bb
       -0.13049597 -0.0038081855 0.004607823 -0.0064264648
0000c0 ce ba e5 bd db 99 4a 3a 58 60 43 3d 52 b4 ae 3c
       -0.11217271 0.0007728615 0.047699302 0.021326218
0000d0 85 48 c7 b9 f8 ca 0d bc 44 5b 81 3d 03 c8 22 bc
       -0.0003801027 -0.008654349 0.06316236 -0.009935382
0000e0 7a e0 77 bb 8a cf ed bc 4f a8 5e bd b2 fa 22 39
       -0.0037823007 -0.029029626 -0.05435973 0.00015542915
0000f0 a6 ba 49 3d 72 8f 9a bc f2 eb e5 3b 9c 5f ac bb
       0.049250267 -0.018867228 0.0070166523 -0.005260421
000100 90 4d 8c bc b7 28 bd bc 3b 91 29 3e fa f4 a6 bc
       -0.017126828 -0.023090703 0.16559307 -0.020380486
000110 01 17 12 3e 09 3c 03 bd c9 ca 6c bb 11 2b c4 bc
       0.14266588 -0.032039676 -0.0036131612 -0.023946317
000120 7e fb b1 3d 2f 98 07 bd 19 2c 9a 3b 47 50 c0 3d
       0.086905465 -0.033104118 0.004704964 0.09390312
000130 64 63 0e be f3 05 bf 3a 05 e3 31 3e 50 42 7f 3b
       -0.13905102 0.0014573917 0.17371757 0.0038949437
000140 53 19 e3 bd 00 97 87 3b f4 9c f2 3c 84 e0 af 3d
       -0.110888146 0.0041378736 0.029615857 0.08587745
000150 4c 2b b4 3b bd e0 3c 3c 4e f1 6e 3d 2d 2b 40 3c
       0.0054983255 0.011528191 0.058335595 0.011729044
000160 9e 03 14 3e 95 78 73 3d 84 cf c4 3d 3e 9d 2b bc
       0.14454505 0.059441168 0.09609893 -0.010474501
000170 cd 06 ee 3d 27 b4 1e 3e 74 d8 12 3c 46 eb 12 bc
       0.11622391 0.1549841 0.008962739 -0.008967226
000180 38 09 8c 3e ff 3a 15 3c f5 ee 98 bd 7e fa 84 3e
       0.27350783 0.009108304 -0.074674524 0.2597236
000190 8b b4 5a 3e 5d f9 a5 3d ef 27 9a bd 91 eb 3a 3c
       0.21357934 0.08104203 -0.07527148 0.0114087025
0001a0 27 11 0d 3b 89 3e ff 3d e0 1c a0 bc 1b c0 2e 3e
       0.0021525116 0.124630995 -0.019545019 0.1706547
0001b0 d6 4d 65 bd 74 74 fc bb b5 9e 93 bd a6 8b 9b bc
       -0.055982433 -0.007704312 -0.07208005 -0.018987488
0001c0 59 73 47 be d8 9f 93 bc 1e 06 34 be 9b 55 5d bd
       -0.19477595 -0.018020555 -0.17580459 -0.054036718
0001d0 d7 31 8a bc 0a 52 f3 3c f6 4e 54 3e d0 48 8c bd
       -0.016869469 0.029702205 0.20733246 -0.068498254
0001e0 de 06 2d 3e fe 7e 18 3e 6c df 99 bd 63 54 6e 3d
       0.16897151 0.14892194 -0.075133175 0.058185946
0001f0 7b 3e 2e be 85 16 9a 3d 97 6a 79 bc 7a 49 12 3a
       -0.17016022 0.075238265 -0.015223167 0.0005580407
000200 0d 1d e6 3c 53 88 48 3c ca 43 98 3d 57 7e fb 38
       0.028090024 0.0122395335 0.07434805 0.00011992145
000210 ae bc 38 3c 4a 2c b4 bc f6 bf cd 3a c5 bf a8 3b
       0.0112754535 -0.021993775 0.0015697468 0.005149814
000220 46 d7 fa 3c 93 c5 fa 3c 69 69 0f 3c 96 eb e2 bb
       0.030620228 0.030611789 0.008753159 -0.0069250567
000230 e5 f8 02 3c 6c 0c e9 3b 57 f0 61 bc d6 0f 87 3c
       0.007993911 0.0071120765 -0.013790212 0.016487043
000240 0e 32 53 bd a0 dc a1 3b 9f e3 93 3d 9d 6f ac bc
       -0.051561408 0.0049396306 0.0722115 -0.021049315
000250 bc f3 ac 3b 25 bb 18 bb 7d 54 8d bd f8 5e 40 3b
       0.005278079 -0.0023304906 -0.069008805 0.002935348
000260 73 d0 02 bd 8d 08 fa bc de 72 74 3d 99 e8 a8 bc
       -0.031937074 -0.030521655 0.05967986 -0.020618724
000270 eb 21 9b 3d 07 b8 05 bd 05 18 bc bb a0 a7 91 3c
       0.07574829 -0.032646205 -0.005740168 0.017780125
000280 89 ee 6d 3b c6 7e a5 b9 af ac 13 bb 0f d7 7c 3b
       0.0036305508 -0.00031565706 -0.0022533347 0.0038580333
000290 a2 9a 19 bb 53 a2 ea 3a 70 3c bf 3a 28 a2 ab ba
       -0.0023438116 0.001790116 0.0014590155 -0.0013094591
0002a0 5f b6 58 bb df 29 57 3b c8 7e 44 ba 1a 67 2a 3a
       -0.0033067686 0.0032831354 -0.00074956985 0.00065003487
0002b0 e2 9e 38 bd b4 de 83 3a fc 57 56 bb 1c 6f f2 ba
       -0.045073397 0.0010060878 -0.0032706251 -0.0018496248
0002c0 9a aa 13 bc 05 a7 c4 3b 21 15 8e 3b 10 ff fe bb
       -0.009012843 0.0060013556 0.004336015 -0.0077818707
0002d0 25 08 f2 3b ba df a7 38 8d c0 e8 ba ea 9a a9 b9
       0.007386225 8.004853e-05 -0.001775758 -0.00032349612
0002e0 a3 da 8c bb 92 ca 69 bb 31 a8 65 bc b2 64 55 3b
       -0.0042985245 -0.003567372 -0.014017151 0.003256124
0002f0 39 79 76 3c fb a6 94 bb e9 a7 c6 3a 35 00 85 3b
       0.01504355 -0.004536507 0.0015156242 0.0040588626
000300 93 05 92 be ba 39 96 3d d5 ec 44 3d 31 eb a0 be
       -0.28519878 0.07335229 0.048077423 -0.31429437
000310 fa d4 a3 be 26 c4 c5 bd 06 b1 5d bd d9 28 4a 3c
       -0.31998426 -0.09656553 -0.0541239 0.01233884
000320 47 c6 4e be fa de 67 be 0f 84 99 3b 7d 97 80 be
       -0.20192824 -0.22643653 0.004684932 -0.25115576
000330 be 62 6a bc 05 aa 98 3c a9 b6 a7 be b9 75 d3 ba
       -0.014305769 0.01863576 -0.32756546 -0.0016133107
000340 c1 f1 39 3e c0 c1 21 bc a9 35 f6 3d b4 56 ce bd
       0.18158628 -0.009872854 0.120219536 -0.10075131
000350 cc 4d d2 3c e1 23 6d 3d 70 05 5f be 1c 5f 6a bc
       0.025671862 0.057895545 -0.21779418 -0.014304902
000360 7a 92 82 be b2 74 26 be c4 9b 91 be 6b ea 38 be
       -0.25502378 -0.16255453 -0.28439152 -0.18058173
000370 a0 3a a0 bd 17 ff c3 be 6f 6c 6a ba d3 a6 0f 3d
       -0.07823682 -0.38280556 -0.00089425495 0.035071205
000380 40 de d0 3b a4 87 63 bb 8e d2 42 bc e4 1e 8d 3b
       0.0063741505 -0.00347183 -0.01189102 0.004306661
000390 cf db 20 bc f6 16 31 3b 39 13 c2 3a 0c e1 67 bb
       -0.009818031 0.0027021742 0.0014806754 -0.003538194
0003a0 d4 41 81 bc ed 7f 12 3c c2 0b 53 3a 9e ce 2e 39
       -0.01577846 0.008941633 0.0008050763 0.00016670904
0003b0 e3 13 0a bd ef d1 f8 ba df 30 7d bc e0 5a 7b bb
       -0.03371037 -0.0018983464 -0.015453546 -0.0038353726
0003c0 dc 26 f7 3c 30 fc fc 3a 91 36 10 bd a9 9a 95 39
       0.030169897 0.0019301232 -0.03520829 0.00028534725
0003d0 6e e4 97 3a cf 35 0e bb b1 76 ed 3b 03 99 ab 3a
       0.0011588463 -0.0021699553 0.007246815 0.0013091866
0003e0 3e 12 ac bb c0 76 5a 35 78 61 ae bc 11 b5 9b 3a
       -0.005251198 8.138413e-07 -0.021286711 0.0011879524
0003f0 89 91 6c bd 36 ec 1f bc 70 3f c5 3b aa 64 dc bb
       -0.05775598 -0.009760907 0.006019525 -0.0067258673

sat_layers.layer0_1.0.input_linear_layer2.bias f4 [32]
000000 bd 2c e3 bd 3a 2d be 3d 32 26 0e 3e 9b c7 ec bd
       -0.110925175 0.0928597 0.13881758 -0.11561509
000010 2b f4 8e bd 30 9b 0e 3c 9e 9f 99 3e 2d 74 7d bc
       -0.06980165 0.008703992 0.3000459 -0.015469593
000020 34 57 23 3e 99 e8 a7 bd bd 8f e9 bb 51 b2 b3 3b
       0.15951234 -0.08198661 -0.0071277306 0.0054839035
000030 58 d2 81 be f3 05 05 bc e3 48 67 3e 16 48 16 bd
       -0.25355792 -0.008119094 0.22586398 -0.03668984
000040 77 63 2b 3c 0e 78 b2 bd 47 30 8e be 97 f3 4e 3e
       0.010460726 -0.08714305 -0.27771208 0.2021011
000050 f3 36 00 3e 35 59 8a 3d 7d cb 49 bd a8 44 41 3e
       0.12520961 0.06755296 -0.049266327 0.18873847
000060 a9 e0 0d 3c ac 89 54 bd 8d 5c 06 3a a8 d0 83 be
       0.00865952 -0.051889107 0.00051254855 -0.2574513
000070 94 1b e7 3d 53 95 38 3e 8f e1 75 bd df 99 23 be
       0.11284557 0.18025713 -0.060029563 -0.15976666
