output/modelparams/dynamicLearning-ER-CompUAU-GAT/epoch14_model_state_dict.pth (torch, 126331 bytes, 66 tensors)

in_layer.layers.0.weight f4 [32, 3]
000000 a4 c2 64 bd a2 00 11 3f 35 be 37 bf c8 a0 de be
       -0.055849686 0.5664159 -0.7177461 -0.4348204
000010 d8 f7 9e be bf 66 d3 3e b4 1c 9c bd 9b a3 44 3f
       -0.31048465 0.41289327 -0.07622662 0.7681214
000020 21 e2 97 be 72 c5 bd 3e ad ef c2 be 09 a4 b2 bd
       -0.2966471 0.370647 -0.38073483 -0.087226935
000030 8a 55 08 bf 96 8b 2f bf b6 ce 36 3c db f1 39 be
       -0.5325552 -0.68572366 0.011157682 -0.18158667
000040 23 09 4d 3e 95 aa ec 3e 51 13 ab be b1 77 87 be
       0.20023017 0.46223894 -0.33413175 -0.26458505
000050 0d aa e2 3e d7 86 de 3e bb 42 e7 be 2b a5 23 3f
       0.44270363 0.4346225 -0.451681 0.639239
000060 8e 7c 8b bd 93 3f dc bd 95 76 36 3f 14 0d c6 be
       -0.06810866 -0.10754313 0.7127469 -0.38681853
000070 62 b7 e8 be 40 6c 2b 3e e9 da 87 be eb 7c 49 3f
       -0.4545241 0.16740513 -0.26534203 0.78706235
000080 70 0e aa be 1e 54 bb bc ba b0 39 be 35 0e a3 be
       -0.3321414 -0.022867259 -0.18133822 -0.31846777
000090 c4 83 cc be 47 b5 47 3f c1 0c 3b bd c4 31 57 3e
       -0.3994428 0.7801098 -0.04566646 0.21015078
0000a0 60 21 c8 3d df 52 06 bf 1a 48 88 3e 94 a2 f5 be
       0.09771991 -0.524702 0.2661751 -0.479756
0000b0 7e e0 43 be 0d 5e db be 9e de a2 3e 9b 4f 0c 3f
       -0.19128606 -0.42845193 0.31810468 0.5480897
0000c0 b0 0a 2b be 21 78 64 be a5 98 15 3f 70 6d 88 3e
       -0.16703296 -0.2231145 0.5843604 0.26645994
0000d0 83 25 62 be 68 e1 2f 3e 6c a0 cb 3e b6 59 34 bf
       -0.22084622 0.1717583 0.3977083 -0.7044939
0000e0 ed b0 8a 3e 90 ac 66 bd 70 47 0d be 26 36 a5 3c
       0.2708811 -0.056316912 -0.13796782 0.020167422
0000f0 b7 1a 3d 3e a7 f2 06 3f e6 67 ef be b6 46 ed 3d
       0.18467222 0.5271401 -0.46758956 0.11585753
000100 08 51 01 3f 2b 1d bf be bf 98 78 bd ec ed 68 be
       0.5051427 -0.3732694 -0.060692545 -0.2274701
000110 34 7d 1a 3f 45 5d 19 3f 7e b1 35 bf fb bf 1a be
       0.60347295 0.59907943 -0.70973957 -0.15112297
000120 e1 b8 cb bb df ef 8e 3e f0 31 18 3f 07 1d e6 3e
       -0.0062171076 0.27917382 0.594512 0.4494402
000130 46 67 1e 3e aa b9 0f bf 9e aa 91 3e 39 b8 bd be
       0.15469083 -0.56142676 0.28450483 -0.37054613
000140 37 a7 c0 be e6 47 c5 3e 88 fc 2e 3f 8a 09 43 bf
       -0.37627575 0.38531417 0.6835408 -0.7618643
000150 8d 9d de 3d e9 a5 ac bc 69 b0 e0 3d 91 4e 03 be
       0.10869894 -0.021075206 0.109711476 -0.1282294
000160 cd 85 ad 3e a7 ba 7b be b4 0d 37 3e 6c be d7 bd
       0.33891144 -0.24582921 0.17876321 -0.10534367
000170 f2 4b 3f 3f 23 20 aa 3e ce 52 95 be 97 1a b6 be
       0.7472526 0.33227643 -0.29164737 -0.3556716

in_layer.layers.0.bias f4 [32]
000000 63 8b ad 3e b6 5b 45 3e f3 32 8a be 1a 7b 16 be
       0.33895406 0.19273266 -0.26991996 -0.14695397
000010 b6 05 0c 3f 48 42 94 3e cc 33 a8 bd fc a0 cc bd
       0.54696214 0.2895682 -0.082130045 -0.09991643
000020 02 10 c5 be 13 90 ee 3d 95 50 55 be cc 8c 95 3d
       -0.38488775 0.11648574 -0.20831521 0.073022455
000030 9b b2 77 3d 43 95 51 3c 2e 41 18 bd d5 c4 bf 3e
       0.060473066 0.012791934 -0.037171535 0.37454858
000040 ba fa 62 be 36 0d 2e 3e b2 ca c4 3e fa 5a 85 be
       -0.22165957 0.16997227 0.38435894 -0.26045972
000050 4f df e5 bd c2 36 a4 3c 36 d2 f9 3d 96 b7 0e 3e
       -0.11224233 0.020045642 0.12198298 0.1393722
000060 03 ee af 3d 83 20 6e 3b 9c 3e 44 bd 61 07 96 3e
       0.08590319 0.0036335296 -0.04791127 0.29302505
000070 e0 52 e5 bd 1e 28 3a be a2 31 0f be cb 40 1b be
       -0.11197448 -0.18179366 -0.13983777 -0.15161435

in_layer.layers.2.weight f4 [32, 32]
000000 b2 86 c5 bd a4 57 a7 bc 9c 01 2c 3c a0 b7 13 3a
       -0.09644832 -0.020427532 0.010498431 0.0005634967
000010 8c 4f 1e bd c7 7a e6 bd 21 98 90 3c 73 ef 8c bd
       -0.03865008 -0.11253887 0.017650666 -0.06881609
000020 55 bf c6 3c 53 0a 87 3c 0c 53 05 3c a8 1e 23 3c
       0.024261156 0.016484415 0.008137476 0.0099560395
000030 62 72 20 bd 5b f0 84 bc a2 e9 cb b9 d7 0c 06 be
       -0.039171584 -0.016227892 -0.00038893247 -0.13090836
000040 e7 d7 96 3c 88 3b aa bd 00 db 23 be 47 55 52 3d
       0.018413497 -0.08312136 -0.1600151 0.051350858
000050 97 13 91 bc 86 a5 20 bd d9 44 81 bd 11 8c c9 bd
       -0.017709536 -0.039220355 -0.0631196 -0.09841169
000060 84 69 bb bd a1 37 5e bd 0d 55 1e 3b 89 0f 34 be
       -0.09150985 -0.05425227 0.002415958 -0.17584051
000070 24 3b c2 3b 83 7e fb 3c c5 a8 2f bd e5 55 3a 3c
       0.0059274603 0.030699974 -0.04288556 0.011373018
000080 bd 75 29 be af c8 d9 ba b2 3d 0e be d8 43 90 3a
       -0.1654882 -0.0016615595 -0.13890722 0.0011006547
000090 68 d8 06 3b 41 b1 df bc 17 d0 7d bc 07 3d 88 3d
       0.0020575766 -0.027306201 -0.015491507 0.06652265
0000a0 e8 ed 40 bd 17 bb e6 3a f2 4d a7 bc e6 99 03 3c
       -0.047101885 0.0017603365 -0.02042291 0.008032298
0000b0 60 2a d4 bd 55 60 98 3b f0 b8 06 bb b1 24 14 3d
       -0.10359645 0.0046501555 -0.0020557009 0.036167804
0000c0 67 9c 3f 3c f3 2e e3 bd cc 57 0b 3e 3d 20 f5 bc
       0.011695004 -0.11092939 0.1360771 -0.029922599
0000d0 12 3a 28 bd 7f 8c 94 bd 36 a3 de 3d 27 dd 8e 3d
       -0.041071005 -0.0725336 0.10870974 0.06975775
0000e0 61 66 99 3c fc 3e 4c bb c5 57 13 3d fd fb 17 be
       0.018725576 -0.0031165471 0.035972375 -0.1484222
0000f0 ef 1f 46 bb 46 c8 0a 3d 4c 49 f1 3d 6c 39 bf 3d
       -0.0030231436 0.033882402 0.117815584 0.09337124
000100 d4 8f 73 be 7e 42 39 3d 00 fd 1c be 69 43 99 bb
       -0.23785335 0.045229428 -0.15330887 -0.0046772254
000110 1b 25 9b bd 76 5d 97 3c e9 fc 39 bd 2a 9e 2d 3c
       -0.07575437 0.018477183 -0.04540721 0.010596791
000120 ea 74 9a 3c af 77 2c 3d 67 73 39 be f4 7a 5c bc
       0.018854577 0.042106327 -0.18110429 -0.013457049
000130 46 d2 6a be 8f db 33 3d 9e 7d 29 3c 05 6e a0 3d
       -0.22931775 0.04391056 0.010344891 0.078334846
000140 53 3c 64 3d 53 08 5f bc 4d dd f2 3b b9 94 37 3c
       0.055721592 -0.0136128245 0.007411635 0.011204892
000150 54 b9 ba bd b0 95 c8 bd da 08 8f 3a a6 d0 ed 3c
       -0.0911738 -0.097941756 0.0010912672 0.029030155
000160 09 5a 1a be c6 bd cd bd 80 68 e0 3d 58 99 66 be
       -0.15073408 -0.10045962 0.10957432 -0.22519433
000170 34 be 62 ba b3 cc bd 3d 63 fa 60 3d 13 79 59 3d
       -0.00086495583 0.09267559 0.054926287 0.05309398
000180 f3 99 d1 be 0e 75 d0 3e 45 6f b7 be 3a 64 76 be
       -0.40937766 0.40714306 -0.3582708 -0.24061671
000190 41 51 a1 3e a2 05 6d 3e ef 0e 41 3e ca 03 b0 3e
       0.31507304 0.2314668 0.18853353 0.3437789
0001a0 d4 48 4b 3e 87 e0 7b 3e bc 26 27 be 75 a1 6b be
       0.19852 0.24597369 -0.1632337 -0.2301081
0001b0 17 cf a0 3d 9b 64 99 be 3e be 88 be 9e 91 cc 3e
       0.07851999 -0.29959568 -0.26707643 0.39954847
0001c0 4c ac 91 3e eb bf 39 3e 78 bb b4 3d cc 87 09 be
       0.28451765 0.18139617 0.08824819 -0.13430709
0001d0 9a e5 9a be 80 2e bf be 31 4b ea 3e e6 cb 19 be
       -0.30253297 -0.37340164 0.45760491 -0.15019187
0001e0 f7 1e 76 3e 68 fc 53 be 1f 86 98 be 40 44 2b be
       0.2403525 -0.20701754 -0.29789826 -0.16725254
0001f0 f2 ad cd bb 95 42 5e be fa 4b 87 3e a0 a5 b8 be
       -0.0062768394 -0.21705087 0.26425153 -0.36063862
000200 4b 04 98 be 32 1c 82 3e 1f 8d af bd fd 61 a9 bd
       -0.29690775 0.25412136 -0.085718386 -0.08270643
000210 c6 42 55 3d 98 4e cd 3d d7 9c 55 3e 64 69 da 3d
       0.052065633 0.10024756 0.20860611 0.10664633
000220 6f a2 3f 3e 08 63 c7 3d 20 ea 8d bd b9 ef e2 3c
       0.18714307 0.097356856 -0.069294214 0.0277022
000230 37 c6 c4 bc 5c a1 05 be 55 2e ad bd ae 0d b7 bb
       -0.024020297 -0.13049835 -0.08456103 -0.0055863475
000240 df b7 9b 3d 1c f7 87 bd 5d a7 14 be 84 f7 5b bc
       0.0760343 -0.06638929 -0.14516969 -0.013425712
000250 5b b9 fb bd dc 1c 46 be 51 d1 a4 3d ea 33 3e be
       -0.12291213 -0.19346946 0.080477364 -0.18574491
000260 d3 6a ef 3b 1d 7b 84 be 32 da e1 bd 4f c5 59 be
       0.0073064356 -0.25875178 -0.110279456 -0.21266674
000270 3c 92 ab bb c7 48 aa 3d 42 5a 93 3d bf fc ba bc
       -0.0052359384 0.083146624 0.0719495 -0.022825597
000280 03 a3 73 bc e2 03 42 bd 6b 64 8b bc ea 8e 1b 3d
       -0.014870408 -0.047366984 -0.017015656 0.03797809
000290 88 10 a6 bc 03 17 ab bd 35 f5 9c bc ab ed 19 be
       -0.020271555 -0.083539985 -0.019159893 -0.1503207
0002a0 03 91 3a 3d a8 8e 09 bd 28 aa cc 3d 58 34 16 bb
       0.04554845 -0.033583313 0.09993392 -0.0022919383
0002b0 b8 91 41 bd ec 32 2a 3c 74 bd 83 bc 61 15 3a bd
       -0.04725811 0.010388117 -0.01608155 -0.045430545
0002c0 40 99 7b b5 17 49 ed bd ad b8 2a bd e1 af 69 3d
       -9.3727795e-07 -0.115862064 -0.041680027 0.057052497
0002d0 ea 36 31 3d 83 19 15 bc 64 41 b9 bd ea d7 19 bd
       0.04326526 -0.009100321 -0.090456754 -0.037559427
0002e0 dd 17 0e bd cf d2 fb bc fc 29 6d 3d 32 3b af 3d
       -0.034690727 -0.03074017 0.057901368 0.085562125
0002f0 80 e5 ea bb 85 8e bd 3b 9a 70 b6 bc 8d db d8 3c
       -0.007168472 0.005784812 -0.02227049 0.026471877
000300 e8 b8 a8 bd 6e 43 74 bd 22 14 d9 bd b6 2c a0 3d
       -0.08238393 -0.05963462 -0.10599543 0.07821028
000310 0e 2e 2d bd 83 21 1f bc 43 9f 24 3d d9 7b ad bb
       -0.04228025 -0.00971258 0.040190946 -0.005294305
000320 db a2 09 3d 47 65 56 bd 60 80 06 be 55 82 0f ba
       0.033602577 -0.05234268 -0.13134909 -0.0005474438
000330 05 18 42 bd 7e b3 89 3d 2b 8f 39 3d bf 4f 4b be
       -0.047386188 0.067236885 0.04530255 -0.1985464
000340 17 3b 5b 3d 1d f7 c3 3d 25 cd e8 3d e6 b6 01 3e
       0.05352315 0.095686175 0.11367253 0.12667426
000350 b6 c6 5c bd 5e f8 9f bd 48 b3 36 bc 19 c1 c2 3d
       -0.053900443 -0.07811044 -0.011151142 0.09509487
000360 22 37 32 be 6b be ee 3d 1b c2 ee 3d 4d 0e 2a 3d
       -0.17403844 0.11657413 0.116581164 0.041517545
000370 f1 f8 70 3b 9c c7 37 3d e1 40 f8 bd 65 12 1d 3e
       0.0036769474 0.044868097 -0.1212175 0.15339048
000380 7c fd c3 bd 24 da 9b bd b8 54 1f bd 86 3c e9 3d
       -0.09569833 -0.076099664 -0.038899153 0.11388497
000390 e7 75 93 bd ee 2b a6 bd c1 76 95 bd 8c 50 b7 3c
       -0.072002225 -0.08113848 -0.07298041 0.022377275
0003a0 c5 cf 83 bd 6d 6e 8d bd 21 f1 1a be a9 bb 6f 3d
       -0.06436113 -0.06905828 -0.15131046 0.058528576
0003b0 78 06 a4 bd 0d 29 c5 3d fb be 1b 3e d6 29 a4 be
       -0.08009046 0.096269704 0.15209572 -0.32063168
0003c0 4a 37 95 bd fd 11 02 bd fa bb ae bd 4d 3a c7 3d
       -0.07285936 -0.031755436 -0.085319474 0.09727917
0003d0 c4 80 8d bd ca 38 bd bd d4 ee f3 bd 6f 80 c9 bc
       -0.06909326 -0.09239347 -0.11910787 -0.024597375
0003e0 6e 36 15 bd 92 9d f7 3d 30 86 0d 3e 4f ab a8 3d
       -0.03642886 0.12090601 0.1382072 0.082357995
0003f0 3b 51 94 3c dd 8e 86 bc bf c3 5e bd 67 55 21 3e
       0.01810514 -0.016425544 -0.054385897 0.15755235

in_layer.layers.2.bias f4 [32]
000000 5f 6a cd be 8e b0 56 bd 7b 5c d7 3d 09 58 b3 3c
       -0.40120217 -0.05241447 0.10515686 0.021892564
000010 72 ef 1a be e0 eb 67 3d 27 82 d3 bd 5e bc 8a bc
       -0.15130404 0.056621432 -0.10327559 -0.016935524
000020 a9 6b c8 bd 0f 55 4d bd 93 67 a1 bd 46 20 85 3d
       -0.097861595 -0.050129946 -0.07881083 0.06500296
000030 9a 01 02 3d 56 9b 90 bd b1 32 b6 bd 3e c5 3f bd
       0.03173981 -0.07060878 -0.08896387 -0.046818964
000040 a5 b4 cd bd 89 f9 b7 bd 4a 54 f8 bc c5 11 42 3d
       -0.10044221 -0.08983142 -0.03031363 0.047380228
000050 bd 37 0f be bf e0 ec ba 96 05 9c bc 8e bf a9 3c
       -0.13986106 -0.0018072351 -0.019045632 0.020721223
000060 7d b5 0e 3c 77 85 2f 3d c0 5d 32 3d fd 27 7b bd
       0.008710262 0.04285189 0.04354644 -0.061317433
000070 7a 28 63 bd 3d 7c a5 bd 04 95 af 3d 5a bc 42 bd
       -0.055458523 -0.08080337 0.08573344 -0.047542907

gat_layer_1.layer0_1.0.input_linear_layer1.weight f4 [32, 32]
000000 d9 74 13 be 05 93 a2 bc 07 28 f4 bc 79 ea a4 3e
       -0.14400043 -0.019845495 -0.029804243 0.32210138
000010 45 74 68 3d 83 ee 65 3c fb 36 c7 bb 23 a1 32 bb
       0.05675151 0.014033916 -0.006079552 -0.002725669
000020 b6 f4 5d bb 34 6f e7 bb 33 9c 90 bc d8 f4 6f bb
       -0.0033867783 -0.007062817 -0.017652607 -0.0036614444
000030 96 56 e1 ba d1 26 d0 3d 95 bb 05 bc cf e7 e8 bc
       -0.0017191942 0.10163654 -0.008162399 -0.028430847
000040 17 79 40 3c ba 8d 59 3c e3 d9 73 3a 3c b1 35 bb
       0.01174762 0.013278419 0.0009302182 -0.0027724048
000050 5c 80 d5 3c b9 9c 2f 3e 71 ed 9a 3d 10 e3 1d 3e
       0.026062183 0.17149629 0.075648196 0.15418649
000060 ac 14 ff 3d 3c e7 dd 3d 44 2c 69 3d 8c 35 00 3c
       0.12455115 0.1083512 0.05692698 0.007825267
000070 75 90 a8 bc 81 38 f1 39 30 76 49 ba e1 41 18 3b
       -0.020576695 0.000460092 -0.0007685153 0.0023232626
000080 11 8a 81 3a 43 6c e7 b9 1a 9e 3e ba 5b fc 61 3c
       0.0009883066 -0.00044140415 -0.0007271484 0.013793076
000090 cb 10 fa 3b 0c 01 07 3a 08 56 3e bb 49 63 b5 ba
       0.0076313964 0.00051499973 -0.0029042978 -0.0013838793
0000a0 a0 7f 84 35 81 0c c1 39 e2 79 16 ba 2c 8f 59 b9
       9.87191e-07 0.00036821145 -0.0005740208 -0.00020748068
0000b0 96 79 38 38 25 d2 23 3b 9d 4f 94 ba bd bc b8 39
       4.3982254e-05 0.0024997082 -0.001131523 0.00035235836
0000c0 d5 09 0c 3a de f2 94 39 ec 0f 4b b9 d5 9c 21 38
       0.0005342041 0.0002840971 -0.0001936552 3.8531452e-05
0000d0 0a fb 26 3c f8 80 a7 3b 78 4b 8a 3c 67 d5 20 3b
       0.010191688 0.00511181 0.01688169 0.002454126
0000e0 8e b2 d0 3b 01 48 4c 3b 68 03 a7 3b b1 99 39 39
       0.0063689416 0.0031170847 0.0050968416 0.0001770023
0000f0 30 b4 0d ba 87 24 5d b9 56 d3 06 b9 e2 96 2e 38
       -0.0005405573 -0.0002108981 -0.00012857965 4.1625353e-05
000100 3e 7b 58 bc 34 27 9b bc 55 dc e7 bc 5c ea 8a 3e
       -0.013212977 -0.018939592 -0.028303305 0.27131927
000110 bc e1 02 3d c7 be 5f 3c 7d 5c 79 3c c1 7d 07 bc
       0.03195356 0.013656325 0.015219805 -0.008269728
000120 bb 31 5c bb 57 9c e4 bb 7a 8a 74 bc eb fb 5f bb
       -0.0033598978 -0.006976645 -0.0149255935 -0.0034177254
000130 1b 94 e1 ba a6 ea ec 3d 56 36 06 ba 08 23 db bc
       -0.0017210277 0.11568193 -0.0005119791 -0.026750103
000140 27 52 f7 3c 7b 66 50 3c 72 78 6b bb 00 03 38 bb
       0.03019054 0.012719746 -0.0035929945 -0.002807796
000150 36 c1 93 3d 4a f8 37 3e ba 77 96 3d e8 7c 4e 3e
       0.072145864 0.17965809 0.07347055 0.20164835
000160 c4 73 2a 3d ff 66 e2 3d 93 5f 9c 3d 87 38 fb 3b
       0.04161431 0.11054801 0.07635417 0.0076666507
000170 a6 61 a0 bc 0c c8 0b 3a 1c c3 4b ba 7e 12 15 3b
       -0.019577812 0.00053322385 -0.0007772909 0.0022746618
000180 38 7a 92 b7 56 da 75 34 80 5c 3a b3 78 c5 21 b9
       -1.7461469e-05 2.2896833e-07 -4.3390628e-08 -0.0001542772
000190 f5 87 4c b8 40 f0 e3 34 12 5f 45 38 e2 b3 db 37
       -4.876401e-05 4.245685e-07 4.7057e-05 2.6190599e-05
0001a0 60 b8 51 33 40 8d fd b1 7e 3f 9c 35 23 7e fe b4
       4.8829293e-08 -7.3793274e-09 1.1641384e-06 -4.7402963e-07
0001b0 2e 0a 6f 36 a8 71 a4 b8 83 f6 ec 37 68 23 b6 34
       3.56197e-06 -7.8412995e-05 2.8248183e-05 3.3925903e-07
0001c0 48 ba c1 b8 c0 22 a0 b5 d8 d2 c5 35 cc 98 14 35
       -9.237655e-05 -1.1931043e-06 1.4739007e-06 5.5356645e-07
0001d0 32 83 8a b8 55 4e ce b8 6c 0c c0 b8 df cd 27 b9
       -6.60479e-05 -9.837436e-05 -9.157587e-05 -0.00016003054
0001e0 38 f0 ad b8 97 54 d9 b8 c4 3b 14 b9 d3 a7 25 b7
       -8.294027e-05 -0.000103631224 -0.00014136644 -9.873841e-06
0001f0 4c 60 0c b6 a8 46 69 b6 f7 43 99 b5 12 75 d4 34
       -2.0917678e-06 -3.4760833e-06 -1.1419169e-06 3.9573257e-07
000200 a0 56 e6 b8 9a 0a a4 37 52 1b 45 38 6a cc 81 b9
       -0.0001098339 1.955526e-05 4.6993904e-05 -0.00024757098
000210 78 b2 0e b9 da 96 6f 38 9e 8e 03 39 12 9f 14 39
       -0.0001360866 5.7122532e-05 0.00012546263 0.00014173638
000220 9c c6 9c b5 84 81 ba 36 f6 6f b9 38 87 be 90 37
       -1.1680709e-06 5.5583096e-06 8.842342e-05 1.7254859e-05
000230 1c 60 62 b7 45 5d 1f b9 21 72 ea 38 5d e8 b0 b8
       -1.3493027e-05 -0.00015198167 0.00011179248 -8.435615e-05
000240 13 c7 5f b9 b8 28 3b 38 9e 64 29 b8 70 34 55 b8
       -0.00021341098 4.4622197e-05 -4.0386447e-05 -5.0831994e-05
000250 4c a1 1e b9 06 f2 51 b9 a2 7e 35 b9 af 98 ad b9
       -0.00015128142 -0.00020021954 -0.0001730868 -0.0003311089
000260 4b a7 3a b9 22 0c 41 b9 71 c7 96 b9 04 98 31 38
       -0.00017800664 -0.00018410434 -0.00028758825 4.2341664e-05
000270 7d 5c 80 38 a6 30 6c 37 b9 52 37 b6 06 5a d4 b5
       6.120743e-05 1.4078023e-05 -2.7317276e-06 -1.5821431e-06
000280 81 4c 48 b7 58 3f 65 36 3b c3 b6 b4 7d 0d c9 b6
       -1.1938741e-05 3.416053e-06 -3.404219e-07 -5.991837e-06
000290 39 c3 33 b7 b6 f5 d6 36 32 d8 08 36 e7 7a d8 34
       -1.0714685e-05 6.4063015e-06 2.0391421e-06 4.0322558e-07
0002a0 98 7d 29 36 75 13 0f b4 42 92 be b6 7e ea f8 b5
       2.5256068e-06 -1.3324991e-07 -5.679468e-06 -1.8545686e-06
0002b0 b4 c6 49 36 48 c0 3e b6 4f 0f e7 b5 47 f1 83 36
       3.0066994e-06 -2.8424129e-06 -1.7215297e-06 3.9321926e-06
0002c0 5c 96 67 b7 d0 ee d8 34 42 89 de 36 83 82 96 37
       -1.3803681e-05 4.0406894e-07 6.6320945e-06 1.7942168e-05
0002d0 55 da 29 b7 77 11 84 b6 fa 0b 19 b7 cb ec 82 b7
       -1.0124019e-05 -3.9359397e-06 -9.122299e-06 -1.5607473e-05
0002e0 90 ec c9 b6 33 f6 a9 b6 b3 d9 6c b7 86 09 df b6
       -6.0178063e-06 -5.065254e-06 -1.4117383e-05 -6.6470266e-06
0002f0 ef e8 b3 37 f8 0b 43 b6 ec e5 50 35 bb 6e 34 36
       2.1446931e-05 -2.906423e-06 7.782062e-07 2.6886544e-06
000300 65 d8 64 bd 7c 64 03 bd 8f b1 40 bd 05 f3 93 3e
       -0.055870432 -0.03207825 -0.047044333 0.28896347
000310 e2 ee 03 3e f0 5c a1 3c 63 08 37 bd a9 02 6c bd
       0.12884095 0.019697636 -0.044685733 -0.057619724
000320 b2 93 90 bb 3b b7 37 bc 91 85 2a bd bd 6e 11 bc
       -0.004412138 -0.011213119 -0.041631285 -0.0088765
000330 a4 7f c6 ba 23 9f 57 3e b1 ad 3d bd e9 f4 0d bd
       -0.0015144241 0.210568 -0.046308223 -0.034657393
000340 f9 0f da 3d d2 86 a2 3c 59 05 38 3c 77 70 89 bb
       0.10647578 0.019839678 0.011231744 -0.004194315
000350 57 c7 bc 3d 33 2b 33 3e 35 33 39 3e 73 6c 62 3e
       0.092177086 0.17496948 0.1808594 0.22111683
000360 c3 15 05 3e 56 fe 3d 3e 71 9c 84 3d ca 4d 16 3c
       0.12996583 0.18554053 0.06475151 0.00917382
000370 ba ac 03 bd 9f e6 62 ba 5e 60 21 ba e6 05 3b 3b
       -0.032147147 -0.0008655581 -0.00061560224 0.0028537451
000380 9d b1 7b bb 11 31 7b 3a 14 33 03 3b 78 82 46 bb
       -0.0038405426 0.00095822016 0.0020019459 -0.0030290168
000390 2a a9 73 bb f5 27 97 bb ed 37 6c 3b 70 ca 9a 3b
       -0.0037179687 -0.0046129175 0.0036044077 0.0047238395
0003a0 6b ec e0 3a e2 01 95 39 d0 63 74 3b c9 0a 8f 3a
       0.0017160302 0.00028420897 0.0037290938 0.0010913248
0003b0 3c 44 73 bb 80 e0 67 bb 34 a3 81 3b ca c6 84 bb
       -0.0037119528 -0.0035381615 0.003956223 -0.004052018
0003c0 a7 2c 7d bb f6 fb a2 ba 98 d4 3e bb 34 4f 7c 3b
       -0.0038631351 -0.0012434709 -0.0029118415 0.0038499357
0003d0 ac 16 6f bb 85 5d 5a bb d1 08 67 bb 6c f7 70 bb
       -0.003648202 -0.0033319902 -0.0035253058 -0.0036768569
0003e0 25 d2 67 bb c4 68 6e bb 8d 00 76 bb 5b 6a 9b bb
       -0.0035373059 -0.0036378363 -0.003753695 -0.004742903
0003f0 87 4a 8c 3b 61 53 6b ba 68 3d 0a 3b c0 e5 84 ba
       0.0042813453 -0.0008976963 0.002109373 -0.0010139272

gat_layer_1.layer0_1.0.input_linear_layer1.bias f4 [32]
000000 89 08 8e 3d 4f 54 38 3c 92 25 05 3e 5a 62 6c b9
       0.06935222 0.0112505695 0.13002613 -0.00022543353
000010 ef 3a c2 b9 90 6c fb b7 68 94 6b 3e 07 f9 6e 3b
       -0.00037046472 -2.9972085e-05 0.23005831 0.003646435
000020 e9 50 9b b8 ff 3e 63 ba 98 80 79 3d 0d 15 88 b9
       -7.406047e-05 -0.000866875 0.060913652 -0.00025955625
000030 56 98 f5 b8 e7 f7 44 b9 c8 4e 3c 3e 6c c4 9c ba
       -0.00011710885 -0.00018784367 0.18389428 -0.0011960394
000040 95 2c 31 b9 a0 d7 85 b9 ff 81 3e b9 9b 47 8a 3d
       -0.00016896644 -0.0002552839 -0.0001816824 0.06751939
000050 7b 45 50 3e 11 78 9f b9 72 41 a5 3b 33 5a 0b 3e
       0.20339005 -0.000304163 0.005043202 0.13608627
000060 4d b1 83 b9 d7 4e 32 3e e9 96 18 3c a3 35 4b b9
       -0.00025118366 0.17412888 0.009313324 -0.0001937957
000070 d4 6b c1 b9 ac 4d 47 b8 85 77 ec b7 ed 5f d2 3d
       -0.00036892167 -4.7517635e-05 -2.8189048e-05 0.10272203

gat_layer_1.layer0_1.0.input_linear_layer2.weight f4 [32, 32]
000000 de 26 bf bd 39 fd 25 be 13 f7 81 be 48 f0 cc 3c
       -0.09333585 -0.16209878 -0.25383815 0.025016919
000010 b7 4b 1d be 52 ee 0a 3e c6 52 f0 bd 6b f5 b9 3c
       -0.15360914 0.13567474 -0.11734538 0.022700032
000020 7e e7 01 3c b3 37 fe bd 0c c1 18 be a5 b7 00 3c
       0.007928727 -0.124129675 -0.14917392 0.007856284
000030 89 f6 4b bb 8d b5 e4 3e 8e 89 13 be 5a cb b1 be
       -0.0031122288 0.44669762 -0.14407942 -0.34725457
000040 7e 60 98 3e 74 c7 fc 3d e8 34 c7 3d b0 3c a7 3d
       0.29761118 0.1234273 0.09726888 0.08165872
000050 dc 09 be bd 53 d5 d7 bd 4e df d4 3c 14 04 f1 3e
       -0.09279224 -0.10538735 0.025985386 0.47073424
000060 bb 41 51 bd 5f f8 8d 3e ad a6 ef 3e e4 8e 8f 39
       -0.051088076 0.27728555 0.4680685 0.00027381547
000070 a5 81 4e be 07 b1 3d bc 32 ec bd 3c ee 29 9c ba
       -0.20166643 -0.011577851 0.023183916 -0.0011914351
000080 ca 47 08 3d d2 26 38 bc 31 2d b2 bb 8f bf bf 3c
       0.03327159 -0.011239724 -0.005437516 0.023406772
000090 6c 8e 14 bd 05 0c 8f bb 19 cd c1 3c d6 f8 a4 3c
       -0.036268637 -0.0043654465 0.023657368 0.020138185
0000a0 65 32 63 bb 20 4f b6 b9 fb bd 08 ba c0 32 35 ba
       -0.0034667489 -0.00034772698 -0.00052162976 -0.00069121644
0000b0 aa b6 0d 3c db de 10 bd 69 53 d1 3b 99 73 c9 bb
       0.008649508 -0.03536878 0.006388117 -0.0061478135
0000c0 b7 19 55 bd 7d 8f 92 ba 89 ff 9d bb 70 78 44 3b
       -0.052026477 -0.0011181679 -0.004821722 0.0029979013
0000d0 34 94 c7 bc f1 50 34 bc 5a 36 d2 bc 7a c1 27 bc
       -0.024362661 -0.011005626 -0.025660682 -0.0102389995
0000e0 74 01 11 bc de 1b 0e 3c 8c ca 1a 3d 86 83 f9 ba
       -0.008850444 0.008673636 0.03779082 -0.001903639
0000f0 66 ca 85 bb ed f8 8e 3b 64 6d a0 bb 1f f6 d3 3b
       -0.0040829657 0.0043631704 -0.004895853 0.006468549
000100 67 00 80 bd 45 00 8b bd bd 2c 74 bd fd 1c 6e bd
       -0.06250077 -0.06787161 -0.05961298 -0.058133114
000110 ce 57 73 3d fa 0c f8 3b 4b db 55 3c 64 e1 96 3d
       0.05940991 0.0075699063 0.013052772 0.073672086
000120 dd 9a ea 3a 93 5b 5f 3c 08 af fa bc 7a 12 aa bc
       0.0017898936 0.013632673 -0.03060104 -0.020760763
000130 ed f2 e2 bb e5 ab fc bd 34 e2 c7 bc db a2 47 bd
       -0.0069259317 -0.12337474 -0.024399854 -0.048739295
000140 0d 84 2b be 38 ed 45 bc 96 21 08 ba 5e 46 88 bc
       -0.16749592 -0.012080483 -0.0005192993 -0.016635116
000150 a6 6f 03 be 69 b5 87 bc 25 4b f1 3c b4 49 57 bc
       -0.12835559 -0.016565995 0.029454777 -0.013140131
000160 eb ad fa bc 22 4a 3b bd e0 99 9d bd 67 b5 62 3b
       -0.030600509 -0.045724995 -0.07695365 0.0034592988
000170 a6 83 45 bd 94 99 11 bb 9e 86 cd 38 d8 0a 23 39
       -0.048221253 -0.0022216784 9.800236e-05 0.00015548931
000180 48 bb 65 bd d3 97 f0 bc d5 1c 78 bd 55 73 4d bd
       -0.05608681 -0.02936927 -0.06057437 -0.050158817
000190 0a 9d 1c bd 12 bb 8d bc 6f 2e d5 bc 29 62 14 3d
       -0.0382357 -0.017301116 -0.026023118 0.036226425
0001a0 e0 a7 52 3c 9a d2 4b bc 86 95 db bc 1a e2 f6 bb
       0.012857407 -0.012440348 -0.026804697 -0.0075342776
0001b0 63 e0 d5 39 9b 8e a3 bc 30 79 83 bc 2d 47 38 bd
       0.00040793707 -0.01996546 -0.016048998 -0.044989754
0001c0 82 c5 1e bd 08 d0 6a b9 b0 aa c8 3b 61 5b 0a bc
       -0.038762577 -0.00022393477 0.006123863 -0.008444638
0001d0 e0 a3 59 bc e6 63 be 3d 32 b5 06 3c a8 af 0e 3c
       -0.0132837 0.09296398 0.008221911 0.008708872
0001e0 ba d6 d0 bc 7f 01 da bc 1d 4e bb 3c aa bf ff bb
       -0.025493015 -0.026612042 0.022864396 -0.0078048306
0001f0 29 18 2a bd a5 11 92 bb bb dd 85 3b 93 b8 34 bc
       -0.041526947 -0.00445767 0.00408527 -0.011030334
000200 42 23 83 3d 53 0e ef bb f3 2b c1 bd 07 27 cc 3d
       0.06403209 -0.0072954088 -0.09432211 0.099683814
000210 05 11 53 3d ad 17 3a 3d da 44 a5 3d 47 1d 45 3e
       0.051529903 0.045432735 0.08069773 0.1924945
000220 f6 f5 d5 3b 8b 8c 56 3d a3 40 01 3e a4 c9 e3 3c
       0.006529565 0.052380126 0.12622313 0.02780611
000230 fc 48 de 3b eb e1 af 3d 7f 82 eb 3d 2e 76 43 be
       0.0067836028 0.08588012 0.114994995 -0.1908805
000240 af 73 56 bd e0 35 a8 3c a4 8d ab bd a0 a8 f1 3c
       -0.05235642 0.020533502 -0.08376625 0.029499352
000250 d1 1f 4e be d0 5a 9e 3d 53 05 d4 3c 73 f5 95 bd
       -0.20129324 0.07732165 0.025881445 -0.07322206
000260 4e 71 10 be 0a be 04 3e ed 22 97 bd 6a 8c 0b 3c
       -0.14105722 0.12963119 -0.073797084 0.008517364
000270 02 11 62 3d 60 21 de 3b fe 23 f2 bc 97 21 bc 3b
       0.055192 0.006778881 -0.029558178 0.005741309
000280 71 f5 ce 3d 33 d6 17 3e 8a d6 e9 3d 6a 2c e7 3e
       0.10105408 0.14827804 0.11417873 0.45151073
000290 89 36 fa 3d a5 1b a3 bd 2b 5a 3d bd 01 eb 09 be
       0.12217433 -0.07964257 -0.04622857 -0.13468553
0002a0 b3 a1 69 39 93 0a 44 bd 74 7b f1 bc 44 08 2a 3e
       0.00022280849 -0.047861647 -0.029477812 0.16604716
0002b0 f1 fe b9 3b 66 b9 95 bd b5 8b 2c bd b5 37 21 3d
       0.0056761433 -0.073107526 -0.042125423 0.039359767
0002c0 84 0d a1 bd 55 8c 36 3d e6 c7 0d 3e c7 90 91 3c
       -0.07863906 0.044567425 0.13845786 0.01776923
0002d0 ca 63 85 3e 31 d4 6d 3e 5f fc 22 3e d5 55 77 bb
       0.26052696 0.23225476 0.15916584 -0.003774037
0002e0 c9 5c ab 3e 42 8e 25 bd d1 57 2c be f9 09 20 3b
       0.33469227 -0.04041887 -0.16830374 0.0024420007
0002f0 13 b2 d2 3d 1c e1 80 3c 3e f8 4d 3c 90 2b 7c ba
       0.10287871 0.01573234 0.012571393 -0.00096195284
000300 88 12 8a bc ec b9 ae bb 3e 03 ad bc fa 7c b7 3c
       -0.01685454 -0.005332222 -0.02111971 0.02239846
000310 13 d0 38 3d 08 1b 5a bb 7e cf c4 bd e1 73 29 bd
       0.04512031 -0.0033280272 -0.096098885 -0.041370276
000320 30 b2 8c b8 bc 82 47 bc 93 80 ad bc f4 04 b6 bb
       -6.70891e-05 -0.012177166 -0.021179473 -0.0055547897
000330 1c bb aa 3b 35 f7 9f 3d be f3 36 bd 9b 8d bd bb
       0.0052102935 0.07810823 -0.044666044 -0.005784703
000340 5a f8 71 bd fe 87 c9 bb db 32 6d 3b 27 5d 3a bc
       -0.059074737 -0.0061502447 0.0036193642 -0.011374748
000350 2d 9a 92 bd 44 0c 3c bd 02 ea 4c bc c4 0b e4 bd
       -0.07158313 -0.045910135 -0.012506964 -0.111350566
000360 73 df 99 bd 92 47 1a bd c5 6e 30 3d f7 89 ab bb
       -0.07513323 -0.03766591 0.043074388 -0.0052349526
000370 e2 12 aa bb 8a e7 0d bb 01 bc d6 39 9e 3a 07 bb
       -0.0051902393 -0.00216529 0.00040957335 -0.0020634304
000380 7d dc b4 3d a4 85 0d 3d 3a bf 0a 3d fb 93 2e be
       0.08831117 0.034551278 0.033873774 -0.17048638
000390 53 c1 e7 bd d2 94 8d 3d 6f cb 30 3d 99 8b 18 be
       -0.113161705 0.06913151 0.04316276 -0.14897002
0003a0 cb 91 b8 bb f8 e2 83 3b f5 95 80 3d c0 0b 82 bb
       -0.0056326143 0.0040248595 0.06278602 -0.003968686
0003b0 f6 95 00 3c 2e 9a c5 bd dd 86 5d 3c e4 3c a0 3d
       0.0078482535 -0.09648548 0.013520923 0.07824114
0003c0 61 b2 11 bd 61 45 51 3c 6a 44 79 bd 3d c1 14 bc
       -0.035570506 0.012772889 -0.06085626 -0.009079275
0003d0 e2 47 ca bd 81 25 66 be 1d 36 14 bd f2 5c f2 bd
       -0.09876992 -0.22475244 -0.03618442 -0.11834134
0003e0 68 d0 df bd 35 e6 f4 bd 27 8d 1a be c4 03 e5 ba
       -0.10928422 -0.11957971 -0.15092908 -0.0017472436
0003f0 46 94 16 3d d2 68 5d bc 7b 12 8c bc 3e e1 20 3c
       0.0367625 -0.013513761 -0.017098656 0.009819327

gat_layer_1.layer0_1.0.input_linear_layer2.bias f4 [32]
000000 b2 42 4b 3e 79 0d b3 bc fd e7 40 be 3d 34 18 bd
       0.19849661 -0.02185701 -0.18838497 -0.037159193
000010 8b 49 91 bd 8e c2 1a 3d e9 df 25 bd 30 21 45 3c
       -0.07094105 0.037783198 -0.04049674 0.012031838
000020 0d 91 80 3a 09 17 0a bd 99 c8 67 bd ed a7 e3 bd
       0.0009808854 -0.033713374 -0.05658779 -0.11116014
000030 c7 78 a6 bc d8 f1 aa 3c 7d 4e ce bc 6a 3c 77 bd
       -0.020321263 0.020867273 -0.02518391 -0.06036035
000040 81 b3 fc 3c da ca c6 3d 27 c6 e2 bd b1 65 60 3d
       0.030847313 0.097066596 -0.11072951 0.05478448
000050 25 5f 26 be 3e 26 a0 bd 2a 75 75 3d 6a 7a a4 bd
       -0.16247232 -0.07819794 0.05992619 -0.08031161
000060 ee 2d 2a 3d ad 8f 98 3b 78 e4 e9 3d 22 eb 60 3d
       0.04154771 0.0046557994 0.1142053 0.05491174
000070 48 fe ac bc 23 44 ab bc 16 14 16 3d 9e ff 25 3b
       -0.021117344 -0.020906514 0.03664025 0.0025329362

gat_layer_1.layer0_1.0.a_1.weight f4 [1, 32]
000000 84 d4 8a be 29 61 1a 38 18 3c 85 be c3 f3 70 b7
       -0.27115262 3.680695e-05 -0.2602241 -1.436187e-05
000010 8c 2e 1d 37 c3 60 ae b6 18 a1 cc be 0d da 81 3b
       9.368767e-06 -5.1968686e-06 -0.39966655 0.0039627613
000020 2e b9 8d b6 d8 f5 c4 39 fb d9 ee be 7e 2a 8c 36
       -4.223685e-06 0.000375672 -0.4665068 4.177272e-06
000030 2f f3 14 b7 94 7d fa b5 6b a3 ff be fc ed f3 36
       -8.878108e-06 -1.8663e-06 -0.49929366 7.2696694e-06
000040 24 b6 ba 35 56 b2 1b 36 62 a9 60 38 bc a7 d3 be
       1.391109e-06 2.3200605e-06 5.356351e-05 -0.4133891
000050 46 b9 c6 be 1e 5b e1 35 2e 23 ac 3b 00 a1 cf be
       -0.38813227 1.6790325e-06 0.005253217 -0.4055252
000060 4a 72 01 b9 66 39 fd be e4 0a 1d 3c a2 2b 7f 36
       -0.00012344975 -0.49457854 0.009585116 3.8023359e-06
000070 a0 4b 12 37 e4 01 e5 34 de 59 6f b6 23 2b c3 bd
       8.719886e-06 4.265595e-07 -3.5666085e-06 -0.09529712

gat_layer_1.layer0_1.0.a_2.weight f4 [1, 32]
000000 54 c2 ee bd 3c 9e f8 ba e4 56 b8 3d 6c 1b 26 3c
       -0.11658159 -0.0018968056 0.09000948 0.010138374
000010 f1 0b 77 bd 89 b1 aa be 49 62 2e 3c 59 f8 67 3d
       -0.060314123 -0.33338574 0.01064355 0.056633327
000020 87 c8 29 3a 9d 02 58 3b a4 79 0c 3a d0 3a ac 3d
       0.0006476719 0.0032960542 0.0005358702 0.08409655
000030 15 e1 de b9 8d 1a 05 3a dc ea 8b bd bd f0 31 3c
       -0.0004251084 0.0005077504 -0.06831905 0.010860619
000040 55 33 1f bd ac 86 26 be a2 1e 78 3d 72 4b 9a ba
       -0.038867313 -0.1626231 0.06057609 -0.0011771752
000050 95 d4 8e 3d 33 e2 37 bc 41 3d 4c be 7d a6 ec bd
       0.069741406 -0.011223364 -0.19945242 -0.115551926
000060 74 77 e0 bd 49 55 16 bd cf 79 45 bc 4d 3c 9b 3b
       -0.10960284 -0.036702428 -0.012052967 0.004737413
000070 21 9d 27 bb 32 c6 13 ba 84 29 33 3a 03 74 16 3b
       -0.0025575834 -0.00056371384 0.00068344944 0.0022957332

gat_layer_1.layer0_1.1.input_linear_layer1.weight f4 [32, 32]
000000 b4 2a f8 b9 42 c0 b9 36 45 4c 18 37 96 92 38 ba
       -0.00047334062 5.5358114e-06 9.077664e-06 -0.0007040886
000010 31 82 0e ba 4e b1 f7 b7 5d 36 d8 39 71 86 8c 39
       -0.000543627 -2.9527258e-05 0.00041239234 0.00026803048
000020 5c 08 0c 37 b5 cd 80 36 dc 19 2b 38 5a 0f 1a 36
       8.346597e-06 3.8386447e-06 4.079366e-05 2.2956724e-06
000030 a4 7b 42 b6 9b a4 c8 b8 2c c7 5b 39 24 4d 7d b8
       -2.898022e-06 -9.567403e-05 0.00020959665 -6.0391743e-05
000040 e9 73 22 b9 25 78 8e b6 b4 5a b1 b7 6a 2e 90 37
       -0.00015492704 -4.2459164e-06 -2.1142281e-05 1.7187751e-05
000050 0d da 16 ba a0 fd 17 ba 56 9b 23 ba 3e 27 ab 39
       -0.0005754538 -0.0005797986 -0.00062411034 0.000326449
000060 b2 30 20 ba 65 0a 63 b7 e1 e3 1b 39 70 cc e2 b7
       -0.0006110772 -1.35326745e-05 0.00014866843 -2.7036498e-05
000070 b6 0a dc 37 3f 4d 93 b6 b2 13 b0 36 40 8a 2b b6
       2.6231031e-05 -4.389934e-06 5.2475016e-06 -2.5561458e-06
000080 48 09 3f 37 9c ed c6 36 b8 98 16 36 18 18 d0 38
       1.1386648e-05 5.928521e-06 2.2440636e-06 9.922701e-05
000090 d3 31 97 37 c3 fe f9 b6 61 d2 f0 38 02 c4 c6 38
       1.8023804e-05 -7.4504364e-06 0.00011483278 9.477885e-05
0000a0 fa 1f 0e 35 7f 5f 9c 36 0a 9c da 37 79 38 b4 35
       5.2945654e-07 4.6602795e-06 2.6060286e-05 1.3427481e-06
0000b0 a2 77 34 b5 ce d7 93 b9 84 1f bf 38 96 82 af b7
       -6.7229314e-07 -0.00028198812 9.11346e-05 -2.0922434e-05
0000c0 bc ff 40 b9 04 5b d3 b4 e3 fd 06 b7 f8 15 2b 37
       -0.00018405815 -3.9368035e-07 -8.046135e-06 1.0197509e-05
0000d0 22 db b0 37 1b 44 8c 38 64 81 ec 37 a7 4c ce b9
       2.1082877e-05 6.688406e-05 2.8193645e-05 -0.00039348492
0000e0 ea 42 96 38 b5 91 a5 b9 5d 86 af b9 39 cf ee b6
       7.165021e-05 -0.00031579813 -0.0003347871 -7.1170766e-06
0000f0 a7 f2 92 36 f5 ad 10 b6 cb fd 80 35 41 17 81 35
       4.3793875e-06 -2.1558928e-06 9.610607e-07 9.618017e-07
000100 88 b6 2a 39 45 5c ca b6 a8 8d 3e 36 b2 d2 48 3a
       0.00016280462 -6.0308107e-06 2.839466e-06 0.00076607906
000110 19 98 9d 39 84 6c 9e 38 2c d1 b7 b9 fe 4c 7e b9
       0.00030058695 7.55424e-05 -0.00035060325 -0.0002425201
000120 47 07 ac b7 9d b6 84 b7 bb 18 66 b8 c7 93 b4 b6
       -2.0507387e-05 -1.5820662e-05 -5.4859305e-05 -5.3816216e-06
000130 02 6b 65 37 b7 35 a4 39 b0 4b 2d b9 79 c0 8a 38
       1.3674378e-05 0.00031320538 -0.00016526761 6.6162036e-05
000140 3f 84 e3 39 b7 3c 8b 36 69 30 e7 37 c4 f4 20 b8
       0.00043395345 4.149591e-06 2.7559889e-05 -3.837493e-05
000150 90 fe c2 39 d8 31 14 3a 2f 5b fe 39 87 d3 52 3a
       0.00037192227 0.0005653179 0.00048514592 0.0008042384
000160 b6 31 0b 3a 40 e9 be 39 70 fd 2b 3a 53 e6 ad 38
       0.00053098367 0.0003641341 0.00065608975 8.292184e-05
000170 10 6d 12 b8 05 9d a2 37 db e5 ac b7 21 b4 1c 37
       -3.4910685e-05 1.9385023e-05 -2.0611033e-05 9.340264e-06
000180 8d 74 b8 b8 10 04 de 35 3d 92 12 36 84 57 d8 b8
       -8.795513e-05 1.6541471e-06 2.1840817e-06 -0.00010315984
000190 23 9f db b8 a9 09 2b b7 72 5e 45 38 04 6f 08 38
       -0.00010472375 -1.0194643e-05 4.705642e-05 3.2528318e-05
0001a0 64 05 96 36 b7 a6 28 36 84 b3 19 37 43 a7 2d 36
       4.470976e-06 2.5130992e-06 9.161307e-06 2.5876368e-06
0001b0 bb c2 b1 b5 c6 50 19 b8 f4 68 cd 37 3e 60 8b b7
       -1.3244202e-06 -3.655327e-05 2.4486777e-05 -1.6614908e-05
0001c0 c6 4e d0 b8 3c e3 a8 b6 10 35 ca b6 5a da a8 36
       -9.9328856e-05 -5.0332437e-06 -6.0262464e-06 5.0322096e-06
0001d0 67 f5 ed b8 97 88 8a b8 6b 66 04 b9 10 10 d8 b8
       -0.000113467504 -6.6057946e-05 -0.00012626655 -0.000103026745
0001e0 ca 4c b8 b8 be 84 50 b8 bb 2b ce b8 79 5a 63 b7
       -8.788107e-05 -4.971469e-05 -9.830991e-05 -1.3551319e-05
0001f0 e9 27 5a 37 7a 84 0f b6 59 cf ef 35 e8 5a fb b5
       1.3003105e-05 -2.1385772e-06 1.7867234e-06 -1.8727414e-06
000200 6f e3 dc 3a 78 ec 81 b9 f8 b5 35 ba 03 93 4c 3a
       0.0016852448 -0.0002478098 -0.00069317175 0.0007803889
000210 aa d4 cb 3a 19 86 63 ba 16 e3 be ba 9b 5b 63 ba
       0.001555105 -0.0008679345 -0.0014563526 -0.0008673013
000220 76 9d 0d 39 bf 9e 16 ba 2c 98 16 bb 55 98 43 39
       0.00013505467 -0.0005745701 -0.0022978885 0.00018653397
000230 46 62 7c 39 b8 22 01 3b 5b ee b8 ba 82 72 50 ba
       0.00024069202 0.0019704532 -0.0014109121 -0.00079516333
000240 b6 e5 c8 3a 46 c9 83 b8 16 f8 15 3a fa 59 90 37
       0.0015327248 -6.284057e-05 0.00057208666 1.7208036e-05
000250 69 fb c2 3a 2e 3d 57 3a 8d 16 b6 3a 55 08 c4 3a
       0.0014875951 0.00082107156 0.0013892219 0.0014956096
000260 94 80 8c 3a e1 85 ea 3a 21 c6 c6 3a 94 19 8f 3a
       0.0010719472 0.0017892682 0.0015165248 0.0010917657
000270 9d f4 b0 b9 8f d4 c2 b9 b6 d2 b6 b9 76 3b b4 39
       -0.00033751587 -0.00037160932 -0.00034870737 0.00034376577
000280 52 22 02 be 3a 9a 1e 3b f5 60 87 3b 01 a4 93 3e
       -0.12708405 0.0024200813 0.004131431 0.28836063
000290 2f f1 a2 bc d3 06 13 3d fe b8 b6 bc f5 e0 45 bd
       -0.019890396 0.03589518 -0.022305008 -0.04831024
0002a0 fb 32 73 3a ff d0 16 bb e0 d6 20 b9 84 ac f9 3a
       0.0009277311 -0.0023012755 -0.00015338836 0.0019048606
0002b0 46 2d a1 bb 19 30 a9 3c 99 0c ac bc 71 6f ee 3c
       -0.004918727 0.020652818 -0.0210021 0.029105874
0002c0 51 0c c6 ba 51 14 91 3c df 87 bf bb d9 f5 0d 3b
       -0.0015109872 0.017709883 -0.0058450545 0.002166143
0002d0 e0 af 50 3d e6 52 1d 3e 88 71 49 bd 42 15 31 3e
       0.050948977 0.15363654 -0.049180537 0.17293265
0002e0 d5 03 00 3e 59 5a cb 3d 61 74 24 3e 44 e5 de 3a
       0.12501462 0.09929342 0.1606002 0.0017005582
0002f0 d5 84 a9 b9 53 66 82 39 59 13 0c 3b 03 2c 6c 3a
       -0.0003233316 0.0002487177 0.0021373837 0.0009009244
000300 ac 80 01 be d0 84 43 3b 1e 8e 92 3b f5 6e 67 3e
       -0.1264674 0.00298338 0.004472508 0.2260092
000310 d8 ae 5a bd 17 fe 15 3d 40 e8 93 bc 80 7a 37 bd
       -0.0533894 0.036619272 -0.018055081 -0.04479456
000320 00 63 82 3a aa 43 08 bb 57 11 82 3c 0a e0 10 3b
       0.0009947717 -0.0020792284 0.015877409 0.0022106194
000330 9d 82 a2 bb c6 fc 7e 3d 42 59 8d 3b 11 89 d5 3c
       -0.004959418 0.062252782 0.004313619 0.026066335
000340 9d c9 e6 3c ad 5e 94 3c ee 49 9e bb 52 f4 18 3b
       0.028172309 0.018111551 -0.0048305904 0.0023338986
000350 af 8d f6 3c e4 a8 1d 3e af 1a 95 3d 23 48 08 3e
       0.030096857 0.15396458 0.0728048 0.13308768
000360 97 bb 27 3e ea c2 ec 3d 6f c1 f5 3d 14 d9 e5 3a
       0.16380154 0.115606144 0.11999785 0.0017536008
000370 61 0f 3c b9 05 85 aa 39 20 af 0f 3b e8 1a 77 3a
       -0.00017934806 0.00032524034 0.002192445 0.00094263116
000380 73 ca 6f 39 e0 ff 15 3a fc 6f 81 3a 22 65 dc 3d
       0.00022868234 0.0005722027 0.0009875293 0.10761477
000390 f4 74 eb 3c 47 51 60 3c 5a 11 92 bc 2c bb 8c bc
       0.028742291 0.013691253 -0.01783054 -0.017179094
0003a0 87 76 2a ba 87 15 61 bb f2 d0 30 bb 9c 63 64 b9
       -0.00065026473 -0.0034345107 -0.002698001 -0.00021780882
0003b0 5e 9b 65 bb 9c 7d df 3c 34 b8 1b bc 17 f2 42 3c
       -0.0035035233 0.027281575 -0.009504367 0.011898539
0003c0 56 25 1b 3d fd 1e a0 3b ab 49 b0 ba a8 f1 ac ba
       0.037877403 0.0048865066 -0.0013449689 -0.0013194578
0003d0 8a 9c a0 3d c1 17 ab 3d f7 e9 e1 3a 6a fa b2 3d
       0.078423575 0.0835414 0.0017235865 0.08739169
0003e0 71 94 7d 3d 07 d9 21 3d 29 00 d6 3d 4b 7f b0 3a
       0.061909143 0.039513614 0.10449249 0.0013465671
0003f0 6c 99 b8 38 4d d5 1d ba b9 76 87 3a bd 80 e8 3a
       8.802381e-05 -0.0006020859 0.0010335065 0.0017738562

gat_layer_1.layer0_1.1.input_linear_layer1.bias f4 [32]
000000 fb 7b 31 ba 54 ea 6d b9 9b 78 4e 3a 2c 6e 35 b9
       -0.00067704887 -0.00022689375 0.0007876248 -0.00017302547
000010 11 e8 21 bb b5 b6 d8 3d 79 d5 ab 3d 1c 0e b3 3d
       -0.0024704973 0.105817236 0.08390326 0.087429255
000020 c4 f5 a7 b9 89 e8 d0 3d f5 0f b8 3d c2 29 00 3c
       -0.00032035832 0.102006026 0.089874186 0.007822456
000030 ef db ec 39 eb 88 8b 38 6d 2c a8 ba 97 ca 19 ba
       0.0004517729 6.6535395e-05 -0.0012830623 -0.0005866675
000040 58 f5 90 3d 18 8c 43 3e 82 e9 27 b5 cb 5d 00 3e
       0.070780456 0.1909641 -6.2552147e-07 0.12535779
000050 cd c2 7c b9 0f 64 34 b9 b5 35 60 ba 8a db 09 3d
       -0.00024105162 -0.00017203412 -0.0008552925 0.033656634
000060 4c 39 31 ba 78 41 58 3a d9 bf 3b bb 10 58 69 ba
       -0.0006760552 0.00082495017 -0.0028648286 -0.0008901367
000070 46 49 34 ba 35 e0 6c 3e 1b be 7e 3e c6 e6 79 b8
       -0.00068773737 0.23132403 0.24877207 -5.958115e-05

gat_layer_1.layer0_1.1.input_linear_layer2.weight f4 [32, 32]
000000 ac dd b9 bd c0 05 0f bd 98 21 7c bd 4c 72 83 3c
       -0.09075484 -0.034917593 -0.061555475 0.016045712
000010 8e ab de bd 13 11 4c bd 61 f6 fa 3a ee bb 3a be
       -0.10872565 -0.04982097 0.0019146913 -0.18235752
000020 59 53 1e bb e8 04 9a 3d 61 59 f1 bd f0 4b 64 bc
       -0.0024158566 0.07520467 -0.11784626 -0.013934121
000030 3a d4 18 3b fc 5b 9e 3e b7 30 a6 bd d5 7f 98 bd
       0.0023319856 0.30929554 -0.0811476 -0.07446257
000040 33 ea 31 3e 3c 7c d9 bb 79 a0 01 3d b4 f3 bd bc
       0.17374496 -0.0066371243 0.03164718 -0.023187496
000050 01 8d 4a bc 9b 69 1b 3e 38 ca 94 3d 17 36 98 3e
       -0.0123627195 0.15177004 0.07265133 0.29728767
000060 c7 81 5b 3b 4d 6f 40 3e 23 f4 92 3e 02 24 09 bb
       0.0033494101 0.18792458 0.28701887 -0.0020926003
000070 5a 4c fa bd 02 6d 74 ba 1b b3 c6 bb 09 98 cd ba
       -0.12221594 -0.0009324105 -0.0060638315 -0.0015685569
000080 f3 a2 e0 3a 2a fa 5d bc 0a ef 20 bb a9 4b 54 bc
       0.0017138406 -0.013548413 -0.002455654 -0.012957492
000090 f7 ef e9 bc 8b 06 37 bc fc 6d 22 3d 54 ef ea 3c
       -0.028556807 -0.011170994 0.03965567 0.028678574
0000a0 45 63 ac bb 97 21 a8 bb 92 d2 bf 3a 92 b4 08 bb
       -0.0052608573 -0.0051309573 0.0014634898 -0.0020859581
0000b0 19 f1 09 3c d6 0d c0 3b 76 4e 3c 3c 4b 5b 69 bc
       0.008419299 0.0058610244 0.011493316 -0.014242957
0000c0 9a 82 4a 3c 86 56 c7 bb 06 cd 2d 3c a5 82 2e bb
       0.012360239 -0.0060833124 0.010607963 -0.0026628163
0000d0 4c e4 01 bd 28 be 85 bc 3b 80 d2 bb bb 38 2d 3c
       -0.03171186 -0.016326025 -0.0064239777 0.010572608
0000e0 6d e5 9d 3d 17 74 92 bd fa 6e c1 3c 2e a5 95 3a
       0.07709775 -0.07151049 0.023612488 0.0011417025
0000f0 4c b3 03 bc 4c 44 ad 3b e3 63 dd bb b8 a7 db 3b
       -0.008038353 0.0052876826 -0.006756292 0.0067033432
000100 1e df 37 bd ee aa 1d be 48 31 37 be 91 f8 ba 3b
       -0.044890516 -0.15397236 -0.17889893 0.005705901
000110 a7 45 5d bd 11 80 e3 3c 09 23 e1 3d 21 2f e1 bc
       -0.054021504 0.027771028 0.109930106 -0.027488293
000120 c2 7f da 3a 54 bf c6 3d d8 30 51 bd 54 37 89 bd
       0.0016670155 0.09704462 -0.05107197 -0.06700006
000130 0b 12 ca bb 59 71 da 3d f4 46 89 bc d1 7f 0b be
       -0.0061667017 0.106661506 -0.016757466 -0.13622977
000140 f3 d3 98 3d 08 b9 80 3d 42 3a 4d bd 7e 3f a3 3d
       0.07462301 0.06285292 -0.050104387 0.079710945
000150 b4 3c 31 3d c2 9a 18 3c a4 ef 04 3e 6a ad 4c be
       0.04327078 0.009314241 0.1298204 -0.19988027
000160 a2 2c 88 3d 1d 0e a4 3d 26 8c 6c bc cd 1e 75 3c
       0.06649138 0.080105044 -0.014437711 0.014960957
000170 b8 4e a0 bd f8 77 cb 3c 21 5c 25 bb 45 f6 68 3c
       -0.078275144 0.024837479 -0.0025231915 0.0142188715
000180 cb 3b 85 3d a9 54 a4 bd c7 ad cc bd 1d d3 97 3d
       0.06505545 -0.0802396 -0.09994083 0.074133135
000190 93 82 67 bd cf 39 f8 bb 9e df df 3c ec 07 8c 3c
       -0.05652101 -0.0075752507 0.027328309 0.017093621
0001a0 0c 45 56 3c 77 52 5d ba 11 de 69 bc 78 1f 9f bb
       0.0130779855 -0.0008442769 -0.014274136 -0.0048560463
0001b0 69 28 f1 3a c3 35 0d 3e d5 c2 0d bd 5b 32 9d bd
       0.0018398884 0.1379004 -0.034609634 -0.0767562
0001c0 0b 99 d3 bd 63 ad 6d 3c dd c8 71 bd 9e 2a 80 3c
       -0.10331925 0.014506671 -0.05902945 0.015645321
0001d0 d4 68 da bd 4e bc 54 3d 06 05 23 bd d2 af cb 3c
       -0.10664526 0.051937394 -0.039799713 0.024864111
0001e0 f1 c6 9d bc 14 dd 09 bd 55 69 30 bd ea 28 18 bc
       -0.019259902 -0.033658102 -0.043069202 -0.009287098
0001f0 a4 76 7a bd ac 54 c3 ba 22 2c 08 3b 4e f4 48 bc
       -0.0611483 -0.0014902554 0.0020778258 -0.012265278
000200 53 68 37 be f6 c8 8c 3d e4 21 03 3e b7 47 a5 3e
       -0.1791089 0.06874268 0.12805897 0.32281277
000210 34 e7 0d 3e f0 96 42 bd 89 98 51 bd a6 f2 35 be
       0.13857728 -0.047507226 -0.05117086 -0.17768344
000220 86 23 48 3b 66 07 5b be aa 8a a3 3c 86 b0 0d 3d
       0.0030538752 -0.21389541 0.019963581 0.034592174
000230 39 87 d9 3a 86 7b 0c be d5 3f 52 be 75 06 db 3d
       0.0016596086 -0.13718995 -0.20532162 0.10694591
000240 da 5d 54 3d d6 98 a5 bd 8a a2 7c 3d 61 b7 cb bd
       0.051847316 -0.08085792 0.061678447 -0.09947086
000250 64 de 30 3e c2 fe a3 3e f4 41 33 3e 02 8a 05 be
       0.17272335 0.32030302 0.17505628 -0.13040927
000260 ea 90 01 3e 70 a9 dc 3c 10 ef c3 3d 07 4e 9d 3b
       0.12652937 0.026936263 0.09567082 0.0048005613
000270 97 2a d3 3d 89 83 17 bb 44 cc 26 3c fd 08 d3 39
       0.10310858 -0.0023119173 0.010180537 0.00040251753
000280 04 88 82 3e a1 ff ac bd da 8c b1 bc a0 22 76 bd
       0.25494397 -0.08447195 -0.021673609 -0.060091615
000290 a2 be 3a 3a 53 24 37 bd 98 45 fe bd 1e e4 00 bd
       0.00071237434 -0.044712376 -0.12415618 -0.03146755
0002a0 e9 e7 d2 bb fa 04 40 3d cd 01 43 be 46 bd 93 bc
       -0.0064363373 0.046879746 -0.19043656 -0.018034589
0002b0 0a 08 9c 3b bb 13 f1 bd 62 86 f1 bd 9c b9 82 3d
       0.0047617005 -0.117713414 -0.117932096 0.063830584
0002c0 15 f0 55 bd 5c 7f 09 bc 25 60 c5 bd 47 ec ea bc
       -0.052230913 -0.008392181 -0.09637479 -0.028677119
0002d0 2f 17 e3 3c bc 1f 10 be 31 0d 18 3e 9f 7c 7d be
       0.027721016 -0.14074606 0.14848782 -0.2475457
0002e0 d0 bf 99 bd 44 74 c4 bd 67 c8 16 3c 4a a4 b4 3a
       -0.075072885 -0.095924884 0.009203053 0.0013781872
0002f0 26 26 37 bc 48 77 ea 3c b7 d5 83 bb 61 e6 a2 ba
       -0.011178529 0.02862133 -0.0040232795 -0.0012428277
000300 5b a2 1f bd be 5c 99 3c e5 32 ff ba 94 45 f4 bd
       -0.038973194 0.01872098 -0.0019470124 -0.119273335
000310 17 21 a7 bd 17 c7 64 bc ae 83 9c bd b4 85 c5 bc
       -0.08160608 -0.013963482 -0.076423034 -0.024111606
000320 59 09 cc 39 d4 65 a9 bc fe a1 aa 3c 97 20 7f bb
       0.00038916877 -0.020678438 0.020829197 -0.0038929337
000330 a9 8a 57 3a da 78 ac 3d e2 57 fc bb 33 25 08 3c
       0.0008222261 0.08421488 -0.007700906 0.00830965
000340 41 e8 e2 bc 15 d8 10 bc 43 7f ca bb f5 64 a0 bc
       -0.027698638 -0.0088405805 -0.0061797216 -0.01957939
000350 f1 81 45 3d 26 c7 a5 3d b6 52 21 3d 73 ce ed 3c
       0.048219625 0.08094625 0.03938552 0.029029107
000360 1f 9e 72 3c 82 27 f0 bd 4c c6 62 bd bb 75 b2 bb
       0.014808207 -0.117262855 -0.055364892 -0.0054461635
000370 0d 83 58 3c 3d 54 74 ba 9b 94 31 3b 4c 6a 70 bb
       0.013214839 -0.0009320414 0.0027096632 -0.0036684452
000380 8c 6c c1 3d 74 0e 96 3d cc 6d ad 3d ea 38 a5 bd
       0.09444532 0.073269755 0.08468208 -0.08067496
000390 3c 37 b2 bc de c6 4b 3d 3a 3f 9d 3d a2 2e 8f 3c
       -0.021754853 0.0497502 0.07678075 0.017478291
0003a0 22 00 8d b9 50 81 ce 3b 25 28 8a 3c 92 a9 9f 3b
       -0.00026893715 0.0063020363 0.016864846 0.0048725093
0003b0 da 1c 80 3a fd 4d 4b be 7c 1b 1b 3d 3f b7 8c 3d
       0.0009774223 -0.19853969 0.037868008 0.06870889
0003c0 07 c4 1a bd 6e 0c 88 3c ad bf 5a bd 62 cd 91 bb
       -0.037784602 0.01660749 -0.053405453 -0.0044495324
0003d0 da 0b 9f bd 20 7f ac bd 73 15 cd bd b4 5f 1e be
       -0.077659324 -0.08422685 -0.10013857 -0.15466195
0003e0 9b 6b b1 3d 73 82 22 be c8 4f 51 bd cb 98 51 3a
       0.08663102 -0.15870075 -0.051101476 0.0007995485
0003f0 d5 33 30 3d a8 fc b9 bc 5f 8e 5f bc 42 e2 b3 3b
       0.04301818 -0.022703484 -0.013644784 0.0054896185

gat_layer_1.layer0_1.1.input_linear_layer2.bias f4 [32]
000000 22 37 32 3e 35 31 67 bc d3 56 09 3d 11 74 a4 bd
       0.17403844 -0.014110853 0.033530068 -0.080299504
000010 72 e4 18 3e b2 69 62 bc cb fc 0b bd 28 9f c5 bc
       0.14930895 -0.013819145 -0.03417663 -0.024123743
000020 0c 2e 89 bb 34 25 1d bd 58 6f 32 bc 54 fd b4 3c
       -0.0041863974 -0.038365558 -0.010890804 0.022093453
000030 f7 40 3a 3c 72 fb 9e bd 91 3c 9b bd a2 0b c5 bd
       0.011368028 -0.07762803 -0.075799115 -0.096213594
000040 b5 8a 88 be 45 f5 52 3d d1 25 31 3d b8 e6 04 be
       -0.26668325 0.05150344 0.043248955 -0.12978637
000050 59 9a 54 3c f6 6d f3 bc 9d 98 cd 3d 13 a1 15 be
       0.0129762525 -0.02971552 0.10038874 -0.14612226
000060 29 e8 9c bd b3 d5 19 bd 76 6c e5 bd 32 6f 0f bd
       -0.076614685 -0.037557315 -0.11202328 -0.035018153
000070 06 2d 44 bb e4 20 3c bc 31 d4 88 bd b0 45 95 3c
       -0.0029934063 -0.011482451 -0.06681097 0.018221706

gat_layer_1.layer0_1.1.a_1.weight f4 [1, 32]
000000 a9 ef d2 36 fa 4f 65 b5 d7 e7 a5 b8 b2 45 31 36
       6.286388e-06 -8.542553e-07 -7.910997e-05 2.6415623e-06
000010 48 db db ba 5d 6c 59 be cd c4 5e be 5a da 69 bd
       -0.0016773725 -0.21232744 -0.21754761 -0.057093002
000020 b8 d7 d1 36 d4 74 79 be 88 4b 12 bf b1 f1 04 bf
       6.2537983e-06 -0.24360973 -0.571465 -0.5193129
000030 86 a3 08 39 3b c1 2b b7 92 e4 9c b9 24 88 87 b9
       0.00013030888 -1.0237384e-05 -0.00029924937 -0.0002585064
000040 1a 36 11 bd 3d d5 c0 be 6b e5 a1 b7 b2 33 b1 bd
       -0.035451986 -0.37662688 -1.9299527e-05 -0.08652438
000050 e2 ff 3e b9 56 f0 63 36 28 98 21 37 8e 94 9c be
       -0.00018215136 3.396553e-06 9.631774e-06 -0.30582088
000060 b4 24 91 b8 cf 62 10 3a 70 93 3f bb 34 d2 08 ba
       -6.920975e-05 0.00055078877 -0.0029232167 -0.0005219311
000070 ab 2d 56 b9 14 c8 33 bf 8d 57 24 bf 60 9d bc 37
       -0.00020425643 -0.7022717 -0.6419609 2.248463e-05

gat_layer_1.layer0_1.1.a_2.weight f4 [1, 32]
000000 ad 34 95 3c 05 ce e7 3a fd 2a 5e bd 7a 90 13 3c
       0.018213594 0.00176853 -0.054240216 0.009006614
000010 4d 8a 85 3d fc c1 45 bd f2 71 f2 39 07 e9 18 3d
       0.065205194 -0.0482807 0.00046242733 0.037331607
000020 80 6b 99 3b a5 3f 9c ba bf 1b c8 ba f6 09 db ba
       0.0046820045 -0.0011920823 -0.0015267058 -0.0016711343
000030 1e ec 7a 39 e5 bc 3c ba d1 4f e1 3a 24 c6 3a be
       0.00023929818 -0.00071997783 0.0017189925 -0.18239647
000040 ff 98 c4 bc 8d 7b 4f bd 4f c1 fe 3a f5 02 89 ba
       -0.023998735 -0.050654937 0.0019436273 -0.0010453152
000050 02 fd 32 be e5 ef bc 3a ac 53 fe bd b7 43 05 bd
       -0.17479327 0.0014414756 -0.12418303 -0.03253528
000060 65 22 51 bd 8b 10 77 bb c3 98 b0 3c 2c 37 80 3b
       -0.05105819 -0.003769907 0.021557217 0.003912827
000070 77 d0 16 bb 5e a3 ae bb c0 e4 3c 3d ab 0c 47 bb
       -0.0023012438 -0.0053295335 0.04611659 -0.003037254
