output/modelparams/dynamicLearning-SCER-SCCompUAU-SAT/epoch12_model_state_dict.pth (torch, 262377 bytes, 148 tensors)

in_layer0.layers.0.weight f4 [32, 3]
00000000: 6da9 11be 0cb7 043f 6d16 12bf f692 09bf
00000010: 4f3c 5ebd e8f1 9d3e e259 703e b962 0d3f
00000020: cf3d afbd 47b9 a13e 1f37 a9be 90e7 bbbd
00000030: dbca 2fbf e3a7 36bf e4b7 233e fce1 49bd
00000040: ea98 8d3e 4f4a 003f a1dd 0abf 1d27 95be
00000050: e14a 0d3f 54c1 023f b969 edbe 0f03 5b3f
00000060: fba0 80be a1ec 3d3d 85ab 023f 005a e1be
00000070: 7f72 8dbe 1b63 ddbd 374b 0ebe 88ff 493f
00000080: acb5 b1be 8fc6 8abe 41f8 dbbd 6528 f2bd
00000090: 7bcd a0be 5da7 373f a10c 253e 7ed2 f03d
000000a0: 23fe 843d eb64 a7be 43c2 ed3d 9c07 86be
000000b0: f387 ee3d c762 24bf bb3e 153f ed78 db3e
000000c0: b2fe cabe 30a3 88bd 3f3d 183f 21a5 243f
000000d0: 512e afbd 5315 d63c b827 a73e 84cf 2abf
000000e0: 0039 053f 43dc fdbe 843c 42bd 6aa4 d1bc
000000f0: b2a0 313e 6138 233f a27f e1be 3da3 573e
00000100: 8aa0 023f 9d41 f8be 58ee 383c e542 76be
00000110: f85c 173f f31b 0b3f 58db 19bf b8f6 57be
00000120: cf29 303d 0fd2 e43e bbdc 033f 50a3 0e3f
00000130: 2a17 a13d 9ccc 02bf 57a5 8ebb a3d5 433c
00000140: c2c0 9cbd 0004 143f 2637 0d3f f6b9 21bf
00000150: 0f17 89bd efa5 ef3c ff7d 3d3e e879 4bbe
00000160: c917 513e 4d61 83bd df97 3d3c d948 c9bd
00000170: a714 363f 69b8 243e ee3b 513e 6002 a4bd
-0.14224787 0.5184181 -0.5706547 -0.5373987 -0.054256734 0.30848622 0.23471788 0.55228764
-0.08556711 0.31586668 -0.33049867 -0.091750264 -0.6866891 -0.71349925 0.15988117 -0.04928778
0.27655727 0.50113386 -0.5424443 -0.29131404 0.5519238 0.51076245 -0.46369722 0.8555154
-0.25122818 0.046368245 0.5104297 -0.44013977 -0.27626416 -0.108099185 -0.1389588 0.78905535
-0.34708917 -0.27104613 -0.1074071 -0.11824111 -0.3140677 0.7173975 0.16118099 0.11758898
0.06493785 -0.32694182 0.11609318 -0.2617768 0.11647024 -0.6421322 0.58298844 0.42865697
-0.39647442 -0.066717505 0.59468454 0.64314467 -0.08553756 0.026133215 0.3264749 -0.66722894
0.520401 -0.4958211 -0.047420993 -0.025591094 0.17346457 0.637579 -0.4404269 0.21058364
0.51026213 -0.4848756 0.011287294 -0.24048956 0.59126234 0.5433952 -0.60100317 -0.2109021
0.04300862 0.44691512 0.5150868 0.55717945 0.07865746 -0.5109346 -0.004353206 0.01195279
-0.07653953 0.57818604 0.55162275 -0.6317438 -0.06693851 0.029253928 0.18505095 -0.19870722
0.2041923 -0.06415043 0.011571853 -0.09828348 0.7112526 0.16085972 0.20433018 -0.080082655

in_layer0.layers.0.bias f4 [32]
00000000: 3d8f 6e3e 6930 193e 6ccb 82be 6aef 47be
00000010: c3f8 e93e f6ed c03e da05 fabd eb8f 23bd
00000020: 09b7 e2be 017d 70be 6eda 24be 3125 cbbe
00000030: ed2f ee3d c86b 80bd eafc f3bd 6580 b33e
00000040: 6de6 7bbe 1dbd 0d3f a684 b33e 98ca 0cbf
00000050: 3e51 dbbd 93b9 b73d 279f 013e d7b0 d13d
00000060: 15d2 dabc d99a b53d 6ce2 9ebe 3257 c03e
00000070: 9107 11bf 4140 8bbe 07ea 2dbe 5cb4 96be
0.23296829 0.14959873 -0.25545824 -0.19524923 0.45697603 0.3768155 -0.12208147 -0.039932173
-0.4428027 -0.23485185 -0.1609895 -0.39676812 0.11630235 -0.06270558 -0.11913474 0.35058895
-0.24599619 0.5536669 0.3506214 -0.54996634 -0.10708855 0.08970942 0.12658368 0.10238808
-0.026711503 0.088674255 -0.3103212 0.37566525 -0.5665217 -0.2719746 -0.16983806 -0.29434478

in_layer0.layers.2.weight f4 [32, 32]
00000000: 9ba8 eabc 0294 a0bc 5fb1 b4b8 4682 533c
00000010: e0aa f4bc f4cd f7bd 59b7 d639 4b9c a6bd
00000020: 32c0 d03c 3e0b 273d 2c7e 04bc 15b7 313d
00000030: 7e87 65bd caf8 0c3c 7337 ea3b 4e1d d9bd
00000040: 7e0e 6e3b e951 35be 2268 b8bd 8bd8 2c3d
00000050: 706e 32bc 255d 15bd 2800 44bd 29c9 60bd
00000060: 7581 3ebd c707 30bd c00b 043d 27da 25be
00000070: d253 283d 3a32 f23c 6cb2 c9bc 9b45 a73c
00000080: 1051 b33d aa39 863d 135f 3f3d c026 71be
00000090: 6372 05be a569 103d 0250 48bd f6c0 43be
000000a0: 6439 94bd f76c b13c b5d6 b23e 92dd cabc
000000b0: 3576 b13e 56a3 d33b b28c 47be a8d7 803e
000000c0: 36fa b23c 5c0d 4fbe dace 01be aac0 b4bd
000000d0: 3643 2e3e d7e4 8e3d 8025 d8bc c5a9 3ebe
000000e0: fa88 ea3d 7011 8abd 941a 1fbd 3ec5 54bd
000000f0: 9e94 abbd b647 b63d 1362 80bd e1a7 743c
00000100: 5dd0 81bd 2cc1 a1bc 38d9 89bc 97ba 1fbc
00000110: e0e9 d1bd cafb b93a 52b1 d6bd 3b73 35bd
00000120: 2c17 77bc be73 8a3d a06d 8dbd 7d04 9cbd
00000130: 0cc2 43bd c81d 963d 4728 6e3c cd59 d53d
00000140: 8c6b 8a3c 1af2 a33c df64 fbbc 1699 64bc
00000150: 5ebd 9d3c 7f3b c8bc 8996 6fbd 538a 2a3c
00000160: f60c e6bd 56d1 99bd 49aa a83d 690d e6bd
00000170: 8568 aebb 4ac5 043e 9e82 f939 4b37 e53c
00000180: f767 213c 7e68 a33d cb99 b43d af1c d4bd
00000190: 0477 cebd 7ae1 d7bc fa73 cebc 22b4 0fbe
000001a0: a8e6 5b3c c640 c33d 74cd 9d3e 6b64 96bc
000001b0: c7bb a03e e4dc a4bc fa26 adbd 7767 503e
000001c0: a820 023c 6aa8 7fbd e15c 93be 07f9 c03c
000001d0: b1ca 2e3e e717 b9bc e1c3 0fbd 5201 a0be
000001e0: a144 be3c ab85 d4bd 04c8 f2bc e2db cc3b
000001f0: 44a7 a43d 1572 4b3d 654e 09be 0005 85bc
00000200: 3590 4fbb b8aa 8d3b 32c9 f1ba 065d 81ba
00000210: d7bc ed3b a287 df3c 3862 973b 670e fa3c
00000220: 2adb 953a 1712 79bb 133f 73bb 381c 6cba
00000230: 1c40 c53b 549b 0abb 5bbe f2ba a25d 0a3b
00000240: 2a43 a838 e2ed 8f3c 7186 bcbc 7550 cbbb
00000250: d10b 98ba b1f0 a7bb e0f4 283c 48ec 183c
00000260: 6161 003c 252c edbc d4b9 81bb 26b7 543d
00000270: e6fb cfba 7eb3 4039 6b6d d73b 8d6e 6ebb
00000280: 0c84 d03d 5289 febd 2c04 86bb 638a ec3c
00000290: 7dee 02be ad9b 7bbd 4f0a e8bd 6f94 89be
000002a0: b6f0 4f3d f7ff a3bd ca55 473e 7103 adbc
000002b0: dca3 af3c 0145 843d 8165 1ebd 54fc 753d
000002c0: bcfd 3ebd d3ab 12be 6af8 b2bd 7adb 9b3d
000002d0: d38d 4e3e 6060 bf3d d5ce 74be ad78 84bd
000002e0: 0aca f93a 16b8 8ebc 4367 883d 38f0 353e
000002f0: c1f2 3dbd cae3 343d 5cde c6bd 35cb f53c
00000300: fa9a 84bd a045 0a3d 0a83 f5bc 6ba3 703d
00000310: 8fa7 643d 509e ee3c a5ab c23d ab47 9dbc
00000320: bc0e 933d d5c5 1e3b 2d67 bcbd 2032 c1bc
00000330: 1479 9e3d b6d0 963c e6af 4c3c 1e41 c5bc
00000340: 5353 d13d 73d3 b53d 9c8a 9f3d 7430 d63d
00000350: f5b3 83bd eab9 dbbd b2fe bb3c 213f 6f3d
00000360: 0b2c f6bd afe1 a33d 7ac9 8f3d e2af 493c
00000370: e186 0abb a8af 803d c81c c0bc db85 603d
00000380: 9fca b6bc 6c50 d23d 1b99 b63c f395 903b
00000390: bb78 8c3b 7e5c b33d 2a2d 1cbd 7a50 513d
000003a0: f80a 34bd cf23 b8bd 2b10 d2bd b9ec d33d
000003b0: 2891 8e3d 273b 1f3d c82a 5d3c d9af 00be
000003c0: 3322 15bd 7ba8 63bd 0858 d4bd 26d4 a33d
000003d0: 2b40 2bbd 7137 89bd 36e2 1cbd aa41 e0bd
000003e0: de0c e63d a412 c73d b462 6e3d 414d a43d
000003f0: f889 e53d e3d9 f9bc 89e4 503d 0658 c73c
-0.02864485 -0.019601826 -8.616107e-05 0.012909478 -0.029866636 -0.12099829 0.00040953865 -0.08135279
0.02548227 0.040782206 -0.008086722 0.04338749 -0.05603742 0.008604238 0.0071477233 -0.106012926
0.0036324556 -0.17707027 -0.09004237 0.0421987 -0.010890588 -0.036465783 -0.04785171 -0.05487934
-0.04651018 -0.042976167 0.03223777 -0.161965 0.041095562 0.029564966 -0.024621211 0.020418933
0.08755696 0.06553967 0.04672153 -0.23549938 -0.13031916 0.035257 -0.048904426 -0.19116578
-0.07237509 0.021658404 0.34929433 -0.024763856 0.34660497 0.00645868 -0.19487265 0.25164533
0.021847825 -0.2021994 -0.12676564 -0.0882581 0.17017826 0.069772415 -0.026385069 -0.1861945
0.114519075 -0.06741607 -0.038843706 -0.051945917 -0.08377956 0.089003965 -0.06268706 0.014932604
-0.0633857 -0.019745432 -0.01682721 -0.009749076 -0.10249686 0.0014189419 -0.1048304 -0.044299345
-0.015081208 0.06760357 -0.06905675 -0.076180436 -0.04779248 0.07329899 0.01453597 0.10417519
0.016896985 0.020012904 -0.030687748 -0.013952514 0.019255336 -0.024442432 -0.05849317 0.010408956
-0.11232941 -0.07510631 0.08235604 -0.112330265 -0.0053225183 0.12965885 0.00047590298 0.027980467
0.009851447 0.07978915 0.08818396 -0.103570335 -0.10081294 -0.026352633 -0.025201786 -0.14033559
0.013421692 0.09533839 0.3082081 -0.01835843 0.31393263 -0.02012486 -0.084547 0.20351969
0.007942356 -0.06241647 -0.28781798 0.023556245 0.17069508 -0.022594405 -0.035098914 -0.31251007
0.023226084 -0.10377058 -0.02963639 0.006251798 0.08039716 0.049669344 -0.13408811 -0.016237736
-0.0031671647 0.00432333 -0.0018446802 -0.0009869642 0.0072551775 0.027286354 0.004619863 0.030524446
0.0011433114 -0.0038005167 -0.0037116453 -0.00090068905 0.0060196053 -0.0021149712 -0.0018519865 0.0021112938
8.0233745e-05 0.017569486 -0.023013325 -0.0062046596 -0.0011600201 -0.005125128 0.010312289 0.009333678
0.007835717 -0.028951714 -0.00395892 0.051932476 -0.0015867918 0.00018377413 0.006574323 -0.0036381811
0.10181436 -0.124285355 -0.004089853 0.028874582 -0.12786289 -0.06142776 -0.11330091 -0.26871058
0.05076667 -0.08007806 0.1946632 -0.021119805 0.021440439 0.06458474 -0.03867102 0.060055092
-0.0466287 -0.14323358 -0.087387875 0.07610221 0.20171289 0.09344554 -0.23907025 -0.064683296
0.0019057405 -0.017421763 0.066603206 0.17767417 -0.046374086 0.04416255 -0.097103804 0.030004123
-0.06474872 0.033757806 -0.02996971 0.058749598 0.05582386 0.029128224 0.09505395 -0.019199213
0.07180545 0.0024226804 -0.09199367 -0.023583472 0.077379376 0.018410068 0.012493109 -0.024078902
0.10220971 0.08878221 0.077901095 0.104584605 -0.064308085 -0.1072882 0.022948597 0.058409814
-0.12020119 0.0800203 0.070208505 0.01231 -0.0021137523 0.06283504 -0.023451224 0.054815155
-0.022313414 0.102692455 0.022289803 0.0044124066 0.004286853 0.08757876 -0.03812901 0.05110214
-0.043955773 -0.08991205 -0.1025699 0.10347886 0.0696128 0.03887477 0.013498969 -0.1256708
-0.036409568 -0.055580597 -0.10368353 0.079994485 -0.041809242 -0.06700028 -0.03830167 -0.109500244
0.11232923 0.09720352 0.0581996 0.080225475 0.11207956 -0.030499404 0.050999198 0.024333965

in_layer0.layers.2.bias f4 [32]
00000000: 3516 87be 77d1 cabc ba4a ff3d 12d5 47be
00000010: b7fc 2dbd 7de5 f83d 5617 e4bd 2498 3a3d
00000020: 07ff 46be 7251 94bc 2225 dcbd aeb0 b13d
00000030: a253 293d b19d 67bd 43b7 493e ba36 f8bc
00000040: 2ab0 0a3e ab0e cbbd 3a41 033c a591 873d
00000050: 9eba dabd beab 60bd 81e1 2bbe ce78 173c
00000060: d94e b23d 34f0 623d f4cc fbbd 0e0c cfbd
00000070: dbe3 b4bd 61ab 14bd bd56 363e 8855 80be
-0.2638413 -0.024758084 0.12465425 -0.19514874 -0.042477336 0.121531464 -0.111372635 0.04555525
-0.19433223 -0.018105242 -0.1074927 0.08676277 0.041339524 -0.05654687 0.19698815 -0.030299533
0.13543764 -0.09914907 0.008011157 0.06619576 -0.10680126 -0.054851286 -0.16785242 0.009245111
0.08706445 0.055404857 -0.12294951 -0.10109721 -0.088325225 -0.036296252 0.17806526 -0.25065255

in_layer1.layers.0.weight f4 [32, 3]
00000000: a28d bcbe fe7f f0be 1418 d8bd 185b e63e
00000010: d08d 013f 66ab 00bf c0eb ccbc 5882 ad3e
00000020: 1c4d 823e 3c21 f23e 2031 83bc 1e9d c6be
00000030: f68c c33e c0bb 4abe 2e0f 993e e4b1 11be
00000040: 8851 7b3e c8ef 043f 266f 093f 5682 06bf
00000050: 2989 c3be c071 74be ae81 bcbe d2d0 0d3f
00000060: d0db 50bd f015 c4be 558a 83be e347 a3be
00000070: c034 713e 90eb 00bf 8ccf 09bf 78b2 11bf
00000080: 5c87 7e3e 9629 923e d297 b7be 489b 123e
00000090: b835 da3e 68ce ab3d 482d fabd 10b8 2e3d
000000a0: 3093 7dbd 06d6 943e d0b7 c8be b4e6 953e
000000b0: e89b a63e 3c19 b3be 0061 f13e 262b 113f
000000c0: 1612 69be fa97 25be c850 933e ea94 e7be
000000d0: 24cc 693e 6cee 093e dc53 ba3e ac61 00bf
000000e0: 3095 f5be 9ac3 843e 80f5 543e 9d91 09bf
000000f0: 94d8 a4be 403c 07bf eac6 d3be 4960 85be
00000100: 849f f43e 445c ebbd b6c7 a93e 4a5d 0c3f
00000110: 4ab7 863e 4750 04bf 1ac1 943e b481 613e
00000120: a81c e53e efcb 11bf 00cd b53e acf6 f13e
00000130: 6c82 09bf 506c 773d 4059 fc3e a6fe d6be
00000140: 80fc 413e d49e 823e 0cf3 1a3e a4f4 123f
00000150: b408 f23e 409d fd3e 5062 93bd 1ced f73e
00000160: febc 09bf 2884 9fbe 5ce5 fcbd 389f 2fbe
00000170: 0c86 083f 026d 8b3e 3250 be3e 7a12 c93e
-0.36826807 -0.4697265 -0.105514675 0.44991374 0.50607014 -0.50261533 -0.025014758 0.33888507
0.25449455 0.4729098 -0.016014636 -0.38791746 0.38193482 -0.19798183 0.29894394 -0.14228016
0.2454282 0.5192838 0.53685224 -0.52542627 -0.38190582 -0.23871517 -0.36817688 0.5539676
-0.05099088 -0.38297987 -0.25691476 -0.31890783 0.23555279 -0.5035944 -0.53832316 -0.56912947
0.24856323 0.28547353 -0.35858017 0.14317048 0.4261911 0.08388978 -0.12215668 0.042656004
-0.061907947 0.29069537 -0.39202738 0.29277575 0.32540822 -0.3498019 0.47144318 0.56706464
-0.22760805 -0.16171256 0.2877257 -0.452308 0.2283178 0.13469857 0.36392105 -0.50149035
-0.47965384 0.25930482 0.20796776 -0.53737813 -0.32196486 -0.5282631 -0.41362697 -0.26050022
0.4777795 -0.11492208 0.3316018 0.5482985 0.26311713 -0.51684994 0.29053575 0.22022134
0.44748425 -0.569518 0.35507965 0.47258508 -0.53714633 0.06040603 0.49286842 -0.41991156
0.18943977 0.255118 0.15131778 0.5740454 0.47272265 0.49534035 -0.07196486 0.48423088
-0.53804004 -0.31155515 -0.12348434 -0.17150581 0.5332954 0.27231604 0.3717056 0.3927191

in_layer1.layers.0.bias f4 [32]
00000000: 16d1 dcbe c0f2 88bd 50a9 ac3d b8c4 193e
00000010: 4602 983e c23e 6bbe e844 32be f057 f73e
00000020: aeab 1ebe 9a56 cdbe 4a6e c83e 602b c83e
00000030: 0262 39be 5c63 ecbd aa1e dabe 43db f6be
00000040: b052 5e3e 208f 7cbe 1854 eb3e 88b1 ecbe
00000050: 6c70 a3bd 403e 4c3c aaec 973e a83d ef3e
00000060: 142f c83e 981f 823e 1bae 87be bc1a d3be
00000070: ab39 04bf e09c ea3c 9459 0f3f 2c97 e0bd
-0.4312827 -0.06686926 0.08430731 0.15016448 0.29689234 -0.22973159 -0.17409098 0.48309278
-0.15495178 -0.40105134 0.39146644 0.39095592 -0.18103793 -0.11542389 -0.4260152 -0.48214158
0.2171123 -0.24663973 0.45962596 -0.46229196 -0.07980427 0.012466013 0.29672748 0.46726727
0.39098418 0.2541473 -0.2650002 -0.41231334 -0.51650494 0.028639257 0.5599606 -0.10966334

in_layer1.layers.2.weight f4 [32, 32]
00000000: 60dc f3bb b08b 03be 7c4c 5e3d ca86 e53d
00000010: 4778 32be 62eb febd 1915 063e 946f 2b3d
00000020: d092 34bc 506f 013d 202e dcbc 660d fdbd
00000030: 5e26 29be 9e1d ee3d 183d acbc e074 86bd
00000040: 34e5 3abd d876 c5bd ac75 56bd bd63 1bbe
00000050: f376 073e f4d5 933d 7895 b6bd 1e23 77bd
00000060: 926c a23d 9c10 86bd 44ef 3e3d 585e 473d
00000070: a1e6 e3bd e861 353d 5035 313c 7119 1e3e
00000080: 2afe 82bd 3423 3abd 65f7 1b3e 21d2 13be
00000090: 0041 513c 9d69 2e3e 9853 a2bd 3f8a 2d3e
000000a0: 35a0 203e d368 283e f82f 8abc 91c1 233e
000000b0: 4cbf 9dbd feda 77bd 50ef 883d 94f5 183d
000000c0: 4695 c73d b306 2c3e dba1 e2bd c224 c03d
000000d0: 2840 723d 0200 bf3d 32ab ab3d 836d 87bd
000000e0: d911 0fbe 97e2 103e 8572 cebd 0e76 e73d
000000f0: 6872 2cbe c088 fabc 0095 f53a a090 fa3c
00000100: 501d 6a3c 4c29 643d 803e a1bc 6854 313d
00000110: 4722 333e 0342 eabd 1021 1ebc d132 8abd
00000120: ebd4 1e3e b3f5 1a3e e0f5 9dbb 22fd 7abd
00000130: 02b1 dfbd c986 013e 5073 47bc 597c 2a3e
00000140: f674 ce3d 7172 1e3e 272c 0f3e 9e44 ebbd
00000150: 64f0 533d 601f 96bd 72a7 b53d 0834 82bc
00000160: b0bb 7a3c 9e63 fabd 18c8 21be 8055 883d
00000170: d843 283d e094 7b3c 0ae5 f53d 972d 97bd
00000180: 4c84 803d a165 c7bd 5c07 163d 484e 25bd
00000190: 9a8b fd3d 594c 1e3e 3738 1d3e d049 023c
000001a0: de7d d53d 05dd 34be ab5e d4bd d068 013d
000001b0: 8038 813a 061d 0ebe 153e a0bd 7717 a9bd
000001c0: db58 33be 901c 8a3c b2cc f63d 30f0 923d
000001d0: 3904 acbd 4839 26be d00a 12be 80e5 563b
000001e0: 1e0d f93d a09d 92bd 6400 c5bd c221 c1bd
000001f0: d0ba 7abc e6e7 2bbe 51bd 1fbe 9931 323e
00000200: 7da9 acbd e498 02bd 98ba 41bd d006 1fbe
00000210: b84c ffbc f4a6 5d3d 3002 93bd 60e1 f6bb
00000220: 00ac 5dba a434 34be bb8c 033e f538 123e
00000230: 06d7 f63d 2ac9 6dbd 2630 bd3d e099 29be
00000240: 8820 33bd 1444 13bd 2ab5 7fbd 660e 983d
00000250: 3cf7 a4bd c0d8 a7bc 6c14 51bd fffd 29be
00000260: 3026 efbc da68 19be 321b d33d 0a7f c13d
00000270: d593 293e ae25 73bd a048 133c 08d7 0d3d
00000280: 65b2 343e bdec 253e 8b5e bbbd a307 1abe
00000290: 8e26 23be df57 aebd d932 183e 5c2e 733d
000002a0: 37a8 2e3e e12c 063e 80f5 273b f661 e0bd
000002b0: f7c3 303e 6135 113e fabd 9c3d bcc4 c5bd
000002c0: 719a 0e3e 20ce 833c 6a64 ef3d 561a 973d
000002d0: de3e c03d 12d7 1ebe 5ebe c8bd f623 d93d
000002e0: ecd9 16bd b07b 1dbe 6d9e 243e 8089 7abb
000002f0: 7f06 123e de7c 0dbe 9c4b 793d 5f5e 88bd
00000300: f759 98bd 4805 17bd d401 86bd fe61 c63d
00000310: f492 09bd 8740 093e e438 253d 10c3 dfbc
00000320: 021d d1bd 28c1 25be c03a 53bd 2fa1 27be
00000330: 7826 06bd 405a 3d3b 30a6 3abc ead6 b1bd
00000340: 2247 fb3d 92e4 cb3d 6465 32bd 290b 8fbd
00000350: 329c e33d c17d 1d3e 8fbf 25be 9071 1cbd
00000360: 5064 86bc 7e14 83bd b189 1a3e b0e8 d5bc
00000370: 1b7a 193e 0017 653a 4815 9dbc 812d d3bd
00000380: a6c2 70bd b451 693d ae24 a03d 201a cebb
00000390: a57b 2c3e 3094 fabd 7ccf 8a3d 2b0a 233e
000003a0: 00cf fbbc 81b6 0f3e c0f9 3e3b 2e8e 07be
000003b0: cf9e c6bd a4c1 863d feab 9cbd 0c26 2e3d
000003c0: 532b 323e 74f4 753d 5088 87bc 98fc 343d
000003d0: 1996 d0bd 201a 18be 7912 08be cee4 17be
000003e0: 4498 143d c009 0d3d d7da 99bd 6d10 31be
000003f0: 3a1e c43d 926c cdbd 20c4 f1bc 0cc8 17be
-0.007442042 -0.12846255 0.05427216 0.112073496 -0.17428695 -0.124472395 0.13093986 0.041854456
-0.011021331 0.031600296 -0.026877463 -0.12356071 -0.16518542 0.11626743 -0.021025226 -0.06565261
-0.04562874 -0.09641808 -0.052358314 -0.15174766 0.1322897 0.07218543 -0.08915228 -0.060336225
0.079308644 -0.06546137 0.0466149 0.048673958 -0.11127973 0.044282824 0.010815933 0.15439393
-0.06396134 -0.04544373 0.15231092 -0.14435627 0.012771845 0.17032476 -0.079261005 0.16947268
0.15686114 0.16446237 -0.016868576 0.15991808 -0.077025026 -0.06051158 0.0668627 0.037343577
0.097452685 0.1679943 -0.11066028 0.09382011 0.059143215 0.09326173 0.08382262 -0.066126846
-0.13971652 0.14148937 -0.100804366 0.11301814 -0.16840518 -0.030582786 0.0018736422 0.03058654
0.014289215 0.055703446 -0.019683123 0.043293387 0.17493545 -0.11438372 -0.009651437 -0.06747974
0.1551091 0.1513279 -0.0048205703 -0.061276563 -0.109224334 0.12649073 -0.012173489 0.16648997
0.10080902 0.15473343 0.13981687 -0.11487697 0.051742926 -0.07330203 0.08869828 -0.015893951
0.015303537 -0.12226032 -0.15798986 0.06656933 0.041080326 0.015355319 0.12006576 -0.073817424
0.062752336 -0.09736181 0.036628112 -0.040357858 0.123801425 0.15458812 0.15353476 0.007952169
0.10424398 -0.17662437 -0.10369619 0.031594098 0.0009858757 -0.13878259 -0.07824341 -0.08256429
-0.17514364 0.016859323 0.12050761 0.071747184 -0.08399243 -0.16232789 -0.14261937 0.0032790601
0.12160705 -0.07158971 -0.09619215 -0.09430267 -0.015303329 -0.16787681 -0.15599562 0.17401733
-0.08430765 -0.03188409 -0.04729709 -0.15529943 -0.031164512 0.054114297 -0.071781516 -0.007534191
-0.0008456111 -0.17598206 0.12846653 0.1427954 0.12052731 -0.058053173 0.09237699 -0.16562605
-0.043732196 -0.035953596 -0.06242863 0.07424621 -0.08054969 -0.020489097 -0.051044866 -0.16600798
-0.029193014 -0.14981404 0.103079215 0.09448059 0.165603 -0.059362106 0.008989483 0.034628898
0.17646177 0.1620359 -0.09148892 -0.15041976 -0.15932676 -0.08512854 0.14863147 0.059370384
0.17056356 0.13103057 0.0025628507 -0.109561846 0.17262255 0.14180519 0.07653423 -0.09656665
0.13926102 0.016089499 0.11689074 0.0737807 0.09386991 -0.1551173 -0.09801935 0.10602562
-0.03682892 -0.15379214 0.1607606 -0.003822893 0.1426029 -0.13817164 0.060863122 -0.06658625
-0.074390344 -0.03687027 -0.065433174 0.09686659 -0.03358741 0.13403521 0.04033746 -0.027314693
-0.10210611 -0.16186965 -0.0515697 -0.1637008 -0.03275153 0.0028892905 -0.011392161 -0.0868357
0.12269427 0.09955706 -0.043553725 -0.069845505 0.11113776 0.15380003 -0.16186355 -0.03819424
-0.016405255 -0.06400393 0.15091588 -0.02611193 0.14987986 0.0008739084 -0.019175187 -0.103114136
-0.05877938 0.056962684 0.07819496 -0.0062897354 0.16844042 -0.12235296 0.06777856 0.15921848
-0.030738354 0.14034463 0.0029140562 -0.13237831 -0.09698259 0.06579903 -0.076499924 0.042516753
0.1739934 0.06004758 -0.016544491 0.044186205 -0.10184879 -0.14853716 -0.13288297 -0.14833376
0.036278024 0.034433126 -0.075124435 -0.17291422 0.09576078 -0.10030474 -0.029512465 -0.14822406

in_layer1.layers.2.bias f4 [32]
00000000: 00f1 4dbc 97b5 2f3e 7820 0abd 703d ecbd
00000010: 605c f13c 80e8 4bbd d086 c6bc 0f66 2f3e
00000020: 6034 a6bb c120 1e3e 0065 c13c b0af 86bd
00000030: 4db7 043e 483a cebd e0a8 bf3b f8c0 223d
00000040: ce7e a23d eb04 27be a014 0e3c 587a 3bbd
00000050: d2bb ea3d 849c 733d a01a 913d e6ad d93d
00000060: 701b 22bd b090 39bc 3139 113e 4de6 11be
00000070: 8e3f fabd 30e1 533c db69 8fbd e0df 253c
-0.012569666 0.17159115 -0.03372237 -0.11535156 0.029462993 -0.049782276 -0.024234205 0.17128776
-0.0050721616 0.15442182 0.02360773 -0.065764785 0.12960549 -0.1006971 0.005848989 0.03973481
0.07934342 -0.1631047 0.00867191 -0.045770973 0.11461605 0.059475437 0.070851564 0.106288716
-0.039576948 -0.011326 0.14181973 -0.14248009 -0.12219153 0.012932107 -0.07002612 0.010124177

in_layer2.layers.0.weight f4 [32, 3]
00000000: 808f c73e 0bf5 a7be 692a 16bf 7884 7fbe
00000010: 76e8 203f 3d29 91be 1dee e5be 8d12 683e
00000020: a546 9b3e 1ed9 f8be 1868 113f de30 a43e
00000030: 0254 bc3e b317 45bc a022 7cbe 88f6 7dbe
00000040: 4ac8 bf3e 8b99 a1be 9120 6e3e b296 21bf
00000050: 375f b4be c5ee ab3e 0f41 3ebe e766 70be
00000060: 83a0 29bf 7345 2c3f 69eb 5a3e 8b9c 7bbf
00000070: ea6d 243f f70a 9b3e 7a3b b9be e312 dcbe
00000080: a7cd 313f 9383 ba3a ae03 c9be d28a ee3e
00000090: c2d4 3ebe 4a3c 40bc e8ff 91be 2423 1bbf
000000a0: d616 b7be 9672 30be 5802 bdbe cef5 393f
000000b0: 2b4c 203d 487a 65be 2a45 bc3e 2e18 0abf
000000c0: 58ca 5abe 8ae3 d23e 4305 0cbf 3412 7d3e
000000d0: efde 3dbe 950c 94be 6d65 3bbf ecf4 873e
000000e0: 523f 0f3f d594 edbe ffc4 f1be 4a42 64be
000000f0: 53dc ed3c fde1 dc3c dc7e e13c 03d2 ae3d
00000100: 008d 2ebe 721f e23e 272b 683e c9db c7bc
00000110: 4402 fd3e 9bd5 38bc 11f4 4bbc ffe2 33bc
00000120: 3bf7 c83d 0198 ac3e 36bb 2dbe a203 babe
00000130: a520 cbbe 36de 393f 5e74 abbe 899f 84bd
00000140: cdcd 02bf de35 b4be 57d6 d83d b21e a53e
00000150: f8f1 84be 7cc5 aebe 4b69 0a3f 677f 93be
00000160: 0eba e5be fff2 0d3d e59f bd3e b2c7 993c
00000170: 6bd9 acbd 095b c5bd f8b9 fb3e e4f1 babe
0.3897667 -0.3280414 -0.5865846 -0.24952877 0.6285471 -0.28351775 -0.4490823 0.22663327
0.30327335 -0.48603147 0.5679946 0.32068533 0.36782843 -0.012029576 -0.24622583 -0.24801075
0.37457496 -0.31562456 0.2325461 -0.6312057 -0.35228893 0.33580604 -0.18579505 -0.23476754
-0.66260546 0.6729347 0.21378864 -0.9828574 0.64230216 0.30281803 -0.3617819 -0.4298316
0.69454426 0.0014229886 -0.3926062 0.46590286 -0.18635848 -0.011733124 -0.28515553 -0.60600495
-0.3575961 -0.17231211 -0.3691585 0.72640693 0.03913514 -0.22409928 0.36771518 -0.53943145
-0.2136625 0.41189224 -0.5469553 0.24713975 -0.18542074 -0.2891585 -0.7320164 0.26554048
0.55955994 -0.46402612 -0.4722061 -0.22290912 0.029035723 0.026963228 0.027526312 0.0853615
-0.17045975 0.44164616 0.22672711 -0.024396794 0.4941579 -0.011281396 -0.012448327 -0.010979413
0.098127805 0.3370972 -0.16965947 -0.36330897 -0.39673343 0.7260469 -0.3348722 -0.064757414
-0.5109528 -0.35197347 0.10587757 0.3224998 -0.25965858 -0.34135044 0.54066914 -0.28808138
-0.4486851 0.034655567 0.37036052 0.01877198 -0.08439907 -0.09636504 0.4916532 -0.36512673

in_layer2.layers.0.bias f4 [32]
00000000: 0c24 6e3e 5273 243e 04c5 7f3d a09f ff3d
00000010: 3ba6 e2be e4f8 cd3e 53ef b83e 7bee b1be
00000020: 312a a1be 0185 55be baf4 d73e 3d45 6cbe
00000030: 2426 d13e d329 cbbe 7bc2 bebe 1c10 9a3e
00000040: 6841 34be 0cd2 fdbd beab adbd d672 a7be
00000050: 869f adbd ccc1 f9be 5b19 28bd 2978 0f3d
00000060: 1606 b7be eb92 963d ccdd 18bf e6f0 073e
00000070: 54c2 823e 8ec2 103f 6a4d 12bf 1136 1cbd
0.23255938 0.16059616 0.062443748 0.12481618 -0.4426745 0.4022895 0.3612009 -0.3475226
-0.31477502 -0.20851518 0.421789 -0.23073287 0.4084941 -0.39680347 -0.37257752 0.30090415
-0.17603076 -0.12393579 -0.08480023 -0.327048 -0.08477692 -0.48780668 -0.041039806 0.035026703
-0.3574683 0.07352241 -0.59713435 0.13275489 0.25538886 0.56546867 -0.57149374 -0.0381375

in_layer2.layers.2.weight f4 [32, 32]
00000000: 832e 2dbd 18c0 a63e f35f 01bb 8222 e93d
00000010: 6fc3 b4bc b14f 463e 9d14 aabe 82ef 083c
00000020: fd98 0bbc 46e8 5abd bc28 3cbe bbcd 183d
00000030: 05a5 fabd a2c6 0a3e c9da d83d d966 813e
00000040: f4aa 923e d457 b7bc b93d 12be 130a 3b3d
00000050: cc38 5b3b 5e38 3cbe df6c 96bd e52b 13bb
00000060: 0213 5cbd e66e f4bc 3db9 70bd afcd 88bd
00000070: 481f 84bd 42db 1fbe 8fbf c03c 80e2 433d
00000080: 887f 8bbc 165a 4abb 60cc ff3b 780e ddbb
00000090: adbc ef3a a807 25bb 0983 963c b587 8fba
000000a0: 2e06 dbba c0c8 a8ba c4ae 8639 75a5 12ba
000000b0: d205 803a b6a2 543a d160 5ebb f5cb 0fbb
000000c0: 269a 563a c8cf e6ba 775d 363c 7c02 183b
000000d0: e26c 7d39 2e7e a73a ee31 95bc d93f beba
000000e0: ac89 9d3a ad6e 073c dc36 3f3b 0e13 fd3b
000000f0: e2b8 efbb 1b14 193b ea1f a83a 2597 4dbb
00000100: 01a8 f3bd 1c15 9eba a13f 7d3e 908f 3a3e
00000110: 70a8 5abd 370a 993d 45e7 f13a 4be5 5e3d
00000120: e84b e33e 45f5 eb3e f87d b3bd 5d69 bfbd
00000130: 5442 b03c 9838 c53c cc59 b03e 8307 da3c
00000140: 126e 243d 0a9c ea3c b5cb bf3e 4275 2f3d
00000150: 52f5 2dbb 3af6 9ebc 833e 67be 1ac7 cbbb
00000160: 4251 12bd 3504 d6bc 1a45 a93d 7414 1d3e
00000170: 702e d5bd 9323 c73b 6ab0 73bc b1f4 3f3d
00000180: c8bf 67bd 85f3 6bbc 2a33 d8bd a144 7dbd
00000190: d9bc 213e e9f6 ce3d d22e 90bb 658a 523d
000001a0: 553c ecbc 2e2c 13bc 969f b9be 306b 5fbe
000001b0: b248 eb3c 4937 a43c 2305 8fbd e5b8 573c
000001c0: 7037 f8bc a0e2 98bb 69b2 73bd a851 b73c
000001d0: 9abc 423a f9e1 c4bd fbda 48be b0e7 9f38
000001e0: 3603 363d d826 8bbe f626 1b3d dacc 83bd
000001f0: fe39 9abe e89b 80bd d9e3 a43d c494 d93d
00000200: 7dc3 41bc e276 85be 9b1a ae3d c76c d7bd
00000210: 1bc6 b33c 84d4 a2bd c8de 07bd 1587 36bc
00000220: 87f5 20be bfd2 a3bd da12 363e 2b3f 933e
00000230: 70c6 02bc d5c3 bf3d aca8 50bd 2803 d7bd
00000240: 3ac9 913a 50f2 8fbb b4d6 573d 0357 2dbc
00000250: 1fa4 fb3a cc2c 403e 4838 c03b b9ab dabb
00000260: 4d54 c93d cc5d 833e 3a7b 583d 4925 dc3d
00000270: a6cd a13e b719 b8bd 0acf 763d d7a4 88bd
00000280: 734a 24bd 4be4 dabc 317e ca3c 0c17 323d
00000290: b4c3 58bd c6c6 e13b bce7 1b3d e9ed 0b3b
000002a0: 2821 abbc 3a13 e9bb 6815 eebc e456 803b
000002b0: f5e4 7fbc 3428 36bb 4c84 7cbc 4645 36bc
000002c0: 7356 6fbc 3401 7b3c c139 a2bc b6be bab9
000002d0: 7672 723a c5ce ec3c 1861 0fbc 6671 6d39
000002e0: 77e2 3bbd 67ec a7bd 5f25 27ba 07e5 003d
000002f0: 6f1e a8bd 39fa cd3c 4b42 ebbc 3ea9 3cbc
00000300: f134 973d bb7a 02be ca9e 163e 5827 4e3e
00000310: b39d 39bd a0f6 8dbd 01b3 ab3d b5e7 293d
00000320: 80f8 223e 8cf5 163e 90e9 803d e3c3 d5bc
00000330: a017 bb3c 8206 37bc 5ff1 a23d 945e 33be
00000340: 34df 01be 5be1 0d3c 4dba 333e 00a4 7a3c
00000350: 3206 16ba e43e 3339 885d 8fbd 804c 9bbb
00000360: 5d6c 48bd 2b32 533d d9e2 3bbd 23d7 623d
00000370: 482c fdbc b2d8 80bd 8cc9 1dbd f903 19be
00000380: bdd4 24be f8c4 883e cb62 6d3b f9ce ba3d
00000390: 13be 16bd fae1 253d d1d1 76be c728 24be
000003a0: 34fe 1cbe 6a7b 173d b57d 46be 98d3 4bbe
000003b0: 076a c73d 92f1 ff3c ad8f d8bd 44ba 593d
000003c0: 6d19 e7bc 7c36 fbbd 7281 523d 859d f13d
000003d0: f3bd 093b 62a4 27be 7fd3 b7bd a6b4 32bb
000003e0: d03e 463d e7b9 adbd 5408 833b bb17 73bd
000003f0: 1ca2 1ebd 97d7 883d c8e0 27bc e0a3 063e
-0.042280685 0.3256843 -0.0019741028 0.11383535 -0.022065846 0.19366337 -0.33218852 0.008357884
-0.008520362 -0.05344417 -0.18374914 0.037305575 -0.12238506 0.13552335 0.10588605 0.2527378
0.28646052 -0.022380747 -0.14281358 0.045663904 0.0033450602 -0.18380877 -0.07344984 -0.0022456583
-0.053729065 -0.029838037 -0.058770407 -0.06679856 -0.06451279 -0.15610984 0.023528842 0.04782343
-0.017028585 -0.003087645 0.007806346 -0.0067461096 0.0018290483 -0.0025181565 0.01837303 -0.0010950478
-0.0016710216 -0.0012877211 0.00025688682 -0.0005594113 0.000976736 0.0008111404 -0.0033932219 -0.0021941636
0.0008186422 -0.0017609531 0.011130682 0.002319484 0.00024168522 0.0012778693 -0.018212285 -0.0014514878
0.0012019179 0.008266133 0.0029176986 0.0077232188 -0.007315741 0.002335793 0.0012826894 -0.0031370607
-0.118972786 -0.0012060734 0.24731304 0.18218827 -0.05338329 0.074726515 0.0018455765 0.05441789
0.4439385 0.46085563 -0.08764261 -0.09346268 0.021516003 0.024074838 0.3444351 0.02661491
0.040144034 0.028638858 0.37460104 0.042836435 -0.0026543927 -0.01940452 -0.2258244 -0.006218803
-0.035722025 -0.026125053 0.08265133 0.15339833 -0.10409248 0.006077239 -0.014873603 0.046864215
-0.05657938 -0.014401321 -0.10556634 -0.061833028 0.15794696 0.10105688 -0.0044001127 0.051401515
-0.028837362 -0.008982701 -0.36254567 -0.21818233 0.028721187 0.020045893 -0.069834016 0.013166641
-0.030299872 -0.0046656877 -0.059496317 0.022377804 0.00074286165 -0.09613413 -0.19614784 7.624866e-05
0.044436656 -0.27178073 0.037878953 -0.06435557 -0.3012237 -0.06279737 0.08051271 0.10624078
-0.011826393 -0.26067263 0.08501168 -0.105187945 0.02194505 -0.079506904 -0.033171445 -0.0111406045
-0.15718661 -0.07999181 0.17780629 0.2875913 -0.0079818815 0.09363524 -0.050942108 -0.10498649
0.0011122592 -0.0043928996 0.05269499 -0.010579827 0.0019198692 0.18767089 0.0058660842 -0.006673303
0.09830532 0.256575 0.052851893 0.10749299 0.3160221 -0.0898928 0.06025604 -0.06672066
-0.040110063 -0.026720187 0.024718376 0.04347901 -0.052921012 0.0068901507 0.038062796 0.0021351522
-0.020889834 -0.0071128877 -0.029062942 0.003916608 -0.015618552 -0.002779496 -0.015412401 -0.0111249145
-0.014608013 0.015320111 -0.01980293 -0.00035618775 0.00092486234 0.02890719 -0.008751176 0.00022644326
-0.04587027 -0.08199387 -0.0006376113 0.031468417 -0.0820893 0.02514373 -0.028718134 -0.01151496
0.07383145 -0.1274213 0.1470901 0.20132196 -0.04531641 -0.069318056 0.08383752 0.04148074
0.15915108 0.14742106 0.062945485 -0.026094383 0.022838414 -0.011170985 0.07956194 -0.17516547
-0.12682801 0.008659686 0.17551537 0.01529789 -0.0005722969 0.00017094199 -0.070002615 -0.004739344
-0.04893147 0.051561516 -0.045870636 0.05538095 -0.030904904 -0.06291331 -0.03852229 -0.14942922
-0.16096778 0.26712775 0.0036222215 0.09121508 -0.036802363 0.04049871 -0.24103476 -0.1603118
-0.15331346 0.03698293 -0.19383891 -0.19904935 0.0973702 0.03124312 -0.10574279 0.053156152
-0.028210366 -0.122662514 0.05139298 0.117976226 0.002101776 -0.16371301 -0.089758866 -0.002726832
0.048399746 -0.08482724 0.0039987955 -0.059348803 -0.03872882 0.066817455 -0.010246463 0.13148451

in_layer2.layers.2.bias f4 [32]
00000000: 9217 a43d e852 883c 6ad3 96be f652 ccbd
00000010: 7ebf 59bd 0093 bf3c 100f 99bb c22c c23d
00000020: c09d 663d 0b2a e5bd 7004 80bd 35e9 b1bc
00000030: ccc3 dcbc d971 f03c cee4 e2bc 0892 0bbd
00000040: 05f7 30bd 86ee 9abc 85fb 64be 71a2 0bbe
00000050: ed80 59bd a122 e83d cdca b6bd a3a1 b8bd
00000060: 83a6 ddbd 6fb5 103c bcca 95bc 1fbc 123d
00000070: 766a 9fba 749d a53c e595 593d 0802 073d
0.08012308 0.016641095 -0.2945817 -0.09976761 -0.053161137 0.023385525 -0.004670985 0.09481193
0.056302786 -0.1118966 -0.062508464 -0.021717647 -0.026948832 0.029351162 -0.027696993 -0.034074813
-0.043204326 -0.018912565 -0.22361572 -0.13636185 -0.05310147 0.1133473 -0.089254 -0.09015205
-0.10822775 0.00883232 -0.018285148 0.035823938 -0.0012162465 0.020216681 0.053121466 0.03296092

sat_layers.layer0_1.0.agg_weight f4 [3]
00000000: 59bd a6bf 8984 be3c 56a7 b53e
-1.3026534 0.023256557 0.3547923

sat_layers.layer0_1.0.input_linear_layer1.weight f4 [32, 32]
00000000: 656c 46be 4aac c23d 0db1 76bc 62c4 17be
00000010: d1dd 693c a09b 53bb 2cf2 29bd 709f 48bc
00000020: 6552 30be 330b 04bd 0603 30bd c8bf 523d
00000030: 3762 bb3c 8c8c 9f3d 748c 8c3b 244f d0bc
00000040: bf2b 6dbb 0fcc abbd e8a2 7dbc 4e9d 173d
00000050: d0eb b03c 9a57 2b3e a794 8bbe 0d1b b5bc
00000060: e2ae 6c3d ad18 eebb ef35 cf3a 5160 cf3c
00000070: 7430 1abe 03d6 b43e db76 7f3c 5951 3cbe
00000080: 7571 da36 163c a0b9 e801 c5b6 47fd 23b9
00000090: 94c1 5436 86bc 4b39 baf1 f038 6225 04ba
000000a0: 51de 65b9 9955 4c38 fc43 4b3a 1b81 2eb9
000000b0: 97f1 7a3a a054 a5b9 c4d8 cf37 a3ae e5b8
000000c0: 0f00 8fb8 d474 2938 c553 5cb8 1768 d6b6
000000d0: 98ea 0bb6 cac8 0a39 54d9 8637 d70d 03b9
000000e0: e5c1 d7b9 874f 0eba 3991 72b9 fcb7 0137
000000f0: 9d45 db38 8d70 6c39 9e0e 0538 b869 d736
00000100: 87cd 12be fd91 4b3e 962b ac3b ef4f af3d
00000110: 8f1d 38ba 1b29 083d 2a4e fbbb d042 753c
00000120: 87a5 9e3c c5f3 023b d0d2 41bb 9a85 98ba
00000130: 3e97 0bbd 074a 243d 7a60 6bbd a9d5 003c
00000140: dca0 663d d1fc a03c 4cc5 8e3c e64b e23b
00000150: f2ae 153c 9ddd 8e3d b90e cbbd 8b8f e53c
00000160: 1ae4 b5bc b239 d83d 5746 ddbd 6fd2 743b
00000170: 8770 303d 0a98 073e 9072 8d3c 2242 10bd
00000180: de94 3c3d f65b 7fbc 80d1 6bba c427 fbbc
00000190: d1c1 f339 7a76 9dbb 7b5a 283a 9c9b 06bb
000001a0: fdfd b33d 4f31 33ba ee9f 083b 0a29 d0ba
000001b0: fcb7 203b abaa 18bc 6fdb 86bc 280e 86ba
000001c0: 456d 98bd b8a8 d1ba 9a1c afbb 4272 a3b9
000001d0: 1b04 23ba 18fa 97bc a702 763d 70e3 a7bb
000001e0: 1ae4 ba39 5310 b4bc 07da 32bc 7af0 83ba
000001f0: d532 193d 344d 14bd 64e2 76bb eb10 953b
00000200: df51 20be 5b29 423d 8940 023c be24 32be
00000210: 375d ed3a 2cf1 493d c57c 983c f2fa 4a3d
00000220: 210b 09be 2064 8b3b 9b91 04bc 5bb7 c5bc
00000230: 929d 23bc 5821 f83c e0a6 38be d139 5d3d
00000240: 022c 1a3d febb fabc 27d0 00bd 5303 22ba
00000250: eedd f13c 0d51 87bc a149 4cbe 64b1 703c
00000260: 877e ab3c 2f20 a53d 04f3 57bc 6441 033d
00000270: 2ccf 08be 1b31 a23e 6626 9a3c a6f2 363d
00000280: 0ee7 9abd 16e9 683d 9c0c 8539 5b4d 12bc
00000290: 5084 c6b8 6acf 2b3c 3147 bcba 2136 ac3a
000002a0: f5fd 043b e6fd e538 923d c7b8 632c c239
000002b0: 5515 8cba 91cf 573c db58 f5bd f10b a53a
000002c0: 664a be3d 8176 b739 e80c a03c 50b6 cc38
000002d0: 9204 adb9 60a9 1f3d 1d9b a7bd c7a4 243c
000002e0: 30aa 1b3a 9e56 a73d be9c 743b c5d1 d639
000002f0: b2f4 e33b 7fd0 6e3e a634 943b bede 2abb
00000300: 9a2e 7cbe b1b1 a13d b6cb c53c c5e2 4fbe
00000310: fa9a 0fbb 8582 8e3c 0f80 0f3d 4a6f 363d
00000320: b856 59be b94c 263c ac4b b6bc 5869 3c3c
00000330: 51ef 933b 1815 433d a3b7 c63a ee15 be3c
00000340: b894 b93c 61ef 143d 9434 883d 565e d23c
00000350: 72e6 163d 8786 afbc 0e2f 37be eee9 0d3d
00000360: 3888 de3c c423 6c3c 842f 58be f38d 1fbb
00000370: f8e3 09be 3a3a 193e 4e07 9d3d b5dc d2bd
00000380: 2e36 87be 3a6d 043e 078b f13b 2eba f0bd
00000390: adb0 a1bb 66ae 653d 965b e7bb 3c8d 0f3d
000003a0: af51 6bbe 511a 4c3a 8c51 50bb 202e d7bb
000003b0: d54c 83ba ec72 7d3d 40c7 c63d e219 ae3b
000003c0: 937b 053e b07e 263d 4564 803c 86b9 5f3c
000003d0: 6e34 8d3c aa03 f13d c3a7 69be b504 7b3d
000003e0: 9e04 04bd 519f 0f3e 6aa8 1bbe f8c9 87bb
000003f0: 04d2 05be e714 923e 79f8 ef3b 511c 583c
-0.19377287 0.09505518 -0.015056861 -0.14821008 0.014274077 -0.0032288805 -0.04149072 -0.012245044
-0.17218931 -0.032237243 -0.042971633 0.051452428 0.02287398 0.07790479 0.0042892043 -0.025428362
-0.0036189405 -0.083885305 -0.015480734 0.03701525 0.02159682 0.16732636 -0.2726185 -0.022107625
0.05778397 -0.007266125 0.001580892 0.025314482 -0.15057546 0.35319528 0.015592302 -0.18390407
6.5101144e-06 -0.00030562346 -5.8712794e-06 -0.00015639245 3.170314e-06 0.00019429819 0.00011489117 -0.0005040971
-0.00021921961 4.871711e-05 0.0007753966 -0.00016642029 0.0009572743 -0.00031534303 2.4777262e-05 -0.000109520995
-6.818782e-05 4.0401545e-05 -5.2530104e-05 -6.3898146e-06 -2.0849166e-06 0.00013235505 1.6075246e-05 -0.0001249829
-0.00041152458 -0.00054287206 -0.00023133018 7.731836e-06 0.000104557 0.00022548642 3.1723284e-05 6.4198066e-06
-0.14336215 0.19879909 0.0052542193 0.08560168 -0.00070234475 0.033242326 -0.00766923 0.014969543
0.019366039 0.0019981724 -0.0029575117 -0.0011636496 -0.034079783 0.04010966 -0.057465054 0.007863441
0.05630575 0.019651802 0.017428063 0.0069060205 0.0091359485 0.06975863 -0.099149175 0.028022548
-0.022203494 0.105578795 -0.10804432 0.0037356874 0.043076064 0.13241592 0.017266542 -0.03521932
0.04604041 -0.01558589 -0.00089957565 -0.03065861 0.00046492976 -0.0048053833 0.0006422174 -0.0020539528
0.08788679 -0.00068356557 0.0020847279 -0.0015881371 0.0024523726 -0.009318034 -0.016462056 -0.0010227608
-0.074427165 -0.0015995717 -0.0053439857 -0.0003117491 -0.00062185683 -0.018551871 0.060061123 -0.005123548
0.00035646633 -0.02198044 -0.01091624 -0.0010066174 0.037401993 -0.03620644 -0.003767156 0.004549136
-0.15656231 0.04740272 0.007949957 -0.17396829 0.0018109445 0.049302265 0.018614182 0.049555726
-0.13383152 0.004253879 -0.008091356 -0.024135282 -0.009986298 0.030289337 -0.18032408 0.054010216
0.037639625 -0.03060722 -0.03144851 -0.0006180305 0.02952477 -0.01651814 -0.19949962 0.014690731
0.020934356 0.08062779 -0.013180498 0.032044783 -0.1336028 0.3167809 0.018817138 0.044665
-0.075636014 0.056862913 0.00025377132 -0.008929576 -9.466021e-05 0.010486463 -0.0014364478 0.001313869
0.0020292972 0.00010966863 -9.500528e-05 0.00037035634 -0.001068751 0.013172046 -0.119798385 0.001259206
0.09291534 0.00034992772 0.019537404 9.7614364e-05 -0.00033000536 0.038979888 -0.081838824 0.010049052
0.00059381407 0.08170818 0.003732487 0.0004097355 0.00695666 0.23321722 0.0045228777 -0.0026072706
-0.24627152 0.0789522 0.024144989 -0.2030135 -0.0021912442 0.017396221 0.035034236 0.044539727
-0.21224487 0.010150128 -0.02225288 0.011499725 0.0045146127 0.04762754 0.0015160929 0.023203816
0.022653922 0.036361102 0.066506535 0.025679749 0.036840864 -0.021426452 -0.17889044 0.03464692
0.027164564 0.014412824 -0.21111876 -0.0024346083 -0.1346587 0.14963618 0.07667409 -0.10296003
-0.26408523 0.12932292 0.0073713097 -0.11754261 -0.0049343915 0.056074522 -0.0070604784 0.0350468
-0.22980379 0.0007785904 -0.0031786887 -0.006566778 -0.0010017405 0.061877176 0.09705973 0.005313144
0.13035421 0.040648162 0.015672812 0.013655072 0.017236914 0.11768277 -0.22817902 0.061283786
-0.032230966 0.14025618 -0.15200964 -0.0041439496 -0.13068396 0.28531572 0.0073233214 0.013190345

sat_layers.layer0_1.0.input_linear_layer1.bias f4 [32]
00000000: a047 543e e7e5 32b9 ab82 823e 172a 2dbe
00000010: 1ff7 aa3e 1b53 ef3d 458d 8e3d 756b 513d
00000020: 5bb8 7dbe 8f41 f0bd 9a5b 6bbe 8582 9639
00000030: fcc0 bfbe be45 5f38 72e5 c23e cf64 5e3e
00000040: 1b31 ee3d c361 8f3e 79d8 86bb dd30 4cb7
00000050: 3239 85be 1544 8bbe 868e 95be 55ac 4bbd
00000060: b41e f8bc b421 adbe 91ee 3b3e f428 e9bc
00000070: d6b8 393b 1c51 893e 77a4 b0be 6ea3 c33e
0.20730448 -0.00017061048 0.25490317 -0.16910587 0.33391663 0.11685773 0.06960539 0.05112787
-0.24777357 -0.11731254 -0.22984162 0.00028707474 -0.37451923 5.3232296e-05 0.38065678 0.21718143
0.1163046 0.28004274 -0.004115161 -1.2170724e-05 -0.260202 -0.2720038 -0.292103 -0.049724896
-0.030288078 -0.33814776 0.18352725 -0.02846191 0.002833893 0.26819694 -0.34500477 0.38210624

sat_layers.layer0_1.0.input_linear_layer2.weight f4 [32, 32]
00000000: 8452 153e 5a09 3d3d 8cfb cb3c 6c5b d13d
00000010: 7fb8 ea3b 99ca dcbc df91 e23b 173f 8bbc
00000020: 66a5 8fbd ca90 bf3b f9bf 8c3d 11f0 43bc
00000030: 2d5e 203d d937 d3bc 0b89 a1bd 0829 403d
00000040: b025 0e3d fe33 8e3a 7a27 74bd b4f8 273c
00000050: 4b88 833c 103d b93d 8751 163e fe36 453d
00000060: b6f9 c33d 25a3 253d 501f d6bc 7c13 17bd
00000070: 3509 9b3c 5db1 293d c227 54bd 3c76 233d
00000080: 2261 e43d 1f3a f3ba 6177 013e b78d 373d
00000090: d686 c838 5f5a 453c 1ddc f23c 0abc febd
000000a0: fec2 c43d c9a5 aa3b 542b dd3d da2e 8cbd
000000b0: 8784 5f3c 1e81 d5bd 7379 963c 777e c8bd
000000c0: bb80 52bd 973a 32bc d758 1f3d 0c65 7d3d
000000d0: ac36 0cbc 1776 323e f02f c7bd 7f14 dcbb
000000e0: 4b5d d73d cce3 ee3c c1a2 e03d 21bc 4cbd
000000f0: 21e1 873d 5b31 533d ebac 14bd b0d6 47bd
00000100: 4447 203d 0b3f 06bd f0dc c6bd 29b2 d53d
00000110: bde5 d8bb 6379 81bc 9bd4 1fbd e368 933d
00000120: cb3b 793d 171c 35bc a578 b0bd 08c5 c93c
00000130: 4cac d6bd f3d3 48bd ff2a 13bd 2dfe f43d
00000140: 603f 57bc 03e6 153c 283a 96ba 0b9a 37bd
00000150: 0827 09bd 3d1b 0a3b d2ae 8dbc 51a6 c2bd
00000160: 8692 8cbd d9c4 85bd 5993 9ebc 25e7 64bd
00000170: 06be 3f3d a335 dabd 8e03 183e 590a 7f3d
00000180: dd58 32be 09ac 6a3e 630e 72bd 994d b63c
00000190: 7f5b 21bc a3dc 683e 2cb8 5cbe 1703 f53c
000001a0: 1534 243e 0e83 52bb f263 7dbe 236f eabd
000001b0: 49bc 90be fdf8 c23e 8fb5 36be b9b9 51be
000001c0: 6d59 3e3e b5b3 dd3c 3b4c 8e3e ac14 753c
000001d0: cb70 2e3e ce9d 1f3d a6cb 23bd cfc2 c13d
000001e0: d363 a13c f3cd a73e b39e 713e c15b 83bc
000001f0: 45ac 9dbe 26c4 31be 8b5c 2d3e 2527 8a3b
00000200: bc1d 173c 19cd f73b 0db3 03bb f9dd ec3b
00000210: 5e71 e2b9 1f39 2a3a 0e2b 26bb 05a0 533b
00000220: 6aab efb9 1072 2c3b d9ae 08bb b095 efbb
00000230: 972b aabb 6140 3abc aff5 fbbd 3e64 6dbb
00000240: dde4 7a3c 3291 ca3a afd9 0d3c 3ae4 b2b9
00000250: 4848 62bb cf35 023d affa 773c d4f9 d73a
00000260: 4b77 503c 05d1 0b3d 2444 283c 6787 b5bb
00000270: d4e6 79bc 2078 023c 2a61 463c b46e 3d3c
00000280: d2b5 c3bc 3315 6a3d 2aa6 99bc a606 77bd
00000290: f59d e3bb 1894 9dbc 63c2 03bb ac66 5b3c
000002a0: 0bf6 503d 7854 76bb bc34 3f3a b6d4 893c
000002b0: e1de 203d f9d1 16bc 9815 e23d 7b75 ae3c
000002c0: c23b 0ebe 2a98 ae3b f3a4 bd3c 2b38 6fbc
000002d0: ec9c 34bd 085b e03c 4bdc 483d 0656 cabb
000002e0: 3957 37bd 8453 c53c a75f 343d 1b0a 5b3c
000002f0: ae93 cd3c b033 653d a9ac be3d 5fae 5dbd
00000300: 3433 e83c 6449 d13c 5945 90bb c507 873c
00000310: 2e3b 88bb e455 4fbb 7ecb 58b8 abe2 be3b
00000320: 9835 d03c 0b63 13ba 629f b63a 5cae 30bb
00000330: f633 e03a 7edd c4ba 972e a33c daf3 b03a
00000340: e275 b2bd 58f3 a43a 201e 8e3c 96e3 2abb
00000350: 4a8d a7bb eae4 323d db1c cb3c e32d bbbb
00000360: 9ae3 c83b ad68 2f3d f0df d83c 217f 2abb
00000370: 254e d3bb 4bd0 833c 452e f7ba 4365 a33c
00000380: e941 11bd 7201 b3bd 42ca 773d 5f61 e53d
00000390: b0e4 863b edd3 75be cde5 633d 37f3 53bd
000003a0: bd52 62be 5fbd 303c 73b8 1b3d c458 f43d
000003b0: 9224 c33b b025 7ebe be80 0b3d 4a03 d9bd
000003c0: 089e ecbc ed4e 37bd 2114 9e3c b908 c03c
000003d0: 6338 2dbd 7aac 483e 6bfe 79bb 3503 45be
000003e0: 01d2 e33d 9cb2 5abd f411 55be 0cfb 56be
000003f0: 8e3b c6bd 6e3e 573e fad5 5c3e 9db4 cf3c
0.14582258 0.046151496 0.02490022 0.102225155 0.007163107 -0.026952075 0.006914362 -0.016997857
-0.07013969 0.0058461176 0.068725534 -0.011959092 0.039152313 -0.025783466 -0.07887467 0.04691413
0.03470391 0.0010849235 -0.05960796 0.010252167 0.0160562 0.0904485 0.14679538 0.048148148
0.09569113 0.04043879 -0.026137978 -0.036883816 0.018925289 0.041428912 -0.05179573 0.03990768
0.11151339 -0.001855675 0.12643196 0.044812884 9.561858e-05 0.012045472 0.029645974 -0.12438209
0.09607504 0.0052077514 0.1079928 -0.06844874 0.013642437 -0.10425018 0.018368458 -0.09789746
-0.0513923 -0.010878227 0.038903084 0.061863944 -0.008557957 0.1742786 -0.0972594 -0.0067163105
0.10515841 0.029161356 0.10968543 -0.0499841 0.06634737 0.05156074 -0.03629772 -0.048788726
0.039130464 -0.032774966 -0.09710109 0.10434372 -0.006619184 -0.015804952 -0.039021116 0.0719774
0.06084804 -0.01105406 -0.08616761 0.024630085 -0.10482082 -0.049030256 -0.035929676 0.11962543
-0.013137668 0.009149077 -0.0011461424 -0.04482464 -0.03348449 0.0021073364 -0.017295275 -0.095043786
-0.06863885 -0.06531686 -0.01935737 -0.0558845 0.04681208 -0.10654762 0.14845106 0.062265728
-0.17416711 0.22917189 -0.05909575 0.022253798 -0.0098484745 0.22740416 -0.21554631 0.0299087
0.16035493 -0.0032121572 -0.24745157 -0.11446979 -0.2826865 0.38080588 -0.17842697 -0.20481004
0.185888 0.02706323 0.27792534 0.014958542 0.17035215 0.038968854 -0.039989136 0.09460985
0.01970092 0.32774314 0.23595695 -0.016034963 -0.30795494 -0.17359981 0.16929834 0.004216092
0.009223398 0.0075622913 -0.0020095736 0.0072286096 -0.00043190544 0.0006493497 -0.0025355252 0.0032291424
-0.00045713346 0.0026313104 -0.002085617 -0.0073115453 -0.0051931846 -0.011367888 -0.1230272 -0.003622308
0.015313354 0.0015454649 0.008657857 -0.00034120848 -0.0034527946 0.031789597 0.015135451 0.0016477653
0.012723754 0.034134883 0.010270152 -0.005539823 -0.015252788 0.00796321 0.012108127 0.011562038
-0.02389041 0.057149123 -0.018755991 -0.060309075 -0.00694632 -0.019235656 -0.0020104877 0.013391178
0.051015895 -0.0037586968 0.000729393 0.016825061 0.039275054 -0.009205335 0.11039275 0.021296253
-0.13889983 0.005328198 0.023149943 -0.014600794 -0.044094965 0.027387157 0.049038213 -0.0061748056
-0.044760916 0.024087675 0.044036534 0.013369109 0.025094833 0.055957496 0.09310276 -0.05412137
0.028344728 0.02554769 -0.004402798 0.016483197 -0.0041574454 -0.0031636888 -5.168793e-05 0.005825361
0.02541618 -0.00056223635 0.0013932998 -0.0026959395 0.0017105329 -0.0015019623 0.019919677 0.0013500408
-0.087138906 0.0012584729 0.01734835 -0.0026075593 -0.0051132785 0.04367534 0.024794033 -0.005712257
0.006130648 0.042824436 0.02647397 -0.0026015716 -0.0064485245 0.016090533 -0.0018858394 0.019945746
-0.035463247 -0.0874051 0.060495622 0.11200213 0.004116617 -0.24006625 0.055639077 -0.05174562
-0.22101875 0.010787337 0.0380177 0.11930993 0.0059552873 -0.24819064 0.034058325 -0.105963305
-0.028883949 -0.044753004 0.019296708 0.02344166 -0.042290103 0.19597045 -0.003814603 -0.19239505
0.111240394 -0.05339299 -0.2080763 -0.20994204 -0.09679328 0.21019909 0.21566 0.025354678

sat_layers.layer0_1.0.input_linear_layer2.bias f4 [32]
00000000: aa75 873d b966 e13c a528 b03a 5d5d e13d
00000010: b35a c9bd 21fa 37bd 4973 3cbd 8d74 c5bd
00000020: b0bd ec3b 0e63 a13c d35a 8abd ceb2 94bd
00000030: 2c5b eabd ecb6 863d 3b1b d03c 6983 d73d
00000040: cb3f 6fbe 2d81 81be 4e28 3f3d 0f49 86bd
00000050: 223e 78bd c92d 8e3d a1b0 aebc 5f77 c3bc
00000060: 4cc8 ab3d 7d7b ec3c 3396 0abe 7c2c bebd
00000070: 1ca5 adbd 32d2 7c3d dd44 debc dd10 003e
0.066142395 0.027514802 0.0013439847 0.11004136 -0.09831753 -0.044916276 -0.046008382 -0.09641371
0.007224761 0.019700553 -0.067556046 -0.07260667 -0.11443171 0.06577858 0.02540361 0.105231114
-0.23364179 -0.25293866 0.046669297 -0.065569036 -0.06060613 0.069423266 -0.021324458 -0.023860632
0.08387813 0.028867478 -0.13533859 -0.092858285 -0.08478758 0.061723895 -0.027132446 0.12506433
