output/modelparams/dynamicLearning-SCER-SCUAU-DualSAT/epoch7_model_state_dict.pth (torch, 339813 bytes, 192 tensors)

in_layer0.layers.0.weight f4 [32, 2]
0	0xbc019339	-0.007908636
1	0xbbe9265e	-0.0071151694
2	0xbc329d5b	-0.010901774
3	0xbea4c7dd	-0.32183734
4	0xbea43f77	-0.3207967
5	0x3ec96b7e	0.39339823
6	0xbe60aaae	-0.21940109
7	0x3f39ff99	0.72655636
8	0xbbf0bf8f	-0.0073470543
9	0xbbf71fb9	-0.0075416234
10	0xbdec3a66	-0.11534576
11	0xbddd37cb	-0.10801657
12	0xbe5a1160	-0.2129569
13	0x3d51eb37	0.05124971
14	0xbd222729	-0.039588127
15	0x3e24275a	0.16030636
16	0x3b88e67d	0.004177867
17	0x3b86f250	0.0041182414
18	0xbea7c3d6	-0.32766598
19	0xbe570bd2	-0.21000603
20	0xbe3415f3	-0.17586498
21	0x3ecb95af	0.39762637
22	0xbecf2f63	-0.4046584
23	0x3f22ba34	0.63565373
24	0xbe5c8d49	-0.21538271
25	0x3e8d7fd4	0.27636588
26	0x3f16f508	0.5896764
27	0xbe36b345	-0.17841823
28	0xbe846641	-0.25859264
29	0x3d517385	0.05113556
30	0xbe693f26	-0.22777995
31	0x3f4f61df	0.81008714
32	0x3d3a9a96	0.04555758
33	0x3c185a0a	0.009298811
34	0xbe8cb37f	-0.27480695
35	0xbf1e9517	-0.61946243
36	0xbf015f3a	-0.5053593
37	0x3f3a5cfd	0.7279814
38	0x3cd282e5	0.025697181
39	0x3cc7749a	0.024347592
40	0x3e1c0441	0.15235998
41	0xbf08e811	-0.53479105
42	0x3e4dc483	0.20094495
43	0xbeeca4c6	-0.46219462
44	0xbca32cc4	-0.019918807
45	0xbc9ec326	-0.019380163
46	0x3ed47d10	0.41501665
47	0xbb190674	-0.0023349794
48	0xbed1161d	-0.40837184
49	0x3e544e7a	0.20733061
50	0x3e5b448f	0.21412872
51	0x3f5aaf31	0.8542357
52	0x398974eb	0.00026217787
53	0x3941314d	0.0001842428
54	0x3ef76705	0.48320785
55	0xbf20ffd9	-0.6289039
56	0x3dd3e91d	0.10347197
57	0xbf24aca6	-0.6432594
58	0xbdcb19d8	-0.09917039
59	0xbdbfeef4	-0.093717486
60	0x3e8041a8	0.25050092
61	0x3d97f4a8	0.07419711
62	0x3d27ee4f	0.040998753
63	0x3d21fee8	0.03954974

in_layer0.layers.0.bias f4 [32]
0	0x3be8e840	0.0071077645
1	0x3ccda218	0.025101706
2	0x3df58723	0.11988666
3	0x3e242988	0.16031468
4	0x3c028e1a	0.00796845
5	0x3dccf557	0.10007732
6	0xbe6f68de	-0.23379847
7	0xbd7a238e	-0.061069064
8	0xbb95b8cc	-0.0045691486
9	0x3ea98c9a	0.33115083
10	0x3e393761	0.18087532
11	0x3f02edbc	0.51144004
12	0x3e2b485f	0.16726826
13	0xbed916ff	-0.42400357
14	0x3e2426f2	0.16030481
15	0xbe4ccfb6	-0.2000111
16	0xbd536702	-0.051611908
17	0x3e9ebd7f	0.3100395
18	0x3f0922dc	0.53568816
19	0xbcd63365	-0.026147554
20	0x3e020eaf	0.12700914
21	0xbd4b43c9	-0.04962519
22	0x3ca83d34	0.020536996
23	0xbea8e5cb	-0.32987818
24	0x3e91126f	0.28334376
25	0xbeb22fe2	-0.34802157
26	0x39c64fc3	0.0003782493
27	0x3e992dbb	0.29917702
28	0x3eba51f7	0.3639066
29	0x3dc881bf	0.09790372
30	0xbe7f36e6	-0.24923286
31	0xbd2a711e	-0.041611783

in_layer0.layers.2.weight f4 [32, 32]
0	0xb892ca60	-6.999518e-05
1	0xbb42a541	-0.002970055
2	0xbc2aa075	-0.0104142325
3	0xbae29863	-0.0017287846
4	0x394fbec5	0.00019812126
5	0x3c2354ab	0.009968917
6	0xbcc05ca8	-0.023481682
7	0xbaf59b4e	-0.0018738301
8	0x3a3ac234	0.00071242754
9	0xba914edc	-0.0011086124
10	0xbb3e2df4	-0.002901909
11	0xbd043cbf	-0.032284494
12	0x3ab4fa78	0.0013807556
13	0xbaa250c0	-0.0012383685
14	0xbb39eff9	-0.0028371795
15	0x3d1a9c9c	0.03774701
16	0xbb4f421f	-0.0031625105
17	0xbb5e67ff	-0.0033936498
18	0x3d04c479	0.032413933
19	0x3917a8a7	0.0001446331
20	0xbbf86bb0	-0.0075811967
21	0xbb84e435	-0.0040555247
22	0x388c98a9	6.7041554e-05
23	0xba6f5d12	-0.0009130995
24	0x3bc59680	0.006029904
25	0x3b2b84e3	0.0026171736
26	0xb85eb3f8	-5.3096534e-05
27	0x3d909f81	0.07061673
28	0xbdb321a4	-0.08746651
29	0x3901489a	0.00012329445
30	0xba9eb824	-0.0012109322
31	0xb98db3a2	-0.00027027453
32	0x39a91904	0.0003225283
33	0xbe450438	-0.1923989
34	0x3ea540fa	0.32276136
35	0x3e93bd11	0.28855184
36	0xb904de16	-0.00012671234
37	0x3b6207ab	0.0034489434
38	0x3d38d9a4	0.045129433
39	0x3deb294c	0.11482486
40	0x38e99c22	0.00011139388
41	0x3dc799df	0.097461455
42	0x3e1ddf59	0.15417232
43	0x3e9b67ad	0.30352536
44	0x3ebec5c8	0.3726027
45	0xbea52f17	-0.3226249
46	0x3ea5b316	0.32363194
47	0x3ebec92f	0.37262866
48	0xbdd323bd	-0.10309551
49	0xbe8891db	-0.2667378
50	0x3ec94597	0.39310905
51	0x38966664	7.171629e-05
52	0xbef7640d	-0.4831852
53	0xbee796b4	-0.45232165
54	0xb8821028	-6.2018924e-05
55	0xbebe2742	-0.37139326
56	0x3eaba51f	0.33524415
57	0x3eafa164	0.3430282
58	0xb9cc58be	-0.0003897603
59	0xbf0c3f79	-0.5478435
60	0xbe8a6338	-0.27028823
61	0x3afe7dde	0.0019416173
62	0xbe06d550	-0.1316731
63	0xb9c78ab2	-0.00038059574
64	0xb909bc94	-0.00013135589
65	0x3b07271f	0.0020622683
66	0xbdd6c0c5	-0.104859866
67	0xbd961e85	-0.0733004
68	0xb846a651	-4.7361773e-05
69	0xbae58f94	-0.0017514103
70	0xbdc46cbb	-0.09591051
71	0xbb769468	-0.0037625078
72	0xbad8351d	-0.0016495321
73	0xbb032919	-0.002001351
74	0x3d95f8db	0.07322856
75	0xbca68a23	-0.02032954
76	0x3cf6dce7	0.030134631
77	0x3d9c6c3c	0.076378316
78	0xbddc3d1f	-0.107538454
79	0x3d7d1449	0.061786924
80	0xbd247d38	-0.04015848
81	0xbb340f26	-0.002747485
82	0x3df0afba	0.11752267
83	0xba876a58	-0.0010331376
84	0x3d947266	0.07248382
85	0x3cb0b912	0.021572623
86	0x3a1d995b	0.00060119265
87	0x3d68d0fa	0.05683992
88	0x3cf0ec45	0.029409537
89	0x3c4cc23f	0.012497484
90	0x3a3002e1	0.0006714296
91	0x3cc27044	0.023735173
92	0xbd648c56	-0.055797897
93	0x3956bd51	0.00020479156
94	0xbb1f4697	-0.002430355
95	0xb9c3ca81	-0.00037344176
96	0x3ae589e4	0.0017512408
97	0xbccdd736	-0.025127035
98	0xbcfde671	-0.030993672
99	0xbc486512	-0.012231128
100	0xbb015c5a	-0.0019738884
101	0x3c1c2308	0.0095298365
102	0xbd69a19d	-0.057038892
103	0x3bb94d5c	0.005654974
104	0xbb4864c2	-0.0030577634
105	0x3c962d0f	0.018332032
106	0xbcb53c40	-0.022123456
107	0xbd4b8232	-0.04968471
108	0xbbcd9ae9	-0.0062745702
109	0x3d910dc8	0.07082707
110	0xbc35029d	-0.011047986
111	0x3dc9ddf1	0.09856785
112	0x3c68cd6a	0.014209131
113	0xbcd7cef2	-0.026343796
114	0x3c99bd98	0.018767163
115	0x3a9b94c4	0.0011869897
116	0x3d451bf8	0.048122376
117	0x3cd46c2d	0.025930488
118	0xbae60170	-0.0017548036
119	0x3b55f4fe	0.0032647247
120	0xbd478edd	-0.04872023
121	0xbc6abdbb	-0.014327462
122	0xbaceaa9f	-0.0015767402
123	0xbdcd2f00	-0.1001873
124	0x3cb76d16	0.022390883
125	0x3b2f4d4d	0.0026748956
126	0xbcaef691	-0.021357806
127	0x3ae51633	0.0017477929
128	0xb9a9b132	-0.00032366213
129	0x3b8c577c	0.00428289
130	0xbc8c8f5f	-0.017158208
131	0x3cdf9294	0.027291574
132	0x3a6e4c52	0.0009090352
133	0x3b89f34d	0.004209912
134	0xbd0921c6	-0.033479474
135	0x3c567b43	0.013090911
136	0x3891fe98	6.9615606e-05
137	0x3aadc6e8	0.0013258131
138	0x3d158899	0.036507223
139	0x3c5d5189	0.013508209
140	0x3c1c2d64	0.009532306
141	0xbc25f6a9	-0.010129609
142	0xbce11ef0	-0.027480572
143	0x3ce0fa1c	0.027463011
144	0x3b99ff14	0.004699597
145	0x3b8a87a4	0.0042275954
146	0x3d28654f	0.04111224
147	0xb9e5baf0	-0.00043817563
148	0x3d5781aa	0.05261389
149	0xbc8a6870	-0.016895503
150	0x3a3c52ad	0.00071839505
151	0xbc3bdbbf	-0.011465966
152	0x3b1f4aee	0.0024306136
153	0x3ba22cd8	0.0049491934
154	0x39e447ea	0.0004354113
155	0x3d5257e4	0.05135335
156	0x3e013b92	0.1262038
157	0xb830292b	-4.200001e-05
158	0x3ba0623c	0.004894523
159	0xba55d4bc	-0.0008157005
160	0x39960756	0.00028615695
161	0x3c872431	0.01649675
162	0xbd9daf8d	-0.07699499
163	0xbe0a564b	-0.1350948
164	0xb9203533	-0.00015278607
165	0x3cba20d4	0.022720732
166	0x3db6d077	0.0892648
167	0x3d51ead7	0.05124935
168	0x3a485eb2	0.0007643505
169	0xbc4d2b7b	-0.012522574
170	0xbd7ec239	-0.062196944
171	0xbe03258f	-0.12807296
172	0xbd21c1c8	-0.039491445
173	0x3ca64eff	0.02030134
174	0xbcbdd9c5	-0.02317513
175	0xbdb3a449	-0.08771569
176	0xbc09a1c9	-0.008400389
177	0x3c991b62	0.018689815
178	0xbe58ccaa	-0.21171823
179	0xb8bc0838	-8.9660694e-05
180	0x3d7d8fec	0.061904833
181	0xbc16fb20	-0.009215146
182	0xb92b0847	-0.00016310914
183	0x3ca61098	0.020271584
184	0xbd52ac82	-0.051434048
185	0xbd953087	-0.072846465
186	0xb863aba2	-5.4280863e-05
187	0x3dbca5c5	0.092113055
188	0xbb9b5a04	-0.0047409553
189	0x3a42a56f	0.0007425164
190	0x3c66bf24	0.014083657
191	0xb98513ac	-0.00025382394
192	0xba0f5b26	-0.0005468599
193	0x3c1821ca	0.0092854
194	0xbde804d1	-0.11329044
195	0xbdd90324	-0.10596302
196	0x399f332f	0.00030364978
197	0x3c98bbef	0.018644301
198	0xbb3affb4	-0.0028533759
199	0xbd2c058c	-0.041997477
200	0x3a7b8bb9	0.00095957104
201	0xbc4b89fd	-0.012423036
202	0xbd49a830	-0.04923266
203	0xbe0cc6c4	-0.13747698
204	0xbd3ff7e4	-0.046867266
205	0x3d69a361	0.057040576
206	0xbd14bf19	-0.036315057
207	0xbd8dff98	-0.06933516
208	0x3c2048bf	0.009782969
209	0x3c1a3e17	0.009414217
210	0xbe2ed821	-0.17074634
211	0xbaabe96f	-0.0013115833
212	0x3d894fed	0.06704698
213	0x3d48af05	0.048995037
214	0x3a228b0a	0.0006200528
215	0x3c940a5c	0.018071346
216	0xbd7c891c	-0.061654195
217	0xbd83e6ea	-0.06440528
218	0x3a46ad1d	0.00075788965
219	0x3e04399b	0.129126
220	0xbd1fb3cf	-0.03898984
221	0xb8af77d7	-8.366972e-05
222	0x3bdb9451	0.0067010303
223	0xb9f1850a	-0.00046066224
224	0xb9f23d30	-0.00046203425
225	0x3d06b9b0	0.03289193
226	0xbc6b4549	-0.014359781
227	0x3d1dda11	0.038538042
228	0x3ac7e63f	0.0015251114
229	0x3bcf7337	0.0063308734
230	0xbbca910e	-0.0061818426
231	0xbd291fc2	-0.041290052
232	0x3baa09ee	0.005189172
233	0xbce9bc7f	-0.028532265
234	0xbda3294b	-0.079668604
235	0xbd94a851	-0.07258666
236	0x3ce7276b	0.028217038
237	0x3d468af5	0.048472364
238	0xbdb7218c	-0.089419454
239	0x3dcc85a8	0.099864304
240	0x3c1a8fac	0.009433668
241	0x3cec82d9	0.028870987
242	0x3e309c07	0.1724702
243	0xbae548a7	-0.0017492966
244	0x3c43a8e8	0.011942126
245	0x3c81a71f	0.01582676
246	0x3abd5248	0.0014444077
247	0x3da01256	0.07815997
248	0xbd07fea6	-0.033201836
249	0x3d4602c0	0.048342466
250	0x3a806458	0.000979553
251	0x3db0e163	0.08636739
252	0xbd825fbb	-0.063659154
253	0xb953d51f	-0.00020201922
254	0x3c4d7301	0.012539626
255	0xba87bc36	-0.0010355774

in_layer0.layers.2.bias f4 [32]
0	0xbc8c1877	-0.01710151
1	0xbdd968af	-0.1061567
2	0xbd404cb5	-0.046948154
3	0x3cafda8c	0.021466516
4	0xbda5a49d	-0.08088038
5	0xbdaf54ab	-0.08561071
6	0xbe0285c3	-0.12746339
7	0xbd6ce802	-0.057838447
8	0xbc698c90	-0.014254704
9	0xbd5a7170	-0.05333084
10	0xbd3d3134	-0.046189502
11	0xbdadcdda	-0.08486529
12	0x3ad105b8	0.0015947139
13	0x3d8171bf	0.063205235
14	0xbd513d7c	-0.051084027
15	0xbd89238b	-0.066962324
16	0xbaa04694	-0.0012228065
17	0xbe1a30c2	-0.15057662
18	0x3d5d9f93	0.05410726
19	0xbe770bf6	-0.24125656
20	0xbdab1c95	-0.08355061
21	0x3d678444	0.056522623
22	0xbd07783e	-0.033073656
23	0xbda6b229	-0.0813945
24	0xbb043e9a	-0.0020178915
25	0xbda61a48	-0.081104815
26	0xbb919604	-0.004442932
27	0xbd0dcba6	-0.034618042
28	0xbcdda811	-0.02705768
29	0xbd837199	-0.064181514
30	0x3d4fdcee	0.050747804
31	0xbe24da57	-0.16098915

in_layer1.layers.0.weight f4 [32, 2]
0	0xbef16d07	-0.47153494
1	0x3e41a53a	0.18910685
2	0x3eeaa558	0.45829272
3	0xbf436f20	-0.7634144
4	0xbe922bc9	-0.2854903
5	0x3f2de6c9	0.67930275
6	0xbde6ab42	-0.112631336
7	0x3ee7c828	0.45269895
8	0xbb54cdf9	-0.0032471402
9	0xbbac066b	-0.0052497885
10	0xbe888ceb	-0.26670012
11	0x3f35bcab	0.7099101
12	0x3e7b663c	0.24550718
13	0xbf02e76e	-0.51134384
14	0xba2f78f3	-0.0006693743
15	0x3adde7aa	0.0016930003
16	0xbd54a85b	-0.05191837
17	0xbd76e40c	-0.060276076
18	0xbe7a64d5	-0.24452527
19	0x3f1791bb	0.5920674
20	0xbe28922a	-0.16462007
21	0xbe0ea422	-0.13929799
22	0xbe5abdcd	-0.21361466
23	0x3e0733b8	0.13203323
24	0xbb95ce3e	-0.004571705
25	0xbb66deb9	-0.0035227968
26	0x39bc2368	0.00035884534
27	0x3945672e	0.00018825821
28	0xbaadd9a6	-0.0013263717
29	0xb83192bc	-4.2336746e-05
30	0x3ece9b03	0.4035264
31	0xbf5aebb6	-0.85515916
32	0xbe36869f	-0.17824791
33	0xbe21f8b2	-0.15817526
34	0xbdd4fac7	-0.103993945
35	0x3f28f6b2	0.6600143
36	0x3f04711c	0.5173509
37	0xbf458ed6	-0.77171075
38	0x3c3293f6	0.010899534
39	0x3c1e7f6c	0.009673934
40	0x3d001f93	0.03128011
41	0x3ea78550	0.32718897
42	0x3c6c9a20	0.014441043
43	0xbeedc119	-0.46436384
44	0x3e0e64b7	0.13905607
45	0xbe83d51c	-0.25748527
46	0x3e9d30e5	0.30701366
47	0xbe9da223	-0.30787763
48	0x3e89529b	0.26820835
49	0x3f3cf99f	0.7381839
50	0x3f0f2a7e	0.5592421
51	0xbf620519	-0.8828903
52	0x3ba9124e	0.005159653
53	0x3b3de51a	0.0028975667
54	0x3b06e135	0.0020581011
55	0x3c5692a5	0.013096486
56	0x3dc16e1a	0.09444828
57	0xbe6f7d2f	-0.23387598
58	0xbe101e3b	-0.14074032
59	0xbde470d1	-0.111543305
60	0x3e5511d6	0.20807585
61	0xbead1032	-0.3380142
62	0xbdf6aa08	-0.1204415
63	0xbdac8f66	-0.084257886

in_layer1.layers.0.bias f4 [32]
0	0x3ed32cd9	0.41245154
1	0x3e5c332b	0.21503894
2	0xbe965a63	-0.29365835
3	0x3e76ba27	0.24094449
4	0x3bf11980	0.007357776
5	0x3e520851	0.20510985
6	0xbe237402	-0.15962222
7	0x3a002a90	0.0004889155
8	0x3c83a890	0.016071588
9	0x3eabfb5e	0.33590215
10	0xbe1504bc	-0.14552587
11	0x3ebfed64	0.37485802
12	0xb9bb3b83	-0.0003571176
13	0xb94158d1	-0.00018439001
14	0x3b259a63	0.0025269024
15	0x3eef925b	0.46791348
16	0xbdeed659	-0.11661977
17	0xbddef17e	-0.10885905
18	0x3e63518f	0.22199081
19	0xbcb3a180	-0.021927595
20	0x3d42971c	0.04750739
21	0x3dd0cccf	0.10195314
22	0x3df46cae	0.119347915
23	0xbeef9314	-0.467919
24	0xbf0154f6	-0.50520265
25	0x3e31a796	0.17349085
26	0x3c34665a	0.011010731
27	0xbc71b70e	-0.014753116
28	0xbe00bd49	-0.12572207
29	0xbe5bf40c	-0.21479815
30	0xbe9c5237	-0.30531475
31	0xbdb36ced	-0.0876101

in_layer1.layers.2.weight f4 [32, 32]
0	0x3de2ddc0	0.11077452
1	0xbe31edb1	-0.17375828
2	0x3dd43b1e	0.10362838
3	0x3e92ea73	0.28694496
4	0x39fb1337	0.00047888767
5	0x3d6f282f	0.05838793
6	0xbdbdf271	-0.09274758
7	0xb9be7b49	-0.0003633148
8	0x3cc6b984	0.024258383
9	0x3cd0cf36	0.02548943
10	0xbaf6a244	-0.001881667
11	0x3e3d4743	0.18484215
12	0x3b9ff976	0.004882033
13	0xba8a3495	-0.0010544235
14	0xba29a511	-0.0006471435
15	0xbe21a95a	-0.15787259
16	0xbcf4356c	-0.02981063
17	0x3e5f84f8	0.21828067
18	0xbe2dc25c	-0.16968673
19	0x3b022951	0.0019861052
20	0x3e52252f	0.20521997
21	0xbd253a9e	-0.040339105
22	0xbcb53636	-0.022120576
23	0xbd5dafd6	-0.05412277
24	0x3bd6874f	0.0065468918
25	0xbe702ebb	-0.23455326
26	0xbc19fe9f	-0.009399085
27	0x3a92bb29	0.0011194694
28	0x3c8ab42e	0.01693162
29	0xbc99a1e2	-0.01875395
30	0xbd594e5c	-0.053053245
31	0x3b39f269	0.0028373247
32	0x3bea0f52	0.0071429396
33	0xbca6b8df	-0.020351825
34	0x3be3d32f	0.0069526653
35	0x3b819c55	0.003955404
36	0xba4ebe2e	-0.00078866153
37	0xbc754b27	-0.014971531
38	0xbc492d35	-0.012278845
39	0x3aa02be9	0.0012220117
40	0xbb8fb42e	-0.0043854928
41	0xbd44ac61	-0.048015956
42	0xbc06c1f2	-0.008224951
43	0x3c78a020	0.0151748955
44	0x3a4c33c8	0.00077896984
45	0x3923f0f8	0.00015634659
46	0x3a0b610d	0.0005316891
47	0xbdc1c8f8	-0.0946216
48	0xbbdbe8c4	-0.0067110974
49	0x3b6d4cfe	0.003620922
50	0x3d795550	0.060872376
51	0x3a60e9b6	0.00085797475
52	0x3beab166	0.007162261
53	0xbc1ad4c0	-0.009450138
54	0x3bdf5971	0.006816082
55	0xbbfd8ef7	-0.00773799
56	0x3cb06901	0.021534445
57	0x3cf4813e	0.029846784
58	0xba9a1637	-0.0011755888
59	0x3a4f866f	0.00079164555
60	0xbc138fd4	-0.009006459
61	0xbc0b1275	-0.008488287
62	0xbbebf160	-0.007200405
63	0xbc0acac0	-0.008471191
64	0xbcf0c887	-0.029392494
65	0xbd5d713e	-0.054063074
66	0xbcaf0c14	-0.021368064
67	0x3d392231	0.045198623
68	0x37af51ae	2.089966e-05
69	0xbd24efd6	-0.040267788
70	0x3cfaad79	0.030600296
71	0xb996c27c	-0.00028755132
72	0x3b7b6c4f	0.0038364117
73	0x3cd4bb7e	0.02596831
74	0xbc1748e1	-0.009233684
75	0xbd202167	-0.039094355
76	0xba3547c7	-0.00069152977
77	0x3892e058	7.00361e-05
78	0x39898738	0.00026231422
79	0xbc013b86	-0.007887727
80	0xbc857b27	-0.016294075
81	0xbd0d4ea7	-0.034498837
82	0xbbc78919	-0.0060893414
83	0xb99bd014	-0.00029718934
84	0x3d292e1d	0.041303743
85	0x3d0336db	0.032034736
86	0x3bb698e4	0.005572425
87	0x3cbc719c	0.023003392
88	0x3c9186ec	0.017764531
89	0xbccc6293	-0.024949348
90	0x3a4a3ba8	0.0007714578
91	0xbad2425d	-0.0016041506
92	0x3cb6143a	0.022226442
93	0xbaf4ccb8	-0.0018676734
94	0x3cd07d86	0.02545048
95	0x3c301555	0.010747273
96	0xbc10cdee	-0.00883816
97	0xbe43b19a	-0.19110718
98	0x3d86a31d	0.0657408
99	0xbd249ee3	-0.04019059
100	0xb8d101f0	-9.9662575e-05
101	0x3e859a0f	0.260941
102	0xbe41df42	-0.18932822
103	0x3a1318e4	0.0005611314
104	0x3d9a23f6	0.0752639
105	0x3e80a023	0.25122175
106	0xbcd64e3f	-0.026160358
107	0x3e171118	0.14752614
108	0x3b9c2cd5	0.0047660866
109	0xba14d3d3	-0.0005677316
110	0x38f6e777	0.00011773308
111	0xbe072539	-0.13197793
112	0x3d206e89	0.039167915
113	0x3e69a283	0.228159
114	0xbe459808	-0.19296277
115	0x3bc74ea6	0.0060823737
116	0x3dbba819	0.091629215
117	0xbd18cbb3	-0.037303638
118	0xbc49453d	-0.012284574
119	0xbe2270f4	-0.158634
120	0xbd474abe	-0.048655264
121	0xbe2dfcd3	-0.16990976
122	0xbc2935cb	-0.010327767
123	0x3adbda52	0.0016773439
124	0xbdfe3524	-0.124124795
125	0xbd325f10	-0.04354769
126	0xbdd81288	-0.105504096
127	0x3a341c75	0.00068706955
128	0x3a64341e	0.0008705276
129	0x3b2696cb	0.002541947
130	0xb896d8e2	-7.192955e-05
131	0x3be51d8d	0.006992048
132	0x39b21564	0.00033966743
133	0x3be55bdf	0.0069994773
134	0xbb3cd8bb	-0.0028815705
135	0xba57d8dd	-0.0008233914
136	0xba359139	-0.0006926242
137	0x3c2d7e96	0.0105892625
138	0xbb555255	-0.0032550294
139	0x3b4bd970	0.0031104945
140	0x3a0e07f6	0.00054180564
141	0xb8fe1a74	-0.00012116591
142	0xb9c95324	-0.00038399652
143	0x3d6cc7cf	0.05780774
144	0xbafa531a	-0.0019098253
145	0x3b828929	0.003983636
146	0x3d32574b	0.04354028
147	0x39d95b7a	0.0004145762
148	0x3bbe0f7c	0.0058001857
149	0xbb077ff0	-0.0020675622
150	0x3bc2c4d1	0.0059438725
151	0xbb1a0be3	-0.002350562
152	0x3bb87938	0.005629685
153	0xbda6d99d	-0.08146975
154	0xbab97b3f	-0.001415111
155	0x398c3589	0.00026742768
156	0xbb1421d6	-0.0022603176
157	0xbb3525b7	-0.0027640888
158	0xbb1b26c3	-0.0023674227
159	0xbb3080ed	-0.0026932315
160	0x3cabae5a	0.02095716
161	0xbe18c67b	-0.14919464
162	0x3c6650f9	0.014057391
163	0x3d76d431	0.060260955
164	0xb9a200f1	-0.0003089975
165	0x3e20fe8a	0.15722099
166	0xbd801a00	-0.06254959
167	0x391162be	0.00013865062
168	0xbad51bb7	-0.001625887
169	0x3c9f4058	0.019439861
170	0xbca6368a	-0.020289678
171	0x3d0f4adb	0.034983497
172	0xbb6dafb9	-0.003626807
173	0x38fd2a7a	0.00012071892
174	0x39e3507b	0.00043356777
175	0xbe19d412	-0.15022305
176	0xbcd0cd09	-0.025488393
177	0x3d98baea	0.07457526
178	0xbe1ff2ec	-0.15620011
179	0xbb1a3653	-0.0023530915
180	0x3cad7469	0.021173673
181	0xbd3ab796	-0.045585237
182	0xbcf9fdef	-0.030516593
183	0xbd572e93	-0.05253465
184	0x3db528ad	0.08845649
185	0xbe3c3e1f	-0.18383072
186	0x3b5fdb4a	0.0034157806
187	0xb96f924d	-0.00022847317
188	0xbcec6c27	-0.028860165
189	0xbcd215e9	-0.025645213
190	0xbd5ed8aa	-0.054405846
191	0xbc546df4	-0.012965668
192	0x3c20fd80	0.009826064
193	0xbe29d549	-0.16585268
194	0x3b8c8eea	0.0042894976
195	0xbbb2e7c2	-0.0054597566
196	0x391dfa78	0.00015065994
197	0x3dd6fe62	0.104977384
198	0xbdbca6eb	-0.092115246
199	0xb9abbb8c	-0.00032755395
200	0x3b468638	0.0030292403
201	0xbc935930	-0.017986864
202	0xbb6aca61	-0.0035826194
203	0x3d5bd58b	0.053670447
204	0xba6400db	-0.0008697637
205	0xb9537aaa	-0.00020168224
206	0xb8b97e1e	-8.8449786e-05
207	0xbe2ffd94	-0.17186576
208	0xbcb5beaf	-0.022185652
209	0x3d3a7399	0.0455204
210	0xbe388a7e	-0.1802158
211	0xba900c77	-0.0010990043
212	0x3b3d800e	0.0028915438
213	0xbd4754c3	-0.04866482
214	0xbd02121b	-0.031755548
215	0xbdb16b65	-0.08663062
216	0x3d308b3f	0.043101545
217	0xbe56503e	-0.20929047
218	0xbb377d79	-0.0027998372
219	0xb949d87b	-0.00019249499
220	0xbc4baf3f	-0.012431919
221	0xbcc6b9f0	-0.024258584
222	0xbd78a8bb	-0.06070779
223	0xbbf08b38	-0.007340815
224	0x3d1ee831	0.038795654
225	0xbe19ef5a	-0.15032712
226	0x3bcb685e	0.00620751
227	0xbcab108e	-0.020881917
228	0xb96e5937	-0.00022730684
229	0x3d6641ac	0.056214973
230	0xbd67a68e	-0.056555323
231	0xb91a1f52	-0.00014698252
232	0x3cd3a90e	0.025837447
233	0x3e44c789	0.19216742
234	0xbc3c670f	-0.01149918
235	0xbc0ac179	-0.008468979
236	0xbae537d9	-0.0017487957
237	0x38d21d38	0.00010019023
238	0x387d5e94	6.0407983e-05
239	0xbe24edae	-0.16106293
240	0x3cdd0485	0.026979694
241	0x3dbddeab	0.09270986
242	0xbe27aa93	-0.16373663
243	0xbb217068	-0.002463365
244	0x3dac49a5	0.08412484
245	0xbdb9dd62	-0.090754285
246	0xbcfd53ae	-0.03092369
247	0xbd21dedd	-0.03951918
248	0x3d0c1b7c	0.0342059
249	0xbe627fb6	-0.2211903
250	0xba9d7b14	-0.001201483
251	0x395ff0c4	0.0002135663
252	0x3c2444e5	0.010026191
253	0xbd634dd1	-0.055494133
254	0xbd1eafc5	-0.038741846
255	0xbcce5de7	-0.02519126

in_layer1.layers.2.bias f4 [32]
0	0x3e23e64d	0.16005822
1	0x3c5ec14c	0.01359589
2	0x3d64e47f	0.055881973
3	0x3e1e4fe1	0.15460159
4	0xbcb9c45f	-0.022676645
5	0x3c82cfb6	0.015968185
6	0x3df41138	0.11917347
7	0x3da68b4b	0.08132037
8	0x3ce4b181	0.027916672
9	0xbbb5592f	-0.005534313
10	0xbceaa076	-0.028640967
11	0xbce907a2	-0.028446022
12	0x3c0d0a72	0.008608447
13	0xbd350d0b	-0.044201892
14	0xbdb44612	-0.08802427
15	0x3e259bf5	0.16172774
16	0xbcf9d8d4	-0.0304989
17	0x3d9dd5a2	0.07706763
18	0x3b4a67ff	0.003088474
19	0x3e1eb8a6	0.15500125
20	0x3e84d298	0.2594192
21	0x3d313899	0.043266866
22	0x3e031a6b	0.12803046
23	0xbd00cc9a	-0.031445123
24	0xbb17e64d	-0.0023178041
25	0x3c84340b	0.016138097
26	0x3e02ac15	0.12760957
27	0xbd3f5cde	-0.046719424
28	0xbbdf2b95	-0.0068106153
29	0xbd585e95	-0.052824575
30	0xbc9f5f10	-0.019454509
31	0x3d5e8776	0.054328404

in_layer2.layers.0.weight f4 [32, 2]
0	0xbef4e097	-0.47827598
1	0xbe89cdf7	-0.2691495
2	0x3ec1cd5f	0.37851998
3	0xbf01a7f3	-0.50646895
4	0x3e8afc0a	0.27145416
5	0x3d5306c9	0.051520143
6	0x3db7b1d5	0.08969466
7	0x3f1f1f1b	0.6215684
8	0xbf1f98ef	-0.62342733
9	0x3f23b14d	0.63942415
10	0x3e7605f9	0.24025716
11	0xbee24ff6	-0.4420163
12	0x3e602645	0.21889599
13	0xbe4e6790	-0.20156693
14	0xbc8ea4dc	-0.017412595
15	0xbc90ca1f	-0.017674504
16	0xbe9c695c	-0.30549133
17	0x3f34878f	0.70519346
18	0x3f0c7fcb	0.54882497
19	0xbe5b92af	-0.21442674
20	0xbefbdfd1	-0.49194196
21	0x3e102c2d	0.14079352
22	0xbd5901de	-0.052980296
23	0x3ef14d15	0.4712912
24	0xbe34cc02	-0.17655948
25	0x3d9e4db4	0.077296644
26	0x3e06c216	0.13159975
27	0xbece4e54	-0.40294135
28	0xbec5b85d	-0.3861722
29	0xbe6b6e3a	-0.22991267
30	0x3c434f81	0.011920811
31	0x3c58a400	0.013222694
32	0xbe1fc744	-0.15603358
33	0x3f27d269	0.65555435
34	0x3dd85cd2	0.10564579
35	0xbe857200	-0.26063538
36	0x3dd5eae4	0.104451925
37	0xbe8b8efb	-0.27257523
38	0xbdaec2f6	-0.085332796
39	0x3f480359	0.7813011
40	0xbd7790ba	-0.060440756
41	0x3f36ea90	0.71451664
42	0x3d6e65c7	0.05820253
43	0xbe81560f	-0.2526097
44	0x3eee3dd1	0.46531537
45	0xbef4f86e	-0.47845787
46	0x3c9e255a	0.01930492
47	0x3c9da848	0.019245282
48	0x3ec37f0f	0.38182876
49	0xbf06029e	-0.52347744
50	0xbd1beee9	-0.03806964
51	0xbd19db1f	-0.037562486
52	0x3df720c7	0.12066799
53	0x3cf9f811	0.030513795
54	0x3dfc528e	0.123204336
55	0x3ec35feb	0.38159117
56	0xbcc698d2	-0.024242792
57	0xbca27de8	-0.019835427
58	0x3f0e6d0d	0.5563515
59	0xbf22e807	-0.63635296
60	0xbf0b4ee0	-0.5441723
61	0xbcbf3a0e	-0.023343112
62	0xbea12fa7	-0.31481668
63	0x3d80a49f	0.06281399

in_layer2.layers.0.bias f4 [32]
0	0xbdcf5c9d	-0.101250865
1	0xbdfa0347	-0.12207656
2	0xbf152f81	-0.5827561
3	0xbeb064b9	-0.34451845
4	0x3f349545	0.7054027
5	0xbe01d4f6	-0.12678894
6	0xbe62ec0a	-0.22160354
7	0x3d57ab45	0.05265357
8	0x3e11a018	0.14221227
9	0xbf233878	-0.6375804
10	0x3f2e9e73	0.68210524
11	0x3ea43a2b	0.3207563
12	0x3eb6ba5b	0.35689053
13	0x3e3bdbd5	0.18345578
14	0xbe2f0af8	-0.17094028
15	0xbd209a03	-0.039209377
16	0x3e82356d	0.25431386
17	0x3d7263ed	0.059177328
18	0x3da4dab2	0.08049525
19	0xbf18b0ca	-0.5964476
20	0xbe9edece	-0.3102936
21	0x3e1db858	0.15402353
22	0xbdae8f75	-0.08523456
23	0xbd6e505a	-0.058182098
24	0xbf03be6a	-0.51462424
25	0x3de55fda	0.11199923
26	0xbe796ada	-0.24357167
27	0xbf284607	-0.65731853
28	0x3d59cda8	0.053174645
29	0x3e9ed7fc	0.31024158
30	0xbec1906d	-0.378055
31	0xbeadb22b	-0.33924994

in_layer2.layers.2.weight f4 [32, 32]
0	0x3c27a8bb	0.0102331
1	0x3c25ad66	0.010112142
2	0x3b85f5d7	0.0040881443
3	0xbc2db16f	-0.0106013855
4	0x3ca43284	0.020043619
5	0x3d102403	0.035190593
6	0x3cd1c2fb	0.02560567
7	0x3a4b65e3	0.0007759018
8	0xbd0374a2	-0.03209365
9	0xb912ebbe	-0.00014011466
10	0x3b5eac8d	0.003397736
11	0x3d1f906e	0.0389561
12	0xbc53aeb2	-0.012920069
13	0x39e066c0	0.00042801164
14	0x3c2ebfa2	0.010665806
15	0x3845a898	4.7125475e-05
16	0xbdb485f2	-0.088146105
17	0x3d06aeb1	0.032881442
18	0x3c4bf9aa	0.012449661
19	0x3c81aa67	0.015828324
20	0xbcb972e2	-0.022637788
21	0x3be61608	0.0070216693
22	0xbde1450f	-0.109995
23	0xba769e90	-0.0009407783
24	0x3d69043a	0.056888796
25	0x3a60bb24	0.0008572808
26	0x3b8ed27b	0.0043585873
27	0xbb814f67	-0.003946233
28	0x3b7ee59a	0.0038894177
29	0xbbfe0fc0	-0.0077533424
30	0x3c2b4b0f	0.010454907
31	0x3cc23e04	0.023711212
32	0xbaa1c934	-0.0012343288
33	0x3c2f4252	0.010696964
34	0xbb045c93	-0.002019678
35	0x3cca70ef	0.024712054
36	0xbbc1c3c2	-0.0059132287
37	0xbc734bbe	-0.014849601
38	0xbba4b4e1	-0.0050264453
39	0x3afd3efe	0.0019321141
40	0xbb4807de	-0.0030522267
41	0x3c2fdd1e	0.010733871
42	0xbabf845e	-0.0014611592
43	0xbc2e45ca	-0.010636756
44	0x3a4766c6	0.0007606562
45	0x3c2ff192	0.010738747
46	0xba996444	-0.0011702855
47	0xb8c5fbf0	-9.440619e-05
48	0x3b806018	0.0039177053
49	0xbb80e6a3	-0.003933744
50	0xbb7f668f	-0.0038971042
51	0xba90f0cb	-0.001105809
52	0xbb1b53e4	-0.0023701126
53	0xbb8aa19a	-0.00423069
54	0x3d4008d6	0.046883427
55	0xbadb71c0	-0.0016742274
56	0xbcc4e995	-0.024037162
57	0x38dc0bd2	0.00010492619
58	0xbaeb4591	-0.001794981
59	0x3b320212	0.0027161879
60	0x3aebc7f4	0.0017988668
61	0xbd06ce92	-0.032911845
62	0xbb062fb1	-0.0020475204
63	0xbb7743b3	-0.003772956
64	0x3a2c4e44	0.0006572942
65	0xbca13f97	-0.019683642
66	0xbb26f610	-0.0025476255
67	0x3cbc9632	0.023020837
68	0x3c10a587	0.008828527
69	0xbb7b98de	-0.0038390676
70	0xbc10db6c	-0.008841377
71	0xb985a0e7	-0.00025487618
72	0x3bd2125f	0.0064108814
73	0xbd5d854c	-0.0540822
74	0x3c80f3e4	0.015741296
75	0xbc8e9b75	-0.017408112
76	0x3c1c9b2b	0.009558479
77	0xbd0d1778	-0.03444621
78	0x3a9fa267	0.0012179137
79	0xb9b8076a	-0.0003510074
80	0xbc07bd9f	-0.008284955
81	0xbc3c669e	-0.011499075
82	0xbc5fe3e3	-0.013665172
83	0x3c84e73d	0.016223544
84	0x3c1a17e4	0.00940511
85	0xbc37e4c2	-0.011223974
86	0x3b616186	0.0034390404
87	0x3a2a7648	0.00065026106
88	0xbd2d6ce3	-0.04234017
89	0xba111165	-0.0005533903
90	0xbb0e16df	-0.0021681113
91	0x3b5fd12f	0.0034151783
92	0xbbaa594f	-0.0051986347
93	0x3da965da	0.0827138
94	0xba6a15b0	-0.0008929623
95	0x395cb071	0.00021046565
96	0x3d5afb0e	0.05346208
97	0x3dcaac87	0.09896188
98	0xbda1a9f2	-0.078937426
99	0x3ddd653f	0.10810327
100	0x3e2a67bc	0.16641134
101	0xbca8d7b7	-0.020610673
102	0xbdb7a28d	-0.08966551
103	0x3b747808	0.003730299
104	0x3c5f51ae	0.013630314
105	0xbdc469c4	-0.09590486
106	0xbb2ec3be	-0.0026666964
107	0x3e3e72f3	0.18598537
108	0xbdcb6904	-0.099321395
109	0x3d5449db	0.051828247
110	0xbd1af544	-0.03783156
111	0x3b35fa69	0.0027767664
112	0x3e436226	0.1908041
113	0x3ce59a48	0.028027669
114	0xbc77237e	-0.015084146
115	0x3cc4524d	0.023965025
116	0x3dc77279	0.09738631
117	0xbd90e525	-0.07074956
118	0x3c63f989	0.013914474
119	0xba8835f7	-0.0010392059
120	0xbe263280	-0.16230202
121	0x3bc2e177	0.0059472877
122	0xbd1359fa	-0.03597448
123	0xbdb355be	-0.087565884
124	0xbafca47a	-0.0019275092
125	0xbe34a88d	-0.17642422
126	0x3d5365d6	0.05161079
127	0xbe1fd2d4	-0.15607768
128	0x3d210706	0.03931334
129	0x3da103d2	0.07862057
130	0x3d86b35a	0.06577177
131	0xbe96e351	-0.29470304
132	0xbe0674c9	-0.13130488
133	0x3e0a0ae6	0.1348072
134	0x3e0254f0	0.12727714
135	0x3a447082	0.00074935716
136	0xbe7bed2c	-0.24602193
137	0x3d8f54ee	0.06998621
138	0x3b807a42	0.0039208243
139	0xbeb2707b	-0.3485144
140	0xbdd2a940	-0.10286188
141	0xbd5c04a1	-0.053715352
142	0x3d03493f	0.032052275
143	0xba83c460	-0.0010053031
144	0xbed51d29	-0.4162381
145	0x3c27ac27	0.010233915
146	0x3d4ac91a	0.04950819
147	0xbd75577e	-0.059897892
148	0xbe8687f5	-0.26275602
149	0x3d50e6ec	0.051001474
150	0x3ccbbbe7	0.024869872
151	0xba80cd3e	-0.0009826792
152	0x3d426a62	0.047464736
153	0x39cedf81	0.00039457905
154	0x3d62e764	0.055396453
155	0xbd1fadbd	-0.03898405
156	0x3bbf1104	0.005830886
157	0xbca69a16	-0.020337146
158	0x3d7a2426	0.06106963
159	0x3d9f623c	0.077824086
160	0xba7bd382	-0.0009606407
161	0xbd603bbc	-0.054744467
162	0x3bb26437	0.0054440754
163	0xbc397ff4	-0.01132201
164	0x3c88d86c	0.01670476
165	0x3bfcda2e	0.0077164387
166	0xbb35f975	-0.0027767096
167	0x395cc2ce	0.00021053405
168	0x3c628379	0.013825291
169	0xbd4c9070	-0.049942434
170	0x3beedc81	0.0072894697
171	0xbbe5d9ff	-0.0070145126
172	0xbad6ad64	-0.0016378579
173	0x3cbb9d00	0.022902012
174	0xba10a946	-0.0005518388
175	0xbad8379d	-0.0016496066
176	0xbd2a4ca6	-0.041577004
177	0x3b5b3baa	0.003345231
178	0x3c0057c1	0.007833422
179	0x3c0ae91a	0.008478427
180	0xbbd54c06	-0.006509307
181	0x3be5acad	0.00700911
182	0xbcf7ae5f	-0.030234514
183	0xba3eb29f	-0.00072745414
184	0xbba5ac86	-0.005055967
185	0xba078240	-0.000516925
186	0x3bad4606	0.0052878885
187	0xbaf9daa0	-0.0019062348
188	0xbb8dd6ad	-0.00432857
189	0x3d96833c	0.0734925
190	0xb9ccd73d	-0.00039070277
191	0x3b039181	0.002007574
192	0xbe1c07f2	-0.15237406
193	0xbe3b1685	-0.1827031
194	0xbdd11823	-0.10209682
195	0x3e5b3046	0.21405134
196	0x3ec18220	0.3779459
197	0xbdb1113d	-0.08645866
198	0xbd5b5220	-0.053545117
199	0x39189f21	0.0001455513
200	0x3eaceb92	0.33773476
201	0xbdd70b35	-0.105001844
202	0x3b8cc371	0.0042957594
203	0xbd508bb6	-0.05091449
204	0x3d34404e	0.04400664
205	0xbd98d6a3	-0.07462814
206	0xbceb3f16	-0.028716605
207	0xbaf228e0	-0.0018475316
208	0x3de027f7	0.10945123
209	0xbe1da023	-0.15393119
210	0xbdbac5cf	-0.0911976
211	0x3e4c08c0	0.19925213
212	0xbc883313	-0.016625917
213	0xbc9308d4	-0.017948546
214	0xbe445ada	-0.19175282
215	0x398fc3db	0.0002742101
216	0xbe43b893	-0.19113378
217	0xbc86ba71	-0.016446324
218	0x3de42470	0.111397624
219	0x3e0ac818	0.13552892
220	0xbb358214	-0.002769594
221	0xba91973f	-0.0011107697
222	0xbca2ec33	-0.01988802
223	0xbd063452	-0.03276474
224	0x3b964240	0.0045855343
225	0xbd456670	-0.048193395
226	0x3c23b307	0.009991414
227	0xbd7a5603	-0.061117183
228	0x3994afa8	0.00028359634
229	0x3d031095	0.031998236
230	0x3c83a4e5	0.016069839
231	0xba0de7bf	-0.0005413256
232	0xbd033716	-0.032034956
233	0x3cd6b5dd	0.026209766
234	0x3c22a394	0.009926695
235	0x3d1e5e0f	0.03866392
236	0xbc250725	-0.010072504
237	0x3d4d42e2	0.050112613
238	0x3ba4bbf2	0.0050272876
239	0xba71e595	-0.0009227631
240	0xbd145ad3	-0.03621943
241	0x3c910f9b	0.017707637
242	0x3c9336ee	0.017970528
243	0x3b54157c	0.0032361438
244	0xba4515a7	-0.000751818
245	0x3c97422d	0.018464172
246	0x3d0f31c9	0.03495959
247	0x3a182f57	0.0005805394
248	0x3d5e4629	0.05426613
249	0xba645852	-0.00087106705
250	0x3b85c80d	0.004082686
251	0xbae11318	-0.0017171828
252	0xbb8bb86b	-0.0042639277
253	0xbdde75e6	-0.10862331
254	0x3bbf1ac4	0.005832048
255	0x3c2c63f0	0.010521874

in_layer2.layers.2.bias f4 [32]
0	0x3da715ea	0.08158477
1	0xbba5af8b	-0.0050563267
2	0xbd240bd3	-0.04005034
3	0x3e46505e	0.19366595
4	0xbdcff24f	-0.101536386
5	0x3c3951bb	0.01131099
6	0x3c131505	0.008977179
7	0x3dc440b0	0.09582651
8	0xbcab0802	-0.020877842
9	0x3e5b3397	0.21406399
10	0xbba7d98a	-0.005122368
11	0x3b7dfff7	0.0038757303
12	0x3d210b71	0.039317552
13	0xbc89b26a	-0.016808707
14	0xbd416777	-0.047217812
15	0xbdf180f8	-0.11792177
16	0x3d957627	0.072979264
17	0x3dec9831	0.11552466
18	0x3b958360	0.0045627803
19	0xbcf90b95	-0.03040103
20	0xba1f4286	-0.00060752814
21	0x3dc8e631	0.098095305
22	0x3d3d9964	0.046288863
23	0xbccbec04	-0.024892814
24	0xbe642055	-0.22277959
25	0x3d614306	0.05499556
26	0xbe1dfe28	-0.15428984
27	0xbe7226ba	-0.23647586
28	0xbd03dcd6	-0.032193027
29	0x3d48d32e	0.04902952
30	0x3c54a69f	0.012979179
31	0xbdaaeaf2	-0.083455935

sat_layers.layer0_1.0.agg_weight f4 [3]
0	0xbe0ecc86	-0.13945207
1	0xbf0c5623	-0.54818934
2	0xbf87bfaf	-1.0605372

sat_layers.layer0_1.0.input_linear_layer1.weight f4 [32, 32]
0	0x3b7074e7	0.0036690773
1	0x3bbf2e69	0.00583439
2	0xbb89f6ec	-0.0042103436
3	0xba17fe62	-0.0005798099
4	0x3a9a44b1	0.0011769739
5	0xbb965b8b	-0.0045885495
6	0xbb141b01	-0.0022599103
7	0xb8e41f6a	-0.000108777385
8	0xbaf3900f	-0.0018582362
9	0x3ba450ed	0.00501453
10	0xbb16baf7	-0.0022999623
11	0x3bd159d6	0.006388883
12	0xbb1acdf3	-0.002362129
13	0xbb5c4b1a	-0.00336141
14	0xbaf9c141	-0.0019054787
15	0x3b1e5383	0.0024158664
16	0xbbbc436d	-0.0057453425
17	0x3bcc196a	0.0062286155
18	0x3af23de4	0.001848158
19	0x3bcc59d0	0.0062362924
20	0xbaf44ffb	-0.0018639559
21	0x3b205230	0.002446305
22	0xbafb4abe	-0.0019172055
23	0x3bc6b293	0.006063768
24	0x3b1dceb4	0.0024079503
25	0x3a91cdb2	0.0011123924
26	0xbaf7c555	-0.0018903414
27	0x3b9740be	0.004615872
28	0xbafca8eb	-0.0019276416
29	0xbb600c28	-0.0034186933
30	0x3bd166fd	0.006390451
31	0x3bcf452a	0.0063253837
32	0x37c3847a	2.33075e-05
33	0x39fb8275	0.0004797165
34	0xb8ad8457	-8.273933e-05
35	0x3729841a	1.0103942e-05
36	0x37cb28e6	2.421853e-05
37	0x38ea5220	0.000111732865
38	0x38462bbe	4.7247617e-05
39	0xb4203de0	-1.4923671e-07
40	0x36b76960	5.4660923e-06
41	0xb7bae8b5	-2.228129e-05
42	0x37884622	1.6245122e-05
43	0xb83e9cb3	-4.5445468e-05
44	0xb8b70823	-8.7276356e-05
45	0xb8a257f6	-7.741146e-05
46	0xb7d1df82	-2.501882e-05
47	0x388c1841	6.680238e-05
48	0xb8ea26d1	-0.000111652196
49	0x38cda644	9.806131e-05
50	0x389e4287	7.546419e-05
51	0x38cbca46	9.717471e-05
52	0x38ad2f36	8.2580766e-05
53	0x387b4ad4	5.9912752e-05
54	0x36fae398	7.477076e-06
55	0x35d02b80	1.5509868e-06
56	0xb835369c	-4.320462e-05
57	0x37b19087	2.1167345e-05
58	0xb7ddf383	-2.6458647e-05
59	0x38a1178a	7.681463e-05
60	0x3890185e	6.870994e-05
61	0xb97de816	-0.00024214419
62	0x3941dbdd	0.0001848782
63	0xb91128bb	-0.00013843451
64	0xbc5b15fb	-0.01337194
65	0x3ec2ed87	0.38071844
66	0x3c2a296e	0.010385854
67	0xbd4a34f7	-0.049366917
68	0xbab0a5d8	-0.001347716
69	0xbbc7faff	-0.006102919
70	0xbc7337bb	-0.01484483
71	0x3d5d7b8e	0.05407291
72	0x3ad3aa9b	0.0016148867
73	0xb9f0ac32	-0.00045904663
74	0x3ae4c244	0.0017452915
75	0x3da5b3c2	0.08090927
76	0x3c7c951f	0.015416413
77	0x3b290041	0.0025787505
78	0xbd01ef6c	-0.03172247
79	0x3baa29f1	0.005192988
80	0xb86b51b6	-5.6104465e-05
81	0x3e3d4ae1	0.18485595
82	0xb87fbc16	-6.0971906e-05
83	0x3da2041d	0.07910941
84	0xbc4483eb	-0.011994342
85	0x3ad7dc2e	0.0016468817
86	0xbbdaa8e3	-0.006672965
87	0x3df7f79a	0.12107773
88	0x3b12aa9b	0.002237952
89	0x3ae1128d	0.0017171666
90	0xbbad3391	-0.005285688
91	0xbad07242	-0.0015903192
92	0xbc56a3a8	-0.013100542
93	0x3bb8ecde	0.005643471
94	0x3a3f9c25	0.0007309339
95	0x3d81c185	0.06335739
96	0x357747b6	9.2119024e-07
97	0xb90da567	-0.00013508425
98	0xb436615c	-1.698549e-07
99	0xb4f55ccf	-4.5702333e-07
100	0x327e634d	1.4807324e-08
101	0x36ec9a16	7.051286e-06
102	0x366a0628	3.48723e-06
103	0xb7275399	-9.97344e-06
104	0x33cf9229	9.665775e-08
105	0xb576088a	-9.165457e-07
106	0x340ce703	1.3122558e-07
107	0xba284bf3	-0.0006420009
108	0xb4d78779	-4.014544e-07
109	0x35290b97	6.297427e-07
110	0x35e056c0	1.6714548e-06
111	0xb5997db8	-1.1435977e-06
112	0x358dfc33	1.0578718e-06
113	0xba06e4ba	-0.0005145777
114	0xb564018c	-8.493887e-07
115	0xba04b626	-0.00050625426
116	0x353427fa	6.71134e-07
117	0xb4550841	-1.9840174e-07
118	0x35d77eab	1.6055614e-06
119	0xba1534f3	-0.0005691789
120	0xb53e79e6	-7.09579e-07
121	0xb39ebd6a	-7.3919026e-08
122	0x36177b25	2.2572433e-06
123	0xb56808b5	-8.6439405e-07
124	0x368119b8	3.8474936e-06
125	0x35a47284	1.2252281e-06
126	0xb5952823	-1.1113046e-06
127	0xba3e7e2e	-0.0007266727
128	0xbbc6cf22	-0.0060671726
129	0x3e524954	0.20535785
130	0x3b347777	0.0027537027
131	0xbcaeedbe	-0.021353599
132	0xb9731fed	-0.00023186179
133	0x3b0e73b4	0.0021736445
134	0xbb16d8c0	-0.0023017377
135	0xbc4c32d7	-0.012463293
136	0x3b51c571	0.0032008553
137	0xba311e52	-0.0006756532
138	0x3a865ab9	0.0010250426
139	0x3d60079b	0.054694753
140	0x3bb1dd78	0.0054280125
141	0x3b0c97df	0.0021452827
142	0xbc5fda40	-0.013662875
143	0x3b8a5d1d	0.0042225257
144	0x3a575797	0.0008214651
145	0x3dbb3309	0.091405936
146	0x3a9fec98	0.0012201248
147	0x3e1bb4dc	0.15205711
148	0xbab731f7	-0.0013976683
149	0x3ad9a679	0.0016605399
150	0xbabadb89	-0.00142561
151	0x3dd2816f	0.10278594
152	0x3ace9747	0.0015761637
153	0x3adb03bc	0.0016709487
154	0x3b0c472b	0.0021404724
155	0xbb0b9436	-0.0021298057
156	0xbadd5155	-0.0016885201
157	0x3b8b7a13	0.0042564957
158	0x39ae8c5e	0.00033292448
159	0x3c5fa6fc	0.013650652
160	0x3cfb0782	0.030643228
161	0x3c751152	0.014957743
162	0x3b00dcf8	0.0019662958
163	0x3de1e621	0.11030222
164	0x3bd88d16	0.0066086156
165	0xbd1dd85e	-0.038536422
166	0xbcde2d22	-0.02712113
167	0xbd96fee6	-0.07372837
168	0x3b67f293	0.0035392388
169	0xb8ec5030	-0.00011268293
170	0xbb9b59f4	-0.004740948
171	0xbde995ce	-0.11405526
172	0xbc1b4d22	-0.009478839
173	0xbb4b6d79	-0.0031040593
174	0x3d8954c6	0.067056224
175	0xbbbc8069	-0.0057526124
176	0x3a7dac04	0.00096768164
177	0xba583769	-0.0008248003
178	0x3bcd22c3	0.0062602474
179	0xbdd7d28a	-0.10538204
180	0xbd5d692b	-0.054055374
181	0x3a3f52c5	0.00072984054
182	0x3c5d2f46	0.01350004
183	0xbdb33140	-0.08749628
184	0xbb5d8317	-0.003380006
185	0xbb2f1e3e	-0.0026720907
186	0xbd9b8304	-0.075933486
187	0x3b2a0716	0.0025944165
188	0xbc7ba22b	-0.015358488
189	0xbc5c1772	-0.013433324
190	0x3a8e7476	0.0010868448
191	0xbd8a812a	-0.06762917
192	0xbd293d81	-0.04131842
193	0x3f2dbc85	0.6786578
194	0x3da07daf	0.07836472
195	0xbe1b31cf	-0.15155719
196	0xbb362024	-0.0027790153
197	0xbd4d6fb8	-0.05015537
198	0xbd96921e	-0.073520884
199	0xbcd68ddc	-0.02619069
200	0xbbc717c5	-0.0060758316
201	0xbb231cae	-0.002488892
202	0x3b4a7466	0.0030892133
203	0x3e9f0d8d	0.31065026
204	0x3d9e3323	0.07724597
205	0x3ba9c891	0.00518138
206	0xbdc4900d	-0.09597788
207	0x3c13d9c6	0.009024089
208	0xba478dc4	-0.0007612372
209	0x3ea5fe57	0.32420608
210	0xbaecca39	-0.0018065638
211	0x3e8d25f8	0.2756803
212	0xbd55fee8	-0.05224505
213	0xba1c69af	-0.0005966676
214	0xbcf5cce9	-0.030004935
215	0x3e931858	0.2872951
216	0x3b0d60ee	0.0021572667
217	0x3aff7193	0.0019488804
218	0xbd8890b2	-0.066682234
219	0xbb29030a	-0.0025789165
220	0xbd8349f6	-0.06410591
221	0x3bd1089e	0.006379201
222	0x3bf20b9d	0.0073866383
223	0x3d700605	0.05859949
224	0x350bb1ce	5.2040275e-07
225	0x3906e6f2	0.0001286527
226	0x34681dad	2.161748e-07
227	0xb4c50065	-3.6694396e-07
228	0xb417be15	-1.4132122e-07
229	0x35b28ec9	1.3303589e-06
230	0xb2973c9d	-1.7606277e-08
231	0xb63fd759	-2.8586567e-06
232	0x32a9226f	1.9689848e-08
233	0x32cec37c	2.4070452e-08
234	0x34fbf51b	4.693073e-07
235	0xb99358b1	-0.00028104105
236	0xb4d5efad	-3.984873e-07
237	0x34cb4cf9	3.7867702e-07
238	0x34acd802	3.2194663e-07
239	0xb54b045b	-7.562973e-07
240	0x35616894	8.3971213e-07
241	0xb91e97db	-0.00015124625
242	0xb5559207	-7.956118e-07
243	0xb9355c13	-0.00017295805
244	0xb4c90f3c	-3.7450252e-07
245	0xb52bb9a9	-6.3972635e-07
246	0x34e06fe0	4.180465e-07
247	0xb8dca508	-0.00010521157
248	0x33c1404e	8.99896e-08
249	0xb301ee5a	-3.0251933e-08
250	0x33403176	4.4748468e-08
251	0xb517e43b	-5.6584e-07
252	0x34015779	1.2045884e-07
253	0x34f0dc37	4.486371e-07
254	0xb4ec3307	-4.3995553e-07
255	0xb98089be	-0.00024516688

sat_layers.layer0_1.0.input_linear_layer1.bias f4 [32]
0	0xbbf49ed2	-0.007465222
1	0xb6994742	-4.568051e-06
2	0xbde9f229	-0.114231415
3	0xba00b88e	-0.00049103133
4	0x3d3e1d84	0.046414867
5	0x3db5807e	0.088623986
6	0xbd0d5cbf	-0.034512278
7	0xb90ad23f	-0.00013239028
8	0x3cc5e862	0.02415866
9	0xbe157dfc	-0.1459884
10	0x3dc7f42a	0.097633675
11	0xbcaba550	-0.02095285
12	0xbb89ec7a	-0.0042090984
13	0x3dfc823c	0.12329528
14	0x3d9aa2ef	0.07550608
15	0x37d5b55d	2.5476033e-05
16	0xb8235c7d	-3.8948365e-05
17	0x3dc8c83f	0.09803819
18	0x3e1bb015	0.15203889
19	0xbae30aa7	-0.00173219
20	0xb6e4d005	-6.819146e-06
21	0x3c8056d0	0.015666395
22	0x3e39c981	0.18143274
23	0xb7330452	-1.0670237e-05
24	0x3dc0620e	0.093937024
25	0xb9f1e290	-0.00046135904
26	0xb968909f	-0.0002217912
27	0x3b8910c8	0.0041829087
28	0x3e36aa61	0.17838432
29	0xba70a71a	-0.00091801735
30	0xb9526b4e	-0.00020067135
31	0x3e6b1ab9	0.22959413

sat_layers.layer0_1.0.input_linear_layer2.weight f4 [32, 32]
0	0x3c0ee365	0.008721207
1	0xbd218516	-0.03943356
2	0x3c963427	0.018335415
3	0xbcee522d	-0.029091919
4	0x3c1c6efb	0.009547944
5	0x3d8b8062	0.068115965
6	0x3d4e8fa7	0.050429966
7	0x3ca2b515	0.019861737
8	0x3c3eed4f	0.011653258
9	0x3b430c9c	0.0029762154
10	0x3b844147	0.004036102
11	0x3ddd6fad	0.10812316
12	0x3d02944d	0.031879712
13	0x3be1b0e8	0.006887544
14	0xbc2bb1da	-0.010479415
15	0x3bc1ae5b	0.0059106774
16	0xbb20efa2	-0.0024556895
17	0x3dcb7729	0.09934837
18	0x3be0825b	0.006851477
19	0xbd99fde6	-0.075191304
20	0xbcce7784	-0.025203474
21	0x3b71b517	0.003688162
22	0x3b4df376	0.0031425632
23	0x3ca49664	0.020091243
24	0xbbd6e754	-0.006558338
25	0x3bd6ac77	0.006551321
26	0xbc9f3606	-0.01943494
27	0x3c099247	0.008396692
28	0xbc757f00	-0.014983892
29	0x3bdcea5a	0.006741804
30	0x3b91b37b	0.0044464446
31	0x3ddbe245	0.10736517
32	0x3af6d0b5	0.001883051
33	0x3da4c024	0.080444604
34	0xbd4d8dfe	-0.050184242
35	0xbd1c36d6	-0.038138233
36	0x3ca09f24	0.019607134
37	0x3e408614	0.18801147
38	0x3e521f74	0.20519811
39	0x3c6c4984	0.014421824
40	0x3c83d63d	0.016093368
41	0xbbb0ce5c	-0.0053956937
42	0x3c9f01b1	0.019409986
43	0xbd9ee8e6	-0.077592656
44	0xbe3200b5	-0.17383082
45	0x3c0dfb35	0.008665849
46	0xbcf551af	-0.029946176
47	0x3c5b3172	0.013378488
48	0xbbc232c3	-0.0059264614
49	0x3d06f78c	0.032950923
50	0xbc39935f	-0.01132664
51	0xbcd67be3	-0.02618212
52	0x3d5c00f2	0.05371184
53	0x3c112cec	0.008860808
54	0x3a889063	0.0010419007
55	0x3aff7996	0.0019491191
56	0xbaeb7320	-0.0017963387
57	0x3c469023	0.012119326
58	0x3b97ab37	0.0046285647
59	0xb9bd6946	-0.00036127324
60	0x3e0c47ba	0.13699237
61	0x3cd3ff64	0.025878616
62	0xbb6bf7e2	-0.0036005904
63	0x3d33e5c6	0.0439203
64	0xb9f6a56e	-0.0004704403
65	0xbda8d31b	-0.0824339
66	0x3d87fd1c	0.06640074
67	0xbc7b1d49	-0.015326806
68	0x3d0bf9f9	0.03417394
69	0x3e0a23f4	0.13490278
70	0x3d4ca7dd	0.049964774
71	0xbdc76896	-0.09736745
72	0x3d38e61b	0.04514132
73	0xbba23e36	-0.004951264
74	0x3b200c62	0.0024421443
75	0x3e47dbf4	0.19517499
76	0xbdd7e05f	-0.10540842
77	0x3cdc2ddd	0.026877338
78	0x3c609c76	0.013709178
79	0x3c886ac6	0.016652476
80	0x3af75b20	0.0018871762
81	0xbd0fbd51	-0.035092656
82	0x3c9621b5	0.01832662
83	0x3df48ad4	0.11940542
84	0x3db98ce5	0.090600766
85	0x3b1693c1	0.0022976252
86	0x3c9dab5d	0.019246751
87	0xbe1fa2e3	-0.1558948
88	0xba197365	-0.0005853682
89	0x3c0e68c8	0.008691974
90	0x3b5eb450	0.0033981986
91	0x3c350788	0.011049159
92	0x3dfa49bf	0.12221097
93	0x3d4b2a74	0.049601033
94	0x3a83c4c9	0.0010053153
95	0x3e1eb1b0	0.1549747
96	0x3c8609a5	0.01636202
97	0x3e700cb4	0.23442346
98	0x3d5661b3	0.052339267
99	0x3c622523	0.013802799
100	0xbce0a296	-0.027421277
101	0xbe66f6ec	-0.2255513
102	0xbe48ae8f	-0.19597839
103	0xbce9edd7	-0.028555794
104	0xbd1e73f3	-0.038684797
105	0x35105426	5.376663e-07
106	0x3a85da62	0.0010212178
107	0x3dee499b	0.11635133
108	0x3d8bda57	0.068287544
109	0x3bc31902	0.005953909
110	0xbcae103e	-0.02124798
111	0x3b40df7a	0.0029430077
112	0x3ac9e114	0.0015402162
113	0x3d79060d	0.060796786
114	0x3b87fa4d	0.004149711
115	0x3dffadd0	0.12484324
116	0xbe5fec0c	-0.21867388
117	0xbc232438	-0.009957366
118	0xbaedeb90	-0.0018151868
119	0x3e08eb98	0.13371122
120	0xbb388fe7	-0.0028161944
121	0x3c3e21fc	0.011604782
122	0xbe880a96	-0.26570576
123	0x3aa50ece	0.0012592913
124	0xbdf8696d	-0.12129483
125	0x3cc0f5ac	0.023554645
126	0xbcb9639a	-0.022630502
127	0xbb49a5dd	-0.0030769028
128	0xbb76bb6b	-0.003764833
129	0x3ccb0dd9	0.024786877
130	0x3baf30d6	0.005346398
131	0xba84d8bd	-0.0010135394
132	0x39b55b98	0.00034591253
133	0x3aa8c4a2	0.0012875984
134	0x3b09f1e1	0.0021048712
135	0xba9cfcb7	-0.001197717
136	0xb97264b7	-0.00023116438
137	0xbb8adf8f	-0.004238076
138	0xb9a785ae	-0.0003195232
139	0xbcadc737	-0.021213157
140	0x3a0143fa	0.0004931089
141	0x3aded1dc	0.0016999799
142	0x3b4ff609	0.0031732342
143	0xbb2136fb	-0.0024599421
144	0x3b59ce55	0.0033234556
145	0xbc527ebb	-0.012847598
146	0xb801d5ac	-3.0954994e-05
147	0xbc124286	-0.008926993
148	0x3aead1be	0.0017915291
149	0xbabd6e2c	-0.001445239
150	0x3a1d02c8	0.0005989489
151	0xbcf7d57a	-0.03025316
152	0x3b0ec6a3	0.0021785877
153	0xb8071e6f	-3.221485e-05
154	0x3babf54f	0.005247749
155	0xbae6a3b9	-0.00175964
156	0x3b7c5444	0.0038502375
157	0xba898cc2	-0.001049422
158	0xbaa01018	-0.0012211828
159	0xbce3af0a	-0.027793426
160	0xbb20a9d7	-0.0024515295
161	0xbdb58371	-0.08862961
162	0xbb440b0e	-0.0029913816
163	0xbb61900c	-0.0034418134
164	0xba71d791	-0.00092255423
165	0xbc7fff0c	-0.015624773
166	0xbc802932	-0.015644643
167	0xbb1a6026	-0.0023555844
168	0x3bb9c726	0.0056694923
169	0x3abc8301	0.0014382304
170	0xbb91a7b0	-0.0044450387
171	0xbc92b2d9	-0.017907547
172	0x3ac83116	0.0015273418
173	0xbbd0a7f4	-0.006367678
174	0x3b6ee539	0.0036452545
175	0xbb6c31ab	-0.0036040347
176	0x3a8cf813	0.0010755084
177	0x3d2ffadb	0.042963844
178	0xbb33c2bb	-0.00274293
179	0x3ddaeca3	0.10689666
180	0xbc50cbcb	-0.0127439005
181	0xbb3c4db3	-0.0028732836
182	0x3ae5b0d6	0.0017524015
183	0xbb1dc39a	-0.0024072886
184	0x3b25c05c	0.0025291657
185	0xbbaf6597	-0.0053526866
186	0xbc449bf9	-0.012000077
187	0xbb21beeb	-0.0024680446
188	0xbc314603	-0.010819915
189	0xbbdee994	-0.006802747
190	0x3b11dae5	0.0022255715
191	0x3d059de2	0.032621272
192	0x3a4ad5b4	0.0007737533
193	0x3d86b161	0.06576801
194	0x38ae49c4	8.3107065e-05
195	0x3abe92cb	0.0014539597
196	0x3a8cbfc3	0.0010738302
197	0x3befb3ee	0.0073151505
198	0xb9e50808	-0.00043684267
199	0x3bdb1545	0.006685885
200	0x399a3406	0.0002941193
201	0x3afd7ccb	0.0019339559
202	0x3b1171ba	0.002219303
203	0x3c6d60c4	0.014488403
204	0xbc10a28c	-0.008827817
205	0x3a751353	0.0009348888
206	0x39601f2c	0.00021373917
207	0xb9605f3f	-0.00021397787
208	0xbb173982	-0.0023075049
209	0xbd5e94b5	-0.054341037
210	0x3a875ec7	0.0010327928
211	0xbd7fec03	-0.062480938
212	0x39b6fddf	0.00034902894
213	0x3ae32a06	0.001733125
214	0x3a883dea	0.0010394428
215	0xbd4be936	-0.049782954
216	0xbb1fef10	-0.0024403967
217	0x3a679068	0.0008833469
218	0xbc3b1e1f	-0.011420756
219	0x3b14b5da	0.00226914
220	0x3b5e4c8e	0.0033920142
221	0x39a9ee98	0.00032411958
222	0x3b09b597	0.0021012777
223	0x3db1227e	0.08649157
224	0x3c381cb6	0.011237314
225	0x3dec02cf	0.11523973
226	0xbbad842a	-0.005295296
227	0xbcb93038	-0.022606
228	0x3b9e9383	0.004839362
229	0x3d1d17e2	0.038352855
230	0x3e1d93de	0.15388438
231	0x3d75f978	0.060052365
232	0xbb40ea88	-0.0029436667
233	0x3af68fdf	0.0018811187
234	0xba9ed5df	-0.0012118182
235	0xbd13f8a2	-0.036125787
236	0xbbb87c16	-0.0056300266
237	0x3b94d095	0.0045414665
238	0xbd48375d	-0.048880924
239	0x3b73b6d9	0.0037187843
240	0x3b9919d5	0.004672269
241	0xbd07d012	-0.033157416
242	0x3c395322	0.011311324
243	0x3d824893	0.06361499
244	0x3d630e6e	0.055433683
245	0xba618adc	-0.00086037605
246	0x3c8d63ff	0.017259596
247	0xbc29fe2d	-0.010375542
248	0xbb83d699	-0.004023385
249	0x3be5f1ff	0.0070173736
250	0x3e3c8f5b	0.18414061
251	0x3af64f12	0.0018791875
252	0xbc4558a4	-0.012045059
253	0x3bd395f5	0.0064570853
254	0xba5212da	-0.00080136734
255	0x3de25274	0.11050883

sat_layers.layer0_1.0.input_linear_layer2.bias f4 [32]
0	0x3cbc85f1	0.023013087
1	0x3d679bac	0.056544945
2	0x3db3c06c	0.08776936
3	0x3dc6dbc7	0.09709888
4	0xbc4c444a	-0.012467453
5	0x3c2977b6	0.010343483
6	0xbc36e326	-0.011162555
7	0x3ae1c117	0.0017223683
8	0x3de142da	0.10999079
9	0xbbff8d49	-0.007798825
10	0x3bcc00c2	0.0062256763
11	0xbdc32a10	-0.09529507
12	0xbe8af527	-0.2714016
13	0xbce27e9c	-0.027648263
14	0x3e647e5a	0.22313824
15	0xbd5c661c	-0.053808317
16	0xba92cfde	-0.0011200865
17	0xbda29173	-0.079378985
18	0xbdef8f13	-0.11697211
19	0x3d888f6c	0.066679806
20	0xbbf37be9	-0.0074305427
21	0xbc7f8d34	-0.01559763
22	0xbdacd682	-0.084393516
23	0x3c7b626b	0.015343289
24	0xbcb2a7ed	-0.021808589
25	0xbdb54f38	-0.088530004
26	0xbc193648	-0.009351321
27	0xbc9be2bf	-0.01902902
28	0xbb766b06	-0.0037600412
29	0xbaefc7b5	-0.001829377
30	0x3cc48407	0.023988737
31	0xbde19fcb	-0.11016806
