output/modelparams/dynamicLearning-HIGHSCHOOL-SCUAU-GAT/epoch8_model_state_dict.pth (torch, 125457 bytes, 66 tensors)

in_layer.layers.0.weight f4 [32, 2]
-0.015149504 -0.0087376535 -0.0549684 -0.41897038 -0.4266496 0.40490785 -0.1782175 0.73092854
-0.24124949 0.19406714 -0.26038927 -0.40410355 -0.22056776 -0.034842387 -0.3002275 0.16826256
-0.006784137 0.3707192 -0.45074555 -0.22634205 -0.04128629 0.10766461 -0.34271255 0.48338762
-0.008767953 -0.0013092599 0.684786 -0.21182756 -0.28102234 -0.023746865 -0.23787 0.6846195
-0.19085528 -0.038744777 -0.38332236 -0.76762885 -0.56278455 0.79454094 0.042400382 0.05283358
0.15157658 -0.55717283 0.23364078 -0.5847357 -0.05478491 -0.05264597 0.022021418 0.0224559
-0.39868417 0.12413068 0.021456173 0.016502295 0.34743497 -0.29896405 0.49793568 -0.6246407
0.14852615 -0.6931469 -0.047153205 -0.049994543 0.060010277 0.057214126 0.03299448 0.018552855
00000000: a035 78bc 6028 0fbc 8c26 61bd 4983 d6be
00000010: d171 dabe 1550 cf3e a67e 36be 221e 3b3f
00000020: 1b0a 77be 89b9 463e be51 85be a9e6 cebe
00000030: 84dc 61be e4b6 0ebd 6bb7 99be 054d 2c3e
00000040: 774d debb e8ce bd3e 1fc8 e6be 36c6 67be
00000050: d01b 29bd 437f dc3d 0578 afbe 957e f73e
00000060: 76a7 0fbc 799b abba 234e 2f3f 53e9 58be
00000070: 29e2 8fbe c988 c2bc 3194 73be 3943 2f3f
00000080: 916f 43be d8b2 1ebd d442 c4be 5383 44bf
00000090: a612 10bf 0967 4b3f 06ac 2d3d 0668 583d
000000a0: e436 1b3e e1a2 0ebf 873f 6f3e 3db1 15bf
000000b0: 2466 60bd 4da3 57bd 4366 b43c 70f5 b73c
000000c0: 5520 ccbe 3a38 fe3d dbc4 af3c d22f 873c
000000d0: ffe2 b13e d111 99be 6df1 fe3e 74e8 1fbf
000000e0: 3d17 183e 1372 31bf b823 41bd 14c7 4cbd
000000f0: 56cd 753d 5c59 6a3d 3825 073d 28fc 973c

in_layer.layers.0.bias f4 [32]
0.009314684 0.06447415 0.101853244 0.1610086 0.2584141 0.45577207 -0.29544082 -0.12555265
0.029198866 0.44610494 0.025579618 0.40161034 0.0017017985 -0.47778893 0.11745161 -0.32466447
-0.3032403 0.50450563 0.5550268 -0.059015255 0.14505115 -0.017678436 0.053214274 -0.02320595
0.2566647 -0.015190896 0.23207551 0.32904866 0.43161786 0.05421438 -0.057900988 -0.012605924
00000000: 9e9c 183c 060b 843d 6f98 d03d 70df 243e
00000010: da4e 843e f55a e93e 0544 97be e090 00be
00000020: 7632 ef3c de67 e43e 598c d13c df9f cd3e
00000030: e20e df3a c0a0 f4be 788a f03d 6c3a a6be
00000040: 5042 9bbe 4827 013f 3d16 0e3f fbb9 71bd
00000050: 4a88 143e 5ed2 90bc 36f7 593d 681a bebc
00000060: 8e69 833e 3ce3 78bc 34a5 6d3e 1179 a83e
00000070: 04fd dc3e e60f 5e3d 9629 6dbd 1489 4ebc

in_layer.layers.2.weight f4 [32, 32]
-0.006627775 -0.0033691656 -0.011336365 -0.011965828 0.004295846 0.012354005 -0.008068002 -0.007845378
-0.002032692 0.0030827045 0.011009039 -0.023809718 -0.0089843925 0.009410433 -0.005038157 -0.0030096744
-0.010380151 0.0048843035 0.03619967 -0.03495155 0.008409269 0.009488841 0.0039464263 0.0020077114
-0.002418712 0.015566984 -0.0128071215 0.054478392 -0.038177304 0.02574987 -0.0029860185 0.029284386
-0.0023220151 -0.165543 0.22064617 0.22312701 -0.015353143 -0.06276729 0.056521997 0.051325608
0.06655839 0.08585711 0.09937413 0.2568908 -0.0013973381 -0.2003255 0.12311326 0.18510915
-0.15521796 -0.20625137 0.33410603 -0.00152403 -0.31089348 -0.3713084 0.003298771 -0.00064330414
0.19007628 0.0016345672 -0.13040526 -0.4599478 -0.18410172 0.002076906 -0.0038071622 0.0034329016
-0.007566236 0.030873356 -0.12040701 -0.14648327 -0.059859015 0.0070304335 -0.012169824 -0.022803452
-0.06082906 -0.02975683 -0.014226981 -0.14035057 -0.00790003 0.05175732 -0.040275916 -0.06389971
-0.0006194965 0.02411621 -0.24713606 -0.017814912 0.05947532 0.048724353 0.0019719168 -0.0015696528
-0.05755129 0.01076828 0.039877456 0.0644089 -0.0058340384 0.012780768 -0.0023340576 0.017167406
-0.007821543 0.033986658 -0.12268255 -0.17005199 -0.06854672 0.01419073 -0.01602213 -0.023431266
-0.06628194 -0.032208234 -0.016034987 -0.16273998 -0.009396207 0.055820268 -0.02941193 -0.02694405
0.033918872 0.026046151 -0.2906899 -0.021900998 0.03964679 0.032400902 0.002426808 -0.002014743
-0.07352148 0.0122169405 0.120093875 -0.0685225 0.02450492 0.015329379 -0.0027803138 0.020991161
0.0032643378 0.009300506 -0.14117785 -0.121813156 -0.0516108 0.0048732418 0.0022777568 0.06257007
-0.000264585 -0.015428058 -0.009518181 -0.13871181 0.0027610925 -0.005473218 -0.06247725 -0.016259458
0.039019786 0.09345641 -0.20289795 -0.018956479 0.099970184 -0.005350031 -0.002935374 0.00083597057
-0.06758229 0.0022078955 -0.037649527 0.056367733 0.15649366 0.0098097585 0.0033110238 0.014112766
-0.0060895546 0.03246605 -0.118857555 -0.15853499 -0.06647905 0.022824265 0.07005155 0.054809336
-0.059626833 -0.031144109 -0.013070198 -0.121610016 -0.0061081885 0.036144294 -0.03760613 -0.10361899
-0.0642747 0.016040292 -0.27896366 -0.014746075 0.091184005 -0.03338598 0.0025369397 0.0034400898
-0.06115649 0.0078646885 -0.115001306 0.13139395 0.029891603 0.008999089 -0.0026968464 0.015651235
0.0049622296 0.040658213 -0.054627106 0.06746035 0.0028054751 0.028655434 -0.022921806 -0.0814446
0.03399858 -0.08447701 -0.0024657536 -0.05137063 0.0058732373 -0.016700944 -0.061746437 0.010939836
0.02128832 -0.012897593 0.07203349 0.024022395 0.030607808 -0.024866046 -0.004283927 0.0032025902
0.05387326 -0.016851604 0.07833403 0.08232875 -0.05227346 -0.0248897 0.0040281685 -0.018965239
0.002764468 -0.0023721359 -0.0018427778 0.010462413 0.0060611255 0.010997153 -0.0013212485 -0.0028818452
0.0046424894 0.0024471371 0.005682151 -0.0050933603 0.0013929013 0.0009059666 -0.001620325 0.00062830426
0.0006071492 -0.00023703018 0.042014048 -0.02168041 0.0019333339 -0.00044265355 0.002559364 0.0018520935
0.0022735705 0.0065447944 0.03934665 0.06313866 -0.021099057 0.015131294 -0.0022890628 0.019181835
00000000: ce2d d9bb 38cd 5cbb 29bc 39bc 520c 44bc
00000010: 2bc4 8c3b 7468 4a3c a72f 04bc e689 00bc
00000020: ea36 05bb 3307 4a3b 425f 343c 990c c3bc
00000030: 4633 13bc 372e 1a3c 2017 a5bb f53d 45bb
00000040: 8211 2abc 820c a03b 1b46 143d 5b29 0fbd
00000050: 08c7 093c 1577 1b3c 0651 813b cf93 033b
00000060: 4183 1ebb aa0c 7f3c f6d4 51bc bc24 5f3d
00000070: ce5f 1cbd 64f1 d23c 14b1 43bb cfe5 ef3c
00000080: f32c 18bb 1b84 29be 12f1 613e 687b 643e
00000090: c08b 7bbc 238c 80bd 9c83 673d cd3a 523d
000000a0: c44f 883d dad5 af3d aa84 cb3d 3187 833e
000000b0: e326 b7ba 2122 4dbe ce22 fc3d 418d 3d3e
000000c0: 75f1 1ebe 8f33 53be f20f ab3e f6c1 c7ba
000000d0: 6e2d 9fbe 221c bebe 3230 583b 69a3 28ba
000000e0: 5ba3 423e f93e d63a f588 05be 477e ebbe
000000f0: 2985 3cbe b31c 083b 9581 79bb 88fa 603b
00000100: 30ee f7bb 1fea fc3c f397 f6bd b6ff 15be
00000110: ba2e 75bd 8d5f e63b f163 47bc 4ece babc
00000120: e427 79bd 98c4 f3bc 4918 69bc 0fb8 0fbe
00000130: 216f 01bc 7cff 533d 5cf8 24bd dadd 82bd
00000140: b565 22ba 5c8f c53c 3c11 7dbe 94f0 91bc
00000150: 659c 733d 3093 473d 463b 013b cfbc cdba
00000160: e7ba 6bbd 716d 303c 8b56 233d d0e8 833d
00000170: 762b bfbb 6d66 513c fdf6 18bb a9a2 8c3c
00000180: ee25 00bc 9835 0b3d fd40 fbbd 1c22 2ebe
00000190: 3962 8cbd 3c80 683c d840 83bc edf2 bfbc
000001a0: d3be 87bd c8ec 03bd ce5b 83bc 4fa5 26be
000001b0: 8cf2 19bc cba3 643d 4af1 f0bc c5b9 dcbc
000001c0: 84ee 0a3d bd5e d53c 4ed5 94be b969 b3bc
000001d0: ac64 223d cfb6 043d 150b 1f3b c709 04bb
000001e0: 6e92 96bd 9029 483c c7f3 f53d 8655 8cbd
000001f0: 8bbe c83c 1328 7b3c ed35 36bb a8f5 ab3c
00000200: 80ee 553b 2661 183c ed90 10be 2d79 f9bd
00000210: d965 53bd b7af 9f3b 6b46 153b bd24 803d
00000220: ffb7 8ab9 f7c5 7cbc 25f2 1bbc 780a 0ebe
00000230: 72f3 343b ae58 b3bb 25e8 7fbd 8e32 85bc
00000240: 36d3 1f3d 1366 bf3d 7bc4 4fbe 9e4a 9bbc
00000250: 2bbd cc3d 504f afbb 675f 40bb 0925 5b3a
00000260: 9568 8abd 57b2 103b 6436 1abd dae1 663d
00000270: e03f 203e 1cb9 203c c3fd 583b 3b39 673c
00000280: e38a c7bb 1ffb 043d 976b f3bd ff56 22be
00000290: 2b26 88bd f4f9 ba3c 3077 8f3d c17f 603d
000002a0: 443b 74bd ee21 ffbc 6224 56bc ac0e f9bd
000002b0: 3327 c8bb 0a0c 143d e308 1abd 3136 d4bd
000002c0: 74a2 83bd ee66 833c 53d4 8ebe 8599 71bc
000002d0: aebe ba3d bdbf 08bd c942 263b 2173 613b
000002e0: 3a7f 7abd e5da 003c ce85 ebbd 238c 063e
000002f0: 3cdf f43c ea70 133c 93bd 30bb 0537 803c
00000300: 339a a23b 3a89 263d acc0 5fbd a728 8a3d
00000310: 10dc 373b cdbe ea3c 83c6 bbbc 6dcc a6bd
00000320: 1842 0b3d 4802 adbd 7b98 21bb 026a 52bd
00000330: 4974 c03b 6bd0 88bc d5e9 7cbd ff3c 333c
00000340: d864 ae3c 6d50 53bc 4b86 933d 9dca c43c
00000350: 3abd fa3c e1b3 cbbc 2f60 8cbb 8ce2 513b
00000360: 35aa 5c3d 600c 8abc 986d a03d fa9b a83d
00000370: b21c 56bd 7ce5 cbbc bafe 833b fd5c 9bbc
00000380: 142c 353b d675 1bbb 5d89 f1ba 8a6a 2b3c
00000390: 689c c63b 672d 343c be2d adba 57dd 3cbb
000003a0: 0620 983b 2660 203b 5631 ba3b 34e6 a6bb
000003b0: 0392 b63a 647e 6d3a 1661 d4ba c9b4 243a
000003c0: 1829 1f3a 4e8b 78b9 ec16 2c3d 1d9b b1bc
000003d0: ec67 fd3a f413 e8b9 01bb 273b f2c1 f23a
000003e0: 2f00 153b b775 d63b f429 213d d74e 813d
000003f0: eed7 acbc 3fe9 773c 1a04 16bb 3923 9d3c

in_layer.layers.2.bias f4 [32]
-0.0058323927 -0.10845628 -0.088023886 -0.011161822 -0.16950367 -0.04958928 -0.10087319 -0.05125539
-0.02765549 -0.078436084 -0.22939713 0.15498985 -0.07483564 0.16500272 0.093905464 -0.07235102
-0.016702339 -0.0442432 0.029841881 -0.091859974 -0.15613961 0.029793262 -0.093848124 -0.033666022
-0.003755518 -0.11232316 -0.026900692 -0.18759668 0.024452401 -0.11309094 0.03143851 -0.030266112
00000000: a81d bfbb 531e debd de45 b4bd 13e0 36bc
00000010: 5f92 2dbe 211e 4bbd 9a96 cebd 2cf1 51bd
00000020: c48d e2bc 19a3 a0bd 15e7 6abe a9b5 1e3e
00000030: 6e43 99bd 79f6 283e 8251 c03d c62c 94bd
00000040: 58d3 88bc 5c38 35bd f676 f43c 1521 bcbd
00000050: 10e3 1fbe 0011 f43c 7233 c0bd 62e5 09bd
00000060: 231f 76bb af09 e6bd d75e dcbc 5819 40be
00000070: 6750 c83c 399c e7bd abc5 003d a3f0 f7bc

gat_layer_1.layer0_1.0.input_linear_layer1.weight f4 [32, 32]
3.4059998e-05 0.0003287679 3.785868e-05 3.0318919e-05 2.9749921e-05 1.4840465e-05 -8.287535e-06 -1.3112616e-06
5.493888e-05 2.9356688e-06 -5.6838744e-05 0.00032758265 2.1519414e-05 0.000523341 0.00056614244 -5.4975047e-10
1.7008765e-06 3.8668495e-05 1.6410646e-06 -3.5991516e-06 -7.2525785e-05 1.8112896e-05 3.2246404e-05 8.94568e-06
2.0748854e-05 0.0003540075 2.1963337e-05 -5.603651e-05 -2.379365e-06 1.5394022e-05 1.9997611e-05 2.7931978e-06
1.5676984e-05 -0.0021480457 5.622646e-05 0.000103034996 -0.0003255413 0.000154193 -2.1709508e-05 3.9051015e-06
0.00032434813 9.380144e-07 -0.0013132144 -0.0016638547 6.1470004e-05 -0.0022726443 9.9272795e-05 -9.39699e-07
1.5871323e-06 8.652852e-05 1.6597701e-06 -4.377901e-06 -0.0010200322 0.00015510556 2.8803372e-05 8.280698e-06
0.00015189931 -0.0020821805 2.7522796e-05 -0.00064241874 -6.266407e-07 0.000116611525 1.0461854e-05 4.5848305e-06
0.007188218 0.2807463 -0.022491867 -0.021170307 -0.0013939599 -0.030254569 -0.00028973396 0.002505367
-0.07620671 0.02891116 -0.024739444 0.25599182 -0.04594674 0.23073716 0.03504099 0.003585305
-0.0012358698 -0.03311411 0.0021682205 0.0134361265 0.038204636 -0.03341319 -0.026263244 0.002920732
-0.034724016 0.2918838 -0.026799439 -0.1095187 0.0044647283 -0.034224037 -0.0031087438 -0.0013604721
0.0080232425 0.22888672 -0.019757807 -0.018080793 -0.0020721275 -0.029288275 -0.0003332988 0.0035114943
-0.05068257 0.025657969 0.047889024 0.24881932 -0.04175918 0.26849315 0.020819018 0.004698763
-0.0014203027 -0.02835653 0.0014918266 0.012513361 0.046969406 -0.026852598 -0.023726536 0.0029705744
-0.030642373 0.22215666 -0.025018647 -0.068217196 0.0050160866 -0.022631984 -0.0041165026 3.4559544e-05
0.008891028 0.22985113 -0.022570975 -0.021074211 -0.0062102773 -0.0306027 -0.0003454691 0.004100811
-0.06615188 0.02872442 0.045064896 0.25170398 -0.047481716 0.2476479 -0.120535396 0.004390584
-0.001400518 -0.03340275 0.0014992973 0.0135694295 0.02789409 -0.031578768 -0.026031211 0.0023174058
-0.036874224 0.2679169 -0.027460616 -0.09524303 0.005269033 -0.024645338 -0.004802033 -0.00033820453
1.5186848e-05 -0.0005184248 0.0010685651 0.0011374487 0.002498044 0.0011816117 -0.0002781654 -0.00010794967
0.0003641711 -0.00034901206 0.0018706977 -0.0015172712 0.0009455323 -0.0012799804 -0.0027929547 8.344409e-05
2.9711977e-05 0.0010901077 -0.00013617815 -0.0004319224 0.0021387504 0.001213025 0.0005367962 -0.0005198451
0.0011636477 -0.0007457505 0.0009117945 0.0026960785 0.00018671283 0.0009968071 -0.00075148244 -0.00024699752
0.0065845405 0.13593139 0.008025752 0.008079823 0.06211464 0.0063342904 0.0090004755 0.002921523
0.008563443 0.044826284 -0.05579658 0.21088448 -0.038480178 0.13688348 0.044090122 0.012398452
0.003607593 -0.006992298 -0.0030293874 0.016387941 0.038322903 0.006327783 -0.00078822277 0.0077557857
-0.01858759 0.22571059 -0.008611058 -0.013293062 0.00405487 -0.0019803802 -0.0052877227 0.0027003924
0.0024693971 0.11081413 -0.0051567135 -0.0034441561 -0.001558998 -0.005196538 0.00013423504 0.0021789097
-0.01298664 0.007398494 0.009281013 0.08494666 -0.012102488 0.13494137 -0.052421387 0.0012335033
-0.0008455061 -0.0066677122 0.0023395147 0.0037060033 0.01568214 -0.0064910646 -0.0064495443 0.0011962664
-0.007940106 0.10426927 -0.0061445995 -0.015698215 0.001770661 -0.0047068996 -0.00068469613 0.001191
00000000: a5db 0e38 7b5e ac39 73ca 1e38 6255 fe37
00000010: 788f f937 50fb 7837 b10a 0bb7 9bfe afb5
00000020: 2c6e 6638 6802 4536 2366 6eb8 66bf ab39
00000030: 9784 b437 d230 093a 2d69 143a 401d 17b0
00000040: ac49 e435 fb2f 2238 8d42 dc35 f488 71b6
00000050: fc18 98b8 26f1 9737 5040 0738 6715 1637
00000060: d30d ae37 159a b939 e83d b837 bf08 6bb8
00000070: 2ead 1fb6 6922 8137 8bc0 a737 c672 3b36
00000080: 1182 8337 3ac6 0cbb b4d4 6b38 7e14 d838
00000090: 6aad aab9 deae 2139 d01c b6b7 9108 8336
000000a0: 450d aa39 dccb 7b35 2a20 acba b315 daba
000000b0: 75e9 8038 a5f0 14bb ad30 d038 a03f 7cb5
000000c0: 7305 d535 a576 b538 44c5 de35 e2e5 92b6
000000d0: 9ab2 85ba d5a3 2239 c59e f137 54ed 0a37
000000e0: 2947 1f39 3175 08bb c1e0 e637 fe67 28ba
000000f0: 6c36 28b5 568d f438 5285 2f37 65d7 9936
00000100: 258b eb3b fbbd 8f3e dd40 b8bc 5a6d adbc
00000110: 88b5 b6ba 6ed8 f7bc 6fe7 97b9 1531 243b
00000120: 4312 9cbd 19d7 ec3c 60aa cabc 5c11 833e
00000130: a632 3cbd 5d46 6c3e 2487 0f3d 70f7 6a3b
00000140: e9fc a1ba a9a2 07bd b418 0e3b 3323 5c3c
00000150: 777c 1c3d 45dc 08bd 0426 d7bc c069 3f3b
00000160: c53a 0ebd cb71 953e 7f8a dbbc 574b e0bd
00000170: db4c 923b 812e 0cbd 11bc 4bbb de51 b2ba
00000180: eb73 033c 4861 6a3e 20db a1bc 2c1e 94bc
00000190: 88cc 07bb f7ed efbc 9cbe aeb9 1921 663b
000001a0: 8798 4fbd a930 d23c 4827 443d 7eca 7e3e
000001b0: ad0b 2bbd ef77 893e a58c aa3c 15f8 993b
000001c0: 7329 baba f44b e8bc 6589 c33a d704 4d3c
000001d0: fe62 403d fbf9 dbbc 275e c2bc f8ad 423b
000001e0: b705 fbbc 097d 633e e8f3 ccbc 75b5 8bbd
000001f0: fc5d a43b b666 b9bc bae3 86bb 07f4 1038
00000200: adab 113c 185e 6b3e c4e6 b8bc d3a3 acbc
00000210: 957f cbbb 83b2 fabc 1420 b5b9 1960 863b
00000220: a37a 87bd 7a4f eb3c f895 383d 58df 803e
00000230: 307c 42bd 6997 7d3e 43db f6bd e3de 8f3b
00000240: 9691 b7ba 52d1 08bd 1284 c43a 5052 5e3c
00000250: 2682 e43c bd58 01bd 683f d5bc 9edf 173b
00000260: 6d09 17bd 672c 893e 16f5 e0bc c70e c3bd
00000270: daa7 ac3b 05e5 c9bc 5f5a 9dbb 0b51 b1b9
00000280: 04cb 7e37 e6e6 07ba 180f 8c3a 7216 953a
00000290: 39b6 233b 4fe0 9a3a bad6 91b9 0a63 e2b8
000002a0: 38ee be39 9bfb b6b9 3332 f53a 2cdf c6ba
000002b0: 99dd 773a 04c5 a7ba 010a 37bb b4fe ae38
000002c0: fc3d f937 f2e1 8e3a 0bcb 0eb9 a573 e2b9
000002d0: 472a 0c3b 5dfe 9e3a c8b7 0c3a 3746 08ba
000002e0: 8a85 983a 787e 43ba 7e05 6f3a b1b0 303b
000002f0: 58c8 4339 4ca7 823a 22ff 44ba 727f 81b9
00000300: 21c3 d73b 9931 0b3e 727e 033c 3c61 043c
00000310: ec6b 7e3d e18f cf3b bb76 133c 0677 3f3b
00000320: af4d 0c3c c49b 373d f48a 64bd 1af2 573e
00000330: 649d 1dbd 2f2b 0c3e d897 343d e022 4b3c
00000340: 5e6d 6c3b a61f e5bb b088 46bb 0140 863c
00000350: 7af8 1c3d 4b59 cf3b bca0 4eba 3f24 fe3b
00000360: 0045 98bc ad20 673e 6515 0dbc 25cb 59bc
00000370: b7de 843b 44c9 01bb a244 adbb 11f9 303b
00000380: 9cd5 213b 85f2 e23d a6f9 a8bb 5ab7 61bb
00000390: 4b57 ccba b847 aabb 72c1 0c39 0acc 0e3b
000003a0: ebc5 54bc 116f f23b 640f 183c 84f8 ad3d
000003b0: 8449 46bc 122e 0a3e cfb7 56bd 81ad a13a
000003c0: f4a4 5dba d37c dabb 8b52 193b 6be0 723b
000003d0: d577 803c ffb2 d4bb b356 d3bb 0acc 9c3a
000003e0: 3817 02bc 218b d53d a358 c9bb 8b99 80bc
000003f0: 8615 e83a 563c 9abb 2e7d 33ba 541b 9c3a

gat_layer_1.layer0_1.0.input_linear_layer1.bias f4 [32]
-0.00015810665 -0.0021609154 0.116391085 0.13714668 0.2205063 -0.004307041 0.22901769 0.09868899
0.03866656 0.09444052 0.11897011 4.927744e-05 0.18306108 -0.00027325875 0.18397163 -0.0003474399
0.1625727 -0.0009473998 0.16226554 -0.0005764054 0.17607613 0.10892195 -0.00061239867 0.012142824
-2.0395053e-08 0.10519675 -0.00016665258 -0.0010970291 0.00011473559 -0.00010342883 0.00016290038 -0.002729118
00000000: 6ec9 25b9 259e 0dbb 735e ee3d 2e70 0c3e
00000010: 67cc 613e 1422 8dbb 9d83 6a3e 741d ca3d
00000020: d460 1e3d 086a c13d 9aa6 f33d 40af 4e38
00000030: 5d74 3b3e 2b44 8fb9 0f63 3c3e 9828 b6b9
00000040: 7579 263e ed5a 78ba f028 263e e919 17ba
00000050: 4d4d 343e 7912 df3d 6189 20ba b2f2 463c
00000060: 3231 afb2 6571 d73d 76bf 2eb9 30ca 8fba
00000070: 339e f038 eee7 d8b8 3dd0 2a39 01db 32bb

gat_layer_1.layer0_1.0.input_linear_layer2.weight f4 [32, 32]
0.0011742461 -0.022728182 -0.0018121331 -0.0019838435 0.0029671402 -0.001775643 -0.0028327792 -0.0054225014
-0.0011081778 -0.00021164905 -0.013216274 0.001770625 -0.00402856 -0.010859467 -0.046864934 -0.0034496197
0.00027989707 -0.0011609371 -0.0038401466 -0.0022311546 0.014126905 -0.000541937 -0.004771836 -0.0061887065
-0.0030952762 0.0042838533 -0.004095167 0.021348024 -0.006639898 -0.0024471337 0.0038900876 -0.003771631
-0.0011728436 -0.020940028 0.016111866 0.018564219 0.0048901374 0.03555589 0.0012003582 0.00028703507
0.05076396 -0.0089898575 -0.0061083925 0.039732452 0.018678037 0.08100469 0.06434837 0.00011206976
-0.0029196213 0.025127433 -0.0015523322 0.0053458 -0.030290535 0.027183123 0.019075524 -0.00328579
0.026328785 -0.033150777 0.022370422 0.033003945 -0.0015309504 0.020401137 -0.0025406373 -0.0017022156
0.0030202076 0.0030312734 -0.0070120324 -0.0039372626 0.016329424 -0.011232567 -0.0074628205 -0.0015995194
-0.010344131 0.007777976 -0.03486372 -0.0066202274 -0.0016160926 -0.043867055 -0.07467525 0.0019358925
0.0012576119 -0.004651702 -0.003949008 -0.0031426863 -0.007197211 -0.0073288474 0.0028338511 -0.006639254
-0.0047864676 0.013357817 -0.0011837543 -0.0059855916 0.00096735737 -0.009328016 -0.0034542826 0.0021162033
0.0019136416 -0.029500343 -0.007945468 -0.01132093 0.008706315 -0.013575426 9.4335366e-05 0.0002827479
-0.016995646 0.00850187 -0.024096327 -0.005002351 -0.005868992 0.020564832 0.021063458 0.0016600855
0.004497917 -0.009146268 -0.0040471386 -0.007312498 -0.020606553 -0.012917148 -0.0046033054 -0.001622039
-0.007704563 0.03195782 -0.0070923558 -0.0040180893 0.001627432 -0.012565808 0.005054964 -0.0018821767
-0.001926841 0.32874668 -0.15940137 -0.2623662 -0.15795903 -0.20747985 -0.00047875696 0.018987637
-0.14422712 0.0027811525 0.001825465 0.08090637 0.028188633 0.06817858 -0.050257906 0.007116585
0.0120040225 -0.29738224 -0.0103322575 -0.0056406646 0.05567732 -0.05095777 -0.10226804 0.0014582453
-0.21912254 0.11432997 -0.056415465 -0.21219663 -0.008463789 -0.1844827 -0.014563766 -0.014803035
0.0017982947 -0.035146784 -0.014067458 -0.014935458 0.016390352 -0.0224976 0.016776828 0.0044290614
-0.02577679 0.020328393 -0.010662785 0.007900881 -0.0050767474 -0.0047134086 -0.058178544 0.0051394273
0.0065155514 -0.01613688 0.001462524 -0.0036805084 -0.010714108 -0.020753369 -0.0025963075 0.008447384
-0.01587645 -0.0038141331 -0.009163643 -0.0022966403 0.00612652 -0.01737314 0.0029723947 0.006415082
0.013379896 -0.0072491914 -0.018333556 -0.0052056056 -0.0058600716 -0.019718084 -0.009259596 0.013717013
-0.027274696 0.0006992019 -0.04993683 0.07789496 -0.0017113328 -0.06889984 -0.026508436 -0.010678674
-0.009481358 -0.013512905 0.019380525 0.0075560682 0.019863212 -0.03156774 -0.02403738 -0.0025314963
-0.013206409 -0.05181849 -0.015120804 -0.013366087 0.010349901 -0.0117851375 -0.0053273044 0.0072911205
-0.00090298563 0.008443627 0.0021899282 0.0018098647 0.00555521 0.0035873116 -0.0013433301 -0.008950364
0.006224101 -0.0024475788 -0.01820404 -0.014181744 0.0035352714 0.033004075 0.03559619 -0.0027508563
-0.00061042723 0.003962455 -0.0022720918 -0.00025798837 -0.011767194 0.0040743756 0.0014354622 -0.005544922
0.0019536333 -0.0017202281 0.0033657337 0.007535641 -0.00826015 0.0035828955 0.004218429 -0.0014328961
00000000: 29e9 993a 7430 babc 1985 edba 5f03 02bb
00000010: 5a74 423b b1bc e8ba 26a6 39bb 3daf b1bb
00000020: 4740 91ba 1cee 5db9 1289 58bc 5114 e83a
00000030: 0302 84bb e8eb 31bc 72f5 3fbd 0413 62bb
00000040: 26bf 9239 962a 98ba f8aa 7bbb 9038 12bb
00000050: 8974 673c c710 0eba 105d 9cbb a2ca cabb
00000060: 1eda 4abb 915f 8c3b c030 86bb 0de2 ae3c
00000070: 8093 d9bb 1760 20bb d7f0 7e3b 782d 77bb
00000080: 1aba 99ba 6c8a abbc 08fd 833c fd13 983c
00000090: 723d a03b 0ea3 113d 5655 9d3a 327d 9639
000000a0: dfed 4f3d 324a 13bc e928 c8bb 7fbe 223d
000000b0: af02 993c c9e5 a53d 14c9 833d ff06 eb38
000000c0: 1e57 3fbb 0cd8 cd3c a077 cbba d22b af3b
000000d0: db23 f8bc 24af de3c 4644 9c3c 6956 57bb
000000e0: 77af d73c 1cc9 07bd 2d42 b73c 252f 073d
000000f0: 2caa c8ba 4920 a73c d280 26bb e11c dfba
00000100: adee 453b 54a8 463b 31c5 e5bb 2704 81bb
00000110: 49c5 853c cd08 38bc ad8a f4bb f7a6 d1ba
00000120: 6e7a 29bc 64de fe3b 43cd 0ebd 7eee d8bb
00000130: 12d3 d3ba f1ad 33bd 56ef 98bd c6bd fd3a
00000140: 74d6 a43a 4e6d 98bb ae66 81bb 87f5 4dbb
00000150: 95d6 ebbb d426 f0bb 22b8 393b 198e d9bb
00000160: cdd7 9cbb bfda 5a3c 3428 9bba c822 c4bb
00000170: 4196 7d3a 89d4 18bc 3f61 62bb 00b0 0a3b
00000180: 28d3 fa3a b4aa f1bc b52d 02bc 6c7b 39bc
00000190: efa4 0e3c 776b 5ebc ead5 c538 c83d 9439
000001a0: 743a 8bbc 6d4b 0b3c a965 c5bc c3ea a3bb
000001b0: ac50 c0bb 9477 a83c 468d ac3c 3a97 d93a
000001c0: 4363 933b 3ada 15bc dc9d 84bb ae9d efbb
000001d0: 13cf a8bc 72a2 53bc 53d7 96bb 999a d4ba
000001e0: 8f76 fcbb 34e6 023d fe66 e8bb 2daa 83bb
000001f0: 8e4f d53a d2e0 4dbc 1da4 a53b 5fb3 f6ba
00000200: 0e8e fcba 7c51 a83e 1d3a 23be dd54 86be
00000210: 03c0 21be 9975 54be ac01 fbb9 f68b 9b3c
00000220: 46b0 13be ff43 363b 7144 ef3a 3db2 a53d
00000230: d9eb e63c 36a1 8b3d 3cdb 4dbd 3e32 e93b
00000240: 85ac 443c 7c42 98be a148 29bc 53d5 b8bb
00000250: e70d 643d 18b9 50bd e871 d1bd 9822 bf3a
00000260: a961 60be d525 ea3d e713 67bd 134a 59be
00000270: b4ab 0abc 08e9 3cbe dd9c 6ebc 6e88 72bc
00000280: c2b4 eb3a 13f6 0fbd 327b 66bc dab3 74bc
00000290: 0f45 863c e34c b8bc 8f6f 893c a921 913b
000002a0: d929 d3bc bb87 a63c f6b2 2ebc b272 013c
000002b0: d85a a6bb f072 9abb a04c 6ebd a468 a83b
000002c0: 6880 d53b 7d31 84bc 29b2 bf3a af34 71bb
000002d0: 3a8a 2fbc f802 aabc d026 2abb e666 0a3c
000002e0: 540f 82bc 89f6 79bb 1b23 16bc 3b83 16bb
000002f0: fac0 c83b 1e52 8ebc 82cc 423b 9c35 d23b
00000300: 5a37 5b3c a08a edbb 4130 96bc c993 aabb
00000310: d805 c0bb d287 a1bc 8fb5 17bc 53bd 603c
00000320: 2f6f dfbc a54a 373a 908a 4cbd 6587 9f3d
00000330: cd4e e0ba 5c1b 8dbd 3828 d9bc 9bf5 2ebc
00000340: b357 1bbc 3b65 5dbc e8c3 9e3c e598 f73b
00000350: 2db8 a23c 2d4d 01bd 0aea c4bc 76e7 25bb
00000360: b25f 58bc a03f 54bd 40bd 77bc 6ffd 5abc
00000370: a292 293c 7316 41bc ab90 aebb 5aea ee3b
00000380: 57b6 6cba 2357 0a3c e684 0f3b fb38 ed3a
00000390: 7b08 b63b 1a19 6b3b ae12 b0ba 8ca4 12bc
000003a0: 8bf3 cb3b 8f67 20bb a420 95bc 8c5a 68bc
000003b0: 03b0 673b 482f 073d 4fcd 113d b647 34bb
000003c0: 1405 20ba 7bd7 813b 60e7 14bb 9d42 87b9
000003d0: 30cb 40bc 5782 853b 1e26 bc3a 2db2 b5bb
000003e0: 8708 003b 4779 e1ba a493 5c3b 8aed f63b
000003f0: 9555 07bc 03cf 6a3b bf3a 8a3b 04d0 bbba

gat_layer_1.layer0_1.0.input_linear_layer2.bias f4 [32]
0.014397282 -0.05955996 0.026713692 -0.03466184 0.08038808 0.017249031 -0.005320576 -0.028497122
0.0575169 -0.09307893 0.1423155 -0.00765382 0.12428951 -0.14321655 -0.11258599 0.016449029
0.0017668493 0.043788154 -0.015674062 -0.005243666 0.026139747 -0.07656581 0.15966778 -0.0049579036
-0.059914954 -0.14360334 -0.15548968 0.07094646 0.03663552 -0.012176481 -0.031547263 -0.0238108
00000000: 94e2 6b3c 25f5 73bd acd6 da3c 93f9 0dbd
00000010: 81a2 a43d d74d 8d3c 3a58 aebb cc72 e9bc
00000020: d796 6b3d 2ba0 bebd 28bb 113e e5cc fabb
00000030: 808b fe3d 5ca7 12be 7c93 e6bd 1dc0 863c
00000040: a095 e73a 355b 333d e466 80bc 0fd3 abbb
00000050: 0623 d63c 89ce 9cbd f37f 233e e975 a2bb
00000060: 6269 75bd c10c 13be b038 1fbe 614c 913d
00000070: 210f 163d dd7f 47bc b437 01bd de0e c3bc

gat_layer_1.layer0_1.0.a_1.weight f4 [1, 32]
-5.802312e-06 5.0204202e-05 -0.3365009 -0.30886707 -0.35615182 0.0022338065 -0.12613003 -0.09485415
-0.0013622316 -0.064929396 -0.21207063 6.3609633e-07 -0.26097274 -9.9142635e-06 -0.27507406 -1.1103831e-06
-0.15936677 4.4185617e-05 -0.2636244 1.1508991e-05 -0.29862422 -0.19635417 5.7447774e-05 -0.00040032435
-8.126706e-07 -0.09509674 9.0108115e-06 2.6298578e-05 -2.2845945e-06 7.842436e-06 -6.129924e-06 0.00024551412
00000000: 7bb1 c2b6 5a92 5238 d949 acbe d323 9ebe
00000010: 8859 b6be 0e65 123b 3b28 01be e542 c2bd
00000020: e88c b2ba b4f9 84bd 0b29 59be 35c0 2a35
00000030: 389e 85be 7055 26b7 82d6 8cbe 7908 95b5
00000040: 0b31 23be f253 3938 c7f9 86be bd16 4137
00000050: 46e5 98be 1111 49be 14f4 7038 a0e2 d1b9
00000060: 4c26 5ab5 14c2 c2bd 242d 1737 c49b dc37
00000070: 0951 19b6 0293 0337 a5af cdb6 59b8 8039

gat_layer_1.layer0_1.0.a_2.weight f4 [1, 32]
-0.010398044 -0.051294655 0.015231957 0.0029993998 -0.13703716 0.022615789 -0.025965223 -0.003077831
0.13636556 -0.19305323 -0.20112857 -0.015419858 -0.07982772 -0.073727466 0.1983962 -0.011749606
0.0011661046 0.020864017 0.0028269317 -0.0075512445 -0.08091044 0.01668248 -0.29546145 0.0027801811
-0.0031859234 -0.08924575 0.04518008 -0.096483745 -0.06272203 0.016929662 0.009183837 0.0018089074
00000000: 8f5c 2abc 581a 52bd 758f 793c 9491 443b
00000010: 7853 0cbe bf44 b93c 05b5 d4bc 6fb5 49bb
00000020: 6aa3 0b3e bfaf 45be a6f4 4dbe 92a3 7cbc
00000030: b77c a3bd 6dfe 96bd 6028 4b3e 6b81 40bc
00000040: fad7 983a 04eb aa3c 0b44 393b 6e70 f7bb
00000050: 5fb4 a5bd b2a9 883c b946 97be b333 363b
00000060: edca 50bb 7ac6 b6bd bf0e 393d 4599 c5bd
00000070: 6874 80bd 13b0 8a3c ce77 163c dc18 ed3a

gat_layer_1.layer0_1.1.input_linear_layer1.weight f4 [32, 32]
4.7996382e-05 0.00011070377 3.8043392e-05 6.0370312e-05 -0.0001444586 5.0768776e-05 -6.2272724e-05 9.8029595e-06
-0.00015025528 6.827177e-07 7.801772e-05 -4.3275766e-05 4.5981473e-05 0.00016345168 -0.00070526334 6.4274777e-06
7.707901e-06 4.304215e-05 -3.579427e-07 -3.900817e-07 -2.7555845e-05 5.1658608e-05 3.7986945e-05 2.4861787e-05
6.0738937e-05 6.466202e-05 2.460755e-05 2.5543197e-05 -6.10486e-06 5.588163e-05 5.2415003e-06 1.4256691e-05
4.4737564e-05 -0.00086642546 0.00020849855 0.00039971556 -0.0006985797 0.00050173263 -7.57029e-05 -3.475646e-05
0.0008036081 -0.00012186989 -0.00041522237 -0.0016489214 0.0002957299 -0.00095071516 -0.001441736 -5.7172416e-05
-5.8944708e-05 0.00030174627 5.9526523e-05 -9.6254786e-05 -0.0005970822 0.0005313958 9.1876784e-05 -7.032753e-05
0.0005080153 -0.0010276103 0.00015311997 -0.0003771712 2.2320624e-05 0.00051255955 5.376076e-05 -5.1266572e-05
2.1412401e-05 -0.00044911765 6.420936e-05 0.000102821476 -0.00041349887 0.00012731044 -1.8243381e-05 2.5874592e-06
0.00040833154 -5.5867663e-06 -0.0007589628 -0.0009063723 8.40278e-05 -0.00028221175 -0.00044151067 -5.807676e-06
-5.8856625e-07 8.020568e-05 7.6872975e-06 -1.2373115e-05 -0.00092821027 0.00014677437 3.7961676e-05 5.196843e-06
0.00013554473 -0.0005366621 4.413877e-05 -0.0008200798 3.3155786e-07 0.00014110703 1.0147082e-05 1.6084095e-07
0.0058357855 0.26248524 -0.01660216 -0.01678357 0.0010555097 -0.02383039 0.0046487832 0.0025103772
-0.066712745 0.021413235 0.07220168 0.18574522 -0.042449046 0.17540471 0.024583101 0.005884056
0.000669839 -0.027785784 -0.0013381621 0.008981035 0.038300958 -0.03088183 -0.021770818 0.0033637537
-0.032030262 0.16692635 -0.023137536 -0.03256786 0.0029945683 -0.018901832 -0.0035370036 0.0008649036
-0.00052693795 3.8275462e-05 -0.00012639054 -0.00017875287 3.8742695e-05 -0.00010698918 0.00012882163 4.9596387e-05
-4.921022e-05 -8.42632e-05 -6.369166e-05 4.961918e-05 -0.00015608696 0.00011062661 5.763468e-05 -8.081837e-06
-2.275187e-05 -0.00017290188 1.4478282e-05 3.1786123e-05 -3.5174748e-05 -0.000121387304 -0.00015351654 -0.00013232464
-0.00013303627 5.1310642e-05 -0.00010553366 -2.326664e-05 6.0539034e-05 -0.00010354068 -0.00021552843 -4.6035813e-05
7.966998e-06 -0.00034475786 3.5965684e-05 6.537942e-05 -0.00029774947 7.338139e-05 1.0036506e-05 -1.4731173e-05
9.831019e-05 -2.840038e-05 -0.000110542154 -0.00024070035 1.6897018e-05 -0.0003885976 0.00012260501 -1.2689569e-05
-1.4737826e-05 5.438854e-05 1.3364575e-05 -2.0574771e-05 -0.00019409833 7.767582e-05 -3.698359e-06 -3.196484e-05
6.6907916e-05 -0.0003416037 2.1936206e-05 -0.00024027065 6.294074e-06 6.120799e-05 1.0463491e-05 -1.5159423e-05
0.0059226924 0.15159884 -0.015949864 -0.014813002 -0.003535355 -0.020558665 0.0044476497 0.0024816934
-0.053319614 0.020782894 -0.019360997 0.17987078 -0.038460672 0.14065228 -0.12680197 0.0059228237
0.0006248998 -0.025044188 -0.0012960603 0.008960495 -0.0048532384 -0.025669191 -0.02067008 0.003369245
-0.028375937 0.18183647 -0.02151477 -0.059038028 0.0030374434 -0.01682864 -0.003485415 0.0009121083
-0.002401156 -0.00014059141 -0.00025246726 -0.0004186715 0.00012744067 -0.00028934222 0.00091139 0.00022660369
-0.0001673236 -0.00048598193 7.0400165e-06 5.9655507e-05 -0.00059949164 -0.00019289451 -0.0005975607 -3.649252e-05
-6.169327e-05 -0.00044123802 0.00014077731 0.00013730711 5.999358e-05 -0.00030320822 -0.0006189359 -0.00042104957
-0.00034322025 -0.00011796051 -0.00039445996 0.000118431184 0.00043662172 -0.000215975 -0.00072027266 -8.939949e-05
00000000: b94f 4938 a229 e838 c890 1f38 2136 7d38
00000010: cf79 17b9 8ff0 5438 6a98 82b8 6477 2437
00000020: d88d 1db9 0144 3735 729d a338 0083 35b8
00000030: 3bdc 4038 3a64 2b39 6ce1 38ba 9dab d736
00000040: 2f51 0137 2888 3438 452b c0b4 6c6c d1b4
00000050: ba27 e7b7 02ac 5838 2c54 1f38 488e d037
00000060: f0c1 7e38 289b 8738 506c ce37 9945 d637
00000070: 59d8 ccb6 7162 6a38 25e0 af36 0630 6f37
00000080: 98a4 3b38 d420 63ba 67a0 5a39 ea90 d139
00000090: e420 37ba b586 033a afc2 9eb8 77c7 11b8
000000a0: 3aa9 523a 6694 ffb8 34b2 d9b9 9f20 d8ba
000000b0: 320c 9b39 6a39 79ba a2f8 bcba 6acc 6fb8
000000c0: 663b 77b8 b333 9e39 1eac 7938 65dc c9b8
000000d0: 8285 1cba 5e4d 0b3a f9ad c038 ce7c 93b8
000000e0: 542c 053a e1b0 86ba d48e 2039 10bf c5b9
000000f0: 2d3d bb37 4a5d 063a 2d7d 6138 1007 57b8
00000100: c89e b337 8d77 ebb9 23a8 8638 dca1 d738
00000110: e1ca d8b9 a37e 0539 5d09 99b7 36a4 2d36
00000120: 5515 d639 f575 bbb6 22f5 46ba 9e99 6dba
00000130: 1538 b038 d2f5 93b9 8f7a e7b9 8fdf c2b6
00000140: f7fd 1db5 1934 a838 b1f8 0037 2096 4fb7
00000150: 2353 73ba 72e7 1939 0a39 1f38 8b60 ae36
00000160: 0321 0e39 c9ae 0cba a521 3938 a0fa 56ba
00000170: f700 b234 21f6 1339 633d 2a37 a0b3 2c34
00000180: 1e3a bf3b 7764 863e 4101 88bc b37d 89bc
00000190: 0759 8a3a f337 c3bc d254 983b 2485 243b
000001a0: b1a0 88bd cf6a af3c 79de 933d ff33 3e3e
000001b0: 0ddf 2dbd 4b9d 333e 8062 c93c 0acf c03b
000001c0: 2298 2f3a 039f e3bc 4565 afba 3125 133c
000001d0: 77e1 1c3d e4fb fcbc b758 b2bc 6c72 5c3b
000001e0: 2a32 03bd beee 2a3e ee8a bdbc e065 05bd
000001f0: 8540 443b 04d8 9abc 13cd 67bb b3ba 623a
00000200: 3522 0aba f789 2038 b487 04b9 9c6f 3bb9
00000210: a77f 2238 615f e0b8 4b14 0739 b705 5038
00000220: 1267 4eb8 76b6 b0b8 3392 85b8 301e 5038
00000230: 46ab 23b9 3600 e838 c4bc 7138 3a97 07b7
00000240: 45db beb7 ff4c 35b9 bfe7 7237 1752 0538
00000250: 9988 13b8 5091 feb8 48f9 20b9 a0c0 0ab9
00000260: a77f 0bb9 6236 5738 f451 ddb8 bb2c c3b7
00000270: 4beb 7d38 fb23 d9b8 79ff 61b9 9416 41b8
00000280: ffa9 0537 9ec0 b4b9 dcd9 1638 4f1c 8938
00000290: 421b 9cb9 55e4 9938 7762 2837 e825 77b7
000002a0: e22b ce38 5a3d eeb7 ded2 e7b8 8264 7cb9
000002b0: 12be 8d37 b0bc cbb9 888f 0039 49e5 54b7
000002c0: 7b42 77b7 401f 6438 6a38 6037 fc97 acb7
000002d0: e086 4bb9 e3e5 a238 5331 78b6 fc11 06b8
000002e0: ea50 8c38 4619 b3b9 a503 b837 29f1 7bb9
000002f0: af31 d336 ca5c 8038 5a8c 2f37 3a55 7eb7
00000300: 2513 c23b ba3c 1b3e 4aa9 82bc 3cb2 72bc
00000310: 6ab1 67bb a56a a8bc 97bd 913b e8a3 223b
00000320: ab65 5abd e340 aa3c f49a 9ebc 0c30 383e
00000330: f088 1dbd 2707 103e 60d8 01be 3f14 c23b
00000340: 51d0 233a 7829 cdbc 91e0 a9ba 0acf 123c
00000350: ea07 9fbb 3248 d2bc 4d54 a9bc 8dce 5c3b
00000360: a774 e8bc 5733 3a3e be3f b0bc dcd1 71bd
00000370: d80f 473b 37dc 89bc 8f6b 64bb 8d1a 6f3a
00000380: b65c 1dbb b86b 13b9 955d 84b9 2381 dbb9
00000390: 98a1 0539 dbb2 97b9 59ea 6e3a 779c 6d39
000003a0: 9673 2fb9 64cb feb9 4839 ec36 9d36 7a38
000003b0: 3427 1dba ba43 4ab9 9fa5 1cba 8c0f 19b8
000003c0: 5261 81b8 f755 e7b9 9f9d 1339 19fa 0f39
000003d0: 9ea1 7b38 ebf7 9eb9 1640 22ba 51c0 dcb9
000003e0: 3ef2 b3b9 9161 f7b8 85cf ceb9 425e f838
000003f0: 60ea e439 5977 62b9 aed0 3cba fc7b bbb8

gat_layer_1.layer0_1.1.input_linear_layer1.bias f4 [32]
0.00042662796 -0.0011570737 -0.00057875336 0.1135276 -0.00028797527 -0.00061774324 0.14985442 -0.00072074163
-0.00014156406 0.09698578 0.20495684 -0.0024719774 -0.0016152476 0.14879589 0.09493838 0.11415059
0.030383885 -0.003987921 -0.0010021648 0.07736355 0.16293524 0.08932866 -0.00034352991 0.21703893
0.22158809 -0.0017480829 0.085113265 0.16619329 -0.0009053985 -0.0018476419 -0.00036746028 -0.00037507777
00000000: 09ad df39 f3a8 97ba 7bb7 17ba 2981 e83d
00000010: 63fb 96b9 0cf0 21ba 7073 193e 27f0 3cba
00000020: d070 14b9 7ba0 c63d 35e0 513e e600 22bb
00000030: b7b6 d3ba f35d 183e 0e6f c23d c9c7 e93d
00000040: a0e7 f83c 1bad 82bb 125b 83ba c870 9e3d
00000050: 7fd8 263e f2f1 b63d ce1b b4b9 743f 5e3e
00000060: fde7 623e ee1f e5ba dd4f ae3d 932e 2a3e
00000070: 4458 6dba 932c f2ba afa7 c0b9 16a6 c4b9

gat_layer_1.layer0_1.1.input_linear_layer2.weight f4 [32, 32]
0.00038597 -0.017760662 -0.0027867164 -0.004354352 -0.0018897173 -0.0051532835 -0.0029925772 -0.0052336473
-0.0022649958 0.00018017295 -0.0361852 -0.011462626 -0.00900171 -0.026865756 -0.09711092 -0.001734693
0.0035377871 -0.0042506573 -0.0080222925 -7.830148e-05 -0.008701016 -0.0047784485 -0.00842869 -0.0062437835
-0.008080421 0.0035265554 -0.009177246 -0.0134593295 -0.008974192 -0.0035150398 0.0032341925 -0.0037063255
0.004078931 -0.03311776 0.009874544 -0.0006956776 -0.009892384 -0.0061369212 -0.009541997 0.0017953592
0.009804128 -0.005707719 -0.047337078 0.042467687 0.054955814 0.1589507 0.098145835 -0.00467939
-0.013006177 0.030071383 0.00727571 0.013649957 0.0035919356 0.07258574 0.046343967 -0.011313009
0.027521381 0.0089307055 0.04115827 0.04769695 -0.003318229 0.038518585 -0.011960546 -0.005283685
0.0046914434 0.005868523 -0.007010498 -0.003903932 0.021468423 -0.0124545805 -0.01267989 -0.0032559622
-0.02055493 0.009539082 0.005866333 0.019133765 -0.0012717727 -0.01390984 -0.044802785 0.0032285058
0.0050074463 -0.0053014397 -0.007543848 -0.0018566933 0.0069278865 -0.010134205 0.004740793 -0.0064890925
-0.0038202526 -0.038651828 9.450775e-05 0.030484946 0.001117504 -0.008661702 -0.0016024236 -0.0021756687
0.0022837657 -0.075225145 -0.0065273256 -0.014196626 0.01865952 -0.017176613 -0.00580084 0.0020568206
0.00080742186 0.011722512 -0.0059484253 0.0295114 -0.0050662765 0.014912724 -0.034633745 -0.0011398916
0.006017864 -0.010883617 -0.002501286 -0.008300035 0.004247925 -0.013417636 0.00015609147 -0.004091386
-0.005363496 0.008027779 -0.0057129837 0.023700895 0.0017029614 -0.009595222 0.0037186802 -0.00039780364
0.009259191 0.33485597 -0.2519274 -0.11341446 -0.17708136 -0.12385517 0.052092943 -0.010437562
0.103752285 -0.009392732 0.14400819 0.42628953 -0.20632751 0.40541592 -0.12375697 0.07237551
-0.025982093 -0.24864967 -0.011622724 0.025680026 -0.04288738 -0.048772894 -0.13086823 -0.016074857
-0.16135232 0.21389711 -0.16830757 -0.22769225 0.0014535493 -0.07955367 -0.0076547316 0.006152584
0.0018703087 -0.01794712 -0.013854431 -0.011971891 0.019412361 -0.025728267 0.0015301781 0.00045373559
-0.029255446 0.014774726 -0.049285308 0.006332633 -0.005945299 -0.038578257 -0.09021766 0.0050492845
0.006122516 -0.015784325 -0.005064577 -0.003584983 0.002700611 -0.021337913 -0.0025349967 0.0028968232
-0.01661484 -0.0011456982 -0.0075601274 -0.0052741766 0.004652572 -0.017627966 0.0037579301 0.00079874735
0.014716836 -0.025550747 -0.014640532 -0.015026795 -0.046481308 -0.030706951 -0.014800305 0.013028746
0.005074791 0.004403499 -0.11744359 0.057454225 0.0115080355 -0.010662366 -0.038657293 -0.008635814
-0.007994147 -0.012500964 0.018366538 0.0072717 -0.02626294 -0.035261475 -0.013185733 0.0031982493
-0.026120435 -0.042794798 0.014657701 -0.0018792576 0.009283586 0.018878743 -0.0003489809 0.009857518
0.0021146573 0.035496745 0.0039187553 0.004819011 0.00841892 0.007379728 -0.00670905 -0.009878541
0.018301707 0.0010357046 -0.012363844 0.004436353 0.0069437274 0.040707283 0.07556233 -0.004886234
-0.00040731666 0.007606194 -0.003017741 -0.0037660224 -0.015900768 0.009835879 0.0037510528 -0.00922215
0.0066923685 -0.034184124 0.005858933 0.019087343 -0.00934065 0.0076154717 0.0030614438 -0.001989091
00000000: 045c ca39 cf7e 91bc 58a1 36bb f4ae 8ebb
00000010: 64b0 f7ba e0dc a8bb 1d1f 44bb 047f abbb
00000020: 5370 14bb cfec 3c39 ef36 14bd bdcd 3bbc
00000030: e97b 13bc 9315 dcbc 17e2 c6bd a35e e3ba
00000040: 38da 673b 1949 8bbb ef6f 03bc c935 a4b8
00000050: b58e 0ebc 8894 9cbb 7d18 0abc a798 ccbb
00000060: be63 04bc c81d 673b 295c 16bc 8584 5cbc
00000070: 7d08 13bc 955c 66bb bff4 533b d3e5 72bb
00000080: 8ea8 853b 7da6 07bd d7c8 213c 225e 36ba
00000090: aa13 22bc 3a18 c9bb 0956 1cbc 4252 eb3a
000000a0: 7ea1 203c d107 bbbb 86e4 41bd 99f2 2d3d
000000b0: 5919 613d f9c3 223e af00 c93d 9255 99bb
000000c0: dc17 55bc 4358 f63c 1469 ee3b 12a4 5f3c
000000d0: ae66 6b3b d5a7 943d 2cd3 3d3d 335a 39bc
000000e0: 8574 e13c 1852 123c 9395 283d e15d 433d
000000f0: a576 59bb aac5 1d3d 2af6 43bc c322 adbb
00000100: aeba 993b bd4c c03b 52b8 e5bb 1cd9 7fbb
00000110: 8cde af3c 4c0e 4cbc 50bf 4fbc fb61 55bb
00000120: d062 a8bc cf49 1c3c 5e3a c03b 6abe 9c3c
00000130: 9cb1 a6ba 19e6 63bc 2083 37bd 5795 533b
00000140: 8115 a43b b3b7 adbb 6232 f7bb 4a5c f3ba
00000150: 5303 e33b f009 26bc a758 9b3b 74a2 d4bb
00000160: 345d 7abb 6151 1ebd 7632 c638 91bb f93c
00000170: 3679 923a d0e9 0dbc 6a08 d2ba aa95 0ebb
00000180: 3bab 153b a40f 9abd 2de3 d5bb f798 68bc
00000190: dadb 983c f8b5 8cbc f914 bebb b9cb 063b
000001a0: 2aa9 533a c70f 403c 02eb c2bb e4c1 f13c
000001b0: 0203 a6bb 7f54 743c 1ddc 0dbd 6a68 95ba
000001c0: 8131 c53b 3351 32bc 9eec 23bb dffc 07bc
000001d0: 2d32 8b3b a5d5 5bbc 7cac 2339 0911 86bb
000001e0: 44c0 afbb f286 033c fb33 bbbb 6128 c23c
000001f0: e735 df3a 4735 1dbc 1ab5 733b 4d90 d0b9
00000200: ddb3 173c 3e72 ab3e a1fc 80be d745 e8bd
00000210: d154 35be c8a7 fdbd 695f 553d 4f02 2bbc
00000220: 147c d43d f9e3 19bc e276 133e 9f42 da3e
00000230: 8547 53be ad92 cf3e 4b74 fdbd 9d39 943d
00000240: 66d8 d4bc 059e 7ebe 3d6d 3ebc eb5e d23c
00000250: adaa 2fbd 16c6 47bd 5202 06be 6baf 83bc
00000260: 8b39 25be d807 5b3e d258 2cbe 2828 69be
00000270: 0585 be3a 09ed a2bd 8bd4 fabb 9e9b c93b
00000280: 2525 f53a d705 93bc b2fd 62bc c025 44bc
00000290: ac06 9f3c 16c4 d2bc 4290 c83a 5ce3 ed39
000002a0: 1ea9 efbc b111 723c 64df 49bd fa81 cf3b
000002b0: c8d0 c2bb 3c04 1ebd 09c4 b8bd 7874 a53b
000002c0: 639f c83b 214e 81bc c0f4 a5bb 09f2 6abb
000002d0: bcfc 303b d9cc aebc 3022 26bb a1d8 3d3b
000002e0: d81b 88bc 412b 96ba f2ba f7bb 00d3 acbb
000002f0: 9a74 983b 8668 90bc 9b47 763b 0763 513a
00000300: e21e 713c cd4f d1bc d8de 6fbc f232 76bc
00000310: 2f63 3ebd 258d fbbc fa7c 72bc 8576 553c
00000320: 6f4a a63b 3a4b 903b 4486 f0bd 1f55 6b3d
00000330: 338c 3c3c 34b1 2ebc 1c57 1ebd 3b7d 0dbc
00000340: e2f9 02bc d8d0 4cbc 6c75 963c 7147 ee3b
00000350: 6125 d7bc 566e 10bd f908 58bc b899 513b
00000360: 86fa d5bc 9949 2fbd db26 703c 6c51 f6ba
00000370: 2f1a 183c 98a7 9a3c 6cf7 b6b9 6d81 213c
00000380: 1096 0a3b 0965 113d e768 803b cbe8 9d3b
00000390: 83ef 093c a5d1 f13b 97d7 dbbb 9bd9 21bc
000003a0: 76ed 953c 7bc0 873a b891 4abc d45e 913b
000003b0: 3588 e33b aebc 263d 6cc0 9a3d b41c a0bb
000003c0: 1e8d d5b9 613d f93b 4bc5 45bb 5fcf 76bb
000003d0: 5442 82bc ab26 213c 39d4 753b 8018 17bc
000003e0: a84b db3b a704 0cbd 4bfc bf3b 0f5d 9c3c
000003f0: 8709 19bc 358b f93b 81a2 483b 695b 02bb

gat_layer_1.layer0_1.1.input_linear_layer2.bias f4 [32]
0.042537585 -0.052619185 0.017478151 0.0042657233 0.19581158 0.019515058 -0.04668763 -0.037278213
-0.005085941 0.12526965 0.114279225 -0.0628737 -0.067124136 0.06288831 -0.12189932 -0.027597848
0.037781864 -0.07056856 -0.074516706 0.0425735 0.15809475 -0.074389584 0.004115575 -0.061114762
0.00713054 0.08539289 0.0023982895 -0.05502161 -0.20559947 -0.014476003 -0.041974343 -0.027318455
00000000: e43b 2e3d 3787 57bd 572e 8f3c 7bc7 8b3b
00000010: d582 483e 0bde 9f3c 873b 3fbd 0ab1 18bd
00000020: f7a7 a6bb b046 003e 3a0b ea3d edc3 80bd
00000030: 6178 89bd 96cb 803d 5aa6 f9bd e214 e2bc
00000040: 28c1 1a3d 4086 90bd 379c 98bd 8d61 2e3d
00000050: 97e3 213e 9159 98bd f2db 863b 7953 7abd
00000060: 4ea7 e93b 78e2 ae3d 9f2c 1d3b 575e 61bd
00000070: ab88 52be c22c 6dbc 4aed 2bbd f4ca dfbc

gat_layer_1.layer0_1.1.a_1.weight f4 [1, 32]
-4.1288018e-05 0.0003355908 1.6402917e-05 -0.19327131 9.674119e-05 8.984022e-05 -0.19030544 0.0005475575
-3.10797e-05 -0.24537018 -0.2379494 0.00017256849 0.00023068041 -0.16444832 -0.07571336 -0.26667234
-0.2760392 0.00080563035 -0.00039553945 -0.08174334 -0.36111856 -0.15849644 6.809569e-05 -0.2584967
-0.35591352 2.2979422e-05 -0.028274314 -0.20978647 1.1999168e-05 0.0010478749 5.1659783e-05 4.9061546e-05
00000000: ac2c 2db8 3cf2 af39 ff98 8937 eae8 45be
00000010: 88e1 ca38 9a68 bc38 6edf 42be f689 0f3a
00000020: 935b 02b8 5242 7bbe 02a9 73be 80f3 3439
00000030: cde2 7139 2465 28be 9b0f 9bbd 4789 88be
00000040: 0355 8dbe f030 533a 6860 cfb9 0d69 a7bd
00000050: 88e4 b8be e44c 22be 98ce 8e38 ae59 84be
00000060: 4c3a b6be efc3 c037 899f e7bc 44d2 56be
00000070: 0950 4937 d958 893a 45ad 5838 6fc7 4d38

gat_layer_1.layer0_1.1.a_2.weight f4 [1, 32]
-0.012115475 -0.044633966 0.012116126 0.0025864514 -0.28962663 0.0226204 -0.02783085 -0.0029261303
0.06424074 -0.24192281 -0.21897744 -0.009325228 0.20484744 -0.03419845 0.18227099 -0.008417161
-5.9308295e-05 0.027635107 0.0028156515 0.016553693 -0.053928744 0.013097878 0.072431415 -0.0032305114
0.002760546 -0.08715861 -0.0025643166 -0.18773581 0.00014711358 0.019849824 0.0064647007 0.0036850453
00000000: fc7f 46bc 1bd2 36bd b782 463c 7481 293b
00000010: f149 94be 6b4e b93c 86fd e3bc 52c4 3fbb
00000020: a690 833d 9dba 77be 9f3b 60be d7c8 18bc
00000030: 87c3 513e ad13 0cbd 3fa5 3a3e 22e8 09bc
00000040: ccc1 78b8 0563 e23c cb86 383b 9c9b 873c
00000050: 63e4 5cbd 7b98 563c ec56 943d fdb6 53bb
00000060: 47ea 343b 3780 b2bd 180e 28bb d13d 40be
00000070: 8042 1a39 199c a23c d7d5 d33b cd80 713b

out_layers.layers.0.weight f4 [32, 32]
0.013253033 0.09375029 -0.019257035 -0.013131269 -0.1591053 -0.097359285 0.20999339 -0.03220952
-0.1838419 -0.16876775 -0.1604897 0.12933467 -0.18450668 0.27531016 -0.6456923 0.017679641
0.03927396 -0.028206967 0.052838642 -0.059250806 -0.06280018 -0.09605867 -0.28666618 -0.023406351
-0.12717931 0.16188054 -0.09967002 0.015346493 -0.003146733 -0.028208317 0.05117486 -0.0043187756
0.0063934173 0.13447137 0.013310911 -0.039337702 -0.1806224 -0.063503094 0.19313382 0.031206485
-0.10735658 -0.21822543 -0.051114857 0.037746448 -0.17347845 -0.04328875 -0.48025087 0.0040035034
-0.0014851665 -0.006893339 -0.024527438 0.027103635 -0.35867473 -0.09329977 -0.14715496 -0.017495839
0.004597146 0.08599528 -0.16193011 -0.29782748 0.026819156 -0.0055872803 0.035930384 0.0067799175
0.0048615136 0.0014274613 -0.0010540909 -0.004135229 -0.07840704 -0.0029959145 0.0043966463 -0.003912838
0.009576241 0.012135119 0.05438708 0.002664129 0.032267947 0.0342122 0.08091895 -0.0017025389
-0.0032556911 0.0018890207 -0.018365027 -0.011078766 0.042216927 -0.00316624 0.02372082 0.0052869488
-0.0009988786 0.0090372 -0.020667484 0.0608896 -0.018284755 0.0017550576 -0.0054633906 -0.010807339
0.0058858674 0.047425773 -0.01110453 -0.008122357 0.13971202 -0.08832526 -0.05056204 -0.028113721
-0.056540806 -0.12735985 0.12039715 -0.041328873 -0.21484429 0.09089083 -0.46489742 0.011222488
-0.07573134 -0.0029673984 0.02011468 -0.07232847 0.09074265 -0.103586815 -0.06356926 0.09174841
-0.11918694 0.13061467 -0.040911146 0.18804845 0.036319572 -0.009716921 0.032182604 0.010863536
-0.023300042 0.003548115 -0.01026667 -0.074413784 0.0932739 -0.024420936 0.013777459 -0.04932817
-0.11818428 0.15590622 0.20032068 0.141574 -0.21104527 -0.093375124 -0.057345755 -0.043811467
-0.0018703275 0.0091948435 -0.053205613 -0.0031336732 0.20917954 0.0878845 -0.1380664 -0.025357297
-0.05970037 0.17009294 -0.08213003 0.21941033 -0.064610764 -0.056929696 0.06421408 -0.021520194
0.005516691 0.016417252 -0.00072883547 -0.0060648224 0.08048317 -0.014132785 -0.006135575 0.0015482048
-0.0048440164 -0.07472134 -0.1306463 0.014756806 -0.013606591 0.012908853 -0.02400723 -0.0025819067
-0.004306631 -0.008533053 0.021292018 -0.010198904 -0.0059512113 -0.010845512 0.08758154 0.0048629623
0.005740805 0.0028872597 0.0042346357 0.08164865 0.015598013 -0.002704999 0.003705538 0.0047402345
-0.031703264 -0.05145399 -0.022043576 0.016321827 -0.19810714 -0.04310888 0.070635386 -0.021015674
-0.06487428 -0.11591948 0.012668813 0.056370057 -0.0533602 0.13267979 -0.4051475 -0.007196975
-0.0072485404 0.057329163 0.008186015 -0.01280611 0.0015396879 -0.048499927 -0.14061554 -0.018412687
-0.07853742 0.06902025 0.02015374 0.021299606 -0.02318623 -0.047463547 -0.007600937 0.0059876516
-0.024973297 -0.08954606 -0.008080075 0.06675474 -0.24791822 0.087296784 -0.0036978761 0.007319327
0.08115622 0.05721415 -0.3341146 0.015280775 0.02318656 -0.10029852 0.29922834 0.0016977168
0.039669283 0.09079933 -0.01667713 0.04936266 -0.19920887 0.14871931 0.15983267 -0.051830195
-0.0371871 0.003938569 0.08097618 -0.300892 -0.028326117 -0.008825227 -0.0399914 0.054200936
00000000: 4023 593c 2700 c03d eec0 9dbc 8924 57bc
00000010: 80ec 22be 4e64 c7bd 8208 573e 21ee 03bd
00000020: 0d41 3cbe 74d1 2cbe 6957 24be 4f70 043e
00000030: 52ef 3cbe 74f5 8c3e 174c 25bf e5d4 903c
00000040: bbdd 203d 4c12 e7bc 556d 583d f9b0 72bd
00000050: 619d 80bd 68ba c4bd e9c5 92be adbe bfbc
00000060: 4b3b 02be 03c4 253e cc1f ccbd db6f 7b3c
00000070: 6b39 4ebb 2115 e7bc bb9c 513d 8484 8dbb
00000080: df7f d13b ddb2 093e 0216 5a3c 9220 21bd
00000090: 14f5 38be e90d 82bd dfc4 453e bea4 ff3c
000000a0: c4dd dbbd 7d76 5fbe d05d 51bd 059c 1a3d
000000b0: 56a4 31be 8b4f 31bd 71e3 f5be d22f 833b
000000c0: eba9 c2ba 85e1 e1bb c4ed c8bc 7108 de3c
000000d0: 37a4 b7be f313 bfbd caaf 16be 6f53 8fbc
000000e0: a8a3 963b 4b1e b03d 02d1 25be d87c 98be
000000f0: d9b3 db3c 8115 b7bb bd2b 133d 122a de3b
00000100: 554d 9f3b a719 bb3a 6c29 8aba d180 87bb
00000110: df93 a0bd 1b57 44bb be11 903b 4437 80bb
00000120: aae5 1c3c 61d2 463c fdc4 5e3d ab98 2e3b
00000130: 652b 043d 1822 0c3d d6b8 a53d ba27 dfba
00000140: 6f5d 55bb 0499 f73a 4172 96bc b683 35bc
00000150: a8eb 2c3d b180 4fbb 2a52 c23c 243e ad3b
00000160: ceec 82ba c410 143c db4e a9bc 6067 793d
00000170: e9c9 95bc f609 e63a 3e06 b3bb 4411 31bc
00000180: 3cde c03b 8741 423d c6ef 35bc a213 05bc
00000190: ab10 0f3e e0e3 b4bd 241a 4fbd bf4e e6bc
000001a0: 5597 67bd 9f6a 02be c892 f63d 7748 29bd
000001b0: 2400 5cbe f924 ba3d 0907 eebe 87de 373c
000001c0: 0819 9bbd af78 42bb 8bc7 a43c f320 94bd
000001d0: 48d7 b93d 5325 d4bd 9a30 82bd 97e6 bb3d
000001e0: 4818 f4bd dabf 053e 7292 27bd c68f 403e
000001f0: d5c3 143d b833 1fbc e8d1 033d f9fc 313c
00000200: bbdf bebc 7e87 683b 8935 28bc 4166 98bd
00000210: 6306 bf3d 6a0e c8bc daba 613c 560c 4abd
00000220: 9a0a f2bd e1a5 1f3e dd20 4d3e c6f8 103e
00000230: 401c 58be 753b bfbd 62e3 6abd a773 33bd
00000240: c725 f5ba f8a5 163c 21ee 59bd 505e 4dbb
00000250: 2933 563e cafc b33d 4761 0dbe 1bba cfbc
00000260: 6088 74bd d82c 2e3e ca33 a8bd 1aad 603e
00000270: a652 84bd 1d2f 69bd ac82 833d 1e4b b0bc
00000280: 5cc5 b43b 797d 863c 520f 3fba 6bbb c6bb
00000290: 5cd4 a43d 328d 67bc ef0c c9bb 22ed ca3a
000002a0: 8eba 9ebb 8007 99bd 25c8 05be 88c6 713c
000002b0: 2eee 5ebc a77f 533c cfaa c4bc 3535 29bb
000002c0: a41e 8dbb 38ce 0bbc 996c ae3c 4e19 27bc
000002d0: 6102 c3bb 60b1 31bc f35d b33d 7c59 9f3b
000002e0: 5d1d bc3b 2e38 3d3b b3c2 8a3b 6837 a73d
000002f0: cf8e 7f3c 5a46 31bb 9dd8 723b f853 9b3b
00000300: 48db 01bd 6bc1 52bd bb94 b4bc 5ab5 853c
00000310: 99dc 4abe f092 30bd 49a9 903d 1029 acbc
00000320: cedc 84bd 3167 edbd da90 4f3c 4ae4 663d
00000330: 3a90 5abd 36dd 073e 7e6f cfbe 9ad4 ebbb
00000340: 2a85 edbb fcd1 6a3d a31e 063c b8d0 51bc
00000350: 5acf c93a dca7 46bd 85fd 0fbe 34d6 96bc
00000360: 3ad8 a0bd 7d5a 8d3d 7519 a53c 837c ae3c
00000370: 0cf1 bdbc 2369 42bd 4811 f9bb 1034 c43b
00000380: cd94 ccbc ed63 b7bd 4a62 04bc b6b6 883d
00000390: 46de 7dbe a8c8 b23d 1158 72bb f7d6 ef3b
000003a0: 3b35 a63d 6259 6a3d 1211 abbe 375c 7a3c
000003b0: bef1 bd3c 4f69 cdbd 7534 993e ec85 de3a
000003c0: 427c 223d 00f5 b93d 7a9e 88bc 8030 4a3d
000003d0: 69fd 4bbe e049 183e 2dab 233e e64b 54bd
000003e0: 8051 18bd 1d0f 813b d7d6 a53d 840e 9abe
000003f0: 2c0c e8bc af97 10bc 06ce 23bd cd01 5e3d

out_layers.layers.0.bias f4 [32]
0.058387656 -0.316313 -0.055506248 -0.22698948 -0.16121362 0.013234748 -0.131328 0.37148407
0.2949455 -0.08501515 -0.31312585 -0.2704196 -0.1340086 -0.29131174 -0.037991125 0.34587497
-0.18817353 0.5482645 -0.005023257 -0.24359822 -0.3855285 -0.1651452 -0.025346885 -0.22521493
0.011819202 0.024252279 0.17243913 -0.2592447 -0.005676742 0.099362455 -0.076873355 0.07939486
00000000: e527 6f3d c7f3 a1be 855a 63bd ee6f 68be
00000010: 2f15 25be 8ed6 583c d97a 06be 2933 be3e
00000020: 1903 973e 6c1c aebd 0852 a0be 7074 8abe
00000030: 8d39 09be d026 95be 959c 1bbd 8616 b13e
00000040: 90b0 40be 105b 0c3f 229a a4bb d071 79be
00000050: fe63 c5be d31b 29be 45a4 cfbc be9e 66be
00000060: 54a5 413c b7ac c63c e293 303e b9bb 84be
00000070: f703 babb 8b7e cb3d c76f 9dbd c699 a23d
