output/modelparams/dynamicLearning-HIGHSCHOOL-SCUAU-GAT/epoch11_model_state_dict.pth (torch, 125563 bytes, 66 tensors)

in_layer.layers.0.weight f4 [32, 2]
00000000: 3361 af3b c343 b4bb 83fe 28bd d048 c4be
00000010: 5822 d9be 468d d53e e999 3fbe 12a5 3d3f
00000020: 2d7c 80be e450 493e 5c42 88be dcc7 a1be
00000030: a88d 4bbe 39ef b63c c049 92be 17be 283e
00000040: b242 0ebd 67b1 ba3e 8261 d1be 367f 57be
00000050: 095e 67bc 7c9b 5a3d 909a b4be 0c35 fa3e
00000060: b38e c33b b81d aebb a390 2c3f 163f 40be
00000070: 7939 52be 2356 86bc fcb9 61be 60e9 2e3f
00000080: 4d02 34be d670 81bc ac04 b1be 92b9 3abf
00000090: 3bcd 11bf cc88 4f3f 816d 123c 8000 693b
000000a0: 278f 213e 946c 0dbf a39c 703e 2590 0bbf
000000b0: 5919 cbbb ca16 28bc 4477 1b3a 49d1 9c3b
000000c0: 1b43 c7be d99f 0b3e 680a 1d3a 38f8 a83b
000000d0: 2d8c b13e d1a7 9ebe 22f2 ff3e dc85 20bf
000000e0: c89f 1a3e 0dc0 2fbf d973 0ebc b56a 08bc
000000f0: 9067 423c 6103 303c 005a 273b 5259 ac3b
0.005352163 -0.005501242 -0.041258346 -0.38336802 -0.42409015 0.41709346 -0.18711056 0.7408
-0.2509474 0.19659764 -0.26613128 -0.31597793 -0.19878256 0.022330867 -0.28571892 0.16478764
-0.034731574 0.36463472 -0.40894705 -0.21044621 -0.014121541 0.053370938 -0.35274172 0.48868597
0.005967939 -0.0053136013 0.674082 -0.18774065 -0.20529737 -0.016398495 -0.22043604 0.6832485
-0.17579003 -0.015800875 -0.34573877 -0.7293941 -0.5695378 0.8106811 0.008937241 0.0035553277
0.15777265 -0.552438 0.23497252 -0.5451682 -0.00619809 -0.01025934 0.0005930553 0.004785691
-0.38918385 0.13635196 0.00059906254 0.005156543 0.34677258 -0.3098741 0.4998942 -0.62704253
0.15100014 -0.6865242 -0.008694612 -0.008326222 0.011865512 0.010742993 0.0025535822 0.0052596712

in_layer.layers.0.bias f4 [32]
00000000: a77b ce3b 360e 4c3d 237a e33d 95b2 2e3e
00000010: 4b14 7b3e c6a4 d63e a9a3 83be ae0b f2bd
00000020: e515 bf3c 6011 d13e 19d7 393b 3573 c83e
00000030: 6935 bb3b 7e41 eebe 9639 fd3d d1a2 9cbe
00000040: 88b6 8bbe 343d e53e 5407 103f b3b1 0fbc
00000050: 274a 0e3e 2123 87bc bdbc 113c d125 8abb
00000060: b4e7 853e 8d5b 86bb 6a5d 673e cfa8 a63e
00000070: d072 d53e 6cd8 0f3c acfa 31bc 1ed6 abbb
0.0063013616 0.04981824 0.1110728 0.17060311 0.2451946 0.41922587 -0.257108 -0.11818634
0.02332587 0.4083357 0.0028356968 0.39150396 0.005713154 -0.46534342 0.12364499 -0.3059297
-0.27287698 0.44773257 0.5626118 -0.008770394 0.13895474 -0.016496243 0.008895096 -0.004215934
0.26153338 -0.004100269 0.22594228 0.32550666 0.41689157 0.008779626 -0.0108629875 -0.0052440306

in_layer.layers.2.weight f4 [32, 32]
00000000: 60f2 763b 0b04 33bb 9a28 c6ba 7696 5d3a
00000010: 61fa 4e3b 59cf 93b9 1a7c bcba 7f71 96ba
00000020: 097a 493b e04d 3a3b dca8 683b 421a e9ba
00000030: fa79 3a3b fa12 a7b8 e7ba 8b3a 0b0c fdb9
00000040: 1ef2 04bb 90e0 90ba eb39 6d3c 24a3 30ba
00000050: 26ad 9d3a 037c 74b8 a712 853a 8272 bdba
00000060: be90 7f3a 6032 9cba 600c 25bc 5685 133d
00000070: 11c4 c5bc c732 27b9 8e3d 9b3a b74e 6b3a
00000080: b2dc a23a 77a5 29be d3b9 6d3e 1189 733e
00000090: c97d 773a 3ad2 27bd 8186 213d cb16 6a3d
000000a0: 1533 9f3d 6333 b03d ee11 983d 9d63 8a3e
000000b0: 0c78 413a 6c47 59be 5595 d43d 8679 483e
000000c0: 381e 13be 5e6d 4ebe dc6e b33e f0b6 683b
000000d0: d23a a0be b7c3 bcbe 6cea 293b 51df 25bb
000000e0: 4ecf 493e 4bc4 38bb dba2 39be 97ea f5be
000000f0: e9c9 5bbe ee9a b23a 936b c63a 4dd9 893a
00000100: fb1d ae3b 6279 9c3c cc80 cebd ccd2 08be
00000110: 74fb 45bd db9e d53a 37fc a7bb 09c9 aabc
00000120: 6555 25bd 6a90 86bc 003a 52bb 676c 01be
00000130: 0298 cd3b a9b1 383d 8772 99bc faf7 80bd
00000140: e73e 353b f3c7 b53c cd63 6fbe 1fd5 85b9
00000150: c73c 553d 7ba4 323d 5d22 133a 0df3 35ba
00000160: a945 5bbd cce0 31ba 5c33 233d 0bff 853d
00000170: 89c4 943b ce65 3639 9e4c a839 7b8f 7e39
00000180: dd1d b13b f4a5 af3c 4763 d7bd 2288 1fbe
00000190: 8e80 65bd 5cc5 d9b9 36cc 34bb d418 91bc
000001a0: f411 42bd 948d 9dbc 5ad2 08bb 2c66 17be
000001b0: 9951 a33b 63ac 383d 6f86 7abc 78b3 1dbd
000001c0: 1dea ee3c f287 b13c 8276 8bbe a046 5d38
000001d0: 4b17 133d cc51 043d 25bc 563a 89c8 56ba
000001e0: 5113 7bbd 2114 72ba d261 d03d e594 6fbd
000001f0: b883 c43c 4055 ae38 fb2f 9a39 27c0 b739
00000200: 7218 c6bb 186c 463c f53b 04be bacd ebbd
00000210: ad22 17bd 54a6 aa3b dba3 ea3b ffa3 753d
00000220: 4d50 d0bc a16b 3dbc 6702 aebb afdf 02be
00000230: c18b 02bc a182 77bb be66 4cbd 992a 60bc
00000240: 76a2 283d fe94 953d 72f4 45be 3bad 103b
00000250: 0b64 b83d 4426 42bb 09bb 1f3b cd50 44bb
00000260: ee61 7bbd 609d 41bb 3b55 1fbd ee01 523d
00000270: 6baf 163e 8e91 46b8 9ad7 a63a 5d36 96bb
00000280: 07ed 973b 46c9 ae3c 8ebf d6bd 7c48 15be
00000290: e567 59bd 8345 ce3b 8631 533d 7e13 ff3c
000002a0: 00fd 38bd de09 99bc 6e2d 16bb cfe1 07be
000002b0: 8fa4 a53b 67ae 0d3d 92ef 9dbc f7dd b8bd
000002c0: 057c 18bd d936 933c 414f 83be 30a8 cb39
000002d0: 4904 963d 7fad 00bc 0abc b13a 5af8 e0ba
000002e0: b4b0 6abd f037 ccba abb9 c6bd fbc8 fb3d
000002f0: fa0d f13c 3344 f938 2122 6e3a 454e a43a
00000300: bfc7 9a3b 9483 9f3c 73a2 3bbd ce89 5f3d
00000310: f311 a0ba 5f6d 683c 2b4d 9cbc cb08 1cbd
00000320: 6445 903c 2f20 17bd 95da 0ebc 3d98 3dbd
00000330: d5a3 a33b 333d b4bb 337a 99bc 6e58 b53a
00000340: 5a92 903b 5ecb 943a d1f0 803d ac42 e33a
00000350: b671 b63c a7fb 20bc 1fd8 e7ba b54f 263b
00000360: 2ba7 f13c a8af 093b c15a 863d 2a77 9b3d
00000370: 44a9 fcbc 4ef5 6039 28b9 c1ba 033f a9ba
00000380: b144 9c3b 8794 04b9 d64f edb9 d121 003c
00000390: 3665 1d3b 3b6b 91ba 5aaa 12bb 1c5c 11bb
000003a0: b3da f43a aeff 9239 244e fa3a 45a2 823b
000003b0: f031 893b 90bc 5cba a1d1 9c3a 9532 c6ba
000003c0: d87b e9ba 2dd1 b0ba b8b3 c63c 2898 40ba
000003d0: 5315 043b fe83 aeba 5bda afb9 d299 163a
000003e0: 39ca c93a e813 fa39 1d6b d83c 2772 4c3d
000003f0: 4d93 27bc 0fa4 5038 2a7d 28b9 ca77 3e38
0.0037681088 -0.0027315642 -0.0015118301 0.00084529014 0.0031582343 -0.0002819251 -0.0014380247 -0.0011477916
0.0030742905 0.0028427765 0.0035501039 -0.0017784315 0.0028454051 -7.966715e-05 0.001066056 -0.00048264893
-0.0020285915 -0.0011053253 0.014479141 -0.0006738177 0.0012029752 -5.828963e-05 0.0010152654 -0.0014453682
0.00097490463 -0.0011916868 -0.010073751 0.03601583 -0.024141343 -0.00015945277 0.0011843906 0.0008976268
0.0012425391 -0.16567026 0.23215418 0.23782755 0.00094410457 -0.040971972 0.039434914 0.057150643
0.07773415 0.08603551 0.07425295 0.27029124 0.0007380254 -0.21218652 0.10380045 0.19577608
-0.14366996 -0.20158908 0.35045516 0.003550943 -0.31294876 -0.3686807 0.002592708 -0.002531011
0.19707987 -0.0028193172 -0.1812853 -0.4803054 -0.21463741 0.0013626495 0.0015138261 0.0010517031
0.0053136325 0.019100849 -0.1008316 -0.13361663 -0.048335508 0.0016297953 -0.005126502 -0.020847814
-0.04036464 -0.016426284 -0.0032078028 -0.12639008 0.0062742243 0.045091305 -0.018731369 -0.06297298
0.00276559 0.02219007 -0.23377915 -0.00025526524 0.052059915 0.043613892 0.00056127255 -0.00069408194
-0.05353323 -0.00067855115 0.039843902 0.06542786 0.0045400304 0.00017394798 0.0003210054 0.00024276778
0.0054051713 0.021441437 -0.105169825 -0.15579274 -0.056030802 -0.0004153651 -0.002758754 -0.017712034
-0.047380403 -0.019232549 -0.0020877332 -0.14785069 0.0049840924 0.045086276 -0.0152908405 -0.038501233
0.029164368 0.02167127 -0.27238852 5.275628e-05 0.035910886 0.03230457 0.0008191488 -0.0008193334
-0.06129772 -0.0009234567 0.10174908 -0.058491606 0.02398859 8.3128456e-05 0.00029408917 0.00035047645
-0.0060453946 0.0121107325 -0.12913497 -0.115138486 -0.036898304 0.005207816 0.0071606464 0.059970852
-0.025428915 -0.011561305 -0.005310345 -0.12780641 -0.00796789 -0.003776707 -0.04990267 -0.013682031
0.04117056 0.07303809 -0.1933153 0.002207591 0.09003457 -0.002962486 0.0024372956 -0.0029955388
-0.06137269 -0.0029543266 -0.03889964 0.05127137 0.14715354 -4.7342437e-05 0.0012729049 -0.0045841173
0.00463641 0.021336209 -0.10485755 -0.14578432 -0.053077597 0.0062949075 0.0515609 0.031137224
-0.045163155 -0.018681463 -0.0022915262 -0.13269733 0.0050550173 0.03459015 -0.019279275 -0.090267114
-0.03722765 0.01797049 -0.25646403 0.00038844487 0.07325036 -0.007853865 0.0013560068 -0.0017163858
-0.057297423 -0.0015580636 -0.09703382 0.12294193 0.02942561 0.00011885948 0.0009084065 0.0012535533
0.0047235186 0.019471921 -0.04580922 0.05457478 -0.001221238 0.014186232 -0.019079765 -0.038094323
0.017611213 -0.036895927 -0.008719106 -0.046287764 0.0049938955 -0.0055004596 -0.018735027 0.0013835558
0.0044119777 0.0011352112 0.06295932 0.0017338595 0.022271018 -0.009825624 -0.001768831 0.00253771
0.029498657 0.002100924 0.06560279 0.07591088 -0.03084243 0.00021453688 -0.0014779912 -0.0012912456
0.004768931 -0.00012643832 -0.00045263645 0.007820562 0.0024016625 -0.0011094579 -0.002237937 -0.0022180146
0.00186809 0.00028037786 0.0019096774 0.003986629 0.004186861 -0.0008420432 0.001196433 -0.0015121276
-0.0017813398 -0.0013490074 0.024255618 -0.0007346892 0.0020154312 -0.0013314483 -0.0003354129 0.0005744967
0.001539535 0.00047698547 0.026418263 0.04991355 -0.01022799 4.9743856e-05 -0.00016068356 4.5411092e-05

in_layer.layers.2.bias f4 [32]
00000000: 2fe6 fbbb bdbb c3bd 010d b6bd 9aa2 cabc
00000010: c3fa 32be be89 67bd 5f6c a8bd f029 1bbd
00000020: 82a1 29bd 39ca a2bd 6188 7dbe fc11 223e
00000030: 06be a7bd 3f9f 2b3e 1a4e c63d 3b35 6bbd
00000040: 4552 20bc 1466 5dbd 2a54 bb3c 8304 91bd
00000050: 6a53 31be 26a2 623c 4362 c4bd 7569 bfbc
00000060: eb95 88bc 25ca d3bd 2ba2 07bd bc3c 3ebe
00000070: 907f 953c 54fd e1bd 4cf6 b93c 942f 85bc
-0.007687352 -0.095572926 -0.08889199 -0.024735738 -0.1747847 -0.056527846 -0.08223795 -0.03788179
-0.04141379 -0.07948727 -0.24759056 0.15827173 -0.08190541 0.16759966 0.096828654 -0.05742381
-0.00978524 -0.054052427 0.022867281 -0.07080939 -0.17316976 0.0138326045 -0.095890544 -0.023365716
-0.016673049 -0.103412904 -0.03311364 -0.18577856 0.018249303 -0.11034647 0.022700451 -0.016258039

gat_layer_1.layer0_1.0.input_linear_layer1.weight f4 [32, 32]
00000000: 5b9c 0b35 4b30 1fb8 3620 a536 c9b4 b936
00000010: 9c1f 84b7 31fb f336 85ad 2bb5 07d2 0635
00000020: 6fd9 2f37 c0ab bcb5 3659 8ab9 b9ba a2b8
00000030: 530f 8536 3fb8 6238 09b4 deb8 6161 00b5
00000040: 069d 2a33 3424 bd36 4093 7435 9388 6fb5
00000050: a5b1 85b9 e1d5 0437 c7c6 4536 15a7 20b4
00000060: d3cf 0837 a211 41b8 8b9f e236 f2d1 26b9
00000070: 30d6 6b35 a015 b936 aa5f af35 0790 9535
00000080: 8cc9 0835 7c39 98b8 9260 0e36 08d4 1636
00000090: c3d1 1ab7 ddfd 5336 5f2d f2b4 c49a 1535
000000a0: 3337 b836 5737 24b5 16f0 03b9 692f 46b8
000000b0: 5de7 ee35 f2fb ecb7 0a6f 8138 157b dbb4
000000c0: 4dac c532 94f9 2436 1496 6d35 69b4 93b5
000000d0: 1f01 efb8 440d 6236 381f ae35 c22d 82b3
000000e0: 5f55 6936 000c 94b8 88f3 4c36 aafd 92b8
000000f0: 29eb 9935 db6e 1c36 30c7 ab35 a85f 8d35
00000100: f5b8 363a 9e5e 873e 6205 a4bc 0059 81bc
00000110: 9a69 7cbb d761 a2bc 07b4 63bb f516 09bb
00000120: 61b1 3abd 9e61 b13c 4c0e 8bbc cf03 743e
00000130: fe29 0bbd 464d 6b3e 89df cf3c 8ae3 de3a
00000140: 9a1d 4fbb 3933 bcbc 04e3 f1b9 9c93 733b
00000150: 95fe 043d 7761 c7bc 5c1d 9bbc 10ec 40ba
00000160: 9cc9 bbbc 7453 8c3e 5145 9bbc abf4 b0bd
00000170: 6382 0abb 43cd abbc e538 8eb9 7f6f 8539
00000180: 8ad3 1b3a f532 623e b916 91bc 86e7 64bc
00000190: e31c 30bb 9148 93bc 31b9 51bb f956 04bb
000001a0: 8829 12bd a8df 9f3c cc98 373d 6f10 6c3e
000001b0: 81e5 fdbc f08d 853e 6cd5 073c 4f6f c03a
000001c0: 589d 45bb dc21 a6bc b8ee d3b9 6ff7 5a3b
000001d0: eeb0 2b3d b5af b2bc 3b3a 8abc 7893 40ba
000001e0: 2078 a7bc 5927 5d3e 6e17 8bbc a0e1 54bd
000001f0: df56 02bb 41eb 8fbc 94ef 95b9 41f1 7c39
00000200: 2e11 443a 1ad3 683e 2307 a8bc 8a97 8abc
00000210: 6bbb d1bb 4fb0 b1bc daa0 24bb df16 8cba
00000220: c591 36bd c6d3 aa3c cefd 333d f5d5 763e
00000230: f494 1ebd 4d44 7f3e a35c 00be b135 d73a
00000240: 777b 56bb 136d cebc cfea df39 454e 993b
00000250: 73f5 e43c 9795 d7bc 0888 a8bc 78aa 6cba
00000260: 5d04 e3bc 742c 853e 611b 99bc e91c 9abd
00000270: 3167 0eba e5d3 9dbc 7a0b 18ba 4268 513a
00000280: e52f f034 fa45 f7b8 ae9d 8436 b519 6136
00000290: caa4 39b7 94a3 a636 c932 88b5 6b25 2c35
000002a0: a8fc e736 f5f9 6eb5 d236 c2b8 c0a5 81b8
000002b0: 4fc4 6436 1934 feb8 8de7 7737 0c3c d5b4
000002c0: 6ff2 7e34 71fc 6936 cf1f 5a35 aa21 8db5
000002d0: 17ce b0b8 b927 a636 694b 4536 eb12 16b4
000002e0: f525 af36 5eba e8b8 57d0 af36 1b6e 80b8
000002f0: fec0 2335 be81 6936 8e85 8135 4408 7035
00000300: fa22 d6b8 cece 073e ec05 f5ba 0017 e83b
00000310: adb0 5c3d dc44 e33a 727c 1bb8 2161 a4bb
00000320: 3b37 cbbb 68b5 173d bb0a 3cbd 8040 483e
00000330: 3733 dcbc b39a 0a3e ebf1 043d c11a 8a3b
00000340: dfa3 6fbb a388 d2bb 2607 07ba 34ef 983b
00000350: 1c8f 233d b91a 72bb bcee 2bba 923a 3e3b
00000360: c9ca 1ebc 1b72 5a3e 3356 283a 10d3 d4bb
00000370: 1319 65bb 434d 723a 65a1 73ba 6741 3fb9
00000380: b89a a1b8 d082 a13d 51e5 5abb 8dac 5abb
00000390: 474e 883a e2f0 69bb 13dc 62ba 1e5b 5dba
000003a0: 4404 bebb 43f7 5a3b 01bb 573c d387 6d3d
000003b0: 1977 cebb c69a c53d 8110 6ebd 267f 62b8
000003c0: c5bd 79ba 97e1 86bb 60a6 91b9 59fd f138
000003d0: 9bf6 693c 6811 91bb 48ef 71bb 3bd1 c7b9
000003e0: 03b2 7ebb 8620 9a3d ef37 31bb f1b5 06bb
000003f0: 1eb0 55b9 e0e0 4fbb d8ab aab7 3c13 133a
5.200906e-07 -3.795353e-05 4.921133e-06 5.534476e-06 -1.5750345e-05 7.271207e-06 -6.395497e-07 5.022452e-07
1.0481438e-05 -1.4057077e-06 -0.00026387878 -7.759542e-05 3.965493e-06 5.405419e-05 -0.00010619319 -4.782542e-07
3.972402e-08 5.6368535e-06 9.111136e-07 -8.923318e-07 -0.00025500092 7.917611e-06 2.9470991e-06 -1.4961945e-07
8.1546195e-06 -4.6031208e-05 6.753898e-06 -0.00015909204 8.7856006e-07 5.515947e-06 1.3066358e-06 1.1143283e-06
5.095724e-07 -7.258632e-05 2.121586e-06 2.247516e-06 -9.227954e-06 3.1589218e-06 -4.5109024e-07 5.573204e-07
5.4900534e-06 -6.117529e-07 -0.00012582573 -4.7251033e-05 1.7799717e-06 -2.8250714e-05 6.171882e-05 -4.0881483e-07
2.3012172e-08 2.4583178e-06 8.850777e-07 -1.100486e-06 -0.00011396617 3.3684346e-06 1.2973096e-06 -6.06192e-08
3.4769398e-06 -7.059425e-05 3.0540123e-06 -7.009071e-05 1.1467829e-06 2.3310338e-06 1.2798464e-06 1.0533158e-06
0.000697031 0.26439375 -0.020022098 -0.015789509 -0.0038515092 -0.019822044 -0.0034744756 -0.0020918224
-0.045579318 0.021652993 -0.01697459 0.23829578 -0.033975594 0.22978696 0.025375145 0.0017005068
-0.0031603337 -0.022973644 -0.00046136242 0.003716684 0.03246935 -0.024338467 -0.018934898 -0.0007359395
-0.022923283 0.2740742 -0.018953951 -0.08640417 -0.0021134845 -0.0209719 -0.0002712674 0.00025450808
0.00059443025 0.22089751 -0.01771103 -0.013971215 -0.0026872687 -0.017978938 -0.0032001252 -0.0020193441
-0.03568414 0.019515827 0.044823453 0.23053144 -0.030993225 0.26084852 0.00829063 0.001468161
-0.0030153599 -0.020279817 -0.00040422915 0.0033411642 0.04191678 -0.0218123 -0.01687347 -0.00073461933
-0.020443022 0.21597041 -0.016978946 -0.051972985 -0.0019888205 -0.017568232 -0.00028597994 0.00024122467
0.00074793666 0.22736779 -0.020511216 -0.016917963 -0.006400516 -0.021690516 -0.002512029 -0.0010687968
-0.04457261 0.020852935 0.04394322 0.24105056 -0.03871627 0.24928398 -0.12535338 0.00164192
-0.00327274 -0.025198495 0.0004270882 0.00467852 0.02794907 -0.026316447 -0.020572677 -0.00090280874
-0.027712042 0.26010478 -0.018689813 -0.075250454 -0.0005432247 -0.019266078 -0.000580005 0.0007988253
4.4738331e-07 -0.00011790912 3.952263e-06 3.3542576e-06 -1.1065227e-05 4.9662285e-06 -1.014757e-06 6.4129443e-07
6.9137495e-06 -8.9025644e-07 -9.260852e-05 -6.182073e-05 3.4088914e-06 -0.00012121368 1.4776259e-05 -3.9718032e-07
2.374379e-07 3.4866646e-06 8.1257616e-07 -1.0515116e-06 -8.430721e-05 4.95181e-06 2.9399182e-06 -1.3976721e-07
5.219825e-06 -0.00011097336 5.2396604e-06 -6.1240244e-05 6.100307e-07 3.4795225e-06 9.650118e-07 8.9418995e-07
-0.0001021083 0.13262483 -0.0018693781 0.00708282 0.05387943 0.0017339247 -3.707078e-05 -0.0050164615
-0.0062016523 0.037038237 -0.04590867 0.19555855 -0.02687989 0.13535576 0.032457273 0.004214615
-0.003656618 -0.00642498 -0.00051509065 0.004667187 0.0399314 -0.0036942197 -0.00065587065 0.002902661
-0.009691902 0.2133259 0.0006421536 -0.006494887 -0.0034957572 0.000924308 -0.0009293764 -0.00018239544
-7.705897e-05 0.07886279 -0.0033400843 -0.0033367008 0.0010399305 -0.0035696556 -0.00086540094 -0.00084440585
-0.0057988483 0.003341154 0.013167144 0.05799086 -0.0063008186 0.09648661 -0.058121208 -5.4001015e-05
-0.0009526874 -0.004116248 -0.00027780514 0.00011538965 0.014279987 -0.004427124 -0.0036916304 -0.00038112127
-0.0038863427 0.075257346 -0.0027041396 -0.0020555223 -0.00020378872 -0.003171973 -2.03456e-05 0.0005610471

gat_layer_1.layer0_1.0.input_linear_layer1.bias f4 [32]
00000000: 3c74 9fb8 3bf2 0bb9 0935 f63d 2d2c 0b3e
00000010: 66a4 5e3e 1831 0db9 1d4b 643e e70c a63d
00000020: 73c6 32ba 2f08 743d 8839 ee3d 589c 0ebb
00000030: 1abd 383e 69fd 1ab9 ab96 393e f528 80b8
00000040: c205 1c3e e091 35ba 28d5 1f3e 80ba ffb8
00000050: f350 323e ec70 d93d 1659 81bb e8fb 30ba
00000060: df81 fdb8 93a5 b23d eebd 2bbb 9778 c4b8
00000070: 0e40 75b8 d2eb cdb8 2cfc 22ba c74d 3bb9
-7.603361e-05 -0.00013346311 0.120218344 0.1359107 0.217424 -0.00013465097 0.22294278 0.0810793
-0.00068197324 0.059578117 0.11632067 -0.0021760669 0.18040887 -0.00014780987 0.18123882 -6.1111445e-05
0.15236571 -0.0006926339 0.15608656 -0.00012194086 0.17413692 0.10617241 -0.0039473874 -0.0006751404
-0.000120881705 0.08722987 -0.0026205736 -9.36847e-05 -5.8472207e-05 -9.819087e-05 -0.0006217386 -0.00017862684

gat_layer_1.layer0_1.0.input_linear_layer2.weight f4 [32, 32]
00000000: 67ab 30bb dfae 36bc d634 833a 5dac 3a3a
00000010: 1fec 603b 1c57 3339 001d 7dbb a7b7 3838
00000020: fc48 7638 a9b6 b2b9 e7c3 19bc baf5 ff3a
00000030: a076 dcb9 8b40 babb f2ab d6bc 51a0 823a
00000040: 8d4e deba a86b 573a ba27 e538 408c 91ba
00000050: aeaa 4d3a f1ce 4b3a 8214 3b39 4b08 fb3a
00000060: 26d3 2c38 2888 e43a e04b 7437 c12f e23b
00000070: 3d53 b7ba 25cc 043a 7d7c 85ba ba37 dcba
00000080: 3551 29bb d7ba 68bc 92a8 d03b 2dc9 0e3c
00000090: a0af 3b3b c469 7e3c 6a74 6bbb bc37 bcb9
000000a0: 5c05 b83c c2d1 a8ba 2760 b9bb 0455 df3c
000000b0: 3f9a 003c 9b8d 8c3d 8f72 8d3d 80f7 f43a
000000c0: c362 2dbb 9a7c 3b3c 5eb9 3dbb 1ed6 123b
000000d0: 6b01 b3bc b541 473c 3e16 ee3b fdbf 863a
000000e0: 9c2a 553c 36e2 d1bc 4f0d 193c 73e7 9e3c
000000f0: 41d6 04bb 35f7 153c 0b25 d3ba a80c 823a
00000100: 31f8 833b 71d7 f83a 395b 8dba d09f 7ab9
00000110: c5ca 4a3c dbb4 4ebb 7149 7d3a 5127 02bb
00000120: 913f c6bb cc26 a33a 3434 abbc 9c40 84bb
00000130: 8122 f5b9 a125 e9bc b1db 50bd 7498 4c3a
00000140: 2254 1d3c e270 d4b9 4ee1 b3ba bde4 023a
00000150: 75e7 d9bb 4a39 25bb 51b0 293b 700c 8ab9
00000160: 8b40 3bbb 5aaa 0d3c f249 eeba 135c a33b
00000170: d044 98b9 33b4 69bb 4d25 f13a 70a5 383b
00000180: df7c 53ba 62d5 95bc fb65 a2bb 3064 d3bb
00000190: 2be6 213b a5b2 00bc 3e4a d839 9057 c2ba
000001a0: 46a2 0cbc b044 ea3a c235 92bc 7b4d 45ba
000001b0: 7eb8 e5ba 74c9 7b3c 1ca5 c23c 9a9c cbba
000001c0: 9a5f d0ba 9bf1 cabb 970e 16ba 6450 0d39
000001d0: 95cd 4abc a1a5 f4bb bda1 3cbb 9c55 b1b9
000001e0: 0d30 bebb c48d a63c 5a1a 8dbb aca5 3439
000001f0: 4277 22ba 6491 bfbb c41c 15ba 32e3 3cbb
00000200: 033e 863a 2f34 ac3e 6e58 28be d023 84be
00000210: d624 28be 2342 53be 5177 17bb 7ae6 8e3b
00000220: b11a 16be d993 4abc 6af5 d33b 52d6 b13d
00000230: ffe3 753c 3fa0 a73d c7a8 3abd 8c21 4c3b
00000240: 9462 233b e124 95be abf1 0cbc 4f64 99bb
00000250: 0626 503d fe51 6cbd 9350 dfbd e58e 393b
00000260: f5a1 5bbe 3f1d fc3d 5245 86bd 858b 57be
00000270: 072b d1bb 03ed 3dbe 2d01 a0bb a1c2 13bc
00000280: c2e1 013c 2233 e0bc 7301 96bb ed98 f4bb
00000290: 8935 673c 7c3d 37bc a932 273c 7d80 d3ba
000002a0: 6eb9 73bc 4f5d ef3b 94e0 81bc c1f2 a03b
000002b0: f5e7 6d39 fc3a a9bb 974e 2cbd 7181 00bc
000002c0: 4a95 d63b 5b6d f1bb 119a 8c3b c567 e037
000002d0: c9d2 29bc 124f 51bc 7ee4 883a 1568 8fbb
000002e0: 0b61 1abc 91b5 a4bb 424e 9dbb c371 a33b
000002f0: 375f 913b 776e 0fbc 0b81 2c3b 6477 1bbb
00000300: 36c5 c83b 3bff b8ba ada7 f0bb d4df 77bb
00000310: 5934 85bb d645 afbb de1b 8cbb 5041 273b
00000320: 8c99 7dbb 342b dcba b00e 17bd f89c 873d
00000330: a0c1 5239 42b7 57bd a545 92bc 722b 83bb
00000340: 8119 b43b dd49 e5bb 5cef 933a eb23 a33a
00000350: fa78 ad3b 9b73 23bc da65 e0bb c988 71bb
00000360: 9fab 8cbb 81e1 18bd e36b 7cbb dfcd 1bbc
00000370: 1500 923b 5129 70bb 6390 d43b e3a7 823b
00000380: 3b87 a4b9 a7e9 143b 5654 2bba a7a8 4d3a
00000390: 980e 883b 8c9f 4cb9 e306 2dbb bd96 26ba
000003a0: e95e 0e3a 30cc 203a beb4 32bc 026a e0bb
000003b0: 9847 063b 50f1 8c3c 441f 073d eea9 82b7
000003c0: 4600 93b7 8da7 7db9 9edc deba 809f a83a
000003d0: 5237 c4bb 8fe2 ee38 e205 013b c4a0 043a
000003e0: b1d8 84b9 693f fdba 4891 1f3a 0421 963b
000003f0: c6ba 76ba ec91 0339 4617 16ba 5347 3eba
-0.0026957633 -0.011150091 0.0010010253 0.0007121021 0.0034320427 0.00017103221 -0.0038622022 4.4040058e-05
5.8718942e-05 -0.00034086898 -0.009385086 0.0019528188 -0.00042050052 -0.0056839637 -0.026205037 0.0009965991
-0.0016960666 0.0008217641 0.000109269706 -0.001110442 0.00078455626 0.0007774672 0.0001784135 0.0019152252
4.1204643e-05 0.0017435597 1.4561199e-05 0.0069026654 -0.0013986599 0.00050658203 -0.0010184195 -0.0016801276
-0.0025835757 -0.014204702 0.0063677514 0.008714956 0.0028638616 0.015528146 -0.0035927542 -0.0003589968
0.022463493 -0.0012879896 -0.005657214 0.027262218 0.007849275 0.068629466 0.06906616 0.0018689483
-0.0026456572 0.011443282 -0.0028949599 0.0022405456 -0.021851262 0.012161662 0.007265835 0.0010280606
0.013010647 -0.025620561 0.009341552 0.019397473 -0.0020269307 0.009153177 -0.0016109062 0.0009921985
0.0040273895 0.0018985105 -0.0010784633 -0.00023901393 0.012377446 -0.0031540904 0.00096621277 -0.001985986
-0.006050058 0.0012447475 -0.020898916 -0.0040360224 -0.0004675575 -0.028460326 -0.050990764 0.00078046997
0.009602578 -0.00040519895 -0.0013723762 0.0004993191 -0.0066499063 -0.002521115 0.0025892446 -0.00026330678
-0.0028572406 0.008646572 -0.0018179996 0.0049853413 -0.00029042969 -0.0035660386 0.0018397957 0.002817478
-0.00080676185 -0.018290225 -0.0049560047 -0.0064511523 0.0024703841 -0.007855092 0.00041254045 -0.0014827121
-0.008583611 0.0017873254 -0.0178479 -0.0007526499 -0.0017526296 0.015367854 0.02376037 -0.0015534342
-0.0015897632 -0.0061933524 -0.000572422 0.00013476756 -0.012378116 -0.0074660336 -0.0028782927 -0.00033823855
-0.005804068 0.020331271 -0.00430612 0.00017227855 -0.00061975804 -0.0058461893 -0.00056881853 -0.0028821942
0.001024187 0.33633563 -0.16439983 -0.25808573 -0.16420302 -0.20630698 -0.002311189 0.004360971
-0.1465862 -0.012364351 0.0064684646 0.086834565 0.015007972 0.081848614 -0.045571115 0.0031147925
0.0024930583 -0.291297 -0.00860254 -0.004681147 0.050817512 -0.05769538 -0.1090404 0.0028313932
-0.214485 0.12310266 -0.065561906 -0.21049316 -0.006383303 -0.18547444 -0.0048829527 -0.009018571
0.00792736 -0.027368132 -0.0045778095 -0.0074645192 0.014111885 -0.011184093 0.010204949 -0.0016136315
-0.014875753 0.0073048244 -0.015854158 0.004911751 0.00022688492 -0.005164502 -0.042067137 -0.007843361
0.0065485584 -0.0073677725 0.004290827 2.6751202e-05 -0.0103651965 -0.0127751995 0.0010444073 -0.004376421
-0.009422551 -0.005026527 -0.004800589 0.0049879267 0.0044363993 -0.008754364 0.0026322033 -0.0023722285
0.006127025 -0.001411415 -0.0073442073 -0.003782262 -0.004065078 -0.0053489013 -0.004275783 0.0025521107
-0.0038696257 -0.0016797544 -0.03687924 0.06621736 0.00020099292 -0.052665003 -0.017855475 -0.004002982
0.0054962044 -0.0069973306 0.0011286545 0.0012446617 0.0052939625 -0.009976293 -0.006848079 -0.0036855212
-0.0042929198 -0.037324432 -0.0038516454 -0.009509533 0.004455576 -0.003664572 0.006486939 0.003987299
-0.00031381272 0.0022722275 -0.00065356994 0.00078452606 0.0041521303 -0.00019514392 -0.002640181 -0.0006354859
0.0005431013 0.0006133942 -0.01090735 -0.0068485746 0.002048945 0.01720491 0.0329888 -1.5576337e-05
-1.7523893e-05 -0.00024190378 -0.0017003005 0.0012864918 -0.00598804 0.00011390924 0.0019687344 0.00050593563
-0.0002533845 -0.0019321266 0.0006087017 0.0045815725 -0.00094119867 0.00012547494 -0.0005725514 -0.0007258553

gat_layer_1.layer0_1.0.input_linear_layer2.bias f4 [32]
00000000: 786d 233c 56f0 64bd 8e2c 9f3c 0ecb ebbc
00000010: 541c ab3d 49b0 6d3c 3389 5cbb aa08 c3bc
00000020: 0ebe 7d3d eb64 ccbd ba2b 0f3e b54d afbc
00000030: 4e3c 0a3e b128 05be 8141 f2bd 631b be3b
00000040: 7391 c0bb 8c07 243d f1e8 91bc 57b9 9dbb
00000050: 9679 d63c 111b 8bbd 98f4 323e 3776 1bbc
00000060: d6f4 71bd 1852 f8bd 8177 e2bd 122c 933d
00000070: 0a14 eb3c 6694 a2bb 6de7 d9bc b4b8 e5bc
0.00997483 -0.055893265 0.019430425 -0.028783347 0.083550125 0.014507362 -0.0033651113 -0.023807842
0.06194883 -0.09980186 0.13981524 -0.021399358 0.13499567 -0.13003804 -0.118289 0.0058016046
-0.005876714 0.04004626 -0.01781127 -0.004813354 0.026181024 -0.06792272 0.17476118 -0.009488634
-0.059071384 -0.12125033 -0.1105795 0.0718614 0.028696079 -0.004961538 -0.02659961 -0.028042175

gat_layer_1.layer0_1.0.a_1.weight f4 [1, 32]
00000000: 293b bc34 8094 7b33 229a a7be b3a1 99be
00000010: 125d b5be b594 a134 0439 efbd 1a33 86bd
00000020: 525d 36b5 fac2 96bc 8348 4cbe 9852 7f3a
00000030: 6cd0 83be 7bee 7437 230e 8bbe f70c ce33
00000040: c8ce 18be 9636 6fb5 0a96 83be 537c 4e38
00000050: 43ad 96be ddde 39be ab20 453b 51bb 9f39
00000060: 5508 9936 db6f 83bd 46c4 d7ba 4c16 4b37
00000070: b224 0435 1a8f 5f36 8e27 99b5 97cb 2f38
3.5060773e-07 5.857555e-08 -0.32734782 -0.3000618 -0.3542257 3.0096786e-07 -0.11680797 -0.065527156
-6.793608e-07 -0.018403519 -0.19949536 0.00097397855 -0.2574495 1.4599059e-05 -0.27159223 9.594981e-08
-0.14922631 -8.911387e-07 -0.25700408 4.9230013e-05 -0.29429063 -0.18151422 0.0030079286 0.00030466405
4.5607253e-06 -0.06417819 -0.0016461692 1.2104934e-05 4.922723e-07 3.3312886e-06 -1.14109e-06 4.191286e-05

gat_layer_1.layer0_1.0.a_2.weight f4 [1, 32]
00000000: 9384 b83a e464 2bbd 9ffa 973c 4a38 043c
00000010: f2be 1bbe 1299 5f3c 1360 25bc d70d 4b3b
00000020: 1c33 ae3d 884c 47be 8e5a 5dbe e8da 26bc
00000030: e5ca a7bd 6bc9 6abd 7851 533e 63d8 96bb
00000040: 7e7c 083b ef86 7f3c 228d 4f3b 1b7f bebb
00000050: 48ee c5bd bb2c c23c 16e2 8fbe b6bd 2bbb
00000060: a76c 0d3c 7b6a 9cbd 5a9b fb3c 4329 e5bd
00000070: e8b0 4abc 2d65 6c3c 0a5c d0ba 9e7d 34bb
0.0014077596 -0.041844264 0.018552123 0.008070061 -0.15209559 0.013647335 -0.010093707 0.003098359
0.08505842 -0.19462788 -0.21616575 -0.010184027 -0.08192996 -0.057320993 0.20636547 -0.004603432
0.0020826156 0.0155961355 0.0031669815 -0.005813492 -0.09664589 0.02370297 -0.28102177 -0.0026205606
0.008631862 -0.07637497 0.030713726 -0.11189511 -0.012371279 0.014428419 -0.001589657 -0.0027540694

gat_layer_1.layer0_1.1.input_linear_layer1.weight f4 [32, 32]
00000000: 19d8 9bb7 07e1 0739 c03e 1bb8 392d cbb7
00000010: b7d2 8d37 6daf fbb7 0ed6 a637 6784 f5b7
00000020: 04a4 73b7 ed76 dcb5 500e 4fb8 ea23 4a38
00000030: 8d6e 5eb8 6895 4939 79b6 b9b8 6cb7 3937
00000040: d6a0 18b7 8824 2eb8 9690 8db7 a18a 7937
00000050: 84d8 7bb8 8604 e4b7 f18f 01b8 cb36 1fb4
00000060: 5e1f 29b8 26a8 f938 5118 35b8 6786 27b8
00000070: 7a09 17b8 fabf 44b7 65f5 c0b7 ba8a 24b8
00000080: f285 f433 bf68 8bb8 5e35 4235 b0ca 4035
00000090: 5ecf 7f36 11ef 9135 e8af 19b4 b722 6334
000000a0: f43c f434 d55a 98b4 6bec 54b8 fc22 fb37
000000b0: 9aaf 0335 c877 4eb8 2f92 efb8 d6cd d5b3
000000c0: 51e9 a533 e957 4435 7bea 9734 bb24 b8b4
000000d0: 5314 81b7 3d52 8b35 99f0 b934 276e cfb1
000000e0: eae9 9a35 f1ca 56b8 a2cd 8e35 de5d 4c38
000000f0: 5aab 5034 b287 4835 90d0 a234 fb53 9d34
00000100: 2493 5bb1 27b3 c2b6 3063 8535 6bb9 ca35
00000110: 66dd 00b7 8396 1736 9ac5 b133 e7f6 e1b3
00000120: caf7 8d36 5663 edb4 b431 2db9 db58 d3b6
00000130: c88e 7435 9018 3f38 7ee7 b839 f634 2e33
00000140: e055 f9b3 7bb0 b235 2793 2db4 ba3b 0f33
00000150: 970b 27b9 162b 2836 eff9 d934 698f 1433
00000160: efe1 1a36 e32c 73b4 77f8 0536 233b ebb8
00000170: d487 0cb4 0dbc ff35 c575 11b4 28b9 8232
00000180: 5137 34b9 fa68 753e 485a 59bc d302 2fbc
00000190: e0f8 123b 9baf 67bc c844 04ba 83ce 13bb
000001a0: 6573 14bd 4727 7a3c 8c27 833d 8250 313e
000001b0: 0b24 e5bc b5e2 323e 058a 393c 6b73 c13a
000001c0: 5bf6 36bb 0785 85bc 643a 86ba 4c30 133b
000001d0: db53 133d ee04 98bc 3f43 64bc c209 083a
000001e0: b6d1 8ebc b4c3 263e 7d51 56bc 5d20 c1bc
000001f0: 8c24 f6ba 88cf 58bc f36f 03ba eabb 2339
00000200: d069 6cb3 f44f 72b8 5ee6 0134 6beb 00b6
00000210: 9090 82b8 5c4b 26b7 3c86 5f31 d9b4 ba32
00000220: f2b5 cb36 1355 8636 748a 1fb8 1535 9d38
00000230: 8804 1b34 643d 75b8 e3b4 8539 1e17 0d34
00000240: 0171 82b3 abdd 4e34 6858 42b3 a074 99b1
00000250: 63af feb7 054f 94b7 98f8 86b4 b32b 35b3
00000260: af3c 8db6 bf66 2ab8 749c 7bb6 376b 9db8
00000270: c4f3 03b5 d2d1 a8b6 b5f9 85b4 6426 beb4
00000280: 11d8 7536 6acb 67ba 324d e137 2cb8 0738
00000290: 932c abb9 9538 b538 34c6 2db6 0326 d836
000002a0: 4cec 6f39 f458 1fb7 5bf1 9eb9 a186 7eba
000002b0: 0312 bc37 c635 88ba dec4 98b9 d206 d2b5
000002c0: 41a8 3636 aebf 0738 ba10 dc36 7323 e4b6
000002d0: d153 7db9 bca1 a638 567a 8737 3019 65b4
000002e0: b174 d538 dc96 6aba 6139 7c38 1547 81b9
000002f0: b472 9436 1264 2038 26a8 0237 e678 c936
00000300: 26d5 30b9 a5c2 143e 117a 57bc a823 27bc
00000310: c0ff f4ba 1c57 5cbc cd00 05ba 2815 13bb
00000320: 88fc febc 7438 783c 9e91 60bc 9a06 293e
00000330: 280a dfbc 7892 113e e273 01be d203 c23a
00000340: 1d1a 37bb 43b8 82bc 259e 86ba cd7c 133b
00000350: ef6f edba 3aa5 90bc dc61 5fbc bbc7 043a
00000360: 7005 8abc 51b0 2e3e 5b17 50bc afac 3dbd
00000370: d91a f6ba e4ab 4cbc b388 04ba ac0a 2e39
00000380: e64a bd35 b61f e1b9 f298 1d37 0227 4337
00000390: ad0c 9fb8 ce40 9a37 01f5 c5b5 efab 2536
000003a0: 1e8a 2038 dc12 a2b6 ce12 a6b9 1d71 b2b9
000003b0: 2c3c ff36 25a2 ebb9 d0e2 0639 8d3f 27b5
000003c0: a3b7 2a35 c0f4 3a37 2dea 2c36 171f 13b6
000003d0: a9cc a2b9 4f65 9b37 b3d9 9936 195c d9b3
000003e0: 5e90 9e37 526e dfb9 cc10 8f37 f680 8ab9
000003f0: 41b8 0436 2b35 7537 d2ce 4836 5a7d 0536
-1.8578068e-05 0.00012958432 -3.701332e-05 -2.4220544e-05 1.6906632e-05 -3.000322e-05 1.9888419e-05 -2.926793e-05
-1.45221165e-05 -1.6425889e-06 -4.9365975e-05 4.8194e-05 -5.3031883e-05 0.00019224512 -8.8554756e-05 1.10695655e-05
-9.0973535e-06 -4.1518855e-05 -1.6875838e-05 1.4873834e-05 -6.004471e-05 -2.7181824e-05 -3.0890053e-05 -1.4827963e-07
-4.0321953e-05 0.00011904565 -4.317641e-05 -3.9941075e-05 -3.601003e-05 -1.1727208e-05 -2.3002454e-05 -3.9229846e-05
1.13865e-07 -6.647547e-05 7.234829e-07 7.1820523e-07 3.8118665e-06 1.0872919e-06 -1.431323e-07 2.1153652e-07
4.549289e-07 -2.8378295e-07 -5.076492e-05 2.9937823e-05 4.9056837e-07 -4.9225782e-05 -0.00011423637 -9.956027e-08
7.725851e-08 7.3143616e-07 2.829655e-07 -3.4299396e-07 -1.5387463e-05 1.0380242e-06 3.4633993e-07 -6.0370158e-09
1.1541972e-06 -5.121058e-05 1.0639671e-06 4.872481e-05 1.9433847e-07 7.470327e-07 3.03266e-07 2.9304633e-07
-3.1952334e-09 -5.8025066e-06 9.93814e-07 1.5104137e-06 -7.680943e-06 2.2588363e-06 8.278148e-08 -1.052229e-07
4.230974e-06 -4.4216966e-07 -0.00016517082 -6.298634e-06 9.110486e-07 4.5560824e-05 0.0003526769 4.05607e-08
-1.16105866e-07 1.3313396e-06 -1.6165414e-07 3.3349103e-08 -0.00015930679 2.505903e-06 4.060125e-07 3.4589366e-08
2.30793e-06 -2.2647468e-07 1.996317e-06 -0.00011216688 -1.308793e-07 1.905371e-06 -1.3547022e-07 1.5218191e-08
-0.00017186745 0.23965827 -0.013266154 -0.010681826 0.0022426173 -0.014140989 -0.00050456496 -0.002255351
-0.03624286 0.0152681535 0.06404027 0.17315868 -0.027971288 0.17469294 0.01132441 0.0014759129
-0.0027917835 -0.016298784 -0.001024079 0.0022459207 0.035968643 -0.018557038 -0.013932048 0.00051894423
-0.017433982 0.16285592 -0.013080952 -0.023575002 -0.0018779202 -0.013233073 -0.0005013935 0.00015614895
-5.5044268e-08 -5.777176e-05 1.2097868e-07 -1.9210518e-06 -6.22581e-05 -9.911917e-06 3.2527074e-09 2.173549e-08
6.0710527e-06 4.003415e-06 -3.80375e-05 7.496231e-05 1.4437148e-07 -5.8469726e-05 0.00025502508 1.3140058e-07
-6.074152e-08 1.9265887e-07 -4.524955e-08 -4.466145e-09 -3.036083e-05 -1.7679771e-05 -2.514032e-07 -4.218209e-08
-4.209192e-06 -4.062685e-05 -3.7492982e-06 -7.506314e-05 -4.915603e-07 -5.0312165e-06 -2.4954866e-07 -3.541819e-07
3.6633612e-06 -0.0008842262 2.6858037e-05 3.235803e-05 -0.00032648872 8.641292e-05 -2.5894378e-06 6.441727e-06
0.00022880844 -9.4978495e-06 -0.00030315932 -0.00097093923 2.2419734e-05 -0.0010392002 -0.00029138377 -1.5648204e-06
2.721805e-06 3.2365024e-05 6.558458e-06 -6.7990563e-06 -0.00024159184 7.945622e-05 1.6150221e-05 -2.133645e-07
0.00010178367 -0.00089488714 6.013492e-05 -0.00024657758 4.424097e-06 3.824017e-05 7.787754e-06 6.0043412e-06
-0.00016864072 0.14527376 -0.0131516615 -0.010201372 -0.0018691942 -0.013448503 -0.00050736667 -0.002244303
-0.031126276 0.015150178 -0.013706593 0.16506425 -0.027226523 0.1421603 -0.12641862 0.0014802164
-0.0027939149 -0.015957003 -0.0010270519 0.0022504807 -0.0018115024 -0.017656911 -0.013634171 0.00050651625
-0.016848296 0.17059447 -0.012700881 -0.046307262 -0.0018776312 -0.012492154 -0.000505577 0.00016597909
1.4103396e-06 -0.0004293897 9.39354e-06 1.1631988e-05 -7.584072e-05 1.8388408e-05 -1.4748949e-06 2.4686994e-06
3.8275604e-05 -4.8301717e-06 -0.00031675998 -0.00034035082 7.606597e-06 -0.000449435 0.0001286373 -6.2304827e-07
6.359716e-07 1.1143449e-05 2.5766305e-06 -2.1922804e-06 -0.00031051532 1.8524615e-05 4.585099e-06 -1.01216024e-07
1.8902294e-05 -0.0004261607 1.705475e-05 -0.00026417495 1.9776783e-06 1.4615517e-05 2.9922708e-06 1.9891509e-06

gat_layer_1.layer0_1.1.input_linear_layer1.bias f4 [32]
00000000: ce4a ae37 fbf4 1b38 cd70 96b9 abbc e13d
00000010: 3c7d 54b9 1088 26ba beaa 193e 557d 07ba
00000020: 37b7 7bb9 18a6 ca3d 1483 4e3e 63c5 00ba
00000030: bba4 f5b9 01f1 123e 503b 9f3d 6dd4 f03d
00000040: 1d04 173d c46b 3db9 10ba 10ba c6f0 8c3d
00000050: 55e3 293e 00e8 b03d df11 34b8 f879 5d3e
00000060: f193 633e 9d15 ccba 6256 503c 9652 253e
00000070: f155 7ab9 aa90 d7b7 568d 6938 dd4a b0b9
2.077725e-05 3.7183036e-05 -0.00028694273 0.11022314 -0.00020264549 -0.00063526724 0.15006539 -0.0005168517
-0.00024005478 0.09894961 0.2016719 -0.00049122254 -0.00046852775 0.14349748 0.07774985 0.11759267
0.036869157 -0.0001806459 -0.00055208895 0.068818614 0.16590627 0.086380005 -4.2931988e-05 0.21628559
0.22224404 -0.0015570406 0.012715908 0.16144785 -0.00023873874 -2.5697362e-05 5.568316e-05 -0.00033625113

gat_layer_1.layer0_1.1.input_linear_layer2.weight f4 [32, 32]
00000000: 2fc4 b5bb 3f58 63bc 91a7 353b 88d7 8f3a
00000010: 5db7 0c3c 8a44 1cba 7162 26bb c276 64bb
00000020: 10db f0ba 7dd2 b73b cecd bebc 8ded d1bb
00000030: 1efc 1e3b 2a4e 9bbc f3c2 9bbd 609b 483a
00000040: 4b13 c0bb 2cc3 473a e19b 5b3a fc1e ba3a
00000050: f329 9fbb 42f7 43ba 6b9b a03b a443 ed3a
00000060: 8abf 9bb9 5db2 1ab9 c2a5 003a 886c 0a3b
00000070: 7803 91bb 69de 173a ff80 9ebb c13c 95bb
00000080: 986f 2737 6890 e1bc c8e2 833c 1541 153c
00000090: 71f3 273a 8d6c 153c 0d41 03bc ae46 383b
000000a0: 4508 9b3c 6641 413b 252f 1dbd 17d9 183d
000000b0: 76ab 4a3d b283 1d3e d9c2 cd3d b29f 693b
000000c0: 9875 46bb 01c0 033d f539 bcbb 85ff 803b
000000d0: 1857 2f3b 95e4 773d 0031 303d a7c4 35bb
000000e0: 888a 033d 5a2f 253c 1ef6 293d b40b 323d
000000f0: f3cb 2a3b db1a 123d 5fcb 833a 30e9 da3b
00000100: cd3a bc3a 5e1a 5a3b c0e3 20bb d206 07ba
00000110: c080 ae3c 21a4 a7bb 1c66 833a 3335 7dbb
00000120: 3995 23bc 67e0 5a3b 423e 85bb 0232 6f3c
00000130: 9e1b 67ba 870d e7bb a1b0 08bd ef12 0f3b
00000140: 58c5 9f3b 074e 3aba 8865 76bb 5f04 a03a
00000150: f61d b939 d8e0 7fbb e810 463b b473 1e3b
00000160: 10e9 91bb 91e1 cebc 8e68 24bb edac c63c
00000170: 5b35 44bb b05d abbb 30d8 b9b9 e1aa b63a
00000180: 94e4 003c 079c 5cbd 8bf8 2cbb 656b 0ebc
00000190: 77d9 833c f6bf 40bc e9ab ef3b 8a93 bbb8
000001a0: 8c52 26bc 1685 573b 6e9f 5cbc b44f cd3c
000001b0: b722 bfb9 81e2 713c 2839 bfbc e0af ffbb
000001c0: b3b5 ad3b 9e8e d6bb a24f 993b 5245 263b
000001d0: 7ea1 30bb 65ec 49bc 78ce 3a38 e998 93bb
000001e0: e97d e6bb 54c7 f03b 0c2f b0bb 21a4 953c
000001f0: 4386 883b 062d 07bc 3eab 883a 2f1a 85ba
00000200: d605 063c 0a38 b33e 3d0d 5fbe c38a c3bd
00000210: 940f 38be fdfd d0bd 20b6 993c 8850 d9bb
00000220: ad99 c53d cb1d 79bc 2d61 113e 2577 da3e
00000230: d906 31be ae9b da3e 4fac e3bd 9993 163d
00000240: d21c 33bc 179c 50be 18bd debb 1e4c 383c
00000250: 832e 49bd c5ad 16bd 52bf e8bd 8d83 47bc
00000260: bcd6 f3bd afb1 6a3e 96e4 11be 52da 67be
00000270: d25e fa38 7421 8fbd 72fc f4b8 89bc 813b
00000280: 3e5d 7238 980d 53bc 7c29 09bc f443 14bc
00000290: fa36 453c 98a2 6ebc 85c8 ee3a be48 37bb
000002a0: 2de8 66bc 4d39 9c3a 47ad 26bd 5979 173c
000002b0: a4b8 6bbb 0fc7 d1bc c91f 88bd 1385 18bb
000002c0: 2427 88ba 3676 28bc 1974 2aba 931c 3f3a
000002d0: 9831 a7bb cfb5 4abc f24b 64bb c7bd 413a
000002e0: 2410 31bc f443 9f3a 2317 f4bb 5013 263b
000002f0: 4603 7cba a461 1cbc e02d bfba 70ac 47bb
00000300: a24e df3b 39ca adbc 7283 2abc b716 16bc
00000310: 48f7 f8bc 4534 4fbc d90c f8bb 036b 623b
00000320: beb6 043c 2dbe 84b9 1275 dcbd a368 5d3d
00000330: 7f67 903b f5a6 cbbb a513 3bbc a3d3 e3bb
00000340: ded5 b23b a835 22bc 7164 b9ba 35e3 283b
00000350: d0f7 1abd c43d 83bc 4b94 ebbb 525b e8bb
00000360: c660 4fbc 1b99 11bd 7107 a13b 7957 7abc
00000370: 646a 913b 1d30 c83b be42 f33b fb53 223b
00000380: 6f30 123b b6e9 cb3c 96b3 27bb 8b84 2d3a
00000390: badf 593c c123 12bb 34af 22bb e3bd 86bb
000003a0: f2c2 c0b9 7f07 293b 848e 5dbc 5afa a43b
000003b0: 28bf a63b 1829 023d 08be 8e3d 3944 633b
000003c0: 0b7a 8a3b 66ec c4ba 2aad 6e38 f500 f53a
000003d0: f924 2dbc 0f16 b6ba 1af4 b33b 04f5 9a3a
000003e0: 949e e1ba 6942 9ebc 54f2 473a a7a1 883c
000003f0: 94b4 1bbb 7b44 67b9 7f70 063b 0ecb 333b
-0.0055470685 -0.01387602 0.0027718286 0.0010974267 0.008588639 -0.0005961141 -0.0025388265 -0.0034860824
-0.0018375833 0.005609809 -0.023291495 -0.006406492 0.002425916 -0.01895817 -0.07605543 0.0007652547
-0.005861675 0.00076203304 0.0008377415 0.0014199908 -0.0048572957 -0.0007475504 0.0049013398 0.0018101824
-0.00029706612 -0.0001475303 0.00049075123 0.0021121819 -0.0044254623 0.00057933346 -0.004837155 -0.0045543616
9.979958e-06 -0.027534679 0.016099349 0.009109755 0.000640682 0.009120119 -0.008011115 0.00281183
0.018924842 0.0029488443 -0.03837504 0.037316408 0.049479924 0.15382269 0.1004693 0.0035648164
-0.0030282494 0.03216553 -0.0057442137 0.0039367103 0.0026754793 0.060520727 0.04301548 -0.0027735622
0.032114536 0.01008209 0.04149448 0.043468192 0.0026061505 0.035670143 0.0010055116 0.00668063
0.0014360786 0.0033279876 -0.0024549812 -0.00051508576 0.021301627 -0.0051160012 0.0010024938 -0.0038636446
-0.009984308 0.0033397914 -0.0040662596 0.014599325 -0.0008816066 -0.007051173 -0.03337157 0.0021831354
0.00487582 -0.0007106964 -0.0037597138 0.0012208334 0.00035308272 -0.003904393 0.003022248 0.002417785
-0.004452832 -0.025254043 -0.0025086734 0.02425238 -0.002993903 -0.0052296743 -0.00035447022 0.0013936424
0.007866997 -0.053859737 -0.002639326 -0.008692597 0.016094906 -0.011764517 0.0073141945 -8.944336e-05
-0.010151517 0.0032885722 -0.013465745 0.02506242 -0.00036456223 0.014763475 -0.023342684 -0.0078029484
0.0053012013 -0.006547763 0.0046786824 0.0025370908 -0.0026951726 -0.012324427 4.4538145e-05 -0.0045043123
-0.0070340526 0.0073479805 -0.005376702 0.01826674 0.004166396 -0.0082504805 0.0010427011 -0.0010154898
0.008180102 0.35003692 -0.21782394 -0.09547951 -0.17974693 -0.102046944 0.018763602 -0.0066319145
0.09648452 -0.015204857 0.14197226 0.42669025 -0.17287768 0.426969 -0.1111685 0.036761854
-0.010932164 -0.20372044 -0.006797444 0.0112486165 -0.049116623 -0.036786813 -0.113646165 -0.01217736
-0.11906192 0.22919343 -0.14247355 -0.22641876 0.000119385906 -0.069888026 -0.00011681848 0.0039592427
5.7784135e-05 -0.012881659 -0.008371707 -0.009049404 0.012037033 -0.014565133 0.0018217718 -0.0027966942
-0.014093441 0.0011918932 -0.040692594 0.00924524 -0.0035968209 -0.025607614 -0.066466875 -0.0023272678
-0.0010387641 -0.01028209 -0.0006502285 0.00072903297 -0.0051023476 -0.012372448 -0.0034835306 0.0007390645
-0.010807071 0.0012150989 -0.007449047 0.00253411 -0.0009613525 -0.009544764 -0.0014585815 -0.003046777
0.0068147937 -0.021214591 -0.010407316 -0.009160689 -0.03039135 -0.012646739 -0.007569891 0.0034548647
0.00810021 -0.00025318694 -0.10764517 0.054054867 0.004406869 -0.006214971 -0.011418258 -0.0069527193
0.005457624 -0.009900488 -0.0014144314 0.0025770192 -0.03783399 -0.016020663 -0.0071893088 -0.0070909644
-0.01265735 -0.035546403 0.004914217 -0.015279644 0.0044377316 0.006109251 0.007423728 0.0024769295
0.00223067 0.024891715 -0.002558922 0.0006619177 0.0132979695 -0.0022299143 -0.0024823667 -0.0041119917
-0.0003676634 0.0025791822 -0.013522748 0.005034727 0.0050887056 0.03177747 0.06969839 0.0034678115
0.0042259744 -0.0015024066 5.6904893e-05 0.0018692302 -0.010567897 -0.0013892072 0.0054917457 0.0011822288
-0.0017213398 -0.019318776 0.0007627357 0.016678644 -0.0023758756 -0.00022055388 0.002051383 0.0027434262

gat_layer_1.layer0_1.1.input_linear_layer2.bias f4 [32]
00000000: d407 003d 6a11 5dbd bd62 533c 6ece 803b
00000010: 2f8c 4d3e bdd4 903c d907 cbbc 92d2 21bd
00000020: 4171 923b 28ca f33d 2b30 ef3d 4765 77bd
00000030: a142 6cbd 98f6 743d bc17 00be 8a8e debc
00000040: 3fa3 d63c a363 88bd ce62 8abd 57a4 4f3d
00000050: 60f6 1b3e a02e 85bd b829 d63b 4bd7 67bd
00000060: 97e9 113c f0d6 923d 914a 3bbc 0901 53bd
00000070: 08c1 41be b934 2dbc 5799 08bd 721f 08bd
0.031257465 -0.053971685 0.012901959 0.0039308583 0.20073007 0.017679567 -0.024784015 -0.039507456
0.0044690673 0.119037926 0.11679109 -0.06039932 -0.05768073 0.059805483 -0.12509054 -0.027167577
0.026200889 -0.06659629 -0.06757127 0.050693836 0.15230703 -0.06503034 0.006535735 -0.056601804
0.00890579 0.07169902 -0.011431352 -0.05151466 -0.18921292 -0.010571652 -0.03334936 -0.033233114

gat_layer_1.layer0_1.1.a_1.weight f4 [1, 32]
00000000: 804d d637 1eb5 29b4 ad52 5535 8d50 36be
00000010: 43b7 e735 aaed e6b4 ef5f 36be ff3b 9935
00000020: 5bf4 f237 3ba1 72be 04f7 75be a2d2 d639
00000030: ed51 d937 b44c 1ebe 171d 1fbd 1d0f 87be
00000040: 1e15 8dbe 4931 b335 f858 6938 9df4 f8bc
00000050: 5d14 bfbe 1378 10be b6be c634 bdcd 85be
00000060: 1b6e babe b70f c2ba da11 4237 00e3 53be
00000070: 5a4e 2837 0a04 0d34 0220 b8b5 0ee8 5f35
2.5546877e-05 -1.5805242e-07 7.946899e-07 -0.17804165 1.7264177e-06 -4.3013762e-07 -0.17810033 1.141685e-06
2.8962435e-05 -0.23694317 -0.2402001 0.00040974194 2.5906565e-05 -0.15458947 -0.0388461 -0.26378718
-0.27555174 1.3350883e-06 5.5634388e-05 -0.030390078 -0.37320223 -0.14108305 3.7019134e-07 -0.26133528
-0.3641213 -0.0014805709 1.15674575e-05 -0.20692062 1.0031823e-05 1.3133118e-07 -1.3718384e-06 8.341166e-07

gat_layer_1.layer0_1.1.a_2.weight f4 [1, 32]
00000000: 2335 20bb 57e0 22bd 59ef 693c 9eae 973b
00000010: 5d76 94be 31f8 353c 4a30 fdbb 45d0 973b
00000020: f897 253d f63a 4ebe bf8f 64be 6f6d 80bc
00000030: 9440 4c3e f372 29bd 28bd 3c3e f3ee 62bb
00000040: 85dd 8c3b cb36 b13c fc26 e43a 3ca6 9cbb
00000050: 41f4 79bd 03d1 8e3c b6c5 8f3d 7b74 43bb
00000060: c484 353c e86b 9bbd a5b0 873c 14fb 27be
00000070: 7d4a d13b 9463 413c c348 08bb e677 11bb
-0.0024445734 -0.03976473 0.014278256 0.0046289703 -0.28996554 0.011106537 -0.007726704 0.004632982
0.04042813 -0.2013968 -0.2232046 -0.015677182 0.1994651 -0.04136939 0.18431532 -0.0034627288
0.004298868 0.021632573 0.0017406638 -0.004780559 -0.061023954 0.017433649 0.07020132 -0.0029824066
0.011079017 -0.07588941 0.016563723 -0.16404372 0.0063870535 0.011803526 -0.0020795322 -0.002219671

out_layers.layers.0.weight f4 [32, 32]
00000000: 114f 323c 7b61 c13d 4127 95bc bb4f 58bc
00000010: 296a 1fbe 4568 bbbd 0d6f 113e ace0 8ebc
00000020: 9963 27be 708b 25be 326e 1cbe b3ad ff3d
00000030: a59c 48be fd99 8c3e 26a3 27bf fc36 f83b
00000040: 7a77 783c 6892 dfbc 7188 333d 2f6f f6bc
00000050: ab01 5bbd b00d b4bd 24c5 94be 8cec 50bc
00000060: 925d dabd 46e4 243e bda0 afbd 253e cf3c
00000070: f309 31bb aa3d abbc 6e45 9e3c 8f69 24bc
00000080: 0d87 5a3b b82e 083e c740 0d3b a610 d8bc
00000090: 0911 48be f5bf 3abd 40cc d83d 7759 e03b
000000a0: 5f89 90bd d38b 58be 4659 86bd 1b1b 1e3d
000000b0: c88c 34be c474 0dbd 8cbb f5be e4cf e1ba
000000c0: d446 42bc b0fb 193b c65b d6bb 0432 4a3c
000000d0: c125 babe a249 88bd d8cc 16be 57ab b2bb
000000e0: 922d 1c3b c381 b53d f6ff f1bd 7942 95be
000000f0: 0553 663c 4dd9 0f3c dd3c ac3c 0d4a 2c3a
00000100: a8c1 4cbb 0efa b1bb aab6 c1ba ea41 5eba
00000110: 7579 83bd 12e7 a13a 4f5f 473a e5ef cb3a
00000120: 3942 063b ce42 443a 4c50 3b3d 7ad0 97bb
00000130: c52c 123c 06df 853c e5e8 643d bc71 0cbb
00000140: c34d 9eba 24ce 613b e1d8 c8ba 9ba6 80b8
00000150: ab27 0e3d 7cb6 e3b8 369b 083b 01d7 e6ba
00000160: dce4 05b8 4f81 4c3b f22d af3b fcce 243d
00000170: cc5b 10bb 59d3 9cb9 f1f2 ceba 9679 9dba
00000180: d5f0 2e3c cfaa 423d fd04 9cbc 7d6e 80bb
00000190: 158b 123e e0de 8dbd a8a7 7bbd c3ea babc
000001a0: 8967 10bd c178 03be ed7b f83d 4dcf 08bd
000001b0: 0c77 5ebe 6f3f c13d ea03 f4be aeb0 d83b
000001c0: 24f1 68bd f052 2538 33c6 5d3c 600c 4ebd
000001d0: be59 b83d 4654 b2bd 3619 94bd dd57 8c3d
000001e0: a6d1 c8bd f49e 073e abbf e9bc eb94 3e3e
000001f0: 7efa d83c befa ff3b d846 d43c 2275 653b
00000200: 4a7b 9abc 4682 a43b 4e9e 7fbc 96d4 90bd
00000210: 31fa cd3d c731 cebc 553e 11bc 033e 2ebd
00000220: e6f2 b1bd ae0c 1a3e 5af9 513e bafc 0a3e
00000230: 7d33 5abe 4113 aabd 90a6 93bd 5e4d 1fbd
00000240: 5ba8 4fbc 2da8 c63b 940f 38bd 833c 213c
00000250: 10dd 583e bfa4 8a3d ebfe 13be f032 02bc
00000260: 9bdf 72bd 7b87 2e3e 2fec a1bd b2db 613e
00000270: 0984 42bd 6afa 3dbd d209 2a3d 17ae cdbc
00000280: 0b27 a03b 8a35 f33b 00a1 2b3b e09a 58ba
00000290: 4d67 873d 6081 29ba fcbd daba 9f3e cfba
000002a0: 42d2 c3ba 2db2 37bd 3d25 d4bd d074 f23b
000002b0: 2e0a fbbb 8524 d33b fe66 b0bc 7f42 483b
000002c0: 9bd1 6339 4509 f0ba 8895 8f3a a943 63ba
000002d0: 3fb9 b4bb 978b 31ba ff2e 2c3d 8a34 1a3b
000002e0: b4ab 153a fbd8 bf3a 990e 5db9 1665 373d
000002f0: e98d 523b f3b5 77b9 706a c03a 7700 203b
00000300: 7dc5 77bc 7086 50bd eccd 13bc f634 6f3c
00000310: fd6f 4abe 2ec3 02bd a13a 053d 3240 843b
00000320: 7cd5 4bbd 638c dbbd f4b3 7b3c b89b 423d
00000330: 3005 53bd 986c ff3d 5dfa cdbe d8ba d7bb
00000340: 33a7 66ba 21a6 1a3d ef7a 8e3c 040f 27bc
00000350: ef2b c63b 9e14 f9bc 1085 06be c639 34bc
00000360: 7014 27bd 51d1 833d a029 303c 0097 ca3c
00000370: 1b91 8fbb 91b1 11bd fd06 9dbc a586 003c
00000380: 2307 42bc 86ac 9ebd cf06 47bc 985c 643d
00000390: 757b 81be db33 9a3d fcfd 123c d990 943a
000003a0: a743 923d ecc4 893d bfdd adbe eb55 453c
000003b0: 914b d13c 21fa bcbd a880 973e 96d9 daba
000003c0: 2c08 003d e524 953d 96ee 88bc ce3e c23c
000003d0: d571 50be aedf 003e c80a 263e 5749 00bd
000003e0: 042d dfbc fc28 a73a cf3b a83d 0514 96be
000003f0: 2154 c8bc 31c1 183c d1a0 8ebc da9c 193d
0.010883109 0.09442421 -0.018207194 -0.013202603 -0.1556784 -0.09150747 0.14202519 -0.017441116
-0.16346587 -0.16166472 -0.15276411 0.12484302 -0.19591005 0.27461234 -0.6548332 0.007574914
0.015165204 -0.027291492 0.043831293 -0.030082313 -0.053468388 -0.08791673 -0.29056656 -0.01275171
-0.10662378 0.16102704 -0.0857558 0.025298188 -0.0027013987 -0.020903427 0.019320216 -0.010034933
0.0033344657 0.13299072 0.0021553503 -0.026375126 -0.19537748 -0.04559322 0.105858326 0.0068466025
-0.070574515 -0.21147089 -0.06559996 0.03860007 -0.17631829 -0.034535185 -0.4799465 -0.0017228094
-0.011857707 0.0023495965 -0.006541702 0.012341026 -0.3635693 -0.06654669 -0.14726579 -0.005452554
0.0023830873 0.08862641 -0.11816399 -0.29152277 0.014057879 0.008779836 0.021025116 0.0006572314
-0.0031243358 -0.00543142 -0.001477917 -0.000847845 -0.064196505 0.001235219 0.00076054496 0.0015559165
0.002048625 0.00074867613 0.045730874 -0.0046330066 0.008921807 0.016341697 0.055886168 -0.0021430096
-0.0012077618 0.0034455145 -0.0015323424 -6.134548e-05 0.0347058 -0.00010858194 0.0020844466 -0.0017611684
-3.1922813e-05 0.0031205004 0.0053460533 0.04023646 -0.0022027371 -0.00029912105 -0.0015788955 -0.0012014385
0.010677536 0.047526177 -0.019045347 -0.003919421 0.14310868 -0.06927276 -0.061439186 -0.022817021
-0.03525499 -0.12839033 0.12133012 -0.033400822 -0.217251 0.09435927 -0.47659236 0.0066128587
-0.056870595 3.9416307e-05 0.013536024 -0.05030477 0.09001492 -0.0870748 -0.07231371 0.06852696
-0.09805612 0.1324423 -0.028533777 0.18611495 0.026486631 0.007811873 0.025912687 0.0035012444
-0.018857617 0.0050204126 -0.015601708 -0.070717975 0.10057486 -0.02517022 -0.008864959 -0.042539608
-0.08688907 0.150439 0.20505276 0.1357297 -0.21308704 -0.08304454 -0.07209504 -0.038892142
-0.012674416 0.0060625286 -0.04493673 0.009841087 0.21178079 0.06769704 -0.14452712 -0.007946715
-0.059295278 0.17043869 -0.079063766 0.22056463 -0.0474892 -0.04638139 0.04151327 -0.025107427
0.004887467 0.007422154 0.0026188493 -0.0008262824 0.066115 -0.0006466117 -0.00166887 -0.0015811509
-0.0014939981 -0.044847656 -0.10358665 0.007399179 -0.0076611256 0.0064435625 -0.021533486 0.0030557213
0.00021726491 -0.0018313309 0.0010954598 -0.0008669445 -0.005515247 -0.00067728147 0.042037006 0.002352985
0.00057094847 0.0014636809 -0.0002108164 0.044774137 0.0032128042 -0.00023623537 0.0014680158 0.002441434
-0.0151227685 -0.05090946 -0.009021264 0.014600029 -0.19769283 -0.03192442 0.032526616 0.004035973
-0.04976414 -0.10720136 0.015362728 0.047511786 -0.05151862 0.124718845 -0.40230075 -0.006583553
-0.00087987183 0.03775609 0.017392604 -0.010196451 0.0060477178 -0.030405339 -0.13136697 -0.011000102
-0.040790975 0.06436408 0.010752112 0.024730206 -0.0043813116 -0.03556973 -0.019168371 0.007844602
-0.011842522 -0.0774775 -0.012147619 0.055752367 -0.25289503 0.07529422 0.008971687 0.0011334672
0.0714181 0.06727013 -0.3395824 0.01204441 0.025548728 -0.09227396 0.29590344 -0.0016696926
0.031257793 0.07282428 -0.01671533 0.023711588 -0.20355923 0.12585327 0.1621505 -0.031319942
-0.027243145 0.0012753303 0.082145326 -0.2931215 -0.024454178 0.009323404 -0.017410668 0.0375031

out_layers.layers.0.bias f4 [32]
00000000: dcdf 4e3d da54 a6be cb30 52bc 3305 75be
00000010: 69af 30be 8878 3738 3ad2 11be 2625 c23e
00000020: fabc 913e 931b d3bd 7742 a1be 1e6a 92be
00000030: 313c 26be 8990 9abe 851d 87bc 8a10 b63e
00000040: 85b8 54be 4af8 0e3f b8a3 23bc 15a9 79be
00000050: 694d cabe 6ed9 2fbe 7f27 24bd da5c 6bbe
00000060: 11d3 183c 7732 193c 9bec 313e aa7b 85be
00000070: ac7a 17bc 4219 bc3d becb 3fbd 4cd7 b33d
0.050506458 -0.32486612 -0.012829016 -0.23927765 -0.17254414 4.3742853e-05 -0.14240351 0.37918967
0.2846449 -0.10307994 -0.3149602 -0.28596586 -0.16233899 -0.30188397 -0.016493568 0.35559493
-0.20773514 0.5584761 -0.009987764 -0.24380906 -0.39512184 -0.17172787 -0.04007673 -0.22984639
0.009327666 0.009350411 0.17375414 -0.2607091 -0.009245556 0.09184505 -0.046825163 0.08781299
