output/modelparams/dynamicLearning-WORKPLACE-SCCompUAU-DiffSAT/epoch12_model_state_dict.pth (torch, 270519 bytes, 158 tensors)

in_layer0.layers.0.weight f4 [32, 4]
-0.12629981 0.5410758 -0.34127656 -2.13087e-40 -0.037329663 0.08776927 -0.056600828 -7.6921e-41
-0.05604606 0.25338778 -0.2758742 2.88319e-40 -0.0070038377 -0.006998631 -0.004128655 1.76261e-40
0.15989316 0.5674068 -0.35900444 1.35056e-40 0.07526865 0.6843418 -0.4802592 1.06284e-40
-0.16848558 -0.06414107 0.47030774 5.29178e-40 -0.30150047 0.0605952 -0.01147452 -2.92758e-40
-0.019277953 -0.017942864 -0.021010442 5.38253e-40 -0.5197788 0.6977123 0.102835536 5.99988e-40
0.046793178 -0.51831734 0.25226456 5.10995e-40 -0.3939597 -0.571776 0.62160635 -2.93632e-40
-0.3970042 -0.3318807 0.53197926 -1.95007e-40 -0.11509408 -0.22481543 0.57348824 2.27421e-40
0.23360576 -0.70469177 -0.48026285 1.1481e-41 0.22829002 0.43980327 -0.5524907 5.12643e-40
0.15454766 0.0004387697 0.018638236 -6.81121e-40 0.12859303 0.77592915 -0.4458334 -4.79875e-40
-0.0317898 0.33884522 0.43741456 -3.51835e-40 0.053200983 -0.47246006 0.08136557 -8.8691e-41
-0.54410565 0.7265608 0.38302347 1.58509e-40 0.1276153 -0.11359786 -0.025839519 -1.08246e-40
0.066352285 0.06275809 0.057403747 7.7744e-41 0.21345028 0.29818752 -0.28660548 -1.71938e-40
0.3370871 -0.17466213 -0.42577234 5.33352e-40 0.3418597 0.6195641 -0.6414738 -6.16093e-40
-0.64498085 0.31087914 -0.53423685 1.6384e-41 0.08447447 0.20670322 -0.02233419 -1.79237e-40
-0.58256066 0.5147778 0.51033837 2.05627e-40 -0.256954 0.21213016 0.20279196 -1.68437e-40
0.3807615 -0.2532034 -0.3899787 3.90256e-40 -0.3646652 0.095220506 0.030733695 -4.8169e-40
00000000: bd54 01be f283 0a3f cdbb aebe 0052 0280
00000010: fde6 18bd 60c0 b33d 45d6 67bd 6dd6 0080
00000020: 8e90 65bd 0bbc 813e 623f 8dbe b723 0300
00000030: 7380 e5bb c654 e5bb ab49 87bb 58eb 0100
00000040: 08bb 233e 9241 113f 6ecf b7be 7b78 0100
00000050: 7326 9a3d 0631 2f3f 89e4 f5be 4728 0100
00000060: 7c87 2cbe 655c 83bd 2dcc f03e 22c3 0500
00000070: 455e 9abe ac32 783d a0ff 3bbc 1730 0380
00000080: ccec 9dbc eafc 92bc 171e acbc 6edc 0500
00000090: 3910 05bf 469d 323f 709b d23d 8688 0600
000000a0: 34aa 3f3d 72b0 04bf d228 813e 7290 0500
000000b0: 16b5 c9be e95f 12bf 9821 1f3f 8732 0380
000000c0: 2244 cbbe 44ec a9be cb2f 083f 9a1f 0280
000000d0: 72b6 ebbd 0436 66be 20d0 123f f579 0200
000000e0: 5936 6f3e ae66 34bf 03e5 f5be 0120 0000
000000f0: dcc4 693e e52d e13e 0870 0dbf 0a95 0500
00000100: be41 1e3e ac0a e639 37af 983c b06a 0780
00000110: e4ad 033e 4ba3 463f 4744 e4be b239 0580
00000120: 0536 02bd 1f7d ad3e cdf4 df3e c6d4 0380
00000130: 46e9 593d 49e6 f1be fea2 a63d 3cf7 0080
00000140: 824a 0bbf e3ff 393f a71b c43e dcb9 0100
00000150: 96ad 023e ffa5 e8bd 66ad d3bc bf2d 0180
00000160: b5e3 873d 5087 803d 3120 6b3d b8d8 0000
00000170: b692 5a3e 09ac 983e f4bd 92be 4bdf 0180
00000180: ae96 ac3e a1da 32be d5fe d9be c5ce 0500
00000190: 3c08 af3e c19b 1e3f a137 24bf 6bb5 0680
000001a0: 771d 25bf 8d2b 9f3e bfc3 08bf ac2d 0000
000001b0: f300 ad3d 02aa 533e 31f6 b6bc a4f3 0180
000001c0: b222 15bf 7ac8 033f 89a5 023f 343d 0200
000001d0: 7a8f 83be a638 593e b2a8 4f3e 89d5 0180
000001e0: 2cf3 c23e e0a3 81be 4aab c7be e03f 0400
000001f0: 66b5 babe f802 c33d 3bc5 fb3c c13e 0580

in_layer0.layers.0.bias f4 [32]
-0.11763022 -0.28757295 -0.10197425 0.006259048 -0.17129223 -0.0025193305 0.16784658 -0.0037290994
0.018931162 -0.017145945 0.07521 0.3620413 0.4184981 0.18337543 0.4766526 0.0049477345
-0.15457584 -0.12859295 0.02679367 -0.045762632 -0.04067021 -0.12612446 -0.44868428 -0.21587893
-0.11963439 0.24697292 0.31414214 -0.22148532 0.29239237 -0.25333056 -0.101470225 -0.05623331
00000000: 1de8 f0bd c33c 93be e0d7 d0bd b318 cd3b
00000010: 3b67 2fbe 5a1b 25bb f9df 2b3e e863 74bb
00000020: 8615 9b3c a775 8cbc b307 9a3d 7a5d b93e
00000030: 6245 d63e c5c6 3b3e cf0b f43e 9b20 a23b
00000040: 2149 1ebe dfad 03be 667e db3c 9971 3bbd
00000050: ce95 26bd c526 01be f2b9 e5be 5e0f 5dbe
00000060: e002 f5bd 78e6 7c3e 3dd7 a03e 0ccd 62be
00000070: 74b4 953e 8bb4 81be 9fcf cfbd e654 66bd

in_layer0.layers.2.weight f4 [32, 32]
-0.07070407 -0.015240155 -0.033373408 -0.0036282123 -0.050519235 -0.097743034 0.010958705 -0.017360814
0.003482924 -0.11501447 0.05916397 0.052934967 0.10964647 0.067468815 -0.003601271 -0.029746894
0.00048024688 -0.102247365 0.0077383574 0.019237095 -0.09219679 0.0041472428 0.0026687272 -0.01764697
0.030588599 -0.02475835 -0.10847386 -0.015483018 -0.14112702 -0.011207999 0.051691227 -0.01578533
-0.03361464 -0.023579244 -0.023510331 -0.002266054 -0.011234828 0.017216306 -0.00038879723 -0.027378397
0.0025749623 0.047279347 0.007369315 0.016847644 0.0034377496 0.0532488 -0.027257299 0.040675208
-7.020666e-05 -0.00030815325 0.01076852 0.0032155067 0.01968804 0.00011258853 -0.03180342 -0.0015189562
0.0019122604 -0.030972471 0.033281755 -0.018749882 0.04765261 -0.012126188 0.010857913 -0.031085096
-0.12667455 0.03198887 -0.07519169 0.005944547 -0.093753755 -0.055912994 0.079163395 -0.00010540454
-0.006221645 0.09941546 0.08155619 0.10980261 0.15966223 -0.04091174 -0.04702538 -0.039501887
0.023337131 -0.0037683637 -0.016005311 -0.00043765054 0.05416074 -0.055256154 0.05448354 -0.0984926
-0.10315956 -0.058141574 -0.07804562 -0.011324502 0.2069945 -0.0479352 -0.16228543 -0.041280735
-0.15774815 0.06277031 -0.06936511 0.0016454366 -0.14081562 -0.13205253 0.1473327 0.014297713
-0.00128105 -0.06784887 0.022879587 0.26572528 0.21483187 0.07502222 -0.15061714 -0.23410596
-0.048574153 -0.18709032 -0.057165585 -0.004162858 0.12833977 -0.04257009 0.01603311 -0.04852463
-0.16900337 -0.27222592 -0.13035803 0.05978383 0.09173838 0.05198132 -0.19405252 0.032854505
-0.02792388 -0.09171417 -0.08080928 0.0014419281 0.036346182 0.06660874 0.077867396 -0.14763367
-0.0025085795 -0.108797766 0.041011386 -0.007740752 0.07425571 0.08757721 -0.028242296 0.06972167
-0.021749297 0.009726323 0.099867426 -0.018931575 0.0363143 -0.024287758 -0.21859764 -0.01753177
0.025620515 0.04050587 0.091815576 0.015364918 -0.0071888785 -0.091905154 0.036604736 -0.07870398
0.3390726 0.0063908407 0.1278944 -0.0005934274 0.35314414 0.37321794 0.08056656 0.08427744
0.00046205698 0.31463417 -0.44177344 -0.3486672 0.13506229 -0.00094291917 -0.35956597 0.18455367
-0.045276716 0.41031644 0.25467497 -0.26100713 0.29982656 -0.1651344 0.02679534 0.046786353
-0.2711557 0.26151064 0.47945824 0.050019816 0.17683326 0.04245463 -0.33192274 0.10176165
0.009624742 0.016881505 0.007834558 -0.0014906443 0.0036992044 0.006087808 -0.0303412 0.0066806935
0.00041284502 -0.03312483 -0.016908417 0.03978038 0.009910996 0.0036463442 0.0502144 -0.030003468
0.00086047465 0.0039364165 -0.01728065 0.00041960148 -0.039109822 0.0017042495 -0.005658623 0.0036947324
0.0013417673 0.05400633 0.024067886 0.0054382216 0.052724827 -0.0018448879 -0.011909307 0.026345845
0.0016942257 0.021822292 0.0093522705 -0.0007072878 -0.0018694003 -0.008669331 -0.035042573 -0.01562674
-0.00030319774 -0.059202343 -0.020119281 0.009419446 -0.005931808 -0.050305173 -0.07929004 0.02175407
0.008719511 -0.011024707 -0.058322474 0.0062444806 0.01948572 0.009204936 0.031040953 0.0071605165
-0.004889423 -0.00013910097 -0.034696773 0.0002366912 0.03271484 -0.012321546 -0.025210777 -0.022365997
00000000: 4ccd 90bd d8b1 79bc 8eb2 08bd 4dc7 6dbb
00000010: 42ed 4ebd 802d c8bd 248c 333c 4438 8ebc
00000020: c541 643b b58c ebbd eb55 723d 56d2 583d
00000030: 548e e03d 172d 8a3d 4d03 6cbb c2af f3bc
00000040: a5c9 fb39 1167 d1bd 0c92 fd3b 1d97 9d3c
00000050: acd1 bcbd 98e5 873b d0e5 2e3b 6190 90bc
00000060: f194 fa3c 06d2 cabc 8b27 debd 7cac 7dbc
00000070: 9a83 10be c1a1 37bc 2eba 533d 3d50 81bc
00000080: 81af 09bd 4229 c1bc bd98 c0bc 1482 14bb
00000090: 4912 38bc 3609 8d3c 7bd7 cbb9 a948 e0bc
000000a0: b3c0 283b fda7 413d 4b7a f13b 1204 8a3c
000000b0: de4b 613b 6a1b 5a3d b34a dfbc 0c9b 263d
000000c0: ea3b 93b8 a18f a1b9 726e 303c 40bb 523b
000000d0: d048 a13c 821d ec38 4e44 02bd b617 c7ba
000000e0: d0a4 fa3a fbb9 fdbc 7352 083d 5a99 99bc
000000f0: 622f 433d ebac 46bc 63e5 313c 2ca6 febc
00000100: f9b6 01be c306 033d 1afe 99bd 79ca c23b
00000110: f801 c0bd 0605 65bd 6b20 a23d a20c ddb8
00000120: f1de cbbb 559a cb3d ef06 a73d 31e0 e03d
00000130: 7f7e 233e 1293 27bd af9d 40bd bbcc 21bd
00000140: 832d bf3c a7f6 76bb 921d 83bc 7674 e5b9
00000150: a7d7 5d3d 4754 62bd 222a 5f3d 7db6 c9bd
00000160: 5245 d3bd dc25 6ebd 62d6 9fbd 678a 39bc
00000170: 5ef6 533e b357 44bd 272e 26be fd15 29bd
00000180: bb88 21be b88d 803d 4b0f 8ebd b1ab d73a
00000190: f831 10be c738 07be 62de 163e f440 6a3c
000001a0: e8e8 a7ba 59f4 8abd f96d bb3c 250d 883e
000001b0: e3fc 5b3e 40a5 993d 613b 1abe 79b9 6fbe
000001c0: b1f5 46bd 9b94 3fbe 7626 6abd 9568 88bb
000001d0: 806b 033e fa5d 2ebd de57 833c c3c1 46bd
000001e0: 380f 2dbe 3261 8bbe 937c 05be e4df 743d
000001f0: 55e1 bb3d 5dea 543d b4b5 46be 7292 063d
00000200: 9fc0 e4bc a4d4 bbbd 567f a5bd 14ff bc3a
00000210: bcdf 143d 2a6a 883d f178 9f3d 482d 17be
00000220: fb66 24bb 5dd1 debd 8efb 273d 22a6 fdbb
00000230: 6113 983d ae5b b33d 635c e7bc 3cca 8e3d
00000240: 952b b2bc 285b 1f3c 4b87 cc3d 6416 9bbc
00000250: 4ebe 143d 1ff7 c6bc 0fd8 5fbe c99e 8fbc
00000260: 1de2 d13c 7ce9 253d ce09 bc3d 23bd 7b3c
00000270: af90 ebbb c538 bcbd d9ee 153d 8d2f a1bd
00000280: ec9a ad3e 426a d13b c0f6 023e 3d90 1bba
00000290: 4fcf b43e 6c16 bf3e 1500 a53d a799 ac3d
000002a0: 3d40 f239 bb17 a13e 2130 e2be 8284 b2be
000002b0: c54d 0a3e 3c2e 77ba 0819 b8be a3fb 3c3e
000002c0: 1474 39bd ff14 d23e c264 823e baa2 85be
000002d0: de82 993e fe18 29be e781 db3c 0ca3 3f3d
000002e0: ebd4 8abe b9e4 853e 8d7b f53e 94e1 4c3d
000002f0: c713 353e e8e4 2d3d c7f1 a9be 6968 d03d
00000300: 18b1 1d3c 154b 8a3c 855c 003c b961 c3ba
00000310: 5a6e 723b 3c7c c73b 1c8e f8bc b8e9 da3b
00000320: 1f73 d839 e7ad 07bd 8583 8abc c0f0 223d
00000330: bb61 223c 81f7 6e3b 9dad 4d3d d5c9 f5bc
00000340: 7a91 613a 0efd 803b 2690 8dbc f5fd db39
00000350: 9f31 20bd 2061 df3a f86b b9bb 5323 723b
00000360: 3dde af3a be35 5d3d 042a c53c 1c33 b23b
00000370: fdf5 573d 2ad0 f1ba 411f 43bc 3ed3 d73c
00000380: c810 de3a aac4 b23c 443a 193c 4869 39ba
00000390: aa06 f5ba cf09 0ebc cd88 0fbd a603 80bc
000003a0: 83f6 9eb9 287e 72bd 31d1 a4bc 0554 1a3c
000003b0: 9d5f c2bb cc0c 4ebd d162 a2bd 9735 b23c
000003c0: 48dc 0e3c f9a0 34bc 8ce3 6ebd 809e cc3b
000003d0: 84a0 9f3c 4dd0 163c 9949 fe3c c4a2 ea3b
000003e0: 7437 a0bb a2db 11b9 341e 0ebd 4f30 7839
000003f0: ffff 053d 4fe0 49bc d586 cebc e538 b7bc

in_layer0.layers.2.bias f4 [32]
-0.064434685 -0.04921143 0.00499656 0.115929365 0.29783872 -0.076857865 -0.037534393 0.034545466
-0.07374204 0.059758555 0.04208369 -0.084026985 0.04175932 -0.04037225 -0.08948163 -0.04514218
0.120608166 0.027256755 0.0935944 -0.07479604 -0.50488347 -0.24996115 -0.122439444 0.19535665
0.006279823 -0.16257474 -0.0045596617 -0.106676795 0.021467162 0.11688585 -0.039582986 -0.1318953
00000000: 55f6 83bd ed91 49bd 2fba a33b 606c ed3d
00000010: 517e 983e a867 9dbd aabd 19bd 8c7f 0d3d
00000020: 1106 97bd 63c5 743d f35f 2c3d 5716 acbd
00000030: d20b 2b3d 5f5d 25bd 2542 b7bd 02e7 38bd
00000040: 6a01 f73d 8f49 df3c 6cae bf3d ab2e 99bd
00000050: 0b40 01bf d1f5 7fbe 88c1 fabd 930b 483e
00000060: f9c6 cd3b fe79 26be 3769 95bb 5d79 dabd
00000070: e7db af3c d961 ef3d c521 22bd 900f 07be

in_layer1.layers.0.weight f4 [32, 4]
0.21526206 0.24722731 -0.31053954 0.123989284 0.36909235 0.07265067 -0.105790794 0.03694117
-0.05361384 0.25174958 -0.33950567 0.25355124 0.28181177 -0.30293733 0.4082818 0.49109238
-0.19711435 -0.1400472 0.24917775 -0.39171022 0.19772899 0.11665237 0.31516486 -0.4343034
-0.4153924 0.22456455 0.18010539 -0.4653831 -0.27882975 -0.45748925 -0.35821146 -0.22559983
0.41376925 -0.09952545 0.2871756 0.47484046 0.22786611 -0.4476052 0.25161135 0.19071728
0.38753277 -0.4932171 0.307508 0.4092707 -0.46518236 0.05231315 0.42683655 -0.36365408
0.16405964 0.22093868 0.13104504 0.4971379 0.4093898 0.42897737 -0.06232339 0.4193563
-0.46595633 -0.26981467 -0.10694057 -0.1485284 0.46184736 0.23583263 0.3219065 0.3401047
-0.37350178 -0.057910502 0.07301229 0.13004625 0.25711632 -0.19895339 -0.1507672 0.41837066
-0.13419217 -0.34732068 0.3390199 0.33857775 -0.15678346 -0.09996003 -0.36894 -0.41754687
0.18802476 -0.21359628 0.39804775 -0.4003566 -0.06911254 0.010795891 0.25697356 0.40466535
0.33860224 0.22009802 -0.2294969 -0.35707384 -0.4473064 0.024802327 0.4849401 -0.09497124
-0.021049261 -0.363347 0.15350485 0.3169917 -0.49295795 -0.3520611 0.37035388 0.118382275
-0.03117305 0.08937913 -0.076020956 -0.34948248 -0.46721494 0.32885396 -0.05946833 -0.18569362
-0.12905759 -0.27271152 -0.14809167 -0.4292072 0.3741718 0.20417124 -0.25216073 -0.17065662
0.22431874 -0.18515271 0.13184685 0.13767076 -0.31474662 0.12525076 0.030592084 0.43669194
00000000: a86d 5c3e 2829 7d3e 0aff 9ebe 18ee fd3d
00000010: acf9 bc3e e0c9 943d d8a8 d8bd a04f 173d
00000020: 309a 5bbd 52e5 803e b0d3 adbe 78d1 813e
00000030: a249 903e 9a1a 9bbe 500a d13e 7670 fb3e
00000040: 58d8 49be 8868 0fbe 7428 7f3e 3e8e c8be
00000050: 7879 4a3e 70e7 ee3d 4a5d a13e 045d debe
00000060: 50ae d4be 40f4 653e 8c6d 383e b246 eebe
00000070: c6c2 8ebe 083c eabe 7e67 b7be a403 67be
00000080: 90d9 d33e 00d4 cbbd ae08 933e 4a1e f33e
00000090: bc55 693e 822c e5be 34d3 803e 644b 433e
000000a0: b26a c63e f486 fcbe b071 9d3e ee8b d13e
000000b0: 622c eebe 5046 563d 528a da3e de30 babe
000000c0: 40ff 273e c03d 623e ac30 063e dc88 fe3e
000000d0: 8a9b d13e eca2 db3e d046 7fbd deb5 d63e
000000e0: d491 eebe 2625 8abe a803 dbbd d417 18be
000000f0: 4277 ec3e 1c7e 713e eed0 a43e 3422 ae3e
00000100: a03b bfbe 9033 6dbd 7887 953d d82a 053e
00000110: c0a4 833e 70ba 4bbe b862 1abe ae34 d63e
00000120: ac69 09be 04d4 b1be 0494 ad3e 105a ad3e
00000130: d88b 20be d8b7 ccbd b4e5 bcbe b4c8 d5be
00000140: 9089 403e fcb8 5abe eacc cb3e 8afb ccbe
00000150: e08a 8dbd 40e1 303c 0a92 833e 4c30 cf3e
00000160: 465d ad3e 6061 613e 3c01 6bbe 62d2 b6be
00000170: 5805 e5be 402e cb3c 124a f83e 4880 c2bd
00000180: 806f acbc 9e08 babe 6030 1d3e bc4c a23e
00000190: fc64 fcbe 5a41 b4be 069f bd3e 6872 f23d
000001a0: a05e ffbc 680c b73d e0b0 9bbd 5eef b2be
000001b0: cc36 efbe 8c5f a83e 1095 73bd 7826 3ebe
000001c0: ac27 04be d8a0 8bbe 58a5 17be 0cc1 dbbe
000001d0: 7293 bf3e 4412 513e 361b 81be 9cc0 2ebe
000001e0: d0b3 653e ac98 3dbe dc02 073e 90f9 0c3e
000001f0: 7826 a1be bc41 003e 409c fa3c 1696 df3e

in_layer1.layers.0.bias f4 [32]
-0.18090999 -0.12853426 0.43080032 -0.40830117 0.03612423 0.48175114 -0.22418398 0.4793411
0.44367033 0.46516985 -0.04771155 0.45231664 -0.21785969 -0.17115259 0.1891163 0.1056236
0.2756378 0.47515965 -0.31299454 0.26536334 0.16728228 0.26378405 0.23708618 -0.18703496
-0.39517802 0.40019238 -0.2851178 0.31966358 -0.47632176 -0.08650118 0.005299449 0.08651179
00000000: 7840 39be 7c9e 03be dc91 dc3e da0c d1be
00000010: 00f7 133d 16a8 f63e 7c90 65be 326c f53e
00000020: c228 e33e be2a ee3e 306d 43bd 0c96 e73e
00000030: 9c16 5fbe a042 2fbe b4a7 413e 3051 d83d
00000040: 6620 8d3e 2048 f33e d240 a0be b4dd 873e
00000050: 0c4c 2b3e b40e 873e b8c6 723e 1886 3fbe
00000060: c654 cabe 04e6 cc3e f6fa 91be f2aa a33e
00000070: 72e0 f3be 8827 b1bd 00a7 ad3b 182d b13d

in_layer1.layers.2.weight f4 [32, 32]
0.014289215 0.055703446 -0.019683123 0.043293387 0.17493545 -0.11438372 -0.009651437 -0.06747974
0.1551091 0.1513279 -0.0048205703 -0.061276563 -0.109224334 0.12649073 -0.012173489 0.16648997
0.10080902 0.15473343 0.13981687 -0.11487697 0.051742926 -0.07330203 0.08869828 -0.015893951
0.015303537 -0.12226032 -0.15798986 0.06656933 0.041080326 0.015355319 0.12006576 -0.073817424
0.062752336 -0.09736181 0.036628112 -0.040357858 0.123801425 0.15458812 0.15353476 0.007952169
0.10424398 -0.17662437 -0.10369619 0.031594098 0.0009858757 -0.13878259 -0.07824341 -0.08256429
-0.17514364 0.016859323 0.12050761 0.071747184 -0.08399243 -0.16232789 -0.14261937 0.0032790601
0.12160705 -0.07158971 -0.09619215 -0.09430267 -0.015303329 -0.16787681 -0.15599562 0.17401733
-0.08430765 -0.03188409 -0.04729709 -0.15529943 -0.031164512 0.054114297 -0.071781516 -0.007534191
-0.0008456111 -0.17598206 0.12846653 0.1427954 0.12052731 -0.058053173 0.09237699 -0.16562605
-0.043732196 -0.035953596 -0.06242863 0.07424621 -0.08054969 -0.020489097 -0.051044866 -0.16600798
-0.029193014 -0.14981404 0.103079215 0.09448059 0.165603 -0.059362106 0.008989483 0.034628898
0.17646177 0.1620359 -0.09148892 -0.15041976 -0.15932676 -0.08512854 0.14863147 0.059370384
0.17056356 0.13103057 0.0025628507 -0.109561846 0.17262255 0.14180519 0.07653423 -0.09656665
0.13926102 0.016089499 0.11689074 0.0737807 0.09386991 -0.1551173 -0.09801935 0.10602562
-0.03682892 -0.15379214 0.1607606 -0.003822893 0.1426029 -0.13817164 0.060863122 -0.06658625
-0.074390344 -0.03687027 -0.065433174 0.09686659 -0.03358741 0.13403521 0.04033746 -0.027314693
-0.10210611 -0.16186965 -0.0515697 -0.1637008 -0.03275153 0.0028892905 -0.011392161 -0.0868357
0.12269427 0.09955706 -0.043553725 -0.069845505 0.11113776 0.15380003 -0.16186355 -0.03819424
-0.016405255 -0.06400393 0.15091588 -0.02611193 0.14987986 0.0008739084 -0.019175187 -0.103114136
-0.05877938 0.056962684 0.07819496 -0.0062897354 0.16844042 -0.12235296 0.06777856 0.15921848
-0.030738354 0.14034463 0.0029140562 -0.13237831 -0.09698259 0.06579903 -0.076499924 0.042516753
0.1739934 0.06004758 -0.016544491 0.044186205 -0.10184879 -0.14853716 -0.13288297 -0.14833376
0.036278024 0.034433126 -0.075124435 -0.17291422 0.09576078 -0.10030474 -0.029512465 -0.14822406
-0.09973002 0.07374416 -0.1647076 -0.10080508 0.13253482 -0.0906597 -0.07356667 -0.049634263
0.07556482 -0.115960136 0.017724589 0.07219608 -0.012832791 0.031964526 -0.13485366 0.079920635
0.06606665 -0.02217348 -0.1461714 0.07070635 0.115354136 -0.030919641 0.08332153 0.06552389
-0.070704944 -0.012271896 0.17597033 0.00083456933 -0.14073431 -0.012892023 0.08794512 -0.05770409
-0.09257504 0.1456248 0.09351693 -0.030033112 0.009031326 -0.018696383 0.041041464 0.006282553
-0.10697376 0.03275217 0.004623547 0.011429235 -0.06736746 0.04529418 -0.14294977 0.052842647
0.09579413 -0.019454837 -0.13732016 -0.0006426126 0.00025093555 -0.15277126 -0.1250333 0.1635076
0.13219692 0.09797017 0.1224636 0.06805247 0.099487916 0.11708303 -0.041296393 -0.022472218
00000000: 501d 6a3c 4c29 643d 803e a1bc 6854 313d
00000010: 4722 333e 0342 eabd 1021 1ebc d132 8abd
00000020: ebd4 1e3e b3f5 1a3e e0f5 9dbb 22fd 7abd
00000030: 02b1 dfbd c986 013e 5073 47bc 597c 2a3e
00000040: f674 ce3d 7172 1e3e 272c 0f3e 9e44 ebbd
00000050: 64f0 533d 601f 96bd 72a7 b53d 0834 82bc
00000060: b0bb 7a3c 9e63 fabd 18c8 21be 8055 883d
00000070: d843 283d e094 7b3c 0ae5 f53d 972d 97bd
00000080: 4c84 803d a165 c7bd 5c07 163d 484e 25bd
00000090: 9a8b fd3d 594c 1e3e 3738 1d3e d049 023c
000000a0: de7d d53d 05dd 34be ab5e d4bd d068 013d
000000b0: 8038 813a 061d 0ebe 153e a0bd 7717 a9bd
000000c0: db58 33be 901c 8a3c b2cc f63d 30f0 923d
000000d0: 3904 acbd 4839 26be d00a 12be 80e5 563b
000000e0: 1e0d f93d a09d 92bd 6400 c5bd c221 c1bd
000000f0: d0ba 7abc e6e7 2bbe 51bd 1fbe 9931 323e
00000100: 7da9 acbd e498 02bd 98ba 41bd d006 1fbe
00000110: b84c ffbc f4a6 5d3d 3002 93bd 60e1 f6bb
00000120: 00ac 5dba a434 34be bb8c 033e f538 123e
00000130: 06d7 f63d 2ac9 6dbd 2630 bd3d e099 29be
00000140: 8820 33bd 1444 13bd 2ab5 7fbd 660e 983d
00000150: 3cf7 a4bd c0d8 a7bc 6c14 51bd fffd 29be
00000160: 3026 efbc da68 19be 321b d33d 0a7f c13d
00000170: d593 293e ae25 73bd a048 133c 08d7 0d3d
00000180: 65b2 343e bdec 253e 8b5e bbbd a307 1abe
00000190: 8e26 23be df57 aebd d932 183e 5c2e 733d
000001a0: 37a8 2e3e e12c 063e 80f5 273b f661 e0bd
000001b0: f7c3 303e 6135 113e fabd 9c3d bcc4 c5bd
000001c0: 719a 0e3e 20ce 833c 6a64 ef3d 561a 973d
000001d0: de3e c03d 12d7 1ebe 5ebe c8bd f623 d93d
000001e0: ecd9 16bd b07b 1dbe 6d9e 243e 8089 7abb
000001f0: 7f06 123e de7c 0dbe 9c4b 793d 5f5e 88bd
00000200: f759 98bd 4805 17bd d401 86bd fe61 c63d
00000210: f492 09bd 8740 093e e438 253d 10c3 dfbc
00000220: 021d d1bd 28c1 25be c03a 53bd 2fa1 27be
00000230: 7826 06bd 405a 3d3b 30a6 3abc ead6 b1bd
00000240: 2247 fb3d 92e4 cb3d 6465 32bd 290b 8fbd
00000250: 329c e33d c17d 1d3e 8fbf 25be 9071 1cbd
00000260: 5064 86bc 7e14 83bd b189 1a3e b0e8 d5bc
00000270: 1b7a 193e 0017 653a 4815 9dbc 812d d3bd
00000280: a6c2 70bd b451 693d ae24 a03d 201a cebb
00000290: a57b 2c3e 3094 fabd 7ccf 8a3d 2b0a 233e
000002a0: 00cf fbbc 81b6 0f3e c0f9 3e3b 2e8e 07be
000002b0: cf9e c6bd a4c1 863d feab 9cbd 0c26 2e3d
000002c0: 532b 323e 74f4 753d 5088 87bc 98fc 343d
000002d0: 1996 d0bd 201a 18be 7912 08be cee4 17be
000002e0: 4498 143d c009 0d3d d7da 99bd 6d10 31be
000002f0: 3a1e c43d 926c cdbd 20c4 f1bc 0cc8 17be
00000300: 413f ccbd 2e07 973d 1ca9 28be e572 cebd
00000310: 35b7 073e cbab b9bd 1faa 96bd 4c4d 4bbd
00000320: bac1 9a3d 827c edbd 2833 913c 8adb 933d
00000330: a040 52bc 3ced 023d 1417 0abe 6ead a33d
00000340: f44d 873d 28a5 b5bc f5ad 15be 7ece 903d
00000350: ca3e ec3d 304b fdbc 7aa4 aa3d 6431 863d
00000360: c1cd 90bd 1010 49bc 9131 343e 00c7 5a3a
00000370: a81c 10be 1039 53bc 921c b43d 205b 6cbd
00000380: fc97 bdbd ab1e 153e ce85 bf3d 0008 f6bc
00000390: 20f8 133c 2829 99bc 181b 283d e0dd cd3b
000003a0: 0f15 dbbd 2427 063d 2081 973b b041 3b3c
000003b0: f3f7 89bd 6486 393d 6d61 12be 8871 583d
000003c0: b62f c43d c05f 9fbc a89d 0cbe 0075 28ba
000003d0: 0090 8339 1270 1cbe bb08 00be 896e 273e
000003e0: a15e 073e 96a4 c83d 32ce fa3d 185f 8b3d
000003f0: 52c0 cb3d 3ac9 ef3d 6826 29bd a817 b8bc

in_layer1.layers.2.bias f4 [32]
0.17082156 0.0007380992 -0.10631747 0.10172556 -0.03682241 0.012109742 -0.09208892 -0.14972892
-0.11740141 -0.01941061 -0.12797707 0.17423268 0.0019132793 -0.06767574 0.06986572 -0.15672469
-0.09041989 0.06639752 -0.15020056 0.08810602 0.014858991 -0.14739768 -0.17543888 0.055870384
0.08355673 -0.03533879 -0.15631574 -0.10188461 0.018788427 0.0064313114 0.04525076 0.03125769
00000000: d9eb 2e3e 007d 413a f9bc d9bd 7e55 d03d
00000010: 18d3 16bd f067 463c 1e99 bcbd 8a52 19be
00000020: 2770 f0bd 0003 9fbc 6c0c 03be 0d6a 323e
00000030: 00c7 fa3a 9499 8abd c215 8f3d 707c 20be
00000040: 102e b9bd 6cfb 873d 2dce 19be ee70 b43d
00000050: 2073 733c 6bef 16be 40a6 33be 58d8 643d
00000060: ca1f ab3d 68bf 10bd 3c11 20be e1a8 d0bd
00000070: 30ea 993c c0bd d23b dc58 393d 1008 003d

in_layer2.layers.0.weight f4 [32, 4]
0.0002314593 -0.0034050653 -0.0035198359 -2.16994e-40 0.6064275 -0.17034905 -0.14743194 1.33579e-40
-0.0019776758 -0.004732507 -0.0062028817 -1.85466e-40 -0.2795922 0.7730886 -0.5311015 4.8e-41
-0.09872923 -0.09538396 0.059243042 -5.06303e-40 -0.21369213 -0.5166025 0.5299774 2.0532e-41
-0.26258284 -0.22675443 0.5172681 3.48654e-40 -0.05950076 -0.07112069 0.056127068 -2.37917e-40
0.28726882 -0.13581753 -0.121515445 -6.20271e-40 -0.27737412 0.5905165 -0.04108042 4.7374e-41
-0.33398712 -0.5616919 0.5740656 -3.61199e-40 0.8236228 -0.30499202 -0.2996065 -1.02034e-40
0.0027614478 0.0065497654 0.005993582 5.22391e-40 -0.32397142 -0.7031443 0.5011711 4.09193e-40
-0.17242052 0.186857 -0.1606608 -1.45211e-40 0.021784686 0.5790913 -0.62377125 1.08327e-40
0.07911495 0.5735027 -0.4475981 -3.95467e-40 0.0044862656 0.26097274 -0.19993086 4.40889e-40
-0.1867109 -0.22539216 0.17823114 -2.09518e-40 -0.22793512 0.4012136 -0.1391025 -1.21577e-40
0.19157869 -0.068503685 -0.06641696 -5.53383e-40 0.1613801 -0.2725354 0.13070783 1.42837e-40
-0.13829774 0.36259004 -0.32326645 -1.7228e-40 0.04465837 -0.5336322 0.4215356 1.3014e-41
0.0010632174 0.00047544675 -0.00276279 -3.3044e-41 -0.0004312008 0.0023362292 0.0027902352 -5.6577e-41
-0.2983542 0.20332748 -0.16610871 -3.62558e-40 0.002242623 0.011321387 0.0065240483 4.01409e-40
-0.11373541 -0.09224897 0.07489181 -3.02546e-40 -0.20598552 0.1004619 -0.09488828 2.52705e-40
-0.34661424 -0.2848087 0.579797 4.34928e-40 -0.00011473319 0.0008838289 0.0016059922 5.88925e-40
00000000: e2b3 7239 8427 5fbb 0cad 66bb e45c 0280
00000010: d53e 1b3f fb6f 2ebe 66f8 16be 5d74 0100
00000020: e59b 01bb 2513 9bbb 8b41 cbbb 0105 0280
00000030: b526 8fbe 22e9 453f 45f6 07bf ce85 0000
00000040: 8d32 cabd aa58 c3bd d5a8 723d 5e83 0580
00000050: 1cd2 5abe 1040 04bf 99ac 073f 3c39 0000
00000060: 4271 86be 5032 68be af6b 043f e8cb 0300
00000070: 12b7 73bd b9a7 91bd 7fe5 653d 3797 0280
00000080: e614 933e c013 0bbe 17dd f8bd 10c1 0680
00000090: fb03 8ebe 172c 173f f143 28bd 0f84 0000
000000a0: 5c00 abbe 0acb 0fbf f7f5 123f e0ee 0380
000000b0: f2d8 523f ea27 9cbe 0666 99be 6e1c 0180
000000c0: 68f9 343b 6a9f d63b cf65 c43b 37b0 0500
000000d0: 95df a5be 4401 34bf c04c 003f aa74 0400
000000e0: 018f 30be 7157 3f3e 4484 24be ca94 0180
000000f0: cc75 b23c 543f 143f 79af 1fbf f92d 0100
00000100: 0507 a23d 13d1 123f 942b e5be 674e 0480
00000110: 8601 933b 389e 853e adba 4cbe 05cd 0400
00000120: 2431 3fbe 34cd 66be 3982 363e 0d48 0280
00000130: d367 69be de6b cd3e e370 0ebe e852 0180
00000140: 342d 443e a94b 8cbd 9d05 88bd 9b06 0680
00000150: d340 253e c389 8bbe 46d8 053e 2c8e 0100
00000160: ec9d 0dbe 67a5 b93e 2e83 a5be 3fe0 0180
00000170: b2eb 363d 1f9c 08bf 84d3 d73e 4724 0000
00000180: a85b 8b3a 6245 f939 ed0f 35bb 1d5c 0080
00000190: cb12 e2b9 6c1b 193b 61dc 363b b79d 0080
000001a0: e2c1 98be 1435 503e 6718 2abe aaf2 0380
000001b0: f8f8 123b 577d 393c afc7 d53b f75e 0400
000001c0: 1cee e8bd 07ed bcbd e160 993d 604b 0380
000001d0: deed 52be f8be cd3d c954 c2bd 70c0 0200
000001e0: 6c77 b1be 72d2 91be 946d 143f 67bc 0400
000001f0: ea9c f0b8 c1b0 673a 2880 d23a af69 0600

in_layer2.layers.0.bias f4 [32]
-0.002843464 -0.06335903 -0.005177142 0.020206442 -0.013378478 0.121648565 -0.12433719 -0.048465986
0.029670019 -0.1595699 0.18087961 0.14846139 0.006077232 0.40781075 0.06576638 -0.06112075
-0.35300362 0.062909946 0.1865703 -0.047667388 -0.045556404 0.3302986 -0.044224415 0.019876113
-0.0009225433 0.0019189169 0.27014157 0.0076499344 -0.029135644 0.148559 0.18157904 0.0013434609
00000000: 6959 3abb 61c2 81bd 04a5 a9bb fb87 a53c
00000010: 6731 5bbc e222 f93d 7fa4 febd 4584 46bd
00000020: 8a0e f33c 4b66 23be 8138 393e 4306 183e
00000030: 8423 c73b 92cc d03e 86b0 863d c059 7abd
00000040: e4bc b4be eed6 803d 490c 3f3e e13e 43bd
00000050: 5a99 3abd e61c a93e a924 35bd 3bd3 a23c
00000060: d5d6 71ba 2b84 fb3a ff4f 8a3e 4dac fa3b
00000070: e0ad eebc da1f 183e dbef 393e 1117 b03a

in_layer2.layers.2.weight f4 [32, 32]
-0.0051193256 -0.0071036387 -0.008490203 0.015758 -0.0028539211 -0.09048427 -0.05026953 -0.0019993652
-0.0047615473 0.01889302 -0.10004249 -0.008739011 0.0097961575 -0.11117235 0.0053311586 -0.023566926
-0.009459863 0.0083318 -0.015165582 0.011618977 -0.005808764 -0.028195046 0.0022110092 -0.07872284
-0.00051957363 0.003477298 0.009261893 0.01114928 -0.0034045973 0.0022544893 -0.07998708 0.0015394355
0.0024476456 0.0025706897 0.0052463133 -0.21346077 0.0012497493 0.23412985 0.092593476 -0.008170475
0.016674748 -0.18266732 0.22195233 0.06530815 -0.0055015013 0.35219935 -0.09355529 -0.10592066
-0.09376377 -0.107708104 0.09354117 -0.16226842 0.011887558 0.21757159 -0.08863869 0.21605796
0.004096704 -0.0022121891 -0.098016255 -0.005153205 0.0062336437 -0.091269985 0.2472525 -0.0016395056
-0.0024797735 0.002506087 -0.0026354797 0.54066616 -0.12643307 -0.110228054 -0.10024258 -0.07747535
0.0066483663 0.347465 -0.11788526 0.0038479404 0.003583144 -0.081484444 0.14289923 0.22022364
0.25301123 0.1735111 -0.17103392 0.24153802 0.004858224 -0.07276536 0.22525878 -0.053279907
0.0011065532 0.0019391186 0.107095316 0.0031583393 -0.13362701 0.06386337 -0.2635159 0.0014254727
0.00025012402 0.0015864738 -0.00047257738 -0.07486354 -0.00696269 -0.013074858 -0.0070653125 -0.0064343805
-0.0011870501 0.00022269237 -0.014078906 0.0056893327 -0.00032846848 -0.017090883 0.006983985 -0.06571114
-0.03106118 0.0029776068 -0.0055149165 0.006179125 -0.00017341739 -0.0018269178 -0.0018192034 -0.015164078
-0.0001868166 -0.00015011978 0.009754237 0.001908137 -0.007111886 0.0061380733 -0.0033728455 -6.720392e-05
-7.679475e-05 -0.0006334565 -0.00048680694 -0.00071864814 0.0019277758 0.00078383705 0.0007870305 0.0019926876
0.0013203941 -0.00034539765 0.0007174017 -0.00089320645 0.00028660827 0.000808446 -0.0010851896 -0.0013465231
-0.0011059326 -0.0013334118 0.0012800014 -0.00055364793 0.0019999659 0.0004814812 -0.000553047 0.00089515286
-6.288015e-05 0.00020826171 -0.00093141175 -1.6102422e-05 0.0019117635 -0.0016396538 0.0006105063 2.7586078e-05
0.0033726385 0.07702142 0.006370926 0.26613858 -0.014845267 0.23007946 -0.032524902 -0.011878121
0.059304327 -0.13080612 0.22119719 0.0398437 -0.008488053 0.21140039 0.02834942 0.2461991
0.14159372 -0.0054219854 0.006154922 -0.009529078 0.038660854 0.11530843 0.037818085 0.24757269
-0.0013249528 -0.0022195294 -0.02329063 -0.010811142 -0.030074028 -0.0015390345 0.050560493 -0.0018216997
-0.005133177 0.041333687 -0.0073912116 -0.034498025 -0.010227553 -0.14643142 -0.097403154 -0.007858423
0.009889896 -0.020230876 -0.1684871 0.10111217 0.009480606 -0.17802604 -0.0036123854 -0.07138583
-0.06024138 -0.0037909625 -0.03522254 -0.008730818 0.0015634825 -0.011125761 -0.027114872 -0.109454714
0.0010947476 0.0030074262 -0.0019333438 0.012176424 -0.012801274 -0.0028636495 -0.13141696 0.001276259
-0.0038069398 0.23034506 -0.0053490447 -0.27189103 -0.041428626 -0.22822648 -0.18378983 -0.03183394
0.10627075 -0.098689385 -0.28409684 0.38455656 0.006609306 -0.28652978 -0.053313296 -0.19800252
-0.1691814 0.0034703196 -0.06963652 -0.07941836 0.05243411 0.11182842 -0.11931871 -0.1333467
0.0033510274 0.0024676586 -0.05181599 0.009935901 -0.048863627 -0.034732893 -0.19972953 0.00032526266
00000000: 04c0 a7bb a4c5 e8bb 7e1a 0bbc ec16 813c
00000010: da08 3bbb d14f b9bd 6ce7 4dbd c807 03bb
00000020: c106 9cbb 89c5 9a3c 14e3 ccbd 122e 0fbc
00000030: 1080 203c 54ae e3bd 00b1 ae3b 6d0f c1bc
00000040: 8bfd 1abc 1a82 083c 1079 78bc 865d 3e3c
00000050: 7257 bebb 4cf9 e6bc 94e6 103b 7139 a1bd
00000060: ff33 08ba 61e3 633b 32bf 173c 78ab 363c
00000070: aa1f 5fbb 0ec0 133b 44d0 a3bd e2c6 c93a
00000080: ae68 203b 0479 283b 44e9 ab3b 7695 5abe
00000090: a1ce a33a bcbf 6f3e a6a1 bd3d 75dd 05bc
000000a0: 7b99 883c 240d 3bbe 7947 633e 48c0 853d
000000b0: f045 b4bb 7953 b43e ea99 bfbd eeec d8bd
000000c0: 3807 c0bd 1196 dcbd 8392 bf3d b129 26be
000000d0: 08c4 423c 16cb 5e3e 3488 b5bd 4c3e 5d3e
000000e0: a53d 863b 60fa 10bb bfbc c8bd 37dc a8bb
000000f0: 9843 cc3b c2eb babd c22f 7d3e aee4 d6ba
00000100: b283 22bb 2a3d 243b 03b8 2cbb 1969 0a3f
00000110: ac77 01be 3fbf e1bd fb4b cdbd 65ab 9ebd
00000120: 8ada d93b efe6 b13e d46d f1bd ba2d 7c3b
00000130: 2ed3 6a3b 51e1 a6bd 2d54 123e 4e82 613e
00000140: b08a 813e e5ac 313e 8423 2fbe be55 773e
00000150: bd31 9f3b 0106 95bd 3daa 663e 083c 5abd
00000160: c409 913a 062a fe3a ca54 db3d 24fc 4e3b
00000170: 85d5 08be ccca 823d 8eeb 86be edd6 ba3a
00000180: 1423 8339 3af1 cf3a 43c4 f7b9 0e52 99bd
00000190: 4727 e4bb ee37 56bc 2384 e7bb 7fd7 d2bb
000001a0: cb96 9bba 8782 6939 36ab 66bc 956d ba3b
000001b0: 4b36 acb9 2e02 8cbc ead9 e43b 9093 86bd
000001c0: 0474 febc f423 433b 79b6 b4bb 427a ca3b
000001d0: 60d7 35b9 3075 efba 5672 eeba c172 78bc
000001e0: 33e4 43b9 7969 1db9 3cd0 1f3c 741a fa3a
000001f0: d30a e9bb e421 c93b f50a 5dbb d4ef 8cb8
00000200: de0c a1b8 8c0e 26ba 1f3a ffb9 a963 3cba
00000210: 6cad fc3a 6a7a 4d3a b950 4e3a c097 023b
00000220: 1311 ad3a 7d16 b5b9 0310 3c3a 1226 6aba
00000230: e943 9639 e5ed 533a ec3c 8eba d17d b0ba
00000240: f1f4 90ba e0c5 aeba b8c5 a73a af22 11ba
00000250: dc11 033b 506f fc39 5bfa 10ba b1a8 6a3a
00000260: 86de 83b8 d460 5a39 fc29 74ba b013 87b7
00000270: 2394 fa3a a7e9 d6ba 620a 203a a768 e737
00000280: 7c07 5d3b 68bd 9d3d 33c3 d03b 5143 883e
00000290: 9039 73bc f399 6b3e d538 05bd 739c 42bc
000002a0: 18e9 723d 0af2 05be 8481 623e 2633 233d
000002b0: 7a11 0bbc 5879 583e 0b3d e83c 9e1b 7c3e
000002c0: f2fd 103e e9aa b1bb 3aaf c93b da1f 1cbc
000002d0: d85a 1e3d d326 ec3d 23e7 1a3d b283 7d3e
000002e0: 0aaa adba 8675 11bb fecb bebc 3721 31bc
000002f0: cf5d f6bc 6eb9 c9ba 8518 4f3d 19c6 eeba
00000300: 3634 a8bb 834d 293d fa31 f2bb cd4d 0dbd
00000310: 7791 27bc 1ef2 15be 4e7b c7bd 9dc0 00bc
00000320: 3b09 223c 39bb a5bc e287 2cbe e613 cf3d
00000330: 8b54 1b3c 754c 36be c5bd 6cbb bc32 92bd
00000340: aabf 76bd cc71 78bb 8345 10bd b40b 0fbc
00000350: c4ed cc3a d348 36bc 0220 debc cb29 e0bd
00000360: a27d 8f3a 3d18 453b 4168 fdba a07f 473c
00000370: 6fbc 51bc 11ac 3bbb 2b92 06be 2548 a73a
00000380: da7d 79bb 93df 6b3e 0a47 afbb 4d35 8bbe
00000390: 10b1 29bd 34b4 69be 6733 3cbe 4e64 02bd
000003a0: 7ba4 d93d a91d cabd 2475 91be 99e4 c43e
000003b0: e192 d83b 08b4 92be 0b5f 5abd 2cc1 4abe
000003c0: e43d 2dbe 4d6e 633b 989d 8ebd 18a6 a2bd
000003d0: 26c5 563d 4c06 e53d 5e5d f4bd 0a8c 08be
000003e0: e99c 5b3b 71b8 213b 013d 54bd 30ca 223c
000003f0: 3a25 48bd 1444 0ebd e685 4cbe 0488 aa39

in_layer2.layers.2.bias f4 [32]
-0.057300635 0.24489559 0.19687659 0.017081492 0.0010686929 0.11545617 0.028396036 0.09615164
-7.371029e-06 -0.0012549177 0.011614113 -0.0011528232 -0.0016709181 -0.07018908 -0.0015289652 0.07416945
0.00023480541 0.13771103 -0.039268855 -0.00018347822 0.12507257 -0.0014158669 -0.0010444473 -0.055947717
0.0005827495 0.07708361 -0.040459294 0.13071771 -0.0014160803 -0.02976841 0.2037246 -0.055137955
00000000: 12b4 6abd e9c5 7a3e 049a 493e 7cee 8b3c
00000010: 6213 8c3a 4974 ec3d ce9e e83c 27eb c43d
00000020: a854 f7b6 0d7c a4ba 1f49 3e3c 541a 97ba
00000030: b502 dbba 4bbf 8fbd 8f67 c8ba 27e6 973d
00000040: 1936 7639 1f04 0d3e 61d8 20bd 0f64 40b9
00000050: 0613 003e 9c94 b9ba d6e5 88ba 6f29 65bd
00000060: a8c3 183a 03de 9d3d a5b8 25bd ddda 053e
00000070: c59b b9ba e1dc f3bc 2e9d 503e 56d8 61bd

sat_layers.layer0_1.0.agg_weight f4 [3]
-0.35778508 7.1746e-41 1.0260398
00000000: 9b2f b7be 00c8 0000 4655 833f

sat_layers.layer0_1.0.input_linear_layer1.weight f4 [32, 32]
-0.007910962 0.011266389 0.04781112 0.08468928 0.025166916 0.15183999 -0.0056006103 -0.0017261932
-0.028725803 -0.008581602 -0.053236183 -0.0023803283 -0.037581418 0.001043001 0.03339316 0.022832124
-0.01472293 -0.0117409015 -0.0067893644 -0.016198134 -0.028218543 0.024850043 0.09443778 -0.056157876
0.0011068545 0.049419813 -0.0075179976 0.15273546 -0.009280942 -0.095186226 0.25210795 -0.02619016
-0.00023276288 0.00047750148 0.0007206246 0.0011333389 -0.0009923131 0.00019171141 2.0826394e-05 0.00014246642
0.0011508283 2.8996714e-05 -0.00076167664 -7.976515e-05 -0.00063013815 -0.00036820775 0.0009827809 0.0007821692
-0.0010689648 -3.2630094e-05 5.6641573e-05 1.1041807e-05 0.001003001 0.0010149657 0.0010460338 -0.0009349156
0.00011689961 0.0011057502 8.916661e-05 0.00021780143 0.000105980595 -0.0006251673 0.0011760454 -3.333187e-05
-0.015600529 0.031869445 0.109753266 0.19400772 0.032996293 0.25227147 -0.008394992 -0.005281511
-0.059156086 -0.020161478 -0.07578827 -0.0017394179 -0.08500385 0.0039641513 0.08286518 0.062380973
-0.017876683 -0.025383836 -0.012328905 -0.035909228 -0.07176015 0.055917647 0.20437618 -0.086358644
-0.0012165824 0.10822903 -0.012334826 0.2159224 -0.014725987 -0.15177608 0.45563993 -0.056778703
0.00012608484 0.00022708805 0.00048602707 0.0006232801 -0.0005722859 -0.00013928201 -1.4786497e-05 -0.00010941309
0.00037222425 3.53721e-05 -0.00045742426 0.0001317313 -0.00036356758 0.00015397114 0.00043755196 0.00034552085
-0.00040910498 5.7394616e-05 3.2563003e-05 -4.4957946e-05 0.0004844912 0.00051219476 0.0005480945 -0.00048816347
1.3453429e-05 0.0005280381 4.706962e-05 -0.00012106755 2.8321283e-06 -0.0007265262 0.0006749865 -3.4185712e-05
9.385796e-05 5.6059553e-06 2.326266e-06 6.863598e-05 0.00026589638 0.0011526493 -1.4497709e-05 -4.2699892e-05
7.7204466e-05 -0.00012014614 -0.00027772025 0.00010020234 3.591246e-07 0.00012391694 0.00012402081 4.335831e-05
-0.000103458544 0.000117837364 -2.239097e-05 -0.000120223056 -7.6386334e-07 -1.105704e-05 4.5735123e-05 -0.00014471372
-2.9682891e-05 2.5527475e-05 -1.599314e-05 0.0014267344 -1.3593944e-05 -0.00061629666 4.6347257e-05 0.0001531178
8.705809e-05 -8.450134e-06 -3.9537943e-05 -5.9797905e-05 4.678106e-05 0.0006401666 -1.6015018e-06 -6.716073e-06
-4.154662e-05 -1.1418911e-06 -3.0183859e-05 2.6060601e-05 3.218688e-05 8.502206e-05 -4.425009e-06 -2.6480348e-06
2.0588941e-05 7.1364884e-05 1.5070405e-06 9.912278e-07 -7.025455e-05 -6.105226e-05 -2.5326619e-05 -5.624659e-05
-1.7703798e-05 -6.149497e-05 -1.0578582e-05 0.00066491484 -2.7611219e-05 -0.00012660868 4.399713e-05 8.5729174e-05
-0.010928955 0.018757692 0.07118474 0.124487296 0.03033532 0.20654601 -0.0069248937 -0.0031144258
-0.040809367 -0.013452188 -0.075060524 -0.002467249 -0.05550847 0.0022135312 0.050125398 0.03647274
-0.018903647 -0.017080046 -0.009088216 -0.02423442 -0.032379285 0.03417753 0.12648465 -0.06656921
0.0002939827 0.07105903 -0.009655634 0.21297549 -0.0117501775 -0.15797357 0.32640138 -0.03821331
-0.0056125554 0.0058981273 0.029084828 0.052879855 0.015066389 0.097906664 -0.0041363686 -0.0009098513
-0.01946757 -0.004372161 -0.037227586 -0.0021430138 -0.023004308 -4.3874e-05 0.018993976 0.01238464
-0.008500549 -0.007659677 -0.0048320405 -0.0094064195 -0.01658136 0.0139001785 0.056984007 -0.039957497
0.0013298756 0.029601771 -0.005516614 0.10195384 -0.0068079047 -0.09783838 0.16992868 -0.016617706
00000000: fb9c 01bc a996 383c 98d5 433d 9371 ad3d
00000010: d92a ce3c f17b 1b3e 5385 b7bb 6f41 e2ba
00000020: 6052 ebbc d999 0cbc 2f0e 5abd 48ff 1bbb
00000030: f9ee 19bd 4eb5 883a 44c7 083d 6f0a bb3c
00000040: 7238 71bc e95c 40bc 5179 debb f3b1 84bc
00000050: 932a e7bc 5192 cb3c 9868 c13d cd05 66bd
00000060: e013 913a 6e6c 4a3d 8959 f6bb af66 1c3e
00000070: 180f 18bc fff0 c2bd 4b14 813e bf8c d6bc
00000080: cf11 74b9 2a59 fa39 4ce8 3c3a 8b8c 943a
00000090: 8110 82ba 2406 4939 57b4 ae37 0a63 1539
000000a0: 64d7 963a f83d f337 41ab 47ba 9747 a7b8
000000b0: db2f 25ba 020c c1b9 a8d0 803a 7d0a 4d3a
000000c0: 821c 8cba 4cdc 08b8 6d92 6d38 3340 3937
000000d0: 2177 833a 9908 853a 121b 893a 2015 75ba
000000e0: 0028 f538 d2ee 903a f6fe ba38 a061 6439
000000f0: e641 de38 44e2 23ba 8925 9a3a d3cd 0bb8
00000100: 5c99 7fbc 8989 023d 52c6 e03d f6a9 463e
00000110: 1f27 073d ba29 813e 268b 09bc 8710 adbb
00000120: a74d 72bd af29 a5bc e136 9bbd 2efd e3ba
00000130: 8016 aebd b6e5 813b 38b5 a93d 3183 7f3d
00000140: 1f72 92bc c3f1 cfbc 2dff 49bc 8e15 13bd
00000150: fcf6 92bd e709 653d fd47 513e cddc b0bd
00000160: bb75 9fba 2fa7 dd3d 0318 4abc c31a 5d3e
00000170: 4445 71bc 306b 1bbe a349 e93e c990 68bd
00000180: a435 0439 7c1e 6e39 73d1 fe39 9f63 233a
00000190: 7505 16ba 3b0c 12b9 8513 78b7 b574 e5b8
000001a0: 1827 c339 815c 1438 72d2 efb9 5a21 0a39
000001b0: 379d beb9 5073 2139 3b67 e539 0627 b539
000001c0: 247d d6b9 00bb 7038 4294 0838 3a91 3cb8
000001d0: 4f03 fe39 cf44 063a 00ae 0f3a 31f0 ffb9
000001e0: 0ab6 6137 096c 0a3a 9f6c 4538 a5e5 fdb8
000001f0: 980f 3e36 5974 3eba 94f1 303a a162 0fb8
00000200: 9cd5 c438 ca1a bc36 f21c 1c36 a9f0 8f38
00000210: 0268 8b39 7e14 973a 303b 73b7 a918 33b8
00000220: d5e8 a138 f8f6 fbb8 fb9a 91b9 b923 d238
00000230: b6cd c034 b3ef 0139 950b 0239 a2db 3538
00000240: e2f7 d8b8 741f f738 3ed4 bbb7 4320 fcb8
00000250: 4a0c 4db5 a081 39b7 b7d3 3f38 4bbe 17b9
00000260: 86ff f8b7 d623 d637 0229 86b7 4301 bb3a
00000270: 8b11 64b7 f88e 21ba fd64 4238 3f8e 2039
00000280: f592 b638 0dc5 0db7 8bd5 25b8 83cf 7ab8
00000290: c836 4438 dad0 273a 2ff3 d6b5 a15a e1b6
000002a0: 5842 2eb8 1443 99b5 5833 fdb7 b79c da37
000002b0: 6600 0738 df4d b238 8a7a 94b6 e4b4 31b6
000002c0: 6ab6 ac37 bba9 9538 8445 ca35 540a 8535
000002d0: a055 93b8 2f09 80b8 8074 d4b7 51ea 6bb8
000002e0: 9e82 94b7 dcf6 80b8 aa7a 31b7 ae4d 2e3a
000002f0: a49e e7b7 42c2 04b9 8f89 3838 80c9 b338
00000300: 5c0f 33bc bba9 993c 4ec9 913d 32f3 fe3d
00000310: c781 f83c cc80 533e 38ea e2bb 651b 4cbb
00000320: b927 27bd 9166 5cbc 55b9 99bd 92b1 21bb
00000330: d95c 63bd e410 113b 4a50 4d3d 7164 153d
00000340: d2db 9abc 74eb 8bbc bee6 14bc 4387 c6bc
00000350: 24a0 04bd bdfd 0b3d 3185 013e 7055 88bd
00000360: b121 9a39 6687 913d aa32 1ebc 3f16 5a3e
00000370: d183 40bc d3c3 21be 151e a73e 8f85 1cbd
00000380: 87e9 b7bb 1445 c13b 4e43 ee3c 8c98 583d
00000390: 04d9 763c 4a83 c83d 608a 87bb 1683 6eba
000003a0: 747a 9fbc 5844 8fbb f47b 18bd ce71 0cbb
000003b0: 8873 bcbc 5905 38b8 4199 9b3c f2e8 4a3c
000003c0: e345 0bbc 07fe fabb 1856 9ebb 621d 1abc
000003d0: a2d5 87bc 93bd 633c 1068 693d 79aa 23bd
000003e0: 384f ae3a 6a7f f23c b6c4 b4bb 2dcd d03d
000003f0: d814 dfbb 7d5f c8bd c901 2e3e db21 88bc

sat_layers.layer0_1.0.input_linear_layer1.bias f4 [32]
0.15093581 -0.0007495394 0.17859355 -0.0008646969 0.0007720864 2.7963426e-05 0.20434473 0.12871817
0.20338082 -0.00037905612 0.001790959 -4.5353758e-05 -0.00015269374 -0.00010974005 0.17100197 0.19304375
0.1344268 -0.00013289251 -3.4069664e-05 0.20144586 -0.00090802705 0.1758181 0.00015696102 0.17251563
0.00012763421 -0.0007837454 -4.6256413e-05 7.5272364e-06 0.21002027 0.026945299 0.14553404 0.19561894
00000000: eb8e 1a3e bd7c 44ba 3ae1 363e d4ac 62ba
00000010: d765 4a3a 0093 ea37 bf3f 513e b2ce 033e
00000020: 1043 503e 0dbc c6b9 9dbe ea3a 3a3a 3eb8
00000030: 6a1c 20b9 3e24 e6b8 241b 2f3e 43ad 453e
00000040: 2ea7 093e 1059 0bb9 06e6 0eb8 d347 4e3e
00000050: aa08 6eba a909 343e e795 2439 f0a7 303e
00000060: 8cd5 0539 4374 4dba 7203 42b8 7892 fc36
00000070: 8e0f 573e 63bc dc3c e006 153e 5550 483e

sat_layers.layer0_1.0.input_linear_layer2.weight f4 [32, 32]
0.0033619038 0.02100371 0.044011015 0.031844154 -0.047442645 0.015434638 0.0005895856 -0.009301628
0.0031741862 -0.009924676 -0.0033729451 0.0059545217 -0.031676486 0.0059391814 0.007860351 0.014792212
0.003315788 -0.006652844 -0.00774471 -0.019255333 0.04825245 0.010988264 0.026622828 -0.038352817
-0.01416322 0.014657333 0.008059198 -0.03365282 0.009538482 -0.09320905 -0.032702323 -0.02144955
-0.010223501 0.035725053 0.035232797 0.011802474 -0.08173534 -0.069832414 0.002115731 -0.01337486
-0.02059186 -0.0129971225 -0.066191226 -0.006577603 -0.04811792 -0.001906316 0.010607413 0.036200147
-0.022309449 -0.02245285 -0.010811074 -0.027572403 0.006963167 0.019280486 0.037280943 -0.0362028
-0.022187965 0.032511313 0.008947806 -0.10111118 0.011177847 -0.13608867 -0.021688381 -0.043699693
0.0040453696 0.0017390815 0.013696774 -0.011686872 -0.007552554 0.073854044 0.0014101272 -0.0007867529
0.005596793 -0.0033254856 0.0031312874 0.009251303 -0.0024030674 0.0052896608 0.0048799673 0.0073915506
-0.0023162235 0.003035196 0.00044810888 -0.0058192066 0.012085128 0.013176527 0.022153292 -0.0017705632
-0.0018235199 0.017641738 -3.5021294e-06 0.062128194 -0.0001043322 -0.0042509944 -0.006568856 0.0034291605
0.006683426 0.021904867 0.054495163 0.05591815 -0.088821396 -0.01533055 0.0011000137 -0.009024972
0.009517483 -0.01429085 -0.025591053 0.013630994 -0.03598215 0.010271942 0.030233026 0.014057871
0.00012388335 -0.00402864 -0.0077379197 -0.023231018 0.0010456435 0.0345718 0.049857788 -0.039719597
-0.012788985 0.03677078 0.007545592 0.017997311 0.009081998 -0.055077143 -0.043372497 -0.02235099
-0.03948392 -0.034338072 0.057578783 0.24649653 -0.0099185975 -0.14759123 0.010342548 0.01871375
-0.122374766 -0.026325662 -0.10692964 0.012134243 -0.0055595036 -0.0040910263 0.07355569 -0.018429838
-0.023622824 -0.015356147 0.01994648 0.035880763 -0.00024123286 0.14503998 0.112775475 -0.119121924
0.01366449 0.14657733 0.0031896255 -0.242304 0.000687388 -0.018240165 0.426373 -0.04128761
-0.057794556 0.014171376 -0.047499225 0.050248772 0.060640924 -0.08600122 -0.0019500959 -0.0036738215
0.053865395 0.052089684 -0.0077647017 -0.08340801 0.011499914 -0.05425476 -0.041198004 0.08219141
-0.066052906 -0.058852322 -0.007395023 -0.017512988 0.084100746 0.032661207 -0.038115423 0.009827661
-0.021920215 0.043450586 0.007879069 -0.2548367 0.009006585 0.073460765 0.021638827 -0.04892255
0.012457421 0.0022972561 0.03480122 0.02545617 0.01166205 -0.0016719255 0.00032247044 -0.00031464992
-0.009591811 -0.0051449477 -0.0036939634 0.02687227 -0.00679947 0.012242956 0.0080330605 -0.0041590747
0.0020133678 0.0015581142 -0.00085153576 -0.013611141 -0.003940927 0.008863087 0.04918744 -0.00627726
-0.0008713666 0.016052563 -0.0013888866 0.096553594 -0.0013542642 -0.04261968 -0.030448822 -0.0145531995
-0.022880694 -0.012626949 0.09486392 -0.07558856 -0.037739526 -0.08334031 0.0015850536 0.0072655166
0.0062132715 0.028140085 -0.034264393 -0.052617006 0.043788742 -0.026671123 0.04740287 0.04271279
-0.03835181 -0.014694488 0.011087507 0.022818394 -0.04804947 -0.023014367 0.10244528 -0.0037922766
0.008622002 0.09029006 -0.0027399692 -0.16344967 -0.0048580784 -0.10499949 0.30298033 0.0037050762
00000000: 6353 5c3b f90f ac3c e544 343d 046f 023d
00000010: 3853 42bd 90e1 7c3c 6b8e 1a3a db65 18bc
00000020: 0206 503b 1c9b 22bc a10c 5dbb 261e c33b
00000030: 34bf 01bd 779d c23b b4c8 003c 095b 723c
00000040: b14d 593b 1a00 dabb 56c7 fdbb 5cbd 9dbc
00000050: 5ca4 453d 1f08 343c 1e18 da3c d817 1dbd
00000060: da0c 68bc 4f25 703c ba0a 043c 8ad7 09bd
00000070: 4b47 1c3c 63e4 bebd dff2 05bd f7b6 afbc
00000080: 7980 27bc 6f54 123d 4450 103d 2a5f 413c
00000090: dc64 a7bd 4c04 8fbd 13a8 0a3b 3b22 5bbc
000000a0: 43b0 a8bc e2f1 54bc 448f 87bd ef88 d7bb
000000b0: 4c17 45bd 5add f9ba b7ca 2d3c 9b46 143d
000000c0: 4ec2 b6bc 0aef b7bc ee20 31bc 85df e1bc
000000d0: 472b e43b 1cf2 9d3c e7b3 183d 6349 14bd
000000e0: 89c3 b5bc 952a 053d d299 123c 6113 cfbd
000000f0: 4a23 373c d45a 0bbe d5ab b1bc 73fe 32bd
00000100: 058f 843b e4f1 e33a 6f68 603c 4b7a 3fbc
00000110: 6a7b f7bb ca40 973d 04d4 b83a 183e 4eba
00000120: 4d65 b73b 64f0 59bb 4936 4d3b c792 173c
00000130: c87c 1dbb e454 ad3b 22e8 9f3b d234 f23b
00000140: c8cb 17bb 24ea 463b 28f0 ea39 0baf bebb
00000150: b300 463c 5ce2 573c d27a b53c 3e12 e8ba
00000160: 2d03 efba 6885 903c 2006 6bb6 227a 7e3d
00000170: eccc dab8 ed4b 8bbb 8f3f d7bb c4bb 603b
00000180: a400 db3b d671 b33c 5236 5f3d 6e0a 653d
00000190: fee7 b5bd fd2c 7bbc 562e 903a 7add 13bc
000001a0: 38ef 1b3c 2b24 6abc 54a4 d1bc 8854 5f3c
000001b0: 0562 13bd a64b 283c 40ab f73c fc52 663c
000001c0: afe6 0139 af02 84bb 608e fdbb fa4e bebc
000001d0: f90d 893a 299b 0d3d ae37 4c3d 04b1 22bd
000001e0: e488 51bc f59c 163d 0341 f73b 196f 933c
000001f0: a9cc 143c 9298 61bd 5ca7 31bd 6c19 b7bc
00000200: e4b9 21bd 14a6 0cbd bbd7 6b3d 9669 7c3e
00000210: 9d81 22bc 2822 17be ca73 293c 944d 993c
00000220: 9f9f fabd eaa8 d7bc edfd dabd b4ce 463c
00000230: 7f2c b6bb 040e 86bb 5ea4 963d 2cfa 96bc
00000240: a784 c1bc 5998 7bbc cd66 a33c b5f7 123d
00000250: 74f3 7cb9 5c85 143e d4f6 e63d 32f6 f3bd
00000260: 06e1 5f3c 5e18 163e 0909 513b 8a1e 78be
00000270: d431 343a 666c 95bc 904d da3e 321d 29bd
00000280: fcb9 6cbd 0f2f 683c 8c8e 42bd a8d1 4d3d
00000290: 9e62 783d 6821 b0bd 5c9a ffba 7fc4 70bb
000002a0: f6a1 5c3d fe5b 553d 0a6f febb d2d1 aabd
000002b0: 236a 3c3c 3d3a 5ebd 3dbf 28bd f853 a83d
000002c0: bf46 87bd 220f 71bd f351 f2bb 6677 8fbc
000002d0: 033d ac3d c2c7 053d eb1e 1cbd 3304 213c
000002e0: 0692 b3bc 3ef9 313d 3617 013c f579 82be
000002f0: 5b90 133c 9972 963d e943 b13c 0363 48bd
00000300: 361a 4c3c 908d 163b b98b 0e3d 7589 d03c
00000310: 2f12 3f3c 8324 dbba 4011 a939 99f7 a4b9
00000320: f926 1dbc f396 a8bb 6c16 72bb 3c23 dc3c
00000330: 17ce debb ae96 483c 199d 033c d948 88bb
00000340: b5f2 033b a339 cc3a 9939 5fba 4301 5fbc
00000350: e422 81bb 7b36 113c c578 493d 79b1 cdbb
00000360: 6c6c 64ba aa80 833c 4d0b b6ba e4bd c53d
00000370: 9181 b1ba f991 2ebd cf6f f9bc 8b70 6ebc
00000380: 4b70 bbbc 43e1 4ebc 0448 c23d 2dce 9abd
00000390: c394 1abd 53ae aabd 93c1 cf3a 9213 ee3b
000003a0: b398 cb3b 0986 e63c d258 0cbd ee84 57bd
000003b0: d35b 333d 667d dabc 8329 423d 9bf3 2e3d
000003c0: ca16 1dbd 26c1 70bc 60a8 353c a4ed ba3c
000003d0: 85cf 44bd a088 bcbc d5ce d13d d887 78bb
000003e0: 4c43 0d3c ffe9 b83d 0e91 33bb 5a5f 27be
000003f0: 8430 9fbb f909 d7bd 3d20 9b3e ddd0 723b

sat_layers.layer0_1.0.input_linear_layer2.bias f4 [32]
-0.0048889727 -0.0679308 0.0017708647 -0.040771466 -0.014194159 -0.1256275 -0.029904539 0.13973899
-0.027903695 0.20661885 0.1633759 0.023458324 0.14989631 -0.03832289 -0.08671504 -0.10371946
0.0774447 -0.0307124 -0.024299243 -0.05379066 -0.04792804 0.008298287 -0.11108004 -0.011102064
0.14457954 -0.017200343 -0.028662521 -0.17384942 -0.10167542 0.018853014 0.117921524 -0.05724722
00000000: ad33 a0bb 4e1f 8bbd 5c1c e83a fbff 26bd
00000010: 9e8e 68bc 7fa4 00be 5dfa f4bc bd17 0f3e
00000020: 4a96 e4bc e493 533e 034c 273e ac2b c03c
00000030: 6b7e 193e 76f8 1cbd a897 b1bd de6a d4bd
00000040: 549b 9e3d 9298 fbbc 350f c7bc 9853 5cbd
00000050: 3150 44bd 8af5 073c ef7d e3bd 6ee5 35bc
00000060: a90c 143e bce7 8cbc aacd eabc 9505 32be
00000070: 343b d0bd a371 9a3c d780 f13d 107c 6abd
