output/modelparams/dynamicLearning-WORKPLACE-SCCompUAU-DiffSAT/epoch1_model_state_dict.pth (torch, 269001 bytes, 158 tensors)

in_layer0.layers.0.weight f4 [32, 3]
-0.018118002 0.4190572 -0.6563018 -0.42007673 -0.34111476 0.296442 -0.01452437 0.68452626
-0.21850306 0.2431447 -0.2314985 -0.19163138 -0.57249165 -0.614148 -0.03591807 -0.05408282
0.21805942 0.54577196 -0.44161528 -0.20843278 0.48075238 0.4607897 -0.33040422 0.58402866
-0.053017713 -0.1418663 0.7292245 -0.30133036 -0.36651453 -0.17961355 -0.20399994 0.7135637
-0.38089636 -0.22859819 -0.27724615 -0.32127202 -0.35213473 0.73809 0.10527329 0.24932134
0.07974678 -0.41344637 0.16573729 -0.4519494 -0.3581592 -0.4224541 0.47048268 0.47962925
-0.22148384 0.11736076 0.42318675 0.5556145 0.2936154 -0.019602241 0.36975226 -0.5655743
0.2868293 -0.53461295 -0.23657882 -0.115842864 0.2432451 0.405363 -0.5185971 0.18608463
0.40460837 -0.2429499 -0.014766081 0.08309804 0.5412424 0.5688638 -0.655721 -0.11242573
-0.030695438 0.49242356 0.62322587 0.52724206 0.039283987 -0.6198349 0.08150532 -0.36619097
-0.35529292 0.4934763 0.60567945 -0.7386345 0.1329804 -0.05212666 -0.05005585 -0.25346768
0.40835163 -0.31233937 0.17443071 0.12795106 0.61452943 0.25099713 -0.29866198 -0.34286168
00000000: 346c 94bc aa8e d63e 6503 28bf 4c14 d7be
00000010: 98a6 aebe 3fc7 973e a0f7 6dbc 1d3d 2f3f
00000020: 44bf 5fbe edfa 783e f10d 6dbe 043b 44be
00000030: d08e 12bf ce38 1dbf d31e 13bd f285 5dbd
00000040: f84a 5f3e b6b7 0b3f 661b e2be 676f 55be
00000050: 2d25 f63e a1ec eb3e be2a a9be e782 153f
00000060: 1a29 59bd 6645 11be 75ae 3a3f f947 9abe
00000070: cba7 bbbe 9dec 37be 5ce5 50be 1cac 363f
00000080: d904 c3be a515 6abe 35f3 8dbe c47d a4be
00000090: 014b b4be 77f3 3c3f 8699 d73d 184e 7f3e
000000a0: 4852 a33d 3eaf d3be 09b7 293e e965 e7be
000000b0: a560 b7be e74b d8be 1be3 f03e f791 f53e
000000c0: a9cc 62be d75a f03d efab d83e c03c 0e3f
000000d0: c254 963e e194 a0bc 2b50 bd3e 7ac9 10bf
000000e0: 4adb 923e 65dc 08bf b841 72be 063f edbd
000000f0: 3e15 793e bd8b cf3e c8c2 04bf f88c 3e3e
00000100: d428 cf3e dcc7 78be 6fed 71bc 4e2f aa3d
00000110: dd8e 0a3f 0fa1 113f 55dd 27bf 763f e6bd
00000120: 0075 fbbc f11e fc3e bb8b 1f3f 56f9 063f
00000130: 3fe8 203d 80ad 1ebf 43ec a63d 627d bbbe
00000140: f4e8 b5be eda8 fc3e cf0d 1b3f 2717 3dbf
00000150: 042c 083e c482 55bd 5d07 4dbd 84c6 81be
00000160: 7713 d13e f2ea 9fbe f79d 323e 9a05 033e
00000170: cd51 1d3f b282 803e 39ea 98be 918b afbe

in_layer0.layers.0.bias f4 [32]
0.28559107 0.13189857 -0.3352808 -0.2677861 0.53788966 0.3861468 -0.04370902 -0.13641663
-0.41228062 0.054730557 -0.25780705 -0.34782788 0.04221186 0.055078223 -0.16663481 0.39878443
-0.2787077 0.5207522 0.3981133 -0.5769627 -0.12632239 0.035822805 0.10147762 0.15616858
0.1211639 0.035009563 -0.26790732 0.29109967 -0.51027435 -0.19041647 -0.15707612 -0.23995072
00000000: fe38 923e 6b10 073e eda9 abbe 421b 89be
00000010: 23b3 093f 09b5 c53e 3b08 33bd cdb0 0bbe
00000020: 7216 d3be 262d 603d 49ff 83be 7f16 b2be
00000030: 58e6 2c3d b499 613d 51a2 2abe 792d cc3e
00000040: c7b2 8ebe 0450 053f 82d5 cb3e d4b3 13bf
00000050: a85a 01be efba 123d 80d3 cf3d a8ea 1f3e
00000060: c724 f83d 3066 0f3d 262b 89be 040b 953e
00000070: 57a1 02bf 89fc 42be 90d8 20be a4b5 75be

in_layer0.layers.2.weight f4 [32, 32]
-0.20376325 0.021503119 -0.048182398 0.015670469 0.0065381005 0.014654957 0.24206251 0.0014305311
0.12119077 0.01898326 0.020802062 0.1313059 0.22241172 -0.0024826415 0.097866364 0.0590179
-0.06446281 -0.12763077 0.10699781 0.019538144 -0.2709118 -0.24465497 -0.09315587 -0.19741362
-0.020874351 -0.009359752 0.08525529 -0.2789735 0.12274952 -0.12736234 0.042060588 -0.11115155
-0.07101971 0.035304133 -0.16943261 -0.15441076 0.04850428 0.02306722 -0.034201413 0.06565581
-0.1172128 0.0011015417 0.13797614 -0.06985428 0.17456324 0.03153196 -0.16857183 0.14752816
0.0030622475 -0.09237981 0.1359478 -0.13997406 -0.058051467 -0.07263251 0.16639657 0.01857469
0.10752837 0.025220543 -0.047932565 -0.06839669 -0.14188588 0.084996074 0.19113389 0.09003333
-0.19352819 0.11599959 -0.17020981 -0.103553124 0.005004845 0.09117445 -0.04190146 0.03757218
0.061275043 0.121950716 -0.18700735 -0.1257592 -0.10836668 0.07993678 -0.07861875 0.19046853
0.09167356 0.012370201 0.014428182 -0.041291945 -0.110822625 -0.098273925 0.061705425 0.010129105
-0.11153025 -0.13767606 0.12573275 -0.18918805 -0.018890234 0.14265664 0.14060587 -0.025209961
-0.13368236 0.03929514 -0.14889643 -0.043312043 -0.05163513 -0.023964047 -0.030830339 0.17055716
-0.011689715 0.11954354 0.06020213 -0.11704568 0.014619025 -0.069425836 -0.056122333 0.027002357
0.012901109 0.15771462 -0.023233239 -0.012401323 0.096889056 -0.13681997 0.12255041 -0.09326099
-0.0007033002 0.018765068 -0.08607645 0.05369628 0.12357978 -0.07530565 -0.09153617 -0.041030683
-0.18452021 0.017494965 -0.08346409 -0.060598794 -0.18066788 0.04826222 0.068653174 0.13033625
0.046097636 -0.049516324 -0.05860996 0.071150705 0.045765147 0.08300264 -0.019302938 -0.17490225
-0.16685429 0.03824795 -0.09621087 -0.1288787 0.19718343 -0.113755845 -0.084626734 0.08226024
-0.05096368 -0.07712275 -0.09857425 0.1504537 0.05186194 0.14317378 -0.12575968 0.09979105
-0.12838744 0.07189564 -0.16286395 0.078207865 0.08398514 -0.0073070824 0.02543728 -0.05568988
0.17599708 -0.10269456 -0.007095195 -0.044590432 -0.1719551 -0.00565509 -0.06494908 0.017145317
0.06882176 -0.14693306 0.054291204 0.08530328 -0.04422347 -0.09324293 -0.12542303 -0.003048937
0.046185583 -0.09645535 0.07869168 0.055673048 -0.07525083 -0.027603483 0.09183056 0.033257037
-0.027803883 0.06134519 -0.19740006 0.024464287 0.12242985 0.17610301 0.11862639 0.078545615
0.100782536 -0.08423618 -0.21300665 -0.16601141 0.1075002 0.10824723 -0.061537225 0.025548272
0.1409046 0.18619443 0.19251065 0.11932213 -0.081308834 -0.096223384 0.16056813 0.11987491
-0.09167911 0.15094149 0.07322815 0.07536244 -0.12241668 0.007881869 -0.055285584 0.14824998
-0.08400789 0.15286227 0.011620157 0.05992629 0.02056317 0.10204334 -0.06257054 0.059372626
-0.06494847 -0.14715801 -0.15480214 0.13610192 0.10783135 0.102987394 0.10404959 -0.11551517
-0.078469284 -0.04677662 -0.113353744 0.11900082 -0.21005312 -0.12519899 -0.115273215 -0.12824982
0.15080155 0.08527728 0.10942035 0.08491282 0.14918374 -0.047341447 0.121930584 0.11558283
00000000: 50a7 50be 4f27 b03c e85a 45bd 5b5f 803c
00000010: 903d d63b 581b 703c 3cdf 773e a980 bb3a
00000020: de32 f83d c882 9b3c 1669 aa3c 0e75 063e
00000030: e6bf 633e d0b3 22bb 296e c83d c1bc 713d
00000040: 1405 84bd a4b1 02be ab21 db3d 750e a03c
00000050: f4b4 8abe d586 7abe 81c8 bebd cc26 4abe
00000060: b000 abbc a559 19bc 539a ae3d 9dd5 8ebe
00000070: 1a64 fb3d 466b 02be b947 2c3d 6da3 e3bd
00000080: c872 91bd 119b 103d be7f 2dbe db1d 1ebe
00000090: 6dac 463d 77f7 bc3c c816 0cbd 8e76 863d
000000a0: 440d f0bd 9b61 903a 9e49 0d3e c30f 8fbd
000000b0: b5c0 323e a827 013d 189e 2cbe 9f11 173e
000000c0: fdaf 483b a031 bdbd e635 0b3e 5c55 0fbe
000000d0: 60c7 6dbd 5ac0 94bd dd63 2a3e f329 983c
000000e0: d637 dc3d 509b ce3c f054 44bd 9013 8cbd
000000f0: 884a 11be 6c12 ae3d 9ab8 433e 6563 b83d
00000100: 412c 46be 3191 ed3d 7b4b 2ebe a913 d4bd
00000110: afff a33b acb9 ba3d dea0 2bbd 49e5 193d
00000120: 8afb 7a3d 4cc1 f93d db7e 3fbe 05c7 00be
00000130: 5aef ddbd e5b5 a33d de02 a1bd 2f0a 433e
00000140: 59bf bb3d 62ac 4a3c 2e64 6c3c be21 29bd
00000150: f9f6 e2bd d743 c9bd d4be 7c3d 8cf4 253c
00000160: f969 e4bd f4fa 0cbe 16c0 003e 83ba 41be
00000170: b1bf 9abc 9514 123e fcfa 0f3e 1f85 cebc
00000180: 07e4 08be f1f3 203d 4e78 18be f867 31bd
00000190: 5c7f 53bd 4050 c4bc e88f fcbc 89a6 2e3e
000001a0: 3886 3fbc 3ed3 f43d 8296 763d a5b5 efbd
000001b0: a384 6f3c 222f 8ebd 88e0 65bd 0c34 dd3c
000001c0: 2c5f 533c f17f 213e a253 bebc eb2e 4bbc
000001d0: c56d c63d 891a 0cbe b6fb fa3d 9eff bebd
000001e0: ad5d 38ba 33b9 993c da48 b0bd a1f0 5b3d
000001f0: 6517 fd3d d939 9abd 5177 bbbd ca0f 28bd
00000200: def2 3cbe 9a51 8f3c 39ef aabd 7136 78bd
00000210: 0001 39be 9bae 453d 099a 8c3d de76 053e
00000220: e0d0 3c3d a1d1 4abd ff10 70bd 76b7 913d
00000230: 3c74 3b3d 4afd a93d 3221 9ebc 9319 33be
00000240: dadb 2abe e2a9 1c3d 340a c5bd c7f8 03be
00000250: 74ea 493e d3f8 e8bd c850 adbd 0f78 a83d
00000260: 4bbf 50bd 88f2 9dbd 4ce1 c9bd 8910 1a3e
00000270: 306d 543d 269c 123e 25c7 00be 405f cc3d
00000280: ff77 03be 053e 933d cfc5 26be 722b a03d
00000290: 6700 ac3d 4070 efbb d861 d03c 121b 64bd
000002a0: 9438 343e 8751 d2bd cf7e e8bb 75a4 36bd
000002b0: ff14 30be 554e b9bb 0604 85bd 5674 8c3c
000002c0: 6cf2 8c3d 9f75 16be 7460 5e3d 7cb3 ae3d
000002d0: ab23 35bd 26f6 bebd e56e 00be add0 47bb
000002e0: 182d 3d3d 628a c5bd 1b29 a13d 6c09 643d
000002f0: 1b1d 9abd b320 e2bc a911 bc3d 8838 083d
00000300: f8c4 e3bc 1845 7b3d 3e23 4abe 5469 c83c
00000310: 80bc fa3d 5954 343e 65f2 f23d 86dc a03d
00000320: 1367 ce3d 0584 acbd 6a1e 5abe e5fe 29be
00000330: 1129 dc3d b9b0 dd3d 750e 7cbd 9c4a d13c
00000340: 4c49 103e c1a9 3e3e 8321 453e 295f f43d
00000350: 3f85 a6bd c410 c5bd f96b 243e fa80 f53d
00000360: 42c2 bbbd 6890 1a3e a4f8 953d 9f57 9a3d
00000370: 99b5 fabd f422 013c 2373 62bd d8ce 173e
00000380: 540c acbd ed87 1c3e 7962 3e3c 4575 753d
00000390: 1874 a83c 19fc d03d fc24 80bd b630 733d
000003a0: b403 85bd 97b0 16be 7484 1ebe 4d5e 0b3e
000003b0: afd6 dc3d 0eeb d23d f417 d53d 3893 ecbd
000003c0: 81b4 a0bd d798 3fbd 0226 e8bd b4b6 f33d
000003d0: 2a18 57be 2a34 00be 5d14 ecbd ec53 03be
000003e0: b96b 1a3e dba5 ae3d c717 e03d c6e6 ad3d
000003f0: 9fc3 183e 1be9 41bd beb6 f93d b1b6 ec3d

in_layer0.layers.2.bias f4 [32]
-0.17108893 0.006283711 0.14900659 -0.13638096 -0.09969326 0.14468752 -0.00885739 0.06807369
-0.1746783 -0.0690263 -0.105186604 0.1375214 0.07535857 -0.12912211 0.1018337 0.014340735
-0.06906007 -0.109567046 -0.03772149 0.17309074 -0.08603707 -0.07518822 -0.10469274 0.013341558
0.06006299 0.06006008 -0.002535681 -0.19548956 0.014065862 -0.05866401 0.15641516 -0.20946616
00000000: f031 2fbe 97e7 cd3b 2f95 183e 73a7 0bbe
00000010: fb2b ccbd f728 143e 961e 11bc 386a 8b3d
00000020: dede 32be a95d 8dbd 136c d7bd 69d2 0c3e
00000030: 9855 9a3d 9638 04be 308e d03d 67f5 6a3c
00000040: 5e6f 8dbd b064 e0bd d981 1abd b33e 313e
00000050: 3434 b0bd 48fc 99bd 2669 d6bd 8d96 5a3c
00000060: 9c04 763d 8f01 763d ab2d 26bb 6a2e 48be
00000070: 8074 663c ac49 70bd 4c2b 203e 4c7e 56be

in_layer1.layers.0.weight f4 [32, 3]
-0.36826807 -0.4697265 -0.105514675 0.44991374 0.50607014 -0.50261533 -0.025014758 0.33888507
0.25449455 0.4729098 -0.016014636 -0.38791746 0.38193482 -0.19798183 0.29894394 -0.14228016
0.2454282 0.5192838 0.53685224 -0.52542627 -0.38190582 -0.23871517 -0.36817688 0.5539676
-0.05099088 -0.38297987 -0.25691476 -0.31890783 0.23555279 -0.5035944 -0.53832316 -0.56912947
0.24856323 0.28547353 -0.35858017 0.14317048 0.4261911 0.08388978 -0.12215668 0.042656004
-0.061907947 0.29069537 -0.39202738 0.29277575 0.32540822 -0.3498019 0.47144318 0.56706464
-0.22760805 -0.16171256 0.2877257 -0.452308 0.2283178 0.13469857 0.36392105 -0.50149035
-0.47965384 0.25930482 0.20796776 -0.53737813 -0.32196486 -0.5282631 -0.41362697 -0.26050022
0.4777795 -0.11492208 0.3316018 0.5482985 0.26311713 -0.51684994 0.29053575 0.22022134
0.44748425 -0.569518 0.35507965 0.47258508 -0.53714633 0.06040603 0.49286842 -0.41991156
0.18943977 0.255118 0.15131778 0.5740454 0.47272265 0.49534035 -0.07196486 0.48423088
-0.53804004 -0.31155515 -0.12348434 -0.17150581 0.5332954 0.27231604 0.3717056 0.3927191
00000000: a28d bcbe fe7f f0be 1418 d8bd 185b e63e
00000010: d08d 013f 66ab 00bf c0eb ccbc 5882 ad3e
00000020: 1c4d 823e 3c21 f23e 2031 83bc 1e9d c6be
00000030: f68c c33e c0bb 4abe 2e0f 993e e4b1 11be
00000040: 8851 7b3e c8ef 043f 266f 093f 5682 06bf
00000050: 2989 c3be c071 74be ae81 bcbe d2d0 0d3f
00000060: d0db 50bd f015 c4be 558a 83be e347 a3be
00000070: c034 713e 90eb 00bf 8ccf 09bf 78b2 11bf
00000080: 5c87 7e3e 9629 923e d297 b7be 489b 123e
00000090: b835 da3e 68ce ab3d 482d fabd 10b8 2e3d
000000a0: 3093 7dbd 06d6 943e d0b7 c8be b4e6 953e
000000b0: e89b a63e 3c19 b3be 0061 f13e 262b 113f
000000c0: 1612 69be fa97 25be c850 933e ea94 e7be
000000d0: 24cc 693e 6cee 093e dc53 ba3e ac61 00bf
000000e0: 3095 f5be 9ac3 843e 80f5 543e 9d91 09bf
000000f0: 94d8 a4be 403c 07bf eac6 d3be 4960 85be
00000100: 849f f43e 445c ebbd b6c7 a93e 4a5d 0c3f
00000110: 4ab7 863e 4750 04bf 1ac1 943e b481 613e
00000120: a81c e53e efcb 11bf 00cd b53e acf6 f13e
00000130: 6c82 09bf 506c 773d 4059 fc3e a6fe d6be
00000140: 80fc 413e d49e 823e 0cf3 1a3e a4f4 123f
00000150: b408 f23e 409d fd3e 5062 93bd 1ced f73e
00000160: febc 09bf 2884 9fbe 5ce5 fcbd 389f 2fbe
00000170: 0c86 083f 026d 8b3e 3250 be3e 7a12 c93e

in_layer1.layers.0.bias f4 [32]
-0.4312827 -0.06686926 0.08430731 0.15016448 0.29689234 -0.22973159 -0.17409098 0.48309278
-0.15495178 -0.40105134 0.39146644 0.39095592 -0.18103793 -0.11542389 -0.4260152 -0.48214158
0.2171123 -0.24663973 0.45962596 -0.46229196 -0.07980427 0.012466013 0.29672748 0.46726727
0.39098418 0.2541473 -0.2650002 -0.41231334 -0.51650494 0.028639257 0.5599606 -0.10966334
00000000: 16d1 dcbe c0f2 88bd 50a9 ac3d b8c4 193e
00000010: 4602 983e c23e 6bbe e844 32be f057 f73e
00000020: aeab 1ebe 9a56 cdbe 4a6e c83e 602b c83e
00000030: 0262 39be 5c63 ecbd aa1e dabe 43db f6be
00000040: b052 5e3e 208f 7cbe 1854 eb3e 88b1 ecbe
00000050: 6c70 a3bd 403e 4c3c aaec 973e a83d ef3e
00000060: 142f c83e 981f 823e 1bae 87be bc1a d3be
00000070: ab39 04bf e09c ea3c 9459 0f3f 2c97 e0bd

in_layer1.layers.2.weight f4 [32, 32]
-0.007442042 -0.12846255 0.05427216 0.112073496 -0.17428695 -0.124472395 0.13093986 0.041854456
-0.011021331 0.031600296 -0.026877463 -0.12356071 -0.16518542 0.11626743 -0.021025226 -0.06565261
-0.04562874 -0.09641808 -0.052358314 -0.15174766 0.1322897 0.07218543 -0.08915228 -0.060336225
0.079308644 -0.06546137 0.0466149 0.048673958 -0.11127973 0.044282824 0.010815933 0.15439393
-0.06396134 -0.04544373 0.15231092 -0.14435627 0.012771845 0.17032476 -0.079261005 0.16947268
0.15686114 0.16446237 -0.016868576 0.15991808 -0.077025026 -0.06051158 0.0668627 0.037343577
0.097452685 0.1679943 -0.11066028 0.09382011 0.059143215 0.09326173 0.08382262 -0.066126846
-0.13971652 0.14148937 -0.100804366 0.11301814 -0.16840518 -0.030582786 0.0018736422 0.03058654
0.014289215 0.055703446 -0.019683123 0.043293387 0.17493545 -0.11438372 -0.009651437 -0.06747974
0.1551091 0.1513279 -0.0048205703 -0.061276563 -0.109224334 0.12649073 -0.012173489 0.16648997
0.10080902 0.15473343 0.13981687 -0.11487697 0.051742926 -0.07330203 0.08869828 -0.015893951
0.015303537 -0.12226032 -0.15798986 0.06656933 0.041080326 0.015355319 0.12006576 -0.073817424
0.062752336 -0.09736181 0.036628112 -0.040357858 0.123801425 0.15458812 0.15353476 0.007952169
0.10424398 -0.17662437 -0.10369619 0.031594098 0.0009858757 -0.13878259 -0.07824341 -0.08256429
-0.17514364 0.016859323 0.12050761 0.071747184 -0.08399243 -0.16232789 -0.14261937 0.0032790601
0.12160705 -0.07158971 -0.09619215 -0.09430267 -0.015303329 -0.16787681 -0.15599562 0.17401733
-0.08430765 -0.03188409 -0.04729709 -0.15529943 -0.031164512 0.054114297 -0.071781516 -0.007534191
-0.0008456111 -0.17598206 0.12846653 0.1427954 0.12052731 -0.058053173 0.09237699 -0.16562605
-0.043732196 -0.035953596 -0.06242863 0.07424621 -0.08054969 -0.020489097 -0.051044866 -0.16600798
-0.029193014 -0.14981404 0.103079215 0.09448059 0.165603 -0.059362106 0.008989483 0.034628898
0.17646177 0.1620359 -0.09148892 -0.15041976 -0.15932676 -0.08512854 0.14863147 0.059370384
0.17056356 0.13103057 0.0025628507 -0.109561846 0.17262255 0.14180519 0.07653423 -0.09656665
0.13926102 0.016089499 0.11689074 0.0737807 0.09386991 -0.1551173 -0.09801935 0.10602562
-0.03682892 -0.15379214 0.1607606 -0.003822893 0.1426029 -0.13817164 0.060863122 -0.06658625
-0.074390344 -0.03687027 -0.065433174 0.09686659 -0.03358741 0.13403521 0.04033746 -0.027314693
-0.10210611 -0.16186965 -0.0515697 -0.1637008 -0.03275153 0.0028892905 -0.011392161 -0.0868357
0.12269427 0.09955706 -0.043553725 -0.069845505 0.11113776 0.15380003 -0.16186355 -0.03819424
-0.016405255 -0.06400393 0.15091588 -0.02611193 0.14987986 0.0008739084 -0.019175187 -0.103114136
-0.05877938 0.056962684 0.07819496 -0.0062897354 0.16844042 -0.12235296 0.06777856 0.15921848
-0.030738354 0.14034463 0.0029140562 -0.13237831 -0.09698259 0.06579903 -0.076499924 0.042516753
0.1739934 0.06004758 -0.016544491 0.044186205 -0.10184879 -0.14853716 -0.13288297 -0.14833376
0.036278024 0.034433126 -0.075124435 -0.17291422 0.09576078 -0.10030474 -0.029512465 -0.14822406
00000000: 60dc f3bb b08b 03be 7c4c 5e3d ca86 e53d
00000010: 4778 32be 62eb febd 1915 063e 946f 2b3d
00000020: d092 34bc 506f 013d 202e dcbc 660d fdbd
00000030: 5e26 29be 9e1d ee3d 183d acbc e074 86bd
00000040: 34e5 3abd d876 c5bd ac75 56bd bd63 1bbe
00000050: f376 073e f4d5 933d 7895 b6bd 1e23 77bd
00000060: 926c a23d 9c10 86bd 44ef 3e3d 585e 473d
00000070: a1e6 e3bd e861 353d 5035 313c 7119 1e3e
00000080: 2afe 82bd 3423 3abd 65f7 1b3e 21d2 13be
00000090: 0041 513c 9d69 2e3e 9853 a2bd 3f8a 2d3e
000000a0: 35a0 203e d368 283e f82f 8abc 91c1 233e
000000b0: 4cbf 9dbd feda 77bd 50ef 883d 94f5 183d
000000c0: 4695 c73d b306 2c3e dba1 e2bd c224 c03d
000000d0: 2840 723d 0200 bf3d 32ab ab3d 836d 87bd
000000e0: d911 0fbe 97e2 103e 8572 cebd 0e76 e73d
000000f0: 6872 2cbe c088 fabc 0095 f53a a090 fa3c
00000100: 501d 6a3c 4c29 643d 803e a1bc 6854 313d
00000110: 4722 333e 0342 eabd 1021 1ebc d132 8abd
00000120: ebd4 1e3e b3f5 1a3e e0f5 9dbb 22fd 7abd
00000130: 02b1 dfbd c986 013e 5073 47bc 597c 2a3e
00000140: f674 ce3d 7172 1e3e 272c 0f3e 9e44 ebbd
00000150: 64f0 533d 601f 96bd 72a7 b53d 0834 82bc
00000160: b0bb 7a3c 9e63 fabd 18c8 21be 8055 883d
00000170: d843 283d e094 7b3c 0ae5 f53d 972d 97bd
00000180: 4c84 803d a165 c7bd 5c07 163d 484e 25bd
00000190: 9a8b fd3d 594c 1e3e 3738 1d3e d049 023c
000001a0: de7d d53d 05dd 34be ab5e d4bd d068 013d
000001b0: 8038 813a 061d 0ebe 153e a0bd 7717 a9bd
000001c0: db58 33be 901c 8a3c b2cc f63d 30f0 923d
000001d0: 3904 acbd 4839 26be d00a 12be 80e5 563b
000001e0: 1e0d f93d a09d 92bd 6400 c5bd c221 c1bd
000001f0: d0ba 7abc e6e7 2bbe 51bd 1fbe 9931 323e
00000200: 7da9 acbd e498 02bd 98ba 41bd d006 1fbe
00000210: b84c ffbc f4a6 5d3d 3002 93bd 60e1 f6bb
00000220: 00ac 5dba a434 34be bb8c 033e f538 123e
00000230: 06d7 f63d 2ac9 6dbd 2630 bd3d e099 29be
00000240: 8820 33bd 1444 13bd 2ab5 7fbd 660e 983d
00000250: 3cf7 a4bd c0d8 a7bc 6c14 51bd fffd 29be
00000260: 3026 efbc da68 19be 321b d33d 0a7f c13d
00000270: d593 293e ae25 73bd a048 133c 08d7 0d3d
00000280: 65b2 343e bdec 253e 8b5e bbbd a307 1abe
00000290: 8e26 23be df57 aebd d932 183e 5c2e 733d
000002a0: 37a8 2e3e e12c 063e 80f5 273b f661 e0bd
000002b0: f7c3 303e 6135 113e fabd 9c3d bcc4 c5bd
000002c0: 719a 0e3e 20ce 833c 6a64 ef3d 561a 973d
000002d0: de3e c03d 12d7 1ebe 5ebe c8bd f623 d93d
000002e0: ecd9 16bd b07b 1dbe 6d9e 243e 8089 7abb
000002f0: 7f06 123e de7c 0dbe 9c4b 793d 5f5e 88bd
00000300: f759 98bd 4805 17bd d401 86bd fe61 c63d
00000310: f492 09bd 8740 093e e438 253d 10c3 dfbc
00000320: 021d d1bd 28c1 25be c03a 53bd 2fa1 27be
00000330: 7826 06bd 405a 3d3b 30a6 3abc ead6 b1bd
00000340: 2247 fb3d 92e4 cb3d 6465 32bd 290b 8fbd
00000350: 329c e33d c17d 1d3e 8fbf 25be 9071 1cbd
00000360: 5064 86bc 7e14 83bd b189 1a3e b0e8 d5bc
00000370: 1b7a 193e 0017 653a 4815 9dbc 812d d3bd
00000380: a6c2 70bd b451 693d ae24 a03d 201a cebb
00000390: a57b 2c3e 3094 fabd 7ccf 8a3d 2b0a 233e
000003a0: 00cf fbbc 81b6 0f3e c0f9 3e3b 2e8e 07be
000003b0: cf9e c6bd a4c1 863d feab 9cbd 0c26 2e3d
000003c0: 532b 323e 74f4 753d 5088 87bc 98fc 343d
000003d0: 1996 d0bd 201a 18be 7912 08be cee4 17be
000003e0: 4498 143d c009 0d3d d7da 99bd 6d10 31be
000003f0: 3a1e c43d 926c cdbd 20c4 f1bc 0cc8 17be

in_layer1.layers.2.bias f4 [32]
-0.012569666 0.17159115 -0.03372237 -0.11535156 0.029462993 -0.049782276 -0.024234205 0.17128776
-0.0050721616 0.15442182 0.02360773 -0.065764785 0.12960549 -0.1006971 0.005848989 0.03973481
0.07934342 -0.1631047 0.00867191 -0.045770973 0.11461605 0.059475437 0.070851564 0.106288716
-0.039576948 -0.011326 0.14181973 -0.14248009 -0.12219153 0.012932107 -0.07002612 0.010124177
00000000: 00f1 4dbc 97b5 2f3e 7820 0abd 703d ecbd
00000010: 605c f13c 80e8 4bbd d086 c6bc 0f66 2f3e
00000020: 6034 a6bb c120 1e3e 0065 c13c b0af 86bd
00000030: 4db7 043e 483a cebd e0a8 bf3b f8c0 223d
00000040: ce7e a23d eb04 27be a014 0e3c 587a 3bbd
00000050: d2bb ea3d 849c 733d a01a 913d e6ad d93d
00000060: 701b 22bd b090 39bc 3139 113e 4de6 11be
00000070: 8e3f fabd 30e1 533c db69 8fbd e0df 253c

in_layer2.layers.0.weight f4 [32, 3]
0.5128063 -0.1840546 -0.4888927 -0.289792 0.5988029 -0.23863193 -0.26211897 0.354392
-0.018809242 -0.50878483 0.57015806 0.19455564 0.5210948 0.2111679 -0.21170911 -0.20747183
0.3532974 -0.20675652 0.22820924 -0.46403736 -0.33190712 0.22727574 0.11076413 -0.31267363
-0.30611214 0.4914448 -0.4208322 -0.81917083 0.466247 0.33553386 -0.37002578 -0.58588994
0.66181713 -0.024328234 -0.46115217 0.39553663 -0.12448554 0.07047591 -0.34757522 -0.45596364
-0.4305711 0.11883066 -0.34347978 0.75030166 -0.23765492 -0.20997508 0.3747419 -0.8044838
-0.22442116 0.43567234 -0.6167622 0.26535052 -0.022591608 -0.49536917 -0.80031693 0.31682807
0.32295045 -0.017861387 -0.10091686 -0.26761967 0.077414334 0.098046355 0.18969984 0.07490943
-0.10649328 0.37714824 0.42000934 0.26930302 0.4940542 -0.1503791 -0.063428015 0.06217581
0.14818892 0.3134797 -0.13730109 -0.36225876 -0.61783797 0.69325936 -0.104517624 0.2753802
-0.4599344 -0.31789663 0.11771719 0.19898197 -0.28833812 -0.34147432 0.5061134 -0.30866647
-0.3712802 0.013270737 0.4684994 0.018058656 -0.0011869478 -0.09704423 0.40995866 -0.44451192
00000000: 4647 033f cf78 3cbe 2550 fabe 9e5f 94be
00000010: 264b 193f ee5b 74be 7534 86be de72 b53e
00000020: d715 9abc b93f 02bf e1f5 113f 9839 473e
00000030: 7866 053f 663c 583e 46ca 58be 7f73 54be
00000040: 66e3 b43e fbb7 53be afaf 693e 4e96 edbe
00000050: bbef a9be f9ba 683e 4ed8 e23d c216 a0be
00000060: bbba 9cbe a79e fb3e 5177 d7be 2eb5 51bf
00000070: edb7 ee3e 18cb ab3e 0574 bdbe e2fc 15bf
00000080: d96c 293f 014c c7bc 231c ecbe c783 ca3e
00000090: 46f2 febd ad55 903d 61f5 b1be 1174 e9be
000000a0: d173 dcbe 7d5d f33d 95dc afbe c513 403f
000000b0: d05b 73be b503 57be 2cde bf3e a6f2 4dbf
000000c0: a9ce 65be 7210 df3e 21e4 1dbf 06dc 873e
000000d0: 0912 b9bc 07a1 fdbe 92e1 4cbf 4a37 a23e
000000e0: c359 a53e 0b52 92bc 80ad cebd 7205 89be
000000f0: 688b 9e3d 87cc c83d ad40 423e 1e6a 993d
00000100: 2619 dabd 9319 c13e 770b d73e 16e2 893e
00000110: acf4 fc3e fbfc 19be 8ce6 81bd 10ac 7e3d
00000120: d6be 173e 6980 a03e a898 0cbe fb79 b9be
00000130: a12a 1ebf 7279 313f 560d d6bd a2fe 8c3e
00000140: 867c ebbe 59c3 a2be b615 f13d eec1 4b3e
00000150: 0ea1 93be b9d5 aebe a690 013f 8809 9ebe
00000160: 7018 bebe 816d 593c 27df ef3e bfef 933c
00000170: 5c93 9bba 20bf c6bd 1ae6 d13e 1197 e3be

in_layer2.layers.0.bias f4 [32]
0.33241183 0.14057133 0.08022681 0.105190724 -0.32853982 0.43560565 0.35047305 -0.39780748
-0.38916197 -0.24307474 0.4152948 -0.26522958 0.51371706 -0.27297541 -0.3958451 0.29860514
-0.23071246 -0.13370115 -0.13882184 0.028957237 -0.41780332 -0.489684 0.12050127 0.04111257
-0.32670665 0.05951325 -0.4214276 0.10785311 0.25524572 0.58896947 -0.51867163 -0.06853361
00000000: e231 aa3e eef1 0f3e f44d a43d 3c6e d73d
00000010: 5f36 a8be b407 df3e 3471 b33e 6cad cbbe
00000020: 3d40 c7be 96e8 78be 85a1 d43e 2ccc 87be
00000030: f682 033f 6fc3 8bbe 35ac cabe c6e2 983e
00000040: e33f 6cbe f4e8 08be 5027 0ebe ba37 ed3c
00000050: 51ea d5be dcb7 fabe 5fc9 f63d a765 283d
00000060: 1846 a7be 2ac4 733d 5cc5 d7be 17e2 dc3d
00000070: 91af 823e b4c6 163f aac7 04bf 595b 8cbd

in_layer2.layers.2.weight f4 [32, 32]
-0.034545124 0.16422503 -0.117810324 0.06407342 -0.04108937 0.05248473 -0.20546858 0.09147604
-0.050387394 -0.19816267 0.17364655 0.31713173 -0.16468175 0.08729126 -0.009020236 0.15513502
0.22887427 -0.017338894 -0.21342352 -0.014611705 0.0524882 -0.024798784 -0.015706751 -0.031616
-0.10003783 0.2514319 -0.0632393 -0.06746172 0.19149676 -0.059224084 0.030423773 -0.07615437
-0.0045968518 0.06758417 0.08620929 -0.09145788 0.018744873 0.084252894 0.101722226 -0.16421732
-0.02836256 0.10378344 -0.09568533 -0.1285413 -0.13264334 -0.13655882 -0.04588561 -0.069427386
-0.09327508 -0.17065464 0.0028475858 0.08122773 -0.064896405 0.010670001 0.005755065 0.062402125
-0.10367503 -0.12601177 0.13682927 0.0851129 -0.24414279 -0.03521557 -0.0057932525 -0.03570178
-0.22489065 -0.17867826 0.08501199 -0.02754976 -0.11940958 -0.013282866 -0.17938925 -0.019661123
0.050203323 -0.12465227 0.15341358 0.09404801 0.0077013467 0.07053215 -0.02613273 -0.029082106
-0.13196614 -0.0025460294 0.10050074 -0.07528048 -0.08168495 0.20961416 -0.02547308 0.046172623
-0.11447964 0.23972665 0.15062805 0.16292146 0.047004927 0.19025989 0.010310836 -0.026587613
-0.095169164 -0.042136755 -0.12590449 0.115546376 0.19174993 0.10677029 0.059995018 -0.022502357
0.13089421 -0.021492712 -0.07450529 -0.09277364 -0.011453499 -0.044081237 0.100190245 -0.10574645
-0.01915514 -0.112762265 -0.09555372 -0.026316958 -0.12219199 0.030575182 -0.10120514 -0.12547372
-0.030421877 -0.20821644 0.06549787 0.059907574 -0.09077284 0.010184406 0.10693329 0.031087367
-0.008148961 -0.11033833 0.12649427 -0.15896368 0.0024314907 0.048040316 -0.050877243 -0.036231935
-0.1401704 -0.0138176065 0.010293206 0.11459387 0.01424494 0.11123619 0.008295024 0.017370552
-0.04546139 0.02136832 -0.02780412 -0.020491598 -0.01985471 0.06557877 0.026352754 0.014558627
0.14255892 0.08849444 0.053350378 0.0405666 0.16752708 -0.19774152 0.07505289 0.05993434
-0.06748163 -0.099651106 0.05897338 0.102507465 -0.14542359 0.052586284 0.044598185 0.028918885
-0.027139863 0.046192203 0.07030403 0.009005463 -0.015985679 0.042076014 -0.036079746 -0.020893734
0.014336293 0.031927157 -0.10980374 0.029047852 0.048531175 0.038254574 -0.027689476 0.09150274
-0.10050603 0.020343108 -0.03431184 0.10347911 -0.08868408 0.025430823 -0.14509419 -0.020337714
0.22135724 -0.18252493 0.016166756 -0.14744695 0.03762663 -0.0045682634 0.23153116 -0.0078711165
-0.07241708 -0.14498831 -0.16504855 -0.18283133 0.06569373 -0.048949342 -0.17878309 -0.38744962
-0.37853754 0.028904099 -0.06924278 0.075743556 0.021029541 -0.06349585 -0.007344672 -0.19372405
-0.13431825 -0.31310248 -0.2569327 -0.32870996 -0.27371657 -0.26087376 0.07889642 -0.29176602
-0.05474618 0.12021113 -0.026078952 0.14746238 0.013537827 -0.02930908 -0.037974603 -0.13678494
-0.13713907 0.22034205 -0.15882903 -0.25012404 0.12140922 -0.0021267417 -0.14287326 -0.25889054
-0.22322048 -0.15394503 0.21916454 0.10002839 0.020183109 -0.1478333 -0.03209562 -0.15273935
0.02802215 -0.20937051 -0.06354776 -0.04301589 0.0019440126 0.056231756 0.06784352 -0.10631913
00000000: 307f 0dbd 9b2a 283e 8a46 f1bd ed38 833d
00000010: 544d 28bd 3afa 563d 5b66 52be ca57 bb3d
00000020: 0363 4ebd 28eb 4abe 67d0 313e 175f a23e
00000030: 55a2 28be c3c5 b23d 9dc9 13bc b7db 1e3e
00000040: 045e 6a3e 4c0a 8ebc b28b 5abe ef65 6fbc
00000050: defd 563d d226 cbbc 72ab 80bc c77f 01bd
00000060: a2e0 ccbd afbb 803e 9b83 81bd 5f29 8abd
00000070: ba17 443e f494 72bd 473b f93c d3f6 9bbd
00000080: 30a1 96bb 9269 8a3d 7f8e b03d 454e bbbd
00000090: d98e 993c c88c ac3d be53 d03d 9628 28be
000000a0: 9958 e8bc 6a8c d43d acf6 c3bd 55a0 03be
000000b0: a8d3 07be 13d6 0bbe 8df2 3bbd f22f 8ebd
000000c0: 0107 bfbd 17c0 2ebe 909e 3a3b b95a a63d
000000d0: 68e8 84bd 3ad1 2e3c fc94 bc3b 5f99 7f3d
000000e0: 9353 d4bd 3b09 01be f91c 0c3e ac4f ae3d
000000f0: 9100 7abe 343e 10bd 53d5 bdbb 083c 12bd
00000100: bc49 66be 6ff7 36be c41a ae3d 09b0 e1bc
00000110: 038d f4bd 61a0 59bc d1b1 37be 5d10 a1bc
00000120: 00a2 4d3d b049 ffbd 7318 1d3e 3e9c c03d
00000130: 945b fc3b 2973 903d 4f14 d6bc 993d eebc
00000140: 2222 07be 49db 26bb 55d3 cd3d a72c 9abd
00000150: 704a a7bd 18a5 563e ecac d0bc 811f 3d3d
00000160: 4d74 eabd e77a 753e 3d3e 1a3e e2d4 263e
00000170: 3d88 403d 7dd3 423e c8ee 283c 44ce d9bc
00000180: 0de8 c2bd 9797 2cbd 1bed 00be 94a3 ec3d
00000190: 185a 443e 62aa da3d 56bd 753d dd56 b8bc
000001a0: 2209 063e 7c11 b0bc 3b96 98bd 1b00 bebd
000001b0: 75a7 3bbc 878e 34bd 8b30 cd3d 9891 d8bd
000001c0: 3deb 9cbc e7ef e6bd abb1 c3bd a996 d7bc
000001d0: cb3f fabd ce78 fa3c a444 cfbd 2f7c 00be
000001e0: 4d37 f9bc b136 55be bf23 863d a561 753d
000001f0: 1ce7 b9bd 7fdc 263c d7ff da3d efaa fe3c
00000200: 3883 05bc 10f9 e1bd b787 013e 60c7 22be
00000210: a559 1f3b ecc5 443d a864 50bd f067 14bd
00000220: d488 0fbe 3e63 62bc d6a4 283c 31b0 ea3d
00000230: 9c63 693c cdcf e33d dae7 073c b04c 8e3c
00000240: b935 3abd 9d0c af3c 77c5 e3bc ffdd a7bc
00000250: 58a6 a2bc 2a4e 863d bbe1 d73c 4f87 6e3c
00000260: f7fa 113e 933c b53d ed85 5a3d 2a29 263d
00000270: 388c 2b3e c17c 4abe 54b5 993d b67d 753d
00000280: cf33 8abd e115 ccbd 128e 713d 6fef d13d
00000290: ece9 14be b764 573d 96ac 363d 4ce7 ec3c
000002a0: 6b54 debc 0934 3d3d 8ffb 8f3d a68b 133c
000002b0: 66f4 82bc e657 2c3d 5bc8 13bd 5629 abbc
000002c0: c5e2 6a3c 0dc6 023d c9e0 e0bd c3f5 ed3c
000002d0: a0c8 463d d4b0 1c3d 0ad5 e2bc ca65 bb3d
000002e0: 1bd6 cdbd 97a6 a63c 928a 0cbd dbec d33d
000002f0: 00a0 b5bd 4d54 d03c 9293 14be 479b a6bc
00000300: 79ab 623e d1e7 3abe 2570 843c 55fc 16be
00000310: 621e 1a3d 5fb1 95bb 8116 6d3e dbf5 00bc
00000320: 684f 94bd d177 14be 7d02 29be 2338 3bbe
00000330: 6f8a 863d 1b7f 48bd ea12 37be cc5f c6be
00000340: accf c1be 4ac8 ec3c 29cf 8dbd 701f 9b3d
00000350: 2546 ac3c 1d0a 82bd 93ab f0bb 995f 46be
00000360: b98a 09be f84e a0be af8c 83be ac4c a8be
00000370: 9424 8cbe 3f91 85be 7294 a13d 5b62 95be
00000380: 883d 60bd 4131 f63d 87a3 d5bc 6100 173e
00000390: c3cd 5d3c 9919 f0bc 428b 1bbd 5a11 0cbe
000003a0: 2f6e 0cbe 59a1 613e 14a4 22be 4210 80be
000003b0: 66a5 f83d ce60 0bbb 5e4d 12be 4d8d 84be
000003c0: e993 64be c4a3 1dbe ab6c 603e afdb cc3d
000003d0: 0c57 a53c 9d61 17be b276 03bd b467 1cbe
000003e0: b58e e53c 3965 56be 5425 82bd 6e31 30bd
000003f0: 3dce fe3a 4553 663d 8bf1 8a3d d8bd d9bd

in_layer2.layers.2.bias f4 [32]
0.12221218 0.08451178 -0.12264874 -0.013345968 -0.034582444 0.03660878 0.06423165 0.14604321
0.051117852 -0.0728685 0.045766484 -0.14189808 -0.019518156 0.092058346 0.0117743425 -0.15206061
-0.15243642 0.062391948 -0.1416153 -0.15059769 -0.11262114 0.11584202 -0.06711337 -0.06513305
-0.1734338 0.093585126 -0.08001323 0.0534354 0.06985259 0.023159893 0.11413354 0.08771233
00000000: 614a fa3d 8314 ad3d 432f fbbd 0ca9 5abc
00000010: 52a6 0dbd 17f3 153d e28b 833d 5a8c 153e
00000020: f460 513d 153c 95bd a375 3b3d bb4d 11be
00000030: 8ae4 9fbc 1689 bc3d 2ce9 403c c7b5 1bbe
00000040: 4b18 1cbe b38e 7f3d 9a03 11be 4836 1abe
00000050: eaa5 e6bd 953e ed3d bc72 89bd 7a64 85bd
00000060: a198 31be 8fa9 bf3d fadd a3bd 14df 5a3d
00000070: e00e 8f3d d1b9 bd3c d8be e93d 86a2 b33d

sat_layers.layer0_1.0.agg_weight f4 [3]
-1.1485704 -1.94503e-40 0.3699002
00000000: 5b04 93bf 321e 0280 8f63 bd3e

sat_layers.layer0_1.0.input_linear_layer1.weight f4 [32, 32]
-0.10638081 0.16857651 0.05400842 -0.04066246 -0.16972315 0.062133856 -0.01466443 -0.10746255
-0.056545924 -0.17397982 -0.1626144 0.30141017 0.05945572 -0.019935368 0.01964505 -0.16804267
0.06699072 -0.11777554 0.184294 0.18670718 0.15605481 0.44989386 -0.1910334 0.06426689
0.50106853 0.18102598 0.39278245 -0.15118727 0.04098198 0.28608364 0.06901425 -0.15593757
-0.24937592 0.079424605 0.14806393 -0.04129209 -0.20070904 0.07774977 0.13802877 -0.037716202
-0.008031175 -0.02079813 -0.09704435 0.13633023 -0.0033842474 -0.07323636 -0.12990679 -0.15080912
0.0012482492 -0.005025012 0.21820003 0.26525912 0.29607478 0.41640618 0.06404035 0.21836664
0.29605314 0.287623 0.30031905 -0.2967137 0.21956317 0.19299823 0.049341056 -0.10053384
-0.14584476 0.19880605 0.057885636 -0.017479597 -0.09994272 0.02609259 0.01960299 -0.03643301
0.036846418 -0.054659218 -0.088987306 0.05580271 0.0042142537 -0.026662622 -0.037628625 -0.048995174
0.14892003 0.041631605 0.19848453 -0.01958022 0.10202105 0.2031841 -0.08838109 0.049774747
0.25638986 0.15179843 0.19200753 -0.072015084 0.21968222 0.08126233 0.10565999 -0.07421528
0.04902716 -0.015462181 0.006901974 0.007553125 0.019198783 -0.005511803 -0.11529465 0.0003355979
0.021845844 0.0031361242 0.013846109 -0.017413778 -0.0022971567 0.0020352004 -0.061003625 0.049965438
-0.05942925 0.008556173 -0.08000741 -0.008811393 -0.056687415 -0.04118642 0.070684075 -0.0119356215
-0.08978829 -0.031674124 -0.1115715 0.05140479 -0.04645382 -0.015317393 0.026386404 0.01362057
-0.0811297 0.10180745 0.08609654 -0.037001915 -0.1482678 0.059186727 0.15362063 0.021649463
-0.032835342 -0.018494047 -0.09977969 0.05244424 0.03223253 -0.0972243 -0.15515119 0.07720214
0.11133052 -0.0665054 0.12810925 -0.026170155 0.22305506 0.25773683 -0.1343651 0.08331017
0.4404776 0.2135876 0.3453956 -0.07566657 0.05695511 0.22302553 0.07909917 0.038632095
-0.04468228 0.06068854 0.13090415 -0.015699385 -0.20816852 0.08942141 -0.05209295 -0.03617463
0.06815536 0.11459442 -0.08018459 0.112139426 -0.015974114 -0.1495089 -0.0582868 -0.023095297
0.1847925 0.03498741 0.3985708 0.25947347 0.16689022 0.3245296 -0.06796425 0.17671226
0.4008805 0.30251625 0.39007992 -0.2349095 0.23690443 0.20868099 0.18049753 -0.033337474
-0.1696144 0.12388693 0.14466368 -0.041449558 -0.17080648 0.054680403 0.20471166 0.010353433
-0.096061684 0.045074437 -0.12276376 0.20349437 0.04480778 -0.07081562 0.015302761 -0.046551127
0.09293077 0.06632461 0.3190931 0.19312812 0.27018622 0.2842225 -0.102408946 0.13187751
0.46616003 0.18747701 0.2000147 -0.23350172 0.051275678 0.12810203 0.2288031 -0.0841706
-0.24800365 0.15850534 0.10460258 -0.035193995 -0.21299283 0.07931102 0.067733094 0.050031386
-0.1552621 -0.10945249 -0.11748483 0.08152675 0.049075842 0.006766921 0.14195319 -0.16173235
0.23262726 0.10620507 0.21715876 0.14539538 0.23741582 0.38559026 -0.21142973 0.22778246
0.33228257 0.28122324 0.2009061 -0.28987676 0.071568675 0.22006547 0.038053963 -0.0120085515
00000000: 2fde d9bd 529f 2c3e ef37 5d3d ae8d 26bd
00000010: e8cb 2dbe 1280 7e3d 1443 70bc 5315 dcbd
00000020: b39c 67bd c427 32be 6484 26be 6f52 9a3e
00000030: d787 733d 7f4f a3bc a8ee a03c 6113 2cbe
00000040: 6e32 893d 4d34 f1bd 91b7 3c3e 2b30 3f3e
00000050: d5cc 1f3e 7d58 e63e 429e 43be 5c9e 833d
00000060: 0746 003f e05e 393e c81a c93e d6d0 1abe
00000070: b8dc 273d 8e79 923e 5857 8d3d 19ae 1fbe
00000080: 675c 7fbe 5ea9 a23d 129e 173e e521 29bd
00000090: ac86 4dbe 453b 9f3d 6a57 0d3e 4e7c 1abd
000000a0: 3095 03bc d760 aabc 30bf c6bd 279a 0b3e
000000b0: 40ca 5dbb f2fc 95bd 4906 05be b56d 1abe
000000c0: 4b9c a33a dba8 a4bb d46f 5f3e 0bd0 873e
000000d0: 1d97 973e 3133 d53e 9627 833d 819b 5f3e
000000e0: 4794 973e 5243 933e 6bc3 993e dcea 97be
000000f0: 2bd5 603e 54a1 453e d919 4a3d b0e4 cdbd
00000100: 5458 15be d093 4b3e 7d19 6d3d 5f31 8fbc
00000110: c5ae ccbd 21c0 d53c 7396 a03c c83a 15bd
00000120: 45ec 163d 58e2 5fbd fa3e b6bd 6291 643d
00000130: b917 8a3b 926b dabc 7920 1abd 2aaf 48bd
00000140: 7e7e 183e e785 2a3d 873f 4b3e b366 a0bc
00000150: 6af0 d03d 7e0f 503e 2501 b5bd 9be0 4b3d
00000160: 8845 833e 0c71 1b3e 9f9d 443e a57c 93bd
00000170: 60f4 603e dd6c a63d 4464 d83d 2efe 97bd
00000180: b4d0 483d 1655 7dbc f429 e23b 3480 f73b
00000190: c446 9d3c 5b9c b4bb 9a1f ecbd 30f3 af39
000001a0: 0ef6 b23c 6f87 4d3b cada 623c 57a7 8ebc
000001b0: e58b 16bb ff60 053b f0de 79bd 8fa8 4c3d
000001c0: 166c 73bd 312f 0c3c edda a3bd a95d 10bc
000001d0: 1031 68bd 17b3 28bd d0c2 903d a08d 43bc
000001e0: ece2 b7bd babc 01bd 997f e4bd d48d 523d
000001f0: 5c46 3ebd cdf5 7abc 4d28 d83c d028 5f3c
00000200: 5427 a6bd 6d80 d03d 6253 b03d 528f 17bd
00000210: 84d3 17be c86d 723d ba4e 1d3e 375a b13c
00000220: 5a7e 06bd d480 97bc 4b59 ccbd c5cf 563d
00000230: 4206 043d 891d c7bd f4df 1ebe 281c 9e3d
00000240: 4101 e43d fc33 88bd 122f 033e cb62 d6bc
00000250: 8c68 643e 15f6 833e 0197 09be 869e aa3d
00000260: 4886 e13e b5b6 5a3e b1d7 b03e 13f7 9abd
00000270: c349 693d ce60 643e bffe a13d b03c 1e3d
00000280: c404 37bd 8c94 783d bd0b 063e ff9b 80bc
00000290: 212a 55be 9222 b73d 6b5f 55bd d92b 14bd
000002a0: 0a95 8b3d 7bb0 ea3d d137 a4bd 5ba9 e53d
000002b0: 25dc 82bc dc18 19be 24be 6ebd 5932 bdbc
000002c0: 3f3a 3d3e f54e 0f3d 7911 cc3e b5d9 843e
000002d0: 45e5 2a3e be28 a63e d730 8bbd 0ff4 343e
000002e0: 3540 cd3e 69e3 9a3e 8eb8 c73e 1e8c 70be
000002f0: 1397 723e 78b0 553e 58d4 383e e08c 08bd
00000300: 66af 2dbe 6eb8 fd3d b722 143e 03c7 29bd
00000310: e5e7 2ebe 8ff8 5f3d ef9f 513e 72a1 293c
00000320: fdbb c4bd f99f 383d 916b fbbd d460 503e
00000330: 5d88 373d c807 91bd 6fb8 7a3c 65ac 3ebd
00000340: 7d52 be3d 32d5 873d 2c60 a33e 61c3 453e
00000350: d955 8a3e 9d85 913e c8bb d1bd e60a 073e
00000360: 87ac ee3e f9f9 3f3e a7d0 4c3e 131b 6fbe
00000370: 7206 523d 2e2d 033e 5c4b 6a3e a361 acbd
00000380: abf4 7dbe 394f 223e e139 d63d 9427 10bd
00000390: cb1a 5abe d16d a23d a6b7 8a3d b6ed 4c3d
000003a0: 07fd 1ebe a128 e0bd e39b f0bd 7ff7 a63d
000003b0: c003 493d 0cbd dd3b 2d5c 113e 2a9d 25be
000003c0: d735 6e3e 0b82 d93d de5e 5e3e 87e2 143e
000003d0: 221d 733e 166c c53e 0981 58be ce3f 693e
000003e0: f120 aa3e 7efc 8f3e 54ba 4d3e ba6a 94be
000003f0: 9992 923d d858 613e 79de 1b3d 84bf 44bc

sat_layers.layer0_1.0.input_linear_layer1.bias f4 [32]
0.1308814 0.017876668 0.26763108 -0.1666473 0.26855978 0.08448328 0.002074327 0.030121488
-0.20726468 -0.19325973 -0.17391759 0.012947315 -0.2990847 -0.057440814 0.30675256 0.15916733
0.0630603 0.17619675 -0.098192886 0.19727226 -0.19721664 -0.20262516 -0.22508316 -0.22298354
-0.06791672 -0.2700996 0.081164025 -0.13656814 -6.874363e-05 0.023750706 -0.26909363 0.30846846
00000000: c605 063e 1772 923c f106 893e 97a5 2abe
00000010: ab80 893e 9205 ad3d 6ff1 073b 57c1 f63c
00000020: 313d 54be e1e5 45be 7417 32be fa20 543c
00000030: a121 99be 0f47 6bbd ac0e 9d3e c3fc 223e
00000040: c225 813d ec6c 343e 5a19 c9bd bd01 4a3e
00000050: 29f3 49be f87c 4fbe 337c 66be cc55 64be
00000060: ec17 8bbd 7f4a 8abe 5339 a63d 85d8 0bbe
00000070: 752a 90b8 d790 c23c a4c6 89be 94ef 9d3e

sat_layers.layer0_1.0.input_linear_layer2.weight f4 [32, 32]
0.17996147 0.113537244 -0.06737621 0.14100033 0.11588264 -0.12217853 -0.14273888 0.018619947
-0.05936762 0.013152395 0.068502344 0.015773525 0.05722222 0.038673464 -0.12314084 0.0142801255
0.0014875473 0.10554003 -0.006525787 0.05143472 -0.1752623 0.14481361 0.17749608 0.16003549
0.068761356 0.12117024 0.01278983 -0.110654496 -0.03753844 0.010706819 -0.03879305 0.009890808
0.09126284 0.11507637 0.17104311 0.044774566 -0.012846242 -0.0040936614 -0.027265664 -0.09381814
0.12841354 0.1601776 -0.09729268 0.04045765 -0.0860333 -0.1821833 -0.09708258 -0.22520165
-0.07247911 0.10680384 0.11342707 0.09618653 -0.0062185824 0.21430594 -0.15935402 0.08050505
0.003220454 0.11937943 0.24590084 -0.121108465 0.05335788 0.02714697 0.01656306 -0.071476445
-0.04027999 -0.14153688 -0.11779399 0.1361631 0.12932813 0.042134073 0.080740325 0.01156421
-0.017919889 -0.19082128 0.043664034 -0.15423165 -0.07999879 -0.05891627 0.122213036 0.2230561
0.048150737 -0.10901963 -0.120902956 0.15510012 -0.12204785 -0.114515804 -0.11413297 -0.20567136
-0.09483284 -0.22048111 -0.19116403 -0.16311838 0.1576693 -0.20575756 0.20685245 -0.017913263
-0.1300532 0.1446251 -0.022048457 -0.084526114 -0.0019398751 0.060159802 -0.14580125 0.005312253
0.024380455 -0.083735935 0.019413386 -0.054814596 -0.09707737 0.12668583 -0.10585443 0.0060798964
0.06247166 -0.12999824 0.06536049 -0.119720906 0.1514996 0.070845604 -0.042302698 -0.121098
0.009906423 0.063043706 -0.09662349 -0.04104485 -0.17244183 -0.14513347 0.015648732 0.1140378
-0.09814794 0.14421858 -0.11072258 -0.024407834 -0.070949934 -0.13412611 0.11688243 0.06163227
-0.043797597 0.14357547 -0.2407545 -0.10871965 -0.17899041 -0.11862093 -0.09682887 -0.20622548
0.1999367 0.12569395 0.15253304 0.116899125 -0.080789015 0.22704788 0.089008294 0.14165147
0.056131955 0.279264 0.29764986 -0.23261343 -0.059262287 -0.24056521 0.21722452 0.024151327
-0.08479406 0.09437609 0.026500659 -0.06483932 0.05696611 0.09558998 -0.020841295 0.024337236
0.057681497 0.15292937 0.042232305 0.013142164 -0.006828269 -0.039037824 0.051448144 -0.21633054
-0.10494354 0.13747355 0.15830804 0.076380536 0.11941371 0.09384968 0.057070345 0.14467785
-0.06393742 0.05682879 0.10482733 -0.07152114 -0.15929447 0.008656884 0.15516192 -0.12942973
0.11742212 0.0906298 0.07515369 -0.082727164 -0.118368305 -0.022282388 0.03736053 -0.024366649
0.12046884 -0.13170058 -0.16483174 -0.047054444 0.062872134 -0.09742856 0.18846463 0.03304257
0.038704492 0.098563306 0.19547755 -0.01875326 -0.04664717 0.23384093 0.061229654 0.07625833
-0.05258445 0.18265116 0.21726577 -0.04880614 -0.10085785 -0.13258152 0.049130276 -0.0054617138
0.05037761 -0.20159963 -0.12281488 0.05197902 -0.06563526 -0.11282172 0.03768922 0.114211604
-0.08226458 -0.07165312 -0.036263615 0.08755721 -0.022424009 0.057082828 0.091901176 -0.07495501
-0.10830337 -0.0471311 -0.037663333 0.08132658 -0.014926657 0.01400533 0.04621249 -0.066067055
-0.16816552 0.01140003 -0.07537193 -0.007683056 -0.13531102 -0.09545216 0.07081627 0.046380147
00000000: d247 383e 3786 e83d 8afc 89bd 6462 103e
00000010: e153 ed3d bd38 fabd 242a 12be dc88 983c
00000020: 762b 73bd 257d 573c f54a 8c3d 7b37 813c
00000030: d961 6a3d 1168 1e3d 4431 fcbd 30f7 693c
00000040: cef9 c23a 5f25 d83d 45d6 d5bb 37ad 523d
00000050: f677 33be 054a 143e 88c1 353e 58e0 233e
00000060: c1d2 8c3d 1a28 f83d 6f8c 513c d39e e2bd
00000070: e8c1 19bd a76b 2f3c 76e5 1ebd 0e0d 223c
00000080: 03e8 ba3d 29ad eb3d ed25 2f3e 8965 373d
00000090: 0b79 52bc 1f24 86bb 3e5c dfbc ba23 c0bd
000000a0: d77e 033e 9905 243e 6241 c7bd ecb6 253d
000000b0: 3a32 b0bd 428e 3abe 3bd3 c6bd 439b 66be
000000c0: ed6f 94bd f9bb da3d 744c e83d 72fd c43d
000000d0: 40c5 cbbb 0473 5b3e b32d 23be d5df a43d
000000e0: 410e 533b 347d f43d 6ecd 7b3e b707 f8bd
000000f0: cb8d 5a3d 5363 de3c 41af 873c 3e62 92bd
00000100: a1fc 24bd 0bef 10be fa3d f1bd 576e 0b3e
00000110: 986e 043e c794 2c3d 2f5b a53d d077 3d3c
00000120: bbcc 92bc a766 43be 0fd9 323d e7ee 1dbe
00000130: 68d6 a3bd 3052 71bd d44a fa3d d168 643e
00000140: b539 453d af45 dfbd f89b f7bd 91d2 1e3e
00000150: 39f4 f9bd 4387 eabd 8cbe e9bd 839b 52be
00000160: b837 c2bd cdc5 61be 81c0 43be 8108 27be
00000170: 1074 213e 1cb2 52be 21d1 533e d6be 92bc
00000180: ab2c 05be 9a18 143e f79e b4bc 071c adbd
00000190: 6843 feba 206a 763d ec4c 15be 6812 ae3b
000001a0: 85b9 c73c bf7d abbd d208 9f3c 4585 60bd
000001b0: 80d0 c6bd eeb9 013e 35ca d8bd de39 c73b
000001c0: 49e2 7f3d 421e 05be b8db 853d 3c30 f5bd
000001d0: b622 1b3e 8017 913d 9845 2dbd 3a02 f8bd
000001e0: 8d4e 223c 0f1d 813d 89e2 c5bd a51e 28bd
000001f0: 9794 30be de9d 14be c531 803c a68c e93d
00000200: ca01 c9bd 09ae 133e 85c2 e2bd f0f2 c7bc
00000210: 334e 91bd 5b58 09be 0e60 ef3d 1f72 7c3d
00000220: 1c65 33bd 7305 133e 5988 76be 68a8 debd
00000230: 4349 37be 88ef f2bd 374e c6bd c62c 53be
00000240: 35bc 4c3e eab5 003e 9f31 1c3e cf68 ef3d
00000250: b674 a5bd 3d7f 683e fb49 b63d 150d 113e
00000260: 9fea 653d b1fb 8e3e 9065 983e 3732 6ebe
00000270: 03bd 72bd ba56 76be 1b70 5e3e 01d9 c53c
00000280: 82a8 adbd 4048 c13d e917 d93c 7aca 84bd
00000290: 4c55 693d aec4 c33d 5dbb aabc e25e c73c
000002a0: 6f43 6c3d 8499 1c3e c8fb 2c3d 3b52 573c
000002b0: acbf dfbb 20e6 1fbd 4abb 523d c185 5dbe
000002c0: a4ec d6bd dec5 0c3e 811b 223e 666d 9c3d
000002d0: 2d8f f43d 4334 c03d 98c2 693d 6e26 143e
000002e0: 9ff1 82bd 4ec5 683d b6af d63d ad79 92bd
000002f0: 171e 23be 9ad5 0d3c c4e2 1e3e 3a89 04be
00000300: 027b f03d 1e9c b93d 2eea 993d dc6c a9bd
00000310: 156b f2bd 8e89 b6bc 5b07 193d 919c c7bc
00000320: 5eb8 f63d 84dc 06be a7c9 28be 29bc 40bd
00000330: 1bc3 803d a088 c7bd dffc 403e a557 073d
00000340: 9a88 1e3d 8fdb c93d 442b 483e 70a0 99bc
00000350: 1a11 3fbd ff73 6f3e f2cb 7a3d 542d 9c3d
00000360: cb62 57bd e808 3b3e eb7a 5e3e f2e8 47bd
00000370: 8f8e cebd 73c3 07be d43c 493d 2df8 b2bb
00000380: c158 4e3d 2270 4ebe 5e86 fbbd f4e7 543d
00000390: c76b 86bd 130f e7bd 0360 1a3d c6e7 e93d
000003a0: 557a a8bd dfbe 92bd 2889 14bd 3251 b33d
000003b0: 8eb2 b7bc afcf 693d af36 bc3d 0382 99bd
000003c0: 28ce ddbd 8a0c 41bd de44 1abd 8d8e a63d
000003d0: f08e 74bc 9d76 653c 4f49 3d3d 2a4e 87bd
000003e0: 9533 2cbe 31c7 3a3c 995c 9abd 25c2 fbbb
000003f0: f98e 0abe 6c7c c3bd 1f08 913d 1cf9 3d3d

sat_layers.layer0_1.0.input_linear_layer2.bias f4 [32]
0.098664306 0.064623505 0.07509667 0.049291853 -0.028726 -0.020446947 0.037080914 -0.18147466
-0.014393903 -0.02942961 -0.09163224 -0.08383836 -0.17338772 0.17850053 0.08139461 0.0946936
-0.16158071 -0.16868724 0.1764574 -0.016199306 0.021545237 0.086338356 0.014122044 0.02425915
0.114014216 0.16338715 -0.032753516 -0.178577 -0.055361792 0.08319534 0.02785617 0.13252969
00000000: 8310 ca3d 5459 843d 48cc 993d 41e6 493d
00000010: ca52 ebbc 5b80 a7bc 28e2 173d 7ed4 39be
00000020: 68d4 6bbc 5e16 f1bc afa9 bbbd 72b3 abbd
00000030: 8d8c 31be d8c8 363e 38b2 a63d b8ee c13d
00000040: 6a75 25be 59bc 2cbe 40b1 343e 68b4 84bc
00000050: a37f b03c 2ad2 b03d 2560 673c 20bb c63c
00000060: 4980 e93d f64e 273e 8d28 06bd e4dc 36be
00000070: 0cc3 62bd 5262 aa3d 9f32 e43c ddb5 073e
